result_eegneteca_cv5/fold_2/best_model_fold2.pth (torch, 22590 bytes, 19 tensors)

conv_time.weight f4 [8, 1, 1, 64]
-0.019343471 0.0023694902 0.05375741 -0.08413914 0.055217348 0.08776521 -0.026320376 -0.06695889
0.0897428 0.040400814 0.05957395 0.035280824 0.073784694 -0.07474001 0.102831356 0.014465252
0.0608005 0.10079569 0.116743945 -0.017070679 0.11871622 0.054352123 0.10293317 -0.0014244162
0.0133075435 -0.0097408155 -0.08691093 0.066364214 0.05116818 -0.05980378 -0.15708676 0.0038785145
-0.086180285 -0.122131705 -0.028838938 -0.18560351 -0.08827675 -0.08519498 -0.026813136 -0.10692956
-0.1835094 0.013461295 -0.0015340152 -0.11798952 -0.037269685 -0.14101098 0.017123042 -0.054909337
-0.10078227 0.046024248 -0.07276012 0.06835611 0.07468005 -0.12610018 -0.09803977 0.078930385
-0.06640446 0.062472716 0.08999901 0.022097876 -0.048669986 0.017622212 0.07014375 0.1844301
0.13562123 0.049251128 0.07925711 0.05327901 0.08463282 0.06424062 0.10748088 0.070053495
-0.06183303 0.07358691 0.04932288 0.0036931226 -0.10700395 0.123118885 -0.065460645 0.06039537
-0.038151607 0.077520594 0.054407913 0.12255039 0.10215497 0.054314207 0.13896516 0.20242254
0.061663464 0.022037033 0.1374983 -0.00890023 0.031730887 0.018401064 -0.08391675 -0.013307615
0.036412824 0.09185608 -0.03840767 0.0028966663 0.15629248 0.016601373 0.00019420397 0.19028841
0.16652295 0.013602343 0.027300982 0.01588003 0.1441091 -0.069264464 -0.025168102 0.005147106
0.00017091069 0.0523047 -0.08588548 -0.028946249 0.15009649 -0.058093145 -0.023027534 0.1299997
0.077198505 0.07215652 -0.073852405 0.0941693 0.08918821 0.059672553 -0.022333952 0.04769015
-0.05209839 0.0635505 -0.015464735 -0.07186558 0.0771401 -0.023262095 -0.09329746 0.009091446
0.08238775 -0.010917382 -0.025520055 -0.013878401 0.033569768 -0.05229563 0.0829167 -0.093321845
0.080435045 -0.030272348 -0.0175216 -0.01914442 0.037891462 0.12033917 -0.051338226 -0.0022900177
-0.0070665358 -0.033437107 0.12510161 0.07791913 0.00790237 -0.042671245 0.107992135 0.04215181
0.064762756 0.086272225 0.12282145 -0.0093289465 0.041768234 0.12668434 0.1400143 0.05729831
0.063729994 0.12759997 0.1490511 0.021581287 0.1948502 0.076075025 0.0932369 0.1087671
0.06648945 0.12811889 0.16596292 -0.0054779537 0.15952504 0.002458512 0.13463071 0.027107164
0.12800638 0.05336793 -0.010428444 -0.035189673 0.046798076 0.11140421 -0.03775193 0.08297666
0.10824874 -0.027791778 -0.086758904 -0.14297277 -0.011039136 -0.023163937 0.05873762 -0.026975181
-0.09047704 -0.087237544 -0.112823226 -0.073691264 -0.015670752 0.022487892 -0.0011557123 -0.040329337
-0.08693374 -0.24679926 -0.0965405 -0.01540274 0.08546836 -0.03197077 -0.1107699 -0.09902458
-0.022763839 -0.04697111 -0.057827584 -0.01581362 -0.08102881 -0.07079374 0.06691892 -0.093464635
0.06374431 -0.049150616 -0.04245432 0.045320418 0.00053288694 -0.056287255 0.059276536 -0.005344156
-0.021037882 0.10364856 0.029884107 -0.043154705 0.10658728 0.0878492 0.0005985399 -0.096746236
-0.10693449 0.10544052 0.051892668 0.10647877 0.034405526 0.0476796 0.125753 -0.03880867
-0.09714619 0.053730294 0.044799745 -0.045234542 0.080600254 0.05454891 -0.058230598 0.10189555
00000000: 3376 9ebc 7349 1b3b bb30 5c3d 2451 acbd
00000010: 962b 623d 3fbe b33d d49d d7bc be21 89bd
00000020: 13cb b73d 537b 253d d003 743d a082 103d
00000030: 6e1c 973d 4a11 99bd 3f99 d23d aaff 6c3c
00000040: f209 793d f96d ce3d 7317 ef3d cfd7 8bbc
00000050: 7d21 f33d 55a0 5e3d a0ce d23d 7ab3 baba
00000060: e207 5a3c f197 1fbc 5cfe b1bd f6e9 873d
00000070: ba95 513d cff4 74bd 5adb 20be ad2e 7e3b
00000080: 4a7f b0bd 3020 fabd a33f ecbc d90e 3ebe
00000090: 71ca b4bd b57a aebd 39a7 dbbc e3fd dabd
000000a0: e3e9 3bbe c38c 5c3c 0211 c9ba 7da4 f1bd
000000b0: 19a8 18bd 2f65 10be 9f45 8c3c 9de8 60bd
000000c0: ef66 cebd ec83 3c3d 4203 95bd 4afe 8b3d
000000d0: dbf1 983d 6820 01be 13c9 c8bd 41a6 a13d
000000e0: 10ff 87bd 64e3 7f3d 6751 b83d 9b06 b53c
000000f0: 2e5a 47bd 755c 903c 87a7 8f3d 3edb 3c3e
00000100: 4be0 0a3e 8dbb 493d 8d51 a23d 173b 5a3d
00000110: f953 ad3d 9690 833d f01e dc3d 3578 8f3d
00000120: a244 7dbd bcb4 963d ca06 4a3d 5108 723b
00000130: e324 dbbd c125 fc3d 3b10 86bd 2361 773d
00000140: dc44 1cbd 1ec3 9e3d d5da 5e3d b3fb fa3d
00000150: a036 d13d 9378 5e3d e24c 0e3e db47 4f3e
00000160: d492 7c3d 0287 b43c 5bcc 0c3e 45d2 11bc
00000170: 3ff8 013d d4bd 963c 8cdc abbd 2f08 5abc
00000180: 9d25 153d 0a1f bc3d 5c51 1dbd ffd5 3d3b
00000190: 230b 203e 9aff 873c 3ba3 4b39 f7da 423e
000001a0: fe84 2a3e 5ddc 5e3c 4fa6 df3c d616 823c
000001b0: 5691 133e 87da 8dbd 562d cebc 0ea9 a83b
000001c0: 7d36 3339 743d 563d bae4 afbd af20 edbc
000001d0: e5b2 193e 14f3 6dbd 3da4 bcbc a41e 053e
000001e0: 401a 9e3d ccc6 933d ee3f 97bd d5db c03d
000001f0: 4fa8 b63d 356b 743d b1f5 b6bc bf56 433d
00000200: 1f65 55bd c426 823d cd5f 7dbc 432e 93bd
00000210: a1fb 9d3d 2690 bebc bd12 bfbd 4af4 143c
00000220: e9ba a83d d2de 32bc 6f0f d1bc 3c62 63bc
00000230: 7480 093d f133 56bd 3bd0 a93d 861f bfbd
00000240: 21bb a43d b7fd f7bc 7589 8fbc c2d4 9cbc
00000250: 1434 1b3d 6274 f63d 0848 52bd 1f14 16bb
00000260: 668e e7bb 59f5 08bd a31a 003e 1194 9f3d
00000270: f178 013c 0bc8 2ebd fb2a dd3d 60a7 2c3d
00000280: 56a2 843d 7eaf b03d d089 fb3d 70d8 18bc
00000290: 2b15 2b3d 8ab9 013e e95f 0f3e a2b1 6a3d
000002a0: df84 823d 91a9 023e daa0 183e 3dcb b03c
000002b0: d086 473e 39cd 9b3d fdf2 be3d 49c1 de3d
000002c0: 9f2b 883d 9931 033e 2ff2 293e 6880 b3bb
000002d0: 885a 233e fd1e 213b a2dc 093e d80f de3c
000002e0: 1b14 033e 5598 5a3d 10dc 2abc 0c23 10bd
000002f0: 57af 3f3d e427 e43d c5a1 1abd abef a93d
00000300: 84b1 dd3d 95ab e3bc a7ae b1bd 7467 12be
00000310: 7edd 34bc 4cc2 bdbc dc96 703d 0efb dcbc
00000320: 074c b9bd 99a9 b2bd dd0f e7bd 72eb 96bd
00000330: f35f 80bc 8738 b83c 457b 97ba 6030 25bd
00000340: 510a b2bd f2b8 7cbe 07b7 c5bd c65b 7cbc
00000350: 090a af3d c8f3 02bd 54db e2bd 66cd cabd
00000360: 3b7b babc c764 40bd 9edc 6cbd 918b 81bc
00000370: 6ff2 a5bd 4ffc 90bd c90c 893d 636a bfbd
00000380: 608c 823d 2852 49bd 95e4 2dbd e7a1 393d
00000390: 70b1 0b3a 778d 66bd f4cb 723d 081e afbb
000003a0: a357 acbc b245 d43d 84cf f43c fdc2 30bd
000003b0: 6f4a da3d 48ea b33d 55e7 1c3a e422 c6bd
000003c0: 7800 dbbd 33f1 d73d 688d 543d 8b11 da3d
000003d0: cfec 0c3d af4b 433d 65c5 003e d7f5 1ebd
000003e0: 95f4 c6bd 4c14 5c3d f07f 373d db47 39bd
000003f0: bf11 a53d ae6e 5f3d 3583 6ebd 9dae d03d

bn1.weight f4 [8]
1.0569953 1.304744 1.0029271 1.0948421 1.3598163 1.377888 1.3937176 1.3391597
00000000: 9f4b 873f da01 a73f ea5f 803f c923 8c3f
00000010: 760e ae3f a25e b03f 5765 b23f 9669 ab3f

bn1.bias f4 [8]
-0.045618653 -0.033190496 0.0015960805 -0.028504347 -0.0004474785 0.028764624 0.03531343 0.026863117
00000000: a0da 3abd c2f2 07bd 9333 d13a f381 e9bc
00000010: 8c9b eab9 caa3 eb3c d1a4 103d 0a10 dc3c

bn1.running_mean f4 [8]
0.0004686733 -0.0005903784 -0.001413781 -0.00051293505 0.00016421132 0.00014750799 0.0003740274 -0.000527621
00000000: 44b8 f539 a0c3 1aba 9e4e b9ba 7d76 06ba
00000010: 2430 2c39 60ac 1a39 1c19 c439 0c50 0aba

bn1.running_var f4 [8]
1.149975 0.39021775 0.5243833 0.4365236 1.2160969 0.6102725 0.59553206 0.46094808
00000000: 6132 933f 9fca c73e fc3d 063f 0580 df3e
00000010: 10a9 9b3f d23a 1c3f ca74 183f 6301 ec3e

conv_depth.weight f4 [16, 1, 22, 1]
-0.07228362 -0.0027790198 0.13323537 -0.10713523 0.055885907 -0.010822692 0.18411231 0.09263852
-0.08788474 -0.07738687 -0.05827749 0.07464367 -0.011118442 -0.1394335 -0.15404709 -0.06316761
0.08754169 0.09270522 0.03351071 -0.25180188 -0.01614047 0.45334437 -0.075212434 -0.023071777
0.2007391 0.04480683 -0.14008397 -0.048441246 0.0835489 0.030539919 -0.10169683 -0.1250697
0.05501776 0.18650797 -0.15845574 0.020487936 -0.17234509 0.08828179 0.10569461 0.020506445
-0.08172694 0.08258209 0.19227098 -0.21888101 -0.1390478 -0.0888454 -0.022282735 -0.16098335
0.11343591 0.000864685 0.0103058545 0.2715085 0.12837008 -0.14048603 0.06563698 0.0005353611
0.11007452 0.17856547 -0.076575756 0.03843504 -0.13005637 -0.14198165 0.07317908 0.11742784
-0.1707622 -0.053247698 0.06849879 -0.13623719 -0.103465416 -0.2320654 -0.08782991 0.034013316
-0.044955414 0.041020613 -0.16848831 0.11216191 0.07146031 -0.1013915 0.03390951 -0.1407589
0.18047197 -0.045514077 -0.02291189 0.1407821 0.23145787 0.14828232 0.011294664 0.06973756
0.054761462 0.07496114 -0.085834615 0.08875454 -0.0532877 -0.10549522 0.19714022 -0.016845157
-0.024278937 0.048135065 -0.074924596 -0.051269103 0.09895115 -0.25772157 -0.08492873 0.27355006
-0.072339416 -0.09083773 -0.26115856 0.1211819 0.113018624 0.16679624 0.083993725 -0.1438623
-0.11250937 0.070276506 0.073408715 0.074950986 0.110790044 -0.09503676 -0.08687215 0.13853516
-0.18682347 -0.17845564 0.13844799 0.011108412 0.16765477 -0.17161597 -0.061047792 0.19474858
0.2464378 0.20542558 -0.19331786 -0.29963282 -0.16086723 0.13276081 0.16362241 0.018470908
-0.19647895 -0.056688927 0.23877285 -0.08301002 -0.16468605 0.07089136 0.20680583 -0.011098959
0.21576074 -0.13350582 0.122781165 -6.3068444e-05 -0.03049526 0.15343994 0.119517714 -0.16178547
-0.065849744 0.12651373 0.10984605 0.050303664 -0.21599238 -0.027745027 0.2266887 0.04417771
-0.08708322 -0.116952926 -0.08258549 0.05010407 0.1790508 -0.019306784 -0.068917744 -0.18073925
0.0381463 -0.08508715 -0.06647469 0.0024206354 -0.1968704 -0.10717672 -0.010803033 -0.07787915
-0.055033658 0.06775975 -0.038398262 0.07533012 0.06539514 -0.09955671 -0.14250615 0.17933662
0.19323684 -0.11226801 -0.11593258 0.12219328 -0.009309946 0.14287384 -0.04230933 0.007782372
-0.20395719 0.15801457 0.024729509 -0.052725747 0.031334646 0.017223898 -0.11966833 -0.0003165013
0.077248864 0.124099955 0.05637443 -0.063011296 -0.0098133115 -0.15243582 -0.111378804 0.0935031
0.09356778 -0.14058281 -0.04157408 -0.23326913 0.15383483 0.008491192 0.09785745 -0.1271037
-0.1155576 0.084581085 0.18867376 0.12089915 -0.047173228 0.02708128 -0.09863525 0.12568305
-0.09446209 -0.05646882 0.018989194 -0.100177586 0.12506583 -0.22506538 0.00055368064 0.08108011
0.04356305 -0.1293315 0.23699613 0.031236162 -0.12743174 0.014448175 0.21990345 0.19482718
-0.031503376 -0.24408674 0.07805874 -0.08398749 -0.16540541 0.012161399 0.15798444 -0.08518365
-0.1767215 0.31552622 0.016163623 -0.24692264 0.049294382 -0.10782661 0.02759686 0.2516716
00000000: 6f09 94bd 3720 36bb da6e 083e b769 dbbd
00000010: 9fe8 643d a951 31bc f087 3c3e 44b9 bd3d
00000020: eafc b3bd 027d 9ebd 61b4 6ebd c8de 983d
00000030: 202a 36bc a8c7 0ebe 85be 1dbe 055e 81bd
00000040: 0f49 b33d 3cdc bd3d 8742 093d 2dec 80be
00000050: 0539 84bc c11c e83e fa08 9abd 0601 bdbc
00000060: 8d8e 4d3e 5e87 373d 2c72 0fbe 546a 46bd
00000070: b01b ab3d da2e fa3c 6d46 d0bd 4512 00be
00000080: 4d5a 613d f2fb 3e3e 3942 22be 51d6 a73c
00000090: 3b7b 30be 15cd b43d 6a76 d83d 22fd a73c
000000a0: 7460 a7bd cc20 a93d afe2 443e 5822 60be
000000b0: 8c62 0ebe 94f4 b5bd 488a b6bc d2d8 24be
000000c0: 1651 e83d 07ac 623a e3d9 283c 2a03 8b3e
000000d0: 7273 033e 92db 0fbe ae6c 863d 7a57 0c3a
000000e0: c06e e13d ded9 363e c0d3 9cbd 0f6e 1d3d
000000f0: 7f2d 05be a363 11be eade 953d 027e f03d
00000100: 49dc 2ebe 421a 5abd 1849 8c3d c381 0bbe
00000110: ade5 d3bd 8da2 6dbe 2be0 b3bd 8c51 0b3d
00000120: 2b23 38bd 3b05 283d 3388 2cbe 25b5 e53d
00000130: c859 923d 59a6 cfbd b3e4 0a3d 1a23 10be
00000140: a5cd 383e f86c 3abd b7b1 bbbc 2f29 103e
00000150: 4b03 6d3e 52d7 173e 410d 393c 91d2 8e3d
00000160: 8e4d 603d 3a85 993d 0fca afbd f1c4 b53d
00000170: 3444 5abd e10d d8bd 20df 493e dbfe 89bc
00000180: 9fe4 c6bc 4629 453d 1172 99bd 8dff 51bd
00000190: e7a6 ca3d 15f4 83be 1def adbd c10e 8c3e
000001a0: b026 94bd 2209 babd 93b6 85be 372e f83d
000001b0: 4f76 e73d a2cc 2a3e e704 ac3d a450 13be
000001c0: 506b e6bd 21ed 8f3d 4f57 963d e77f 993d
000001d0: e4e5 e23d a2a2 c2bd 07ea b1bd 29dc 0d3e
000001e0: a74e 3fbe 13bd 36be 4fc5 0d3e 0f00 363c
000001f0: b1ad 2b3e 19bc 2fbe 400d 7abd 2c6c 473e
00000200: 315a 7c3e 155b 523e 1ef5 45be 7969 99be
00000210: 61ba 24be 73f2 073e a28c 273e 4d50 973c
00000220: c731 49be a632 68bd df80 743e 2801 aabd
00000230: 76a3 28be 7d2f 913d e8c4 533e 68d8 35bc
00000240: 62f0 5c3e c0b5 08be b174 fb3d 9d43 84b8
00000250: 32d1 f9bc 5c1f 1d3e b4c5 f43d 17ab 25be
00000260: 3bdc 86bd d18c 013e f7f6 e03d 370b 4e3d
00000270: 1b2d 5dbe 8a49 e3bc 1521 683e b0f3 343d
00000280: b058 b2bd 0485 efbd 9522 a9bd ed39 4d3d
00000290: 1859 373e 4329 9ebc bf24 8dbd b613 39be
000002a0: 4b3f 1c3d 2c42 aebd e223 88bd 86a3 1e3b
000002b0: 6598 49be 787f dbbd 34ff 30bc 1b7f 9fbd
000002c0: f96a 61bd a0c5 8a3d 7f47 1dbd ae46 9a3d
000002d0: e3ed 853d 63e4 cbbd 22ed 11be 05a4 373e
000002e0: e1df 453e c5ec e5bd 0f6e edbd 7840 fa3d
000002f0: be88 18bc 854d 123e 8c4c 2dbd 4503 ff3b
00000300: 27da 50be 92ce 213e 8a95 ca3c f4f6 57bd
00000310: c258 003d 2219 8d3c ab14 f5bd 16f0 a5b9
00000320: a734 9e3d 1e28 fe3d e0e8 663d 110c 81bd
00000330: 03c8 20bc 2318 1cbe 921a e4bd 8e7e bf3d
00000340: 77a0 bf3d f1f4 0fbe 9549 2abd 1ade 6ebe
00000350: e186 1d3e a41e 0b3c 7d69 c83d 7927 02be
00000360: 77a9 ecbd d938 ad3d b233 413e f999 f73d
00000370: b738 41bd 8fd9 dd3c 4701 cabd 0fb3 003e
00000380: 5775 c1bd d94b 67bd 3a8f 9b3c e829 cdbd
00000390: 4211 003e 8a77 66be e124 113a 540d a63d
000003a0: 2b6f 323d 7a6f 04be 1daf 723e fbe2 ff3c
000003b0: 777d 02be 0ab8 6c3c 5f2e 613e c780 473e
000003c0: af09 01bd e0f1 79be 43dd 9f3d a201 acbd
000003d0: 0960 29be 9b40 473c acc6 213e c474 aebd
000003e0: 7bf6 34be a78c a13e 9369 843c 4ad9 7cbe
000003f0: e8e8 493d 33d4 dcbd cf12 e23c 1adb 803e

bn2.weight f4 [16]
1.0477749 0.9552589 1.3043631 1.1373094 0.98734224 0.9637737 1.1249781 1.0250225
1.235446 1.2769256 0.99999213 1.4383963 1.397418 1.2194287 1.2564245 1.1700239
00000000: 7d1d 863f d98b 743f 5ff5 a63f 5b93 913f
00000010: 76c2 7c3f e0b9 763f 48ff 8f3f f033 833f
00000020: 1823 9e3f 4c72 a33f 7cff 7f3f 5f1d b83f
00000030: 98de b23f 3d16 9c3f 85d2 a03f 58c3 953f

bn2.bias f4 [16]
-0.27147007 -0.122785285 -0.5487879 -0.32577127 -0.22917508 -0.26301494 -0.45008737 -0.3855328
-0.5818148 -0.42390653 -0.14420709 -0.62985826 -0.6598477 -0.4849283 -0.42467013 -0.427068
00000000: 20fe 8abe da76 fbbd 5d7d 0cbf 7ecb a6be
00000010: dfac 6abe e5a9 86be da71 e6be 8e64 c5be
00000020: d1f1 14bf 470a d9be 06ab 13be 643e 21bf
00000030: c7eb 28bf 8648 f8be 5d6e d9be a8a8 dabe

bn2.running_mean f4 [16]
-0.0070852805 0.0014664765 0.0005906527 -0.0015295447 -3.620814e-05 -0.00021611461 -0.014322934 0.01792082
-4.0620387e-05 8.761653e-05 -0.0011341632 0.001041262 -0.00095803203 -0.005568617 0.0025470983 -0.00100745
00000000: a42b e8bb c936 c03a 08d6 1a3a 017b c8ba
00000010: 32de 17b8 d39c 62b9 bdaa 6abc afce 923c
00000020: cf5f 2ab8 c4be b738 34a8 94ba f47a 883a
00000030: 7124 7bba f278 b6bb 38ed 263b 6a0c 84ba

bn2.running_var f4 [16]
0.051343437 0.01320028 0.16280702 0.30716628 0.012622344 0.01871146 0.23961315 0.48365974
0.088689856 0.10618038 0.039147455 0.07281036 0.15418337 0.13868958 0.122364655 0.16639407
00000000: 7f4d 523d fd45 583c e2b6 263e e644 9d3e
00000010: f3cd 4e3c c748 993c 265d 753e 40a2 f73e
00000020: 07a3 b53d 1975 d93d 1559 203d 991d 953d
00000030: 3fe2 1d3e a404 0e3e 529a fa3d 3563 2a3e

conv_sep.0.weight f4 [16, 1, 1, 16]
0.16652142 -0.033190947 -0.12412081 -0.15706952 -0.074951656 -0.011249515 -0.17458412 0.040897857
0.20357858 0.23717311 0.20247146 0.088393874 -0.112825 -0.19640385 -0.18893506 -0.23146403
0.07876985 -0.21673404 -0.16292727 -0.3082903 -0.35250822 -0.009520995 -0.13982028 0.12961118
0.01220818 0.12006286 -0.10258564 0.14550261 0.05153082 -0.07165629 -0.005809639 -0.092649296
0.18095025 0.14748393 0.19742978 0.19549058 0.058181785 0.23776889 0.17755848 0.03570208
0.065875135 0.12202444 -0.04478717 -0.008482777 0.13798079 -0.008968605 -0.022899622 0.018404657
-0.074898064 -0.07793963 -0.006583152 0.026426123 0.11482757 -0.029076668 -0.12854137 -0.04337481
-0.13561587 -0.15821959 -0.20713188 -0.2635585 -0.28005654 -0.081297494 0.017985214 -0.07635329
0.029351695 0.20836534 -0.16039146 0.08465806 0.030634005 0.10925559 -0.2817771 -0.08271533
-0.27967328 0.024289763 -0.28729585 -0.13565461 -0.21495873 -0.2439579 -0.12805474 0.020624463
0.07114294 0.16919522 0.0071010455 0.0048652347 0.19793805 0.10561728 -0.14370526 -0.11696702
0.05828901 -0.18390363 -0.1030005 -0.07863655 0.059749287 -0.29376125 -0.20210554 -0.023825334
-0.07581503 0.10234777 -0.10725823 -0.14405052 -0.10415055 -0.20589006 -0.1408022 -0.016582863
-0.2229915 -0.21116257 -0.056841686 -0.0102314325 -0.17259438 -0.00056263595 -0.08947503 -0.13230889
-0.18002057 0.11361414 0.26869956 0.1565524 0.2796324 -0.031196997 0.18530029 -0.088361375
0.2124928 0.12368755 0.07376264 -0.04058175 -0.122379646 0.11669462 -0.03295616 0.14351866
-0.11630265 -0.10287708 -0.25210395 -0.23208751 -0.1892156 -0.1998291 -0.16316144 -0.112537906
0.05586152 -0.04385947 -0.113854095 -0.0013473753 -0.107422896 0.1219528 -0.0021090517 -0.18835467
0.08331523 0.21243246 0.27201536 0.18941689 0.23612778 0.2530948 0.14339063 0.009601696
0.11462835 -0.11284828 -0.013004467 -0.11921083 -0.05842852 0.12588817 0.09481955 0.12574711
0.1739965 0.35175067 0.0722952 0.2272001 0.10628225 0.34839174 -0.01718008 0.03489942
-0.09240115 -0.017491365 -0.090972185 -0.23850504 -0.033926003 -0.16147028 0.12181972 0.028942587
-0.12712343 -0.13017471 -0.22248986 -0.15234298 -0.24264887 0.0059558265 0.060461573 -0.05566954
-0.098995335 0.059934743 -0.10068342 -0.22074407 -0.1295382 -0.21797162 -0.2632233 -0.14265008
-0.29820266 -0.0071804267 -0.17186698 -0.09711053 0.032684132 -0.19891106 -0.072537154 -0.08962418
0.13871722 -0.14124407 -0.1748915 -0.119443566 -0.13858333 -0.18639332 -0.1364431 -0.23085897
0.28898937 0.36084878 0.2780521 0.12465965 -0.020465735 0.0961092 0.19459398 0.063013114
-0.026930602 -0.014397067 0.117879935 0.04246504 0.10057413 0.0074258735 0.058551252 -0.15069364
0.06950008 -0.024462108 0.07490455 -0.05241439 -0.096947506 -0.19653255 -0.15736192 -0.2089378
-0.16799025 -0.14617078 -0.13211906 -0.1141476 -0.21918221 -0.13309734 -0.05611658 -0.09236862
-0.17811184 -0.14061007 0.10940252 -0.12030543 -0.018617058 -0.0153312 -0.0023692243 0.042763997
0.0097033745 0.019463796 -0.1620234 -0.19516407 -0.2664464 -0.10619926 -0.31802967 -0.13232596
00000000: 9784 2a3e 3bf3 07bd 0d33 febd d5d6 20be
00000010: 4180 99bd e34f 38bc 2ec6 32be 8384 273d
00000020: e776 503e 82dd 723e ae54 4f3e d907 b53d
00000030: cb10 e7bd 171e 49be 3178 41be e804 6dbe
00000040: 1652 a13d 87ef 5dbe 68d6 26be 3ad8 9dbe
00000050: f57b b4be f3fd 1bbc 0c2d 0fbe cbb8 043e
00000060: d104 483c 84e3 f53d 6c18 d2bd a3fe 143e
00000070: fb11 533d 88c0 92bd c95e bebb eabe bdbd
00000080: 064b 393e 0706 173e 082b 4a3e af2e 483e
00000090: 0650 6e3d b079 733e e4d1 353e 583c 123d
000000a0: 8be9 863d f3e7 f93d c072 37bd 58fb 0abc
000000b0: d64a 0d3e 0ef1 12bc fd97 bbbc 5dc5 963c
000000c0: 2864 99bd d09e 9fbd 7bb7 d7bb 997b d83c
000000d0: b82a eb3d 3132 eebc 59a0 03be c9a9 31bd
000000e0: e3de 0abe 5104 22be 611a 54be 24f1 86be
000000f0: 9263 8fbe 4d7f a6bd ba55 933c 1d5f 9cbd
00000100: f772 f03c b95d 553e a93d 24be 3461 ad3d
00000110: 2af4 fa3c 65c1 df3d 1745 90be a866 a9bd
00000120: 5631 8fbe 53fb c63c 7118 93be 0be9 0abe
00000130: 241e 5cbe 1ad0 79be c820 03be a2f4 a83c
00000140: 64b3 913d 8341 2d3e e3af e83b 8c6c 9f3b
00000150: 46b0 4a3e df4d d83d 7927 13be 688c efbd
00000160: 75c0 6e3d 3c51 3cbe edf1 d2bd 330c a1bd
00000170: abbb 743d e067 96be c1f4 4ebe 592d c3bc
00000180: e944 9bbd b59b d13d 34aa dbbd fb81 13be
00000190: e24c d5bd d8d4 52be 742e 10be c9d8 87bc
000001a0: e257 64be 003b 58be d4d2 68bd bda1 27bc
000001b0: 95bc 30be dc7d 13ba af3e b7bd fb7b 07be
000001c0: 5057 38be 88ae e83d fd92 893e 464f 203e
000001d0: fa2b 8f3e d890 ffbc 5cbf 3d3e cff6 b4bd
000001e0: b697 593e e64f fd3d de10 973d 0d39 26bd
000001f0: 2ea2 fabd 97fd ee3d 0afd 06bd 8ef6 123e
00000200: 1530 eebd 38b1 d2bd c513 81be 59a8 6dbe
00000210: bcc1 41be 00a0 4cbe cb13 27be 467a e6bd
00000220: 0dcf 643d fda5 33bd 562c e9bd 6a9a b0ba
00000230: 8900 dcbd 64c2 f93d 0438 0abb 0ce0 40be
00000240: 2da1 aa3d e587 593e 9945 8b3e 80f6 413e
00000250: 7bcb 713e a495 813e fed4 123e 6f50 1d3c
00000260: 45c2 ea3d 001d e7bd b010 55bc cf24 f4bd
00000270: be52 6fbd d4e8 003e c130 c23d dac3 003e
00000280: 232c 323e aa18 b43e 810f 943d 25a7 683e
00000290: 82aa d93d 6760 b23e 3dbd 8cbc b2f2 0e3d
000002a0: d03c bdbd 0d4a 8fbc a04f babd aa3a 74be
000002b0: fef5 0abd 7758 25be 9e7c f93d 0119 ed3c
000002c0: a52c 02be 854c 05be 62d4 63be ccff 1bbe
000002d0: f278 78be 1829 c33b 8ea6 773d be05 64bd
000002e0: 11be cabd 227e 753d 1c33 cebd bc0a 62be
000002f0: a9a5 04be f433 5fbe 34c5 86be dd12 12be
00000300: 05ae 98be c949 ebbb e6fd 2fbe e3e1 c6bd
00000310: ccdf 053d 57af 4bbe 5c8e 94bd e28c b7bd
00000320: e30b 0e3e 49a2 10be c216 33be d49e f4bd
00000330: cae8 0dbe e4dd 3ebe bdb7 0bbe 4b66 6cbe
00000340: 6af6 933e 2cc1 b83e d85c 8e3e 8f4d ff3d
00000350: c2a7 a7bc e6d4 c43d a543 473e 050d 813d
00000360: 919d dcbc ade1 6bbc 096b f13d d2ef 2d3d
00000370: cff9 cd3d be54 f33b 70d3 6f3d 6f4f 1abe
00000380: 0f56 8e3d c264 c8bc 8f67 993d 79b0 56bd
00000390: 6a8c c6bd d43f 49be 7c23 21be caf3 55be
000003a0: a305 2cbe cbad 15be 384a 07be 38c6 e9bd
000003b0: 4d71 60be ab4a 08be 80da 65bd c22b bdbd
000003c0: f362 36be 16fc 0fbe 6e0e e03d b162 f6bd
000003d0: cd82 98bc b72f 7bbc fd44 1bbb 4d29 2f3d
000003e0: e7fa 1e3c 8a72 9f3c 76e9 25be 17d9 47be
000003f0: aa6b 88be ff7e d9bd c9d4 a2be 7580 07be

conv_sep.1.weight f4 [16, 16, 1, 1]
-0.1776734 0.13361515 0.08906206 -0.19307521 0.02484592 0.08569031 -0.04224948 -0.12908566
0.26786467 -0.08547935 -0.11408471 -0.18299168 -0.13163531 -0.10542642 -0.23688188 0.060586452
-0.23305508 -0.21167909 -0.11952263 0.11676294 -0.05559578 0.29174516 0.33397594 -0.07382714
-0.046944126 -0.26633784 0.04067793 -0.18423146 0.17044313 -0.11689249 -0.11965506 -0.20024669
-0.18711998 0.057128675 -0.12711795 -0.04126708 -0.052142717 -0.04012115 -0.115888596 0.105808295
-0.16873601 -0.07582961 0.0016066846 0.023635032 -0.2598357 -0.13123682 0.04009837 -0.0793793
0.12331317 -0.18025151 -0.30927807 -0.014996203 0.017088575 0.07005202 -0.12800021 -0.104108475
0.018738475 -0.056976352 0.058591463 -0.083109125 -0.20176524 -0.13304281 0.33693796 0.108555086
-0.094628826 0.06781567 -0.05460747 0.14634171 -0.103654616 -0.061030854 -0.06964833 0.09767326
-0.025415983 -0.367678 0.10839055 -0.166066 -0.092856534 0.15156771 0.0680192 0.19364375
-0.14294074 -0.21102923 0.18482934 -0.33878526 0.19956996 -0.0046407753 -0.03898369 -0.069599025
0.072362915 -0.02977653 0.29345858 -0.1712244 0.19447626 -0.11639093 0.07593467 0.018746516
-0.17881244 0.19851282 -0.22346896 0.051713686 -0.22464716 0.23369747 -0.11600266 0.09114695
-0.03846666 -0.13925326 0.17084828 0.22222911 0.08981666 0.0010719429 0.046121977 0.14797089
0.10643344 -0.086878024 -0.17914142 -0.03240544 -0.12268531 0.13119823 -0.12632059 0.058039036
-0.19033495 -0.044125866 -0.06119071 -0.21041352 0.1285547 -0.05641193 -0.15052651 -0.09655903
-0.15364496 0.10913224 0.23401695 0.07864262 -0.111947924 0.08326888 -0.33508697 -0.073760174
0.061568484 0.04563883 0.06171094 -0.1268199 0.17414926 -0.1656623 0.21041287 0.28140762
0.005703152 -0.036938887 -0.028971605 -0.11077071 0.11683962 0.32675594 -0.0089716725 0.1646744
-0.17135839 0.27757227 0.19306928 -0.19231501 -0.1686505 0.21317014 -0.14461763 -0.024216976
-0.15555398 -0.25749716 -0.17059487 -0.12522529 -0.16935253 -0.12130476 0.22078985 0.00055680756
0.1643953 -0.09341143 -0.2744949 0.314636 -0.03678187 0.17694984 0.14339958 -0.120370954
-0.037980087 -0.113816336 -0.20375092 -0.04124613 -0.12658773 0.16088758 -0.10546081 0.043737333
0.13480799 0.059686106 -0.07988923 0.21032667 -0.18474843 -0.078377776 0.2111817 -0.09634776
-0.11402088 -0.020723142 0.26868498 -0.19245392 -0.17020209 0.22456133 0.08116139 0.13825831
-0.12186436 -0.10195456 -0.2597096 -0.035124015 -0.16732872 0.03550192 0.26617134 -0.0659727
0.17108254 -0.105933025 0.016335227 -0.052562594 0.17175822 -0.09738195 0.17475384 -0.07122417
0.0966073 0.0056811436 0.023107136 0.0060221367 -0.28483647 0.09959978 0.24476671 -0.3372779
-0.05403079 -0.171862 0.102900095 0.03334102 -0.06377926 -0.124149516 -0.09712591 0.18050376
0.10943678 0.15019315 0.059754502 0.0683503 0.14825946 0.30712524 0.11135261 -0.08735057
-0.3301202 0.072098345 -0.19237143 0.06580012 0.15996826 -0.17159514 -0.02073151 0.13622342
-0.16261017 -0.06053782 -0.13362683 0.0103863375 0.0971482 -0.17189015 -0.0020863556 -0.1821646
00000000: 04f0 35be 69d2 083e 2b66 b63d 82b5 45be
00000010: ac89 cb3c 677e af3d ca0d 2dbd 082f 04be
00000020: 8f25 893e cc0f afbd 3fa5 e9bd 2c62 3bbe
00000030: 68cb 06be cfe9 d7bd 2a91 72be 8029 783d
00000040: fea5 6ebe 67c2 58be 48c8 f4bd 6921 ef3d
00000050: 67b8 63bd 9f5f 953e e5fe aa3e af32 97bd
00000060: 7c48 40bd 6f5d 88be e79d 263d 2ca7 3cbe
00000070: a588 2e3e 5465 efbd b60d f5bd 780d 4dbe
00000080: 619c 3fbe c2ff 693d 352b 02be ab07 29bd
00000090: 9a93 55bd 1356 24bd 0057 edbd 05b2 d83d
000000a0: 22c9 2cbe 8e4c 9bbd 6497 d23a 419e c13c
000000b0: 2f09 85be f262 06be 303e 243d 9d91 a2bd
000000c0: 9e8b fc3d da93 38be b259 9ebe a2b2 75bc
000000d0: 57fd 8b3c 6f77 8f3d 7d12 03be d336 d5bd
000000e0: 6e81 993c 0960 69bd 9afd 6f3d 1e35 aabd
000000f0: 8c9b 4ebe 603c 08be 2283 ac3e 2152 de3d
00000100: c2cc c1bd f1e2 8a3d 15ac 5fbd 9ada 153e
00000110: df48 d4bd 7dfb 79bd c9a3 8ebd eb08 c83d
00000120: 2e35 d0bc 4a40 bcbe ddfb dd3d 350d 2abe
00000130: 912b bebd 9134 1b3e a64d 8b3d 8c4a 463e
00000140: 0f5f 12be 0c18 58be e743 3d3e 4375 adbe
00000150: 115c 4c3e a511 98bb 5dad 1fbd ef89 8ebd
00000160: 0233 943d e9ed f3bc 3440 963e 7355 2fbe
00000170: c924 473e 5e5e eebd a383 9b3d 4b92 993c
00000180: 9c1a 37be f246 4b3e 0cd5 64be bbd1 533d
00000190: e809 66be 644e 6f3e cd92 edbd 41ab ba3d
000001a0: 378f 1dbd 6898 0ebe daf2 2e3e 0790 633e
000001b0: ccf1 b73d 6f80 8c3a 66ea 3c3d ae85 173e
000001c0: c7f9 d93d 1bed b1bd d970 37be 91bb 04bd
000001d0: 7042 fbbd d458 063e 2f5a 01be 57ba 6d3d
000001e0: 2ae7 42be 53bd 34bd 1ca3 7abd a476 57be
000001f0: d8a3 033e 3210 67bd 9f23 1abe bec0 c5bd
00000200: 1b55 1dbe b980 df3d 24a2 6f3e 620f a13d
00000210: f444 e5bd e088 aa3d 8590 abbe 930f 97bd
00000220: 3c2f 7c3d c8ef 3a3d 9cc4 7c3d 13dd 01be
00000230: 2f54 323e 61a3 29be 7976 573e a914 903e
00000240: 82e1 ba3b 3b4d 17bd dc55 edbc c1db e2bd
00000250: 9c49 ef3d 8e4c a73e ecfd 12bc 68a0 283e
00000260: 9378 2fbe f41d 8e3e f4b3 453e 3aee 44be
00000270: b7b2 2cbe 4649 5a3e a516 14be ae62 c6bc
00000280: 8b49 1fbe abd6 83be 6cb0 2ebe 0f3b 00be
00000290: c06a 2dbe a16e f8bd bc16 623e b9f6 113a
000002a0: 3e57 283e 7e4e bfbd 988a 8cbe f817 a13e
000002b0: 96a8 16bd 5732 353e 57d7 123e 0c85 f6bd
000002c0: 0291 1bbd 8a18 e9bd 15a4 50be b4f1 28bd
000002d0: 37a0 01be b7bf 243e d6fb d7bd eb25 333d
000002e0: 1b0b 0a3e 6b79 743d f79c a3bd e05f 573e
000002f0: b12e 3dbe 8784 a0bd 0440 583e f951 c5bd
00000300: c783 e9bd 94c3 a9bc 1491 893e a412 45be
00000310: 7549 2ebe 68f3 653e f137 a63d 9693 0d3e
00000320: 0694 f9bd 8dcd d0bd a8f8 84be 33de 0fbd
00000330: 3858 2bbe 766a 113d 9c47 883e b21c 87bd
00000340: 4330 2f3e 6af3 d8bd 74d1 853c e04b 57bd
00000350: 63e1 2f3e 3070 c7bd acf2 323e fadd 91bd
00000360: 0cda c53d e328 ba3b 2d4b bd3c 5855 c53b
00000370: 16d6 91be f8fa cb3d 20a4 7a3e b0af acbe
00000380: 644f 5dbd 98fc 2fbe 49bd d23d 9890 083d
00000390: b39e 82bd 1a42 febd f3e9 c6bd fad5 383e
000003a0: 6420 e03d 3ccc 193e 23c1 743d 3efb 8b3d
000003b0: 54d1 173e 853f 9d3e d60c e43d dbe4 b2bd
000003c0: 8405 a9be 4ca8 933d 04fd 44be 37c2 863d
000003d0: b8ce 233e a3b6 2fbe 21d5 a9bc 277e 0b3e
000003e0: 4883 26be 81f6 77bd 79d5 08be 752b 2a3c
000003f0: a3f5 c63d f903 30be 3dbb 08bb 5b89 3abe

bn3.weight f4 [16]
1.4228505 1.4234967 1.2792187 1.4552196 1.4436505 1.4043407 1.4060218 1.2412233
1.3500265 1.2700233 1.3332293 1.3034875 1.4515613 1.3734696 1.3488748 1.436886
00000000: f71f b63f 2435 b63f 70bd a33f a344 ba3f
00000010: 8ac9 b83f 70c1 b33f 86f8 b33f 68e0 9e3f
00000020: abcd ac3f 2090 a23f 42a7 aa3f aed8 a63f
00000030: c3cc b93f dacd af3f eea7 ac3f e1eb b73f

bn3.bias f4 [16]
-0.0446014 -0.040259756 -0.10091329 -0.18847051 -0.09719577 -0.05301073 -0.20291398 0.017525636
-0.06010806 -0.16090892 -0.08859686 -0.117752984 -0.14619873 -0.083581336 -0.15660837 -0.056178834
00000000: f5af 36bd 6ae7 24bd a1ab cebd 6afe 40be
00000010: 930e c7bd c721 59bd afc8 4fbe ec91 8f3c
00000020: de33 76bd 4fc5 24be 4572 b5bd 7a28 f1bd
00000030: 1fb5 15be b12c abbd f25d 20be c71b 66bd

bn3.running_mean f4 [16]
-0.03836362 0.11042841 -0.11594233 0.061575186 -0.047617506 0.040359333 0.121178925 -0.07825178
0.022719529 -0.23232488 0.15336612 0.06616629 -0.1442697 -0.05121347 -0.024570484 0.0059101447
00000000: 2c23 1dbd 4a28 e23d 2c73 edbd 4336 7c3d
00000010: 930a 43bd d44f 253d a82c f83d 7842 a0bd
00000020: 4e1e ba3c 93e6 6dbe 020c 1d3e 3182 873d
00000030: 70bb 13be 37c5 51bd 0a48 c9bc e3a9 c13b

bn3.running_var f4 [16]
0.113423236 0.19861878 0.07654908 0.105276935 0.11881892 0.14913069 0.2041645 0.07535351
0.14260294 0.15568745 0.1568784 0.091395654 0.12796433 0.15754345 0.09500384 0.15244672
00000000: 714a e83d b962 4b3e c4c5 9c3d 6f9b d73d
00000010: 5557 f33d b7b5 183e 8010 513e f152 9a3d
00000020: 8106 123e 886c 1f3e bba4 203e a52d bb3d
00000030: 1509 033e 1253 213e 6091 c23d fe1a 1c3e

eca.conv1d.weight f4 [1, 1, 3]
-0.9903821 0.65856004 -0.6567691
00000000: ae89 7dbf 6497 283f 0522 28bf

classifier.weight f4 [4, 560]
0.05718714 0.0057899235 -0.02700562 -0.08156232 -0.15245761 0.2514705 0.030764358 -0.016545333
-0.031883374 0.03966487 0.0027385661 0.037632946 0.045623805 0.038368642 -0.115030564 0.006321385
0.013334418 0.07191995 0.04926636 0.041171376 -0.1207627 0.023499822 -0.037691295 -0.09010582
-0.08581827 0.016543329 -0.0048554703 0.008697077 -0.02431221 0.018316448 0.14906964 0.08826916
0.016846225 0.013453276 0.0056069633 0.0035952216 0.030697625 0.010903728 0.068452805 -0.14130397
0.07868272 0.115604766 -0.14637955 0.20055267 -0.024767809 0.14841138 0.08369841 0.045483448
0.005768837 0.0003193584 0.007447002 0.048006758 0.0465594 0.0835656 0.031229528 -0.07477353
0.021612093 -0.1465298 0.035234187 0.041656997 -0.04453514 0.09812944 -0.09248018 0.006966198
0.13502355 -0.07958308 0.05639402 0.022589076 0.08509513 -0.0075740274 -0.07134307 0.09164618
-0.004008912 0.0032146205 -0.08595331 0.21970305 0.15496832 0.033457913 0.13890712 0.035305858
0.12636729 -0.03192199 0.07693024 0.014069324 -0.0036398272 0.14963517 -0.061840262 0.037248164
0.08046371 -0.042207327 0.038250845 0.07640391 -0.026369365 0.08378566 -0.046521734 -0.0011359538
0.050419196 -0.07665466 0.06759982 0.005993737 -0.008790752 0.005463795 0.030718587 0.0910477
0.06523553 0.068239726 -0.0019779217 -0.0753946 0.066886924 -0.06350858 -0.12293206 0.1398518
-0.09566726 0.10515645 0.094244465 -0.20928892 0.050931532 0.021818576 -0.07776947 0.0726062
-0.10516209 -0.08631326 0.03139738 0.058072917 -0.054152038 -0.017832555 -0.120174356 -0.021259591
0.013769749 -0.032047443 0.08937271 0.045047257 -0.034598168 -0.0032179093 -0.12560973 -0.02455985
0.008882843 0.02334788 0.07696344 0.06509183 -0.17477044 0.11922765 -0.1438154 0.026674917
-0.26015523 0.2593034 0.09469693 -0.054071452 0.12046439 0.009411686 0.020797929 0.011624266
0.07535451 -0.040643893 0.08224761 -0.12580292 0.023316199 -0.08813892 0.08358872 0.110810034
0.08397127 -0.10389214 0.009005811 0.15287474 0.116257764 -0.0029117847 0.06261746 0.034126062
0.033452462 0.039390173 -0.035615806 -0.05803064 0.20170012 0.16880877 0.039765164 -0.04086881
-0.046861902 -0.058319353 -0.023369726 0.15626441 -0.28157938 0.2186764 -0.17351156 0.08240328
0.17232317 -0.02527529 0.011513325 0.06445289 0.08408657 -0.1292487 0.11156993 -0.10375838
0.018517362 -0.07966629 -0.041370146 -0.05525191 0.026399832 -0.020510975 -0.044143833 -0.0843567
0.080680065 -0.056499064 -0.11418515 0.028736414 -0.05185927 -0.1284879 0.063588545 -0.11803447
-0.10545274 0.046938945 -0.044231232 0.019320697 0.10260584 -0.019450061 -0.111011654 0.19999026
0.07602312 -0.061396893 0.09901069 0.017977264 0.00015195445 -0.0038710325 -0.06490779 -0.021003587
-0.09230079 -0.024919607 -0.015525074 -0.13628908 -0.03501364 -0.11081972 0.017965874 -0.16422626
0.018763438 -0.05825933 0.081260175 -0.017651195 0.013507969 0.021750085 -0.017232085 0.04925148
-0.0880664 -0.033633612 0.083061874 0.12368146 -0.0664453 0.018845366 -0.0069848965 0.044743877
0.16214348 -0.031305816 0.08425566 -0.045225017 -0.020731214 0.1484592 -0.0050748056 0.12317998
00000000: 103d 6a3d 66b9 bd3b e43a ddbc 250a a7bd
00000010: d91d 1cbe bec0 803e 8905 fc3c 148a 87bc
00000020: 2498 02bd a177 223d 8479 333b 0125 1a3d
00000030: 07e0 3a3d 7028 1d3d 2595 ebbd 9f23 cf3b
00000040: 9a78 5a3c c44a 933d 86cb 493d 51a3 283d
00000050: 6f52 f7bd b382 c03c 3062 1abd 6689 b8bd
00000060: 7dc1 afbd e085 873c a31a 9fbb 2f7e 0e3c
00000070: 662a c7bc 600c 963c b6a5 183e 76c6 b43d
00000080: 1801 8a3c 216b 5c3c 9eba b73b cf9d 6b3b
00000090: 9679 fb3c 8da5 323c fc30 8c3d fdb1 10be
000000a0: 6824 a13d 31c2 ec3d 85e4 15be ae5d 4d3e
000000b0: dce5 cabc 27f9 173e 126a ab3d da4c 3a3d
000000c0: 8308 bd3b 8f6f a739 fb05 f43b bca2 443d
000000d0: 12b5 3e3d 7124 ab3d 11d5 ff3c dd22 99bd
000000e0: d80b b13c e80b 16be b951 103d 87a0 2a3d
000000f0: 7b6a 36bd 16f8 c83d 4066 bdbd b444 e43b
00000100: 9d43 0a3e 74fc a2bd 6afd 663d ba0c b93c
00000110: 5b46 ae3d 8c2f f8bb 511c 92bd feb0 bb3d
00000120: 315d 83bb 62ac 523b 4a08 b0bd d6f9 603e
00000130: 04b0 1e3e 2a0b 093d ab3d 0e3e e09c 103d
00000140: 6d66 013e a2c0 02bd 9a8d 9d3d 0683 663c
00000150: 2b8a 6ebb f639 193e 374c 7dbd 8891 183d
00000160: 28ca a43d 97e1 2cbd ebac 1c3d a779 9c3d
00000170: 9104 d8bc d197 ab3d 938d 3ebd 49e4 94ba
00000180: 5c84 4e3d 1efd 9cbd c671 8a3d 1c67 c43b
00000190: 1607 10bc a209 b33b 8ca5 fb3c 3777 ba3d
000001a0: 359a 853d 45c1 8b3d 05a0 01bb 7c68 9abd
000001b0: 03fc 883d c910 82bd cec3 fbbd 4f35 0f3e
000001c0: 32ed c3bd 445c d73d 3e03 c13d d64f 56be
000001d0: 959d 503d dfbc b23c 9a45 9fbd 8fb2 943d
000001e0: 395f d7bd 02c5 b0bd 8a9a 003d dedd 6d3d
000001f0: 87ce 5dbd 9415 92bc f91d f6bd 9828 aebc
00000200: 839a 613c 2e44 03bd 0a09 b73d 7983 383d
00000210: cfb6 0dbd 8fe3 52bb d69f 00be bd31 c9bc
00000220: 5889 113c 0e44 bf3c 029f 9d3d de4e 853d
00000230: 06f7 32be a02d f43d 5844 13be 5b85 da3c
00000240: 1133 85be 6ac3 843e 77f0 c13d 077a 5dbd
00000250: 09b6 f63d 7933 1a3c 6b60 aa3c b573 3e3c
00000260: 7753 9a3d 367a 26bd 6f71 a83d 7bd2 00be
00000270: 9d01 bf3c 2e82 b4bd 9030 ab3d 5ff0 e23d
00000280: 21f9 ab3d 67c5 d4bd 1c8d 133c 328b 1c3e
00000290: 8d18 ee3d a4d3 3ebb 953d 803d c5c7 0b3d
000002a0: 7305 093d 9757 213d e1e1 11bd 89b1 6dbd
000002b0: 7a8a 4e3e 35dc 2c3e cce0 223d 0e66 27bd
000002c0: 44f2 3fbd 46e0 6ebd de71 bfbc c703 203e
000002d0: 2c2b 90be b5ec 5f3e 04ad 31be 0dc3 a83d
000002e0: 7c75 303e 200e cfbc 63a2 3c3c e0ff 833d
000002f0: 9435 ac3d c559 04be c77e e43d 467f d4bd
00000300: b9b1 973c 1428 a3bd be73 29bd d44f 62bd
00000310: 7644 d83c a206 a8bc 2ad0 34bd 35c3 acbd
00000320: 973b a53d 906b 67bd e7d9 e9bd a168 eb3c
00000330: 636a 54bd 5592 03be b63a 823d 0ebc f1bd
00000340: 9bf7 d7bd 0d43 403d cf2b 35bd 7046 9e3c
00000350: 0323 d23d bc55 9fbc 145a e3bd 3fca 4c3e
00000360: 02b2 9b3d 4f7b 7bbd 1ec6 ca3d 0e45 933c
00000370: f655 1f39 26b1 7dbb 60ee 84bd b70f acbc
00000380: 3208 bdbd 3424 ccbc e15c 7ebc 5d8f 0bbe
00000390: 766a 0fbd 73f5 e2bd 2b2d 933c ee2a 28be
000003a0: c8b5 993c 56a1 6ebd bc6b a63d 3d99 90bc
000003b0: 8750 5d3c 3c2d b23c 4d2a 8dbc ebbb 493d
000003c0: 285c b4bd 66c3 09bd 581c aa3d b54c fd3d
000003d0: 7914 88bd 9961 9a3c 8fe1 e4bb 5b45 373d
000003e0: f108 263e 873a 00bd 3b8e ac3d de3d 39bd
000003f0: 82d4 a9bc b005 183e 8e4a a6bb c945 fc3d

classifier.bias f4 [4]
-0.03418114 0.05346285 0.00797966 -0.0087181665
00000000: 8601 0cbd ddfb 5a3d 1fbd 023c a4d6 0ebc
