result_eegneteca_cv5/fold_1/best_model_fold1.pth (torch, 22590 bytes, 19 tensors)

conv_time.weight f4 [8, 1, 1, 64]
0	0xbc4e529b	-0.012592937
1	0xbda0eb28	-0.078573525
2	0x3ddb68d8	0.10713357
3	0xbbcfb59c	-0.006338788
4	0xbd011130	-0.031510532
5	0xbd325b56	-0.043544136
6	0x3d738383	0.05945159
7	0xbdbf25a1	-0.09333349
8	0x3d43398c	0.047662303
9	0x3c44a2eb	0.012001733
10	0x3dc28cb9	0.09499497
11	0xbdaf6ee3	-0.08566072
12	0x3c6dfdda	0.014525855
13	0x3c99809a	0.01873808
14	0x3c930015	0.017944375
15	0x3d81baf9	0.0633449
16	0x3c55a8dd	0.013040748
17	0xba8abc78	-0.0010584733
18	0x3e1bd59b	0.15218203
19	0xbb9f6f26	-0.004865545
20	0xbca809e8	-0.020512536
21	0x3df20b20	0.11818528
22	0x3c4c568d	0.012471807
23	0x3e12788d	0.14303799
24	0xbd1ebb2d	-0.038752723
25	0x3e079721	0.13241245
26	0x3d8e83d3	0.06958737
27	0x3d20a7b5	0.039222438
28	0x3e1f9b43	0.15586571
29	0x3d143ec6	0.036192678
30	0x3e010c02	0.12602237
31	0x3d8b7fdf	0.06811499
32	0x3e11a6bd	0.14223762
33	0x3e085108	0.13312161
34	0x3e34a534	0.17641145
35	0x3c5f32c6	0.013622945
36	0x3dea9401	0.11454011
37	0x3da274cd	0.07932434
38	0x3e2fe257	0.17176186
39	0xbc134433	-0.008988428
40	0x3c2254dc	0.009907927
41	0x3df2f6d9	0.11863489
42	0x3d80a3c2	0.06281234
43	0xbcc5f6a2	-0.024165455
44	0x3d3b30a0	0.04570067
45	0x3d72e98f	0.05930477
46	0xbc265606	-0.0101523455
47	0xbd80f88f	-0.06297409
48	0xbd7cac33	-0.06168766
49	0x3dac0396	0.083991215
50	0xbd04f9ab	-0.032464664
51	0x3bce5f3e	0.006297975
52	0xbe325339	-0.1741456
53	0x3c6507d5	0.013978918
54	0xbd362c9b	-0.044476133
55	0xbd8916c4	-0.06693795
56	0xbda7e69c	-0.08198282
57	0xbcc57b84	-0.024106748
58	0xbd8479f3	-0.064685725
59	0xbd97230d	-0.07379732
60	0xbcd5bcb5	-0.02609096
61	0x3d81e90e	0.0634328
62	0xbe1d5985	-0.1536618
63	0xbb830c26	-0.003999251
64	0x3d3e89f5	0.046518285
65	0xbd82077d	-0.063490845
66	0x3dd42f67	0.10360604
67	0xbbe13a08	-0.006873373
68	0xbdc31030	-0.09524572
69	0xbd904a8b	-0.07045468
70	0xbcf5c55d	-0.030001337
71	0x3d8a5eb1	0.06756342
72	0x3e1f4329	0.15552963
73	0x3d9da5a5	0.0769761
74	0x3c181b7a	0.009283895
75	0xbaa1c1fd	-0.0012341138
76	0x3c098e4e	0.0083957445
77	0xbd3ae6b7	-0.045630183
78	0xbc089c15	-0.008337994
79	0xbd2e74c5	-0.04259183
80	0x3e4e3d1e	0.20140502
81	0x3c80c0f5	0.01571701
82	0x3c18f5c7	0.009335942
83	0xbe15be0e	-0.14623281
84	0xbdd4ef5f	-0.10397219
85	0x3c0a76d8	0.008451186
86	0xbe0fc1b1	-0.14038731
87	0x3d944634	0.07239953
88	0x3e32906c	0.17437905
89	0xbd579515	-0.05263241
90	0x3cc554a0	0.024088204
91	0xbb04d4be	-0.0020268406
92	0xbd5c56c8	-0.0537937
93	0xbd6ebb3b	-0.058284026
94	0x3dc4f73b	0.09617468
95	0x3e220fc3	0.15826325
96	0x3dbd4943	0.09242489
97	0x3dfd4b00	0.12367821
98	0xbc281039	-0.010257774
99	0xbd970aae	-0.07375084
100	0xbdcd8716	-0.10035531
101	0x3c9aae71	0.018882008
102	0x3db11eca	0.08648451
103	0x3dced6e3	0.1009958
104	0x3d116093	0.03549249
105	0x3d2c2858	0.042030662
106	0xbdce9d93	-0.10088649
107	0xbde58fd1	-0.112090714
108	0xbe39611d	-0.18103452
109	0x3c42081f	0.0118427565
110	0xbd631ea2	-0.055449136
111	0x3e24996e	0.16074154
112	0x3d640a86	0.0556741
113	0x3da4d595	0.0804855
114	0xbcc8268e	-0.024432447
115	0x3d0b7ac2	0.034052618
116	0xbd8d2835	-0.068924345
117	0xbc63ab1a	-0.013895774
118	0x3d50930f	0.050921496
119	0x3e51b878	0.20480525
120	0x3d951ccc	0.07280883
121	0xbbf32f42	-0.007421405
122	0xbb18d699	-0.002332127
123	0xbd65c808	-0.056098968
124	0xbcba4576	-0.0227382
125	0xbd82bdd8	-0.06383866
126	0xbd1ffc2c	-0.03905885
127	0x3d7ec278	0.06219718
128	0x3e3b6267	0.18299256
129	0xbd0e7133	-0.034775924
130	0x3d99a298	0.075017154
131	0xbc704ca5	-0.014666711
132	0x3ddd7265	0.10812835
133	0xbd3bb555	-0.04582723
134	0xbd9acf4a	-0.075590685
135	0xbda26b66	-0.07930641
136	0xbdb806ac	-0.089856476
137	0x3d14ad1d	0.036297906
138	0xbdea4138	-0.11438221
139	0xbcc750ef	-0.024330584
140	0xbd869ca3	-0.06572845
141	0x3ca6a9e2	0.020344678
142	0x3c158f15	0.009128352
143	0xbe00d3cb	-0.12580793
144	0xbd55c814	-0.052192762
145	0xbd03baec	-0.032160684
146	0xbd6dda00	-0.05806923
147	0x3d90ca81	0.070698746
148	0x3dea980f	0.11454784
149	0xbdaf3bf4	-0.08556357
150	0xbcc3adc1	-0.023886563
151	0x3e0be448	0.13661301
152	0x3d015994	0.03157957
153	0xbcd57d55	-0.02606074
154	0x3dbe1add	0.092824675
155	0xbb5a3ea8	-0.0033301506
156	0xbcf61ae5	-0.030042121
157	0xbdbbd005	-0.09170536
158	0x3dbe5779	0.09294028
159	0xbcd227b9	-0.025653707
160	0xbdc2335d	-0.09482453
161	0xbe01cb68	-0.1267525
162	0xbe22e789	-0.15908636
163	0xbd7872d3	-0.06065638
164	0xbd783565	-0.060597796
165	0xbd75bef5	-0.059996564
166	0xbdfbcab9	-0.12294526
167	0xbdfcf713	-0.12351813
168	0xbd7d0685	-0.061773796
169	0xbd82a650	-0.06379378
170	0x3d2444d5	0.040104706
171	0x3d6fff2a	0.058592953
172	0xbcddcf1b	-0.027076295
173	0xbdad1d71	-0.08452881
174	0x3de32e66	0.11092834
175	0x3db867e3	0.0900419
176	0xbc1307f0	-0.00897406
177	0xbc5b10b9	-0.013370686
178	0x3c603ecb	0.013686846
179	0xbd5edbcd	-0.054408837
180	0x3d2d1cb7	0.042263713
181	0xbc64326a	-0.013928035
182	0xbddab19c	-0.106784075
183	0xbdf599e9	-0.11992247
184	0xbd2ba632	-0.041906543
185	0xbd8ea75c	-0.06965515
186	0x3b7f7f41	0.0038985761
187	0xbce49858	-0.027904674
188	0xbdcc1a22	-0.09965922
189	0xbd8b1cf2	-0.0679263
190	0xbe12a7b6	-0.14321789
191	0x3bda58a2	0.006663398
192	0x3cfdbc0c	0.030973457
193	0xbd96cb62	-0.07363011
194	0xbd9ef4b6	-0.07761519
195	0xbe08e8a7	-0.1337
196	0xbd23ee83	-0.040022384
197	0xbe209d6d	-0.15685053
198	0x3cf78f6b	0.030219754
199	0xbb835ef5	-0.0040091225
200	0xbd23b3b2	-0.039966293
201	0x3bcb83af	0.0062107663
202	0x3d5ce82f	0.053932365
203	0x3e45059e	0.19240424
204	0x3d6ce60f	0.05783659
205	0x3d69c7d2	0.05707533
206	0x3d85ec63	0.06539228
207	0x3d10f122	0.035386212
208	0xbce553ec	-0.027994119
209	0x3d59e932	0.053200908
210	0xbe06ac16	-0.13151583
211	0xbcf5410c	-0.029938243
212	0xbe3a78df	-0.18210171
213	0x3c05a46a	0.008156875
214	0x3d0a7ed2	0.03381235
215	0xbd84b45f	-0.064797156
216	0xbe0456c4	-0.12923723
217	0xbd8839e3	-0.06651666
218	0x3d1ef893	0.038811278
219	0xbda69663	-0.08134153
220	0xbce6b7aa	-0.02816375
221	0xbd5a60f8	-0.053315133
222	0xbd9a843e	-0.075447544
223	0x3d56d562	0.05244959
224	0xbdb060eb	-0.08612236
225	0x3d9d36f4	0.07676497
226	0x3c4ea268	0.012611963
227	0x3e02f900	0.12790298
228	0x3e61bfbd	0.22045799
229	0xbb2115ab	-0.0024579566
230	0xbd05f020	-0.032699704
231	0x3da9045a	0.08252783
232	0x3d1f8184	0.038941875
233	0xbe0a7945	-0.13522823
234	0xbc5f2060	-0.013618559
235	0xbe18bcea	-0.14915815
236	0xbe30060f	-0.17189811
237	0xbdfd1c73	-0.12358942
238	0x3bd16496	0.0063901646
239	0xbd8b1e74	-0.06792918
240	0x3d06ae14	0.032880858
241	0xbc4251f7	-0.011860362
242	0xbd634201	-0.055482868
243	0x3de0d8d2	0.10978855
244	0x3dc6144c	0.0967184
245	0x3ddabf15	0.10680977
246	0xbd5e717c	-0.054307446
247	0xbd8abab9	-0.06773896
248	0x3d5eb294	0.054369524
249	0x3d2861c4	0.04110886
250	0xbd1a05b9	-0.037603114
251	0x3caba339	0.020951854
252	0xbd9c0343	-0.076178096
253	0x3cadddd5	0.021223942
254	0x3d31c8c6	0.043404363
255	0xbd36c212	-0.044618674

bn1.weight f4 [8]
0	0x3f993f01	1.1972352
1	0x3fa8112f	1.3130244
2	0x3f926042	1.1435626
3	0x3fa63b3f	1.298683
4	0x3f808bbd	1.0042645
5	0x3f727678	0.9471202
6	0x3fd54ee5	1.6664702
7	0x3f8b5583	1.0885471

bn1.bias f4 [8]
0	0x3b331a7f	0.0027329025
1	0x3d095dd3	0.033536743
2	0xbb654c17	-0.003498798
3	0xbd220c7a	-0.03956268
4	0x3b62aa27	0.0034586282
5	0xbca67864	-0.020321079
6	0xbc9b0e31	-0.018927665
7	0xbc92dc16	-0.01792721

bn1.running_mean f4 [8]
0	0x39cf612a	0.0003955451
1	0xb9175c8b	-0.00014434957
2	0x39a3051b	0.00031093587
3	0xb9c1e36d	-0.00036981274
4	0xba1edf2b	-0.00060604763
5	0xb9520af6	-0.00020031244
6	0x399efd91	0.0003032503
7	0xba1eefcc	-0.0006062954

bn1.running_var f4 [8]
0	0x3f7fc27c	0.99906135
1	0x3ee8396d	0.45356312
2	0x3f789f11	0.97117716
3	0x3f7dfa91	0.9921046
4	0x3f22c651	0.63583857
5	0x3ed92482	0.42410666
6	0x3ef5832a	0.47951633
7	0x3f81bfe2	1.0136683

conv_depth.weight f4 [16, 1, 22, 1]
0	0xbe0b7e88	-0.13622487
1	0x3cd3d96c	0.02586051
2	0x3e40a11e	0.18811461
3	0x3e3c35da	0.18379918
4	0xba89927c	-0.0010495926
5	0x3e69837b	0.22804062
6	0xbda20ecd	-0.07912979
7	0xbb925557	-0.0044657397
8	0x3dd3f956	0.103502914
9	0xbe0e34cf	-0.13887332
10	0x3d376ed3	0.044783425
11	0xbde3b65d	-0.111187674
12	0xbd9a120c	-0.075229734
13	0xbdbeaf4b	-0.09310778
14	0xbd7e96a6	-0.06215539
15	0x3d3ddc90	0.046352923
16	0xbe66bf31	-0.22533871
17	0xbe71e549	-0.23622622
18	0x3d36975f	0.044577952
19	0x3df9dbc6	0.122001216
20	0xbb9840b2	-0.004646384
21	0x3e640116	0.22266039
22	0x3dc93e44	0.09826329
23	0xbd5737d3	-0.052543472
24	0xbe21a85f	-0.15786885
25	0x3db953a6	0.09049158
26	0x3dbd9ff3	0.092590235
27	0xbdf338c8	-0.118760645
28	0xbca9087c	-0.020633928
29	0xbde63f00	-0.11242485
30	0x3cc6879d	0.024234587
31	0xbd8785f5	-0.06617347
32	0x3e153b2f	0.14573358
33	0x3cfae2be	0.030625697
34	0xbd7ee2d5	-0.062228043
35	0xbdebf2d0	-0.11520922
36	0x3dc1b8e3	0.094590925
37	0x3e57a031	0.21057202
38	0xbe19f060	-0.15033102
39	0xbd1483cb	-0.0362585
40	0xbe94b1c2	-0.29041868
41	0xbdc43bfa	-0.09581752
42	0x3e786988	0.24259007
43	0x3e8ca9d6	0.27473325
44	0x3da596bf	0.08085393
45	0xbdd4cc47	-0.10390525
46	0x3d58a034	0.052887157
47	0x3de25178	0.11050695
48	0x3dfa9c79	0.12236876
49	0x3e497378	0.19672954
50	0x3d6d7505	0.057972927
51	0x3db2f0ae	0.08737312
52	0xbded6107	-0.11590772
53	0x3e189c56	0.14903387
54	0xbe4f499e	-0.20242926
55	0xbe41d81d	-0.18930097
56	0x3cc2a3a3	0.023759669
57	0xbdf148a0	-0.1178143
58	0x3de48b98	0.11159438
59	0xbde33868	-0.11094743
60	0xbe4a1b27	-0.1973692
61	0xbd09aa32	-0.033609577
62	0x3de82683	0.113354705
63	0xbd0e689c	-0.034767732
64	0xbd9859ae	-0.0743898
65	0x3dd2815c	0.102785796
66	0x3e3b9221	0.18317463
67	0xbe2561d2	-0.16150597
68	0xbd8765f3	-0.06611242
69	0x3deae8ef	0.1147021
70	0x3e07664b	0.13222615
71	0xbe0cd0ea	-0.1375157
72	0x3ddd358b	0.10801228
73	0xbd0cdb1e	-0.034388654
74	0xbe87edbd	-0.26548567
75	0xbe2e3000	-0.17010498
76	0xbc4034a3	-0.0117313
77	0xbd58c729	-0.05292431
78	0x3e5b1ece	0.2139847
79	0x3d68d069	0.05683938
80	0x3d1f0dcc	0.038831517
81	0x3cf439d2	0.029812727
82	0x3c7420d8	0.014900409
83	0x3caa07ea	0.020755727
84	0xbd2d8460	-0.04236257
85	0xbdf0fef0	-0.117673755
86	0xbe0838a6	-0.1330286
87	0x3da7674e	0.08174001
88	0x3ddfaa7e	0.10921191
89	0x3c8dc918	0.017307803
90	0x3e483c57	0.19554268
91	0x3ca8d575	0.020609597
92	0xbe17c5db	-0.1482157
93	0x3d6f8244	0.05847384
94	0xbe44c33f	-0.19215105
95	0x3d4f59c9	0.050622735
96	0x3da6b90e	0.08140765
97	0x3e04a101	0.12952043
98	0xbe125f73	-0.14294223
99	0x3e1c55d8	0.15267122
100	0x3df40eb1	0.11916865
101	0xbe06b909	-0.13156523
102	0xbe3a5f08	-0.18200314
103	0x3dee08fd	0.11622808
104	0x3d0a0ea8	0.033705384
105	0xbe04b336	-0.12958989
106	0x3de7e098	0.11322135
107	0x3dde63b8	0.108588636
108	0xbd691b09	-0.05691055
109	0xbe17d993	-0.14829092
110	0xbdb6f887	-0.089341216
111	0xbd85297d	-0.06502054
112	0x3e336ca1	0.17521907
113	0xbdadf70e	-0.084943876
114	0xbe8556d7	-0.26042816
115	0xbd4c3d3e	-0.049863093
116	0x3c530b6c	0.012881141
117	0x3d68074b	0.05664758
118	0xbe2608aa	-0.16214243
119	0xbbbb1a90	-0.0057099536
120	0x3e048a49	0.12943377
121	0x3e388cad	0.18022414
122	0x3dab401b	0.083618365
123	0xbd196141	-0.037446264
124	0x3d41aa90	0.0472818
125	0x3d9186b1	0.071057685
126	0xbd00b39c	-0.03142129
127	0x3e96b4f7	0.2943494
128	0xbcedebe1	-0.02904314
129	0xbe372e9a	-0.17888871
130	0xbe111888	-0.14169514
131	0x3da706e6	0.08155613
132	0x3de39370	0.11112106
133	0xbd894ece	-0.06704484
134	0xbde6bca6	-0.112664506
135	0xbd0cf2cf	-0.034411248
136	0x3e5b0649	0.21389116
137	0x3d9b72af	0.075902335
138	0x3c99da09	0.018780725
139	0x3e0d09d6	0.13773283
140	0x3d11b2bf	0.035570856
141	0xbe33d144	-0.17560297
142	0x3df44c73	0.11928644
143	0xbe0eb603	-0.1393662
144	0x3e211538	0.1573075
145	0x3e36a52a	0.17836443
146	0xbde60c47	-0.112328105
147	0xbecd365f	-0.40080544
148	0xbe355dda	-0.17711583
149	0x3d26c21c	0.04071246
150	0xbdcae355	-0.099066414
151	0x3c1cd244	0.009571616
152	0x3dd02edd	0.101651885
153	0x3dcc9d3a	0.09990926
154	0x3d8170cc	0.063203424
155	0xbe1c9f8b	-0.15295236
156	0x3dea2279	0.114323564
157	0xbb1b0c85	-0.0023658585
158	0x3b0a978a	0.0021147453
159	0xbda8a1fa	-0.082340196
160	0xbe10932c	-0.14118642
161	0x3dc03660	0.09385371
162	0xbe302660	-0.17202139
163	0xbe2f726c	-0.17133492
164	0x3dd8eed5	0.105924286
165	0x3d18a6ef	0.037268575
166	0xbb64369c	-0.0034822589
167	0x3ebaf7f4	0.36517298
168	0x3cd8f29e	0.026482876
169	0xbdf1ec10	-0.118126035
170	0xbc829d5a	-0.015944172
171	0xbda75ae7	-0.08171635
172	0x3e082e10	0.13298821
173	0x3d05733b	0.032580595
174	0x3e23965b	0.15975325
175	0xbe48c9f1	-0.19608285
176	0xbe2b3714	-0.1672023
177	0x3e71394d	0.23557015
178	0xbaa92ac4	-0.0012906422
179	0x3db64863	0.089005254
180	0x3d8e2935	0.06941453
181	0xbd725aa7	-0.059168484
182	0xbe16571e	-0.1468167
183	0xbda7dbf5	-0.0819625
184	0xbe3fb41f	-0.18721054
185	0xbcb040db	-0.0215153
186	0xbd843e19	-0.06457157
187	0x3b793ccc	0.0038030623
188	0xbcadaed2	-0.021201525
189	0x3d3c667f	0.045996185
190	0x3d95e4d4	0.07319036
191	0x3e65b742	0.22433189
192	0x3e2932c8	0.16523278
193	0xbde9afdb	-0.11410495
194	0x3db2ab8e	0.08724128
195	0x3e132c28	0.14372313
196	0xbd840f33	-0.064482115
197	0x3d76357a	0.060109593
198	0x3e40286b	0.18765418
199	0x3e0274dd	0.12739892
200	0x3d850fba	0.0649714
201	0x3e0af92e	0.13571617
202	0xbd90443b	-0.07044264
203	0x3e2b1456	0.16706976
204	0xbd115006	-0.035476707
205	0xbe4c6a80	-0.19962502
206	0x3e04dd18	0.12974966
207	0x3e08a3cc	0.13343734
208	0xbcca62d9	-0.024705337
209	0xbe0fdeb8	-0.14049804
210	0x3d95e0bc	0.07318255
211	0x3dd5e931	0.10444868
212	0xbe3ddf92	-0.18542317
213	0x3e44fb56	0.19236502
214	0xbe45e7b0	-0.19326663
215	0x3e09ccfa	0.13457099
216	0x3d641c41	0.055691008
217	0xbe10a35f	-0.14124821
218	0xbe33c578	-0.17555797
219	0xbe0232ac	-0.12714642
220	0xbd505544	-0.050862566
221	0x3e86775e	0.26262945
222	0x3d271fe6	0.040801905
223	0x3cf59f43	0.029983168
224	0x3dd28a4e	0.10280286
225	0x3c1adec3	0.009452525
226	0xbd916de4	-0.07101038
227	0xbe017f53	-0.12646227
228	0x3ddc69c3	0.1076236
229	0xbdb1ec23	-0.08687618
230	0x3dc9ec56	0.09859531
231	0xbde606ee	-0.112317905
232	0xbd3f2092	-0.04666192
233	0xbdcfa5e0	-0.1013906
234	0xbe50118b	-0.20319192
235	0xbd51c8cb	-0.05121688
236	0xbcf14f27	-0.029456688
237	0x3d400a7e	0.046885006
238	0xbe0532c9	-0.13007654
239	0xbdd2a33a	-0.10285039
240	0x3e0b8075	0.13623221
241	0x3df2f2cd	0.11862717
242	0xbc458b98	-0.0120572075
243	0xbdaf330a	-0.08554657
244	0xbd99686d	-0.07490621
245	0x3e300d58	0.1719259
246	0xbdd768cd	-0.10518036
247	0x3dbe1892	0.0928203
248	0xbdd7534b	-0.10513934
249	0xbe2795a4	-0.16365677
250	0x3e0a75bd	0.13521476
251	0xbe20f674	-0.15719014
252	0x3d44bca9	0.048031483
253	0x3d8122f5	0.06305496
254	0x3cf0a1ad	0.029373968
255	0x3e99429f	0.2993364

bn2.weight f4 [16]
0	0x3f895d2c	1.0731559
1	0x3f91d538	1.1393194
2	0x3fa71557	1.3053387
3	0x3f951bcc	1.1649108
4	0x3f8d83e3	1.1055874
5	0x3f93e861	1.1555291
6	0x3fa68798	1.301013
7	0x3f9e0e5d	1.2348133
8	0x3f836ebb	1.0268167
9	0x3f79f2f7	0.9763636
10	0x3f61b055	0.88159686
11	0x3f709462	0.93976414
12	0x3fc28192	1.5195792
13	0x3fa77047	1.3081139
14	0x3f80be5f	1.0058097
15	0x3f80f3a8	1.0074358

bn2.bias f4 [16]
0	0xbec3c60c	-0.38237035
1	0xbea78081	-0.32715228
2	0xbf1960e8	-0.5991349
3	0xbefa1076	-0.48840684
4	0xbecf6fc0	-0.40514946
5	0xbefbffb7	-0.49218532
6	0xbf265d37	-0.64985985
7	0xbf08b013	-0.5339367
8	0xbec23661	-0.37932113
9	0xbe5aeb90	-0.21378922
10	0xbd379da0	-0.044828057
11	0xbd18b3d5	-0.037280876
12	0xbf38861f	-0.7207965
13	0xbf21e109	-0.63234
14	0xbe245055	-0.16046269
15	0xbe686c5a	-0.22697583

bn2.running_mean f4 [16]
0	0x383a16d0	4.43671e-05
1	0x388af2a6	6.6255496e-05
2	0x3a92f7b8	0.0011212742
3	0xbbedd9bf	-0.0072586234
4	0xb9ff6b06	-0.0004871713
5	0xb900c1f4	-0.00012279284
6	0x3a1b4eaa	0.00059245026
7	0x3a162786	0.00057279353
8	0x3acb3742	0.0015504139
9	0xb890892f	-6.8920075e-05
10	0x3b444afb	0.0029951918
11	0x3a7d7e8e	0.0009670042
12	0x3a5ee9f4	0.00085034897
13	0xba0b6091	-0.0005316819
14	0x3a48d8d0	0.0007661702
15	0xbae3f2e2	-0.001739111

bn2.running_var f4 [16]
0	0x3d7bb79b	0.061454397
1	0x3d58fe8c	0.05297713
2	0x3ddb46b7	0.10706847
3	0x3e23cba3	0.1599565
4	0x3e024a6d	0.12723704
5	0x3ddef7c4	0.10887101
6	0x3de84f57	0.11343258
7	0x3da99375	0.08280078
8	0x3de68da2	0.11257483
9	0x3e5e66f8	0.21718967
10	0x3d444fbe	0.04792761
11	0x3c36b3c5	0.011151259
12	0x3dee3c4e	0.11632596
13	0x3e3496c8	0.17635643
14	0x3c5a6806	0.013330465
15	0x3c5b1e2e	0.013373895

conv_sep.0.weight f4 [16, 1, 1, 16]
0	0x3e1e57e2	0.15463212
1	0x3df3903d	0.11892746
2	0x3de308e8	0.11085683
3	0x3e524673	0.20534687
4	0x3e330880	0.17483711
5	0x3d48a239	0.048982833
6	0x3e891512	0.26773888
7	0x3dda66aa	0.10664113
8	0x3e8a2873	0.26983985
9	0xbdc03af2	-0.09386243
10	0xbdab36b8	-0.08360046
11	0x3d9be2b4	0.076115996
12	0x3d912ec1	0.07088996
13	0xbd271a22	-0.040796407
14	0xbde7861e	-0.11304878
15	0x3e16b8d8	0.1471895
16	0x3e5de7a8	0.21670401
17	0xbd500765	-0.050788302
18	0x3d485d99	0.048917387
19	0xbd14e912	-0.036355086
20	0x3c6cd8a0	0.014455944
21	0xbe411e67	-0.18859254
22	0xbe1c3168	-0.15253222
23	0x3d9f7584	0.07786086
24	0x3e0e65f9	0.13906087
25	0x3e1e7760	0.15475225
26	0x3c825326	0.015908789
27	0xbd292392	-0.041293688
28	0xbd56a0c2	-0.052399404
29	0xbe4b39b0	-0.19846225
30	0xbebea065	-0.37231746
31	0xbea0ed2b	-0.31430945
32	0xbc8cba0a	-0.017178554
33	0xbd20e405	-0.039279956
34	0xbdd5a90c	-0.10432634
35	0xbe8d1c58	-0.27560687
36	0xbdbb3b99	-0.09142227
37	0xbcfc8637	-0.030825717
38	0xbe13bc0e	-0.14427206
39	0xbe1e2fb3	-0.15447883
40	0x3cad5051	0.021156462
41	0xbd970a14	-0.07374969
42	0xbe001f57	-0.12511955
43	0xbe00f869	-0.12594761
44	0xbe14b995	-0.14523919
45	0xbe20e8b8	-0.15713775
46	0xbdd7ed9d	-0.10543368
47	0xbe285ad7	-0.16440903
48	0x3e10063a	0.14064875
49	0x3e06578e	0.13119337
50	0x3d93aa00	0.07210159
51	0x3e928e71	0.286243
52	0x3e591ad5	0.21201642
53	0x3d2f86d2	0.042853184
54	0x3bae9a0a	0.0053284215
55	0x3d6910d0	0.0569008
56	0x3e4d9e71	0.20079972
57	0x3c687bb3	0.014189648
58	0x3e2353d4	0.15949947
59	0x3e0aaaf3	0.13541774
60	0x3e051276	0.12995324
61	0x3e61c310	0.22047067
62	0x3dc969e2	0.09834649
63	0xbd50528a	-0.050859965
64	0x3e8db986	0.27680606
65	0x3dc9f6e7	0.09861546
66	0x3e433352	0.19062546
67	0x3de90bf9	0.11379237
68	0x3c0abb4b	0.008467506
69	0x3e5e31e8	0.21698725
70	0x3e27e211	0.16394831
71	0xbd62bda6	-0.055356644
72	0x3d1bbcb9	0.038021777
73	0x3d220525	0.039555687
74	0x3d594e17	0.053052988
75	0x3ac011f1	0.0014653784
76	0x3e23cd25	0.15996225
77	0xbcb70bbb	-0.02234446
78	0x3e1f6d27	0.15568982
79	0x3e1cd8e1	0.15317108
80	0xbe31b3ca	-0.1735374
81	0xbd969de4	-0.07354334
82	0xb93b63e4	-0.00017870922
83	0xbcc78056	-0.024353188
84	0xbe6fd228	-0.23420012
85	0xbe2f4494	-0.17116004
86	0xbe01c1eb	-0.1267163
87	0xbe199e89	-0.15001883
88	0xbeaa5b3b	-0.33272728
89	0x3d504420	0.05084622
90	0xbde67be0	-0.11254096
91	0xbe5204f1	-0.20509697
92	0xbe276b33	-0.16349487
93	0x3ce457ee	0.02787396
94	0xbdb61a04	-0.08891681
95	0xbc868c27	-0.016424252
96	0xbd11374c	-0.035453126
97	0x3e06fc7a	0.1318225
98	0x3e3c63f5	0.18397506
99	0x3e450c3f	0.19242953
100	0x3d41d4fc	0.04732226
101	0x3e2e87a1	0.17043926
102	0x3e208511	0.15675761
103	0x3ce69b94	0.028150357
104	0x3e64c063	0.22339015
105	0x3e41e4b4	0.189349
106	0x3db7f94f	0.08983099
107	0x3df01908	0.11723524
108	0x3e3a45c4	0.18190676
109	0x3e147be8	0.14500391
110	0x3e123a9d	0.14280172
111	0x3e202ffe	0.15643308
112	0xbd814d6b	-0.063135944
113	0xbe3e0725	-0.18557413
114	0xbe7416b8	-0.23836792
115	0xbe42b895	-0.19015725
116	0xbe635122	-0.22198918
117	0xbe26a5b3	-0.16274147
118	0x3db17d9a	0.08666535
119	0xbdc32cd5	-0.095300354
120	0xbd9a1700	-0.07523918
121	0xbe1bb992	-0.15207508
122	0xbe25619c	-0.16150516
123	0xbd0a0e46	-0.03370502
124	0xbdbf1128	-0.09329444
125	0xbdb84ddf	-0.08999228
126	0xbe906fef	-0.282104
127	0xbe008037	-0.1254891
128	0x3dcb7b46	0.09935622
129	0xbd6ede84	-0.058317676
130	0x3decce4f	0.11562788
131	0x3e08f550	0.1337483
132	0xbd8f81f9	-0.07007212
133	0xbd2ca014	-0.04214485
134	0xbd5e32d6	-0.0542477
135	0xbdc8ae7a	-0.09798904
136	0x3e3852c1	0.18000318
137	0x3e5d090a	0.2158548
138	0x3e4d871e	0.20071074
139	0x3c6815a9	0.01416532
140	0x3d6fa206	0.058504127
141	0x3e5cbb97	0.21555935
142	0x3eb0a480	0.34500504
143	0x3e2ff41d	0.17182966
144	0x3e3c0ddd	0.18364663
145	0xbd104e58	-0.035230964
146	0xbe1d35ae	-0.15352508
147	0xbdee1f72	-0.116270915
148	0x3e704edb	0.23467581
149	0x3e67c043	0.22631936
150	0x3e121511	0.14265849
151	0x3e0e81e7	0.13916741
152	0x3e25b063	0.16180567
153	0x3e02e0d5	0.12781079
154	0x3e37385f	0.17892598
155	0x3def06fa	0.116712525
156	0x3ca7dda2	0.020491425
157	0xbde7126b	-0.1128281
158	0x3e025623	0.12728171
159	0xbdf8bd02	-0.121454254
160	0x3c5c9519	0.013463282
161	0x3e089ca0	0.13340998
162	0x3da976b1	0.08274592
163	0x3e41b54b	0.18916814
164	0xbcadcd1e	-0.021215972
165	0x3bffa0e4	0.007801162
166	0xbe01b53b	-0.1266679
167	0xbd676d83	-0.056500923
168	0xbdd94260	-0.10608363
169	0xbe3345eb	-0.1750714
170	0xba15d59f	-0.0005715731
171	0xbc114825	-0.008867298
172	0xbe611ff0	-0.2198484
173	0xbcdc3b89	-0.026883857
174	0xbce08c89	-0.027410762
175	0xbc579c1c	-0.013159778
176	0x3c7805ef	0.015138133
177	0x3a97279e	0.0011532193
178	0x3e365689	0.17806448
179	0x3c986d2c	0.018606745
180	0x3c511cc2	0.012763204
181	0xbe6e2c2c	-0.23259038
182	0xbdab3491	-0.083596356
183	0xbd731dfb	-0.059354763
184	0xbe262773	-0.16225986
185	0xbd6ef10b	-0.058335345
186	0x3e01aeef	0.12664388
187	0x3cde0328	0.027101114
188	0x3e8edcd5	0.27902856
189	0x3e61d2b4	0.22053033
190	0x3e66cbc0	0.22538662
191	0x3e6a4766	0.22878799
192	0xbe67789e	-0.22604606
193	0xbde65568	-0.11246759
194	0xbe1a63af	-0.15077089
195	0xbdb9c436	-0.090706274
196	0xbe354416	-0.17701754
197	0x3c3d3bbe	0.011549888
198	0xbe84cc8f	-0.25937316
199	0xbe43c8ea	-0.19119611
200	0xbe010f2b	-0.12603442
201	0x3d24d543	0.040242445
202	0xbe1fdba8	-0.15611136
203	0x3d47d526	0.04878726
204	0xbe5a6364	-0.21326977
205	0xbdb83697	-0.08994787
206	0xbdf28d89	-0.11843402
207	0xbe0bd709	-0.13656248
208	0xbe057a0f	-0.13034843
209	0x3c04dcd7	0.008109293
210	0xbdc1d2d9	-0.09464044
211	0xbd95bda8	-0.07311565
212	0xbca58b5c	-0.020208053
213	0xbe13e41d	-0.14442487
214	0xbe3b7ca9	-0.18309273
215	0xbe1b7d86	-0.15184602
216	0xbdfe82dc	-0.12427303
217	0xbe0b6226	-0.1361166
218	0xbe076249	-0.13221087
219	0xbe0201b9	-0.1269597
220	0xbe2990c5	-0.16559131
221	0xbbbce3e7	-0.0057644728
222	0xbe436c16	-0.190842
223	0xbdc1ac68	-0.09456712
224	0x3da1d13a	0.07901235
225	0xbad9c087	-0.0016613164
226	0x3cb2f221	0.021843972
227	0xbdd281a6	-0.10278635
228	0xbac80d20	-0.0015262701
229	0x3e1c28f1	0.15249993
230	0x3d84cec5	0.06484751
231	0x3e143d97	0.1447662
232	0x3e5d56b4	0.21615106
233	0x3df55343	0.119787715
234	0x3d9141df	0.07092642
235	0x3ea3f725	0.32024494
236	0xbd49cfe0	-0.04927051
237	0xbdddf55d	-0.10837815
238	0xbe00ba2a	-0.12571016
239	0xbe4276b6	-0.18990597
240	0x3dd15504	0.102212936
241	0xbdf42585	-0.11921219
242	0xbcda1e0d	-0.026625657
243	0xbce84e83	-0.02835775
244	0xbe36bc1c	-0.17845196
245	0x3d35fe1c	0.04443179
246	0x3d695eea	0.056975283
247	0xbe1e5491	-0.15461947
248	0xbde034dc	-0.10947582
249	0x3e3c212a	0.18372026
250	0x3e044edf	0.12920712
251	0x3e5a2f9d	0.21307226
252	0x3e9fad33	0.31186828
253	0x3e0d8abd	0.13822456
254	0x3dbf6163	0.09344747
255	0x3dd070fb	0.10177799

conv_sep.1.weight f4 [16, 16, 1, 1]
0	0x3dd4c696	0.1038944
1	0x3e378b5f	0.1792426
2	0x3d9a721f	0.07541298
3	0xbe0b8e74	-0.1362856
4	0x3e5a6159	0.21326198
5	0xbce81230	-0.028328985
6	0x3e347cd4	0.17625743
7	0x3d78ea47	0.0607703
8	0x3e699ba3	0.22813277
9	0x3cda6778	0.026660666
10	0x3e2a6dd4	0.16643459
11	0xbe556e0b	-0.2084276
12	0xbe0ec0fe	-0.13940808
13	0x3e31cd97	0.17363583
14	0xbe700068	-0.23437655
15	0x3ceb3252	0.028710518
16	0x3dc5ac89	0.09652049
17	0xbe9d016f	-0.30665156
18	0x3d4dd700	0.050253868
19	0xbdb2dc53	-0.0873343
20	0xbcc69488	-0.024240747
21	0xbde632d4	-0.112401634
22	0x3e1f17a1	0.15536357
23	0x3df04852	0.11732544
24	0xbddc8cb9	-0.10769028
25	0x3d1097b5	0.03530093
26	0xbc524915	-0.012834807
27	0x3e228e1b	0.15874521
28	0x3e04f9f2	0.12985972
29	0xbe1da470	-0.15394759
30	0xbe27fd2c	-0.16405171
31	0xbd7b519c	-0.061357126
32	0x3dacc474	0.08435908
33	0x3d8ee0a7	0.06976443
34	0x3cfb680a	0.030689258
35	0xbe354ed7	-0.17705856
36	0x3e592002	0.21203616
37	0x3d1eacdc	0.03873907
38	0xbce9e259	-0.028550314
39	0xbdc94ff2	-0.098297015
40	0x3e53483c	0.20633024
41	0xbe149904	-0.14511496
42	0xbdadd33f	-0.084875576
43	0xbdcdfc9a	-0.100579455
44	0xbe1f9596	-0.15584406
45	0xbdbea4cb	-0.093087755
46	0x3e7726db	0.24135916
47	0xbe4c0db5	-0.19927104
48	0xbe132f93	-0.14373617
49	0xbdcb252d	-0.099192
50	0xbddab92b	-0.10679849
51	0xbdc1335f	-0.094336264
52	0xbe4d3b42	-0.20042136
53	0xbe05a89d	-0.13052602
54	0x3e2d0e2f	0.16899942
55	0x3d37be11	0.044858996
56	0x3d0b40bb	0.03399728
57	0xbe56b091	-0.20965792
58	0x3dd7557e	0.10514353
59	0xbd805e8d	-0.06268034
60	0x3e537273	0.20649128
61	0x3e4ee6a0	0.20205164
62	0x3e45fd97	0.19335018
63	0x3d38763d	0.045034636
64	0x3e6260ec	0.22107285
65	0x3d475c35	0.04867192
66	0x3e557765	0.20846327
67	0x3e808669	0.25102547
68	0x3dcab686	0.09898095
69	0x3e0d2af3	0.13785915
70	0x3dbcb1a9	0.092135735
71	0xbc946245	-0.018113265
72	0x3dd32931	0.10310591
73	0xbe1b8af7	-0.1518973
74	0x3b2dc028	0.002651224
75	0x3e2a7d25	0.16649301
76	0x3dabe948	0.08394104
77	0x3e1d9238	0.1538781
78	0x3b340a03	0.0027471788
79	0xbe376b4d	-0.17912026
80	0x3d9b6058	0.075867355
81	0xbe155a0d	-0.14585133
82	0xbe75e198	-0.24011838
83	0x3e2f44b2	0.17116049
84	0xbe2cabf1	-0.16862465
85	0xbe4f15ae	-0.20223114
86	0xbe824df0	-0.25450087
87	0xbd825d38	-0.06365436
88	0x3d17411f	0.03692734
89	0xbd05300d	-0.032516528
90	0x3dafc932	0.08583297
91	0x3e468745	0.19387539
92	0xbc15c0b2	-0.00914018
93	0xbc5f359c	-0.013623621
94	0xbe70f7e2	-0.2353206
95	0x3d8166d8	0.06318444
96	0x3e22f001	0.15911867
97	0x3d8fd13f	0.070223324
98	0xbd6f8da7	-0.0584847
99	0xbd5da4d4	-0.05411227
100	0xbb565681	-0.003270537
101	0xbe869fe2	-0.26293856
102	0x3e2502b6	0.16114315
103	0x3da5e2f8	0.080999315
104	0xbcf46186	-0.029831659
105	0xbe2031e5	-0.15644033
106	0xbe697479	-0.22798337
107	0xbb5f8d02	-0.0034111147
108	0x3df1f627	0.11814528
109	0xbda8fd48	-0.082514346
110	0xbc4af295	-0.012386938
111	0x3e6db832	0.23214796
112	0xbe14bad8	-0.145244
113	0x3b4e0c66	0.0031440496
114	0xbde47e9b	-0.111569606
115	0xbd7038e2	-0.058647998
116	0x3d969f56	0.0735461
117	0x3dab21a6	0.08356027
118	0x3c0168a5	0.007898484
119	0x3e7ac550	0.24489331
120	0x3e227b19	0.1586727
121	0xbcdbdb9f	-0.026838122
122	0xbe6560e1	-0.22400238
123	0xbe27eb7a	-0.16398421
124	0x3eb38c09	0.35067776
125	0xbe5405c9	-0.20705332
126	0x3dc03726	0.09385519
127	0x3e3864ac	0.18007153
128	0xbe7b3760	-0.24532843
129	0xbe0c19dc	-0.1368174
130	0xbebf2346	-0.373316
131	0x3e693fcf	0.22778247
132	0xbc03c4a5	-0.008042489
133	0xbdb36378	-0.087592065
134	0x3e1cebc6	0.15324315
135	0x3d11612a	0.035493053
136	0x3e2517cb	0.16122358
137	0x3c9ae802	0.018909458
138	0x3cce3a09	0.025174158
139	0xbd5fbfa1	-0.05462611
140	0x3d75f66d	0.060049463
141	0xbae101a9	-0.0017166632
142	0x3d4de681	0.050268654
143	0xbe277e55	-0.16356786
144	0x3cebfa97	0.028806014
145	0xbd227349	-0.039660726
146	0x3d484015	0.04888924
147	0x3cb82ab7	0.022481306
148	0xbe4f94c2	-0.2027159
149	0x3c79ca10	0.015245929
150	0x3de9fddf	0.11425375
151	0xbe748df0	-0.2388227
152	0x3e16d577	0.14729868
153	0x3e2e3928	0.17013991
154	0x3e73df55	0.23815663
155	0x3e04c690	0.1296637
156	0xbe7b9f6f	-0.24572538
157	0x3c12111e	0.008915214
158	0xbdb2a601	-0.08723069
159	0x3e401f8f	0.18762039
160	0xbe60bd51	-0.21947218
161	0xbe03380f	-0.12814353
162	0x3c854390	0.016267568
163	0x3e86e168	0.26343846
164	0x3e687f24	0.2270475
165	0xbe0fc5c1	-0.14040281
166	0xbe6503ed	-0.22364779
167	0x3d9e0cc3	0.07717278
168	0x3e8c368d	0.2738537
169	0xbe66efc6	-0.22552404
170	0xbde79640	-0.11307955
171	0xbd7af569	-0.061269198
172	0xbcea2212	-0.0285807
173	0xbe090e4b	-0.13384359
174	0x3e0b9f66	0.13635024
175	0xbd72a6cb	-0.059241097
176	0x3e172381	0.14759637
177	0xbed4aaca	-0.41536552
178	0x3cc19f56	0.023635548
179	0xbdf3b764	-0.11900213
180	0xbe084361	-0.13306953
181	0x3d986a24	0.0744212
182	0x3db294e4	0.08719805
183	0xbccc12a2	-0.024911229
184	0x3cfafd8a	0.030638475
185	0xbdbccfd3	-0.09219327
186	0x3cbb027d	0.022828335
187	0xbd6cb818	-0.057792753
188	0xbe0e3612	-0.13887814
189	0xbe1b60d2	-0.15173653
190	0x3e10be0b	0.14134996
191	0xbe4b1136	-0.19830784
192	0x3d2b5e3c	0.041837916
193	0x3c6714ef	0.014104112
194	0x3e4157ba	0.18881121
195	0x3cc1e55f	0.023668943
196	0x3e27e20e	0.16394827
197	0x3dfb343b	0.122658215
198	0x3e090142	0.13379386
199	0xbd1b41ae	-0.037904434
200	0xbdf91e4d	-0.121639825
201	0x3dccdf4c	0.10003528
202	0x3e1fdd75	0.15611823
203	0xbdc66c50	-0.09688628
204	0xbcdfef0a	-0.027335662
205	0x3e582165	0.21106489
206	0x3d9ee929	0.077593155
207	0xbe11a87e	-0.14224431
208	0x3dc8dc39	0.09807629
209	0x3d7534a7	0.059864666
210	0x3cc44688	0.023959413
211	0xbd6f51cb	-0.058427613
212	0x3d8fc8f3	0.0702075
213	0x3d51e330	0.051242054
214	0xbcd6068b	-0.026126167
215	0xbe089ac1	-0.13340284
216	0x3e1279e5	0.14304312
217	0x3e497684	0.19674116
218	0xbddb1098	-0.106965244
219	0x3e5ad684	0.21370894
220	0x3df464ef	0.11933314
221	0x3e586b2f	0.21134637
222	0x3ddfc571	0.10926331
223	0x3d8a03b7	0.0673899
224	0x3cdf13c7	0.02723111
225	0x3e73a938	0.2379502
226	0xbe901eee	-0.28148597
227	0x3e0aedf1	0.1356733
228	0xbda63455	-0.0811545
229	0x3e190cbc	0.14946264
230	0x3e363469	0.1779343
231	0xbccff552	-0.025385533
232	0xbd5d5716	-0.05403813
233	0x3d823746	0.06358199
234	0x3e086acb	0.13321988
235	0x3d525be1	0.051357154
236	0xbe7c2a60	-0.2462554
237	0xbe81e9c1	-0.25373653
238	0xbd911cf9	-0.07085604
239	0xbe3a50ba	-0.18194857
240	0xbc226c22	-0.009913476
241	0x3d2b16d6	0.041769825
242	0xbe2d4ea8	-0.16924536
243	0x3e48f466	0.1962448
244	0x3bcbe615	0.0062224963
245	0x3d4cb109	0.04997352
246	0xbe00e1df	-0.12586163
247	0xbe89fd84	-0.2695123
248	0x3d2e38bc	0.042534575
249	0x39b3ea31	0.00034316027
250	0xbe026f63	-0.12737803
251	0x3e3e3c6c	0.18577737
252	0xbdfb72b7	-0.122777395
253	0xbc7f62df	-0.015587538
254	0x3d6be179	0.057588074
255	0xbe46e078	-0.19421566

bn3.weight f4 [16]
0	0x3fa661d7	1.2998608
1	0x3fb46502	1.4093325
2	0x3f9dd120	1.2329445
3	0x3fa7ee0e	1.3119524
4	0x3fb59497	1.4185971
5	0x3f9f8c2d	1.2464653
6	0x3fa9f660	1.3278313
7	0x3fa7056b	1.3048528
8	0x3fa67acf	1.3006228
9	0x3fa6312f	1.298376
10	0x3fab6f24	1.3393292
11	0x3fbd51f9	1.4790641
12	0x3faf6ab4	1.3704438
13	0x3fb2371f	1.3923072
14	0x3f9a64c4	1.2062001
15	0x3fa3c0b7	1.2793187

bn3.bias f4 [16]
0	0x3bb1ad9d	0.0054223076
1	0xbb8cf024	-0.004301088
2	0x3d7c657b	0.061620217
3	0x3bf34457	0.007423918
4	0x3d404c59	0.04694781
5	0x3cc2c2b8	0.02377449
6	0x3ce5876d	0.028018678
7	0x3c1f685e	0.009729473
8	0xbd61da37	-0.055139747
9	0x3c9e243d	0.01930439
10	0xbbd550ac	-0.006509861
11	0x3d9e1564	0.07718924
12	0x3d34b108	0.044114143
13	0x3d49e406	0.049289726
14	0xbd189f74	-0.03726144
15	0x3c6547cd	0.013994169

bn3.running_mean f4 [16]
0	0xbdcabfe2	-0.0989988
1	0xbcba9896	-0.022777837
2	0xbdd59f36	-0.10430758
3	0x3d8d91f5	0.06912605
4	0x3cd482b4	0.02594123
5	0xbd9734af	-0.073830955
6	0xbde47eb2	-0.11156978
7	0x3dcaf3df	0.09909796
8	0xbe54beb8	-0.20775878
9	0xbe303471	-0.17207505
10	0xbda91cd9	-0.082574554
11	0xbdb412c8	-0.08792645
12	0x3d470a9b	0.0485941
13	0x3dab220d	0.08356104
14	0xbe8be1f8	-0.27320838
15	0xbe0acfbf	-0.13555811

bn3.running_var f4 [16]
0	0x3e16535c	0.14680237
1	0x3dfb4e91	0.12270845
2	0x3dc3c254	0.095585495
3	0x3db623c7	0.08893543
4	0x3dd4a8d0	0.10383761
5	0x3dfd64f7	0.12372773
6	0x3de60859	0.11232061
7	0x3e0588c2	0.1304045
8	0x3e0036f3	0.12520961
9	0x3e0949ad	0.13407011
10	0x3dfb9c03	0.12285616
11	0x3e357dc5	0.17723759
12	0x3d735dc8	0.05941561
13	0x3d943f62	0.07238652
14	0x3e173ee1	0.1477008
15	0x3df326d6	0.11872642

eca.conv1d.weight f4 [1, 1, 3]
0	0xbeb10a20	-0.34578037
1	0x3f967d9d	1.1757084
2	0x3f0742cb	0.52836293

classifier.weight f4 [4, 560]
0	0xbcfca011	-0.030838044
1	0xbd67965a	-0.05653987
2	0x3d343b2e	0.04400175
3	0x3d842a89	0.064534254
4	0x3e5627e0	0.20913649
5	0xbd7dfd86	-0.062009357
6	0x3d16c558	0.036809295
7	0x3af11cf9	0.0018395475
8	0xbcd66018	-0.026168868
9	0xbcfea9b6	-0.031086784
10	0x3ceae53d	0.028673762
11	0xbdb01a3a	-0.08598752
12	0xbd8c55e2	-0.06852318
13	0xbd168cbc	-0.03675531
14	0xbd739240	-0.059465647
15	0x3c63ded9	0.0139081115
16	0xbd350bd1	-0.044200722
17	0x3c183700	0.009290457
18	0xbc5c94b6	-0.01346319
19	0x3d5d0b32	0.053965755
20	0xbce96f56	-0.028495472
21	0xbe2f97ea	-0.17147794
22	0x3d03aee7	0.03214922
23	0xbe17f68a	-0.14840141
24	0x3d99cd41	0.07509852
25	0xbdcb7e7e	-0.09936236
26	0xbdaf4939	-0.08558888
27	0x3b95f3a4	0.0045761634
28	0xbd6b6372	-0.057467885
29	0x3d48a902	0.048989303
30	0x3e051806	0.12997445
31	0xbda5c1ea	-0.08093627
32	0x3d5b1a3f	0.053491827
33	0xba8d9175	-0.0010800796
34	0x3cf01439	0.029306518
35	0x3e180f25	0.14849527
36	0xbad0307a	-0.0015883588
37	0x3d74b95b	0.05974708
38	0x3e01393b	0.12619488
39	0xbe103d71	-0.14085938
40	0xbc90e480	-0.017687082
41	0x3d8b0f51	0.06790031
42	0xbd3c2052	-0.04592926
43	0x3c5b0cc8	0.0133697465
44	0x3d416a7c	0.047220692
45	0xbd2e0ea3	-0.042494427
46	0xbdda882b	-0.10670503
47	0xbdc693ea	-0.09696181
48	0xbd8c7740	-0.06858683
49	0xbcfb0c12	-0.030645404
50	0x3d25574c	0.040366456
51	0xbde7cc09	-0.113182135
52	0xbdd1be53	-0.102413796
53	0x3c353997	0.011061094
54	0x3c625be8	0.0138158575
55	0xbd2c83e0	-0.042117953
56	0x3d0be9d0	0.034158528
57	0xbd664b0e	-0.05622392
58	0xbce70f60	-0.028205574
59	0xbce42cc9	-0.027853386
60	0xbd3839fd	-0.044977177
61	0xbc92685c	-0.017872028
62	0xbe3dcb3f	-0.18534563
63	0xbc8887aa	-0.016666252
64	0xbd6acdec	-0.05732529
65	0x3ca1ddcc	0.019759081
66	0xbe1b7c55	-0.15184148
67	0x3d876e1a	0.06612797
68	0x3dca38de	0.09874128
69	0xbd877d92	-0.066157475
70	0xbd4959a7	-0.049157765
71	0xbc17b380	-0.009259105
72	0x3c9d42f3	0.019196963
73	0x3d666d6e	0.056256704
74	0xbe53c560	-0.20680761
75	0x3db6463c	0.08900115
76	0xbbaca951	-0.0052692075
77	0xbdc75fa5	-0.097350396
78	0x3dd74d4d	0.10512791
79	0x3b7c5e62	0.0038508405
80	0x3c4994ec	0.012303572
81	0x3d54515c	0.051835403
82	0x3d62b12f	0.055344757
83	0x3c647ee4	0.013946269
84	0x3b84f88d	0.00405795
85	0x3da25d52	0.07927956
86	0xbc97fcb3	-0.018553114
87	0xbc9ec299	-0.0193799
88	0x3c982445	0.018571982
89	0xbca252f0	-0.019814938
90	0x3d74039a	0.059573747
91	0xbd965a6b	-0.073414646
92	0x3c8e5271	0.017373296
93	0xbd2deab0	-0.042460144
94	0x3d60938a	0.054828204
95	0xbcc552e9	-0.024087386
96	0xbdb0c811	-0.0863191
97	0x3d76afcf	0.060226258
98	0xbc94a097	-0.018142981
99	0xbc06ff8d	-0.008239639
100	0x3dc81dee	0.09771334
101	0xbc3878a4	-0.011259232
102	0xbde1771a	-0.11009045
103	0x3d8b04e1	0.0678804
104	0x3db50844	0.08839467
105	0x3c85dacc	0.016339682
106	0x3de7e9fc	0.11323926
107	0xba914e2d	-0.001108592
108	0x3db772e0	0.089574575
109	0xbd709c5f	-0.058742877
110	0xbd25a421	-0.04043973
111	0x3c315573	0.010823595
112	0xbd0cb9f1	-0.034357015
113	0xbd59f2ee	-0.05321019
114	0xbdb80610	-0.08985531
115	0xbe2f9d43	-0.17149834
116	0xba1f54c8	-0.0006078002
117	0xbe298633	-0.16555099
118	0xbe191531	-0.1494949
119	0xbc4fdb83	-0.012686613
120	0xbe4145f9	-0.18874349
121	0xbe0521c8	-0.13001168
122	0xbdb404e0	-0.08789992
123	0xbd6cecfc	-0.057843193
124	0x3c898ab8	0.016789779
125	0x3c2006b5	0.009767224
126	0xbd81837c	-0.06323907
127	0xbda8b6cd	-0.082379915
128	0xbd295703	-0.041342746
129	0x3c7b7a13	0.015348929
130	0x3dcf0931	0.10109175
131	0x3d35d1d1	0.04438955
132	0x3e0a139f	0.13484047
133	0xbda2fb27	-0.0795806
134	0xbd0306db	-0.03198896
135	0x3e057ac6	0.13035116
136	0xbdc92c40	-0.09822893
137	0x3d1d8ea9	0.03846613
138	0x3d30d9f2	0.0431766
139	0xbdb5fcc0	-0.08886099
140	0x3c36a3a0	0.01114741
141	0x3d22baea	0.039729036
142	0xbd4003a6	-0.04687848
143	0x3e07d6d7	0.13265549
144	0xbe2ea7ff	-0.17056273
145	0x3e309afb	0.1724662
146	0x3daf937f	0.085730545
147	0xbe19dffa	-0.15026847
148	0x3dae7772	0.08518876
149	0xbd2224ed	-0.039585996
150	0xbd8bd449	-0.068275996
151	0xbde52261	-0.11188198
152	0xbd9fdf9a	-0.078063205
153	0xbd0a37c6	-0.033744596
154	0xbd261e3b	-0.040556174
155	0xbcc10d7f	-0.023566006
156	0xbd83fa93	-0.064442776
157	0xbd7fe7a3	-0.062476765
158	0xbc4cfa15	-0.012510796
159	0xbd9f2ba7	-0.07771998
160	0x3caf985c	0.021434955
161	0xbde8f9d1	-0.11375774
162	0x3e1e526d	0.1546113
163	0xbdd2504f	-0.10269224
164	0x3d401c73	0.04690213
165	0xbca8bd61	-0.020598115
166	0xbcea8c1b	-0.02863126
167	0x3d133778	0.03594157
168	0x3d558f77	0.05213877
169	0xbc8946a8	-0.016757324
170	0xbdb44b06	-0.08803372
171	0xbddf1fc0	-0.10894728
172	0xbd67fe74	-0.05663915
173	0x3e0a92a1	0.13532497
174	0x3dc9815f	0.09839129
175	0x3e0a0050	0.13476682
176	0x3d49e399	0.04928932
177	0x3cc3b1b0	0.023888439
178	0xbcecb887	-0.028896583
179	0xb9abe78c	-0.00032788177
180	0x3bf6209a	0.0075112106
181	0x3d4aac7d	0.049480904
182	0x3c7b3997	0.015333555
183	0x3d6443f6	0.055728875
184	0x3db31d14	0.087457806
185	0x3d2dc98c	0.04242854
186	0x3bafced7	0.0053652334
187	0x3c78502a	0.015155831
188	0x3d653ffc	0.055969223
189	0x3dd1f23d	0.102512814
190	0x3d667b17	0.05626973
191	0x3dcb630d	0.09931002
192	0x3d98bdb7	0.0745806
193	0x3debfcf3	0.115228556
194	0x3e1ea7a8	0.15493643
195	0x3cbc4a62	0.022984687
196	0x3cab1655	0.020884672
197	0x3da207cd	0.07911644
198	0x3df9a1d5	0.1218907
199	0x3d96aa45	0.07356695
200	0x3dc6b35b	0.09702178
201	0x3c45143b	0.012028749
202	0xbd3facbc	-0.04679559
203	0x3d1b386c	0.037895605
204	0x3d192edc	0.037398204
205	0x3d3c90a7	0.04603639
206	0xbcbca606	-0.023028385
207	0x3df888be	0.121354565
208	0xbc4a287d	-0.012338755
209	0xbd8f9bc6	-0.07012133
210	0x3bc7d5b1	0.006098472
211	0x3d90a7eb	0.07063278
212	0xbd092c81	-0.033489708
213	0x3ceb8c59	0.028753446
214	0x3e526d9a	0.20549622
215	0xbdcfbdf9	-0.10143656
216	0x3d9be7f0	0.07612598
217	0xbd11a64f	-0.035558995
218	0xbc3d3c1e	-0.011549978
219	0x3de3886c	0.11110005
220	0xbe266a6e	-0.16251537
221	0xbd8e4869	-0.06947405
222	0xbe014818	-0.12625158
223	0xbd54e108	-0.05197242
224	0xba1c17b9	-0.00059544627
225	0xbc3080bc	-0.01077288
226	0x3c6a8c6d	0.014315707
227	0xbd31d7cb	-0.043418687
228	0x3db98349	0.09058244
229	0x3d39fb0e	0.04540544
230	0x3cc68cee	0.024237122
231	0xbd9d5c3d	-0.07683609
232	0xbd0b019d	-0.033937085
233	0x3d7b722d	0.061388183
234	0xbcf9b39c	-0.030481152
235	0xbd603005	-0.054733295
236	0xbd52be68	-0.051451117
237	0xbc3380a3	-0.010955962
238	0xbbb8f8a6	-0.0056448756
239	0xbd17a9bd	-0.03702711
240	0xbd0c5327	-0.034258988
241	0xbb99aa62	-0.0046895007
242	0x3d55f517	0.05223569
243	0x3c35cf77	0.011096827
244	0x3dec3a2b	0.11534532
245	0x3d0324fc	0.032017693
246	0x3cb5a100	0.022171497
247	0xbda7021e	-0.08154701
248	0xbd5f5be5	-0.054530997
249	0x3e193751	0.14962508
250	0xbdc36354	-0.0954043
251	0x3d89d091	0.06729234
252	0x3d48a21a	0.048982717
253	0xbd3cd483	-0.046101104
254	0x3d1d79f4	0.03844638
255	0xbd234ae0	-0.03986633

classifier.bias f4 [4]
0	0xbbc3598c	-0.0059616026
1	0x3d1d1c5d	0.038357127
2	0xbcf3f66f	-0.029780595
3	0xbcad1f35	-0.021133045
