result_eegnetsca_cv5/fold_1/best_model_fold1.pth (torch, 23812 bytes, 20 tensors)

conv_time.weight f4 [8, 1, 1, 64]
0	0x3d64e159	0.05587897
1	0xbce44e99	-0.02786951
2	0x3e037814	0.12838775
3	0xbcba2c28	-0.022726133
4	0xbd91db45	-0.071219005
5	0xbd9b1367	-0.0757206
6	0x3d61af6c	0.055098936
7	0xbd98a570	-0.0745343
8	0x3d9789f3	0.073993586
9	0x3cf40222	0.029786173
10	0x3dc59090	0.09646714
11	0xbdc7ceb3	-0.097562216
12	0xbb265a03	-0.002538324
13	0xbb25a252	-0.0025273752
14	0xbc06dbd8	-0.008231126
15	0x3cd717ae	0.026256409
16	0xbd23e92e	-0.0400173
17	0xbd868ab0	-0.06569421
18	0x3dada435	0.08478586
19	0xbd8af9aa	-0.06785901
20	0xbd9792de	-0.074010596
21	0x3d972c2e	0.073814735
22	0xbcf08d51	-0.02936426
23	0x3dd08dfb	0.101833306
24	0xbda11326	-0.078649804
25	0x3dd02ca4	0.101647645
26	0x3d5c3d82	0.053769596
27	0x3d1c4827	0.038154747
28	0x3e24b7cb	0.16085736
29	0x3cbc4ec8	0.022986785
30	0x3db7aced	0.0896853
31	0x3c9cb517	0.01912932
32	0x3dcd4711	0.100233205
33	0x3de854f9	0.11344332
34	0x3e2f6993	0.17130117
35	0x3b8b9897	0.0042601335
36	0x3db9fe64	0.09081724
37	0x3d398dac	0.045301124
38	0x3e149d70	0.14513183
39	0xbc1ed853	-0.00969513
40	0x3d32c55a	0.04364524
41	0x3e38126a	0.17975774
42	0x3e0a2335	0.13489993
43	0x3d4278c2	0.047478445
44	0x3de52e36	0.11190455
45	0x3df2f2e5	0.11862735
46	0x3d2eb253	0.042650532
47	0xbc6630e3	-0.014049741
48	0xbc2ddbca	-0.010611484
49	0x3e14a77e	0.14517018
50	0x3d220c12	0.039562292
51	0x3db5ed3d	0.0888314
52	0xbdb0d211	-0.08633817
53	0x3dd709ee	0.10499941
54	0x3d487adf	0.048945304
55	0x3cea3b88	0.02859284
56	0x3c3b4b41	0.011431516
57	0x3d5f7476	0.054554425
58	0xbc8403fb	-0.01611518
59	0xbd5eeeef	-0.054427084
60	0xbc96bb04	-0.018399723
61	0x3db0318c	0.086032
62	0xbdd4104f	-0.10354673
63	0x3d959bd5	0.07305113
64	0x3c34c7da	0.011033976
65	0xbe3642f8	-0.17798984
66	0xbc8d9762	-0.017284099
67	0xbda280cc	-0.07934722
68	0xbdcadea2	-0.09905745
69	0xbc8b8df3	-0.01703546
70	0x3d420dc8	0.047376424
71	0x3e00c9fb	0.1257705
72	0x3e2fb456	0.17158636
73	0x3d8d8a3b	0.06911131
74	0x3c7243ef	0.014786704
75	0x3d28734a	0.041125573
76	0x3dae1d2f	0.0850166
77	0x3d292628	0.041296154
78	0x3d7579d2	0.05993063
79	0xbc6234dd	-0.013806549
80	0x3e449d1f	0.19200562
81	0xbcb1b004	-0.021690376
82	0xbd04238c	-0.032260463
83	0xbe284a3c	-0.16434568
84	0xbdb86674	-0.090039164
85	0x3ce64a20	0.028111517
86	0xbe184cf0	-0.148731
87	0x3cf59539	0.029978381
88	0x3de49b41	0.11162425
89	0xbddb1a30	-0.10698354
90	0x3c96a9d8	0.018391535
91	0x3d37a5cd	0.044835854
92	0x3cb0f9a5	0.021603415
93	0x3c94dd40	0.018171906
94	0x3e114961	0.14188148
95	0x3e199f75	0.15002234
96	0x3d34f5f0	0.044179857
97	0x3d88f235	0.06686822
98	0xbd5babd2	-0.053630657
99	0xbdcbeabb	-0.09956881
100	0xbdf3b7e8	-0.11900312
101	0xbc6ca205	-0.014442925
102	0x3c80b55e	0.015711483
103	0x3bfc63fb	0.0077023483
104	0xbd6250fe	-0.05525302
105	0xbc9ba099	-0.018997477
106	0xbdda740a	-0.10666664
107	0xbd8334a4	-0.06406525
108	0xbdfbc428	-0.12293273
109	0x3d0fce35	0.035108764
110	0xbdace6f6	-0.0844249
111	0x3dc74c4b	0.097313486
112	0xbc5e8ba1	-0.013583095
113	0x3d224b45	0.039622564
114	0xbc8762a2	-0.016526524
115	0x3d8d105d	0.06887887
116	0xbd531eb7	-0.051542964
117	0xbd5759bd	-0.052575815
118	0xbd7b8f13	-0.061415743
119	0x3d4be689	0.049780402
120	0xbd8b21df	-0.0679357
121	0xbdcd861e	-0.100353464
122	0xbd426902	-0.047463425
123	0xbd93473c	-0.07191321
124	0xbce8744c	-0.028375767
125	0xbd8a195d	-0.06743119
126	0xbc97425d	-0.018464262
127	0x3e21793d	0.15768905
128	0x3ddea634	0.108715445
129	0xbd862f32	-0.065519705
130	0x3d872f4b	0.06600817
131	0xbc8ba68b	-0.017047187
132	0x3ded7a67	0.11595612
133	0xbca46f14	-0.020072497
134	0xbcab37c5	-0.020900616
135	0x3b3a7255	0.0028449495
136	0x3bbc57d3	0.005747774
137	0x3e01b7b7	0.12667738
138	0xbd378d13	-0.044812273
139	0x3ce44802	0.027866367
140	0xbc83778a	-0.016048212
141	0x3da987ba	0.08277841
142	0x3db4e9f5	0.08833686
143	0xbd12af27	-0.03581157
144	0x3d1dfcf1	0.0385713
145	0x3d247222	0.040147908
146	0xbc9bd43b	-0.019022098
147	0x3d8ee8e4	0.06978014
148	0x3d9d1af9	0.0767116
149	0xbe15754a	-0.14595523
150	0xbdae91b9	-0.08523888
151	0x3dbbf8ef	0.0917834
152	0x3ba39ca4	0.0049930383
153	0xbd3b21d1	-0.045686547
154	0x3d8c152a	0.06839974
155	0xbd275dde	-0.040861003
156	0xbda20ed4	-0.079129845
157	0xbe16337f	-0.14668082
158	0x3d1e16fa	0.03859613
159	0xbd95dc2b	-0.07317384
160	0xbdf64090	-0.12024033
161	0xbde7d8ff	-0.113206856
162	0xbdb7312c	-0.08944926
163	0x3d7bbdad	0.061460186
164	0x3dac387a	0.084092095
165	0x3d8bc354	0.06824365
166	0xbd45fb3c	-0.0483353
167	0xbdfee481	-0.124459274
168	0xbe08731e	-0.13325164
169	0xbe30d5fc	-0.17269129
170	0xbd8b511f	-0.06802582
171	0xbcca4c1f	-0.0246945
172	0xbdad0fcd	-0.084502794
173	0xbe00fed2	-0.12597206
174	0x3d9aa113	0.07550254
175	0x3d50d27c	0.050981984
176	0xbd71b98c	-0.059014842
177	0xbda4c391	-0.08045114
178	0xbd8ff113	-0.07028403
179	0xbe12ecfb	-0.14348213
180	0xbcf0df1b	-0.02940326
181	0xbd431dd3	-0.047635864
182	0xbdc808cf	-0.09767305
183	0xbdaa32ff	-0.08310508
184	0xbb6bb12f	-0.0035963764
185	0xbd54061a	-0.05176363
186	0x3b0d26d2	0.0021538031
187	0xbcdff733	-0.027339553
188	0xbd9e2d81	-0.07723523
189	0xbcc29eb0	-0.023757309
190	0xbdd1340d	-0.10215006
191	0x3b84bd01	0.0040508513
192	0x3ce780c1	0.028259637
193	0xbdf1c635	-0.11805383
194	0xbe129dc1	-0.14317991
195	0xbe3a9f24	-0.1822477
196	0xbd2a76a1	-0.04161704
197	0xbdd9d042	-0.10635425
198	0x3dfb3aa3	0.122670434
199	0x3dd45ec7	0.1036964
200	0x3d3c5188	0.04597619
201	0x3d09204d	0.03347807
202	0x39da8178	0.00041676662
203	0x3d8d7b61	0.06908298
204	0xbdcc9cec	-0.09990868
205	0xbdb45161	-0.08804584
206	0xbd17b786	-0.037040256
207	0xbc130af8	-0.008974783
208	0xbc266da0	-0.010157973
209	0x3e0043fc	0.12525934
210	0xbd0249be	-0.031808607
211	0x3d8cab4a	0.06868608
212	0xbdd9e443	-0.106392406
213	0x3d6566cf	0.05600625
214	0x3d5c240b	0.05374531
215	0xbd94b49d	-0.07261012
216	0xbe2bd4c3	-0.16780381
217	0xbe0ee333	-0.13953857
218	0xbd4ab21e	-0.049486272
219	0xbe14803e	-0.14502046
220	0xbd27936d	-0.04091208
221	0xbc0058ba	-0.007833654
222	0x3c705360	0.014668316
223	0x3e20859f	0.15675972
224	0xbc09d1a8	-0.008411802
225	0x3dba4705	0.09095577
226	0xbd2e3d3e	-0.042538874
227	0x3d0c725d	0.034288753
228	0x3e053a83	0.13010602
229	0xbd809581	-0.062785156
230	0xbd75661a	-0.059911825
231	0x3d9c2706	0.07624631
232	0x3d264aba	0.04059861
233	0xbe043e99	-0.12914504
234	0x3a83a158	0.0010042591
235	0xbdffab72	-0.124838725
236	0xbe11ecf9	-0.14250554
237	0xbdc6d2b3	-0.097081564
238	0x3d01d55d	0.03169762
239	0xbd202ed2	-0.03910715
240	0x3d854054	0.0650641
241	0x3c7532de	0.014965741
242	0xbd26f705	-0.04076292
243	0x3de18f4e	0.11013661
244	0x3daafea4	0.0834935
245	0x3dad25ac	0.08454451
246	0xbda77966	-0.08177452
247	0xbdc2e7a4	-0.09516838
248	0x3cec0930	0.028812975
249	0x3c7f851d	0.0155957015
250	0xbd82d0c9	-0.06387479
251	0xbb8c6380	-0.0042843223
252	0xbdc67d05	-0.09691814
253	0x3c26d272	0.01018201
254	0x3d3b0160	0.04565561
255	0xbc8c2307	-0.017106546

bn1.weight f4 [8]
0	0x3f8128fa	1.009063
1	0x3f9d40ff	1.228546
2	0x3f628985	0.8849109
3	0x3fb00d8e	1.3754137
4	0x3f6ff30c	0.93730235
5	0x3f8ee59b	1.116382
6	0x3f2e3010	0.6804209
7	0x3f85b453	1.0445656

bn1.bias f4 [8]
0	0x3d85c1bd	0.06531093
1	0x3d6d525a	0.057939865
2	0x3d7ce750	0.061744034
3	0x3d6e1ad7	0.058131065
4	0x3d70560e	0.05867582
5	0x3d770476	0.06030699
6	0x3dcbefd9	0.09957857
7	0x3d82c9f1	0.063861735

bn1.running_mean f4 [8]
0	0x39080a95	0.00012973913
1	0xba12586e	-0.0005582635
2	0xba114f22	-0.0005543103
3	0x3989228d	0.0002615642
4	0x34a8a224	3.141041e-07
5	0xb987e3a7	-0.0002591882
6	0x39928506	0.000279464
7	0x3992a844	0.00027972658

bn1.running_var f4 [8]
0	0x3f05df53	0.5229389
1	0x3f409cf5	0.752395
2	0x3ede4373	0.43410835
3	0x3f1496a6	0.5804237
4	0x3f1ead41	0.61983114
5	0x3fcbda73	1.592604
6	0x3f6035aa	0.87581885
7	0x3ece4ca8	0.4029286

sca.fc1.weight f4 [5, 22]
0	0xbe2a48b6	-0.166293
1	0xbcbe6d5c	-0.023245506
2	0x3e34de8c	0.1766302
3	0x3e45645c	0.19276565
4	0xbd03e0f3	-0.03219695
5	0x3e185514	0.14876205
6	0xbd9bdca5	-0.07610444
7	0x3c7aa1a8	0.015297331
8	0x3e0619e9	0.13095821
9	0xbdfe9a22	-0.12431742
10	0x3d5e202d	0.054229904
11	0xbdeed168	-0.11661035
12	0xbe4d2234	-0.20032579
13	0xbd841dc0	-0.06450987
14	0xbd82ce28	-0.063869774
15	0x3d1656a2	0.036703713
16	0xbe2b93e2	-0.16755632
17	0xbe45f614	-0.19332153
18	0xbd12d960	-0.035851836
19	0x3dc0d17f	0.09414958
20	0xbc02f03d	-0.007991848
21	0x3e302ca2	0.17204526
22	0x3dbb5519	0.091470905
23	0xbe1974b1	-0.1498592
24	0xbe3fab44	-0.18717676
25	0x3d799d95	0.060941298
26	0x3e07c96d	0.13260432
27	0xbd965144	-0.07339719
28	0xbd096e76	-0.03355261
29	0xbe318ce1	-0.17338897
30	0x3cc77686	0.024348509
31	0xbdab9ee8	-0.08379918
32	0x3e3556d4	0.17708904
33	0x3d5c53f2	0.053790994
34	0x3d2c7486	0.042103313
35	0x3c094c14	0.008379955
36	0x3e14d824	0.14535576
37	0x3e00b337	0.12568365
38	0xbe5bb5be	-0.21456048
39	0xbd6a7546	-0.057240747
40	0xbe41a4e3	-0.18910556
41	0xbe228735	-0.1587189
42	0x3e2c0fcb	0.168029
43	0x3e001a89	0.12510122
44	0x3d78b615	0.060720522
45	0xbde5baaf	-0.11217248
46	0x3db4edb6	0.08834402
47	0x3da9b9af	0.082873695
48	0x3d108694	0.035284594
49	0x3d89a6f4	0.06721297
50	0xbc8bf408	-0.017084137
51	0x3e2e69a8	0.17032492
52	0xbdd1c931	-0.10243452
53	0x3dbe99f6	0.093067095
54	0xbe385a9b	-0.18003313
55	0xbe404ef8	-0.18780124
56	0xbd9011ac	-0.07034621
57	0xbdec815e	-0.11548112
58	0x3c9a6da2	0.018851105
59	0xbe3bf606	-0.18355569
60	0xbdc63253	-0.09677567
61	0x3dba0fe3	0.090850614
62	0x3cf62322	0.03004605
63	0xbe2d0edb	-0.16900198
64	0xbdf9b225	-0.121921815
65	0xbd9f9cef	-0.077936046
66	0xbe0c1a69	-0.1368195
67	0xbe35449f	-0.17701958
68	0xbd766c57	-0.060161915
69	0x3dba1c0f	0.09087383
70	0x3d56ed50	0.052472413
71	0xbe26b368	-0.16279376
72	0xbc8f6bd4	-0.017507471
73	0x3d8abb78	0.06774038
74	0xbd8eb9f3	-0.06969061
75	0xbe431179	-0.19049634
76	0xbdb51ad0	-0.08843005
77	0x3d096608	0.03354457
78	0x3e2e4f41	0.1702242
79	0x3da6051a	0.08106442
80	0xbd32b8ba	-0.0436332
81	0xbddd75a8	-0.10813457
82	0x3d1be38b	0.0380588
83	0x3df51247	0.11966377
84	0x3bc78007	0.00608826
85	0xbe385472	-0.18000963
86	0xbd78caeb	-0.060740393
87	0x3dadb07f	0.084809296
88	0x3e3911e0	0.18073225
89	0x3d90a8cf	0.07063448
90	0x3e557775	0.2084635
91	0x3d5dd278	0.054155797
92	0x3c72d993	0.014822382
93	0x3e8e3f3c	0.2778262
94	0xbddfad26	-0.10921697
95	0x3e3a34a4	0.18184143
96	0x3de4d61f	0.11173653
97	0x3da3359f	0.07969212
98	0xbdc5d1f1	-0.09659184
99	0x3e9b0d59	0.3028362
100	0x3e78e9d1	0.24307944
101	0x3e02f0ba	0.12787142
102	0xbe00e6f2	-0.12588099
103	0x3ddab946	0.10679869
104	0x3dce0b7b	0.100607835
105	0x3d17dd69	0.037076388
106	0x3e561022	0.20904592
107	0x3e008081	0.1254902
108	0x3d1dc911	0.03852183
109	0xbbf31352	-0.0074180746

sca.fc2.weight f4 [22, 5]
0	0xbe8d1cf0	-0.2756114
1	0xbe66a6e1	-0.22524597
2	0x3e930236	0.28712624
3	0xbd8f674d	-0.07002125
4	0xbef7749f	-0.48331162
5	0x3e5bb641	0.21456243
6	0x3e6b3c19	0.22972144
7	0x3da342b4	0.07971707
8	0xbe951ce8	-0.29123616
9	0x3e09099f	0.13382576
10	0x3ebbe724	0.36699784
11	0x3ea55a26	0.3229534
12	0x3e458d99	0.19292296
13	0xbc87ef9e	-0.01659375
14	0x3e528351	0.20557906
15	0x3e8597d5	0.260924
16	0xbe3a4ba7	-0.18192922
17	0x3e7f630e	0.2494013
18	0xbd99bb71	-0.07506455
19	0xbec8a000	-0.3918457
20	0xbe1b846c	-0.15187234
21	0x3e923cfa	0.28562146
22	0x3e02ee8a	0.12786308
23	0xbe0ef41b	-0.13960306
24	0xbf03dd46	-0.5150951
25	0xbea452f0	-0.32094526
26	0x3eb6f9a0	0.35737324
27	0x3e894a22	0.2681437
28	0x3d9789a3	0.07399299
29	0x3e897fa8	0.26855206
30	0xbddde033	-0.10833778
31	0xbed19a8f	-0.4093823
32	0x3e9f127f	0.310688
33	0xbec37fcd	-0.38183442
34	0x3ec4ec5f	0.38461587
35	0x3e331530	0.17488551
36	0xbe99cb1d	-0.30037776
37	0xbe80d001	-0.25158694
38	0xbe6d1ebd	-0.23156257
39	0x3beaf889	0.007170741
40	0xbed33550	-0.41251612
41	0x3e55c330	0.2087524
42	0x3e615da3	0.22008376
43	0xbdaf7ca1	-0.08568693
44	0x3e8d8f80	0.27648544
45	0xbec982f5	-0.39357725
46	0x3e928a54	0.2862116
47	0x3cab20f6	0.02088974
48	0xba84d122	-0.0010133127
49	0xbece56ba	-0.40300542
50	0xbe29ffd3	-0.16601495
51	0x3da43c25	0.08019284
52	0xbebc6223	-0.36793622
53	0xbe7981ec	-0.24365968
54	0x3e2a177d	0.16610523
55	0x3d3ee97d	0.04660939
56	0xbeabe161	-0.33570388
57	0x3ec021c8	0.37525773
58	0xbd3cd393	-0.04610021
59	0xbd5b3272	-0.053514905
60	0xbd00bfab	-0.03143279
61	0xbeb05803	-0.34442148
62	0x3e840bc1	0.25790218
63	0x3e90da9e	0.28291792
64	0x3e922be4	0.2854911
65	0xbe580b72	-0.21098116
66	0xbe4f32b2	-0.20234182
67	0x3ece5dc3	0.4030591
68	0x3da476e9	0.08030493
69	0x3ea2a6e3	0.3176795
70	0x3e768de1	0.2407756
71	0x3e08a9a9	0.1334597
72	0xbebfee6e	-0.37486595
73	0xbd2770ba	-0.04087899
74	0xbe4cdf41	-0.2000704
75	0x3e084c3a	0.13310328
76	0xbc8c2745	-0.017108569
77	0x3d6eb67e	0.058279507
78	0x3e22eec1	0.1591139
79	0x3eb0db26	0.34542197
80	0x3e3e65a4	0.1859346
81	0x3e203548	0.15645325
82	0x3e10a3e2	0.14125016
83	0xbcb7a201	-0.022416117
84	0x3e5cdb0e	0.21567938
85	0x3e4d108c	0.20025843
86	0x3d90817f	0.070559494
87	0x3ed912e8	0.42397237
88	0x3dec3c74	0.11534968
89	0x3c679bd4	0.014136273
90	0x3d992b89	0.07479007
91	0x3e954572	0.29154545
92	0xbe60c046	-0.21948346
93	0x3e88269b	0.26591954
94	0xbe64f9db	-0.22360937
95	0xbec3293e	-0.38117403
96	0x3e8ea393	0.27859172
97	0x3e553496	0.20820841
98	0xbd7b190e	-0.06130319
99	0xbe9602bc	-0.2929896
100	0x3eb14bd1	0.34628156
101	0x3e9f4c6f	0.31113002
102	0xbeb99c2a	-0.36251956
103	0x3e9ba5fe	0.3040008
104	0xbe9bc0f4	-0.3042065
105	0x3ec17361	0.3778334
106	0x3e0a32a3	0.13495879
107	0xbebc0838	-0.3672502
108	0xbe9ea9cc	-0.3098892
109	0x37adaa7c	2.0702595e-05

conv_depth.weight f4 [16, 1, 22, 1]
0	0x3d2de218	0.042451948
1	0x3e2eb29f	0.17060326
2	0xbbe8d336	-0.0071052564
3	0x3c04da59	0.008108699
4	0x3d7c0c5b	0.06153522
5	0xbdbe0c93	-0.09279742
6	0xbd6915c0	-0.056905508
7	0xbd9085c7	-0.07056766
8	0x3d9a21f6	0.07526009
9	0xbdb6d97d	-0.08928201
10	0x3d91f863	0.07127454
11	0xbe1fd2e3	-0.1560779
12	0xbcce74cf	-0.025202183
13	0x3d8aa0e8	0.06768972
14	0x39b0331a	0.0003360741
15	0x3c043b25	0.008070742
16	0xbc3d492b	-0.011553089
17	0xbdf4acf2	-0.11947049
18	0x3c26096d	0.010134083
19	0xbde83f3d	-0.11340187
20	0x3e0ccd6d	0.13750239
21	0xbee00d2f	-0.43760058
22	0xbdcd80bc	-0.1003432
23	0x3d023b83	0.031795036
24	0xbd39b579	-0.04533908
25	0x3dd054f5	0.10172454
26	0xbe3203e5	-0.17384298
27	0x3df2cf44	0.11855939
28	0xbe350715	-0.17678483
29	0xbe043e54	-0.12914401
30	0x3e6502fd	0.22364421
31	0xbdd0aa1b	-0.10188695
32	0x3dbd01a2	0.09228827
33	0x3dbe1870	0.09282005
34	0xbdc6d9c4	-0.09709504
35	0x3e2c79d9	0.16843356
36	0x3c1e9077	0.009677998
37	0x3df1f153	0.11813607
38	0x3cd68c7a	0.026190031
39	0x3de47284	0.111546546
40	0x3d93c54c	0.07215366
41	0xbc8a0fe2	-0.016853277
42	0xbe06f2fe	-0.13178632
43	0xbea7670f	-0.32695815
44	0xbe284d81	-0.16435815
45	0x3e04e537	0.12978064
46	0x3e2d201f	0.16906784
47	0x3e2348f4	0.15945798
48	0xbe02b8f6	-0.1276587
49	0xbd860761	-0.06544376
50	0x3c65c0c2	0.014023008
51	0xbe85fd3c	-0.26169765
52	0x3d3a687d	0.045509804
53	0x3e073dbe	0.13207147
54	0x3e05dee0	0.13073301
55	0xbe0b27a3	-0.13589339
56	0x3d27d92e	0.040978603
57	0xbdf8d9d1	-0.1215092
58	0xbdbd403c	-0.09240767
59	0xbc12a09d	-0.008949426
60	0x3e3d0ce8	0.18461955
61	0xbddf47dc	-0.10902378
62	0xbe3319f6	-0.17490372
63	0x3dc50cac	0.096215576
64	0x3dc16979	0.094439454
65	0x3d481640	0.048849344
66	0xbe208c3d	-0.15678497
67	0x3d31ad50	0.043378174
68	0x3e13d437	0.14436422
69	0xbe1c0640	-0.15236759
70	0x3d0ed430	0.034870327
71	0xbe81ef72	-0.25377995
72	0x3c3df1ab	0.011593263
73	0x3dc16702	0.09443475
74	0xbe4772e0	-0.19477415
75	0x3d0c6893	0.034279417
76	0x3c53faeb	0.0129382415
77	0xbe4db278	-0.20087612
78	0x3dc63c94	0.09679523
79	0x3e8c2665	0.27373043
80	0xbbc4ebea	-0.0060095685
81	0x3d732a17	0.059366312
82	0xbe1bae0d	-0.15203114
83	0xbdb5f02c	-0.088837
84	0x3df2de77	0.11858838
85	0x3d4a87a8	0.049445778
86	0xbd844d75	-0.06460086
87	0x3c4c8a15	0.012484093
88	0xbd931950	-0.07182562
89	0xbb5a93ab	-0.0033352177
90	0x3ddcbcc8	0.10778195
91	0xbd44dd18	-0.048062414
92	0xbd539328	-0.05165401
93	0x3df0f72c	0.11765894
94	0x3c95a810	0.018268615
95	0xbe82b095	-0.25525346
96	0xbe0f5454	-0.13997012
97	0x3db3dd92	0.087824956
98	0x3e34e748	0.17666352
99	0x3dd5b7a0	0.10435414
100	0xbd9e47c7	-0.07728534
101	0x3e0ca8e4	0.13736302
102	0xbd8ab3fb	-0.0677261
103	0x3de12239	0.109928556
104	0xbe811017	-0.25207588
105	0xbdc9d0d2	-0.098542824
106	0x3deedf94	0.11663738
107	0x3dba1230	0.090855
108	0xbe360ff7	-0.17779528
109	0x3df7d773	0.121016406
110	0x3d4771e7	0.04869261
111	0x3d88f53d	0.066874005
112	0x3db51305	0.08841518
113	0x3e105911	0.14096476
114	0x3e0c7917	0.13718067
115	0x3c074539	0.00825625
116	0x3b334dec	0.0027359677
117	0xbe7a1add	-0.2442431
118	0xbde76051	-0.11297668
119	0xbccac644	-0.024752744
120	0x3d04e271	0.032442514
121	0xbd0a0f82	-0.033706196
122	0x3cf72e38	0.030173406
123	0xbc822401	-0.015886309
124	0xbd41d80a	-0.04732517
125	0x3de728f6	0.112871096
126	0xbde3ae2c	-0.11117205
127	0xbdf92d79	-0.12166876
128	0xbd621a7e	-0.055201046
129	0xbdee637f	-0.11640071
130	0xbc492ec5	-0.012279217
131	0x3e7ea126	0.24866161
132	0x3e0bf3d2	0.13667229
133	0xbd2271aa	-0.03965918
134	0xbd97f6c9	-0.074201174
135	0x3d7c09e9	0.06153289
136	0x3d959a28	0.073047936
137	0x3ca593fa	0.020212162
138	0x3d8351b7	0.0641207
139	0xbd387da8	-0.04504171
140	0x3e62a620	0.22133684
141	0xbdc2a543	-0.095041774
142	0xbe086e5a	-0.13323346
143	0x3de62094	0.112366825
144	0x3d99927b	0.07498642
145	0xbd1fb8ea	-0.038994707
146	0xbe06f2f3	-0.13178615
147	0x3d727e88	0.0592027
148	0xbe299f66	-0.16564712
149	0xbeadb88f	-0.3392987
150	0x3ca4beec	0.02011057
151	0x3d10f906	0.035393737
152	0x3e2f8ab4	0.17142755
153	0x3bc9e25a	0.0061610164
154	0xbdb7e4e6	-0.08979206
155	0x3d9a40ee	0.075319156
156	0x3dece61c	0.115673274
157	0x3e2d878e	0.16946241
158	0xbd093487	-0.03349736
159	0xbd313372	-0.043261953
160	0x3e051032	0.1299446
161	0xbdf6fe04	-0.120601684
162	0xbe2ae133	-0.16687469
163	0x3bab0b2b	0.005219837
164	0x3d848381	0.06470395
165	0x3da24eb7	0.0792517
166	0x3c998e77	0.01874469
167	0xbe96c579	-0.29447535
168	0xbcb01aa6	-0.021497082
169	0x3e17d7fc	0.14828485
170	0xbd82d31d	-0.06387923
171	0xbdabfd54	-0.08397928
172	0x3dd3975f	0.10331606
173	0xbb47637b	-0.0030424285
174	0xbc9473f0	-0.01812169
175	0x3c95d617	0.018290563
176	0xbd310063	-0.04321326
177	0xba221c0e	-0.000618399
178	0x3d3140cc	0.043274686
179	0xbd99bca2	-0.07506682
180	0x3e2fd162	0.17169717
181	0x3d05f17b	0.032700997
182	0x3cb13688	0.021632448
183	0x3e62c889	0.2214681
184	0xbd8ea406	-0.06964879
185	0xbdfcb84b	-0.123398386
186	0xbd5200d0	-0.051270306
187	0xbe1c1178	-0.15241039
188	0xbcbd55e7	-0.02311225
189	0xbdbcc18a	-0.09216602
190	0x3da49c35	0.080376066
191	0x3d1895c5	0.037252206
192	0x3d804162	0.06262471
193	0x3d48be7b	0.04900978
194	0x3e8ec82c	0.27887094
195	0xbe387b50	-0.1801579
196	0x3e3cb3ba	0.18427935
197	0x3dac5765	0.08415107
198	0x3dd16e9d	0.10226176
199	0x3db3cbd6	0.08779113
200	0xbe4fde6d	-0.20299692
201	0x3d8cd04b	0.06875666
202	0x3d4ad9ac	0.049523994
203	0xbda48c5c	-0.08034584
204	0x3e4dd481	0.20100595
205	0x3dc5fa51	0.09666885
206	0xbd3d8751	-0.046271626
207	0xbdd451e6	-0.103671834
208	0x3d594c9a	0.05305157
209	0xbdd0e762	-0.10200383
210	0x3e814080	0.25244522
211	0x3e33bb46	0.17551908
212	0xbe167ba1	-0.14695598
213	0x3d9a00ce	0.07519685
214	0x3e0b305e	0.1359267
215	0x3dec00be	0.11523579
216	0xbdd20dcf	-0.1025654
217	0xbdde630c	-0.108587354
218	0xbe382025	-0.17981012
219	0xbda88b4a	-0.08229692
220	0xbe002de2	-0.12517503
221	0x3e0e31be	0.13886163
222	0x3d1c2654	0.03812249
223	0xbdcc606b	-0.09979328
224	0xbcef3d5d	-0.029204065
225	0x3e231202	0.15924838
226	0x3cdafac5	0.026730904
227	0x3d405c34	0.04696293
228	0xbdebc53f	-0.11512231
229	0x3e0c81fd	0.13721462
230	0x3d284791	0.041083876
231	0x3cfb46b9	0.030673372
232	0xbe42583c	-0.18978971
233	0xbdf0ad7e	-0.11751841
234	0xba72cc3c	-0.00092620007
235	0xbe0e207d	-0.13879581
236	0x3d49437e	0.04913663
237	0x3d6fecac	0.058575317
238	0xbe88d941	-0.26728252
239	0xbd69d389	-0.0570865
240	0x3e487831	0.195771
241	0x3ea76054	0.3269068
242	0x3cbb0a41	0.022832038
243	0x3de70a97	0.11281317
244	0x3e46b6fd	0.19405742
245	0x3c0d0fa8	0.00860969
246	0xbe838d84	-0.25693905
247	0xbe54cdef	-0.20781682
248	0xbdc44c01	-0.09584809
249	0x3db167ef	0.08662402
250	0x3e678503	0.22609334
251	0x3cef233c	0.029191606
252	0xbcc2e83e	-0.023792382
253	0xbe25b121	-0.1618085
254	0x3b389e17	0.00281704
255	0x3e317270	0.1732881

bn2.weight f4 [16]
0	0x3f887bfd	1.0662838
1	0x3f803bdd	1.0018269
2	0x3f996d01	1.198639
3	0x3f75c82a	0.9600855
4	0x3f74e0dc	0.9565561
5	0x3f6a2152	0.9145709
6	0x3f9d2e6b	1.2279791
7	0x3fb30d75	1.3988482
8	0x3f90dfa2	1.1318247
9	0x3f86ec38	1.0540838
10	0x3f7c4366	0.9854034
11	0x3f7de3ac	0.99175525
12	0x3fa088ef	1.2541789
13	0x3f84fdee	1.0389993
14	0x3f8c0d1d	1.0941502
15	0x3f71ef33	0.94505614

bn2.bias f4 [16]
0	0xbe8c8d5e	-0.27451605
1	0xbe57dd59	-0.21080531
2	0xbed9926d	-0.42494527
3	0xbe20203f	-0.15637301
4	0xbd7b17de	-0.06130206
5	0xbdcd886d	-0.10035787
6	0xbf198f7f	-0.5998458
7	0xbf249fca	-0.6430632
8	0xbea19dc5	-0.3156568
9	0xbe884f41	-0.26622966
10	0xbde72a32	-0.11287345
11	0xbe26cedd	-0.1628985
12	0xbefffa5c	-0.49995697
13	0xbe9a8673	-0.30180702
14	0xbebe3e21	-0.37156776
15	0xbcb319b8	-0.02186285

bn2.running_mean f4 [16]
0	0xbc8920d4	-0.016739286
1	0xbb79db81	-0.003812522
2	0xb95d4fe9	-0.00021105971
3	0xbbfe38cd	-0.007758236
4	0xbac90ade	-0.0015338322
5	0x3a490d79	0.0007669549
6	0xb9dc27d1	-0.00041991335
7	0xb9dcb6dd	-0.00042097914
8	0x3c55c606	0.013047701
9	0x3c044928	0.008074082
10	0x3b389b96	0.0028168908
11	0x3bca6d93	0.006177613
12	0xbb111f37	-0.002214385
13	0xbc0edc05	-0.008719449
14	0x3c0172fe	0.007900951
15	0x3a16d251	0.00057533855

bn2.running_var f4 [16]
0	0x3d7af333	0.06126709
1	0x3c0f37ed	0.008741361
2	0x3c948027	0.018127514
3	0x3dc6970f	0.09696781
4	0x3b620859	0.003448984
5	0x3bf67bb4	0.007522071
6	0x3c7cee6c	0.015437704
7	0x3c80f041	0.015739562
8	0x3d2ac8fa	0.041695572
9	0x3ce060d0	0.027389914
10	0x3c04946c	0.008092027
11	0x3d0c21fa	0.03421209
12	0x3ccf7564	0.02532453
13	0x3c1bd85c	0.009512033
14	0x3c8c7d96	0.017149728
15	0x3ba767d5	0.0051088133

conv_sep.0.weight f4 [16, 1, 1, 16]
0	0xbe73cc69	-0.23808445
1	0x3cf27148	0.029595032
2	0xbe84d340	-0.2594242
3	0xbd5cf443	-0.053943884
4	0x3b6b418e	0.0035897228
5	0xbcf14c97	-0.029455466
6	0x3c4ecb17	0.012621663
7	0xbccbd53a	-0.024881948
8	0x3dda04ce	0.10645448
9	0x3e492118	0.1964153
10	0x3d503858	0.050834984
11	0x3d0d653b	0.03452037
12	0xbadc63c6	-0.0016814403
13	0xbdfb3767	-0.122664265
14	0xbdc61364	-0.09671667
15	0x3e5fa750	0.21841168
16	0xbe420166	-0.18945846
17	0xbe8e9a1e	-0.27851957
18	0xbe8435a2	-0.2582217
19	0xbe467e2f	-0.19384073
20	0x3bf96ffa	0.0076122256
21	0xbdfa07e9	-0.1220854
22	0x3ce4b3c8	0.027917758
23	0x3d0d692d	0.03452413
24	0xbdff8562	-0.12476613
25	0x3deed21b	0.11661168
26	0x3dfd8096	0.123780414
27	0xbdfd2e0f	-0.123623006
28	0xbe25d351	-0.16193892
29	0x3d89ce5d	0.06728814
30	0xbd6bd9f5	-0.057580907
31	0x3ccf7032	0.025322054
32	0x3e90e396	0.28298634
33	0xbd49dcfe	-0.04928302
34	0xbc94e344	-0.018174775
35	0x3ddc4898	0.10756034
36	0x3c889e7f	0.01667714
37	0x3cbbcff6	0.022926312
38	0xbd773d33	-0.0603611
39	0xbe166b95	-0.14689477
40	0x3e456ac5	0.1927901
41	0xbdab5765	-0.083662786
42	0x3e721bf0	0.2364347
43	0x3e2909d2	0.16507652
44	0x3e7d3c09	0.24729933
45	0x3d4cecd7	0.050030556
46	0x3e8d8a37	0.27644512
47	0xbdd62f39	-0.10458226
48	0x3c03e59d	0.00805035
49	0x3e882d82	0.2659722
50	0x3ced2b01	0.02895117
51	0xbd9ebb03	-0.077505134
52	0x3ce1f9a7	0.027584864
53	0xbe036a49	-0.12833513
54	0x3e66858b	0.2251188
55	0xbd74ebcf	-0.059795197
56	0x3cc5c1a7	0.024140192
57	0xbe28e116	-0.16492113
58	0xbbbd4531	-0.0057760705
59	0x3dae0ce8	0.084985554
60	0x3dcc3eaa	0.0997289
61	0x3d790251	0.060793225
62	0x3c660a99	0.014040613
63	0x3e3f6a19	0.18692817
64	0x3dc2e8c1	0.095170505
65	0xbdd6417a	-0.104617074
66	0xbe33d17c	-0.1756038
67	0xbe9799e3	-0.29609594
68	0xbc8f9682	-0.017527822
69	0xbdb9d45a	-0.09073706
70	0xbdd430b7	-0.10360854
71	0xbe2ac623	-0.16677146
72	0x3e030721	0.12795688
73	0x3c0aa483	0.008462074
74	0x3e191b92	0.14951923
75	0x3bc80c07	0.0061049494
76	0x3e37d867	0.17953645
77	0x3d33bd2c	0.04388158
78	0xbd72309a	-0.05912838
79	0x3e4ed765	0.20199354
80	0xbdce53fc	-0.100746125
81	0x3c637702	0.013883354
82	0x3e87201a	0.2639168
83	0x3c345ebf	0.011008917
84	0x3d05137d	0.03248929
85	0xbd14f2cb	-0.036364358
86	0x3d54172b	0.051779907
87	0xbe4b9954	-0.19882709
88	0xbe64876f	-0.22317289
89	0xbe3d12be	-0.18464181
90	0x3d993689	0.07481105
91	0x3ce50624	0.02795703
92	0x3e0acc3e	0.13554475
93	0xbd0cfbc8	-0.034419805
94	0x3e735b9f	0.2376542
95	0x3de01973	0.10942354
96	0x3de649d5	0.11244551
97	0x3dfe5f3b	0.124205075
98	0x3dae2491	0.08503068
99	0x3db8fc4e	0.09032498
100	0x3dcbd0e5	0.09951953
101	0x3bf5b07b	0.0074978448
102	0x3e0bc6a3	0.13649993
103	0x3db25a00	0.087085724
104	0x3e20d0b2	0.15704611
105	0x3e47a360	0.19495916
106	0x3e0f63d6	0.14002928
107	0x3d91ef18	0.07125682
108	0x3dc0c1c7	0.0941196
109	0xbd9285b3	-0.07154407
110	0x3e73d23d	0.23810668
111	0x3e23fa60	0.16013479
112	0xbd1a3b9b	-0.0376545
113	0x3dfc8d58	0.12331647
114	0xbd876c63	-0.0661247
115	0xbe9b7858	-0.30365252
116	0xbdd3924b	-0.103306375
117	0xbe388b75	-0.18021949
118	0xbe41357d	-0.1886806
119	0x3d14258c	0.03616862
120	0xbe5a200a	-0.21301284
121	0xbe78547c	-0.24250978
122	0xbe54a65e	-0.20766589
123	0xbe1dcde5	-0.15410574
124	0xbdcd42ec	-0.1002253
125	0xbe3ec29e	-0.18628928
126	0xbd2ede88	-0.04269269
127	0x3d19d5d4	0.037557438
128	0xbe120ccf	-0.14262699
129	0xbe300de5	-0.171928
130	0xbe52b025	-0.20575006
131	0xbd8aa2b6	-0.06769316
132	0x3e1b322e	0.15155861
133	0x3e2e7306	0.17036065
134	0xbd761e00	-0.060087204
135	0xbe4b021b	-0.19825022
136	0xbe3a6f9f	-0.18206643
137	0xbd6daeab	-0.058027904
138	0x3e089155	0.1333669
139	0x3d7366de	0.059424274
140	0xbda44b3f	-0.080221646
141	0xbe798d8b	-0.243704
142	0xbe0d50d9	-0.13800372
143	0x3df5fc4b	0.12011012
144	0x3d12b29e	0.035814874
145	0xbe1ddfbb	-0.15417378
146	0x3d65bf5f	0.05609071
147	0x3d1d9ae4	0.038477793
148	0xbd9945bd	-0.07484005
149	0x3d8dd7d2	0.0692593
150	0xbdad01a0	-0.084475756
151	0xbe918483	-0.2842141
152	0x3d5145df	0.051092025
153	0x3e9201d7	0.2851703
154	0x3d9fdcea	0.07805808
155	0x3ebbf743	0.36712083
156	0x3e737a56	0.23777136
157	0xbd444d89	-0.047925506
158	0xbdb1213b	-0.08648916
159	0xbe55e87f	-0.20889471
160	0x3e915b91	0.28390172
161	0xbd22584f	-0.039635
162	0x3dbd6be5	0.09249095
163	0x3e34c07a	0.17651549
164	0xbe3557e7	-0.17709313
165	0xbe28ca9b	-0.16483538
166	0xbe9ffd29	-0.31247833
167	0x3cdd9b28	0.027051523
168	0x3cfa9010	0.030586272
169	0xbc84a427	-0.016191555
170	0x3e643ba3	0.22288375
171	0x3e033f9a	0.12817231
172	0x3e3f3d1e	0.18675658
173	0x3e66bf1a	0.22533837
174	0x3da93e15	0.08263794
175	0xbdbd926b	-0.09256443
176	0x3d97cf36	0.07412569
177	0x3e6d2ef9	0.2316245
178	0x3e739acd	0.2378952
179	0xbda988ea	-0.082780674
180	0xbe069800	-0.13143921
181	0xbd8b59d8	-0.06804246
182	0xbb1120fa	-0.00221449
183	0x3c1f1774	0.0097101815
184	0xbe23827b	-0.15967743
185	0xbd5e6c1f	-0.05430233
186	0x3e4bbd1a	0.19896355
187	0x3d4850e2	0.04890526
188	0x3e767edd	0.24071832
189	0x3db70c24	0.089378625
190	0x3e226c7b	0.15861695
191	0x3d248357	0.040164318
192	0xbeb41f5f	-0.35180184
193	0xbd28dfab	-0.04122893
194	0xbd62c226	-0.055360936
195	0x3d9b55a1	0.07584692
196	0xbe1a7555	-0.15083821
197	0xbe67374b	-0.22579686
198	0xbda1cb5d	-0.079001166
199	0x3bb7b5c7	0.0056063863
200	0xbd8e0df4	-0.06936255
201	0xbe070a4b	-0.1318752
202	0xbe5d2f02	-0.21599963
203	0x3d99dd25	0.07512883
204	0x3d2bf8e3	0.041985404
205	0xbe73d4be	-0.23811623
206	0xbe3f5ceb	-0.18687789
207	0xbd63c6bf	-0.05560946
208	0xbe1abfe6	-0.15112266
209	0xbe207862	-0.15670922
210	0x3d8eb3b5	0.0696787
211	0x3e0cb0a7	0.13739263
212	0x3c58de4e	0.013236595
213	0xbe2423ed	-0.1602933
214	0xbdc62f2a	-0.096769646
215	0xbe4d9972	-0.20078066
216	0xbdc414e6	-0.095742986
217	0x3cce3a3d	0.025174255
218	0x3ded12f7	0.11575883
219	0xbe3a3931	-0.1818588
220	0xbdc8f7b9	-0.09812874
221	0xbe87c847	-0.26519987
222	0xbd02464c	-0.03180532
223	0x3da56fe8	0.08077985
224	0xbd3dfeb0	-0.046385467
225	0xbd81f6c8	-0.06345898
226	0x3e0cbea9	0.13744606
227	0xbdcd0172	-0.10010041
228	0xbbf728f4	-0.007542724
229	0xbc00a3e3	-0.007851574
230	0x3de27390	0.11057198
231	0x3da7c5d1	0.08192027
232	0x3e5c2e41	0.2150202
233	0x3dc8cfa4	0.09805229
234	0x3e46ffce	0.19433519
235	0x3e20465b	0.15651838
236	0x3d60fca6	0.054928444
237	0x3e54baab	0.20774333
238	0x3e2d8880	0.16946602
239	0x3d2ba4c8	0.041905195
240	0x3c9d1093	0.019172942
241	0x3e409a6a	0.18808904
242	0x3dac6288	0.08417231
243	0x3d8f0ab3	0.069844626
244	0x3e1a7bf8	0.15086353
245	0x3cb667cf	0.022266297
246	0xbe00c152	-0.12573746
247	0xbdf53a7a	-0.11974044
248	0xbb6e0a4a	-0.003632205
249	0xbd94ecc6	-0.072717234
250	0xbe84c36a	-0.2593034
251	0xbe8f3d1f	-0.2797632
252	0x3d0d4be2	0.034496196
253	0x3d89e71b	0.06733533
254	0xbdbb7188	-0.09152514
255	0x3c60b76a	0.013715604

conv_sep.1.weight f4 [16, 16, 1, 1]
0	0x3d26ff39	0.040770743
1	0x3e686cce	0.22697756
2	0x3e3b20c3	0.18274216
3	0x3c777534	0.015103627
4	0x3eb56b07	0.35433218
5	0x3d8ec363	0.06970861
6	0xbe6785c8	-0.22609627
7	0xbde768e5	-0.11299304
8	0x3e40288c	0.18765467
9	0x3e02bc91	0.12767245
10	0x3d5a4eb2	0.053297706
11	0xbc955001	-0.018226625
12	0x3d807efe	0.06274222
13	0x3e118b45	0.14213283
14	0x3d2c338f	0.042041358
15	0x3e4fadfc	0.20281214
16	0xbe51ddca	-0.20494762
17	0xbe2d8133	-0.16943817
18	0xbdb8525c	-0.09000084
19	0xbe1daead	-0.15398665
20	0x3ddcc10f	0.107790105
21	0xbdda844b	-0.10669764
22	0xbe27788e	-0.16354582
23	0x3dd5f2e6	0.1044672
24	0x3e33e7f3	0.1756895
25	0xbbd3a29e	-0.0064585945
26	0xbd5a495b	-0.053292613
27	0xbe672b47	-0.22575103
28	0xbd276269	-0.040865336
29	0x3d18a38d	0.03726535
30	0xbdc3aee4	-0.09554842
31	0x3e9f645b	0.31131253
32	0xbe70a2da	-0.23499623
33	0xbcabe2b8	-0.020982131
34	0x3d937f1d	0.07201979
35	0x3d9e22e3	0.07721498
36	0x3c3c4d25	0.011493002
37	0x3e0e87b2	0.13918951
38	0x3c210ad8	0.0098292455
39	0x3d1291a7	0.035783436
40	0xbdd841df	-0.10559439
41	0xbe62b0d0	-0.22137761
42	0x3e68469f	0.2268319
43	0x3e1ce76b	0.15322654
44	0x3d99b52e	0.075052604
45	0x3ddca4dc	0.10773632
46	0x3de1b20d	0.110202886
47	0xbe1d8805	-0.15383919
48	0x3c0d98b2	0.008642362
49	0xbbe83a08	-0.007086996
50	0xbd56dd1d	-0.052456964
51	0xbe29a872	-0.16568163
52	0x3dd2305d	0.10263131
53	0xbdc30b1c	-0.09523603
54	0x3e3f738a	0.18696418
55	0x3d52e578	0.05148837
56	0xbed82590	-0.42216158
57	0xbcc481f4	-0.023987748
58	0xbe62e721	-0.22158481
59	0x3d44d531	0.048054878
60	0x3e6dc5ef	0.23220037
61	0xbe43a93d	-0.19107528
62	0x3caa9a7c	0.020825617
63	0x3db277e7	0.08714276
64	0x3e20c012	0.15698269
65	0x3dad3e8a	0.08459194
66	0x3da6c036	0.0814213
67	0x3e327d93	0.17430715
68	0x3cf2e18d	0.029648567
69	0xbe8c159f	-0.27360246
70	0xbe2c782b	-0.16842715
71	0xbe17a71f	-0.14809845
72	0xbc486a67	-0.0122324
73	0x3df31b6e	0.11870466
74	0x3dc7c8d0	0.09755099
75	0xbe7af8ca	-0.24508968
76	0x3e0a3126	0.13495311
77	0xbec62b28	-0.387048
78	0xbe290cb1	-0.16508748
79	0xbdcb9ae7	-0.09941655
80	0xbe2781b0	-0.16358066
81	0xbdd2753d	-0.10276268
82	0x3dbb55ec	0.09147248
83	0xbda55fca	-0.08074911
84	0x3e5006f4	0.20315152
85	0xbe2f302f	-0.17108224
86	0xbdcd8d75	-0.100367464
87	0xbc65f98a	-0.0140365455
88	0xbdf51efe	-0.11968802
89	0xbe0f0219	-0.13965644
90	0xbea9906f	-0.33118007
91	0x3c6b0989	0.014345535
92	0xbe0d1d59	-0.13780726
93	0x3e2bbd6c	0.16771477
94	0x3e3626c4	0.17788225
95	0x3e6f9d96	0.23399958
96	0x3d47ef8e	0.04881244
97	0xbd7617ab	-0.060081165
98	0x3e93350e	0.28751415
99	0xbe4e44fc	-0.20143503
100	0xbcb2d0a0	-0.021827996
101	0x3e45336d	0.19257899
102	0x3d9095b1	0.07059801
103	0xbdf6f211	-0.12057889
104	0x3d9fb551	0.07798255
105	0xbeb06deb	-0.3445886
106	0x3d10175b	0.035178524
107	0xbd7b2587	-0.061315086
108	0xbe34043c	-0.1757974
109	0x3e4c9a80	0.19980812
110	0xbcc072af	-0.023492185
111	0x3d725308	0.059161216
112	0x3d04a504	0.032383934
113	0x3d510a55	0.051035244
114	0x3eac2a91	0.33626226
115	0x3dd043e3	0.10169198
116	0xbdcd16cc	-0.10014114
117	0x3e5d078b	0.21584909
118	0x3c9308c2	0.017948512
119	0x3d502b3b	0.050822478
120	0xbd899ebc	-0.06719729
121	0x3e8bbcfd	0.27292624
122	0xbd757368	-0.059924513
123	0x3e1f7c1c	0.15574688
124	0x3dd3a791	0.10334695
125	0xbea3b44f	-0.31973502
126	0x3d6cbcff	0.05779743
127	0x3d1abecd	0.037779618
128	0xbe097397	-0.13423
129	0xbe9508fa	-0.2910841
130	0x3d8a62de	0.06757139
131	0x3e0a8fe5	0.13531454
132	0x3d8fa197	0.07013243
133	0xbd0620ce	-0.03274613
134	0xbd5254ae	-0.051350288
135	0x3e087f31	0.1332977
136	0xbde83ddf	-0.11339926
137	0x3e1736aa	0.14766946
138	0x3eafb288	0.34315896
139	0xbe369dfa	-0.17833701
140	0xbdebd330	-0.1151489
141	0x3e337e31	0.17528607
142	0xbe653cf7	-0.22386537
143	0xbe19d22d	-0.15021582
144	0xbc70ec17	-0.014704726
145	0xbe068921	-0.13138248
146	0x3e1e2b9f	0.15446328
147	0x3da879a0	0.08226323
148	0xbe1b28a2	-0.15152219
149	0xbe0eb496	-0.13936076
150	0xbe8fe86e	-0.28107017
151	0xbe4fae96	-0.20281443
152	0xbd8c7bbf	-0.0685954
153	0xbe0612b4	-0.13093072
154	0xbd92f836	-0.07176249
155	0x3e769179	0.24078931
156	0x3e5b9661	0.21444084
157	0xbdde8ccd	-0.10866699
158	0xbe65d3f9	-0.22444142
159	0xbe9614d3	-0.29312763
160	0xbd843293	-0.06454959
161	0x3e937b3a	0.28804952
162	0xbc89b7c9	-0.016811268
163	0xbe1905c0	-0.149436
164	0x3d736773	0.05942483
165	0x3dc392c6	0.09549479
166	0x3e5ee178	0.21765697
167	0xbd046381	-0.032321457
168	0x3da6687f	0.081254
169	0x3c0c67d8	0.00856968
170	0xbe5953ae	-0.21223328
171	0x3d65c41a	0.05609522
172	0x3bc82e6b	0.006109049
173	0x3e21a7f2	0.15786722
174	0xbe6499ee	-0.22324345
175	0xbc91afd6	-0.01778404
176	0x3b6533ed	0.0034973577
177	0x3bec06a3	0.0072029396
178	0x3dd5c76d	0.10438428
179	0x3d317434	0.04332371
180	0x3e61440c	0.21998614
181	0x3dd2020f	0.10254299
182	0x3e37372f	0.17892145
183	0x3e962a5f	0.29329202
184	0x3e104507	0.14088832
185	0x3d0779d5	0.033075172
186	0x3d857c9c	0.06517908
187	0xbe5be92b	-0.21475665
188	0xbe50c2b2	-0.2038677
189	0xbdb68ba1	-0.08913351
190	0xbe372b3f	-0.17887591
191	0xbd11f39f	-0.035632726
192	0x3c64cdcd	0.013965082
193	0xbe116439	-0.14198388
194	0xbc54de00	-0.012992382
195	0xbc7a838e	-0.015290154
196	0xbe02eaa0	-0.12784815
197	0x3de5eff1	0.11227406
198	0xbc02b3e7	-0.007977462
199	0xbdefa902	-0.117021576
200	0xbe3065e6	-0.17226371
201	0x3e3320ce	0.17492983
202	0xbd013553	-0.031544995
203	0x3dc2556d	0.0948895
204	0xbe9b192b	-0.3029264
205	0x3d8206ec	0.063489765
206	0x3de7d62a	0.113201454
207	0x3dd0c5df	0.10193991
208	0x3e484ae6	0.19559821
209	0x3df28aa4	0.1184285
210	0xbd25fa58	-0.04052195
211	0x3dcbc33e	0.09949349
212	0xbe27231e	-0.1632199
213	0x3d3f39f8	0.046686143
214	0x3e9084af	0.2822623
215	0xbe912619	-0.2834938
216	0x3e19c5c4	0.15016848
217	0x3e2347f7	0.15945421
218	0xbd0e2433	-0.03470249
219	0xbe927765	-0.28606716
220	0xbcff6c17	-0.031179471
221	0x3db3279f	0.087477915
222	0x3e616af6	0.22013459
223	0xbdc2f09a	-0.09518547
224	0x3e213aa4	0.15745026
225	0xbce694e3	-0.028147167
226	0x3e192c77	0.14958368
227	0x3db0ef66	0.08639412
228	0x3dfc9806	0.12333684
229	0x3e392e16	0.18083987
230	0xbd29b0e1	-0.04142845
231	0xbe91e153	-0.2849222
232	0x3d97760b	0.07395562
233	0x3e2d4d0b	0.16923921
234	0x3c1dfb63	0.009642455
235	0x3d17bc91	0.037045065
236	0x3df2ba77	0.118519716
237	0xbd3ef30a	-0.0466185
238	0xbc75dea4	-0.015006695
239	0x3e13ffd1	0.14453055
240	0x3e46d02c	0.19415349
241	0x3e1b04e8	0.1513859
242	0xbd20c600	-0.039251328
243	0x3e4d2cec	0.20036668
244	0x3e8f25d2	0.27958542
245	0xbdeaf407	-0.11472326
246	0x3e2a372e	0.16622612
247	0x3e3c34b5	0.18379481
248	0x3db8951b	0.090128146
249	0xbc8c4060	-0.01712054
250	0xbcd936a8	-0.02651532
251	0xbd6ee05f	-0.058319446
252	0xbe7b11e3	-0.24518542
253	0x3c7dd616	0.015492937
254	0x3e4c805e	0.19970843
255	0xbe984ea2	-0.29747492

bn3.weight f4 [16]
0	0x3f947482	1.1598055
1	0x3f928ae4	1.1448636
2	0x3fa4ae95	1.2865778
3	0x3f9d3a40	1.2283401
4	0x3f992b76	1.1966388
5	0x3f99cc37	1.2015446
6	0x3f9f1287	1.2427529
7	0x3fa23279	1.2671653
8	0x3f919fb8	1.1376867
9	0x3f8ca9cb	1.0989317
10	0x3fa58994	1.293261
11	0x3f88f152	1.0698645
12	0x3f94e8be	1.1633527
13	0x3f91f28e	1.1402147
14	0x3f954069	1.1660281
15	0x3f9753cb	1.1822447

bn3.bias f4 [16]
0	0xbdf96d8b	-0.12179097
1	0xbde70d0a	-0.11281784
2	0xbe4afba0	-0.1982255
3	0xbd990e48	-0.07473427
4	0xbd9fb648	-0.07798439
5	0xbe031257	-0.12799965
6	0xbd8764da	-0.06611033
7	0xbe106cee	-0.14104053
8	0xbdcb74b1	-0.099343665
9	0xbd9eeff1	-0.07760609
10	0xbde250eb	-0.1105059
11	0xbd842340	-0.06452036
12	0xbd50fcef	-0.051022466
13	0xbcea9988	-0.028637663
14	0xbd2049a6	-0.039132737
15	0xbd703bc8	-0.05865076

bn3.running_mean f4 [16]
0	0x3ccfba2e	0.025357332
1	0x3d90d8e8	0.070726216
2	0x3cf1a534	0.02949772
3	0xbd0705d3	-0.03296454
4	0x3cbb755c	0.02288311
5	0xbd50b915	-0.050957758
6	0xbdd941ab	-0.10608228
7	0xbcb6b58b	-0.022303363
8	0x3d8b61ac	0.06805739
9	0x3db070d5	0.08615271
10	0xbd5122b2	-0.05105848
11	0xbbcb00f2	-0.006195181
12	0xbdd2b884	-0.102891
13	0xbe3bf94b	-0.18356816
14	0xbd84b328	-0.06479484
15	0xbd4bd10c	-0.04975991

bn3.running_var f4 [16]
0	0x3e09dedb	0.13463919
1	0x3ded82b5	0.11597196
2	0x3df48254	0.119389206
3	0x3e297ca6	0.16551456
4	0x3e24cd43	0.16093926
5	0x3e4232f0	0.18964744
6	0x3e065b64	0.131208
7	0x3e01b892	0.12668064
8	0x3e587d6b	0.21141593
9	0x3e22f2e9	0.15912975
10	0x3dd84cb0	0.10561502
11	0x3dd3b37b	0.103369676
12	0x3db4a8ef	0.08821284
13	0x3e2c8521	0.1684766
14	0x3dc186dd	0.09449551
15	0x3e09dd82	0.13463405

classifier.weight f4 [4, 560]
0	0x3ca4aeff	0.020102976
1	0xbbd0ca6a	-0.006371786
2	0xbc970722	-0.018436018
3	0xbd067177	-0.032823052
4	0x3d26bcdd	0.040707458
5	0xbd93ac81	-0.07210637
6	0x3db0c2b3	0.08630886
7	0xbde15192	-0.110018864
8	0x3c40ec70	0.011775121
9	0x3bf04ae4	0.0073331464
10	0xbd7ad13c	-0.061234698
11	0x3d41fe60	0.04736173
12	0x3d35c7c5	0.04437997
13	0xbd0283bc	-0.031863913
14	0xbc9d1e3d	-0.019179458
15	0xbdaac41d	-0.08338187
16	0x3ba0f8c6	0.0049124686
17	0xbd5db0de	-0.05412375
18	0xbd6e7baf	-0.058223423
19	0x3d3bdb2b	0.04586331
20	0x3d2c5434	0.04207249
21	0x3d001f4b	0.031279843
22	0x3da6dbd6	0.08147399
23	0x3d1cbfb9	0.03826878
24	0xbba00361	-0.0048832153
25	0xb7c59e1c	-2.3557855e-05
26	0x3ccfb969	0.025356965
27	0xbce023ca	-0.027360816
28	0x3d79063e	0.06079697
29	0xbbb2daff	-0.0054582353
30	0x3c689a8a	0.014197001
31	0x3d531bdf	0.05154025
32	0xbd4960c1	-0.049164537
33	0xbd83d72f	-0.064375274
34	0x3db75bba	0.08953042
35	0xbd37a7f4	-0.044837907
36	0xbd3f052f	-0.046635803
37	0x3dd047dd	0.10169957
38	0xbd91f4cb	-0.07126769
39	0xbd7853fc	-0.06062697
40	0x3db5d5b5	0.08878652
41	0x3d79363c	0.060842738
42	0xbdbdad57	-0.092615776
43	0x3d589f5d	0.052886356
44	0x3d2e70fc	0.04258822
45	0x3d52ae4b	0.05143575
46	0xbd113ffc	-0.03546141
47	0x3d2524c8	0.04031828
48	0xb9d2873d	-0.00040155082
49	0xbd33c8cd	-0.04389267
50	0x3bcb0c5d	0.006196542
51	0xbcd476f5	-0.02593563
52	0xbd7aba15	-0.061212618
53	0x3cc0e49c	0.02354651
54	0x3c783e77	0.0151516115
55	0xbb1b00e0	-0.0023651645
56	0xbd6c8669	-0.05774537
57	0xbdbd51eb	-0.0924414
58	0x3cf1d70d	0.02952149
59	0x3cf6c9a6	0.03012545
60	0x3b906ea5	0.004407721
61	0x3bd00228	0.0063479133
62	0xbd8866ba	-0.066602185
63	0xbd67d188	-0.05659631
64	0x3d2970c4	0.041367307
65	0xbe09359c	-0.13399357
66	0x3c837d53	0.01605097
67	0x3cbb1d7b	0.022841206
68	0xbc3a4d57	-0.011370978
69	0xbd921d1b	-0.07134458
70	0x3e1bb079	0.15204038
71	0xbd702ebd	-0.058638323
72	0xbd77268c	-0.060339496
73	0x3c5faa67	0.013651467
74	0x3d9e81cc	0.077396005
75	0x3e66c928	0.22537673
76	0xbc04bda8	-0.008101858
77	0x3c2d675d	0.010583726
78	0x3d124135	0.035706718
79	0x3bac63c3	0.005260916
80	0xbd73a76d	-0.05948584
81	0xbc9c27dd	-0.019061977
82	0xbd013eb4	-0.03155394
83	0x3d125169	0.03572217
84	0xbcab59eb	-0.0209169
85	0x3dcfc407	0.10144811
86	0xbe568f76	-0.20953164
87	0x3d68009e	0.056641214
88	0xbe2ae34a	-0.16688266
89	0xbd598ada	-0.053110935
90	0xbcf23537	-0.02956639
91	0x3d0f0184	0.034913555
92	0x3c3ad4aa	0.011403242
93	0xbc779312	-0.015110748
94	0x3ceae4a9	0.028673487
95	0xbcd74573	-0.026278233
96	0xbd5411f9	-0.051774953
97	0x3dafa46d	0.085762836
98	0x3e264a40	0.16239262
99	0xbd8072c4	-0.0627189
100	0xbc0cebfc	-0.008601185
101	0xbda3764a	-0.07981546
102	0xbdc9421c	-0.098270625
103	0x3da49453	0.08036103
104	0xbb0e85e9	-0.0021747297
105	0x3d6e67d9	0.058204506
106	0x3c9b801f	0.018981991
107	0x3c97d617	0.018534703
108	0x3d1ebb8a	0.03875307
109	0xbd3f7d65	-0.046750445
110	0x3bdb9d3d	0.006702094
111	0x3dcd7a4a	0.100330904
112	0x3e0f65e1	0.14003707
113	0xbe01809b	-0.12646715
114	0x3cdc406d	0.02688619
115	0xbd8f02df	-0.069829695
116	0xbd34d891	-0.044151846
117	0xbe459fb9	-0.1929921
118	0xbd957e46	-0.07299475
119	0xbd3cf62c	-0.046133205
120	0xbd040218	-0.03222856
121	0xbc88469c	-0.016635232
122	0x3cb98e3d	0.022650832
123	0x3d8035e3	0.06260278
124	0xbdb7dd9e	-0.08977817
125	0xbd9efda6	-0.07763223
126	0x3cadb892	0.021206174
127	0x3d49dc98	0.04928264
128	0xbd2598e6	-0.04042902
129	0x3d40a73a	0.04703448
130	0x3ced41c3	0.028962022
131	0xbc7f942e	-0.015599294
132	0x3bad41bc	0.005287377
133	0xbc3f57ed	-0.011678678
134	0x3c0e290c	0.0086767785
135	0xbcc79678	-0.024363741
136	0xbdd04712	-0.101698056
137	0x3cad29f8	0.021138176
138	0x3dab5882	0.08366491
139	0xbca2c8f9	-0.019871222
140	0xbdfd6e1f	-0.123745196
141	0x3cbe4d5d	0.023230249
142	0x3d98cbd4	0.07460752
143	0x3dc290e0	0.09500289
144	0x3dbcd2e2	0.0921991
145	0xbe1b836f	-0.15186857
146	0x3dde5640	0.10856295
147	0xbd8fdd39	-0.07024617
148	0xbd16ee68	-0.036848456
149	0x3e1f95ad	0.1558444
150	0x3dc7f36a	0.097632244
151	0x3ccda2d5	0.025102058
152	0x3ada1140	0.0016637221
153	0x3b8e25ff	0.0043380256
154	0x3d0451f4	0.03230472
155	0x3db3f470	0.08786857
156	0x3d846b2b	0.06465753
157	0x3d0bab81	0.034099106
158	0x3d4eac0b	0.05045704
159	0xbd4c763d	-0.04991745
160	0x3d72922f	0.059221443
161	0xbe1e1663	-0.15438227
162	0x3c02a357	0.007973514
163	0xbbe3b3f1	-0.006948941
164	0xbd2c4854	-0.042061165
165	0xbdd9ac0d	-0.10628519
166	0x3cc1212a	0.023575384
167	0x3beae468	0.0071683414
168	0xbd1c0c03	-0.038097393
169	0x3de61aab	0.11235555
170	0xbcc2daec	-0.02378603
171	0x3d66e8e2	0.056374438
172	0xbc13e12a	-0.009025851
173	0xbdbfae10	-0.09359372
174	0x3e144204	0.14478308
175	0x3d41014f	0.04712039
176	0x3e1bbaf6	0.15208039
177	0x3ca64d5e	0.020300563
178	0x3db78b38	0.08962101
179	0xbe453276	-0.1925753
180	0x3d0180ea	0.031617083
181	0x3de6b369	0.112646885
182	0xbbb04e02	-0.005380393
183	0x3d24b8ae	0.040215187
184	0x3db1e47b	0.08686157
185	0x3d7648e9	0.060128126
186	0x3cf51fed	0.02992245
187	0xbd3a9fbd	-0.045562495
188	0xbd73bf3e	-0.059508555
189	0x3c9d0368	0.019166663
190	0x3c2afa8b	0.010435711
191	0xbdbc304e	-0.09188901
192	0x3ce3b2de	0.027795251
193	0x3c0be5d1	0.008538679
194	0x3d84538e	0.06461249
195	0x3db6b5d4	0.089214
196	0xbc219b8d	-0.009863746
197	0x3c83c09d	0.016083056
198	0xbcfafb2e	-0.03063735
199	0x3dba1e73	0.09087839
200	0x3ce7a675	0.028277615
201	0x3d0a94b0	0.033833206
202	0xbd094739	-0.03351519
203	0x3d61e701	0.055151943
204	0xbcbe7b80	-0.023252249
205	0x3d3c6c5b	0.046001773
206	0xbc4f2502	-0.012643101
207	0xbcd188fe	-0.025578018
208	0x3d7e2fa2	0.062057145
209	0x3c9e178f	0.019298343
210	0xbd8c19b8	-0.06840843
211	0x3d83d06d	0.064362384
212	0x3ca33514	0.01992277
213	0xbab5bb90	-0.0013865102
214	0xbe0de0a5	-0.13855226
215	0x3cefef8d	0.029289031
216	0xbe0289b8	-0.12747848
217	0xbd11e8b8	-0.03562233
218	0x3baae20d	0.0052149356
219	0xbccd062a	-0.025027353
220	0xbd0c0b34	-0.03419037
221	0x3c3ea779	0.011636608
222	0xbd91f709	-0.07127196
223	0x3d0bfc78	0.03417632
224	0x3d310fde	0.043228023
225	0x3c9f191e	0.019421156
226	0x3c2f350f	0.0106938025
227	0x3da35aa6	0.07976274
228	0x3d453ba4	0.04815258
229	0x3c29ae29	0.010356464
230	0x3d40925e	0.047014587
231	0xbc983d6b	-0.018583974
232	0x3cf0fb6c	0.029416762
233	0x3d6b6be4	0.05747594
234	0xbb52c908	-0.003216328
235	0x3ca778d9	0.020443367
236	0x3c487bbe	0.012236534
237	0xbd336a45	-0.04380252
238	0xbca61ded	-0.020277942
239	0x3b5c3881	0.0033603015
240	0xbd1b1ffe	-0.037872307
241	0xbcc3c340	-0.023896813
242	0xbd9f0524	-0.07764652
243	0x3d829abd	0.0637717
244	0xbd226d15	-0.03965481
245	0xbd8b5b1e	-0.068044886
246	0xbc393ef3	-0.011306512
247	0x3b85a231	0.0040781726
248	0x3dc0c413	0.09412398
249	0xbdb488f0	-0.08815181
250	0x3dd71be0	0.105033636
251	0xbe588d38	-0.2114762
252	0x3da493f1	0.0803603
253	0xbdf739b2	-0.120715514
254	0xbd9f9403	-0.07791903
255	0x3da4d237	0.08047908

classifier.bias f4 [4]
0	0x3ca93a7f	0.020657776
1	0xbd4f076c	-0.050544187
2	0x3b9a4be3	0.0047087534
3	0xbc2050d0	-0.009784892
