result_eegnetv4_cv5/fold_2/best_model_fold2.pth (torch, 22648 bytes, 18 tensors)

conv_temporal.weight f4 [8, 1, 1, 64]
0.025245275 0.10653957 0.049673826 -0.04764706 -0.03568796 -0.06792662 -0.09448366 -0.11329989
-0.017437318 0.026211876 0.104979075 0.040053524 0.009000497 0.026244555 0.025162708 -0.13111396
-0.021245234 -0.023548169 0.028911643 0.074543715 0.06485141 -0.005319891 0.07969107 -0.05429044
0.099438414 0.06705685 -0.008674547 -0.03696986 -0.10279079 -0.10739403 0.022446718 0.0337896
0.024546558 -0.031275872 0.08979414 -0.12343526 -0.118438475 -0.13504311 -0.09404589 0.11952832
0.14754681 0.116722226 0.13536692 0.106699884 0.05160951 -0.098443665 -0.081185006 -0.014983307
0.018676806 0.009601788 0.046675116 -0.04253785 -0.085742936 0.01752503 -0.028885303 0.0035033417
-0.030528847 -0.008184426 0.06264961 -0.06536487 -0.023917448 0.026107168 0.086900815 0.0753792
-0.12288207 0.0062617604 -0.018198501 -0.005158533 -0.084855616 -0.10199508 -0.10633161 0.034297645
-0.05650073 -0.010880018 0.02631273 -0.020921074 0.020738719 -0.0047841608 0.072852716 0.0038896378
-0.068924524 -0.11741349 -0.0019678837 -0.042860042 -0.09643017 -0.050225124 -0.123034894 -0.08232468
0.0529023 -0.095779754 -0.05452997 -0.121428475 -0.021250846 -0.16023706 -0.1075184 -0.03921516
-0.041457042 -0.10807993 -0.022136515 -0.06325106 0.1015257 -0.04817843 0.08500333 -0.03228528
-0.024803407 -0.0092116315 -0.10772748 -0.06840824 -0.05846477 -0.08099185 -0.14549467 -0.119294986
-0.06333497 0.048184816 -0.052655738 -0.04499177 -0.004214598 0.097402476 -0.018923776 -0.032574322
-0.0217482 0.050280396 0.06352578 -0.054665204 0.019988634 -0.044107214 0.03436366 0.0683384
0.16099355 0.16624072 0.044710282 0.054464 0.1463785 0.14374068 -0.0067609893 0.06450999
0.03174085 0.07913204 0.0467799 0.0626677 0.025925998 -0.0072025126 0.026828678 -0.054307967
-0.043645125 0.013206334 -0.04642076 -0.058396447 0.0017361906 0.0033356342 -0.037446294 -0.10147481
-0.049857467 -0.06886789 0.028149374 0.009375382 -0.071758404 -0.1225819 -0.036737394 -0.011400539
-0.13133852 0.018528994 0.05640612 -0.09938393 -0.011337878 -0.029432116 0.057843465 0.049766812
-0.011338213 0.039210323 0.102785364 0.06209587 -0.007422577 0.0865106 0.100956164 0.07685482
0.035703182 0.1284078 0.07025171 -0.032378666 0.1102797 -0.053830534 0.07689801 0.014860487
0.03594478 -0.046967134 0.074132144 0.079902805 0.061680514 -0.021712253 -0.08904187 0.06793299
-0.060186207 -0.04966723 0.105916224 0.082483575 0.0630879 0.03180216 0.06386593 -0.0013955092
0.08240363 0.070902474 0.13900302 0.08886841 0.027096072 0.05910061 0.13874769 -0.023103518
0.07573731 0.0021274125 0.13401257 0.109218724 0.043118108 0.07178848 -0.028714474 0.033135604
0.08640848 0.093216494 0.08947828 0.02142494 -0.027512286 0.103668496 0.10381742 0.11597179
-0.004364835 0.046452183 -0.02202565 0.044846233 0.02007295 0.09829327 0.03944445 0.09889975
-0.05378051 -0.05125523 0.02357355 -0.07644332 0.04029179 -0.05479287 -0.0028699457 0.048739173
-0.021751273 -0.052478004 -0.01564213 -0.0006603707 -0.035749793 -0.07970288 -0.04952191 -0.01671238
-0.028205987 -0.035397757 -0.09343246 -0.091171615 -0.077408165 0.008429633 0.0064763892 -0.12924471
00000000: 2ecf ce3c 6b31 da3d c876 4b3d 9029 43bd
00000010: 8a2d 12bd 1d1d 8bbd a680 c1bd c609 e8bd
00000020: b5d8 8ebc 4aba d63c 45ff d63d 2a0f 243d
00000030: d276 133c d2fe d63c 0622 ce3c bd42 06be
00000040: 7c0a aebc 17e8 c0bc 1cd8 ec3c 60aa 983d
00000050: d1d0 843d 7b52 aebb 1235 a33d a75f 5ebd
00000060: 5ea6 cb3d 1a55 893d b01f 0ebc b56d 17bd
00000070: fa83 d2bd 67f1 dbbd 2ee2 b73c f766 0a3d
00000080: dd15 c93c 211b 00bd fde5 b73d a0cb fcbd
00000090: df8f f2bd be48 0abe 229b c0bd 44cb f43d
000000a0: 8316 173e 100c ef3d a09d 0a3e 7885 da3d
000000b0: 7e64 533d d59c c9bd 5344 a6bd 8b7c 75bc
000000c0: 1a00 993c d150 1d3c 682e 3f3d 2b3c 2ebd
000000d0: fe99 afbd a790 8f3c dfa0 ecbc 5298 653b
000000e0: a217 fabc f917 06bc 704e 803d 04de 85bd
000000f0: 86ee c3bc b3de d53c 0ef9 b13d 6960 9a3d
00000100: 98a9 fbbd 742f cd3b 0615 95bc e908 a9bb
00000110: c8c8 adbd cce2 d0bd 63c4 d9bd b07b 0c3d
00000120: 4f6d 67bd 1a42 32bc cb8d d73c ac62 abbc
00000130: 3fe4 a93c 73c4 9cbb ce33 953d 4be9 7e3b
00000140: 4d28 8dbd 7c76 f0bd 9cf7 00bb 038e 2fbd
00000150: 2e7d c5bd dcb8 4dbd b8f9 fbbd d899 a8bd
00000160: 15b0 583d 2d28 c4bd d15a 5fbd 7eaf f8bd
00000170: 4116 aebc 2f15 24be 9b32 dcbd 13a0 20bd
00000180: dcce 29bd 0359 ddbd a357 b5bc c689 81bd
00000190: b5ec cf3d bf56 45bd 3a16 ae3d 923d 04bd
000001a0: 8430 cbbc 62ec 16bc 3aa0 dcbd 9f19 8cbd
000001b0: c178 6fbd 0edf a5bd 8efc 14be ee50 f4bd
000001c0: c4b5 81bd 715d 453d 8bad 57bd 4a49 38bd
000001d0: 9c1a 8abb f37a c73d 0906 9bbc a76c 05bd
000001e0: 4829 b2bc d1f2 4d3d ce19 823d 9fe8 5fbd
000001f0: 34bf a33c c4a9 34bd e9c0 0c3d 01f5 8b3d
00000200: 7edb 243e 023b 2a3e 2122 373d a515 5f3d
00000210: 3fe4 153e c230 133e 4a8b ddbb d01d 843d
00000220: b202 023d fb0f a23d 489c 3f3d ec57 803d
00000230: c262 d43c 0e03 ecbb d1c7 db3c 0872 5ebd
00000240: 3bc5 32bd 615f 583c b223 3ebd 1d31 6fbd
00000250: e490 e33a a89a 5a3b 4961 19bd 06d2 cfbd
00000260: 5837 4cbd 9c0a 8dbd 8499 e63c 349b 193c
00000270: 12f6 92bd 380c fbbd f379 16bd 54c9 3abc
00000280: 9b7d 06be 1eca 973c 1b0a 673d cd89 cbbd
00000290: 82c2 39bc 9f1b f1bc 45ed 6c3d 49d8 4b3d
000002a0: eac3 39bc 019b 203d 2281 d23d 3d58 7e3d
000002b0: 1739 f3bb 782c b13d 1bc2 ce3d 0f66 9d3d
000002c0: 803d 123d 567d 033e 21e0 8f3d 7e9f 04bd
000002d0: 53da e13d 687d 5cbd b47c 9d3d 6679 733c
000002e0: d53a 133d 9c60 40bd 98d2 973d 15a4 a33d
000002f0: b5a4 7c3d e5dd b1bc 955b b6bd 7420 8b3d
00000300: d085 76bd de6f 4bbd 9bea d83d 26ed a83d
00000310: 3b34 813d fb42 023d 24cc 823d 85e9 b6ba
00000320: 3cc3 a83d 5135 913d cf56 0e3e a400 b63d
00000330: 95f8 dd3c 7b13 723d e013 0e3e 9743 bdbc
00000340: 2a1c 9b3d 0f6c 0b3b 973a 093e 11ae df3d
00000350: 9d9c 303d d705 933d 9e3a ebbc 33b9 073d
00000360: eef6 b03d 4ae8 be3d 6340 b73d 5b83 af3c
00000370: 7261 e1bc 2650 d43d 3a9e d43d 9e82 ed3d
00000380: e406 8fbb a544 3e3d 236f b4bc afb0 373d
00000390: 0770 a43c fb4d c93d 8190 213d f48b ca3d
000003a0: f448 5cbd 01f1 51bd 511d c13c 518e 9cbd
000003b0: 0109 253d 7d6e 60bd b315 3cbb baa2 473d
000003c0: ba2f b2bc 2df3 56bd ed23 80bc ba1c 2dba
000003d0: 606e 12bd 433b a3bd 7cd7 4abd 67e8 88bc
000003e0: 3e10 e7bc 3dfd 10bd 8559 bfbd 2fb8 babd
000003f0: 2c88 9ebd 721c 0a3c e437 d43b ba58 04be

bnorm_temporal.weight f4 [8]
1.5580658 1.1743573 1.0414178 0.96720594 1.049826 1.3169119 1.2492158 1.1205533
00000000: b36e c73f 5751 963f 2e4d 853f cf9a 773f
00000010: b360 863f 9290 a83f 4ee6 9f3f 4a6e 8f3f

bnorm_temporal.bias f4 [8]
0.014571972 -0.014703781 -0.019726882 0.013818101 -0.012906112 0.06064013 0.03366305 -0.017412275
00000000: 48bf 6e3c 21e8 70bc 459a a1bc 5165 623c
00000010: 2874 53bc c961 783d 44e2 093d 30a4 8ebc

bnorm_temporal.running_mean f4 [8]
-2.1443959e-05 0.00040148897 -9.45969e-05 -0.00024096337 0.0004293097 0.00017718354 0.00018340828 -0.0004944824
00000000: 8de2 b3b7 f07e d239 5362 c6b8 1dab 7cb9
00000010: f914 e139 58ca 3939 4951 4039 27a0 01ba

bnorm_temporal.running_var f4 [8]
0.5017482 0.46300513 1.0751113 0.56122494 0.53910637 0.39021385 0.8199703 0.29701355
00000000: 9272 003f 020f ed3e 3f9d 893f 70ac 0f3f
00000010: e002 0a3f 1cca c73e 93e9 513f 2912 983e

conv_spatial.weight f4 [16, 1, 22, 1]
-0.03570807 -0.02971753 0.057112247 -0.065410346 -0.102133356 -0.12785485 -0.0052689915 0.08611386
-0.022432113 -0.094155446 0.070012435 0.15196101 0.008765024 -0.056224685 -0.08930197 0.021064075
0.14914195 0.15648265 0.065950006 -0.054188095 -0.03432651 -0.06266561 -0.02028585 -0.13101111
-0.092928156 0.026799597 0.11958077 -0.027673967 -0.026134314 0.074644774 -0.035594966 -0.14215437
0.025851497 -0.041026674 -0.024920149 0.26702344 0.10662601 -0.025642633 0.0022407451 0.01744176
-0.064858 -0.016507143 0.023087617 -0.016726052 -0.012999552 0.037420288 -0.05109159 0.051900618
-0.08793443 0.013802062 0.0005453239 -0.039669964 -0.064208776 -0.07608718 -0.0051520285 0.042382233
-0.07520904 -0.093311034 0.13055949 0.21258044 0.13094746 -0.06792669 0.001968237 0.13603415
-0.07371939 -0.1082542 0.085797355 0.14260921 0.023285689 0.0032473234 -0.08260943 -0.10635164
-0.09391423 0.11907981 0.081489876 0.074076876 -0.0668155 -0.034382038 -0.016223645 0.008601145
-0.09116845 0.010158699 0.066295706 0.05847566 -0.11384138 -0.085203424 0.14002363 -0.16051295
-0.008609361 0.02936518 -0.023835883 0.113912806 0.015417678 -0.05856954 0.086155765 -0.013620244
-0.025584837 -0.121010445 0.007316547 -0.0040087015 0.024807412 -0.06966476 -0.016179899 0.0472052
-0.028881298 -0.010460899 -0.1086824 0.010136989 -0.029112585 0.3252199 0.09806137 0.14172806
0.004352004 0.0022107812 0.051176548 -0.07016369 -0.14994003 0.042845108 0.12344572 -0.06348262
0.0866498 -0.1306916 -0.11069003 -0.06511736 0.062168565 0.14868166 -0.10774262 0.036604945
-0.083194226 0.017622158 -0.06408044 0.03933181 0.02514434 -0.11262286 -0.06272855 -0.044462524
-0.018306425 0.112916894 0.015440037 -0.08039336 0.030479724 0.14133266 -0.0021879459 0.13191529
-0.051085 0.043555398 0.07827666 -0.041182015 -0.06246588 -0.02098358 0.029009601 -0.03547615
-0.2201907 0.110743664 0.046475075 -0.122808926 -0.030003468 -0.14158648 -0.089347 0.049553093
0.056722283 0.03922396 0.04308705 0.04366893 0.07598998 0.05305267 -0.019538905 -0.0014200874
0.16441184 -0.10064749 0.05598635 -0.14195856 0.08222094 0.019508906 -0.028210204 -0.020262828
-0.113640346 0.13682777 -0.07541931 0.01475064 -0.12387792 0.026424386 0.15592724 0.01679631
0.019028023 -0.16939317 0.046401117 0.17462943 0.0076662404 0.14809401 -0.07002476 0.040037073
0.042762186 0.16497542 -0.08530797 0.12961817 -0.017820599 -0.0018092581 0.034522105 -0.008401083
-0.03144024 -0.057835724 0.08193201 -0.045281425 -0.08651492 -0.05824405 0.020945376 -8.862921e-05
0.02895492 0.12125197 0.0026048422 0.18864705 -0.014957669 -0.13549758 -0.08174126 0.018745925
0.2862911 -0.05128672 -0.044751838 -0.19280532 -0.040223625 0.08001068 -0.008115167 0.032070246
-0.012873147 0.00774545 0.13304655 -0.22760876 -0.044294618 0.18285915 0.06526991 -0.037561227
-0.007912249 -0.122464426 -0.06892078 0.0051392145 -0.085702494 -0.000103302875 0.09120702 -0.040307477
0.10151756 -0.01927359 0.1756384 0.09998495 -0.043972306 -0.0014362134 -0.08466393 -0.015066847
0.039151106 0.0077187703 0.104781315 -0.071368106 -0.13193604 -0.07304909 0.2328132 -0.05000719
00000000: a042 12bd 2d72 f3bc 88ee 693d dcf5 85bd
00000010: 4b2b d1bd 62ec 02be 81a7 acbb 775c b03d
00000020: 8dc3 b7bc 92d4 c0bd ae62 8f3d ab9b 1b3e
00000030: 2d9b 0f3c db4b 66bd f4e3 b6bd 918e ac3c
00000040: abb8 183e fd3c 203e cc10 873d 56f4 5dbd
00000050: f499 0cbd d456 80bd 832e a6bc c727 06be
00000060: 1e51 bebd d48a db3c c3e6 f43d 84b4 e2bc
00000070: a117 d6bc 5cdf 983d 07cc 11bd ea90 11be
00000080: 85c6 d33c 960b 28bd 5725 ccbc 4cb7 883e
00000090: bd5e da3d 8010 d2bc 77d9 123b 06e2 8e3c
000000a0: 45d4 84bd fd39 87bc 3e22 bd3c 1305 89bc
000000b0: 13fc 54bc 0446 193d 6a45 51bd be95 543d
000000c0: f716 b4bd 0b22 623c 11f4 0e3a f97c 22bd
000000d0: e47f 83bd 98d3 9bbd 59d2 a8bb fe98 2d3d
000000e0: 3207 9abd db19 bfbd 63b1 053e b0ae 593e
000000f0: 1717 063e 261d 8bbd 8afd 003b 894c 0b3e
00000100: 31fa 96bd 61b4 ddbd 86b6 af3d 2608 123e
00000110: a1c1 be3c 0cd1 543b 222f a9bd e3ce d9bd
00000120: 1b56 c0bd 1ee0 f33d 2ae4 a63d 9eb5 973d
00000130: 91d6 88bd 2ed4 0cbd 73e7 84bc d1eb 0c3c
00000140: 86b6 babd ac70 263c 0bc6 873d 2c84 6f3d
00000150: ab25 e9bd 227f aebd 5b62 0f3e 825d 24be
00000160: 470e 0dbc 3f8f f03c 7843 c3bc 1e4b e93d
00000170: 6e9a 7c3c 9de6 6fbd 6f72 b03d 7227 5fbc
00000180: 4b97 d1bc 53d4 f7bd a5bf ef3b 6d5b 83bb
00000190: ea38 cb3c 66ac 8ebd b58b 84bc 3d5a 413d
000001a0: 7998 ecbc 3164 2bbc e194 debd 9d15 263c
000001b0: 847d eebc 3983 a63e 66d4 c83d 2921 113e
000001c0: 419b 8e3b c1e2 103b 809e 513d fbb1 8fbd
000001d0: e189 19be 5a7e 2f3d 1cd1 fc3d 2d03 82bd
000001e0: 7375 b13d 05d4 05be 74b1 e2bd 405c 85bd
000001f0: 77a4 7e3d 0140 183e 2aa8 dcbd 11ef 153d
00000200: bc61 aabd 585c 903c 9b3c 83bd 641a 213d
00000210: 81fb cd3c d0a6 e6bd d377 80bd 561e 36bd
00000220: 5bf7 95bc f940 e73d 35f8 7c3c 46a5 a4bd
00000230: 9db0 f93c 82b9 103e a463 0fbb cd14 073e
00000240: 813e 51bd 2567 323d 834f a03d 79ae 28bd
00000250: 39dc 7fbd c2e5 abbc 8ba5 ed3c 714f 11bd
00000260: ac79 61be 93cd e23d a65c 3e3d 3f83 fbbd
00000270: d5c9 f5bc 0cfc 10be 8ffb b6bd 2ff8 4a3d
00000280: a055 683d 4ea9 203d 0c7c 303d 31de 323d
00000290: a2a0 9b3d c24d 593d 0e10 a0bc 3a22 baba
000002a0: 945b 283e 4520 cebd f151 653d 965d 11be
000002b0: 7463 a83d 24d1 9f3c 1619 e7bc 3bfe a5bc
000002c0: 45bc e8bd 941c 0c3e 7075 9abd abac 713c
000002d0: b5b3 fdbd f477 d83c 64ab 1f3e 6a98 893c
000002e0: a8e0 9b3c 6775 2dbe 190f 3e3d 0fd2 323e
000002f0: 1635 fb3b f5a5 173e 2469 8fbd eafd 233d
00000300: 6727 2f3d 51ef 283e f2b5 aebd a0ba 043e
00000310: 81fc 91bc a124 edba 0d67 0d3d b2a4 09bc
00000320: 7bc7 00bd 27e5 6cbd f8cb a73d 0479 39bd
00000330: bc2e b1bd 5091 6ebd a395 ab3c 72de b9b8
00000340: de32 ed3c f452 f83d 00b6 2a3b b12c 413e
00000350: 0311 75bc e1bf 0abe f667 a7bd 0e91 993c
00000360: bf94 923e 0612 52bd b44d 37bd c26e 45be
00000370: 87c1 24bd a4dc a33d 7af5 04bc 175c 033d
00000380: e4e9 52bc 8bcd fd3b 5b3d 083e 4512 69be
00000390: 466e 35bd 6e3f 3b3e 3bac 853d cdd9 19bd
000003a0: 61a2 01bc a1ce fabd 5726 8dbd db66 a83b
000003b0: ca84 afbd 4fa4 d8b8 bfca ba3d 7419 25bd
000003c0: 70e8 cf3d a6e3 9dbc 8dda 333e e9c4 cc3d
000003d0: 4e1c 34bd 533f bcba 4864 adbd f0da 76bc
000003e0: e95c 203d bded fc3b 9697 d63d 7129 92bd
000003f0: 3e1a 07be c39a 95bd 9566 6e3e 57d4 4cbd

bnorm_1.weight f4 [16]
1.2527721 1.2371149 1.2148728 0.9677213 1.0516193 1.0317726 0.9971172 0.91837674
1.1654135 1.01713 1.3259103 0.95674974 1.1198314 1.2269452 1.1085101 1.0585026
00000000: d65a a03f c859 9e3f f480 9b3f 95bc 773f
00000010: 769b 863f 2011 843f 1343 7f3f bd1a 6b3f
00000020: 452c 953f 5131 823f 6eb7 a93f 8ded 743f
00000030: a356 8f3f 8a0c 9d3f a9e3 8d3f 037d 873f

bnorm_1.bias f4 [16]
-0.5463752 -0.5346857 -0.50424236 -0.1451637 -0.15647961 -0.21417327 -0.20224942 -0.16100936
-0.43580177 -0.18502809 -0.5850021 -0.1803948 -0.3670401 -0.49730784 -0.32796642 -0.26025394
00000000: 3fdf 0bbf 29e1 08bf 0716 01bf cba5 14be
00000010: 313c 20be 3d50 5bbe 791a 4fbe a3df 24be
00000020: 6921 dfbe 0178 3dbe b3c2 15bf 6ab9 38be
00000030: aeec bbbe 229f febe 37eb a7be 0140 85be

bnorm_1.running_mean f4 [16]
-0.00021710705 -8.625613e-05 0.00015670902 0.00074723206 -0.0029617155 0.00030827508 -0.00039266146 0.00026488135
-0.006361937 0.0003897628 -6.711566e-05 0.022049537 0.010087083 -0.00025401608 0.0012097472 -0.0025760941
00000000: 3ba7 63b9 68e4 b4b8 4252 2439 e5e1 433a
00000010: 5719 42bb fb9f a139 21de cdb9 c6df 8a39
00000020: cc77 d0bb 1459 cc39 72c0 8cb8 3ba1 b43c
00000030: 4b44 253c 762d 85b9 6190 9e3a b0d3 28bb

bnorm_1.running_var f4 [16]
0.09958423 0.07832083 0.022592815 0.06497158 0.023311235 0.038261373 0.0066971076 0.013262207
0.18556428 0.00905181 0.026215367 0.18300492 0.20062494 0.044600993 0.043991283 0.038766745
00000000: d1f2 cb3d ac66 a03d 9114 b93c d20f 853d
00000010: 34f7 be3c f5b7 1c3d 6973 db3b ba49 593c
00000020: 9004 3e3e 0b4e 143c 9cc1 d63c a465 3b3e
00000030: a070 4d3e 88af 363d 3430 343d e1c9 1e3d

conv_separable_depth.weight f4 [16, 1, 1, 16]
-0.0033051963 -0.07928703 -0.07745353 -0.07099792 -0.067496486 -0.15782435 -0.061842088 -0.14238723
0.061232742 -0.1068557 -0.07226578 -0.040148888 -0.051533088 -0.029506765 0.008981458 -0.1585118
-0.12986751 -0.066379815 -0.012148646 -0.12657815 -0.025410252 -0.036260393 -0.05101505 -0.114805
-0.08374697 -0.04307238 -0.10839695 -0.19264774 0.013745421 0.008152648 0.030841477 -0.1934785
-0.113965355 0.00078812183 -0.10186227 0.068113 -0.15648766 -0.09725966 -0.12746446 -0.02918384
-0.12881888 -0.12938412 -0.1517099 -0.09717587 -0.018935077 -0.07232572 -0.05541686 0.078604355
-0.0056605847 0.016645651 0.07656823 0.024120666 0.16265684 0.11640812 0.11871778 0.04042213
0.112448364 0.050496582 0.026321428 -0.009057535 -0.11321153 -0.06700347 -0.06660284 -0.0023029828
-0.18387018 -0.15885226 0.0673572 0.019336944 0.03434481 0.11574195 0.25433257 0.1826561
-0.06683755 0.027356662 -0.080476955 -0.11858329 -0.12044873 0.025833903 0.026394974 0.12415898
0.03897038 0.008226838 -0.048907753 -0.043455455 -0.032388266 -0.05559871 -0.1734248 -0.09094871
0.011534887 0.16790625 0.093958475 0.07578354 -0.024527837 -0.08305727 -0.029040486 -0.14009923
0.008270805 0.07996372 0.15381967 0.12423377 0.029839877 0.0039528194 0.06355185 -0.06483264
-0.03927028 -0.107193746 -0.08796992 0.111241795 0.07411852 0.030495003 0.04990705 -0.08522572
-0.105204605 -0.009553359 -0.040937137 -0.1021642 0.06195584 -0.13373047 0.008493133 -0.1482262
0.043064963 -0.034941144 0.06373165 0.0059809308 0.048913423 0.08185152 0.09217022 0.025139472
-0.048349526 -0.08472929 -0.08255963 0.029214974 -0.11209279 -0.054439392 -0.007957058 -0.19506317
-0.09049841 0.09536397 -0.07495614 0.06790208 -0.04605178 -0.12814695 -0.2506264 0.007473505
0.19302495 -0.009823457 -0.09162394 0.04965107 0.13224384 -0.04211096 -0.033225253 -0.015295444
-0.19183312 -0.122893676 -0.09746061 -0.082181305 -0.018204568 -0.052885465 -0.04349839 -0.044277094
-0.055159256 0.20986499 0.13074724 0.04297174 -0.07448862 0.054115638 0.17478172 0.19568782
-0.026919447 -0.117771015 0.09154723 0.12687391 0.15870555 0.0784465 -0.08531442 0.052697722
-0.041413512 0.05047112 0.12205722 0.06809506 -0.043250706 0.04953587 -0.09173783 0.01860361
0.032536425 -0.002986579 -0.093890965 -0.011900051 0.035145007 0.07520166 0.1471207 0.057212166
-0.06931105 -0.06768137 -0.08528728 -0.19107974 -0.104457356 0.078017525 0.031115726 -0.038096305
-0.057758294 -0.028169123 -0.043205157 0.044165075 0.017854396 0.032406826 -0.09789434 -0.07415951
0.01585566 0.07477296 0.058990702 0.06308648 0.2425578 0.19359083 0.12473485 -0.010822536
-0.1068157 0.121047996 -0.05793194 0.08872313 0.074646816 -0.08723982 -0.044842638 0.16093811
-0.17979139 -0.16769373 -0.1137473 -0.0033114387 -0.09548757 -0.11523821 -0.102824256 0.10529269
0.10959731 -0.04510337 -0.04231783 -0.087206736 0.053527676 0.11894876 -0.07271572 -0.052597597
-0.0722623 0.04789436 -0.06446526 0.09201872 0.0960612 -0.013267773 0.12761544 0.045542993
-0.0937033 -0.09529619 0.18422459 0.15332821 0.14641961 -0.018518167 -0.061249997 0.045290735
00000000: fe9b 58bb 3d61 a2bd f59f 9ebd 5c67 91bd
00000010: 993b 8abd b59c 21be 214e 7dbd f5cd 11be
00000020: 2fcf 7a3d 29d7 dabd 1500 94bd 2973 24bd
00000030: 5c14 53bd 2cb8 f1bc f726 133c eb50 22be
00000040: fdfb 04be 24f2 87bd 1d0b 47bc b49d 01be
00000050: 2929 d0bc c785 14bd 28f5 50bd e21e ebbd
00000060: 8883 abbd aa6c 30bd 38ff ddbd 7345 45be
00000070: 7934 613c af92 053c 44a7 fc3c 3a1f 46be
00000080: ab66 e9bd f699 4e3a 2a9d d0bd d47e 8b3d
00000090: 4d3e 20be 1330 c7bd 0b86 02be f312 efbc
000000a0: 19e9 03be 457d 04be d759 1bbe 2404 c7bd
000000b0: bc1d 9bbc 821f 94bd cafc 62bd 52fb a03d
000000c0: 6d7c b9bb 765c 883c cecf 9c3d b498 c53c
000000d0: 848f 263e 6167 ee3d 4f22 f33d ad91 253d
000000e0: 544b e63d 81d5 4e3d 09a0 d73c 0e66 14bc
000000f0: 72db e7bd 1e39 89bd 1267 88bd a4ed 16bb
00000100: 7748 3cbe 2baa 22be 92f2 893d 8368 9e3c
00000110: 25ad 0c3d 1e0a ed3d e137 823e 330a 3b3e
00000120: 20e2 88bd 141b e03c 1ad1 a4bd ccdb f2bd
00000130: d3ad f6bd 9fa1 d33c 463a d83c 1047 fe3d
00000140: 689f 1f3d dcc9 063c 7f53 48bd 59fe 31bd
00000150: 8fa9 04bd 79bb 63bd 4596 31be 5143 babd
00000160: d3fc 3c3c 9eef 2b3e 4d6d c03d 6734 9b3d
00000170: 9aee c8bc ee19 aabd 50e6 edbc 2c76 0fbe
00000180: 4582 073c 05c4 a33d e782 1d3e 466e fe3d
00000190: c272 f43c a786 813b 7927 823d fac6 84bd
000001a0: e0d9 20bd 6588 dbbd 9329 b4bd bdd2 e33d
000001b0: 73cb 973d a8d0 f93c 566b 4c3d d38a aebd
000001c0: 8375 d7bd b185 1cbc b3ad 27bd 773b d1bd
000001d0: 68c5 7d3d a4f0 08be c826 0b3c 9cc8 17be
000001e0: e364 303d 721e 0fbd bd85 823d affb c33b
000001f0: 7159 483d c5a1 a73d bec3 bc3d 4bf1 cd3c
00000200: 270a 46bd 8d86 adbd 0615 a9bd 3e54 ef3c
00000210: e890 e5bd d7fb 5ebd 525e 02bc a4be 47be
00000220: 3b57 b9bd 2f4e c33d 9b82 99bd 3f10 8b3d
00000230: cba0 3cbd f438 03be 1a52 80be 4ee4 f43b
00000240: 55a8 453e 91f2 20bc 55a5 bbbd ec5e 4b3d
00000250: ee6a 073e 8b7c 2cbd 3417 08bd be99 7abc
00000260: e76f 44be aeaf fbbd 6e99 c7bd ac4e a8bd
00000270: bf21 95bc 6e9e 58bd 5e2b 32bd e65b 35bd
00000280: acee 61bd d9e6 563e 9be2 053e 2303 303d
00000290: 7d8d 98bd 5ca8 5d3d fbf9 323e 6362 483e
000002a0: 2c86 dcbc ee31 f1bd 1d7d bb3d 3ceb 013e
000002b0: b583 223e 8fa8 a03d 54b9 aebd 91d9 573d
000002c0: 37a1 29bd ceba 4e3d 23f9 f93d 6c75 8b3d
000002d0: a727 31bd 20e6 4a3d 0be1 bbbd 9966 983c
000002e0: ea44 053d 7bba 43bb e849 c0bd 6ef8 42bc
000002f0: 36f4 0f3d 5403 9a3d cfa6 163e 4e57 6a3d
00000300: f4f2 8dbd 889c 8abd 19ab aebd 68aa 43be
00000310: bded d5bd a7c7 9f3d 68e6 fe3c df0a 1cbd
00000320: f693 6cbd efc2 e6bc e4f7 30bd 70e6 343d
00000330: 6243 923c 05bd 043d d47c c8bd f1e0 97bd
00000340: bbe3 813c 9122 993d 3ca0 713d 7c33 813d
00000350: 1261 783e ad3c 463e fc74 ff3d 0251 31bc
00000360: 31c2 dabd 03e8 f73d 0b4a 6dbd 79b4 b53d
00000370: 6ee0 983d caaa b2bd eaac 37bd f6cc 243e
00000380: 3c1b 38be e8b7 2bbe 58f4 e8bd b904 59bb
00000390: fd8e c3bd 0302 ecbd 8695 d2bd b2a3 d73d
000003a0: 8e74 e03d 50be 38bd 7655 2dbd 7299 b2bd
000003b0: d63f 5b3d 689b f33d fbeb 94bd 9470 57bd
000003c0: 42fe 93bd e02c 443d 5d06 84bd 5074 bc3d
000003d0: bcbb c43d 1361 59bc 9fad 023e 4a8b 3a3d
000003e0: 84e7 bfbd a62a c3bd 5fa5 3c3e 1202 1d3e
000003f0: 06ef 153e 69b3 97bc 47e1 7abd c782 393d

conv_separable_point.weight f4 [16, 16, 1, 1]
0.13859212 0.24630427 -0.18801153 -0.22154824 0.44469172 -0.18699577 0.12330687 0.023401517
-0.3602966 -0.2513782 -0.08153695 -0.13073364 -0.5657785 -0.32429686 0.09641972 -0.32310563
-0.18402587 -0.22473818 -0.27300438 -0.1909288 -0.2900109 0.007800736 -0.27705857 0.30760565
-0.25047615 -0.22257976 0.23453265 0.09022143 0.3075803 -0.006252673 -0.43891072 0.1672126
0.0011220765 0.26832837 -0.30921438 0.23493594 -0.41466135 -0.46715733 0.07517525 -0.20427683
-0.15458064 -0.2916321 -0.14922453 -0.2463252 -0.058125943 0.25774845 -0.2945493 -0.16485763
0.18737006 -0.33625352 -0.024187015 -0.38409978 0.28385237 -0.18528686 0.36774895 -0.021943688
0.056094225 -0.42906964 -0.36026 -0.1271885 0.16885261 -0.0758297 0.118452206 -0.30978116
0.24137215 -0.18849729 0.21905218 0.21475486 -0.05603995 -0.116688885 -0.2169613 -0.045354348
0.15807517 -0.24008188 0.5224316 0.11204925 0.10799128 -0.036909215 0.33856624 -0.18041039
-0.20505773 0.16333677 0.30583742 -0.17961575 0.105311535 0.20821415 0.26298097 0.0901665
0.2101748 -0.54617745 -0.06571458 -0.16544446 0.34768412 -0.115599744 -0.42601615 0.110271275
0.059417017 -0.12728772 0.0400708 0.25064173 0.13508548 0.5100396 -0.47823924 -0.24741377
0.059426796 -0.157513 -0.026898433 -0.37501356 -0.35356688 0.071331024 0.04927656 -0.12246653
-0.36115867 0.33308846 -0.22116518 -0.30810282 0.020621462 0.20135881 0.34224918 -0.05327793
0.20628199 -0.17784224 -0.17529081 -0.326006 0.19006622 0.049010113 -0.037584633 -0.03771355
0.14513473 0.19751519 0.2597954 0.38559228 -0.032822706 0.3051826 0.29477343 -0.049739305
-0.018725233 -0.5386522 0.1832225 0.22491378 0.27983633 -0.29497746 -0.18998212 0.32577637
-0.46425855 0.30234888 0.11673519 0.12385848 -0.36953464 -0.079564385 -0.10232245 0.24701884
-0.055978466 -0.017622901 -0.06884096 0.20686097 0.07046521 0.54535836 -0.065980874 -0.13700904
0.122706965 -0.038416494 -0.21740946 -0.22197327 0.081292115 -0.45952192 0.31145543 -0.32069632
0.34183076 -0.10744509 0.137588 0.22993477 -0.09779729 -0.26333895 -0.29611114 -0.20080748
-0.2263186 -0.018262528 -0.15727761 -0.37163937 0.17629664 0.35129258 0.052975953 0.37828702
0.34013838 0.117128 0.34337538 -0.36558315 -0.19877581 0.02407123 -0.49061796 -0.17962229
0.28197673 0.09560268 -0.4407132 -0.23591301 -0.1942392 0.064718165 -0.3389745 -0.05998945
-0.20843649 -0.25754747 -0.3503935 0.4821937 -0.40121987 -0.42458868 0.31025082 -0.22216405
0.3321116 -0.28346118 -0.21275346 0.344935 0.038222127 0.00049395574 0.358021 0.2142365
-0.05800053 0.02640256 0.3105928 -0.10182853 -0.43932062 0.14701064 0.06635066 0.23578413
-0.21485041 -0.27249172 0.38128704 -0.24936165 -0.13775526 -0.04811266 0.353585 -0.25791162
-0.12269955 0.3681059 0.0004058026 0.2285942 -0.3822326 -0.090791665 -0.23567145 0.4025598
-0.25307852 0.21219034 -0.110630676 -0.0780426 0.26491186 0.28235978 -0.5007212 -0.15008704
-0.56253433 0.015049107 0.2718091 0.28009892 -0.07480426 0.3527572 0.33667228 -0.34061962
00000000: 18eb 0d3e 3037 7c3e 1886 40be 8bdd 62be
00000010: a2ae e33e d27b 3fbe 5088 fc3d 8ab4 bf3c
00000020: cc78 b8be a5b4 80be d8fc a6bd 0adf 05be
00000030: dcd6 10bf 3d0a a6be b477 c53d 1a6e a5be
00000040: 4771 3cbe c421 66be 3bc7 8bbe d782 43be
00000050: 4f7c 94be 519d ff3b 9fda 8dbe 7d7e 9d3e
00000060: 693e 80be f3eb 63be 5429 703e 03c6 b83d
00000070: 2a7b 9d3e 39e3 ccbb e8b8 e0be c839 2b3e
00000080: a412 933a 5662 893e 5951 9ebe 0c93 703e
00000090: 7e4e d4be 3f2f efbe 7bf5 993d f22d 51be
000000a0: 634a 1ebe cd50 95be 51ce 18be ac3c 7cbe
000000b0: 7815 6ebd 9bf7 833e 2acf 96be 70d0 28be
000000c0: f0dd 3f3e 6c29 acbe d923 c6bc baa8 c4be
000000d0: 1955 913e d7bb 3dbe 9749 bc3e 40c3 b3bc
000000e0: 0fc3 653d 04af dbbe 0074 b8be b43d 02be
000000f0: b3e7 2c3e 9a4c 9bbd 1297 f23d a39b 9ebe
00000100: 432a 773e 6f05 41be 374f 603e b3e8 5b3e
00000110: 268a 65bd 95fa eebd 1a2b 5ebe 7bc5 39bd
00000120: 75de 213e 06d8 75be 14be 053f 147a e53d
00000130: 882a dd3d 1e2e 17bd 8e58 ad3e 80bd 38be
00000140: a7fa 51be c141 273e b996 9c3e 31ed 37be
00000150: 93ad d73d 1736 553e 71a5 863e 37a9 b83d
00000160: 1038 573e 49d2 0bbf 5e95 86bd 466a 29be
00000170: a703 b23e 8fbf ecbd ca1e dabe e8d5 e13d
00000180: 425f 733d b657 02be 4721 243d 1d54 803e
00000190: d953 0a3e f591 023f c6db f4be 095a 7dbe
000001a0: 8369 733d 164b 21be 1a5a dcbc c701 c0be
000001b0: b806 b5be 0016 923d 38d6 493d bbcf fabd
000001c0: cae9 b8be 928a aa3e 2079 62be a7bf 9dbe
000001d0: 57ee a83c 0131 4e3e 493b af3e f539 5abd
000001e0: 963b 533e 471c 36be 6f7f 33be 42ea a6be
000001f0: b8a0 423e d4be 483d 58f2 19bd 8679 1abd
00000200: 339e 143e 6c41 4a3e e703 853e 5a6c c53e
00000210: 1a71 06bd e540 9c3e 8bec 963e 71bb 4bbd
00000220: a965 99bc 1ce5 09bf ae9e 3b3e cc4f 663e
00000230: b546 8f3e 4907 97be ac8a 42be 29cc a63e
00000240: 4cb3 edbe 79cd 9a3e dc12 ef3d 84a9 fd3d
00000250: a533 bdbe a7f2 a2bd 6f8e d1bd 82f2 7c3e
00000260: ad49 65bd e75d 90bc 7dfc 8cbd 5dd3 533e
00000270: 1050 903d 9b9c 0b3f fb20 87bd 194c 0cbe
00000280: ca4d fb3d 9d5a 1dbd 96a0 5ebe f64c 63be
00000290: 7b7c a63d 7546 ebbe 1677 9f3e 4f32 a4be
000002a0: 7104 af3e 2c0c dcbd dee3 0c3e 0574 6b3e
000002b0: f249 c8bd 5dd4 86be e19b 97be 7aa0 4dbe
000002c0: 10c0 67be 4c9b 95bc 620d 21be 8447 bebe
000002d0: 1b87 343e 9fdc b33e 50fd 583d d6ae c13e
000002e0: 9e26 ae3e cee0 ef3d e6ce af3e b72d bbbe
000002f0: e38b 4bbe 0731 c53c 4732 fbbe e8ee 37be
00000300: 415f 903e 57cb c33d 29a5 e1be 2e93 71be
00000310: a4e6 46be f58a 843d 118e adbe 7fb7 75bd
00000320: 6070 55be 43dd 83be c766 b3be 18e2 f63e
00000330: b16c cdbe b063 d9be 32d9 9e3e f97e 63be
00000340: 880a aa3e d321 91be 0bdc 59be 529b b03e
00000350: ce8e 1c3d cf7c 013a 874e b73e d060 5b3e
00000360: f791 6dbd 2e4a d83c 0506 9f3e 7a8b d0bd
00000370: a2ee e0be f589 163e dbe2 873d 6571 713e
00000380: bf01 5cbe 0984 8bbe 0e38 c33e a958 7fbe
00000390: b70f 0dbe c811 45bd 1809 b53e fe0c 84be
000003a0: e749 fbbd 6078 bc3e e7c1 d439 9914 6a3e
000003b0: feb3 c3be fbf0 b9bd db53 71be 511c ce3e
000003c0: 8293 81be 6d48 593e 5692 e2bd ccd4 9fbd
000003d0: 87a2 873e 7691 903e 442f 00bf 6bb0 19be
000003e0: 4002 10bf 8890 763c 902a 8b3e 2069 8f3e
000003f0: fa32 99bd 979c b43e 4f60 ac3e b265 aebe

bnorm_2.weight f4 [16]
1.0921222 1.0965794 1.0877075 1.042219 1.1949273 1.0915271 1.1339307 1.0372787
1.0937855 1.1355479 1.1246619 1.0924561 1.0943722 1.0729054 1.0815023 1.0255872
00000000: a9ca 8b3f b75c 8c3f 003a 8b3f 6f67 853f
00000010: 61f3 983f 29b7 8b3f a424 913f 8cc5 843f
00000020: 2a01 8c3f a259 913f ecf4 8f3f 9ad5 8b3f
00000030: 6314 8c3f f754 893f ab6e 8a3f 7146 833f

bnorm_2.bias f4 [16]
-0.15151334 -0.05931441 -0.10497394 -0.13266918 -0.07431278 -0.18315333 -0.13874145 -0.10236178
-0.14896467 -0.07487592 -0.12700777 -0.09376146 -0.11445933 -0.04303455 -0.092843406 -0.065640524
00000000: 5026 1bbe abf3 72bd 94fc d6bd 6eda 07be
00000010: 4c31 98bd 8c8c 3bbe 3d12 0ebe 0ea3 d1bd
00000020: 328a 18be 8c58 99bd 530e 02be 0206 c0bd
00000030: a769 eabd ff44 30bd af24 bebd 8a6e 86bd

bnorm_2.running_mean f4 [16]
0.029307308 -0.17275862 -0.03608083 0.044633474 0.009997913 0.08392013 -0.0136043895 0.0012766703
0.11434559 -0.056914985 0.0052203727 -0.11618526 0.061048146 -0.110177554 -0.052600123 -0.13824607
00000000: e115 f03c a3e7 30be 7ec9 13bd 97d1 363d
00000010: 49ce 233c 51de ab3d f2e4 5ebc f255 a73a
00000020: 052e ea3d b01f 69bd a90f ab3b 8af2 edbd
00000030: 9f0d 7a3d c5a4 e1bd 3a73 57bd 6190 0dbe

bnorm_2.running_var f4 [16]
0.2346682 0.1500211 0.2033316 0.14091812 0.14229463 0.14121969 0.13341585 0.079733945
0.13900977 0.17199403 0.1336326 0.1794177 0.2001751 0.10641456 0.12633589 0.24566863
00000000: dc4c 703e 229f 193e 2936 503e d74c 103e
00000010: afb5 113e e59b 103e 2a9e 083e 8d4b a33d
00000020: 9458 0e3e 341f 303e fcd6 083e 46b9 373e
00000030: b4fa 4c3e e0ef d93d 325e 013e 8f90 7b3e

final_layer.conv_classifier.weight f4 [4, 16, 1, 35]
-0.06356842 0.02788349 -0.04537989 0.116309844 0.004416052 0.21046552 -0.14493261 -0.03563077
0.080117054 -0.039484244 0.036256075 0.042634357 -0.07776726 0.044069264 0.11274905 0.029787809
-0.1452169 -0.064299755 -0.10958706 -0.14291754 -0.07310707 -0.044693686 -0.053605236 -0.03024529
0.04595062 -0.07620233 -0.048490018 -0.083640486 0.057468396 0.031481788 -0.004520186 -0.06108701
-0.05864191 0.09570058 -0.034769185 0.101634905 -0.09784693 -0.0080078915 0.07189022 -0.16240568
-0.02255198 0.09030615 -0.08889444 0.14267172 -0.042673524 -0.0333878 0.055591 -0.18083312
0.04918775 0.081779584 -0.05469162 0.011472118 -0.08060786 -0.021254743 0.11095883 0.041633293
0.020205844 0.057292465 -0.007867383 0.011157418 -0.08530388 0.002754433 0.014173073 0.015830465
-0.014972615 0.073056996 -0.043043073 0.051427167 0.047637198 -0.063579336 0.073994204 0.018718997
0.13041613 0.08311526 -0.0478899 -0.00988264 -0.009615441 0.01285966 0.10776128 -0.10463945
-0.08319161 0.06072685 -0.09309419 -0.03827575 0.12661166 -0.14008723 -0.022999486 -0.011965009
-0.10108127 -0.09830633 -0.11072962 0.0111610675 -0.02398671 0.06504434 -0.020137498 -0.032176383
0.022682145 -0.0061527374 -0.06915033 -0.12271255 -0.011227211 -0.057095394 0.017871493 -0.033070657
-0.054752786 -0.070575915 0.040301867 0.066576205 0.08542694 -0.1461184 0.24786745 -0.15182638
0.06755728 0.12025694 -0.033647195 0.040896222 0.052457996 -0.000126344 0.00050623604 0.07571957
0.061053865 0.012596638 -0.0027659338 -0.06494875 0.048514843 0.062397808 0.06799104 -0.023193741
-0.01370902 0.11122652 0.07597112 0.1276982 7.2368704e-05 0.095130935 -0.02789215 0.04289436
-0.061374355 -0.0011265029 0.14077163 0.0019322704 0.11047792 -0.035691775 0.056928333 -0.076163195
-0.04293985 -0.0065340167 -0.06745464 0.08520909 0.017357506 0.012138804 0.069139645 0.053220067
0.1078602 0.07921484 0.105902284 -0.06978603 0.11104167 -0.04436259 0.002426739 0.018740103
0.094561905 0.03134376 -0.07892962 -0.0011262101 -0.071526624 0.027368993 -0.02006985 -0.0030246307
-0.008369881 0.024758942 -0.048795346 0.011324659 -0.008507906 -0.04928863 -0.025757572 0.09201407
0.005396797 0.060604274 0.04933 -0.08660032 0.11745081 -0.07717957 0.038610756 0.11055183
0.111569084 0.055104345 0.026789743 -0.00438145 -0.073301576 -0.023829095 0.015833573 -0.002665447
-0.06999306 -0.020375496 0.020947156 0.08468456 0.08436001 0.061067134 0.039981484 -0.035083313
0.020268865 -0.0069327615 0.1338478 0.06408749 -0.029150067 -0.037679877 -0.0038671913 -0.05134497
0.064963095 -0.025529863 -0.07909256 0.12450532 -0.06430665 -0.05553295 -0.0032930917 0.2103095
-0.07686725 -0.111682534 0.045455236 0.12624535 0.04721059 0.05654843 0.13360696 0.02650562
-0.073831744 0.047480997 0.0732031 -0.13554998 0.09760594 -0.00594499 0.037540566 -0.06156908
0.10790827 0.021839404 -0.055204984 -0.05712137 -0.015263405 -0.06452083 0.052831344 0.027969899
-0.060023822 0.07624274 -0.024104988 0.022997282 -0.056920063 0.06707954 0.01884961 -0.033094212
0.03816279 -0.067260094 0.05897109 0.06381178 -0.13419689 0.067002214 -0.09043791 -0.1404553
00000000: 2930 82bd eb6b e43c 43e0 39bd db33 ee3d
00000010: 87b4 903b 4684 573e 3769 14be 92f1 11bd
00000020: 6914 a43d 3bba 21bd 4081 143d 5da1 2e3d
00000030: 7144 9fbd f981 343d f9e8 e63d 9005 f43c
00000040: bdb3 14be 97af 83bd 2e6f e0bd fa58 12be
00000050: 29b9 95bd ba10 37bd 2a91 5bbd f8c4 f7bc
00000060: b836 3c3d f80f 9cbd 789d 46bd b44b abbd
00000070: fb63 6b3d 0cf3 003d 121e 94bb 5f36 7abd
00000080: 8032 70bd aafe c33d 226a 0ebd f625 d03d
00000090: f963 c8bd 8833 03bc 2e3b 933d ad4d 26be
000000a0: eebe b8bc 6ef2 b83d 4a0e b6bd 8918 123e
000000b0: 6fca 2ebd a5c1 08bd 63b3 633d 512c 39be
000000c0: 1879 493d 0e7c a73d 5204 60bd 8df5 3b3c
000000d0: bc15 a5bd 6d1e aebc 623e e33d ac87 2a3d
000000e0: ba86 a53c 81ab 6a3d 32e6 00bc 9acd 363c
000000f0: cdb3 aebd b883 343b 2d36 683c e4ae 813c
00000100: b34f 75bc e89e 953d ef4d 30bd 4ba5 523d
00000110: 391f 433d e235 82bd 468a 973d 9558 993c
00000120: ce8b 053e 5538 aa3d 3328 44bd ccea 21bc
00000130: 158a 1dbc 53b1 523c f2b1 dc3d 354d d6bd
00000140: 5d60 aabd b8bc 783d 2ba8 bebd 08c7 1cbd
00000150: 7da6 013e 0773 0fbe 6b69 bcbc e308 44bc
00000160: b203 cfbd d454 c9bd 36c6 e2bd e9dc 363c
00000170: c77f c4bc f835 853d 65f7 a4bc 62cb 03bd
00000180: e8cf b93c e79c c9bb b09e 8dbd b850 fbbd
00000190: 56f2 37bc dcdc 69bd 3d67 923c 1975 07bd
000001a0: 7544 60bd 1b8a 90bd 9213 253d 1b59 883d
000001b0: 52f4 ae3d 10a0 15be f7d0 7d3e 6078 1bbe
000001c0: 795b 8a3d 4549 f63d a4d1 09bd cc82 273d
000001d0: 32de 563d 367b 04b9 edb4 043a dd12 9b3d
000001e0: 9e13 7a3d 2162 4e3c ab44 35bb da03 85bd
000001f0: 80b7 463d d894 7f3d e33e 8b3d cd00 bebc
00000200: cc9b 60bc bbca e33d bf96 9b3d 51c3 023e
00000210: a7c4 9738 02d4 c23d 147e e4bc ffb1 2f3d
00000220: ad63 7bbd 2aa7 93ba 7026 103e 3c44 fd3a
00000230: 3f42 e23d 8a31 12bd af2d 693d 73fb 9bbd
00000240: b2e1 2fbd 4e1b d6bb a925 8abd 1a82 ae3d
00000250: 5431 8e3c d6e1 463c 1699 8d3d 49fd 593d
00000260: cfe5 dc3d 643b a23d 4ce3 d83d faeb 8ebd
00000270: d169 e33d 8cb5 35bd ed09 1f3b d884 993c
00000280: aca9 c13d 5162 003d daa5 a1bd 579d 93ba
00000290: 8d7c 92bd f034 e03c 8769 a4bc e238 46bb
000002a0: d321 09bc 44d3 ca3c a1dd 47bd 108b 393c
000002b0: bf64 0bbc e0e2 49bd 8b01 d3bc df71 bc3d
000002c0: 9dd7 b03b 303c 783d 410e 4a3d 825b b1bd
000002d0: 0d8a f03d 5310 9ebd 5026 1e3d ff68 e23d
000002e0: 557e e43d 18b5 613d 2a76 db3c 4492 8fbb
000002f0: 231f 96bd 3c35 c3bc 69b5 813c c8ae 2ebb
00000300: 8558 8fbd 83ea a6bc 5f99 ab3c 196f ad3d
00000310: f1c4 ac3d 8821 7a3d a0c3 233d 85b3 0fbd
00000320: e40a a63c 382c e3bb 660f 093e 4d40 833d
00000330: 1fcc eebc 3756 1abd b470 7dbb 1a4f 52bd
00000340: 5f0b 853d 0124 d1bc 48fb a1bd a5fc fe3d
00000350: 34b3 83bd 8576 63bd e9d0 57bb 605b 573e
00000360: 946c 9dbd d0b9 e4bd 452f 3a3d 7646 013e
00000370: e45f 413d 549f 673d 43d0 083e 5022 d93c
00000380: 1935 97bd 6f7b 423d 82eb 953d 9dcd 0abe
00000390: a0e5 c73d 31ce c2bb 23c4 193d dc2f 7cbd
000003a0: 03ff dc3d 8de8 b23c 9f1e 62bd 19f8 69bd
000003b0: 5c13 7abc 7f23 84bd ae65 583d 2121 e53c
000003c0: 8adb 75bd 2725 9c3d d377 c5bc cc64 bc3c
000003d0: 0325 69bd ff60 893d 7f6a 9a3c cc8d 07bd
000003e0: 9650 1c3d a9bf 89bd ab8b 713d c0af 823d
000003f0: e96a 09be 7538 893d 8337 b9bd 84d3 0fbe

final_layer.conv_classifier.bias f4 [4]
-0.019446839 0.0010938926 -0.01979721 0.042027347
00000000: fa4e 9fbc f260 8f3a c22d a2bc de24 2c3d
