result_eegnetecasca_cv5/fold_2/best_model_fold2.pth (torch, 24202 bytes, 21 tensors)

conv_time.weight f4 [8, 1, 1, 64]
0.024433525 0.03297111 0.067734234 -0.07810255 0.059739824 0.098823026 -0.0061914795 -0.043989494
0.10598125 0.04755932 0.05625136 0.026521102 0.06658206 -0.07382697 0.10707278 0.020298237
0.055454146 0.074112885 0.06625659 -0.07967054 0.058178373 0.01412684 0.08488788 -0.0014108003
0.020310668 -0.001826677 -0.07713127 0.07726909 0.071608275 -0.024509832 -0.11063274 0.053413253
-0.03337775 -0.07222919 0.014975369 -0.14541417 -0.056005795 -0.05637569 -0.0021053245 -0.09041322
-0.18733159 -0.024346864 -0.06738637 -0.19093734 -0.09743277 -0.17580208 -0.006179396 -0.0835493
-0.15126729 -0.030882478 -0.15931536 -0.013078653 0.009365207 -0.1743761 -0.14563304 0.021045724
-0.12957358 -0.00262616 0.030975731 -0.029075526 -0.10348077 -0.06464231 -0.06309198 -0.021420816
0.014477538 -0.0126240775 0.04918076 0.015400895 0.01825338 -0.03010886 0.0028920753 -0.016224729
-0.10733015 0.065318234 0.05249156 -0.018460132 -0.16637638 0.044868194 -0.12255239 0.04194299
-0.009875098 0.12938017 0.08949725 0.093322076 -0.0023339042 -0.08995074 0.0027702241 0.105092056
0.0038286997 -0.0131784035 0.10151694 -0.057064593 -0.03189716 -0.034568164 -0.0957138 0.01547011
0.08658251 0.12714787 -0.053952783 -0.10029409 -0.017896064 -0.14933631 -0.10903367 0.13998717
0.15657209 0.013681037 0.011042417 -0.011874522 0.13246681 -0.02387259 0.07855629 0.12923697
0.095298395 0.07698559 -0.14169246 -0.14329383 0.023929494 -0.14325756 -0.064275414 0.10104926
0.034385603 0.0021966714 -0.16011345 0.01029047 0.038649894 0.06626226 0.04635084 0.14980856
-0.12273093 -0.018662663 -0.13373946 -0.23563953 -0.104657225 -0.17289571 -0.18023664 -0.019268258
0.0902573 0.005544106 -0.010152415 0.009132849 0.07642935 0.011036599 0.14695448 -0.03915076
0.10933152 -0.018404441 -0.0135386 -0.01285115 0.051771045 0.14179833 -0.02964013 0.008259234
-0.009502728 -0.047373187 0.09826121 0.04208461 -0.030049682 -0.070226654 0.09179181 0.033252086
0.044145472 0.040243797 0.061044417 -0.05334891 0.044496283 0.18135612 0.21778114 0.11226322
0.06929789 0.091281444 0.09255614 -0.026545994 0.16203296 0.051313408 0.052020486 0.031746797
-0.048223868 -0.011114875 0.022128938 -0.13545108 0.043336146 -0.09464521 0.05149628 -0.0360683
0.083005264 0.026094887 -0.027935015 -0.052936047 0.02000706 0.07059175 -0.0968026 -0.009599036
0.031602997 -0.033212375 -0.033986818 -0.07416331 0.0074786497 -0.09182448 -0.056175552 -0.10531045
-0.08047761 0.0041414043 0.019752035 0.047938954 0.059217356 0.054849282 0.02336487 0.019567417
0.019511793 -0.12160386 0.012850604 0.06300338 0.13752991 0.0064966334 -0.08928371 -0.116419904
-0.09773736 -0.15839468 -0.15907373 -0.07222787 -0.08550848 -0.043892585 0.10099142 -0.05674635
0.106391154 0.020916212 0.044702835 0.11236991 0.017094968 -0.09910328 -0.02875854 -0.10238436
-0.09000972 0.07673683 0.028021038 -0.053461697 0.065684 0.020932209 -0.08000692 -0.17396352
-0.17152166 0.044701733 -0.014129917 0.031527113 -0.032023802 0.0074384846 0.1139068 -0.035176635
-0.095546104 0.050014373 0.045859132 -0.053720694 0.033024397 -0.03809959 -0.18069722 -0.029997732
00000000: d128 c83c b70c 073d 3fb8 8a3d 3bf4 9fbd
00000010: bfb1 743d ba63 ca3d e5e1 cabb 542e 34bd
00000020: b30c d93d 90cd 423d d367 663d c842 d93c
00000030: 2d5c 883d 9832 97bd f948 db3d 7d48 a63c
00000040: e323 633d 7fc8 973d 89b1 873d 4f2a a3bd
00000050: 724c 6e3d 4374 673c b2d9 ad3d 9aea b8ba
00000060: 8f62 a63c 1c6d efba 00f7 9dbd 423f 9e3d
00000070: 5ca7 923d d8c8 c8bc 6b93 e2bd dbc7 5a3d
00000080: 1cb7 08bd e6ec 93bd 405b 753c 74e7 14be
00000090: 5566 65bd 32ea 66bd 7cf9 09bb 912a b9bd
000000a0: dad3 3fbe 1373 c7bc dd01 8abd 1485 43be
000000b0: d58a c7bd 7605 34be 887c cabb e51b abbd
000000c0: d0e5 1abe 40fd fcbc 9123 23be d947 56bc
000000d0: 8670 193c a68f 32be d420 15be 1568 ac3c
000000e0: f0ae 04be a71b 2cbb d1c0 fd3c cc2f eebc
000000f0: baed d3bd 3063 84bd 5e36 81bd b57a afbc
00000100: 3233 6d3c 38d5 4ebc c471 493d 0954 7c3c
00000110: 1d88 953c dba6 f6bc f988 3d3b b9e9 84bc
00000120: e9cf dbbd 91c5 853d 6401 573d b439 97bc
00000130: 925e 2abe b6c7 373d bffc fabd 6acc 2b3d
00000140: 2acb 21bc 3c7c 043e 564a b73d a51f bf3d
00000150: 6af4 18bb 1838 b8bd a68c 353b 813a d73d
00000160: ecea 7a3b 3bea 57bc 1de8 cf3d 90bc 69bd
00000170: 99a6 02bd 5997 0dbd 9905 c4bd 5876 7d3c
00000180: 2c52 b13d 0d33 023e 98fd 5cbd fd66 cdbd
00000190: c49a 92bc 9eeb 18be 0b4d dfbd cc58 0f3e
000001a0: 6f54 203e 6e26 603c 41eb 343c 5b8d 42bc
000001b0: 61a5 073e 7390 c3bc 1fe2 a03d b256 043e
000001c0: ce2b c33d 9faa 9d3d d417 11be 9ebb 12be
000001d0: c907 c43c 1cb2 12be d4a2 83bd eaf2 ce3d
000001e0: ebd7 0c3d 08f6 0f3b c8f4 23be 5c99 283c
000001f0: 5a4f 1e3d 82b4 873d 61da 3d3d 6a67 193e
00000200: 5b5a fbbd 71e2 98bc fff2 08be 7d4b 71be
00000210: 8756 d6bd 930b 31be f48f 38be 77d8 9dbc
00000220: d2d8 b83d 55ab b53b 5156 26bc f2a1 153c
00000230: fe86 9c3d dad2 343c 3c7b 163e 8c5c 20bd
00000240: 34e9 df3d e9c4 96bc 01d1 5dbc a18d 52bc
00000250: e00d 543d 9533 113e dccf f2bc bd51 073c
00000260: 54b1 1bbc 630a 42bd 2c3d c93d e960 2c3d
00000270: c02a f6bc fed2 8fbd 58fd bb3d 5733 083d
00000280: e2d1 343d aed6 243d b609 7a3d 6384 5abd
00000290: bc41 363d 6bb5 393e 0502 5f3e 42ea e53d
000002a0: 0dec 8d3d c4f1 ba3d 138e bd3d fc76 d9bc
000002b0: f8eb 253e 022e 523d 6f13 553d ee08 023d
000002c0: 6486 45bd 2a1b 36bc bf47 b53c b0b3 0abe
000002d0: 3e81 313d 59d5 c1bd c3ed 523d 5bbc 13bd
000002e0: aafe a93d f2c4 d53c f9d7 e4bc 78d3 58bd
000002f0: d9e5 a33c 6892 903d 7140 c6bd 4645 1dbc
00000300: 2572 013d b309 08bd c335 0bbd efe2 97bd
00000310: 760f f53b 790e bcbd 5618 66bd 01ad d7bd
00000320: 72d1 a4bd 9eb4 873b 05cf a13c a35b 443d
00000330: e68d 723d a4a9 603d af67 bf3c d94b a03c
00000340: 32d7 9f3c 720b f9bd 578b 523c eb07 813d
00000350: a4d4 0c3e b6e1 d43b 61da b6bd 8f6d eebd
00000360: 862a c8bd 3732 22be 39e4 22be 35ec 93bd
00000370: 121f afbd b6c8 33bd 97d4 ce3d dc6e 68bd
00000380: 9be3 d93d 7a58 ab3c 521a 373d 3222 e63d
00000390: bf0a 8c3c a9f6 cabd 0897 ebbc e4ae d1bd
000003a0: 0457 b8bd 3328 9d3d 608c e53c a7fa 5abd
000003b0: 5585 863d 067a ab3c abda a3bd 7e23 32be
000003c0: 60a3 2fbe 2a19 373d 2b81 67bc 9322 013d
000003d0: 642b 03bd 88be f33b f847 e93d 6015 10bd
000003e0: adad c3bd dfdb 4c3d c9d6 3b3d 3b0a 5cbd
000003f0: 9744 073d 510e 1cbd b108 39be cebd f5bc

bn1.weight f4 [8]
1.1666738 1.1788479 0.5771451 0.78890187 1.3866175 1.503486 1.1024601 1.2947472
00000000: 9155 953f 7de4 963f c8bf 133f 79f5 493f
00000010: af7c b13f 3b72 c03f 6a1d 8d3f 47ba a53f

bn1.bias f4 [8]
-0.11069974 -0.106588826 -0.10656797 -0.09337993 -0.10402122 -0.103813626 -0.10656194 -0.10126627
00000000: 8cb6 e2bd 3e4b dabd 4f40 dabd fa3d bfbd
00000010: 1409 d5bd 3d9c d4bd 253d dabd b164 cfbd

bn1.running_mean f4 [8]
-0.00030793567 9.3649076e-05 1.6758408e-05 0.0006120297 -0.00087462907 -0.00094191707 0.00074722036 -0.001293118
00000000: 6d72 a1b9 7765 c438 6894 8c37 9e70 203a
00000010: 5d47 65ba fcea 76ba 1ce1 433a d77d a9ba

bn1.running_var f4 [8]
0.8288502 0.47823206 1.4446944 0.59468377 0.42345142 1.1325399 1.4545628 0.3913689
00000000: 872f 543f d5da f43e bfeb b83f 323d 183f
00000010: a0ce d83e 11f7 903f 1d2f ba3f 8161 c83e

sca.fc1.weight f4 [5, 22]
-0.087809674 0.10558593 0.15241216 -0.1733422 0.03623785 -0.10937751 0.12794542 0.17173113
-0.054764263 -0.045150526 -0.049573295 0.07871182 -0.11153642 -0.015503658 -0.088037804 0.030623712
0.122658096 0.14015396 0.14390291 -0.2025664 0.03650879 0.1942596 -0.2273992 -0.26719287
-0.029613394 -0.11268222 -0.26979315 -0.15093851 -0.06175625 -0.20337525 -0.2943493 -0.21677324
-0.18066166 -0.006632166 -0.24408163 -0.16694954 -0.31635773 0.018827181 -0.2251022 -0.34225246
-0.115086004 -0.011271377 -0.11580891 -0.22212377 -0.090906166 -0.033239014 0.04755151 -0.072876826
0.12137568 -0.045318127 0.1944669 0.1022155 0.09720217 -0.06207934 0.072987884 0.00045599666
0.10075291 -0.02279586 -0.14885952 0.055953406 -0.1244885 -0.17518422 0.11521577 0.1638735
-0.15314943 0.09505392 0.124577984 -0.05101972 0.01519887 -0.14996648 -0.039442156 0.04127896
0.052192844 0.13236631 -0.0803707 0.12952536 0.031026382 -0.13936749 0.046456266 -0.11282109
0.15124641 -0.16089678 -0.107582554 0.097501874 0.1863912 0.061048567 0.02268747 0.15573749
0.17884217 0.1281814 0.01672574 0.13533826 -0.069661915 -0.12511908 0.19233264 0.04021367
-0.002322451 0.0033066978 -0.08799284 -0.046339683 0.16599818 -0.044898745 -0.017401984 0.16417426
-0.12828551 -0.06462352 0.005450058 0.18143891 0.13363427 0.18523575
00000000: 8fd5 b3bd 703d d83d ef11 1c3e 9e80 31be
00000010: 246e 143d 5101 e0bd 2004 033e 49da 2f3e
00000020: 7e50 60bd c2ef 38bd 5e0d 4bbd aa33 a13d
00000030: 356d e4bd 0e03 7ebc 2a4d b4bd 94de fa3c
00000040: 2b34 fb3d 8584 0f3e 495b 133e 916d 4fbe
00000050: 3e8a 153d fdeb 463e 56db 68be 81cd 88be
00000060: ca97 f2bc f0c5 e6bd 5422 8abe a08f 1abe
00000070: 1ff4 7cbd 9a41 50be f4b4 96be cef9 5dbe
00000080: 5fff 38be a452 d9bb 89f0 79be d2f4 2abe
00000090: a4f9 a1be 763b 9a3c 3181 66be b73b afbe
000000a0: 36b2 ebbd 95ab 38bc 392d edbd 6a74 63be
000000b0: 032d babd a225 08bd 5fc5 423d 7240 95bd
000000c0: d093 f83d 809f 39bd 5522 473e 5c56 d13d
000000d0: ee11 c73d e846 7ebd ac7a 953d d612 ef39
000000e0: 8b57 ce3d 62be babc a16e 18be 662f 653d
000000f0: d4f3 febd 7e63 33be 3ff6 eb3d 74ce 273e
00000100: 34d3 1cbe a1ab c23d be22 ff3d 0efa 50bd
00000110: ae04 793c d090 19be 198e 21bd 2014 293d
00000120: 2ac8 553d 098b 073e 6599 a4bd 4ca2 043e
00000130: 0a2b fe3c 5ab6 0ebe ed48 3e3d be0e e7bd
00000140: 57e0 1a3e 20c2 24be 3e54 dcbd 10af c73d
00000150: 56dd 3e3e 100e 7a3d 13db b93c a679 1f3e
00000160: 6722 373e fc41 033e 6b04 893c 1d96 0a3e
00000170: e8aa 8ebd 371f 00be d9f2 443e 17b7 243d
00000180: 4334 18bb 2fb5 583b 9735 b4bd aece 3dbd
00000190: 6dfb 293e bfe7 37bd 9b8e 8ebc 4c1d 283e
000001a0: 475d 03be 5659 84bd 6696 b23b 1fcb 393e
000001b0: 6cd7 083e 71ae 3d3e

sca.fc2.weight f4 [22, 5]
0.06520212 -0.4496436 -0.20005958 0.29255012 0.26236203 0.29544675 0.32433155 -0.20233157
-0.22191788 0.33579564 -0.38050905 -0.4301316 0.25750133 -0.28932938 0.17958409 -0.32243985
-0.27431417 0.32203162 0.17857708 0.3808576 -0.37166688 -0.48530263 0.12768452 0.39304972
0.38961685 -0.054170977 -0.4568386 0.29530838 0.27361473 -0.106922634 -0.27183625 0.051340744
0.28568688 -0.36524624 0.39343825 -0.028756568 0.108532436 -0.19931637 -0.008553811 0.36585405
0.33418855 -0.2600008 0.35565785 0.11521394 0.10981878 0.22671077 -0.33276325 -0.1583598
0.31661263 -0.24407999 0.015041505 -0.1448478 -0.23696996 -0.14375553 0.28626734 -0.09122168
-0.30806392 -0.11708494 0.3854109 -0.19749272 -0.28576267 -0.17453554 -0.056011405 -0.07171585
-0.19417338 -0.31992614 0.24165225 -0.032106895 -0.20266773 0.11289536 0.24386682 0.08840115
0.060769457 0.14610568 0.3248295 -0.09541084 -0.15905078 0.27825826 -0.0090074 0.2819539
0.14545524 0.38940808 -0.37313625 0.20658945 0.15863387 0.03640546 0.34718505 0.0865735
-0.26717237 0.13291594 0.15109666 0.2858436 -0.019916574 -0.18907684 0.069316655 -0.27254623
-0.23920232 0.24191663 0.120586276 -0.3383425 -0.10971041 -0.37790093 0.37609506 -0.02499555
0.1371163 -0.25075117 0.010715155 0.11044872 0.38700068 0.13407423
00000000: b088 853d b037 e6be 6bdc 4cbe 21c9 953e
00000010: 5154 863e cc44 973e c90e a63e 0230 4fbe
00000020: 713e 63be 68ed ab3e 15d2 c2be 363a dcbe
00000030: 37d7 833e fb22 94be e4e4 373e d616 a5be
00000040: e872 8cbe 54e1 a43e e9dc 363e c4ff c23e
00000050: 1f4b bebe 9679 f8be bbbf 023e d03d c93e
00000060: dc7b c73e 63e2 5dbd c0e6 e9be a932 973e
00000070: 3b17 8c3e 41fa dabd 1f2e 8bbe ac4a 523d
00000080: 8d45 923e 8e01 bbbe bd70 c93e e592 ebbc
00000090: 4146 de3d 9719 4cbe 4925 0cbc 3951 bb3e
000000a0: c31a ab3e d31e 85be c918 b63e 49f5 eb3d
000000b0: abe8 e03d de26 683e f25f aabe 1229 22be
000000c0: 0d1b a23e 1bf0 79be a570 763c fb52 14be
000000d0: 41a8 72be a634 13be a291 923e 6fd2 babd
000000e0: 8eba 9dbe 3bca efbd 9454 c53e 883b 4abe
000000f0: 7c4f 92be 72b9 32be 376c 65bd c2df 92bd
00000100: 63d5 46be 5ccd a3be b073 773e 8582 03bd
00000110: 2188 4fbe af35 e73d 39b8 793e aa0b b53d
00000120: 65e9 783d ba9c 153e 0d50 a63e c266 c3bd
00000130: 35de 22be de77 8e3e c693 13bc 435c 903e
00000140: 38f2 143e 7f60 c73e b70b bfbe 2f8c 533e
00000150: eb70 223e e41d 153d 3dc2 b13e 724d b13d
00000160: d1ca 88be 1e1b 083e 15b9 1a3e 185a 923e
00000170: 1528 a3bc 5c9d 41be e4f5 8d3d 2e8b 8bbe
00000180: 74f1 74be feb8 773e f0f5 f63d 3a3b adbe
00000190: daaf e0bd 3b7c c1be 888f c03e 78c3 ccbc
000001a0: 3768 0c3e 7562 80be 9e8e 2f3c f032 e23d
000001b0: f424 c63e c14a 093e

conv_depth.weight f4 [16, 1, 22, 1]
0.023136172 0.098436445 -0.111496694 0.11972974 -0.12006366 -0.11848371 -0.0005440988 -0.059394028
0.11493387 -0.18686396 -0.039207023 0.04496814 0.0081903655 -0.119289614 0.20617168 0.084285766
-0.1390352 0.022091078 0.23814848 0.20661929 -0.042719528 -0.21857947 0.10307554 -0.10636258
-0.16976309 0.03497583 0.15121152 -0.048815925 -0.07583286 0.0675159 -0.060674157 -0.12387317
0.062120374 -0.037678756 0.08056815 0.26960084 0.020029513 -0.09884567 -0.013846902 0.0019852524
0.29244834 -0.043528773 -0.16700408 -0.18383092 0.012967718 -0.059251953 0.09196799 0.0036283273
-0.0030327772 0.17958087 0.019117236 -0.092620485 0.19104141 0.013842431 -0.09724112 -0.010195438
0.0367109 0.20262875 -0.03962017 -0.42839912 -0.081505984 0.09757217 -0.043351922 -0.21545584
0.119225256 0.16213824 -0.13179868 0.09853018 -0.06290742 -0.0040691113 -0.035432655 -0.21590514
-0.054347355 -0.021796068 0.17386958 -0.20475775 -0.013333315 0.0892086 0.01683859 0.04002552
-0.13469525 0.13870193 0.19261932 0.31823763 0.002627927 -0.048656367 -0.16025299 -0.07188917
0.13849615 0.14607775 0.15829359 0.13384168 -0.040953018 -0.18522793 -0.0856563 -0.07570891
0.14498535 0.0035126267 -0.088671245 0.05215355 0.047822356 -0.1633058 -0.11021738 0.19418603
0.079268366 -0.026959633 -0.10135395 0.14160855 -0.05122554 -0.023799686 0.31393993 -0.061895594
0.13867852 0.007025524 -0.086645015 0.073375724 -0.07518146 -0.035361152 -0.054120038 -0.06177583
-0.10848504 0.018409843 0.0013953567 -0.029461505 -0.016901819 0.024514066 -0.23219702 -0.08684512
-0.014703127 -0.052160162 0.26010466 -0.06537884 0.111845404 0.015211776 -0.06845222 -0.037629336
-0.099518545 -0.022251757 0.17587431 -0.16753331 0.07807518 0.28508303 -0.009577785 0.093932115
-0.010180249 -0.33551037 -0.10482317 0.016050708 0.13247213 -0.112818494 0.07521397 -0.018885639
-0.12692659 0.13382803 -0.13548249 0.2042828 0.17009243 0.2187147 -0.20444636 0.016650515
0.05772853 -0.1110942 0.007840048 -0.06303133 0.04012633 0.032940168 0.07173316 -0.16862674
-0.23986475 0.12847546 0.0852965 -0.108829185 -0.04735589 0.109657384 -0.115824305 0.04864125
-0.10320696 -0.10790713 -0.10907366 0.016766602 -0.04844669 -0.05996264 0.0033244924 0.011294282
0.20226412 0.23942082 0.0011536503 0.07986185 0.006836338 -0.09702408 -0.08580406 -0.055620752
-0.17267343 0.1135237 0.08408936 -0.119093046 -0.11824172 0.18917242 -0.11353176 0.052699614
0.14771125 0.24165308 -0.08023544 0.1552713 -0.20996104 0.17347984 -0.08607314 0.07624112
-0.055230424 -0.1794261 0.1368054 0.09845862 0.06979515 0.10875473 -0.135603 -0.16181667
0.060079295 -0.031306688 -0.23920195 -0.05687664 0.054634452 -0.12662269 -0.048456885 0.0030800472
0.21870476 -0.08013687 0.033050813 0.083165206 -0.20667377 0.12978826 -0.041268054 0.063746594
0.113625966 -0.10472828 -0.049963467 0.1521252 -0.18601577 -0.121335916 0.060749147 0.07801872
-0.19396375 0.22322865 -0.06825225 -0.030236231 -0.19282666 -0.008957408 0.13211729 0.017193656
-0.029036773 -0.14729694 0.12690555 -0.06714703 0.18130556 0.124247834 0.21043451 0.04682191
00000000: 1288 bd3c 0c99 c93d 6158 e4bd de34 f53d
00000010: f0e3 f5bd 96a7 f2bd daa1 0eba 2747 73bd
00000020: 7362 eb3d 4459 3fbe 8b97 20bd 8330 383d
00000030: e230 063c 1d4e f4bd ab1e 533e 049e ac3d
00000040: 3e5f 0ebe 59f8 b43c 32dd 733e 0294 533e
00000050: acfa 2ebd 4cd3 5fbe 4519 d33d a0d4 d9bd
00000060: 60d6 2dbe d142 0f3d 31d7 1a3e 35f3 47bd
00000070: 424e 9bbd c745 8a3d 7785 78bd 37b1 fdbd
00000080: ef71 7e3d 0a55 1abd ea00 a53d 1f09 8a3e
00000090: ef14 a43c 996f cabd 1ede 62bc 021b 023b
000000a0: cabb 953e 3a4b 32bd 1e03 2bbe 2c3e 3cbe
000000b0: 8d76 543c 2db2 72bd b759 bc3d 3bc9 6d3b
000000c0: 8fc1 46bb 0ce4 373e c09b 9c3c cfaf bdbd
000000d0: 5ca0 433e 5dcb 623c 5a26 c7bd c40a 27bc
000000e0: 2b5e 163d e97d 4f3e c248 22bd 2157 dbbe
000000f0: 9cec a6bd ebd3 c73d c991 31bd 75a0 5cbe
00000100: 5f2c f43d 9107 263e 3cf6 06be 31ca c93d
00000110: 9bd5 80bd 2e56 85bb d521 11bd 3d16 5dbe
00000120: 559b 5ebd ab8d b2bc de0a 323e 04ac 51be
00000130: fa73 5abc 00b3 b63d 15f1 893c cdf1 233d
00000140: 8ded 09be e107 0e3e 003e 453e 0bf0 a23e
00000150: 4d39 2c3b e64b 47bd 5c19 24be a13a 93bd
00000160: efd1 0d3e 6895 153e b717 223e cb0d 093e
00000170: 5abe 27bd 64ac 3dbe 926c afbd 460d 9bbd
00000180: 0a77 143e 1934 663b 4599 b5bd f69e 553d
00000190: 60e1 433d a339 27be a6b9 e1bd b4d8 463e
000001a0: 7457 a23d 73da dcbc a992 cfbd d501 113e
000001b0: dfd1 51bd 8ff7 c2bc bcbc a03e 3c86 7dbd
000001c0: be01 0e3e 5e36 e63b f172 b1bd 0346 963d
000001d0: bdf8 99bd dbd6 10bd f9ac 5dbd a708 7dbd
000001e0: 682d debd 3dd0 963c 67e4 b63a 4159 f1bc
000001f0: af75 8abc b9d1 c83c 0ec5 6dbe dbdb b1bd
00000200: 62e5 70bc e5a5 55bd 702c 853e 57e5 85bd
00000210: 340f e53d d03a 793c ad30 8cbd 3821 1abd
00000220: 61d0 cbbd 5149 b6bc 6518 343e da8d 2bbe
00000230: e1e5 9f3d 67f6 913e 24ec 1cbc 7b5f c03d
00000240: 0fcb 26bc 04c8 abbe 88ad d6bd c67c 833c
00000250: c6a6 073e 620d e7bd c809 9a3d 0eb6 9abc
00000260: 0bf9 01be 370a 093e ecbb 0abe 832f 513e
00000270: b62c 2e3e bff6 5f3e 635a 51be a966 883c
00000280: c074 6c3d 5b85 e3bd 8b73 003c 9216 81bd
00000290: 825b 243d 45ec 063d d6e8 923d 7dac 2cbe
000002a0: 1b9f 75be 128f 033e eeaf ae3d d6e1 debd
000002b0: 40f8 41bd 0d94 e03d 4b35 edbd 0c3c 473d
000002c0: 2c5e d3bd 6afe dcbd 0362 dfbd 1d5a 893c
000002d0: 0970 46bd 639b 75bd badf 593b a70b 393c
000002e0: 531e 4f3e bb2a 753e 1536 973a 9c8e a33d
000002f0: 5c03 e03b 90b4 c6bd 0aba afbd 96d2 63bd
00000300: 4ed1 30be 1d7f e83d 0b37 ac3d 0ee7 f3bd
00000310: b728 f2bd 6ab6 413e 5783 e8bd 8ddb 573d
00000320: 9e41 173e e873 773e 7a52 a4bd 71ff 1e3e
00000330: 0700 57be b3a4 313e 1d47 b0bd 4e24 9c3d
00000340: 4c39 62bd 7abb 37be b716 0c3e aca4 c93d
00000350: c2f0 8e3d cdba de3d 83db 0abe 45b3 25be
00000360: b515 763d 713b 00bd 5bf1 74be 7bf7 68bd
00000370: 60c8 5f3d 61a9 01be ba7a 46bd 9eda 493b
00000380: 24f4 5f3e cd1e a4bd 4a60 073d 8552 aa3d
00000390: 4aa2 53be 37e7 043e b108 29bd 938d 823d
000003a0: bbb4 e83d c87b d6bd 7ea6 4cbd b5c6 1b3e
000003b0: eb7a 3ebe f77e f8bd 19d4 783d 47c8 9f3d
000003c0: 6f9e 46be 0d96 643e d6c7 8bbd f9b1 f7bc
000003d0: 5a74 45be 18c2 12bc c149 073e b6d9 8c3c
000003e0: 87de edbc 02d5 16be 87f3 013e 6284 89bd
000003f0: 2aa8 393e a675 fe3d 257c 573e 55c8 3f3d

bn2.weight f4 [16]
0.933754 1.0806258 1.2651969 1.4499222 1.2622073 1.3160269 1.4217771 1.288061
1.1477641 1.3299409 1.0071326 1.0103921 1.2170508 1.2058715 1.089337 1.3935316
00000000: 810a 6f3f f251 8a3f f9f1 a13f 0d97 b93f
00000010: 0290 a13f 9273 a83f cbfc b53f 2fdf a43f
00000020: efe9 923f 813b aa3f b9e9 803f 8754 813f
00000030: 52c8 9b3f ff59 9a3f 656f 8b3f 3e5f b23f

bn2.bias f4 [16]
-0.266114 -0.27770293 -0.6859168 -0.67930365 -0.6132991 -0.5923736 -0.6524184 -0.5926769
-0.41565984 -0.6719198 -0.27157333 -0.08027366 -0.48317823 -0.45908025 -0.3550205 -0.6623267
00000000: 1840 88be 142f 8ebe 3e98 2fbf d8e6 2dbf
00000010: 2b01 1dbf cca5 17bf e404 27bf acb9 17bf
00000020: 5ed1 d4be f002 2cbf a90b 8bbe 8466 a4bd
00000030: 2363 f7be 910c ebbe 3fc5 b5be 3e8e 29bf

bn2.running_mean f4 [16]
-0.0019881579 0.00032459496 -0.0021207805 0.00011470728 -0.013428113 0.011886399 0.0011770955 0.00048407816
0.0068495045 0.0021831589 -0.0007447327 0.008297302 -0.010841776 0.0060069505 0.0063026287 1.401059e-05
00000000: c14b 02bb 662e aa39 cbfc 0abb 018f f038
00000010: 9701 5cbc 2cbf 423c c548 9a3a dfcb fd39
00000020: cf71 e03b 5413 0f3b 2a3a 43ba 68f1 073c
00000030: b4a1 31bc f4d5 c43b 4886 ce3b 070f 6b37

bn2.running_var f4 [16]
0.00717279 0.0051364596 0.012941637 0.023736697 0.0105084935 0.008328722 0.0075247576 0.0077944496
0.013811729 0.06312922 0.008773912 0.06757753 0.011513007 0.019269153 0.027172549 0.0061872546
00000000: b909 eb3b bf4f a83b 2909 543c 7673 c23c
00000010: d12b 2c3c 3175 083c 3e92 f63b 9568 ff3b
00000020: 974a 623c e449 813d 74c0 0f3c 1766 8a3d
00000030: 0da1 3c3c 58da 9d3c f798 de3c 74be ca3b

conv_sep.0.weight f4 [16, 1, 1, 16]
-0.08743552 -0.17049849 0.051330566 -0.26898086 0.089261025 0.0058241426 0.14030308 0.048277415
0.03441082 -0.095804915 -0.010243305 -0.18717054 -0.09115242 -0.178999 -0.16081583 -0.12806933
-0.27722996 -0.1926759 -0.16391589 -0.23134513 -0.2017523 -0.073883295 0.17013957 -0.09154903
-0.051665112 -0.029513327 -0.038302038 0.018569851 -0.004261042 -0.0013166294 0.04129398 0.14255595
0.029419722 0.117865145 0.037169453 0.2459366 0.11087191 0.1602464 0.10523316 0.07081936
0.21830109 0.21189281 0.044620954 0.08920368 0.17068996 0.12680338 0.17788902 0.086643726
-0.20170894 -0.07518523 -0.2631838 -0.039309084 -0.33775342 -0.20297273 -0.16815431 0.0052004247
-0.1386108 0.044170275 -0.053380772 -0.17440411 -0.1272773 -0.12509678 0.0617371 -0.31636798
-0.102726 -0.2013296 -0.24110925 -0.17631999 -0.1811707 -0.08138467 -0.06850631 0.038089033
-0.1032595 0.023205895 -0.04624713 0.028074136 -0.15543787 -0.03625909 0.05720547 -0.029850319
-0.19233975 -0.12456087 0.026698485 -0.0065741013 0.018066822 -0.27686328 -0.29314068 -0.05573112
0.012657891 -0.009223009 -0.17571405 -0.1373699 -0.05727344 -0.07109329 0.14314444 -0.22674176
-0.1546026 -0.16408704 0.026776996 -0.034161437 -0.11500865 -0.14433491 -0.09982476 0.035703845
-0.12109668 -0.14103575 -0.15965395 -0.0436877 -0.10761827 -0.22647288 -0.0561229 -0.1959897
-0.24787048 -0.004206189 -0.015882142 -0.023141941 -0.1723583 -0.1603955 0.029692827 -0.15984626
-0.060047343 -0.28770414 -0.22269456 -0.1587682 -0.13414879 -0.18074371 -0.0018048553 -0.25861055
-0.011997521 -0.29432938 -0.079245456 -0.22974429 -0.21418092 -0.07781107 -0.32759976 -0.026898159
-0.20627685 0.031647526 -0.06935233 0.01354755 -0.034399334 0.015646072 0.16080353 0.059454314
0.22245885 0.047854163 0.04946637 -0.037262045 -0.039735988 -0.10052382 -0.097409345 -0.060264375
-0.15345924 -0.09794366 -0.13195704 -0.06545213 -0.2865067 -0.18573028 -0.083027884 -0.2080754
0.09645031 -0.00025558515 -0.16776022 -0.22725464 -0.157772 -0.082114585 0.059689898 0.069807135
-0.14154038 0.28057542 0.05681708 0.19171935 0.20116183 0.2128536 0.18327515 -0.13884151
0.001895279 -0.100723736 0.058559846 0.13113558 -0.14032193 -0.1700271 -0.24034545 -0.056979086
0.08290185 0.2806786 0.24389224 0.13766032 -0.056618046 0.13842633 0.013145485 -0.29223058
0.1585365 0.12619615 -0.2523404 -0.1669746 -0.31267852 -0.25695878 -0.24893418 -0.2313001
-0.09536906 0.02290259 0.19442189 0.12564526 0.15392765 -0.12429812 -0.11675417 0.17119154
0.218863 0.26636326 0.26482242 0.20762224 0.08459208 0.040996347 -0.0948527 -0.062253434
-0.09129296 0.048515856 0.02231604 0.045862976 0.31432477 0.20634364 0.10666819 0.13890553
0.18072969 0.10012525 0.24676706 0.29693997 0.118750155 0.26709726 0.18192177 0.033377443
0.041822035 0.25957954 0.15096903 0.17008553 0.018606093 -0.1891674 -0.07222874 -0.083375
-0.009358036 0.09305969 0.12890649 0.20471497 0.3666786 0.21110892 0.21138823 0.09934354
0.10581242 -0.02978284 0.16548099 -0.15788144 -0.0007988979 -0.015513531 0.09644828 0.08164507
00000000: 6511 b3bd 2897 2ebe 0040 523d dcb7 89be
00000010: 7cce b63d 73d8 be3b 9cab 0f3e 8abe 453d
00000020: 5cf2 0c3d 5e35 c4bd 89d3 27bc a2a9 3fbe
00000030: 1fae babd 844b 37be e8ac 24be 9b24 03be
00000040: 16f1 8dbe d54c 45be 91d9 27be bde5 6cbe
00000050: 2898 4ebe 2050 97bd 1139 2e3e 0f7e bbbd
00000060: cc9e 53bd efc5 f1bc 99e2 1cbd cd1f 983c
00000070: 36a0 8bbb c092 acba e023 293d 30fa 113e
00000080: a101 f13c 4863 f13d ff3e 183d ced6 7b3e
00000090: d010 e33d a217 243e 7c84 d73d be09 913d
000000a0: 528a 5f3e 6efa 583e 76c4 363d 6bb0 b63d
000000b0: 59c9 2e3e bfd8 013e 8a28 363e 4472 b13d
000000c0: ca8c 4ebe b7fa 99bd 07c0 86be 9002 21bd
000000d0: 04ee acbe 15d8 4fbe a530 2cbe 5368 aa3b
000000e0: fdef 0dbe e4eb 343d cca5 5abd fe96 32be
000000f0: fb54 02be 5f19 00be 0be0 7c3d fcfa a1be
00000100: 0262 d2bd 5929 4ebe 58e5 76be 3a8d 34be
00000110: d084 39be 02ad a6bd 094d 8cbd 3f03 1c3d
00000120: b779 d3bd 4a1a be3c a16d 3dbd bbfb e53c
00000130: 1b2b 1fbe 6984 14bd 4850 6a3d a888 f4bc
00000140: b6f4 44be c519 ffbd c8b6 da3c 8f6b d7bb
00000150: df00 943c 06c1 8dbe 8916 96be 5146 64bd
00000160: 0b63 4f3c 1b1c 17bc 62ee 33be b2aa 0cbe
00000170: 8e97 6abd 5c99 91bd 7594 123e fe2e 68be
00000180: 2550 1ebe 6f06 28be 6e5b db3c ddec 0bbd
00000190: a889 ebbd 88cc 13be ec70 ccbd 323e 123d
000001a0: 8901 f8bd ad6b 10be 537c 23be e0f1 32bd
000001b0: f866 dcbd 82e8 67be 20e1 65bd 86b1 48be
000001c0: c2d1 7dbe 12d4 89bb 441b 82bc 2b94 bdbc
000001d0: b27e 30be b83e 24be 5f3e f33c bdae 23be
000001e0: 34f4 75bd f54d 93be 0b0a 64be 2294 22be
000001f0: 4d5e 09be e114 39be e590 ecba 9a68 84be
00000200: 4091 44bc 57b2 96be 714b a2bd 1642 6bbe
00000210: 3e52 5bbe 695b 9fbd 28bb a7be 8759 dcbc
00000220: 3d3a 53be d6a0 013d 9808 8ebd 8bf6 5d3c
00000230: 51e6 0cbd 312c 803c aea9 243e 5e86 733d
00000240: 41cc 633e ba02 443d 409d 4a3d 16a0 18bd
00000250: 34c2 22bd 6fdf cdbd 8d7e c7bd c7d7 76bd
00000260: 6b24 1dbe b096 c8bd bf1f 07be c40b 86bd
00000270: 02b1 92be 1430 3ebe 860a aabd b811 55be
00000280: bd87 c53d 0f00 86b9 56c9 2bbe 71b5 68be
00000290: fc8e 21be b12b a8bd 657d 743d 0bf7 8e3d
000002a0: f6ef 10be 95a7 8f3e 07b9 683d 1452 443e
000002b0: 5efd 4d3e 4bf6 593e 7bac 3b3e 782c 0ebe
000002c0: 036b f83a 3f48 cebd 73dc 6f3d 6848 063e
000002d0: 8db0 0fbe 961b 2ebe 1e1d 76be e762 69bd
000002e0: 72c8 a93d 1bb5 8f3e e3be 793e d4f6 0c3e
000002f0: 53e8 67bd a2bf 0d3e 2960 573c 3f9f 95be
00000300: 6457 223e 9039 013e c332 81be 64fb 2abe
00000310: 6617 a0be 1a90 83be 9ae8 7ebe efd9 6cbe
00000320: db50 c3bd 369e bb3c 8816 473e 27a9 003e
00000330: 369f 1d3e 0390 febd cf1c efbd d64c 2f3e
00000340: 9f1d 603e c460 883e ce96 873e ed9a 543e
00000350: 9d3e ad3d c9eb 273d 2242 c2bd 75fd 7ebd
00000360: cef7 babd 90b8 463d 21d0 b63c d1da 3b3d
00000370: 2def a03e bf4b 533e da74 da3d 403d 0e3e
00000380: 3411 393e 780e cd3d 81b0 7c3e 8408 983e
00000390: 4833 f33d f9c0 883e b349 3a3e c9b6 083d
000003a0: 954d 2b3d 9ce7 843e a097 1a3e e72a 2e3e
000003b0: ce6b 983c 19b5 41be a9ec 93bd 83c0 aabd
000003c0: 7352 19bc 1496 be3d 1000 043e cda0 513e
000003d0: 4cbd bb3e f02c 583e 2876 583e a074 cb3d
000003e0: 2fb4 d83d 24fb f3bc d973 293e acab 21be
000003f0: 216d 51ba 772c 7ebc ad86 c53d 8835 a73d

conv_sep.1.weight f4 [16, 16, 1, 1]
-0.053726178 0.11617387 0.16467908 -0.19988054 0.13152029 0.11564097 0.16275288 0.1931606
-0.016772067 -0.21833304 -0.011834605 0.018561417 0.17212269 -0.008295643 0.09293528 -0.120763496
0.16715215 0.2706874 0.108482316 0.118590064 -0.2070387 0.04357469 -0.1643174 -0.008820337
0.13033977 -0.15663595 0.22448944 0.1873205 -0.06720557 -0.12744842 0.040464338 0.13379674
-0.0039975005 -0.1617326 -0.08958174 -0.1524546 -0.35156026 0.06350252 0.038991142 0.05272442
-0.19221383 0.11541753 0.24937461 -0.31589782 -0.0031703524 0.11299111 0.1023706 0.07174542
-0.06552689 -0.2977334 0.04621751 -0.032153618 0.11145756 0.18572116 0.1382741 0.01030757
0.058194865 -0.12021927 0.20621023 0.058523796 0.047280755 0.056563966 -0.07851379 0.021908158
-0.32508627 -0.14053191 0.25086233 0.075416476 -0.023213355 -0.0012693796 -0.19893356 0.14586268
0.06496397 0.15155375 -0.18124956 -0.022532597 0.12535836 0.12982418 -0.052923676 -0.02471854
0.021115988 -0.01620509 0.13422465 -0.18158907 0.1865302 -0.042270835 0.0034578785 -0.16089974
0.12641834 -0.16344203 0.047105074 -0.16221069 0.017114406 0.25214514 -0.04812098 -0.05381622
0.0153080635 0.1727699 0.24287021 0.023144376 0.16845979 -0.13530189 -0.19789225 -0.22346467
0.19485489 0.004310052 0.122732855 -0.055915453 0.034340065 -0.090051636 0.06619687 0.26143053
0.25588825 0.103083365 0.118615866 -0.099158585 0.05381244 -0.15897396 0.19067566 0.14429663
-0.060578942 0.23858047 -0.01261422 0.05721712 -0.24256247 -0.020834263 -0.06716466 -0.23764968
0.014040089 -0.00998809 -0.2244038 -0.11131014 0.03496648 0.14677761 -0.13364905 -0.13732237
-0.13594571 0.09314687 0.34344774 -0.17733638 0.0029992932 -0.11590943 -0.101100154 -0.2525912
0.10042218 -0.014800707 -0.078034215 -0.21529609 0.07691899 -0.26704493 -0.17080154 0.11129903
-0.11543737 -0.0395307 -0.19533113 0.14249572 -0.27638173 -0.124890395 0.14323232 0.195048
-0.06466862 -0.17204116 0.00913708 0.13229255 -0.1848979 -0.1411152 0.046268858 -0.10406294
-0.2788507 -0.045785565 -0.033757586 0.04812346 0.02879592 -0.16212021 0.2709128 -0.17723726
-0.15289633 0.2588987 0.12173783 0.08381602 -0.07070805 0.007332709 0.29924056 0.07098698
-0.11468693 -0.035565715 0.15240842 0.088033214 0.011084935 0.08819789 0.034420155 -0.08401538
0.050038356 0.011803621 0.04977177 0.2618424 -0.15428706 0.2441333 -0.19922213 -0.15643731
-0.14683396 0.049398612 0.17252459 0.080972664 0.009173152 0.1698754 -0.17535987 -0.03447361
-0.08897878 -0.11060878 -0.062430903 -0.027811136 -0.020634582 0.1763693 0.011257399 -0.03955629
0.011086039 -0.23454644 0.06997447 -0.12624352 0.31647688 -0.10145021 0.23841605 0.16931304
-0.1394531 0.061062526 -0.24197324 -0.069679946 0.1400442 -0.054218832 -0.12636612 -0.023544338
-0.1636963 -0.124919154 0.0031945717 -0.21663587 -0.05769467 0.19211581 -0.04300907 -0.09790942
-0.3239122 -0.17596962 0.04706449 -0.13970712 0.099216215 -0.043362834 -0.048957616 0.09537594
0.15851732 -0.1561665 0.039634112 -0.1959094 0.040902637 -0.013956881 -0.039561156 0.031160269
00000000: fb0f 5cbd 91ec ed3d a2a1 283e 7cad 4cbe
00000010: 41ad 063e 2cd5 ec3d b1a8 263e e4cb 453e
00000020: 9365 89bc b292 5fbe eee5 41bc 1d0e 983c
00000030: ee40 303e 73ea 07bc da54 be3d da52 f7bd
00000040: ef29 2b3e 8a97 8a3e fa2b de3d 59df f23d
00000050: f401 54be 607b 323d d242 28be 2d83 10bc
00000060: ca77 053e 2d65 20be 8fe0 653e f2d0 3f3e
00000070: 13a3 89bd d781 02be efbd 253d 0302 093e
00000080: 77fd 82bb 3b9d 25be a276 b7bd 0f1d 1cbe
00000090: b5ff b3be 9c0d 823d 2db5 1f3d 90f5 573d
000000a0: b4d3 44be 0760 ec3d 0f5c 7f3e 5cbd a1be
000000b0: b0c5 4fbb e267 e73d ada7 d13d 43ef 923d
000000c0: f632 86bd 8370 98be 924e 3d3d 83b3 03bd
000000d0: dc43 e43d b02d 3e3e ba97 0d3e 15e1 283c
000000e0: bd5d 6e3d 8535 f6bd c628 533e a6b6 6f3d
000000f0: 77a9 413d 9eaf 673d d7cb a0bd bd78 b33c
00000100: b571 a6be 99e7 0fbe 0771 803e f473 9a3d
00000110: ef29 bebc 5061 a6ba 3db5 4bbe 075d 153e
00000120: d40b 853d e830 1b3e 7c99 39be 4896 b8bc
00000130: f15d 003e a1f0 043e 7fc6 58bd 897e cabc
00000140: 70fb ac3c 89c0 84bc 3072 093e 7cf2 39be
00000150: c601 3f3e 2f24 2dbd 939d 623b e7c2 24be
00000160: cf73 013e 595d 27be 40f1 403d 8f1a 26be
00000170: 8333 8c3c 2b19 813e 811a 45bd 666e 5cbd
00000180: acce 7a3c 98ea 303e f8b2 783e 4699 bd3c
00000190: b980 2c3e 948c 0abe 44a4 4abe ecd3 64be
000001a0: 0a88 473e 563b 8d3b 5d5b fb3d 9a07 65bd
000001b0: 2ba8 0c3d fe6c b8bd 3992 873d 39da 853e
000001c0: c903 833e 5f1d d33d e0ec f23d a813 cbbd
000001d0: 6f6a 5c3d 12ca 22be 7b40 433e 7fc2 133e
000001e0: a021 78bd 704e 743e e0ab 4ebc 805c 6a3d
000001f0: 4c62 78be 9eac aabc a08d 89bd 705a 73be
00000200: 6708 663c 16a5 23bc 1cca 65be 92f6 e3bd
00000210: 0339 0f3d df4c 163e 4cdb 08be 3c9e 0cbe
00000220: 5a35 0bbe c9c3 be3d 62d8 af3e ab97 35be
00000230: ca8f 443b ec61 edbd 990d cfbd a253 81be
00000240: 25aa cd3d aa7e 72bc 67d0 9fbd 9476 5cbe
00000250: b487 9d3d 1dba 88be 99e6 2ebe bff0 e33d
00000260: 6e6a ecbd f1ea 21bd e204 48be 66ea 113e
00000270: e881 8dbe 89c6 ffbd 7eab 123e aaba 473e
00000280: fb70 84bd 8f2b 30be b1b3 153c b377 073e
00000290: e055 3dbe 8180 10be 6a84 3d3d f31e d5bd
000002a0: 85c5 8ebe a589 3bbd 6545 0abd 1b1d 453d
000002b0: 6ce5 eb3c d702 26be 15b5 8a3e af7d 35be
000002c0: db90 1cbe 5f8e 843e af51 f93d bca7 ab3d
000002d0: 62cf 90bd 3947 f03b 0f36 993e 9f61 913d
000002e0: fbe0 eabd 5bad 11bd f410 1c3e c24a b43d
000002f0: 969d 353c 18a1 b43d 26fc 0c3d 4110 acbd
00000300: 05f5 4c3d fa63 413c 7cdd 4b3d 3510 863e
00000310: 6dfd 1dbe 14fe 793e e300 4cbe 1a31 20be
00000320: a45b 16be 3356 4a3d 49aa 303e ffd4 a53d
00000330: fd4a 163c d1f3 2d3e 8a91 33be 3334 0dbd
00000340: 823a b6bd db86 e2bd 8cb7 7fbd 2ed4 e3bc
00000350: db09 a9bc 279a 343e f470 383c c705 22bd
00000360: 38a2 353c f12c 70be c64e 8f3d fb45 01be
00000370: 4209 a23e 21c5 cfbd 5623 743e 6660 2d3e
00000380: cbcc 0ebe b31c 7a3d d5c7 77be 5cb4 8ebd
00000390: bf67 0f3e 9114 5ebd 1f66 01be 0ee0 c0bc
000003a0: 01a0 27be 9dd5 ffbd 055c 513b cbd5 5dbe
000003b0: 3f51 6cbd 02ba 443e 472a 30bd bc84 c8bd
000003c0: d2d7 a5be 6131 34be b2c6 403d 620f 0fbe
000003d0: df31 cb3d 3a9d 31bd c887 48bd 7654 c33d
000003e0: 5d52 223e 1cea 1fbe 6157 223d 799c 48be
000003f0: 8689 273d 67ab 64bc e10a 22bd d243 ff3c

bn3.weight f4 [16]
1.3726828 1.4010255 1.3824522 1.4623415 1.3934586 1.3696433 1.234077 1.5089256
1.3883463 1.2402347 1.3514948 1.5020224 1.4291812 1.5160707 1.3426931 1.3167111
00000000: 12b4 af3f ce54 b33f 32f4 b03f 022e bb3f
00000010: da5c b23f 7950 af3f 3cf6 9d3f 7924 c13f
00000020: 55b5 b13f 03c0 9e3f c8fd ac3f 4542 c03f
00000030: 69ef b63f 9b0e c23f 5edd ab3f fd89 a83f

bn3.bias f4 [16]
-0.005745141 0.10956124 0.115717426 -0.012237852 0.06284761 -0.011122642 0.049219575 0.00804571
0.054283492 0.103629656 0.090998806 -0.0243537 0.110491194 0.02944109 0.08475379 0.0019014326
00000000: bc41 bcbb a561 e03d 42fd ec3d 4681 48bc
00000010: 3fb6 803d be3b 36bc 779a 493d 27d2 033c
00000020: 5e58 5e3d c93b d43d 955d ba3d 6981 c7bc
00000030: 3549 e23d 712e f13c 6593 ad3d 7e39 f93a

bn3.running_mean f4 [16]
0.0045611416 -0.1223304 -0.10076351 0.037102975 -0.0705344 -0.18606192 -0.24502072 0.103987835
0.11395557 -0.1685484 -0.058841255 0.039589204 -0.02754579 -0.04349342 -0.0029859666 -0.073176816
00000000: a175 953b 5c88 fabd 195d cebd 4af9 173d
00000010: 5774 90bd 0487 3ebe b6e6 7abe 93f7 d43d
00000020: 8a61 e93d f497 2cbe 8703 71bd 4a28 223d
00000030: b5a7 e1bc 2826 32bd 35b0 43bb badd 95bd

bn3.running_var f4 [16]
0.09658979 0.12471091 0.17133667 0.091852754 0.10927174 0.14015499 0.1392065 0.14205569
0.17654407 0.20610316 0.11086372 0.11153618 0.11819771 0.1625534 0.09511599 0.09443765
00000000: ded0 c53d 6f68 ff3d e172 2f3e 4c1d bc3d
00000010: ddc9 df3d ca84 0f3e 268c 0e3e 0c77 113e
00000020: f8c7 343e b50c 533e 850c e33d 156d e43d
00000030: a411 f23d 6674 263e 2ccc c23d 8768 c13d

eca.conv1d.weight f4 [1, 1, 5]
-0.12067209 0.76584136 1.1794126 0.092092745 -0.018157318
00000000: ee22 f7bd 2e0e 443f fef6 963f 1f9b bc3d
00000010: a8be 94bc

classifier.weight f4 [4, 560]
-0.01899232 0.043452557 -0.04209936 0.020230943 -0.012836654 0.027734373 -0.15036452 0.033655945
-0.0039420347 -0.072923124 -0.11957931 0.002271934 -0.1024192 -0.03350423 0.0445157 -0.1271076
-0.060397282 0.09544499 0.008648571 -0.094056055 0.026054574 0.04179332 0.040045336 0.041129593
-0.15008736 -0.0055524935 -0.019000504 -0.027742174 -0.05984211 -0.050953638 0.0018589497 0.06531457
0.033176668 0.055097904 -0.011259795 -0.033378392 -0.04269175 0.051340275 -0.014960617 -0.042196855
-0.04803242 -0.21003436 -0.10204943 0.14776897 -0.08185859 -0.07201364 -0.08380304 -0.03633596
-0.022115618 0.002436122 0.0004780815 9.088271e-05 -0.06394299 -0.051699765 0.05882217 -0.020206956
0.027360966 -0.016069353 -0.060221862 -0.003971533 -0.11470241 -0.09596565 -0.11778253 0.05214993
0.043805074 -0.05591235 0.062901765 -0.037772268 -0.0020440153 0.14684883 0.11286649 0.017775374
-0.093252376 0.0809565 -0.0064991275 -0.2410468 0.27162632 0.0116868075 0.029268678 0.08380965
-0.032353744 -0.012223648 0.066434294 0.0681225 0.0055885282 0.012588627 0.13988042 -0.021077178
0.053798158 0.07283801 0.02654751 -0.01757228 0.12050212 -0.06484476 0.059685558 0.0127218375
-0.06161593 -0.031827446 -0.026282221 -0.019954452 0.087312266 0.0025268903 0.057252508 0.01806489
0.10026408 0.09610681 0.044357117 -0.05949461 0.10840638 0.06846471 -0.20716742 0.14647013
-0.061027553 -0.0016312111 0.20114 -0.048473317 -0.051498923 0.12269961 -0.017710516 -0.15992013
0.13378122 -0.15664169 0.034390476 -0.06342724 -0.105512634 -0.018083252 0.09488503 -0.0867284
-0.018390853 0.116605185 -0.056751527 0.086741894 -0.081787534 -0.012356066 -0.050641492 -0.10028794
-0.0063961893 -0.10985692 -0.14005513 0.04912332 -0.045988254 0.029574638 -0.020860322 -0.04702075
0.1003045 -0.036261503 0.094043024 0.16018419 -0.08938885 -0.02185819 -0.119541414 -0.10024423
-0.1818294 0.066383176 -0.015068584 -0.19321696 -0.10664707 -0.14688359 -0.10734815 -0.05509951
0.040635433 0.037281085 0.047313258 0.09780069 -0.0075516854 0.06341174 0.000563471 -0.13809793
-0.005469848 0.05425967 -0.05429698 -0.10327425 -0.017620439 0.099267475 0.033682637 0.0039427364
0.004914139 0.07164764 -0.017678535 -0.02952648 -0.059391163 0.15751706 0.03975903 -0.06341049
-0.011850126 0.07574053 -0.08894108 -0.14177427 0.09682317 -0.08466716 -0.027061235 0.03446365
0.012239669 0.029796368 0.016041465 0.011210649 0.041332617 -0.07379677 -0.003980399 0.053441945
-0.012353029 0.022762368 0.011207142 -0.103688024 0.018239934 -0.039206382 0.029982157 0.041957613
-0.052358504 0.007386293 0.06218079 -0.06428399 0.0801023 -0.059865482 0.03880785 -0.06949824
-0.023853779 -0.11430906 -0.07433658 -0.07394646 -0.046176016 0.0076857614 -0.05723162 -0.050612826
0.015631905 -0.024848484 0.04979265 -0.0026482001 -0.08692556 0.048232727 -0.06545372 -0.012554561
-0.035874225 -0.033026084 -0.05363274 -0.060802463 -0.06054546 0.0055679725 -0.07743347 0.0077569955
-0.065876216 0.021012986 -0.06905597 -0.049921963 0.058038637 -0.040122095 -0.06682305 0.031114705
0.054232005 -0.07915655 0.16614324 0.026914269 -0.029899292 -0.038952395 -0.18651748 0.02651463
00000000: c895 9bbc 4ffb 313d 6170 2cbd 5dbb a53c
00000010: d450 52bc 3233 e33c 28f9 19be d1da 093d
00000020: 2f2c 81bb b858 95bd ffe5 f4bd bae4 143b
00000030: 28c1 d1bd bb3b 09bd 1856 363d 7f28 02be
00000040: 2463 77bd aa78 c33d bcb2 0d3c 76a0 c0bd
00000050: 6770 d53c 792f 2b3d 9406 243d 8177 283d
00000060: 80b0 19be b1f1 b5bb f2a6 9bbc 8e43 e3bc
00000070: 001d 75bd c3b4 50bd 00a8 f33a a5c3 853d
00000080: 42e4 073d 57ae 613d 017b 38bc c8b7 08bd
00000090: 8bdd 2ebd 2e4a 523d 601d 75bc 9cd6 2cbd
000000a0: a5bd 44bd 3f13 57be 4bff d0bd c050 173e
000000b0: 7aa5 a7bd e37b 93bd eea0 abbd 04d5 14bd
000000c0: d02b b5bc 58a7 1f3b 03a7 fa39 4998 be38
000000d0: 8bf4 82bd 22c3 53bd 84ef 703d 0f89 a5bc
000000e0: 1b24 e03c e0a3 83bc 33ab 76bd a223 82bb
000000f0: 19e9 eabd a489 c4bd f837 f1bd 2a9b 553d
00000100: f36c 333d 5904 65bd a4d2 803d 18b7 1abd
00000110: e3f4 05bb 8a5f 163e 8c26 e73d a99d 913c
00000120: 1afb bebd 85cc a53d a2f6 d4bb f9d4 76be
00000130: 9b12 8b3e 067a 3f3c dec4 ef3c 65a4 ab3d
00000140: 5c85 04bd b245 48bc b40e 883d cf83 8b3d
00000150: f91f b73b 8740 4e3c d03c 0f3e 0caa acbc
00000160: 755b 5c3d 182c 953d 2a7a d93c bef3 8fbc
00000170: d1c9 f63d 54cd 84bd d878 743d 416f 503c
00000180: fc60 7cbd 7f5d 02bd d04d d7bc 8577 a3bc
00000190: c6d0 b23d 2f9a 253b 9b81 6a3d d2fc 933c
000001a0: 4157 cd3d a6d3 c43d cfaf 353d 9fb0 73bd
000001b0: 2a04 de3d 3a37 8c3d b223 54be 44fc 153e
000001c0: 07f8 79bd 5dce d5ba a5f7 4d3e f58b 46bd
000001d0: 89f0 52bd ef49 fb3d a515 91bc 1ac2 23be
000001e0: f2fd 083e ae66 20be 07dd 0c3d 24e6 81bd
000001f0: 0217 d8bd 5423 94bc 1553 c23d a99e b1bd
00000200: 6aa8 96bc b3ce ee3d 4a74 68bd bca5 b13d
00000210: 3980 a7bd 1971 4abc 746d 4fbd c363 cdbd
00000220: 2097 d1bb aafc e0bd 9d6a 0fbe 8935 493d
00000230: 2e5e 3cbd 8346 f23c 44e3 aabc d498 40bd
00000240: 726c cd3d f186 14bd a199 c03d 5307 243e
00000250: 8011 b7bd f20f b3bc 21d2 f4bd d94c cdbd
00000260: 7c31 3abe e7f3 873d 39e2 76bc abda 45be
00000270: c769 dabd a768 16be 59d9 dbbd 06b0 61bd
00000280: 5771 263d 0db4 183d 8ccb 413d ba4b c83d
00000290: 2174 f7bb 04de 813d e6b5 133a 8b69 0dbe
000002a0: 693c b3bb 633f 5e3d 8366 5ebd 7381 d3bd
000002b0: bd58 90bc bf4c cb3d cef6 093d 1232 813b
000002c0: c906 a13b ffbb 923d 93d2 90bc 84e1 f1bc
000002d0: 2644 73bd 274c 213e 5dda 223d 5cdd 81bd
000002e0: 0827 42bc da1d 9b3d be26 b6bd 462d 11be
000002f0: 3a4b c63d fa65 adbd 86af ddbc c229 0d3d
00000300: e588 483c 8317 f43c 6469 833c dfac 373c
00000310: 644c 293d c322 97bd 026e 82bb f1e5 5a3d
00000320: 5c64 4abc 2578 ba3c 299e 373c 635a d4bd
00000330: ea6b 953c df96 20bd 249d f53c bfdb 2b3d
00000340: df75 56bd b708 f23b 49b1 7e3d 53a7 83bd
00000350: ad0c a43d 8235 75bd fbf4 1e3d 1855 8ebd
00000360: 0069 c3bc de1a eabd c73d 98bd 3e71 97bd
00000370: 1023 3dbd d7d8 fb3b b46b 6abd 654f 4fbd
00000380: 7b0e 803c 0c8f cbbc 61f3 4b3d 6d8d 2dbb
00000390: 0706 b2bd ae8f 453d 9a0c 86bd a5b1 4dbc
000003a0: daf0 12bd 5c46 07bd 01ae 5bbd 010c 79bd
000003b0: 84fe 77bd 8a73 b63b 7095 9ebd 652e fe3b
000003c0: 1cea 86bd 6d23 ac3c 376d 8dbd f97a 4cbd
000003d0: ecb9 6d3d 1157 24bd 86da 88bd 44e4 fe3c
000003e0: 6122 5e3d d41c a2bd 7421 2a3e 507b dc3c
000003f0: 5cef f4bc 8c8c 1fbd 70fe 3ebe 3635 d93c

classifier.bias f4 [4]
0.03284915 0.031819005 -0.038158394 0.07583128
00000000: d58c 063d a554 023d fa4b 1cbd 6e4d 9b3d
