result_eeginception_cv5/fold_2/best_model_fold2.pth (torch, 92196 bytes, 60 tensors)

inception_block_1.branches.0.0.weight f4 [8, 1, 1, 64]
000000 4a 18 65 3d 5c ff 12 bc 56 54 7b bb fa da 4a bd
       0.055931367 -0.008972015 -0.0038349829 -0.04952524
000010 b2 4e 61 bd 65 18 9d bd 9d 00 39 bd d3 61 9e bd
       -0.05500669 -0.076706685 -0.0451666 -0.07733502
000020 ac 74 60 3d cc 12 44 bc d1 1c 77 3d 1b 65 f5 3c
       0.054798767 -0.011967372 0.060330216 0.029955437
000030 7e 75 7d 3c 02 e0 94 3d 7c 26 fe 3c 45 53 d5 bc
       0.015469907 0.072692886 0.03102421 -0.026040683
000040 ca fd e8 3d a6 bc 14 bd 58 94 91 bd aa cd 52 3c
       0.113765314 -0.03631272 -0.071083724 0.012866417
000050 37 e0 82 3c 40 c4 29 3d 24 b1 95 3d 2f 5c 1e bd
       0.015976055 0.041446924 0.073091775 -0.038662132
000060 bc bd 69 3c 70 9e 91 3c 76 1e 13 bd d1 85 6b bd
       0.014266428 0.017775744 -0.03591772 -0.057500664
000070 24 9e cd bd 76 b6 38 3d 50 93 45 bd 53 cf e3 bd
       -0.100399286 0.045095883 -0.04823619 -0.11123528
000080 b0 ab 0d bd d5 2a 91 3c fc db f8 bd f3 b6 d4 bd
       -0.034587562 0.01772062 -0.12151334 -0.10386457
000090 ec 77 3a 3d 6b b5 38 bd fa 87 0b be 5e db e5 3b
       0.045524523 -0.04509489 -0.1362609 0.007014676
0000a0 d0 84 5c bd 50 5b 4f bd a3 5b 08 be 6d 9d 84 bd
       -0.053837597 -0.05062419 -0.13316207 -0.06475339
0000b0 b9 10 b3 bd 94 5e 5c bd 76 5b 06 be 56 67 06 3d
       -0.08743424 -0.053801134 -0.13120827 0.032813393
0000c0 33 d3 a8 bd ab c3 f6 bc 65 77 ed bd f5 2e bc bd
       -0.08243408 -0.030122599 -0.11595038 -0.09188644
0000d0 ad c0 1b 3d 9e 2d c6 bc 15 2e 67 3c c7 25 00 be
       0.038025547 -0.024191674 0.014110108 -0.12514411
0000e0 0a 8c c9 3c f4 20 87 3d f3 a9 aa bc 82 7c 23 bc
       0.024602909 0.06598082 -0.020832991 -0.009978415
0000f0 75 61 1b bd cc 85 e7 3d 64 ca 51 3d 7e 04 3b 3d
       -0.03793474 0.113048166 0.051218405 0.04565858
000100 61 46 c9 3d 15 b5 d8 bb b0 a1 6c 3d f6 0f 2e 3c
       0.09827877 -0.0066133835 0.057771385 0.010623923
000110 f8 ec 38 3c 39 19 14 3e bf 12 40 3d 30 2e c6 3c
       0.0112869665 0.14462747 0.046892878 0.024191946
000120 a6 06 39 3d a1 9d 9b bd fb db 2e 3d 00 55 97 bd
       0.045172356 -0.07598425 0.04269026 -0.07389259
000130 a8 2d 25 bd 6e 60 2d bd 8b d2 b7 3d ed 8a 13 bb
       -0.040326744 -0.04232829 0.08975705 -0.0022513226
000140 69 f7 a7 bc e7 b7 ba 3d f5 c6 b6 3d ea ee 2f 3d
       -0.020503717 0.09117108 0.08924667 0.042952456
000150 ce 88 11 3e c6 4a 32 bd a3 c1 c2 3d bd 83 5b 3d
       0.14212343 -0.04352834 0.095095895 0.053592432
000160 4d e1 53 3d 46 55 7e 3d ed 20 f6 ba 1f e0 11 bd
       0.051728535 0.06209304 -0.0018778123 -0.03561413
000170 4d 95 8f 3d 51 db e2 3d 37 7c 00 3d bb 9c 8b 3b
       0.07010899 0.110769875 0.03136846 0.004260627
000180 d3 f8 57 bc 63 75 77 bd 35 79 b5 3b 33 ed c4 3d
       -0.013181883 -0.060414683 0.0055381306 0.09615555
000190 1e 93 99 3c f4 99 92 bc 02 db 81 3d 8d b0 b7 3d
       0.018746909 -0.017895676 0.063406006 0.08969221
0001a0 d2 3b 9c 3d 17 d9 f7 bc cb 5a 92 3c 30 42 78 bc
       0.07628597 -0.030254884 0.01786556 -0.015152499
0001b0 c5 e7 75 3d a9 50 b6 3d 41 8c a7 3d 97 e5 03 3a
       0.060035486 0.089021035 0.08181048 0.0005031465
0001c0 be 10 ad 3d 62 ee 92 3d 8f 93 c9 3d e6 ca bd bc
       0.08450459 0.07174374 0.09842598 -0.023168039
0001d0 e1 09 35 3d 88 58 9a bc ad a7 13 bd 74 63 2b bd
       0.044198874 -0.018841043 -0.03604858 -0.041842893
0001e0 53 2e 81 bd 15 22 45 3c 93 34 78 bc d7 05 54 3d
       -0.06307664 0.012032052 -0.015149253 0.05176338
0001f0 e5 73 05 3e e5 01 17 3e f7 e5 ab bc 68 a6 9f 3d
       0.13032492 0.14746816 -0.02098368 0.07795411
000200 b2 7c 7f bd c9 c4 a0 3d 0d 9c a9 3d e7 e6 07 3d
       -0.062374778 0.07850034 0.082817174 0.03317919
000210 70 6c f5 3c 30 0e 1d 3d b0 bb 1a 3e d0 b6 e6 3d
       0.029958934 0.03834361 0.1511066 0.112653375
000220 d3 83 21 3d ab 8f b2 bd 71 a3 fa 3c 67 e6 54 bd
       0.039432358 -0.08718809 0.030595513 -0.05197754
000230 a0 ed a2 bd 51 68 be bd e3 49 f7 3c 32 0c 2e 3c
       -0.079554796 -0.092972405 0.0301866 0.010623025
000240 7c 97 22 bc f3 d0 9c 3c a1 c3 b1 3d 8e 7e 92 3b
       -0.009923812 0.019142604 0.086798914 0.004470653
000250 0f 48 89 3d 4b b3 b6 3d 54 78 0b 3d 27 84 17 bd
       0.06703197 0.08920916 0.0340503 -0.036991265
000260 73 82 07 3e 30 b8 fa 3d b4 15 0d bd 42 d0 92 bc
       0.13233356 0.12242162 -0.034444526 -0.01792157
000270 68 9c d0 3d 0e 57 8f bc a5 fb ae 3c 86 cb be bc
       0.10186082 -0.017497566 0.021360228 -0.023290407
000280 53 1e 32 3d 1d a7 b7 bb bf 0e 9e bd 40 34 5e bd
       0.04348595 -0.0056046383 -0.07717656 -0.05424905
000290 cd fa 9d 3d 4c 48 13 3d fb db 93 3c ff 04 03 bd
       0.07713852 0.03595762 0.01804923 -0.031987187
0002a0 58 b2 20 3d a3 c1 a6 3d 43 2f 0b bc 8e b6 75 3d
       0.03923258 0.08142402 -0.008495155 0.05998855
0002b0 d4 1d 43 bc 25 04 38 3d 50 fe 0c 3d e4 f5 c6 3d
       -0.011908967 0.044925828 0.03442222 0.09714869
0002c0 1c fe c0 3d d8 31 5f 3d 43 53 c5 3c a8 3e c3 bc
       0.094234675 0.054490894 0.024087554 -0.023833588
0002d0 6f 22 9c 3c f3 42 8d 3c 02 5b a6 bd bf 9e c3 bd
       0.019059388 0.017243838 -0.08122827 -0.09551763
0002e0 65 01 5f bd 5e 26 fd bd 9f f8 83 bb c0 09 42 3d
       -0.05444469 -0.123608336 -0.0040274407 0.04737258
0002f0 4c b5 d3 3d 91 6a 92 bb b2 0d b0 3d 96 ab 44 3e
       0.10337314 -0.00446827 0.08596362 0.1920608
000300 a0 19 94 3c bc 20 b6 bc 05 4e bc bd a5 aa 4e 3d
       0.018078625 -0.022232406 -0.091945685 0.050455708
000310 4a 9e 47 3a 91 7b 33 3d 6b d3 cc bb 59 ba 3e bd
       0.00076148345 0.043819014 -0.006250789 -0.046564434
000320 ce 75 81 3d 6f 43 d3 3d b5 bb 91 3d 00 8e ce 3d
       0.063212976 0.10315596 0.071158804 0.10085678
000330 f6 1d df 3d 9d 28 6a bc 61 a0 b0 3d 70 38 77 3d
       0.108943865 -0.0142919095 0.0862434 0.060356557
000340 9e 8d b4 3b f9 c4 f0 3c 55 70 55 bd 79 0d b5 bd
       0.005510046 0.029390799 -0.05210908 -0.0884046
000350 18 0f a6 bc b2 dd 38 b7 45 2f a3 bb 69 f7 b7 bb
       -0.02027087 -1.1018872e-05 -0.00498 -0.0056142104
000360 ab ce a7 bc 66 f4 ad bd e3 ec 55 3d e0 b0 ce 3d
       -0.02048429 -0.08493881 0.052227866 0.1009233
000370 fd 18 3a bd e3 f1 17 3d 3a f5 2e 3e 26 e9 c2 3c
       -0.045433987 0.037095916 0.17085734 0.023792814
000380 4e 76 f8 3d af fe e1 3d 32 a8 a5 3d 6f 43 e6 3d
       0.1213194 0.11034905 0.08088721 0.11243331
000390 7c 99 e4 ba a0 20 ba 3d 2d 94 ad 3b 5c 06 1e bd
       -0.0017440761 0.09088254 0.005297205 -0.038580284
0003a0 c5 bf 71 bd ee df ee 3c 51 a1 1f 3c 69 12 cf bc
       -0.059020776 0.029159512 0.009743051 -0.025277333
0003b0 c5 b9 55 3d 34 2c a9 bd ba 18 1b 3c a1 54 e1 3d
       0.052179117 -0.08260384 0.0094663445 0.1100247
0003c0 5a c8 93 bd 56 46 dc bc f3 f2 4d 3c 1a f7 db 3d
       -0.072159484 -0.026889008 0.012570131 0.1074049
0003d0 21 44 13 3e 5d 81 89 3d 12 35 7e 3d 98 86 59 3d
       0.14381458 0.06714127 0.06206233 0.053106874
0003e0 c0 13 11 3e 85 64 fc 3d 16 22 dd 3c 00 f1 03 bd
       0.1416769 0.1232386 0.026993793 -0.032212257
0003f0 60 20 8b 3b 97 6f 06 bd 6c 17 4d 3d aa d9 a2 bd
       0.0042458028 -0.032821264 0.050071165 -0.079516724

inception_block_1.branches.0.0.bias f4 [8]
000000 7d b8 f5 ba 47 a7 a1 bc dc 90 c5 bc f9 7b 0f bd
       -0.0018746998 -0.019733084 -0.024116926 -0.03503034
000010 e8 ec 2d bc 34 58 c6 bc 73 9f ea 3b 14 fa 39 bc
       -0.010615565 -0.02421198 0.007160121 -0.011351127

inception_block_1.branches.0.1.weight f4 [8]
000000 a5 69 88 3f fc 4e 8f 3f 86 b4 ab 3f 80 16 ab 3f
       1.065724 1.1195979 1.3414466 1.3366241
000010 68 9e 73 3f c3 b6 83 3f d7 3e 91 3f 18 83 64 3f
       0.95163584 1.029015 1.1347302 0.89262533

inception_block_1.branches.0.1.bias f4 [8]
000000 53 4c 97 bd 07 14 05 be e4 aa 6f be 3f eb 16 be
       -0.073876046 -0.12995921 -0.23405033 -0.14738177
000010 59 3a 07 bd 47 8c 91 bd 0c 17 6b be 6e 6c d5 3c
       -0.03301463 -0.07106834 -0.2295801 0.02605268

inception_block_1.branches.0.1.running_mean f4 [8]
000000 2b d8 3a be b3 27 8e 3e b5 21 36 3e 95 38 5a 3e
       -0.18246524 0.27764663 0.17786296 0.21310647
000010 84 24 45 3e f1 55 bf 3e eb 21 a4 3e b7 06 2f bd
       0.19252211 0.37370256 0.32057127 -0.042731013

inception_block_1.branches.0.1.running_var f4 [8]
000000 c9 3f aa 3e 47 fa 3b 3e a7 76 97 3e a4 9a f3 3e
       0.3325179 0.18357192 0.29582712 0.4757892
000010 b1 56 9e 3e c3 df 0c 3e 4e e3 4d 3e 8d cf b6 3e
       0.30925515 0.13757233 0.20106241 0.35705224

inception_block_1.branches.0.4.weight f4 [16, 1, 22, 1]
000000 1e af cb bd 0a 03 02 bd 2a fa a7 3c 30 b3 5a bd
       -0.0994551 -0.03174118 0.02050503 -0.053393543
000010 44 41 35 bd ee 6f 6e bc 01 b9 61 3d c0 09 b5 bc
       -0.044251695 -0.014553053 0.055108074 -0.022099376
000020 83 1c cd 3d 8b 65 bd 3c 50 63 75 bc 27 76 f9 3c
       0.10015204 0.023119709 -0.014977291 0.030451847
000030 f1 f2 3f bd fd c2 70 bd 20 66 57 bd aa 53 a5 3d
       -0.046862546 -0.058779705 -0.05258763 0.08072598
000040 7a 5f d2 3d 3c 1e 80 bd ef 60 96 bd 7c 96 80 3d
       0.10272117 -0.06255767 -0.07342707 0.062787026
000050 64 30 0f 3e f2 29 77 3e 09 d1 a6 bd 00 13 58 3d
       0.13983303 0.24137095 -0.08145339 0.052752495
000060 79 fc 59 bd cb fc db bd 56 58 04 be 0d 63 c4 3b
       -0.053219292 -0.10741576 -0.12924322 0.005993253
000070 ec 32 d4 3d ce f7 80 bd 9a 07 c2 3c d5 31 fe bd
       0.10361275 -0.06297265 0.023685265 -0.124118485
000080 92 fc f7 bb 54 85 96 3d 20 9e 8b bd 98 84 5b bd
       -0.0075679505 0.07349649 -0.06817269 -0.053593248
000090 6e 82 db bd 2c ed 9e 3c 27 80 0b bd 48 3b df 3d
       -0.10718237 0.019400202 -0.034057762 0.10899979
0000a0 4c e2 61 3d 80 73 a5 bb 67 9e d5 3d 3e c8 0e 3e
       0.055147454 -0.005049169 0.104306035 0.13943574
0000b0 0f 61 88 3c 6f a7 82 3d 2a cd b0 3d 70 2d 97 3d
       0.016647844 0.06379592 0.08632882 0.073817134
0000c0 8e 18 15 3d ed f1 96 bd e8 14 0d be 68 5a 88 3d
       0.03640037 -0.073703624 -0.13777506 0.066578686
0000d0 8a 95 07 ba 8e cb 8e 3d 1f 1b 05 3c 73 d6 60 3c
       -0.00051721244 0.06972419 0.008124142 0.013723004
0000e0 ae 7e 4c bd 16 a3 4f 3d ee e4 03 be e3 fa 30 bd
       -0.0499255 0.05069264 -0.12880298 -0.043208014
0000f0 b6 86 8b bc 61 d5 95 3d 7a e8 65 bd ae 89 94 bd
       -0.017032009 0.073160894 -0.05612991 -0.07252823
000100 c8 be fa 3d 4e c6 27 bd b2 46 b2 bc 99 44 97 3c
       0.1224342 -0.040960602 -0.021762226 0.018465327
000110 f8 c2 90 bd 0a 4e 4f bd 6e 43 0a 3d 5f 19 b4 bc
       -0.07068437 -0.050611533 0.033755712 -0.021984754
000120 51 17 18 bd 9d 40 4a 3e aa 48 af bc 62 0d 90 bd
       -0.03713161 0.1975121 -0.021396954 -0.070338026
000130 6c d8 a0 3c 74 f5 4b bd bc 4a 0d 3c 3e 16 58 3e
       0.019634448 -0.04979463 0.008623775 0.21102235
000140 4d e5 81 bc cb 92 9c bd 13 1b 54 3c bc f2 49 bd
       -0.01585641 -0.07645186 0.012945908 -0.049303755
000150 77 0c 80 bb 42 04 37 bd 51 e1 d1 bc d4 9d e6 bd
       -0.003907736 -0.044681795 -0.025620135 -0.11260572
000160 b8 4e 2b bd 42 7a 41 bd 55 1b a3 bd f1 06 be bd
       -0.04182312 -0.047235735 -0.079641975 -0.09278668
000170 86 39 0f 3c 04 65 2d bd c1 cc a2 bd bf ea 1b 3e
       0.008741742 -0.042332664 -0.0794921 0.15226267
000180 4c ce eb bc 6d ed 8b bd 28 74 c0 bb ab 87 11 bd
       -0.028784893 -0.06832395 -0.005873222 -0.035529774
000190 95 72 35 bd 15 d8 62 3e 4c 0e af bc a1 57 7b bd
       -0.044298727 0.22152741 -0.021369122 -0.061362866
0001a0 50 93 32 bd a2 94 48 bd f7 09 e6 3d 0b 43 4e bd
       -0.04359752 -0.048969872 0.112323694 -0.050356906
0001b0 0c 42 9b 3d c5 c0 84 bd fb 7d 12 be 3a 41 88 bd
       0.07580957 -0.0648208 -0.1430587 -0.06653066
0001c0 3e 37 80 bd f5 0f 93 bd 10 06 9a bd 38 b9 d6 bd
       -0.062605366 -0.07180778 -0.075206876 -0.104845464
0001d0 a8 ab e9 bd 0a f9 c6 3d 9b 48 cd bc 85 35 59 bd
       -0.11409694 0.09715469 -0.025059035 -0.053029556
0001e0 a0 e6 e1 bc 62 ef 80 3d 0c 8c bc ba 54 9f 1c 3e
       -0.02757579 0.06295659 -0.0014384999 0.15295154
0001f0 51 ce 81 bc dc 40 ce bb ec e8 a3 3d bc dc 29 3e
       -0.01584545 -0.006294353 0.08003411 0.1658811
000200 d4 33 93 3d f3 19 e0 bc 71 98 dd 3d 13 25 5b bd
       0.0718762 -0.027356124 0.108200915 -0.053502154
000210 2d c5 e4 bd 44 37 f3 bd 17 24 d2 bd 51 0e 68 bd
       -0.11170421 -0.118757755 -0.1026079 -0.05665428
000220 4a 67 84 bd 26 47 93 3c b8 cc 4d bd f2 8f ff 3c
       -0.06465013 0.017978262 -0.050244063 0.031196568
000230 b6 a5 58 bb e1 82 ae bd 8d e1 f9 bc b4 ea a8 bd
       -0.0033057756 -0.08521057 -0.030503059 -0.08247891
000240 77 17 73 bd fa 42 6a 3e 27 ea 6c 3d c7 a6 8e bd
       -0.05934855 0.22877112 0.057840493 -0.06965404
000250 9b 89 29 3c a8 51 99 bd bd 00 2f 3e 96 a1 68 bd
       0.010347749 -0.07486278 0.17090125 -0.056794725
000260 48 db 81 bc d3 3a 9b bc 18 ad aa 3c 50 bb 8e 3d
       -0.015851632 -0.018948948 0.02083449 0.06969321
000270 ad 8a 8a 3d f7 7b 3d bc 9c 45 75 3d 88 83 4f bd
       0.067647316 -0.0115652 0.059880838 -0.050662547
000280 20 b5 fd bd 4f 09 70 3d f1 49 3e bd 56 36 9d 3b
       -0.123880625 0.058602627 -0.046457235 0.004797737
000290 42 dd b3 bc 67 e8 a3 bd 9d 11 18 bc d9 cb 37 3e
       -0.02195609 -0.080033116 -0.009281543 0.17948855
0002a0 c1 f5 b2 bd 7f 3e be bd 1f c8 ef bc a9 43 2f 3d
       -0.0873828 -0.09289264 -0.02927023 0.042789135
0002b0 c1 37 93 bd 00 c9 18 bd ef 9f ab bd 5a 98 e3 bd
       -0.071883686 -0.037301064 -0.08380114 -0.11113043
0002c0 46 2f c6 3d d1 47 cc bd 9c 7e ea bd e8 ef 86 bc
       0.096769854 -0.099746354 -0.1144993 -0.016471818
0002d0 c9 bf 8a 3d 89 73 2d bc aa 13 b8 bc 57 21 de 3c
       0.06774861 -0.010586628 -0.022470314 0.027115507
0002e0 cb 59 e7 bd 43 c7 61 3c 3c db be bd 2b 74 3e 3d
       -0.112964235 0.013780418 -0.093191594 0.046497505
0002f0 18 4c 59 3c 4f 59 80 bd 90 28 b7 bc 9e ee 46 bd
       0.013262771 -0.06267034 -0.022358209 -0.048567407
000300 7c 38 8e 3c 46 6b 87 bc e3 bf a5 3d ef ea a0 bc
       0.017360918 -0.016530644 0.0809324 -0.019643275
000310 fb f8 88 3c fb 7b 99 3e 58 92 8e 3d 0d f6 0f 3b
       0.016720286 0.29977402 0.069615066 0.0021966726
000320 40 a5 c2 3c 5a cb 73 bc bf e1 e4 3c 15 ec cd 3c
       0.023760438 -0.014880026 0.027939675 0.025136987
000330 6d aa 98 3c 6a af 0c 3d 80 09 6b bd 4d d7 e2 bd
       0.018635953 0.034346975 -0.057382107 -0.110762216
000340 67 d2 fa bd 33 37 78 3c 9a 68 94 3d 05 55 a9 bd
       -0.12247162 0.015149879 0.07246514 -0.08268169
000350 e0 0c b8 3c 6f a6 a4 3c b2 b0 c4 3d 6d cc 3f ba
       0.022467077 0.020098893 0.096040145 -0.00073165336
000360 14 7e ac 3c 7b f8 aa 3d 4a de 8d 3d 22 bd 73 3e
       0.021056212 0.08348175 0.06927164 0.23802617
000370 e5 87 02 bd 3e 8e a2 3c 75 44 a2 bd 37 b1 cb bc
       -0.03186788 0.019843217 -0.079232134 -0.024864776
000380 09 85 ba 3c 39 85 40 3d e4 d6 1e 3e a7 24 5b be
       0.022768514 0.04700205 0.15511662 -0.214007
000390 9a 6f d7 bc 8c 53 3e bd f8 dd 72 bd 5f e1 bb bd
       -0.026298333 -0.046466395 -0.059293717 -0.091738455
0003a0 48 6a 68 bd b2 29 ba bd 68 17 8e bd 1f 48 c6 3d
       -0.056741983 -0.09089984 -0.06938058 0.09681725
0003b0 81 9e 9b 3d ba 97 2d bd 48 98 97 bd c7 56 ca 3c
       0.075985916 -0.042381026 -0.07402092 0.024699582
0003c0 d9 f9 47 3c f1 ce 79 3d 8d 11 c2 bb 4b a4 d9 bd
       0.012205564 0.06098837 -0.0059225024 -0.106270395
0003d0 03 92 ad bd 30 01 a6 bd f9 20 00 bd 32 93 92 bc
       -0.08475115 -0.08105695 -0.031281445 -0.017892454
0003e0 47 31 bb bd 6a ff 0c 3e 74 5d a7 bd 26 0f 09 bd
       -0.09140258 0.13769308 -0.08172122 -0.033461712
0003f0 a3 c0 20 bd 2c e7 c5 3d fd 14 74 bd c9 be c5 3b
       -0.039246213 0.09663233 -0.05959033 0.0060347063

inception_block_1.branches.0.5.weight f4 [16]
000000 b1 19 83 3f 31 75 6c 3f 82 ea 78 3f 3a 85 8e 3f
       1.0242215 0.9236632 0.9723283 1.1134408
000010 71 16 96 3f fc e9 9a 3f 32 02 99 3f 24 b0 7a 3f
       1.1725599 1.2102656 1.1953795 0.9792502
000020 1a 2f 7b 3f cc 8c 7c 3f c4 f7 83 3f e0 e4 81 3f
       0.98118746 0.9865234 1.0309987 1.0147972
000030 cc 92 88 3f fe fe 73 3f dc 75 87 3f 16 60 77 3f
       1.0669799 0.9531096 1.0582843 0.9663099

inception_block_1.branches.0.5.bias f4 [16]
000000 16 fd 81 bd 4f 7f 82 bd 46 a7 f8 bc 36 6c 2d be
       -0.063471004 -0.063719384 -0.0303532 -0.1693581
000010 4b a4 86 be 74 8a 95 be 98 29 42 be c9 81 52 3a
       -0.2629722 -0.29207194 -0.1896118 0.0008030204
000020 e7 a0 05 3c 33 60 34 bb d3 6b 70 3c f0 82 b8 bd
       0.008156038 -0.002752316 0.014674145 -0.09009349
000030 e8 d9 72 bd 75 35 83 bd ee 9e 58 bd 4c 8a f1 bc
       -0.059289843 -0.064066805 -0.052885942 -0.02948489

inception_block_1.branches.0.5.running_mean f4 [16]
000000 6b 33 e2 3c d2 94 1a bd 8e 3c e8 3a e1 39 87 bc
       0.027612409 -0.037739582 0.0017718242 -0.016507091
000010 64 ce e2 bb 2d b6 94 3c a3 51 3b bd c7 2b 7d bd
       -0.0069215763 0.018153274 -0.04573215 -0.061809327
000020 c7 89 d0 3b a7 fa 4f 3d 6e ec 26 bd 8a 51 72 3c
       0.0063640806 0.05077615 -0.04075282 0.014789948
000030 92 39 c3 bc fe 50 50 3c 28 60 13 bd 5f 69 18 bd
       -0.023831163 0.012714623 -0.035980374 -0.037209865

inception_block_1.branches.0.5.running_var f4 [16]
000000 43 97 2f 3e f6 75 38 3e e6 0a da 3d af 78 32 3e
       0.17147546 0.18013749 0.1064661 0.1742885
000010 e4 3f 80 3e f7 b6 94 3e 6a 52 f1 3e d7 71 a0 3e
       0.25048745 0.2904584 0.4713319 0.31336853
000020 0a b9 15 3e da 50 40 3e 72 72 4b 3e 00 8b 2d 3e
       0.14621368 0.18780842 0.19867876 0.16947556
000030 2f f8 5a 3e 99 1e ee 3e 30 09 c5 3d d5 b3 eb 3d
       0.21383737 0.4650772 0.09620893 0.115089096

inception_block_1.branches.1.0.weight f4 [8, 1, 1, 32]
000000 65 65 bf 3d fb a8 89 3c 73 d3 fb 3d 47 b3 8c bd
       0.09345511 0.016804209 0.1229619 -0.06870132
000010 57 22 93 bd f4 82 90 3d 33 04 24 bc 82 e9 4b 3c
       -0.07184284 0.07056227 -0.010010767 0.012445809
000020 6d 79 e7 bc ca e1 83 bc 18 a1 df 3c 5d 38 a9 3c
       -0.028256143 -0.016098876 0.027298495 0.020656759
000030 74 f7 06 3c 88 d4 db bd eb 04 37 3a 94 a8 53 bd
       0.008237708 -0.107338965 0.0006981629 -0.05167444
000040 dd 66 4b 3d d9 61 01 3d e1 96 13 bd 0d f1 d0 bd
       0.049658645 0.031587455 -0.03603256 -0.10202227
000050 6b b5 2f be c9 7b 26 bd 2b 25 63 3d 7c 61 74 3d
       -0.17159049 -0.040645394 0.055455368 0.05966328
000060 02 53 94 bd a5 af 38 be 5f 4b 16 be 88 2b 3f be
       -0.07242395 -0.18035753 -0.1467719 -0.1866895
000070 4c 5f 77 3d ad e1 75 bd e6 eb 94 3d 32 08 12 be
       0.060393617 -0.060029674 0.072715566 -0.14260939
000080 8c e4 23 bd cf 57 80 3d 38 d7 0c be 51 79 cd bb
       -0.04001288 0.06266748 -0.13753974 -0.0062705656
000090 d5 0a 54 bd d3 09 80 bc 21 66 71 bc db b7 20 be
       -0.051768143 -0.015629685 -0.014733822 -0.15695135
0000a0 3c f4 5c bc 79 75 16 3d d8 42 93 bd e3 15 aa 3b
       -0.013485964 0.036733124 -0.07190484 0.0051905974
0000b0 01 59 8f bd c2 fc fc 3b a9 9a 9f bd 59 d3 ba 3c
       -0.06999398 0.0077205608 -0.07793171 0.022805857
0000c0 ab 3e e5 3d be b9 09 3e c8 ad b2 3d 9f 38 aa bd
       0.111935936 0.13449761 0.087245524 -0.08311581
0000d0 9f ae 5c 3d 83 fe a8 3d 76 88 cf 3d 4e 61 71 3c
       0.05387747 0.08251669 0.1013345 0.014732672
0000e0 66 b9 1d 3e 8a 59 09 bd b9 6c fd bc 3e 87 58 3e
       0.15402755 -0.033532657 -0.030935632 0.21145341
0000f0 c6 0e ed 3b 58 03 38 3e 0c b1 1d 3e 56 cd 83 bd
       0.007234427 0.17970026 0.1539957 -0.06435649
000100 23 dd 04 bd 79 8c 32 3d d1 19 3d 3d 65 dc 8c 3b
       -0.032437455 0.043590996 0.0461672 0.004298734
000110 69 21 98 3c b7 7b ba 3d 22 ba c8 bc 2a 3b c5 bd
       0.018570619 0.09105628 -0.024502818 -0.09630425
000120 e0 75 f9 3c a9 5e fd 3d 66 83 e3 bd ef 53 da 3d
       0.030451715 0.123715706 -0.11109047 0.1066054
000130 32 f2 82 3c d4 3c 21 bd 97 f3 16 be 48 8b 56 bd
       0.015984628 -0.03936465 -0.1474136 -0.052378923
000140 32 dd 83 3a c9 91 57 3d ad 92 49 3d 75 7a 70 bd
       0.0010060428 0.052629266 0.049212147 -0.058710534
000150 92 b9 ee 3d ba 86 14 bd 36 99 22 be 6a be 99 bd
       0.116564885 -0.036261298 -0.15878758 -0.07507022
000160 f0 55 ec bd a6 99 98 bd b6 db 63 3d a4 a8 da bc
       -0.11539829 -0.07451181 0.055629455 -0.026691742
000170 e7 e4 66 3d 5c 44 d0 bd dd 83 b0 bd 74 dd 37 be
       0.056370642 -0.101692885 -0.08618901 -0.17955571
000180 ab 26 0d 3e 6a 9c d4 3c 33 18 cd 3d c5 36 9f bb
       0.13784282 0.02595349 0.10014381 -0.004858824
000190 3a a1 45 3d 43 78 a4 bc 7f 7a c7 3d e1 b6 db bd
       0.04824946 -0.020076877 0.09740161 -0.10728241
0001a0 73 9b af 3d 21 45 18 be b2 f2 a9 3b 24 92 4a 3d
       0.085745715 -0.1487012 0.0051864022 0.049455777
0001b0 41 6d 52 3d 6b ff 15 3e b5 cf 5d bc 6b 9f ff 3d
       0.051373724 0.14648215 -0.013538291 0.124815784
0001c0 91 e9 ee 3d 89 6b ac 3d ee 01 79 3d 08 be 97 3d
       0.11665643 0.08418948 0.060792856 0.074092925
0001d0 a7 c9 11 be 8c dc 0b bd 92 30 71 bd 9b 05 89 3c
       -0.1423708 -0.034145877 -0.05888421 0.016726306
0001e0 80 45 32 bd 9c 41 70 3d 7e 58 0e 3d 61 88 87 3d
       -0.04352331 0.05865632 0.03475236 0.06617809
0001f0 8c cf 05 3e f3 64 f5 3d f6 23 d4 bd 16 23 bf 3d
       0.13067454 0.11982145 -0.103584215 0.09332864
000200 45 5f 96 bd bc bf 25 be 06 cf 8c 3d 8e 54 bb 3d
       -0.0734239 -0.16186422 0.06875424 0.09146987
000210 db 0c 93 3d 45 77 ec bd 3c 6a 18 3e 61 8d 80 3d
       0.07180186 -0.11546186 0.14884275 0.06276966
000220 a2 e6 89 3d e1 e1 c1 bd 4c 42 08 3d c3 92 b4 bd
       0.06733443 -0.09466911 0.03326635 -0.08817055
000230 2c 7b fd 3d 59 b2 bf 3d e7 df 14 3e 99 48 1a 3d
       0.12377009 0.09360189 0.14538537 0.03766689
000240 ec 5a 20 3e 90 d9 a0 3d 20 b7 a3 bd f4 3a 7f bd
       0.15659684 0.07853997 -0.07993913 -0.06231208
000250 b4 fa a7 3d 44 ca eb 3c 74 1b c3 bd 7b ce 4b bd
       0.08202115 0.028782971 -0.09526721 -0.049757462
000260 6d 31 20 3c df 59 0b 3e 28 34 c3 3d e4 b9 ce 3d
       0.009777409 0.13608502 0.095314324 0.100940496
000270 ba fe 84 3d 6b 19 e9 bd 53 c9 6d 3d 19 4d ee 3d
       0.06493898 -0.11381801 0.058053326 0.11635799
000280 06 5b 2a 3d 31 dc 23 3d 4b 42 ad bd 37 cb b2 3d
       0.041590713 0.040004913 -0.0845991 0.087301664
000290 ac 32 43 3e 0d 85 05 3e 4e 2b 23 3d 26 b8 c9 bd
       0.19062299 0.13039036 0.03983622 -0.09849577
0002a0 b0 2b e6 3d fc b9 76 3d fd 65 6d bd 3b 73 53 3d
       0.112388015 0.060235962 -0.05795859 0.051623564
0002b0 bb a7 de bd 5a 6e 40 bd 0b d4 35 3a 94 bb be ba
       -0.10871836 -0.04698024 0.0006936199 -0.0014551752
0002c0 d6 38 ff bd 6a cc 17 bd e8 8d 46 bc ea 5a bf bd
       -0.124620125 -0.03706018 -0.012118794 -0.09343512
0002d0 c8 4b 23 3c 14 82 d3 3d 1b c1 bb bc c6 b5 63 3c
       0.009966798 0.10327545 -0.022919228 0.013898319
0002e0 bc eb 8f bc f8 ba f8 3d b8 72 32 3e a6 29 8f 3c
       -0.017568462 0.121450365 0.17426574 0.017475914
0002f0 b1 f7 5b 3c 17 a2 8a 3d ad 20 e3 3d 36 01 bd bd
       0.013425753 0.067691974 0.11090217 -0.092287466
000300 fc 66 ce 3c bd 8a e1 3c 02 a8 e2 3d 1c 7b 3f 3b
       0.025195591 0.027531976 0.11067201 0.0029217666
000310 f4 71 11 be 89 c4 74 3d 11 cd 80 bd 50 61 01 be
       -0.14203626 0.059757743 -0.06289113 -0.12634778
000320 f3 20 cb 3d be ff 5a bd a9 83 a5 ba cd 8f 26 3e
       0.09918394 -0.05346655 -0.0012627739 0.16265793
000330 13 f8 2a 3e 61 e7 d9 3d 82 2a 11 3e 0b c8 3c 3d
       0.16696195 0.10639835 0.14176372 0.046089213
000340 79 5c 95 3c 55 0c 2a 3d 6a 2a 76 bd 29 75 0b be
       0.018232571 0.041515667 -0.060099043 -0.13618912
000350 28 c7 16 bd 22 ae 61 3d 17 30 1b be 44 5b 57 3d
       -0.036811024 0.055097707 -0.15155064 0.052577272
000360 a6 8f 19 bd 64 3d 23 bd a0 e6 06 be 5b c2 df bd
       -0.03749051 -0.03985347 -0.13173914 -0.10925742
000370 3c 3c fe 3d b4 6e 84 3b 82 da 0c 3e 09 91 8f 3d
       0.124138325 0.004041517 0.13755229 0.07010085
000380 78 07 9f 3d a5 8a dd bc b2 2e 85 3d c9 ff 5d bd
       0.077650964 -0.02704365 0.06503047 -0.054199014
000390 0b 24 77 3d d0 b0 9f bb c9 60 3f 3e 59 e1 34 3e
       0.060337108 -0.0048733726 0.18689264 0.17664088
0003a0 1b 3e 21 3e 99 ab f2 bd 8e 3f c1 3d f8 b4 0c 3d
       0.15746348 -0.11849136 0.0943595 0.034352273
0003b0 ef 2b bc bb 63 be b2 3d 2c d5 f3 bd fc 1d d2 3d
       -0.005742542 0.0872772 -0.11905894 0.10259625
0003c0 30 56 3f bd 71 0e f1 bc d7 45 1d 3e 3b 22 2f bc
       -0.046713054 -0.029425832 0.15358673 -0.0106893135
0003d0 2e 24 c4 bc 88 a7 fa 3b 4b 36 d1 3d 73 ca 3f bd
       -0.023943033 0.007649366 0.10215434 -0.04682393
0003e0 9d 47 05 3e b3 de 1f 3e 98 93 7f 3d d4 68 32 3d
       0.130156 0.15612297 0.062396616 0.043557003
0003f0 88 df 85 bb 13 c7 9a bd c3 8d 16 bd f5 6f 19 3e
       -0.004085485 -0.07557502 -0.03675629 0.14984114

inception_block_1.branches.1.0.bias f4 [8]
000000 cb db 4b 3c 5c 8e 52 3d 04 01 46 bc 3d 22 27 3d
       0.012442539 0.051405296 -0.012085203 0.040804137
000010 02 a0 6e 3c d6 6b 5e 3d 08 d6 76 bb 93 43 13 bc
       0.014564516 0.05430206 -0.0037664194 -0.008988279

inception_block_1.branches.1.1.weight f4 [8]
000000 bc ff 6e 3f 3b 44 6d 3f b3 70 82 3f 8c 84 8f 3f
       0.9335897 0.92682236 1.0190643 1.1212325
000010 8e 01 75 3f f1 23 a9 3f d1 81 91 3f 9b d3 84 3f
       0.957055 1.3214093 1.1367742 1.0377077

inception_block_1.branches.1.1.bias f4 [8]
000000 08 83 a9 bc 58 58 47 bd 5b e6 0e bc b7 fb f9 bd
       -0.020692363 -0.048668236 -0.008721913 -0.12206214
000010 8f 67 30 bd 10 02 3f be 01 87 b2 bc 8e 57 02 bd
       -0.04306751 -0.1865313 -0.02179289 -0.03182178

inception_block_1.branches.1.1.running_mean f4 [8]
000000 fa 21 cb bd 67 42 05 3e 06 6e e1 bd 61 36 4b 3e
       -0.0991859 0.13013612 -0.110073134 0.19844963
000010 46 a1 1b 3e e5 2b 12 3e a1 4e 59 3d 1a c6 31 3e
       0.1519824 0.14274557 0.053053502 0.17360726

inception_block_1.branches.1.1.running_var f4 [8]
000000 b4 82 53 3e 2c 24 ac 3e 28 27 0b 3e bf 68 0e 3e
       0.20655328 0.33621347 0.13589156 0.13907145
000010 96 eb 1f 3e d5 1a 82 3e fb 6d 89 3e a7 78 23 3e
       0.15617213 0.25411096 0.2684172 0.15963994

inception_block_1.branches.1.4.weight f4 [16, 1, 22, 1]
000000 0d 45 c2 bd 8d 05 89 3d 6d 32 83 3d 9d 7b 68 bd
       -0.09485827 0.06690512 0.06406102 -0.05675851
000010 02 cd a0 bc 21 b4 31 bd 84 df f5 bd 21 dc 00 be
       -0.019629005 -0.043384675 -0.12005523 -0.12583973
000020 94 02 6c 3d 1e 6d 15 bd 40 4b 05 bd 7b 70 93 bd
       0.057619646 -0.036481015 -0.032542467 -0.07199188
000030 82 30 d8 3c 87 53 05 3e 78 fb 15 3e 12 a4 b6 3d
       0.026390318 0.13020144 0.14646709 0.08918013
000040 1d 94 c4 3d 13 4b d8 3d 0b 73 13 bd 43 10 94 bb
       0.09598563 0.10561194 -0.035998385 -0.00451854
000050 a2 12 1d 3d b7 46 55 be f2 24 ed bb b6 81 a6 3c
       0.038347848 -0.20827757 -0.0072370702 0.020325523
000060 0b a9 c8 bc 66 24 65 bd 4e f5 5f 3c d1 29 d4 3c
       -0.024494668 -0.055942915 0.013669325 0.025898846
000070 4c 5b 04 3e d6 7a e2 3d b4 16 dc bd 19 a2 b0 bd
       0.12925452 0.11058585 -0.10746518 -0.08624668
000080 30 46 97 3d 7b b6 a5 3d cb 6f 0f 3e 79 8e f2 bc
       0.07386434 0.08091446 0.1400749 -0.029608952
000090 7b a9 e8 bb f3 6f 50 bd 47 c5 83 3d 1e fe fe 3d
       -0.007100282 -0.050888013 0.06434112 0.12450813
0000a0 f2 99 f2 3a 77 ec eb bd ff 2c 04 be 6b 29 42 be
       0.0018509014 -0.115197115 -0.1290779 -0.18961112
0000b0 4b f9 a0 bc 33 b2 19 bd 39 85 7f bc ff 48 8f bd
       -0.019650122 -0.03752346 -0.015595728 -0.06996345
0000c0 19 df d6 ba 30 db 0e bd eb e1 ed 3d 64 b8 72 bc
       -0.0016393393 -0.034877002 0.11615356 -0.01481447
0000d0 18 98 ea bc dc 47 51 3d dd 83 3f 3b e7 e6 1c 3d
       -0.028636977 0.05109392 0.0029222884 0.038306143
0000e0 c0 61 98 3d 1a 08 1a 3e 77 2e c2 bc 20 67 9d 3d
       0.07440519 0.15042153 -0.023703797 0.07685685
0000f0 a7 6f af 3d 43 5e 22 3c 39 f2 e8 3c 6f 00 43 bd
       0.08566218 0.009910169 0.028435813 -0.047607835
000100 46 fd c3 bd bf 8f 57 be e4 ed 96 bc 09 da fb 3d
       -0.095697924 -0.21050929 -0.018423982 0.12297446
000110 19 1d 68 3d 9b 75 81 3c 85 9c 81 bc 5c 78 73 3d
       0.056668375 0.015803149 -0.015821705 0.059440956
000120 d1 fb 9a bc 3f a3 04 3d 47 2a 5b bd d4 82 97 3d
       -0.018918904 0.032382246 -0.053507116 0.07398
000130 85 dd 8d 3c ea 02 38 3e 87 cf 1f 3d 58 1e 77 bd
       0.017317543 0.17969862 0.039016273 -0.060331672
000140 43 a4 84 3d 0e df 3a bc 94 28 c7 3d 63 8b 9a 3d
       0.06476643 -0.011405719 0.097245365 0.07546117
000150 2c 98 87 3c 6f 54 ec bc 21 82 8d 3b 81 fb d9 3b
       0.016552053 -0.028848855 0.004318491 0.006652296
000160 1f d6 df 3d 67 aa f2 3d df 2b 59 bc 6d 49 b1 bc
       0.10929512 0.11848908 -0.013255089 -0.021641457
000170 53 f2 d9 3c 20 f6 4a 3a 72 34 82 bd 50 70 bf bd
       0.026604807 0.0007742364 -0.063576594 -0.09347594
000180 74 fa 37 bd a8 cc d6 3d d7 65 2d 3d f8 af a1 3b
       -0.044916585 0.10488254 0.04233345 0.004934307
000190 b8 af f5 3c eb a9 0d be 2a 3f 61 3d e6 9f 4a bd
       0.029991016 -0.1383435 0.05499188 -0.049468897
0001a0 78 b1 c3 3c 2e 42 4c 3a 90 6f aa bd b4 0c 28 3d
       0.023888335 0.0007791844 -0.0832206 0.04102774
0001b0 47 6c 2d be 63 d1 8a 3d 9d 26 f0 3c 7a 0a bb bd
       -0.16935836 0.067782186 0.029315287 -0.091328576
0001c0 29 e9 b8 bd f4 18 59 bd 62 60 c8 3d 28 02 71 bd
       -0.09028847 -0.053002313 0.097840086 -0.058839947
0001d0 8b d5 2b bd 5c 0a 45 bd 7f 9b c5 bc 71 82 17 bd
       -0.041951697 -0.048105583 -0.024121998 -0.036989633
0001e0 dc 56 8d bd e1 9e 41 3d a0 1a 47 bd 0b 18 89 3d
       -0.06901333 0.04727066 -0.048609376 0.06694039
0001f0 0e 21 e3 3c f7 60 fa bd be ad 0c bd d1 62 1d bd
       0.027725723 -0.12225526 -0.03434538 -0.038424317
000200 a0 b3 53 3d 32 03 85 3c 27 4b 11 3c 32 3c 78 3e
       0.051684976 0.016236875 0.008868015 0.24241713
000210 bd b5 1b be 26 c1 eb bc 2a 99 8e bd 02 47 96 bd
       -0.15206046 -0.028778624 -0.069628075 -0.073377624
000220 94 b9 24 3d 3b 89 86 bd 3f 1e 6b bd f9 9f 5d 3e
       0.040216044 -0.065691434 -0.05740189 0.21643056
000230 27 2e 56 3c 56 4c be bd 33 92 39 bc 39 d4 a1 bc
       0.013072527 -0.09291904 -0.0113263605 -0.019754516
000240 22 cf 10 3d a7 23 3f 3e 70 d4 b3 3d c0 b6 08 bb
       0.035353787 0.18665944 0.087807536 -0.002086088
000250 81 eb 6c 3c 88 6a a4 3d 02 b5 62 bc 0a 87 1a bd
       0.014460445 0.08028132 -0.013837101 -0.03772644
000260 f2 40 3d 3d 16 b7 e3 bc 92 a7 fb bd 90 21 ed bc
       0.046204515 -0.027797263 -0.12287821 -0.028946668
000270 bd 71 05 bd 49 28 07 3d 7b e9 c9 3c 93 0a b6 3c
       -0.032579172 0.032997403 0.024647465 0.022221839
000280 5c d9 72 bc fa a0 09 be 2b ec f8 39 43 00 80 bd
       -0.01482233 -0.13440314 0.00047478205 -0.0625005
000290 c1 21 db bd 22 cd 21 bd 14 59 96 3d b0 34 42 bd
       -0.106997974 -0.03950227 0.07341209 -0.047413528
0002a0 3b 7f 62 3c 09 b4 ad bc 49 5a fc 3b 26 c1 17 bd
       0.013824279 -0.021204012 0.0077011925 -0.037049435
0002b0 1f f1 be bd ad 4e 30 3d d7 ac 22 bd 2f 15 25 3e
       -0.09323334 0.04304378 -0.039715614 0.16121362
0002c0 99 a1 1f bd c7 1c 75 bc e7 53 92 3d db f3 98 3d
       -0.03897247 -0.014960474 0.07144909 0.07468387
0002d0 7e cb 97 3d df 96 8e bd 2c cc eb bd 8b a6 5f bc
       0.0741186 -0.0696237 -0.11513552 -0.013650547
0002e0 a5 e4 52 bd cd dd e4 3d 37 fd 7a bc a2 09 93 3c
       -0.051487584 0.11175118 -0.01531916 0.01794893
0002f0 51 51 83 bd 6b 66 c2 bd 8c cc cc bc ed 76 13 3e
       -0.06411994 -0.09492191 -0.02499988 0.14400835
000300 2c 41 bb 3d 1d 6f c8 bc e8 81 af bd 22 00 6f bd
       0.0914329 -0.024467045 -0.085696995 -0.058349736
000310 a7 b0 8b 3d 60 54 c6 3c 7f 14 16 be 52 2c 44 3d
       0.06820803 0.024210155 -0.14656256 0.04789383
000320 53 d8 99 3b 77 f1 85 3d 6b db ad 3d 17 04 19 3c
       0.0046949773 0.065401964 0.08489116 0.009339354
000330 63 4d ed bd 24 04 3e bd 8e 52 91 3d ea 38 27 3e
       -0.11587026 -0.046390668 0.07095824 0.16330305
000340 38 f7 82 3d cb 9e 8a bc 73 58 89 bd 97 86 b6 bd
       0.063948095 -0.016921422 -0.067063235 -0.0891239
000350 4a 30 a7 3c df 07 e1 bb 28 74 be bd 72 9e 0e 3e
       0.020408768 -0.0068673934 -0.09299499 0.1392763
000360 b6 2c c8 3d 54 c0 50 bb 62 60 06 3e 62 4d 06 3e
       0.09774153 -0.0031852918 0.13122705 0.13115457
000370 b4 f6 02 be a4 55 39 bd 15 30 97 bd 4d ef 8e bd
       -0.12789422 -0.04524769 -0.07382218 -0.06979237
000380 b1 80 b6 bc d8 e3 59 bd c7 86 0c 3d 06 c5 f0 bd
       -0.022278162 -0.053195804 0.03430822 -0.11756329
000390 6e 1f 0a 3d 16 2b 98 bd 46 ff a2 bd b8 4f 19 3e
       0.03372138 -0.07430093 -0.07958846 0.14971817
0003a0 a4 9e a4 3d e9 f4 84 bd 09 94 51 bd b3 a9 c3 3d
       0.08038071 -0.064920254 -0.051166568 0.09553852
0003b0 c9 3d 56 3c f6 c7 13 3e 58 32 c3 bd be 79 ba bc
       0.013076254 0.14431748 -0.09531087 -0.02276313
0003c0 8e 5a da 3c b6 13 ff 3c a3 ac f0 3c 60 82 06 be
       0.026654508 0.031137329 0.029379195 -0.13135672
0003d0 61 1a 06 bd b6 e3 23 bd f8 f3 bd bd 01 88 fc bc
       -0.03274 -0.040012084 -0.09275049 -0.03082657
0003e0 dd 59 9e bd e2 ef 74 bd e4 67 11 be d8 46 a2 bd
       -0.07731984 -0.059799083 -0.14199787 -0.079236686
0003f0 da dd bc bc 29 e6 8d 3d 03 d6 03 bd 50 90 91 bd
       -0.023055006 0.06928665 -0.03218652 -0.071076035

inception_block_1.branches.1.5.weight f4 [16]
000000 5d 7d 6d 3f 4d fa 6b 3f 1f bc 74 3f 7c 8c 64 3f
       0.92769414 0.92178804 0.9559955 0.8927686
000010 91 a4 6a 3f 16 be 66 3f 04 39 81 3f fc 2e 70 3f
       0.9165736 0.901338 1.0095525 0.9382169
000020 13 46 70 3f 58 0d 73 3f 34 66 8a 3f 2c fb 8c 3f
       0.93856925 0.94942236 1.081244 1.1014152
000030 06 8f 77 3f 5f bf 6f 3f f1 27 68 3f 34 29 70 3f
       0.9670261 0.93651384 0.90685946 0.9381287

inception_block_1.branches.1.5.bias f4 [16]
000000 79 38 8e bc 1a cf 1c bd 29 b9 c0 bc de 45 a3 bd
       -0.017360913 -0.038283445 -0.023525791 -0.079723105
000010 2f d6 59 bd a2 68 86 bd 80 7e e7 bd d0 75 81 bd
       -0.053182777 -0.06562926 -0.11303425 -0.06321299
000020 5c 10 4c bd 09 98 40 bd 78 44 47 be 1f 3d 2a be
       -0.04982029 -0.047019992 -0.19459713 -0.16624878
000030 60 cb 96 bc 45 49 c2 bd dc a6 b4 3a ef 38 05 bd
       -0.018407524 -0.09486631 0.0013782638 -0.032525

inception_block_1.branches.1.5.running_mean f4 [16]
000000 4b 04 cd bb a8 fb d8 bb 71 3d ca 3a 2d ad 88 3d
       -0.0062566153 -0.0066217966 0.0015429688 0.06673656
000010 d3 8b 1a 3a 8b 3f f4 bc 12 35 2f 3c ec 06 01 bd
       0.0005895469 -0.029815456 0.010693805 -0.03150074
000020 22 3c c6 3a 6b c4 42 3d 1e 50 9a bc 8f 69 e5 bc
       0.0015124122 0.0475506 -0.018837031 -0.028004436
000030 13 62 2a be 4f 1e 98 bd d0 d6 88 bd 54 9b d1 bd
       -0.16638975 -0.07427656 -0.06681597 -0.102347046

inception_block_1.branches.1.5.running_var f4 [16]
000000 22 5d c3 3d 8e 30 f6 3d 48 71 a9 3d d5 cf 86 3e
       0.09539248 0.1202098 0.0827356 0.26330438
000010 44 20 c0 3d 2c b7 fb 3d 33 c7 2e 3e cc 86 46 3e
       0.09381154 0.12290797 0.17068176 0.19387358
000020 1a d4 b7 3d d7 a3 69 3e e4 2b 92 3e 79 18 d2 3e
       0.08976002 0.22816406 0.2854911 0.41034296
000030 db 6a 35 3f e3 5c ad 3e 07 b0 8b 3e bf b7 fd 3e
       0.70866174 0.3385993 0.27282736 0.4955425

inception_block_1.branches.2.0.weight f4 [8, 1, 1, 16]
000000 0c eb 7d 3d 0a 3d 07 3e 94 b8 e2 bc 89 e8 1d bd
       0.061991736 0.13206878 -0.027675904 -0.03855184
000010 26 69 d7 3d 70 aa ab bd 64 b3 fe bd 2d 3b 60 be
       0.10518102 -0.08382118 -0.1243656 -0.21897574
000020 fe 19 ea 3d 4f 9e ae 3b 84 65 40 be 18 ad 08 bd
       0.11430739 0.0053289304 -0.18788725 -0.0333682
000030 2c 5e 17 3d 78 18 36 bd 7a e4 af 3d ea 00 4e 3e
       0.036955044 -0.04445693 0.085885 0.20117536
000040 e3 54 2b 3e 8e 95 25 be a3 e9 2b be 3f 7d 13 be
       0.167316 -0.16170332 -0.16788344 -0.14403246
000050 86 2b 56 3e 54 f4 2b 3d 9d e3 ae 3d 2c 97 61 3d
       0.2091504 0.041981056 0.085395075 0.05507581
000060 8c ac f8 3d a8 54 ee 3d f9 37 12 3e b9 8f a5 3c
       0.12142286 0.11637241 0.14279164 0.020210134
000070 81 78 9c bd 1e 04 1f be fc 65 a6 3d 4e f5 f5 3d
       -0.07640172 -0.15528914 0.08124921 0.12009679
000080 a5 5a 44 3e 93 3a fa bd c4 37 3d 3e 8c 8d 1d be
       0.19175203 -0.122182034 0.18478304 -0.15386027
000090 78 40 2d 3e f4 12 ce ba 87 c2 c3 3c 48 8f a3 bd
       0.16919124 -0.0015722201 0.023896469 -0.07986313
0000a0 cb d3 f9 bd 1d 95 84 3d 51 01 04 3e 2b 1c b6 bd
       -0.121985994 0.064737536 0.12891127 -0.08892091
0000b0 19 cb e8 bd 15 e7 3c 3e c3 df e0 bd b2 eb 1d 3e
       -0.11366863 0.18447526 -0.10980179 0.15421942
0000c0 bb 04 2e be fc 5e 0a be 1f ed 26 3e b4 89 03 be
       -0.16993992 -0.13512796 0.16301392 -0.12845498
0000d0 a0 43 e9 3d b4 73 72 bd e1 07 e5 3d a8 50 e2 3c
       0.113898516 -0.059192374 0.111831434 0.02762635
0000e0 67 cc a4 3c 72 2e dd 3d 05 8b 26 bd 30 eb a4 3d
       0.020116998 0.10799874 -0.040659923 0.08052671
0000f0 a9 c6 c7 bd 32 84 a5 3d f7 cb 2e 3d 1f cb 22 be
       -0.09754688 0.08081855 0.042674985 -0.15897797
000100 98 40 02 3d 9a 50 d3 3d 4e 21 86 bd 77 96 32 bd
       0.031799883 0.10318108 -0.06549321 -0.043600526
000110 9e ba bf 3c ef 18 4f be 2f 39 40 3d ac f1 16 be
       0.023404416 -0.20224355 0.046929535 -0.14740628
000120 ca ed 7e bd da d1 40 bd ef ec e0 3c 3c 1c 1a 3d
       -0.062238492 -0.04707513 0.027456729 0.037624583
000130 6f d9 37 3d 43 6a fe bc 5f 67 24 3d a7 4e 90 3d
       0.044885095 -0.031056529 0.040137645 0.07046252
000140 3e b6 fa 3d f1 a8 d6 3d d5 d1 25 3e 9e b2 ec bd
       0.12241791 0.10481442 0.16193326 -0.11557506
000150 a4 fb 49 3e bc cc 81 3d 68 82 13 bd c3 63 b1 3c
       0.197249 0.06337878 -0.036013037 0.021654015
000160 9f d3 af 3d 0f 59 39 3d b2 4b cd 3d e9 3a 80 3d
       0.085852854 0.04525095 0.10024203 0.06261236
000170 89 22 ae bb 64 fe 4b 3e e9 69 fd bd b0 19 51 3e
       -0.0053141755 0.19921261 -0.123737164 0.20419955
000180 0e 57 9f 3c 76 63 6e be 8f cc a9 bc b9 b1 19 3d
       0.01945069 -0.23280129 -0.020727424 0.037523005
000190 ed 6a bc bd d9 fe 0e be aa 8f 2b bc 30 49 45 be
       -0.09200082 -0.13964404 -0.010471264 -0.192662
0001a0 15 5a 3c 3d c6 02 d2 bb 4a 20 1d 3d 49 70 0d be
       0.045984346 -0.006409022 0.03836087 -0.13812365
0001b0 08 d7 ee bd ba ca d6 3d c2 0e d6 bb b1 82 02 be
       -0.11662108 0.10487886 -0.006532521 -0.12745167
0001c0 ef 32 64 be 49 2d a1 3d 6c 97 c9 bc 29 28 e1 bd
       -0.22285055 0.078699656 -0.024608336 -0.10993988
0001d0 8e c0 bd bd b9 03 f0 3d 65 3d b3 bd fa 6e e2 bd
       -0.092652425 0.1171946 -0.087519445 -0.11056323
0001e0 a4 54 1e 3e 34 a8 9e bd 3b da 81 bd 22 88 95 3c
       0.15461975 -0.07746926 -0.06340452 0.01825339
0001f0 34 28 22 be a3 7c e7 bc a9 66 a8 3d 94 a5 43 be
       -0.15835649 -0.028257674 0.08222706 -0.19106132

inception_block_1.branches.2.0.bias f4 [8]
000000 d0 6f 3f 3d 0c 1b 37 3c 7d a8 40 3d 4d fe 76 3c
       0.046737492 0.011175882 0.047035683 0.0150752785
000010 fd 98 27 3c 14 ea 46 bb 6f 75 4b bc a6 0c 9e 3d
       0.010229346 -0.0030351924 -0.012418135 0.07717256

inception_block_1.branches.2.1.weight f4 [8]
000000 5a e9 8d 3f 35 2c 84 3f 11 c9 80 3f 7f 6e 86 3f
       1.1086838 1.0325991 1.0061361 1.0502471
000010 69 da 79 3f 42 fd 87 3f e0 5d 85 3f 6d 79 72 3f
       0.9759889 1.0624163 1.0419273 0.9471653

inception_block_1.branches.2.1.bias f4 [8]
000000 79 8b 1f be 29 6e 62 3c c4 47 0c be 7e 26 08 be
       -0.15580548 0.01382021 -0.13699251 -0.13295934
000010 79 6e 25 bd e8 a7 37 bd 0d 82 5d bd e7 24 aa bc
       -0.040388558 -0.044837862 -0.054079104 -0.02076955

inception_block_1.branches.2.1.running_mean f4 [8]
000000 96 f7 33 3d 9b e6 9e 3d 4f 05 ac 3d 04 7d d1 3b
       0.04393729 0.07758828 0.0839945 0.006393077
000010 bb 05 9a bc 03 0d 1d 3e 25 b7 09 be f5 f6 ed bc
       -0.01880156 0.15336995 -0.1344877 -0.029048422

inception_block_1.branches.2.1.running_var f4 [8]
000000 99 14 eb 3d 66 3f 11 3e 74 7f d5 3c 22 0c 71 3d
       0.11478538 0.14184341 0.026061751 0.05884946
000010 85 80 af 3d d0 e6 2a 3e 5c 19 02 3e 0f 65 82 3d
       0.08569435 0.1668961 0.12704986 0.06366932

inception_block_1.branches.2.4.weight f4 [16, 1, 22, 1]
000000 5d 78 a3 bd 37 5b 47 3d 2e 69 de 3c c2 10 ba bd
       -0.07981942 0.048670974 0.027149763 -0.090852275
000010 32 ef 28 bd df a4 92 3c 80 5d 03 3d 65 fc 56 3e
       -0.04124374 0.017900882 0.03207159 0.20994718
000020 37 4f 23 3d fe 33 c6 bd 60 1c f6 3c 7c f5 8e bd
       0.039870467 -0.096778855 0.030042827 -0.06980416
000030 32 84 8d bd 14 15 d5 3d b3 31 60 bb dc 1e b5 3b
       -0.0690998 0.10404411 -0.003420931 0.0055273604
000040 59 ec 60 bd c8 e4 ef bb 63 43 51 3d d5 d0 d6 bd
       -0.0549129 -0.007320974 0.051089656 -0.1048905
000050 f5 7d ac 3c 8f d8 c7 bd 0f d2 4e bd c9 e0 01 3e
       0.021056155 -0.09758102 -0.050493296 0.12683405
000060 65 0a af bd 76 e7 9c bd fc 59 70 3c 04 19 a8 3d
       -0.085469045 -0.07661335 0.014669891 0.08207896
000070 e7 b9 38 3e 64 1e 8c 3d 8e 42 4b 3c 34 3a ce bd
       0.18039666 0.06841734 0.012406005 -0.10069695
000080 8b f0 5b 3d 4c ab 76 3d a0 8f bc bd d0 16 83 bd
       0.053696197 0.060221955 -0.09207082 -0.064008355
000090 04 4a 66 3d df f3 5d bd ac 8c 10 3d 08 35 c5 bd
       0.05622293 -0.05418765 0.035290405 -0.096292555
0000a0 f1 ec 98 3d ae 73 6a bd d6 85 58 bc 02 bf bc 3d
       0.07467068 -0.057239227 -0.013215503 0.09216119
0000b0 cc 26 3c 3d 3f bb 4d 3c c5 59 4a 3d 66 57 45 bd
       0.045935437 0.01255685 0.049402017 -0.048179053
0000c0 b7 3a a0 b9 ad 97 39 3d eb 23 00 be 1d 75 08 be
       -0.00030561324 0.045310665 -0.12513702 -0.13325925
0000d0 cb 5d 3c bd 69 29 09 3e da 3c e2 bb f7 cd 60 bd
       -0.045987885 0.13394703 -0.0069042267 -0.054883923
0000e0 be e7 04 bd 25 c0 a0 3b 58 b5 5d bd 9c 87 32 3d
       -0.03244757 0.004905718 -0.05412802 0.04358636
0000f0 68 4f 88 bc 9f ba e5 3d 35 65 40 bc a4 1c 08 3b
       -0.016639426 0.11217236 -0.01174288 0.0020769024
000100 53 d4 9e bd ee 63 bf bd d0 dc 01 3e b7 30 56 bd
       -0.077553414 -0.09345232 0.1268189 -0.05229255
000110 9b 8d 2a bd 51 ba 74 3d c7 b5 9f bc aa b1 b0 bc
       -0.04163895 0.059747998 -0.019495858 -0.021569092
000120 d2 38 c4 bd 5b 14 12 be 3f 07 b8 bd cb 76 f2 3d
       -0.0958115 -0.14265577 -0.08985757 0.11839064
000130 df 36 8a 3d 7c 8c e8 bd 17 dc 28 bd 3a 25 bc bb
       0.06748747 -0.1135492 -0.04122552 -0.0057417424
000140 ee 71 85 3d 2d 49 2a 3d 0a 2b 21 3d 12 9c fd bc
       0.06515871 0.041573692 0.039347686 -0.03095821
000150 a7 24 05 bc 89 49 6b 3d ef 5d a5 bd 71 2c d5 3c
       -0.008126414 0.057443175 -0.08074557 0.026022168
000160 34 f4 d3 3d e5 eb 73 3d 1d 74 4c 3c 8c 6a cd 3b
       0.103493124 0.05955114 0.012478855 0.006268805
000170 14 8e 98 3d 08 e9 a2 3d 41 b5 ad bd 17 b8 04 be
       0.07448974 0.079546034 -0.08481837 -0.1296085
000180 70 50 5d bd 74 14 c2 3d 31 c5 75 38 92 18 58 3d
       -0.05403179 0.094765574 5.85962e-05 0.052757807
000190 e2 e0 93 bc da 2c d9 bd a9 25 a3 bd 75 6a 8a 3d
       -0.018051568 -0.10604258 -0.079661675 0.06758586
0001a0 6c 10 25 bd 6e 97 dd 3d 9e f0 91 3d 25 97 b7 bc
       -0.040298864 0.108198985 0.07125972 -0.022410939
0001b0 80 0d 03 3e 1d a5 a3 bd 33 c7 b8 bd 70 27 17 bb
       0.12798119 -0.07990477 -0.09022369 -0.0023064278
0001c0 8a a9 1b bb e4 36 cc bc b2 e5 a6 bd a3 69 6b bd
       -0.0023752176 -0.024928518 -0.0814928 -0.05747379
0001d0 a3 93 84 bd ee 36 d5 3d 87 64 4f bd 1c ce 9c bc
       -0.06473472 0.10410868 -0.05063298 -0.01914125
0001e0 67 3f 75 bd 6c da f4 3d ba 6e 65 bb 01 c2 48 3e
       -0.05987492 0.11955723 -0.0035008625 0.19605257
0001f0 d4 61 eb bc 68 6b 7d 3c f6 0a 13 bd b8 84 37 3e
       -0.028733172 0.015467502 -0.035899125 0.17921722
000200 02 7a a4 3c ef 46 68 3a bd b0 1e 3d 59 e3 cc bd
       0.02007771 0.00088606676 0.03874277 -0.100043006
000210 ba bd ad bd 84 8b 98 bd 11 3b c0 bd b0 63 b2 bd
       -0.08483453 -0.074484855 -0.09386266 -0.0871042
000220 7e b1 80 bd 7e 18 cf bd 7b 02 8c bc 2f 7c 02 bc
       -0.06283854 -0.101120934 -0.017091027 -0.007964178
000230 61 fd 8b bd 88 fc 60 bd 10 c8 d2 bc aa a4 ad 3d
       -0.068354376 -0.054928333 -0.025730163 0.08478673
000240 27 08 9b 3d 73 dd a1 bd 16 59 23 3b 9a f5 cf bc
       0.07569914 -0.07903566 0.0024924926 -0.025385667
000250 48 57 b8 3d d1 ca 7a 3e c0 6a 5d bd 7d 1c f5 bc
       0.090010226 0.24491431 -0.054056883 -0.02992081
000260 f0 5b 14 3d 4c 61 9e bd 57 c2 e1 bb 3d a3 9a 3d
       0.03622049 -0.07733402 -0.006889622 0.075506665
000270 05 84 c6 3d c9 25 ae 3d 01 a4 43 3c f0 a8 d2 3d
       0.096931495 0.08503301 0.011940957 0.102861285
000280 83 33 8a bd 69 d4 b4 3d ca 1e ad 3d 03 2b a3 3b
       -0.06748106 0.088295765 0.08453138 0.0049794926
000290 3b 33 bd 3c 68 d9 94 bd 9b 81 c1 bd ed 2b be 3c
       0.023095718 -0.072680295 -0.094485484 0.023214305
0002a0 f4 21 f7 bc 96 f9 75 bc 45 18 94 bd fe 52 1b be
       -0.030167557 -0.015013119 -0.072311915 -0.15168378
0002b0 5b 4e cc bd 35 48 a9 bd d5 fc a2 bd 59 28 84 3c
       -0.099758826 -0.082657255 -0.0795838 0.01613252
0002c0 5c 13 b5 bd 52 e4 81 bd 50 12 db bc 5f 99 bb bc
       -0.08841583 -0.06342377 -0.02674213 -0.022900281
0002d0 0b 28 8c bd 29 13 81 bc 82 95 a8 bb 0f d2 f9 bc
       -0.06843575 -0.015756207 -0.005144776 -0.030495672
0002e0 e0 c9 4a bd 54 80 7e bd 9c 57 a6 bc f6 4a 9f 3d
       -0.04950893 -0.062134102 -0.020305447 0.077779695
0002f0 ce f6 f1 3d 9f a8 35 bd ba 58 64 bd 2c 29 7e bc
       0.118146524 -0.044350263 -0.05574868 -0.015512746
000300 c5 4f e8 3b 30 df 0a 3e a1 02 4f bd ea b9 b2 3c
       0.0070895874 0.13561702 -0.050539616 0.021817166
000310 cd 88 9c 3b c9 55 00 3d 43 8d 92 3d 28 70 43 3d
       0.00477705 0.03133181 0.0715585 0.047714382
000320 96 e2 10 3d f6 d6 c9 3c 72 e8 3f 3d 24 8a 98 bc
       0.03537234 0.024638634 0.046852536 -0.018620558
000330 05 fc 28 3d 42 36 a2 bd 1e 00 05 bb d1 63 0b 3e
       0.04125597 -0.07920505 -0.002029426 0.13612296
000340 b6 cb 56 3d 32 5f dc bd 19 6a 56 bd 5e 69 2a be
       0.052440368 -0.107603446 -0.052347276 -0.16641757
000350 fd 60 8c bb 25 ba ea bc 01 36 3d 3d 4e d4 de bd
       -0.004284023 -0.028653214 0.04619408 -0.10880338
000360 9e 7d b9 bc db a2 bd 3d a4 2f 1d bd 14 f7 f3 3b
       -0.022642907 0.09259578 -0.03837551 0.0074452255
000370 d7 da 91 bc 76 7f f6 bd 6c e6 31 bd 2d 7a 09 3d
       -0.017804546 -0.1203603 -0.043432638 0.03356378
000380 15 eb 3b bd 43 42 39 3c 34 18 a7 3b d8 a4 58 bc
       -0.04587849 0.011307302 0.005099321 -0.013222896
000390 ed 9e bb bc 67 27 9d bd 44 59 5a 3d b4 5f 2d 3d
       -0.02290293 -0.07673531 0.053307787 0.042327598
0003a0 dc fe 1c 3e 80 84 7e be d9 93 88 bd 4a 4c 93 3d
       0.15331596 -0.24855232 -0.06668825 0.07192285
0003b0 94 a6 48 3d 36 bc 17 bd 6a 9d 0e be 94 50 08 bd
       0.048986986 -0.037044726 -0.13927236 -0.03327997
0003c0 bc 65 62 3d 6c c3 89 3c 9c 68 f4 3c 58 b8 13 bd
       0.055272803 0.016816817 0.029835038 -0.036064476
0003d0 d2 6e a4 bc 94 14 b1 bd d6 7c d0 3c 53 1a 52 3c
       -0.020072374 -0.08646503 0.025450151 0.012823659
0003e0 db 20 09 3e cc 42 b1 3c 29 9b 80 3b d4 44 42 3d
       0.1339144 0.021638297 0.0039247465 0.04742892
0003f0 ee c2 10 bc fe 44 77 3c 29 89 88 bd 95 97 e0 3d
       -0.008835537 0.015092133 -0.06666786 0.10966412

inception_block_1.branches.2.5.weight f4 [16]
000000 db 65 81 3f 43 ec 5f 3f 3f 7c 69 3f 36 51 66 3f
       1.0109209 0.8746988 0.9120521 0.8996767
000010 ab 42 76 3f 0f 49 7c 3f 22 1a 96 3f 5b c8 7b 3f
       0.9619548 0.9854898 1.1726725 0.98352593
000020 5c 22 7e 3f c6 60 6d 3f 5a 3a 62 3f 6f fd 76 3f
       0.9927118 0.9272579 0.8837029 0.9648046
000030 e1 31 64 3f a5 2d 70 3f ce a3 74 3f 6b dd 82 3f
       0.8913861 0.9381965 0.95562446 1.0223821

inception_block_1.branches.2.5.bias f4 [16]
000000 66 d0 78 bd 40 3f bb bd 31 6a 16 bd e7 f9 07 bd
       -0.06074562 -0.09142923 -0.036722366 -0.03319731
000010 84 fe 18 be b0 00 0a be 82 dc 95 be 66 5d 22 be
       -0.1494084 -0.13476825 -0.29269797 -0.15855941
000020 d3 c9 2a be 65 97 db bd 25 18 6f bd 11 3e f9 bc
       -0.16678552 -0.107222356 -0.058372635 -0.030425103
000030 e2 72 a2 bd 46 37 cd 3b 92 f8 1f bd 69 a3 2e be
       -0.079320684 0.0062626926 -0.039055414 -0.17054524

inception_block_1.branches.2.5.running_mean f4 [16]
000000 3f e3 1e bc 78 19 86 3c 7f 8b 35 bd e3 6e e9 bc
       -0.009697734 0.016369566 -0.044322487 -0.028495258
000010 f7 75 40 3c c6 f7 8c 3b ce 39 92 bc d8 91 96 bc
       0.011746875 0.004301998 -0.017849829 -0.01838009
000020 73 90 bc bc 52 2f 1f bc 6a 67 45 bd 14 bd 04 bc
       -0.023018098 -0.009715872 -0.048194326 -0.00810172
000030 a9 a1 c6 3d e1 c9 fe bb 78 a8 21 3d f7 ec 76 bd
       0.09698803 -0.0077755307 0.039467305 -0.06028458

inception_block_1.branches.2.5.running_var f4 [16]
000000 66 c9 0e 3e d7 85 fd 3d d1 10 06 3e 68 92 f5 3d
       0.13944015 0.123790435 0.13092352 0.119908154
000010 7e 0e 2e 3e 3f 45 ef 3d 28 7e 64 3e 68 40 2c 3e
       0.16997716 0.116831295 0.2231375 0.16821444
000020 e9 ad b3 3d 16 01 9c 3d 4c bf 7f 3e a1 12 e5 3d
       0.08773405 0.076173946 0.24975318 0.11185194
000030 13 12 a5 3e 5f 6e c4 3d 56 a7 e0 3d 4f ae 36 3e
       0.32240352 0.09591364 0.10969417 0.17839931
