result_shallowfbcspnet_cv5/fold_0/best_model_fold0.pth (torch, 193974 bytes, 9 tensors)

conv_time_spat.conv_time.weight f4 [40, 1, 25, 1]
0.018696565 0.07038121 0.065245025 -0.0057537435 -0.10812017 -0.082199566 -0.0067529306 0.031272862
0.025118029 -0.04252739 -0.00475972 -0.025295239 -0.083765686 -0.018579677 -0.025345296 -0.027101887
0.09351824 -0.02365611 -0.0120086055 -0.024108665 -0.039536063 -0.08157125 0.0003966525 -0.028766857
0.021197097 -0.10582744 -0.014715644 0.040042914 -0.028041398 0.08553434 0.02906768 0.017869357
0.039184995 0.013587619 -0.07361489 0.021306347 0.024093378 -0.09818731 -0.019211883 -0.0073396014
0.05527285 0.0027728681 0.07502977 0.0919931 0.05074611 -0.07203639 -0.062198676 -0.06506748
-0.034679696 0.10270645 0.012153965 0.06662857 0.031959217 -0.080724604 -0.033913795 0.010036723
-0.03126981 0.030022973 -0.06657541 -0.09751781 0.04135897 0.08646609 0.10656896 0.05962659
0.03660121 0.052224003 -0.048930313 -0.013079338 -0.023339748 0.054436184 -0.058097333 0.041378956
-0.012877101 -0.057522237 0.03631699 0.07491235 0.020719696 0.06775624 -0.027794763 -0.008263289
-0.07292875 -0.07131747 0.038219392 -0.043101605 -0.091126814 0.023772325 0.04636929 0.106491916
0.09391335 0.03657957 0.024745444 -0.054245006 -0.0012411576 -0.0865279 0.06821748 0.07558399
-0.011215785 0.019970093 -0.06286951 -0.0033236472 -0.08509994 -0.11237256 -0.056932956 -0.037819
0.0708957 0.042462185 0.06654645 0.072733104 0.08369248 0.059552915 0.052382424 -0.086240426
-0.06104201 -0.04588787 -0.042011738 -0.034037977 0.0432215 -0.026856579 -0.071779415 0.031172864
0.069666386 0.031279456 0.06617833 -0.064817674 -0.047509037 0.029434249 0.03319972 -0.0009624814
-0.046992086 -0.08650456 -0.01809364 0.0035762265 0.069115184 -0.017043902 0.06535441 0.014806219
0.011626389 -0.090939194 -0.03398775 0.06967905 -0.058960587 -0.02137859 0.06154085 0.051896363
0.031316575 0.047395665 0.0655544 0.044043258 0.020153692 -0.011006371 -0.022580752 -0.063586906
0.0062369667 0.0047792937 0.077574365 -0.038341694 0.054610707 -0.044641122 -0.048480112 -0.039891813
0.06659161 0.05213734 -0.019135276 -0.07122908 0.01867416 0.026024498 -0.060231157 0.03849599
0.040921222 -0.07304077 0.07287748 -0.01727578 0.06447241 -0.018985437 -0.044142455 -0.0025673606
-0.06209602 -0.014412505 -0.084101304 0.011744689 -0.06196376 -0.01778934 -0.023604022 0.019437676
-0.04374217 -0.038272187 -0.021107148 0.024810726 -0.055236593 -0.07634133 0.010702211 -0.0017942612
-0.021251906 -0.03256005 -0.017425051 0.03336998 -0.05337732 -0.092244215 -0.08574463 -0.011160016
-0.050429028 -0.0974032 -0.06813537 0.0039141187 -0.0733298 0.048110858 -0.046306416 0.02734876
-0.044408612 -0.061350863 0.00195939 0.05867762 -0.045953788 -0.10447064 -0.10449932 -0.10951344
-0.09453554 -0.075918175 0.07705693 -0.051812097 0.04938734 -0.08127843 -0.015049041 -0.033465967
-0.06326213 -0.029854873 -0.076261565 0.019161072 -0.10310712 -0.03687869 -0.06994542 0.07619794
-0.011157301 0.064847976 0.0067517604 -0.04535621 -0.06530966 -0.14982784 -0.15097947 -0.04578852
-0.005788572 -0.036379248 -0.021133214 0.07518321 -0.033590596 0.045853473 0.074633054 0.077061564
0.088535696 -0.026135104 -0.05353868 0.07248953 -0.0497662 -0.02144127 -0.09957321 0.0071483213
00000000: 8a29 993c 0624 903d 2f9f 853d e689 bcbb
00000010: 1c6e ddbd 3f58 a8bd b047 ddbb f917 003d
00000020: 53c4 cd3c 3331 2ebd 6df7 9bbb f637 cfbc
00000030: 588d abbd 6834 98bc f0a0 cfbc c704 debc
00000040: 7e86 bf3d 75ca c1bc bebf 44bc 897f c5bc
00000050: 91f0 21bd d40e a7bd ccf5 cf39 79a8 ebbc
00000060: 89a5 ad3c 0fbc d8bd e219 71bc 0a04 243d
00000070: 13b7 e5bc a12c af3d 581f ee3c c262 923c
00000080: 7280 203d 9b9e 5e3c 67c3 96bd a68a ae3c
00000090: 7a5f c53c 6e16 c9bd 3d62 9dbc 0a81 f0bb
000000a0: c965 623d 02b9 353b 35a9 993d e166 bc3d
000000b0: 27db 4f3d d187 93bd 0ac4 7ebd 1942 85bd
000000c0: 4c0c 0ebd c257 d23d 6d21 473c 8f74 883d
000000d0: abe7 023d f152 a5bd 31e9 0abd 1171 243c
000000e0: c614 00bd bdf2 f53c b058 88bd 6bb7 c7bd
000000f0: 0668 293d 2215 b13d d440 da3d 033b 743d
00000100: 26eb 153d d6e8 553d 276b 48bd b84a 56bc
00000110: 0033 bfbc 7af8 5e3d 78f7 6dbd fb7c 293d
00000120: 7afa 52bc 709c 6bbd 20c1 143d a56b 993d
00000130: 5abc a93c c9c3 8a3d d8b1 e3bc bf62 07bc
00000140: ab5b 95bd e50e 92bd f08b 1c3d 4f8b 30bd
00000150: b2a0 babd 2ebe c23c baed 3d3d 6f18 da3d
00000160: a455 c03d 76d4 153d f5b6 ca3c 0330 5ebd
00000170: 57ae a2ba 8a35 b1bd 9bb5 8b3d c7cb 9a3d
00000180: 69c2 37bc 5298 a33c bbc1 80bd 8cd1 59bb
00000190: e148 aebd 9623 e6bd 8832 69bd 19e8 1abd
000001a0: c431 913d d4ec 2d3d 8149 883d 18f5 943d
000001b0: f766 ab3d c2ed 733d f48e 563d d29e b0bd
000001c0: 3007 7abd ebf4 3bbd 8014 2cbd 686b 0bbd
000001d0: 0709 313d 5402 dcbc 1601 93bd 3c5e ff3c
000001e0: 40ad 8e3d e31e 003d 8188 873d 21bf 84bd
000001f0: d698 42bd 1820 f13c 6efc 073d 094f 7cba
00000200: c67a 40bd 4e29 b1bd 1d39 94bc 205f 6a3b
00000210: 438c 8d3d a79f 8bbc 88d8 853d c995 723c
00000220: 9c7c 3e3c 543e babd bd36 0bbd e4b3 8e3d
00000230: a880 71bd 2722 afbc 4212 7c3d 4891 543d
00000240: cf45 003d f521 423d 6341 863d b466 343d
00000250: 5b19 a53c 1154 34bc 45fb b8bc da39 82bd
00000260: 785f cc3b 9f9b 9c3b 4fdf 9e3d 2e0c 1dbd
00000270: 7aaf 5f3d 9cd9 36bd 1593 46bd 9965 23bd
00000280: 2f61 883d f78d 553d 95c1 9cbc 8de0 91bd
00000290: 8dfa 983c 5431 d53c f2b4 76bd f9ad 1d3d
000002a0: 039d 273d 6696 95bd ca40 953d f085 8dbc
000002b0: 1c0a 843d 5987 9bbc b8ce 34bd 2a41 28bb
000002c0: 6558 7ebd 6d22 6cbc 4e3d acbd cc6c 403c
000002d0: b6cd 7dbd f3ba 91bc 395d c1bc c33b 9f3c
000002e0: fd2a 33bd 4cc3 1cbd e6e8 acbc dd3f cb3c
000002f0: c43f 62bd d858 9cbd 5458 2f3c 6a2d ebba
00000300: 7a18 aebc b05d 05bd fbbe 8ebc f6ae 083d
00000310: 2da2 5abd 89ea bcbd e19a afbd 80d8 36bc
00000320: ab8e 4ebd 547b c7bd 8f8a 8bbd 0242 803b
00000330: ef2d 96bd e40f 453d ccab 3dbd 820a e03c
00000340: cee5 35bd 0b4b 7bbd 1c69 003b f257 703d
00000350: 0a3a 3cbd b4f4 d5bd bd03 d6bd 9548 e0bd
00000360: d99b c1bd fd7a 9bbd 06d0 9d3d ec38 54bd
00000370: 614a 4a3d 4e75 a6bd 4190 76bc 9c13 09bd
00000380: 938f 81bd 3592 f4bc 062f 9cbd aef7 9c3c
00000390: d329 d3bd 1c0e 17bd 8b3f 8fbd aa0d 9c3d
000003a0: 1dcd 36bc 04cf 843d df3d dd3b 6fc7 39bd
000003b0: 12c1 85bd 786c 19be 5d9a 1abe be8c 3bbd
000003c0: 10ae bdbb 6802 15bd 901f adbc a8f9 993d
000003d0: 4b96 09bd dad0 3b3d 37d9 983d 74d2 9d3d
000003e0: 3452 b53d 4919 d6bc 604b 5bbd 6475 943d
000003f0: a5d7 4bbd 9aa5 afbc 0aed cbbd 773c ea3b

conv_time_spat.conv_time.bias f4 [40]
0.010437122 -0.015617863 0.0032767896 -0.0029960521 0.014921864 -0.02976226 0.008888721 -0.002502057
0.0076578106 -0.018295582 -0.01100528 -0.017209116 -0.02906544 -0.012879544 -0.0031589468 -0.011566816
-0.01612469 -0.024073184 -0.017687296 -0.0017023055 -0.009473242 0.017904783 -0.039430972 0.013655354
-0.009992347 0.0099963145 0.031232828 0.01878622 -0.009800783 0.016318936 -0.010012221 0.0017082077
-0.0058983644 0.014189707 -0.022253195 0.03184825 -0.008127564 -0.009990488 -0.006330623 0.018505683
00000000: 7600 2b3c 11e2 7fbc 68bf 563b 6a59 44bb
00000010: d57a 743c fccf f3bc ffa1 113c 8df9 23bb
00000020: 5fee fa3b 9ee0 95bc 7d4f 34bc 22fa 8cbc
00000030: a51a eebc b904 53bc 5506 4fbb be82 3dbc
00000040: ed17 84bc 2035 c5bc f3e4 90bc e51f dfba
00000050: a835 1bbc 0dad 923c 5f82 21bd b5ba 5f3c
00000060: f1b6 23bc 95c7 233c fddb ff3c 8fe5 993c
00000070: 7793 20bc 4aaf 853c 4c0a 24bc f0e5 df3a
00000080: 1147 c1bb f27b 683c 554c b6bc 5073 023d
00000090: 7929 05bc 25af 23bc 1d71 cfbb 3b99 973c

conv_time_spat.conv_spat.weight f4 [40, 40, 1, 22]
0.058061875 0.007282729 0.061909303 -0.007947861 0.019242583 -0.00078588864 -0.027471913 0.09272798
0.010825957 -0.022036988 0.021191964 -0.021333793 -0.036829595 0.08092723 -0.059298385 -0.050927807
0.013539527 0.027632857 -0.055933703 -0.10151259 0.007047976 -0.007288858 0.012304195 -0.0185452
0.03543592 0.005611225 -0.08214789 0.007861917 -0.033642832 -0.059270374 -0.031263392 -0.09999897
-0.014445174 0.018674145 -0.018738491 -0.016297694 0.0068998984 -0.04966877 0.013902862 -0.017105093
0.027454188 0.00745966 0.0164322 0.11846154 -0.095869586 -0.0022460138 -0.087984115 -0.07904787
-0.105428524 -0.093173884 -0.04611117 0.0241397 0.044914134 0.0068524447 0.013021181 0.05058658
0.0548597 0.064912125 0.05881188 -0.023908561 0.06707951 0.10090983 0.04554638 0.009009405
0.011285587 -0.06892767 -0.017069578 -0.021579351 -0.06834287 -0.0901739 -0.06900486 -0.09824393
0.017957367 -0.0033509876 0.01544599 0.06617297 0.03503897 0.050147288 0.046807215 0.050548982
-0.032501277 0.026015582 0.058177322 0.061353084 0.007883362 0.028417965 -0.018989475 -0.09482066
0.0070968997 0.036532506 0.012574995 0.037303355 0.0048428453 0.020416511 -0.04891679 0.032120943
0.03366082 -0.013359353 -0.024931077 -0.0065938956 0.030500164 -0.007444902 -0.029338792 0.03192865
-0.021900402 -0.01708258 0.025562331 0.08539018 -0.021915676 0.112280495 -0.09191648 0.07003797
0.044013094 0.037524674 0.050381307 -0.02234188 0.023823272 -0.0139009785 -0.0378952 -0.02960898
0.0014332244 0.023702474 -0.02184948 0.03815278 0.051907707 0.0041426606 0.02202882 -0.02274519
-0.026034655 -0.004692039 -0.0036524876 -0.05178836 0.034987643 0.005968815 0.016277945 -0.043024156
0.009521759 -0.0475201 0.05779421 0.022732768 0.0043968246 -0.009530904 0.08851836 0.013724205
-0.05844881 0.006265894 0.016348837 0.004821771 -0.033361543 -0.023674233 -0.031400174 0.019588346
0.0022621555 0.015729103 -0.0035929484 0.05484356 0.050301693 0.004576052 0.04295168 0.031029042
-0.029023975 -0.002160989 0.008324161 -0.031640887 -0.07146037 0.009103316 0.07776051 -0.047979385
-0.07760627 -0.12567492 -0.08155493 0.043947574 -0.04757721 -0.11337288 -0.052699167 -0.0076778987
-0.020968126 0.053231217 0.045356967 0.029082842 0.07269627 -0.024969468 -0.004655045 -0.05435817
-0.03444786 0.012359564 -0.0432691 -0.035477586 0.008224686 0.00028813307 -0.01508289 -0.06757159
-0.042865574 0.023036208 -0.0751772 -0.106351726 -0.022310663 0.007684514 0.074624985 0.10904573
0.019843234 0.09199269 0.07562414 0.034557085 0.045225374 -0.018179897 -0.031025639 -0.039868273
-0.015361661 -0.049219906 -0.119956896 -0.03640725 0.019788874 0.015953444 -0.020021902 -0.044510256
0.042540327 0.017997203 -0.03595627 -0.07177612 -0.053011343 0.025511121 0.025680128 0.05599972
-0.062934026 0.013198368 -0.019326579 -0.025219092 0.047327254 0.0059018848 0.06303927 0.07093834
-0.015311685 -0.055744234 0.018551873 0.034575604 -0.012036715 0.008526608 -0.0071275663 -0.023344854
-0.058676787 -0.113442 -0.043523565 0.10632638 0.031543158 -0.007657941 -0.036756787 0.057750743
0.024615193 0.050464094 0.018557884 -0.0049939454 -0.06256353 -0.023114432 0.039102256 0.043763652
00000000: 4ad2 6d3d f5a3 ee3b 9c94 7d3d bf37 02bc
00000010: 9fa2 9d3c 1804 4eba c70c e1bc 2be8 bd3d
00000020: 5b5f 313c ea86 b4bc c59a ad3c 35c4 aebc
00000030: a1da 16bd 2dbd a53d dde2 72bd ad99 50bd
00000040: e4d4 5d3c 4d5e e23c bd1a 65bd d5e5 cfbd
00000050: b5f2 e63b 5fd7 eebb 8997 493c 1aec 97bc
00000060: 4125 113d 5ede b73b 273d a8bd 45cf 003c
00000070: 11cd 09bd 7ec5 72bd 0b0e 00bd 43cc ccbd
00000080: 73ab 6cbc 85fa 983c 7781 99bc be82 85bc
00000090: 8b18 e23b 7b71 4bbd d4c8 633c fb1f 8cbc
000000a0: 9be7 e03c 2a70 f43b d29c 863c f79b f23d
000000b0: 4657 c4bd dc31 13bb 0431 b4bd dae3 a1bd
000000c0: e9ea d7bd f3d1 bebd 11df 3cbd 9fc0 c53c
000000d0: e2f7 373d 798a e03b cb56 553c e033 4f3d
000000e0: 91b4 603d a6f0 843d bae4 703d e3db c3bc
000000f0: fb60 893d d0a9 ce3d d78e 3a3d 2f9c 133c
00000100: 2fe7 383c f329 8dbd 80d5 8bbc 2ec7 b0bc
00000110: 59f7 8bbd 18ad b8bd 6c52 8dbd 1d34 c9bd
00000120: 541b 933c 3e9c 5bbb 2d11 7d3c b285 873d
00000130: 0685 0f3d 3e67 4d3d ecb8 3f3d 730c 4f3d
00000140: 0f20 05bd a11e d53c 584b 6e3d 5f4d 7b3d
00000150: 3729 013c cbcc e83c d18f 9bbc 5631 c2bd
00000160: 1c8d e83b 1ca3 153d 5a07 4e3c 67cb 183d
00000170: bbb0 9e3b 8740 a73c f95c 48bd 4091 033d
00000180: eedf 093d 30e1 5abc 423c ccbc 9b11 d8bb
00000190: 7bdb f93c 5df4 f3bb e857 f0bc 9ec7 023d
000001a0: 7968 b3bc c4f0 8bbc 1868 d13c 0ce1 ae3d
000001b0: 8188 b3bc 51f3 e53d b53e bcbd 1170 8f3d
000001c0: 1347 343d 79b3 193d a15c 4e3d 5106 b7bc
000001d0: 0629 c33c eec0 63bc ff37 1bbd 888e f2bc
000001e0: 08db bb3a b12b c23c aefd b2bc 1746 1c3d
000001f0: 2d9d 543d 28bf 873b c975 b43c 1f54 babc
00000200: a146 d5bc adbf 99bb 935e 6fbb 0820 54bd
00000210: 344f 0f3d 0d96 c33b 5359 853c 193a 30bd
00000220: 2701 1c3c 70a4 42bd 9fb9 6c3d 123a ba3c
00000230: 3d13 903b 8227 1cbc 1d49 b53d 7ddb 603c
00000240: 0568 6fbd 2152 cd3b ffed 853c f2ff 9d3b
00000250: 1da6 08bd 77f0 c1bc 789d 00bd bd77 a03c
00000260: ac40 143b 52da 803c ac77 6bbb a4a3 603d
00000270: 2609 4e3d b5f2 953b 1aee 2f3d 9e30 fe3c
00000280: b0c3 edbc 619f 0dbb 1062 083c e099 01bd
00000290: d159 92bd 1326 153c e740 9f3d 0886 44bd
000002a0: 09f0 9ebd edb0 00be 4506 a7bd 5f02 343d
000002b0: 52e0 42bd 0a30 e8bd 15db 57bd e296 fbbb
000002c0: 59c5 abbc fa08 5a3d 3ac8 393d 243f ee3c
000002d0: c8e1 943d c58c ccbc 5989 98bb aca6 5ebd
000002e0: 3319 0dbd c57f 4a3c f13a 31bd f250 11bd
000002f0: d5c0 063c 9110 9739 3a1e 77bc f962 8abd
00000300: d093 2fbd 6eb6 bc3c 81f6 99bd efce d9bd
00000310: dac4 b6bc 60ce fb3b fcd4 983d 5e53 df3d
00000320: 478e a23c aa66 bc3d d4e0 9a3d bb8b 0d3d
00000330: 3e3e 393d 02ee 94bc 7b29 febc ea4c 23bd
00000340: 7aaf 7bbc d09a 49bd f6ab f5bd c51f 15bd
00000350: 471c a23c ccb0 823c f904 a4bc 6350 36bd
00000360: c43e 2e3d df6e 933c e246 13bd 5cff 92bd
00000370: 6c22 59bd b3fc d03c 225f d23c f65f 653d
00000380: 8ee3 80bd f83d 583c c652 9ebc 4598 cebc
00000390: 39da 413d 9964 c13b bc1a 813d 1f48 913d
000003a0: dddd 7abc 1154 64bd 19fa 973c 269f 0d3d
000003b0: a435 45bc 30b3 0b3c 5c8e e9bb b53d bfbc
000003c0: 1257 70bd 4754 e8bd c445 32bd a5c1 d93d
000003d0: 6633 013d 77ef fabb 498e 16bd 0b8c 6c3d
000003e0: cda5 c93c 70b3 4e3d b406 983c 40a4 a3bb
000003f0: 4f21 80bd 7a5a bdbc b029 203d 8441 333d

bnorm.weight f4 [40]
1.0419924 1.0470803 1.0509988 1.0215003 1.033754 1.0500286 1.0473037 1.0741348
1.049099 1.0302552 1.0374646 1.024366 1.0344198 1.0494068 1.0541117 1.0574943
1.039054 1.0324689 1.0061039 1.0217005 1.024423 1.1009433 1.026968 1.0388832
1.0400971 1.0383235 1.0407517 1.0134963 1.0505563 1.0832837 1.0441839 1.0453744
1.0187131 1.06221 1.0259414 1.0485331 1.0462643 1.035493 1.0370572 1.0281137
00000000: 0260 853f ba06 863f 2187 863f 86c0 823f
00000010: 0d52 843f 5667 863f 0c0e 863f 407d 893f
00000020: e048 863f 67df 833f a4cb 843f 6d1e 833f
00000030: de67 843f f652 863f 22ed 863f f95b 873f
00000040: b9ff 843f f127 843f 03c8 803f 15c7 823f
00000050: 4b20 833f b6eb 8c3f b073 833f 20fa 843f
00000060: e721 853f c9e7 843f 5a37 853f 3fba 813f
00000070: a178 863f 0aa9 8a3f d1a7 853f d4ce 853f
00000080: 3165 823f 7ff6 873f 0c52 833f 5536 863f
00000090: fdeb 853f 098b 843f 4abe 843f 3b99 833f

bnorm.bias f4 [40]
-0.041790955 0.06863446 -0.057064854 0.048523355 0.14040302 0.10007907 0.04666919 -0.08184426
0.10854808 -0.15968047 0.033200443 -0.115287594 -0.08236303 0.10382521 0.038391054 0.031741492
0.09425374 0.0652545 -0.06914061 0.1067887 0.1543015 0.03911091 0.013488916 0.0018970269
0.012293174 0.024137495 0.18131179 0.016568761 -0.10488602 0.106500104 -0.13421394 0.14995873
0.18124409 0.11999824 0.046552368 0.034413483 -0.017760227 0.08965957 -0.13662533 0.105935626
00000000: fe2c 2bbd 3990 8c3d d6bc 69bd 6dc0 463d
00000010: cfc5 0f3e 41f6 cc3d 3128 3f3d f79d a7bd
00000020: 754e de3d 4783 23be 30fd 073d e71b ecbd
00000030: f3ad a8bd 50a2 d43d f03f 1d3d 5e03 023d
00000040: 1b08 c13d 27a4 853d 9899 8dbd 09b4 da3d
00000050: 3601 1e3e c332 203d 9d00 5d3c a9a5 f83a
00000060: 4f69 493c ffbb c53c cca9 393e 36bb 873c
00000070: 7bce d6bd ba1c da3d 616f 09be c88e 193e
00000080: 0d98 393e a3c1 f53d b2ad 3e3d 27f5 0c3d
00000090: e57d 91bc 709f b73d 83e7 0bbe c7f4 d83d

bnorm.running_mean f4 [40]
0.060572475 0.015022142 0.037063636 -0.032949932 -0.047805868 0.052130755 -0.017753389 0.0013334164
-0.0001750939 -0.019909427 0.04901936 -0.0059567792 0.02007126 0.024675367 -0.011418322 0.014679597
-0.015489405 0.03750782 -0.05036786 0.0081436355 0.0047014663 0.0005913896 0.033296414 0.03531511
-0.00019614061 0.0042528836 0.0040007127 -0.08406004 7.875518e-05 0.0025610595 0.018049862 -0.058753368
-0.01832892 -0.06009928 -0.0004669695 0.011430674 0.0034695477 0.010267907 0.032487486 0.025185913
00000000: d81a 783d 6e1f 763c 0ad0 173d 82f6 06bd
00000010: 16d0 43bd 0f87 553d 8e6f 91bc 08c6 ae3a
00000020: 6999 37b9 1819 a3bc 86c8 483d 1631 c3bb
00000030: 7c6c a43c ff23 ca3c ea13 3bbc b182 703c
00000040: 46c7 7dbc cda1 193d 874e 4ebd e26c 053c
00000050: c20e 9a3b 7c07 1b3a d261 083d 94a6 103d
00000060: 18ab 4db9 c65b 8b3b 6918 833b ac27 acbd
00000070: 5e29 a538 73d7 273b 4edd 933c 5fa7 70bd
00000080: 8826 96bc aa2a 76bd 96d3 f4b9 b947 3b3c
00000090: 5a61 633b b93a 283c 9911 053d b052 ce3c

bnorm.running_var f4 [40]
0.6552639 0.4543937 0.4881376 0.3075721 0.799196 0.587175 0.4725787 0.19879025
0.3462773 1.0532781 0.6951623 0.43941426 0.35935572 0.7663602 0.35828122 0.70438
0.395175 0.7873452 0.4506109 0.30864224 0.3169757 0.31030196 0.32029808 0.433624
0.44331166 0.44692156 0.452152 0.8230163 0.27676648 0.29905275 0.6616514 0.7582827
0.63903064 0.45296544 0.5080487 0.45282668 0.33507526 0.87475276 0.4301645 0.69640136
00000000: 60bf 273f 4ba6 e83e 2ced f93e 177a 9d3e
00000010: 1c98 4c3f 1a51 163f d6f5 f13e ac8f 4b3e
00000020: 424b b13e d1d1 863f 28f6 313f e8fa e03e
00000030: 79fd b73e 2f30 443f a370 b73e 3f52 343f
00000040: 6154 ca3e 748f 493f 79b6 e63e 5b06 9e3e
00000050: a44a a23e e6df 9e3e 1cfe a33e f703 de3e
00000060: bff9 e23e e7d2 e43e 7880 e73e 32b1 523f
00000070: 56b4 8d3e 711d 993e fc61 293f d11e 423f
00000080: 8397 233f 16eb e73e 7b0f 023f e6d8 e73e
00000090: fc8e ab3e ccef 5f3f 853e dc3e 5c47 323f

final_layer.conv_classifier.weight f4 [4, 40, 69, 1]
-0.0041600834 0.01126448 -0.0589838 0.033412077 0.037301697 0.028855229 0.035517804 0.113420464
0.07991442 0.015894325 0.014335522 0.011452009 0.0148716755 -0.023430916 -0.0021354295 -0.026255107
0.00070205826 0.015579717 0.014873787 -0.028419355 0.01652241 0.009278338 0.022943381 0.061566535
0.012219886 -0.016851269 -0.0024127564 0.024961911 0.00810279 0.049721356 0.0066587725 -0.049781926
-0.0015783455 0.00026308067 0.048539113 0.03182657 0.0896471 0.01820711 0.008911235 0.03462332
0.053150423 0.025947485 0.017852737 0.002853838 0.0040645893 -0.020714603 -0.011514679 0.03659597
0.06797564 0.0070867683 0.012629112 0.044649802 -0.017498367 -0.043301236 -0.017037576 -0.009876077
-0.041948386 -0.0023139082 0.016777018 0.060564272 -0.0041811066 -0.016696312 -0.0042926567 0.05063003
0.041078374 0.04365925 -0.00029783158 0.055914346 -0.012959726 -6.3889725e-05 -0.01770705 -0.018619416
-0.015664741 0.033582952 0.044229265 0.038962845 0.005048733 -0.016594538 -0.032545168 -0.067135744
-0.120874554 -0.08135435 -0.022634279 -0.047344558 -0.000969195 -0.009019378 -0.03566729 -0.033116978
0.008151533 -0.025212964 0.03206899 0.009029928 0.063822344 0.04152274 0.053766094 0.0433473
-0.010125047 0.0013958069 0.033245765 -0.0027142495 0.017697457 0.0050570453 -0.026472356 0.012465087
0.025487758 0.046271857 -0.0145831285 -0.012892835 0.008109618 -0.052622218 -0.059716944 -0.009521651
0.016568657 0.024916882 0.049990848 0.026871705 -0.011556109 -0.0076059625 -0.044623356 -0.011342298
0.013831126 0.020907553 0.0920257 0.048090946 0.08701245 0.088708505 0.06856286 0.049455855
0.008645239 -0.012525063 0.042456515 0.032320738 0.009183479 0.01988905 -0.029536115 -0.046977777
0.011785304 0.025646219 -0.013500754 -0.0063388185 -0.0032346353 -0.06978579 -0.06997201 -0.08254684
-0.033595715 -0.045173813 -0.010936554 -0.0023248163 0.014996492 0.0493477 0.0038497313 0.05746316
0.061242186 0.05052828 0.04004008 0.005249435 0.058762796 0.109177 0.024495903 0.03133794
0.062056687 0.043773584 0.031252585 0.012844512 0.058907673 -0.018488917 -0.013310668 -0.026253678
0.023211526 0.067047484 0.1299718 0.1434974 0.07151648 0.05042509 0.07411189 0.024372535
0.014053599 -0.012688912 0.032462776 -0.030424982 -0.01277933 0.0036491496 -0.018919969 -0.009716194
0.0011047554 0.02117988 0.011184578 0.014604612 0.009768251 0.038696505 0.04062845 -0.03697015
0.023127533 -0.032830678 -0.044741448 0.0020586983 -0.015124542 -0.048663232 -0.054625947 -0.07095471
-0.051769037 -0.07966787 -0.06405945 -0.015137702 -0.027054291 -0.012906801 0.029646864 -0.02449475
0.032131456 -0.049984988 -0.038568616 -0.046128895 -0.064392686 0.022309884 0.04445157 0.013898374
0.0052382313 0.03361694 -0.06269453 -0.06198685 -0.036069784 -0.029497592 -0.08337346 -0.04404379
-0.0785024 -0.086990565 -0.04422023 -0.030681925 -0.08476564 -0.06260502 -0.06716377 -0.09757425
-0.09741115 -0.022821689 -0.005263221 0.013768056 0.05192975 0.06733582 0.021235442 0.017497296
0.0269257 0.016537648 0.009812836 0.028595943 0.021704262 0.029842513 0.037320517 0.023810262
-0.0030604324 0.015971249 0.025090106 0.01121567 -0.0062936386 0.08460298 0.03307933 0.0501552
00000000: 4f51 88bb a78e 383c ff98 71bd 1adb 083d
00000010: aac9 183d cd61 ec3c 1e7b 113d fd48 e83d
00000020: 2caa a33d d134 823c 8adf 6a3c 35a1 3b3c
00000030: 54a8 733c 31f2 bfbc 90f2 0bbb f314 d7bc
00000040: 550a 383a 1242 7f3c 2fb1 733c b5cf e8bc
00000050: 015a 873c 2c04 183c c2f3 bb3c 312d 7c3d
00000060: eb35 483c ac0b 8abc 561f 1ebb ec7c cc3c
00000070: 91c1 043c 9fa8 4b3d d531 da3b 22e8 4bbd
00000080: 7de0 ceba 17ee 8939 f3d0 463d 945c 023d
00000090: e698 b73d 1427 953c 6e00 123c 2fd1 0d3d
000000a0: 42b4 593d d28f d43c e73f 923c 7507 3b3b
000000b0: 3f30 853b acb1 a9bc 10a8 3cbc a8e5 153d
000000c0: d036 8b3d 1f38 e83b 56ea 4e3c b6e2 363d
000000d0: bc58 8fbc a35c 31bd 6392 8bbc 45cf 21bc
000000e0: 12d2 2bbd f0a4 17bb f56f 893c 3e12 783d
000000f0: aa01 89bb b4c6 88bc 6aa9 8cbb 6f61 4f3d
00000100: cc41 283d 0bd4 323d 4726 9cb9 7106 653d
00000110: 0855 54bc 89fc 85b8 600e 91bc bf87 98bc
00000120: 5853 80bc 478e 093d bf29 353d 8197 1f3d
00000130: d86f a53b 45f1 87bc 154e 05bd 777e 89bd
00000140: 148d f7bd 1c9d a6bd 866b b9bc 5eec 41bd
00000150: 9311 7eba 03c6 13bc dd17 12bd aba5 07bd
00000160: 028e 053c 6b8b cebc c65a 033d 43f2 133c
00000170: 4ab5 823d c013 2a3d d639 5c3d f08c 313d
00000180: 86e3 25bc 82f3 b63a b62c 083d 8de1 31bb
00000190: 42fa 903c 92b5 a53b 8edc d8bc 5d3a 4c3c
000001a0: b4cb d03c 8f87 3d3d 13ee 6ebc 783c 53bc
000001b0: 34de 043c 658a 57bd c199 74bd b300 1cbc
000001c0: feba 873c 7d1e cc3c 34c3 4c3d 0d22 dc3c
000001d0: d655 3dbc 703b f9bb fbc6 36bd 0cd5 39bc
000001e0: f29b 623c 5146 ab3c f877 bc3d 03fb 443d
000001f0: 9533 b23d ceac b53d af6a 8c3d 3992 4a3d
00000200: c3a4 0d3c ec35 4dbc e2e6 2d3d c062 043d
00000210: 4d76 163c 5cee a23c b9f5 f1bc c56b 40bd
00000220: 2617 413c 0518 d23c 4432 5dbc ddb5 cfbb
00000230: 2dfc 53bb daeb 8ebd 7c4d 8fbd 510e a9bd
00000240: a99b 09bd 2d08 39bd 3b2f 33bc f25b 18bb
00000250: d9b3 753c d020 4a3d c64b 7c3b 7e5e 6b3d
00000260: 16d9 7a3d bef6 4e3d 1101 243d 7403 ac3b
00000270: 42b1 703d 3198 df3d a2ab c83c 365c 003d
00000280: 272f 7e3d ee4b 333d b602 003d ca71 523c
00000290: 2c49 713d 1276 97bc fd14 5abc f411 d7bc
000002a0: 1926 be3c 3150 893d 5417 053e fcf0 123e
000002b0: 3b77 923d 8a8a 4e3d f9c7 973d e9a8 c73c
000002c0: 1141 663c 28e5 4fbc b0f7 043d d03d f9bc
000002d0: 6560 51bc 9226 6f3b 0dfe 9abc ac30 1fbc
000002e0: 71cd 903a 6d81 ad3c 853f 373c 2f48 6f3c
000002f0: 040b 203c 3a80 1e3d 056a 263d 036e 17bd
00000300: f475 bd3c 7679 06bd cf42 37bd 3aeb 063b
00000310: edcc 77bc 1953 47bd 75bf 5fbd b450 91bd
00000320: c50b 54bd e928 a3bd 9a31 83bd 2004 78bc
00000330: f6a0 ddbc 0c77 53bc fbdd f23c 37a9 c8bc
00000340: 469c 033d 0fbd 4cbd 20fa 1dbd a7f1 3cbd
00000350: 50e0 83bd 38c3 b63c d912 363d 01b6 633c
00000360: 78a5 ab3b ebb1 093d fd65 80bd ece5 7dbd
00000370: e9bd 13bd efa4 f1bc b4bf aabd 4367 34bd
00000380: dec5 a0bd 1c28 b2bd 4620 35bd a958 fbbc
00000390: 9c99 adbd 1037 80bd 298d 89bd 02d5 c7bd
000003a0: 7f7f c7bd 8df4 babc 1977 acbb 6a93 613c
000003b0: 4ab4 543d 5de7 893d f3f5 ad3c 7d56 8f3c
000003c0: 4993 dc3c f679 873c 04c6 203c 0a42 ea3c
000003d0: 23cd b13c 4978 f43c 66dd 183d bd0d c33c
000003e0: 8991 48bb 23d6 823c c489 cd3c eec1 373c
000003f0: de3a cebb 5444 ad3d 317e 073d 8a6f 4d3d

final_layer.conv_classifier.bias f4 [4]
0.010600075 0.0016276969 -0.03054198 0.016692441
00000000: f0ab 2d3c 7258 d53a 2d33 fabc 96be 883c
