result_eegnetv4_cv5/fold_1/best_model_fold1.pth (torch, 22648 bytes, 18 tensors)

conv_temporal.weight f4 [8, 1, 1, 64]
00000000: 1e6f 7e3d 833a 81bc b541 c9bd 3f5c c33c
00000010: d054 98bc 8fb8 d13c 252d 6bbd ef36 cb3d
00000020: 5442 6b3d 0398 9f3b 13ae 81bd 9a49 cebd
00000030: 902e b2bd 7b3d 5c3d 1740 aebd 75d9 4d3d
00000040: 2c66 5f3d 347c 8b3c c2aa aa3c 9c3d c83d
00000050: 2227 433c 310e 2ebd 9f30 d6bc 2aaf 823c
00000060: 4c6f 063d 664a dd3d 52f8 723d 7d56 0238
00000070: 7be9 3ebd f058 6d3d dfc4 1abd ba5b e2bd
00000080: 80af 59bd 7b09 433d 2437 98bd 5343 b1bb
00000090: 5d60 4a3c 1425 3abd 25e8 1abc 9dc6 13be
000000a0: 70d6 c0bd 4f84 8abd 278e fbbc d69d b33d
000000b0: b816 b4bc f1a6 b43d f8f0 953d 3784 e4bc
000000c0: 134b 2bbd 7594 47bd aada 2fbd 1cff 383b
000000d0: cb9e 2fbd 08db a23d d907 b53c 830a a13d
000000e0: cd6e 00be d8f4 87bd 7afd a5bd 5e99 d3bd
000000f0: cd34 d0bd 66a9 ccbd 22ec 93bd 2819 aa3d
00000100: 8786 db3d 5632 173e 7e61 c93d 157c c2bd
00000110: be6b b73d 55b9 f93d 3f74 993c 9c90 ccbc
00000120: 22cb c33c 7749 1c3d c254 9a3d d983 d03c
00000130: fcbf bd3d 90fe 63bc 7f2c 8e3d 75f8 7c3d
00000140: cf6f 553c f3ed 8f3d 3196 ea3c b65c 7b3d
00000150: ba7b be3d d7ef c23d 77d4 3d3d 08af 693d
00000160: 9957 ef3d 120c 093e 5797 a53d c8c0 633b
00000170: 2216 de3c d7c5 253b 1cb3 013e c4c6 40bd
00000180: 5db8 a13d 1489 753d 03c6 693d c15d 21bd
00000190: 2571 ad3d e382 aebc e1e6 e73d 259e 02bd
000001a0: 1cbe a13d 3d2a f13d ede1 b13d 2277 183d
000001b0: e0d3 9e3d 399b 393d 711f aa3d 772c 073d
000001c0: ef3a 2f3d afd7 cfbc e45b 9f3d 99cb 9dbc
000001d0: 87c1 3fbd f11c 8b3d afce e4bc d574 a8bc
000001e0: ded3 743d 83ed 593d 2dfd 0f3d ab06 8fbc
000001f0: 1b18 60bc 8020 413d 2ba2 ab3d ea0f 0c3e
00000200: 53ea 823d b67a a53d cfbc 1fbd 1eea cc3d
00000210: e77c c83c a5f7 bf3d c166 f13d 3277 313c
00000220: 48dc 73bd 684b 573d a261 8abd eeb2 0d3c
00000230: 6151 d33d 9972 e23d 8e50 4b3d f3c3 a2bc
00000240: cd18 c2bd fd50 2f3b f858 afbd 0326 ec3c
00000250: a5eb bc3d b179 ac3d cb35 843c d060 f83c
00000260: d33f a7bc f2cf 45bd e716 573d c650 f83d
00000270: bf68 3a3e 53fd d13d 08cb 0a3e cc65 7f3d
00000280: f5f4 a13c 2862 a5bd 79b6 45bd 8eab 99bc
00000290: 082a 7ebc 15fb 963c 2f9a c9bd cf9a eebc
000002a0: d59c 08bd d7f1 bfbd a31d 203c 6e75 153d
000002b0: 7164 e63d 5184 603d f230 713d 7714 75bd
000002c0: 7593 253d 1808 203d 480d 75bd c4ec 7e3d
000002d0: 00d3 153e 3685 963c 65b1 07bd 4f9b a93a
000002e0: f7b1 23be 0949 1cbd 7f23 2b3d 3340 c0bd
000002f0: a591 a43d 9ff3 773d 55ae 99bd 790e 5bbc
00000300: 9c37 16be 26b2 6c3d ae92 be3d 6cbb f53d
00000310: 5a0d 00bd 3d1a 313d 0df3 43bd 717b dfbd
00000320: 3818 d2bd 32b1 e6bc 1f65 d7bd b89f 613d
00000330: 3b92 133e 3b65 d63c e588 bf3d 6650 dbbd
00000340: 0feb 9fbc d948 243c a10d af3b 10a2 a53c
00000350: 6b75 6cbd 9f60 a73c 8ab6 a2bc 8217 7dbc
00000360: 351a 9d3d 828f 04bd 9ac4 df3d 3543 75bb
00000370: 4480 983d d744 05bd a45c 98bd 35d3 36be
00000380: 5a4c 0fbe f74d 623c 082b fe3c dae7 af3c
00000390: 761e 753d 5c85 fb3d 7f9c 37bb 6635 2abd
000003a0: 80c0 d4bc 71fb 833d b531 203d c7b4 b3bc
000003b0: d5cc b33d 86c2 78bc d581 6ebd 0f71 903b
000003c0: 950c d6bd 2233 33bd 79b6 d9bc 420c d13d
000003d0: d20e 0fbc c4c7 7abd 5094 90bc ea07 113d
000003e0: d2cf 9fbd 44e4 153d 8879 b23d 5e0d 253c
000003f0: ab8d f33b 04dd b03c c763 06bc 6e96 06be
0.06211769 -0.01577497 -0.09826986 0.023847697 -0.01859513 0.0256007 -0.0574161 0.09922587
0.057436302 0.004870416 -0.0633203 -0.10072632 -0.08700287 0.05376957 -0.08508318 0.05025621
0.054540798 0.017026998 0.020833377 0.09777376 0.011911185 -0.042494003 -0.026146231 0.015952665
0.032820985 0.10805206 0.059318848 3.1074964e-05 -0.046609383 0.057946146 -0.037785407 -0.11052652
-0.053145885 0.047616463 -0.07432392 -0.005409637 0.012352076 -0.045445517 -0.009454762 -0.14431234
-0.09415901 -0.06763517 -0.030707432 0.08770339 -0.02198349 0.08820904 0.07321352 -0.027895076
-0.041819643 -0.048725564 -0.042933144 0.002822823 -0.042876046 0.07951933 0.022098469 0.07863333
-0.12542267 -0.06638497 -0.081049874 -0.10331987 -0.10166321 -0.09993248 -0.07222773 0.083055794
0.107190184 0.14765295 0.09833048 -0.09496323 0.08956097 0.121935524 0.018732188 -0.024971299
0.023900572 0.038156 0.075356975 0.025453495 0.09265134 -0.013915673 0.06942081 0.061760385
0.0130271455 0.07027807 0.02863607 0.061367713 0.09300943 0.09518402 0.0463452 0.05705169
0.1168663 0.1338351 0.080855064 0.0034752358 0.027110163 0.0025294924 0.12665981 -0.047064558
0.07896493 0.05994518 0.057073604 -0.03939605 0.08468846 -0.021302646 0.113233335 -0.0318891
0.078975886 0.117756344 0.0868567 0.03722299 0.07755256 0.045314047 0.08306778 0.03300139
0.042780813 -0.0253714 0.077811986 -0.019262122 -0.04681542 0.067926295 -0.027930586 -0.020563522
0.059772365 0.053205024 0.035153557 -0.017459234 -0.013677622 0.047150135 0.083805405 0.13677946
0.0639235 0.08080046 -0.03899842 0.10005592 0.02447362 0.09373406 0.11787177 0.010831641
-0.05953625 0.052562147 -0.06756903 0.008648617 0.10318256 0.11057014 0.04963737 -0.019868826
-0.094773866 0.0026751154 -0.08561891 0.02882672 0.09224633 0.08421648 0.016138932 0.030319601
-0.020416176 -0.048294015 0.052512076 0.12124781 0.1820402 0.10253396 0.13554013 0.06235294
0.019770125 -0.080753624 -0.048269723 -0.018758561 -0.015512951 0.018430272 -0.09843861 -0.029126553
-0.03335269 -0.09372299 0.009772691 0.036488943 0.112496264 0.054813687 0.05888457 -0.05983397
0.04042383 0.03907022 -0.05982712 0.062237516 0.14631271 0.018374067 -0.03312816 0.0012939962
-0.15985857 -0.03815559 0.0417819 -0.09387245 0.08035592 0.06053507 -0.07503954 -0.01337015
-0.14669651 0.057787083 0.09305321 0.119986385 -0.031262733 0.043237913 -0.047839213 -0.109122165
-0.102585256 -0.028160665 -0.10517334 0.05508396 0.14411251 0.026171317 0.093522824 -0.10708694
-0.019521264 0.010027134 0.005342201 0.020218879 -0.057729166 0.020431815 -0.019862432 -0.015447499
0.07671014 -0.032363422 0.10926171 -0.0037424092 0.0744634 -0.032536354 -0.07439545 -0.17854007
-0.1399397 0.013812534 0.031026378 0.02147286 0.059843503 0.12281296 -0.0028016863 -0.04155483
-0.025970697 0.06444443 0.039109904 -0.021936787 0.08779303 -0.015183097 -0.058229286 0.004408009
-0.104516186 -0.043749936 -0.026576268 0.10207416 -0.008731561 -0.061225668 -0.017648846 0.035407938
-0.078033105 0.036594644 0.087145865 0.010073988 0.0074326596 0.021589763 -0.0082025 -0.13143322

bnorm_temporal.weight f4 [8]
00000000: 1daa a43f 58e9 9c3f f663 b43f 0e6d c23f
00000010: e2e2 8c3f 7364 743f b4c3 943f e289 7c3f
1.2864414 1.2258711 1.4093006 1.5189531 1.1006739 0.95465773 1.1622224 0.9864789

bnorm_temporal.bias f4 [8]
00000000: 35a7 c3bb ca55 7c3c b580 96bc e18d 38bc
00000010: 525a 04bd b905 39bd 43e4 173c 5864 76bc
-0.0059708604 0.015401313 -0.01837192 -0.011264295 -0.0323127 -0.045171473 0.00927073 -0.015038572

bnorm_temporal.running_mean f4 [8]
00000000: 4263 0a39 746f a6b9 1228 15b9 2f64 7e38
00000010: ea6c 0f39 e3ad d636 2fc2 fc38 d9d4 a939
0.00013197682 -0.00031745026 -0.00014224675 6.0651622e-05 0.00013678116 6.39794e-06 0.00012052466 0.00032392776

bnorm_temporal.running_var f4 [8]
00000000: 4800 ea3e 01e4 3f3e 34be 0b3f f7e3 7b3e
00000010: 8c87 673f 21f1 553f 20b8 4e3f 8ff8 e63e
0.4570334 0.1873932 0.545871 0.2459868 0.90441203 0.8357106 0.807497 0.4511151

conv_spatial.weight f4 [16, 1, 22, 1]
00000000: 0b72 17be 396e 6e3d a4bd ed3d 5432 893d
00000010: 1bdb 27bd 6976 05bd 7b77 c13c 1a72 16bd
00000020: c0c4 4b3e 215a ee3d e1fb c2bd 0fa9 563c
00000030: 1e29 9a3d 135d 10be ff81 aebd 4d8d 94ba
00000040: 3ca9 c3bb 6f32 8abc 7b96 2dbd ec79 55bc
00000050: cb96 973d 15d2 f2bb e8f4 1cbe 35ec 4b3d
00000060: aef9 cf3c 5fb9 38bd f5f2 aa3c b36d 913d
00000070: d80b a73b bae4 4cbe 21fa 35bc d435 b73d
00000080: 5446 7c3d 7e49 93bd 0b34 2d3c 0eb7 063e
00000090: cbeb 3b3d 154e babc c87f c1bd 9f7d 653d
000000a0: 0b6c e6bc 9326 86bd 123f 533d 9ca0 d2bd
000000b0: 606c e73d b54a 8f3d e110 c43d 398a cabd
000000c0: 7211 88bd fd91 3f3d 56a4 c1bc 41d0 bf3d
000000d0: b810 b2bd 159a f4bd dd3f 193e 6983 8a3c
000000e0: 7a12 f3bd 509a 953d 5ed7 843d 8a1c 6d3d
000000f0: 434d c5bc f856 553d 1083 dabd 88f6 0cbd
00000100: a38a b03c d600 cebd 184b 79bd 910d 61bd
00000110: 37d4 c3bd 0845 04bd 76f6 fcbb d446 ef3d
00000120: 4df8 32bd b0ad 9fbc c536 d63d 2bc4 16be
00000130: 5fee 62bd 9363 88bd c594 823c 7600 433e
00000140: 2be3 e63d d2de 903c 7249 913d 274a 663c
00000150: 0c54 763d ca2d d7bc 058e 46bd 92f3 67bd
00000160: 7fed 72bd 72fd cebd cd12 013c 78de 123d
00000170: 1665 603d 3f2a 853d e373 353d 6afd 10be
00000180: df45 ea3c 42a1 99bc 300d 323e 7dd2 ba3d
00000190: 592b 20be cbc6 a9bd 80bc b2bc 845f 2c3e
000001a0: eb7e 20bd 067b 98bd 4805 4c3d b2fa 4cbd
000001b0: 4218 41bc 52a6 293d f693 00bd 8b64 883d
000001c0: ee1a 4fbd 78eb 92bd 21cd 85bd e02a 36be
000001d0: 5041 71bd f0e4 603d 164a 13bd 8baf 50bd
000001e0: 5466 d23d 2d92 ff3d 789b f6bc 5f44 c33c
000001f0: 8353 95bc c803 c3bd 7efb 273e 7548 813e
00000200: 4b6f cfbc 801e 843d 0732 88bd cb2c 8cbd
00000210: 1db7 b3bd efdc d13c 0f03 19bc 7153 dd3c
00000220: 56ed efbd f869 2f3c 0085 07be e26e c63d
00000230: d09d 163d 5ecd 5b3d cc6f 8c3c 21d2 243d
00000240: a424 b3bd 91b3 fe3d 60e2 1cbd 58c6 f0bc
00000250: 7555 c23d cd7a 353e 671f 583d 27d2 e4bc
00000260: a2c8 f6bd d78d 1e3c 0997 91bb 3e9e bb3d
00000270: d05e 3ebd ed11 f03d f859 44bb 3cdc 6fbd
00000280: f48e f03d 7331 75be 20df 9abd de5b c53d
00000290: c714 75bd 536d a63d 5956 2b3c 67a5 18be
000002a0: 07fa 073d b224 ae3d 7544 283d ddc2 babd
000002b0: 25cf 8c3d b5c6 43bd 0008 41bb 4591 0b3d
000002c0: 48bc 68bd a527 4c3d 0027 023d 12d2 e3bd
000002d0: 6d70 2d3d afbb b1bd 635d 673c 129a 66bd
000002e0: 6589 c6bd cb35 8c3d 79de 0b3e 3747 0abd
000002f0: 2590 59bc e918 883c 2837 6abd d801 1e3e
00000300: c64a 353e 6a6a 10be 5976 9abd 0240 bb3d
00000310: 36c3 e8bc 1fe6 17bd 4eec d2bd e833 6e3c
00000320: b6ea 0e3c c488 b6bd e9bc b6bb 36b4 d6bd
00000330: 58c5 9dbd 9c6d 133d 7fed 9b3d b37a 463c
00000340: 277b 933c 67e5 e03d a8f6 50bd 09b1 ff3d
00000350: b957 573d 3fd4 123e b6ba a6bb 9560 1c3d
00000360: 24bc 0cbd 903f fdbc 3c5f a33d c86a d4bc
00000370: db59 853c 4228 873d f15d 22bd 38a6 d5bc
00000380: e29b 413a adf4 aa3d 270a d73d d0b2 c93c
00000390: 88bc f9bc 0b60 1b3e d761 a93d 86ce 1ebd
000003a0: b9f8 0fbe 3722 36bd 0e78 22be ad58 f63c
000003b0: 7fbe 21bd 89af 6cbc 3f65 debb d68d 29bd
000003c0: e397 e93d 1bba 793c 5fa2 a43d 962d 183d
000003d0: 5561 46bc 8f4c 16bd 90f3 ee3d a811 1a3b
000003e0: 6210 05be 5ecb e1bd 4d78 9bbd aa97 04bc
000003f0: bf53 d03d 3fff 0b3d 16c9 80bd c9c4 11bc
-0.14789598 0.058210585 0.11608437 0.066990525 -0.04098044 -0.032583628 0.023616543 -0.03672991
0.19899273 0.116382845 -0.09520698 0.01310183 0.07527374 -0.14098005 -0.085208885 -0.0011333615
-0.005971102 -0.016869752 -0.042379837 -0.013029557 0.07401808 -0.0074102976 -0.153278 0.04978581
0.025387611 -0.04509866 0.020867804 0.071010016 0.0050978474 -0.20009127 -0.011106999 0.08945814
0.061590508 -0.07191752 0.01057149 0.13155767 0.045879167 -0.02274231 -0.094482005 0.056028005
-0.02812769 -0.06550326 0.05157382 -0.1028454 0.11299968 0.06996671 0.09573532 -0.09889645
-0.066439524 0.046770085 -0.023637932 0.09365893 -0.08694595 -0.11943451 0.14965768 0.016908364
-0.118687585 0.073048234 0.064863905 0.057888545 -0.024084693 0.052084893 -0.106695294 -0.034414798
0.021550482 -0.10058753 -0.06086263 -0.05494458 -0.09561961 -0.032292396 -0.00771981 0.11683431
-0.04369383 -0.019492 0.10459665 -0.1472327 -0.05540311 -0.06659617 0.01594008 0.19043145
0.112737976 0.017684374 0.07094087 0.014055765 0.060138747 -0.026266951 -0.048475284 -0.05662877
-0.059308525 -0.101069346 0.007878018 0.035856694 0.054783903 0.065021984 0.04429997 -0.1415917
0.02859777 -0.018753652 0.17387843 0.09122179 -0.15641536 -0.0828987 -0.0218184 0.16833311
-0.03918354 -0.0744534 0.049809724 -0.05004377 -0.011785569 0.04141838 -0.031391107 0.06659802
-0.05056279 -0.07173818 -0.06533266 -0.17789793 -0.058900177 0.05490583 -0.035959326 -0.05094866
0.10273424 0.12479053 -0.03010343 0.023836313 -0.018228298 -0.095222056 0.1640453 0.25250593
-0.025321623 0.0645113 -0.06650167 -0.06844481 -0.087751605 0.025618045 -0.009339108 0.027017327
-0.1171519 0.010706417 -0.13234329 0.09689118 0.036771595 0.05366265 0.017143153 0.040239457
-0.08747223 0.12436593 -0.038301826 -0.029391453 0.09488956 0.17722626 0.052764323 -0.02793224
-0.120499864 0.009677372 -0.0044430536 0.09161042 -0.04647714 0.11722169 -0.0029960852 -0.05855964
0.11746016 -0.23944645 -0.07562089 0.09636663 -0.059834268 0.08126321 0.010457599 -0.14906846
0.03319743 0.08503093 0.04108091 -0.091191985 0.06875447 -0.047796924 -0.0029454231 0.034074087
-0.056820184 0.049842495 0.031775475 -0.11124052 0.042343546 -0.08678376 0.014121386 -0.056299277
-0.09694175 0.06846198 0.13659085 -0.033759322 -0.013278996 0.01661344 -0.057181507 0.15430391
0.17704305 -0.14103094 -0.07542104 0.09143068 -0.028413396 -0.037084695 -0.10298978 0.014538743
0.008722952 -0.08912805 -0.005576719 -0.10483591 -0.07703656 0.035993204 0.07613658 0.012114215
0.01800306 0.10981255 -0.05101648 0.12484939 0.052573893 0.14338778 -0.0050881756 0.038178045
-0.034359112 -0.030914098 0.07977149 -0.025929824 0.016278198 0.065994754 -0.03964037 -0.026080236
0.0007385594 0.083474495 0.10499983 0.024621397 -0.030485407 0.15173356 0.082706146 -0.038771175
-0.14059724 -0.044466224 -0.1586611 0.03007158 -0.03948831 -0.014446148 -0.006786972 -0.04139503
0.11405923 0.015242125 0.08038782 0.03715285 -0.012108167 -0.036694106 0.116675496 0.002350906
-0.12994531 -0.11025117 -0.07591305 -0.0080928 0.10172223 0.03417897 -0.06288354 -0.008897015

bnorm_1.weight f4 [16]
00000000: c2bc a43f 9338 873f cbbd 873f 1306 9f3f
00000010: 8b0f 933f dfa7 b03f 7e0e 963f b501 bf3f
00000020: 4864 9a3f 017a 773f 9fd4 723f d836 723f
00000030: 0fbe 8f3f 8444 893f 6d5f 793f ada7 763f
1.2870104 1.056414 1.0604795 1.2423729 1.1489118 1.380123 1.1723173 1.4922396
1.2061853 0.9667054 0.94855684 0.94614935 1.1229876 1.0724034 0.97411233 0.963496

bnorm_1.bias f4 [16]
00000000: 930c 07bf e311 9cbe 2803 93be 2046 d9be
00000010: 8eae acbe 8fb3 1abf 6ba4 ffbe eab6 28bf
00000020: 785e 16bf b704 9ebe 1258 1ebe 2bfb 26be
00000030: a429 d7be 82e7 74be c777 afbd 672b 51be
-0.5275356 -0.30482396 -0.28713346 -0.42436314 -0.33726925 -0.60430235 -0.49930128 -0.65904105
-0.587379 -0.30862972 -0.15463284 -0.1630675 -0.42023957 -0.23916438 -0.085677676 -0.20426713

bnorm_1.running_mean f4 [16]
00000000: f7da c9b9 7d5c 793a f828 983a 0d89 a3b8
00000010: 98bb 2839 7f58 b0b6 463d c7ba 5e1d e738
00000020: 324a 2339 dd2e ccbb 44d5 b1bb cdad 4d3b
00000030: cc28 01ba ddb6 eaba 1af5 c639 8b6c d33a
-0.0003850085 0.0009512378 0.0011608889 -7.7979734e-05 0.00016091613 -5.255511e-06 -0.0015200756 0.000110204084
0.00015572531 -0.0062311725 -0.0054270346 0.003138411 -0.00049270387 -0.0017907281 0.00037948118 0.0016130371

bnorm_1.running_var f4 [16]
00000000: d44d f73c 046b 283d 5223 4c3d 01b7 473d
00000010: 69e6 413d dd7e ee3d ad02 aa3d 62aa 0d3d
00000020: 0d68 7b3c fab0 e83d fb0b a93c 8731 b43c
00000030: 34a1 733c 2752 473d 8202 313c 2823 793c
0.030188479 0.041117683 0.04983837 0.04875851 0.047338877 0.11645291 0.083012916 0.034586318
0.015344632 0.113618806 0.020635596 0.021996273 0.014869977 0.04866233 0.010803821 0.015206136

conv_separable_depth.weight f4 [16, 1, 1, 16]
00000000: 2a0e 59bc e29e 43bc a241 c8bd 1025 2fbe
00000010: 9f80 17be f6ef 9bbd d494 0fbd 0c38 6d3c
00000020: 1fb4 c6bd 5ea1 33bb 68e4 bfbc e9fe 013d
00000030: 05bc 9c3d ba6f 7d3d cd85 83bd a415 87be
00000040: 1161 d93d 4484 3c3d 13cd ee3d af9e a63d
00000050: d985 803d 4278 9b3d ade0 84bc 63b5 3abc
00000060: fb5b fc3d 9126 913d ca63 e2bc ba73 39bd
00000070: 253a acbd 1853 e0bc 7398 03bd 4c20 af3d
00000080: 31d0 823d 1a75 373d 6f56 e03d c67c 57bd
00000090: d0b3 6fba 525b 6cbb 8a1e 05bd 5e86 a2bd
000000a0: 5c49 87bd 1b73 23be f471 b6bd dee7 1bbe
000000b0: bcd2 f63c 6a93 f1bd 60cd 9abd 3d16 28be
000000c0: 8dd7 cebd 6e1f 013d f8d3 43bd f9c1 dabd
000000d0: 132d 17be 60cf 31be eba5 1dbe 04cd aebd
000000e0: 54fb fbbd d83d d6bd c6bb 83bd 6153 c23d
000000f0: 26f6 79bb 36cd 1cbd 3396 c33d 98a3 173d
00000100: 485c c8bd 4952 b6bd 98be 5f3d 8bcf 5bbe
00000110: 1802 1cbe 981c 29be 0823 c8bd 1934 c43c
00000120: 2849 0a3a fff8 afbc d418 4d3d ec0a 103e
00000130: 1fcb 0b3d 78a7 ac3c 71c4 d83d 3d0d aaba
00000140: 7446 9cbd 9860 47bb bc3f a3bd a2eb 13be
00000150: 78b5 68be 74dc 38bc d7b8 13be 0c2f a0bd
00000160: e402 bfbc 61ac d5bd 61f7 14be 0aad 073d
00000170: 1c66 19bd 20e1 bbbd 90d8 6cbd e851 04be
00000180: 259e d73c 6ffe 86bd 84d9 e4bc 54d6 0b3e
00000190: e9e1 b23d 9331 4c3d 6b04 a5bb 5e29 4fbd
000001a0: a9e6 47bd 0dd8 233e e67e 143e b009 ccbb
000001b0: 5d86 78bd 77e7 5dbc 7e2e 083e b357 8e3e
000001c0: 946e cabc d05c 1dbe a5df 0cbe 02e6 a3bd
000001d0: 1544 34be f907 b0bd 1769 d8bd 3a0c b4bd
000001e0: d92b 25be 1eaa 2cbe 55bf a6bd fa8b ddbd
000001f0: cb38 903d 9ec1 98bd 8608 5c3d 9af6 b7bd
00000200: 9052 ecbd 89ba 06bd 50aa c6bc 6a94 c73c
00000210: 1b3c 45bd 1bc6 f7bd 61f5 dcbd de15 433d
00000220: 97b8 9ebd c15a 253d e0cc 76bd d97e c2bd
00000230: 05a6 38be 65eb 7bbd fad5 efbd 23d7 00be
00000240: 9f25 fcbd 952a 043d 0859 a6bc ca77 06be
00000250: c4f6 cfbd 2183 5c3d be75 753d 10f3 bbbc
00000260: 9a01 183d c129 f13a 00c2 7abd 5a08 7cbd
00000270: 6ad4 abbd b81c 3d3c 048a 5abd c421 b5bd
00000280: 0407 c7bb 9673 41ba ae62 093e 9f8b 043e
00000290: 0065 e63a 5914 2dbe ec24 23be aa2e f3bd
000002a0: bb78 d03d a8cf f93c 9116 573c 3225 a03d
000002b0: 64ad 813c 0f22 6fbb 38d6 6d3d 24a3 80bd
000002c0: b363 0fbe 2afd 4bbe 3a8f d0bd 545b 3b3c
000002d0: 1c7c b53d e58d 203e 3c5b 2e3e 3910 ad3d
000002e0: 99f2 6e3d 78f9 5abc 3518 10be 3a03 dbbd
000002f0: d076 73bd 4015 933d df95 de3c e121 153d
00000300: e745 9c3d b460 ac3d 1165 63bd 8bed d7bc
00000310: 0a9d 4ebc 4468 01be 172c 0ebd 3e39 103d
00000320: 97ee 763d 46d4 823d 1322 e93d 5f75 c33d
00000330: 1bc3 0c3d 102e bfbb dc2f 103e 3015 143e
00000340: 290e e23d fadc e6bb d5bd 513d 78b1 ad3d
00000350: 4b10 853c c33e d83c cdd8 a93c cc16 69bd
00000360: 6cc4 afba 74a7 943d c15b fc3d e8cb c93d
00000370: 8459 373e 96c6 073e 3b8a 6c3d e177 51be
00000380: 1ddc 05be 6280 0cbe 641e c83d 8be0 293b
00000390: 415f 063e 67ae 053d 0931 0b3c 7101 2d3c
000003a0: aec4 ffbd 0756 bbbd a537 aabd 76a3 fbbc
000003b0: 5c44 243e 0d7e 1d3e 128f 0e3e 0a96 713e
000003c0: 3733 a83c ce61 aa3c 7db5 bd3d daf9 90bd
000003d0: 8f5f 083d 261c 57bd 2e59 833d 3999 513d
000003e0: ec33 343e cd63 d83d fa81 e43d 430e dc3d
000003f0: 3e9d de3a 84c1 743d 132b f6bb d976 3cbe
-0.013248006 -0.011939736 -0.097781435 -0.17103982 -0.14795159 -0.07614128 -0.035054043 0.014478695
-0.09702324 -0.0027409415 -0.023424342 0.031737242 0.076530494 0.06187413 -0.06422005 -0.26383698
0.10614217 0.046024576 0.116602086 0.08135735 0.062755294 0.07591297 -0.016220415 -0.011395785
0.123222314 0.07087434 -0.027635474 -0.04527638 -0.08409528 -0.027383372 -0.03212781 0.08551082
0.063873656 0.04478941 0.10953986 -0.052609228 -0.00091439206 -0.0036065173 -0.032499827 -0.07935785
-0.06605789 -0.15961878 -0.089084536 -0.15225169 0.030129783 -0.11795695 -0.075587034 -0.16414733
-0.10099707 0.031524114 -0.04780957 -0.106815286 -0.14763288 -0.17364264 -0.15395324 -0.085351974
-0.123037964 -0.104610145 -0.06432299 0.094885595 -0.00381411 -0.038281642 0.095501326 0.03702125
-0.09783226 -0.089024134 0.054625124 -0.2146589 -0.15235174 -0.16514814 -0.09772307 0.023950623
0.00052751834 -0.021481035 0.050072506 0.14066666 0.03412926 0.02107595 0.10584343 -0.0012973916
-0.07630625 -0.0030422565 -0.07971141 -0.14445356 -0.22725475 -0.011283029 -0.1442598 -0.078214735
-0.023316808 -0.10433269 -0.14547493 0.033124007 -0.037450895 -0.091737986 -0.057823718 -0.1292187
0.026320526 -0.06591498 -0.02793575 0.13655978 0.08734495 0.049851965 -0.005035927 -0.05057656
-0.04880396 0.16000386 0.14501533 -0.006226741 -0.060675014 -0.013543955 0.13298985 0.27801284
-0.02471093 -0.15367436 -0.13757189 -0.08002855 -0.17604096 -0.08595271 -0.10566919 -0.087913945
-0.16130008 -0.1686177 -0.081419624 -0.10817714 0.070420824 -0.074588045 0.053719066 -0.089825824
-0.11539185 -0.032892738 -0.024251133 0.024362762 -0.048153024 -0.120983325 -0.1078899 0.047628276
-0.077500515 0.040369753 -0.060253978 -0.094968505 -0.18032081 -0.061503787 -0.11710735 -0.12582068
-0.12311863 0.032267172 -0.020306125 -0.13131633 -0.10154489 0.05383599 0.05992674 -0.02294305
0.037110902 0.0018399284 -0.06122017 -0.061531402 -0.08390124 0.011542492 -0.05335428 -0.08844331
-0.0060738344 -0.00073795894 0.1341655 0.12943886 0.0017577708 -0.16902293 -0.15932053 -0.11874135
0.101792775 0.030494526 0.013127939 0.078195944 0.01582975 -0.0036488806 0.058065623 -0.062811166
-0.14002876 -0.19920793 -0.10183568 0.011435349 0.088615626 0.15679128 0.1702699 0.0845036
0.058336828 -0.013365142 -0.14071734 -0.10693975 -0.05943948 0.071817875 0.027171073 0.036409263
0.0763052 0.08416882 -0.055516306 -0.026358387 -0.012610683 -0.1263743 -0.034710016 0.03521084
0.06028613 0.06388144 0.11383452 0.09543871 0.034365755 -0.0058343485 0.14080757 0.14461207
0.11037857 -0.0070453854 0.05120643 0.08481115 0.01624312 0.026397115 0.020733261 -0.056906506
-0.0013409979 0.07258502 0.12322188 0.09853345 0.17905241 0.13259348 0.057749014 -0.20455886
-0.13072248 -0.13720849 0.097714216 0.0025921192 0.13122274 0.032637026 0.008495578 0.010559426
-0.124886855 -0.09147268 -0.083113946 -0.030717593 0.16041702 0.15380116 0.13921764 0.23592392
0.020532234 0.02079859 0.09263132 -0.070789054 0.033294257 -0.05251708 0.06413494 0.051171515
0.17597932 0.105659105 0.111576036 0.10744908 0.0016984118 0.059754863 -0.007512459 -0.18404712

conv_separable_point.weight f4 [16, 16, 1, 1]
00000000: 21f1 a73e ff39 96be 3cab 69be ff7e 063d
00000010: 3ffc 1ebc d013 223e 55e6 e23d f05d 813e
00000020: d144 06bf f010 203e 1a17 dc3d 9e72 e53e
00000030: 38b0 243d 63df 93be 6c67 7fbe 70b9 113e
00000040: 4c60 91be 98ba b53e 1169 8fbd dddf 96bd
00000050: df31 c5be c4b3 f43d 9b5f a23e f523 2abe
00000060: 9e15 c6bd 8ec8 af3d 9518 adbe c091 cbbd
00000070: 107b f93c b548 113e a845 103e 17d2 c43e
00000080: bbe8 b13e 5743 70be 806e 43bd 387c 003e
00000090: 1c8c c3bd f916 c1bd 898c 883c e25d c23d
000000a0: e275 a4be df68 d93e b44c 783e ad2c 29bd
000000b0: febc dc3e 565c 4ebe 63fb 8c3d 286f 203e
000000c0: 0354 c4be 33c3 99be d7ab 8f3e 8962 16be
000000d0: a5e8 d93e 1a3d e5bc b123 853e 5122 0ebe
000000e0: 7cd5 50be 978e dabe 68e0 cdbe fcde 5dbe
000000f0: 59c6 633e 5cb3 47be 3056 84be 66cd 9cbe
00000100: 4a91 a13d 6cce 5bbd 9540 313d 35f6 273e
00000110: 321a 50be 896a 0bbf a3da 39be fe2a 433d
00000120: 162f 45be 00a2 d33d ff88 4c3d b15d ce3e
00000130: 0df2 6cbe c3d2 d5be 54b2 e4bd ca39 7dbe
00000140: 4e70 9dbe 830c 32be dd20 ffbe ec93 2f3d
00000150: bbc4 6abe 745e 5b3e a0c6 46be ca16 1cbd
00000160: bfb5 b53d c850 5cbe bb23 f33e 10c6 1cbe
00000170: 0047 bd3d fdb8 093e 5df5 25be 7245 3cbd
00000180: a5d9 a13d 6ec3 db3c 103c 4bbe 1f9b 4a3d
00000190: bdca 9dbd f89b 2abe 553e 0cbe d38e 8fbe
000001a0: e44a 1f3e bef8 233e aaa2 7f3d 42f0 ff3d
000001b0: 3a9f d93d bdb1 32be 0b83 f4be becb 1a3e
000001c0: 7a37 7f3e f6ba b2be 5cf4 823e 84b1 463c
000001d0: f708 133d 3934 9fbe f551 c93d 8ba8 013e
000001e0: 0246 843e 19a9 643e 0e1f a83e 9053 8e3e
000001f0: cf8f d73e efde eabd faf3 a33e a36c dbbd
00000200: d9a3 a03d a264 9fbe 8e38 73be e274 69be
00000210: 08ba a1be 1f6c 37be e04a cd3e 32b9 b0be
00000220: 3709 e4bd 4977 aebd 0039 8abe 35a8 873e
00000230: bebe 293e 27c8 a63d 204d 73bc 136a 82be
00000240: ecc7 9abe 97b5 13be 7f70 0e3d 3616 623d
00000250: 5cda 37bd cc5e 373e cbad 2ebe 40e3 75bd
00000260: 00fc f5bd 255e 673e 1125 b6be 1db6 183e
00000270: 2c65 b3be fbbb 42be 47c6 a6bd 5388 aebe
00000280: 003c 50be 3c0c 2d3d 0c78 6f3d 3130 5fbe
00000290: b226 af3e 683f abbd c992 ac3d d421 9fbd
000002a0: baf3 9d3d b209 b03e d4a1 a43e e030 ca3e
000002b0: b58c 553e 3e1b a0be a3a2 25be 04e2 d33e
000002c0: 46bf 0dbe 243c b83e e0be 9dbd 4dc6 9f3e
000002d0: 4846 d0bd e4e1 0dbe 0131 c9bc cdf3 a93e
000002e0: 1027 1cbe 2bcd 5fbd 1912 adbe 6eb4 853e
000002f0: eaf1 833e 7652 8f3e 5331 993c 987e 803e
00000300: ca5b 55bc 26d9 4cbc ceb4 9d3e c4d1 ce3e
00000310: 37d2 afbd 5395 cdbc 3435 59be cfee 883e
00000320: 3b5d 1fbe b9a7 213e 9132 483d 110a 00be
00000330: d0b0 34be 9d8b 043e 98ed db3e bd19 7dbe
00000340: 82a7 9a3e 1ed9 2f3d e893 f3be d363 95be
00000350: 47ea 0e3e dd9a 8d3d d041 423e 01d9 0b3e
00000360: d3c5 d5bd b430 963e bb57 3abd 0061 853e
00000370: 5e05 84be 2eb8 5f3e d226 bf3e 4f97 b5be
00000380: 3786 263e e065 26be a323 473e b30d dd3d
00000390: af74 2c3e 2440 80bd 44c9 613e eb0f 823d
000003a0: 8251 d3be 163d d9be f6ca 853e 830c 98be
000003b0: 02dd 6bbe 8c0f 593e b9ca 81be 8a7b 5b3e
000003c0: 3f91 463e 38ea ec3c 9bff 9b3e e293 d0be
000003d0: 5d62 bfbe e2a8 ad3e a4dd babe c909 69bd
000003e0: 0e41 6ebe 8c87 3b3e fc1b b43e ffb7 7dbd
000003f0: 4df5 e3bd a321 96bc b11f 823d e7e0 a0bd
0.32801154 -0.29341123 -0.22819227 0.032835957 -0.009703695 0.1582787 0.110790886 0.2526698
-0.52448756 0.15631461 0.10746594 0.44814008 0.040207118 -0.28881368 -0.24941796 0.14230895
-0.2839378 0.35493922 -0.07002462 -0.07366917 -0.3851461 0.1194835 0.31713566 -0.16615279
-0.09672092 0.08583175 -0.33807817 -0.09939909 0.030454189 0.14187892 0.14089072 0.38441536
0.34747872 -0.23463188 -0.047712803 0.12547386 -0.09548208 -0.0942821 0.016668575 0.09490563
-0.32121187 0.42462823 0.2424801 -0.04130237 0.4311294 -0.20152411 0.06883886 0.15667403
-0.38345346 -0.30031738 0.2806079 -0.14686026 0.42560306 -0.027983237 0.26003793 -0.13880278
-0.20393938 -0.42686912 -0.4021027 -0.21667093 0.22243632 -0.19502014 -0.25847006 -0.30625457
0.0788904 -0.053663656 0.04327448 0.16402514 -0.20322493 -0.54459435 -0.1814981 0.047648422
-0.19256243 0.103336334 0.049935337 0.40305856 -0.2313921 -0.4176236 -0.11166826 -0.24729076
-0.30749744 -0.17387585 -0.4982976 0.04286568 -0.22926609 0.2142275 -0.19411707 -0.03810767
0.08872556 -0.2151519 0.47488198 -0.1530993 0.09242058 0.13449474 -0.1620688 -0.045964666
0.079028405 0.026826587 -0.19847131 0.04946434 -0.07704685 -0.1666106 -0.13695653 -0.28038654
0.15555912 0.16012856 0.062410988 0.124969974 0.10626073 -0.17450614 -0.47756228 0.15116784
0.24923506 -0.34908265 0.25577056 0.012127284 0.03589722 -0.3109453 0.09830085 0.1266195
0.25834662 0.2233013 0.32836193 0.27798128 0.42101905 -0.114683025 0.32022077 -0.1071408
0.078437515 -0.31131464 -0.23752043 -0.22798494 -0.31587243 -0.17912339 0.40096188 -0.34516293
-0.1113457 -0.085188456 -0.26996613 0.2649552 0.16576669 0.08143645 -0.014849931 -0.25471553
-0.30230653 -0.1442474 0.034775253 0.055196963 -0.044885978 0.17907256 -0.17058484 -0.060031176
-0.12010956 0.22594507 -0.35575154 0.1491322 -0.35038126 -0.19017021 -0.08143287 -0.34088382
-0.20335388 0.042247996 0.058464095 -0.21795727 0.3420921 -0.08361703 0.084264345 -0.07770124
0.07712503 0.34382397 0.32154715 0.39490414 0.20854457 -0.31270784 -0.16175322 0.41383374
-0.13842496 0.35983384 -0.07702422 0.3120598 -0.10169655 -0.13855702 -0.0245595 0.33193818
-0.15249276 -0.054639023 -0.3380287 0.2611422 0.25770503 0.279926 0.018700277 0.25096583
-0.0130223725 -0.012502944 0.30802006 0.40394413 -0.08585017 -0.025095617 -0.21211702 0.26744696
-0.15562908 0.15786637 0.04887635 -0.1250384 -0.17645574 0.12943883 0.42954707 -0.2471685
0.30205923 0.04293167 -0.4757378 -0.29177722 0.13956557 0.069143035 0.18970418 0.13656999
-0.104381226 0.29334033 -0.045493823 0.26050568 -0.25785345 0.21847603 0.37334305 -0.35467002
0.16262136 -0.162498 0.19447188 0.107936285 0.16841386 -0.06262234 0.22049433 0.06350692
-0.41273123 -0.42429417 0.2613141 -0.29697046 -0.23033527 0.21197337 -0.25349978 0.21433845
0.19391344 0.028920278 0.3046845 -0.40737826 -0.37379733 0.3391791 -0.36497223 -0.056894097
-0.23267004 0.18313426 0.351776 -0.06194305 -0.11130772 -0.018326586 0.06353701 -0.07855397

bnorm_2.weight f4 [16]
00000000: 2ba5 873f 5857 953f d850 843f 7d99 8f3f
00000010: 041e 8e3f 2358 943f bf46 8c3f bf8a 833f
00000020: 57f9 8f3f 9e58 923f f832 953f da53 8a3f
00000030: 2d29 863f 9fdf 903f 6d11 903f d878 873f
1.059728 1.166728 1.0337172 1.1218716 1.110291 1.1589397 1.095909 1.0276717
1.1247967 1.1433294 1.165618 1.080684 1.0481316 1.1318244 1.1255318 1.0583754

bnorm_2.bias f4 [16]
00000000: 9de6 45be 98a4 a6bd 1b7e 0dbe e547 8bbd
00000010: 7da6 cebd b434 d1bd 20b8 d4bd 830b afbd
00000020: 5027 39bd 6081 fcbd 5d0b 1ebe e193 01be
00000030: 7d58 3abe c643 52be 1874 f3bd 21ce e8bd
-0.19326253 -0.081368625 -0.13817637 -0.06800822 -0.10090349 -0.102151304 -0.103866816 -0.085471176
-0.045203507 -0.12329364 -0.15434022 -0.12654068 -0.18197818 -0.20533666 -0.118873775 -0.11367441

bnorm_2.running_mean f4 [16]
00000000: 0a20 99bb 986e e6bd 5334 eabc 62c7 27be
00000010: 1f2a a4bd 38c4 2d3c ada7 56bd 0b94 343d
00000020: 72eb 43be a4de ac3c 803d 70bd 1592 66bc
00000030: a2b3 d03d 7c2e 2b3d 73b7 a1bd cdfc 483d
-0.004673009 -0.11251563 -0.028589403 -0.16384652 -0.080158465 0.010605864 -0.052406 0.044086497
-0.19132784 0.021102257 -0.0586524 -0.014072915 0.10190512 0.041792378 -0.07896318 0.049069215

bnorm_2.running_var f4 [16]
00000000: 8015 1d3e 0a8b e33d 901c a83d a083 413e
00000010: b24b 2a3e 0029 f43d ec78 e93d cff6 073e
00000020: b124 273e 5f24 c63d 6250 073e 2b50 e63d
00000030: 5aab 123e 2348 303e 801e ee3d 28e8 e13d
0.15340233 0.11110504 0.08208573 0.18897867 0.16630438 0.11921883 0.11400017 0.13277744
0.1632259 0.09674906 0.13214257 0.112457596 0.14323178 0.17215018 0.11626911 0.110306084

final_layer.conv_classifier.weight f4 [4, 16, 1, 35]
00000000: 5e27 cfbc e6d5 333c ba38 a5bc 70c8 87bc
00000010: 7a47 ff3d e441 61be fac2 4c3d cc81 5e3e
00000020: 7156 bfbd 8c1a 3cbe 9ec6 cabd aa68 40bd
00000030: 9060 643c ddef 3cbd 89c9 923c 6ab7 25be
00000040: 4399 43bd 5eb8 2cbe 0c7b dcbd a63d 55be
00000050: 7a0f 42be fc12 31bc 7854 a9bd 67fb 73bd
00000060: 0299 90bd f940 1cbe 46e0 97bd de07 1cbd
00000070: d61b f1bd fefe 3dbd 6a61 81bd 06f3 c2bc
00000080: 3fa7 a43c c86e b1bd 7609 cebd 115d 0bbc
00000090: 8886 62bd 0527 ac3d 3d4e 923c bd26 84bd
000000a0: fd53 ff3d 59d3 98bd ec02 06bc 6654 0a3d
000000b0: 7d4c 063d 4a8b c03d 3427 ba3c 03b6 bdbc
000000c0: 0123 ebbd bfec 29bc b32d bf3d 4031 b9bc
000000d0: 2562 6abc 7b0e adbd ae92 22bd eee8 a8bb
000000e0: 506e c03c d007 84bc 0d6d fb3d 8cd6 8abd
000000f0: 1c4f f93c aa5f 8abd 5b06 d9bd 518c 0d3e
00000100: dd63 b13d b323 b4bd 44a0 37bd ec33 15bd
00000110: 5989 c13d 764d 8b3d 9f7a 963d 8e58 9fbc
00000120: 6fa0 18bc a2c1 25bb b943 293d c2a5 4a3d
00000130: d77e d8bc c5f5 20bd 839a fcbc 7d7b 1dbe
00000140: 6e22 603c dc70 cabd 528a 0dbd 2430 9dbd
00000150: fb9a 0bbe 0284 7f3d 2cf0 26be 5f86 f63c
00000160: 2672 0cbd a74e ccbd 4f85 28bc e564 8ebd
00000170: aacd dbbd 4ffa 92bb de97 1cbd 6f8e d7bd
00000180: 1f22 2cbe cfbe 5b3c 1b0d 1bbe 1d14 d7bd
00000190: 789b 7d3d 1346 14be 9337 e6bd d000 94bd
000001a0: 3d95 b73c 2424 61bd 5bb7 98bd 3d12 9d3d
000001b0: ed97 863d 392d a43c 2958 07be 5f4e a5bd
000001c0: 5fe4 39bd 27cf cdbd a8f4 fbbc 4079 b5bd
000001d0: 4218 e9bd 91a8 4a3c b699 2fbe f003 5f3d
000001e0: aeaf 8c3b 13c8 dfbc ec5a 2b3d 74f7 c13b
000001f0: 66b6 7e3d 82d2 ecbc b19d a7bc b81d 173d
00000200: 680a 99bd 3553 b63d e2b9 18be 2a16 92bc
00000210: 9077 c03d 6ea2 3b3d 998a ac3d 2c79 323d
00000220: 7b41 a13b e0b5 a83d cf2d 27bc 036e 933c
00000230: 3990 86bb 14b6 dcbc 66de e83d c9e6 613c
00000240: c322 e23d 086f 30be d79e 9c3c 2f46 373d
00000250: b6a2 2bbc 0a16 41bd 9791 7fbd eabf acbc
00000260: 4a17 e0bd 2085 94bd 4d4f 433c 763a dbbd
00000270: 7afc 6f3c 53ed e83d 27de 0a3d 4c79 973d
00000280: 9e1b 663d 4835 143d 608a 893d 7d2c 393d
00000290: b18c 673b 54b0 d0bc dcf4 053d f53d abbc
000002a0: 3564 f4bd 8567 b03c 661a dd3d db71 793d
000002b0: 2223 e53d a3b3 133b e1e4 01be 3c02 583d
000002c0: f233 cebc d9ad a43d a670 e93d decf 343e
000002d0: e360 dcba 9c6a 013d 5a11 9d3c 4ef5 213d
000002e0: 810f 8e3d 7a53 d53d 7d38 67ba 9a06 f33d
000002f0: 1329 d33d 3173 d93d b9e2 0a3c 1a54 543e
00000300: b253 52bd afd4 29bd c93f cabd 3fba 403d
00000310: 1408 5cbd d679 623d 90e3 83bd 2fea fbbd
00000320: aa16 ebbc 733b 58bc 8bd7 ed3c baf4 a1bd
00000330: 3e96 833d fc8d 513d 7a52 8bbd 7023 923c
00000340: e043 fbbc 1059 e23c 8c2f c0bb 5bdc fabc
00000350: e345 76bc d5c4 1abe 65b8 9d3e 8902 84be
00000360: 0713 64bc fd37 7c3d 9073 023e 1b5c 093e
00000370: be4d 123d 7ed9 e13d b02b fa3d 802c 5b3d
00000380: 27b5 123e c18a 3a3d 491d 133d 90ea c23c
00000390: e770 b7bc 186e 063e aec4 2e3d 9ff6 923c
000003a0: a40b 7d3d caae 783a 8051 8a3d 4322 8e3c
000003b0: 1cb2 b2bd aa02 22bd dd3f dc3c 9792 e0bc
000003c0: 25b6 923b d3ad 18bc 11c2 593d f1f4 0c3d
000003d0: 8332 b53b 9c72 0abd 1dea 153d edd1 40bc
000003e0: c215 85bd 11dc 0abe f7c5 6a3d a986 263e
000003f0: c232 993d 5df1 943d 2067 593c c098 713d
-0.025287326 0.01097629 -0.02016865 -0.016575068 0.12464805 -0.21997792 0.04999063 0.21729201
-0.09342659 -0.18369502 -0.099011645 -0.046974815 0.013939038 -0.04612719 0.017918365 -0.16183248
-0.047753584 -0.16867206 -0.10765657 -0.20824298 -0.18951216 -0.010807749 -0.08268064 -0.059565928
-0.07060434 -0.1525916 -0.07415824 -0.03809344 -0.117728874 -0.046385758 -0.063174084 -0.023797523
0.02009928 -0.08663708 -0.10060398 -0.0085060755 -0.05530408 0.0840588 0.017859573 -0.06452701
0.12467191 -0.07462186 -0.008179408 0.033771895 0.03278779 0.09401567 0.022723772 -0.023158079
-0.11481286 -0.010371386 0.09334888 -0.022606492 -0.014305626 -0.084500276 -0.039690666 -0.0051547205
0.023490101 -0.016117007 0.12276659 -0.06779203 0.03043323 -0.06756528 -0.10596915 0.13823058
0.086616255 -0.087958716 -0.044830576 -0.03642647 0.09450025 0.06801884 0.07347607 -0.019451406
-0.009315594 -0.0025292416 0.04132435 0.049474485 -0.02642767 -0.039296884 -0.030835396 -0.15379138
0.013680084 -0.098848075 -0.03455574 -0.07675198 -0.13633339 0.06238175 -0.16302556 0.03009337
-0.034288548 -0.09975939 -0.0102856895 -0.06952838 -0.10732587 -0.0044854055 -0.03823077 -0.10525214
-0.16809891 0.0134121915 -0.15141718 -0.10501883 0.061915845 -0.14479856 -0.11241069 -0.072267175
0.02241003 -0.054966107 -0.07456847 0.07669494 0.06571946 0.020041095 -0.13217224 -0.08071589
-0.045383807 -0.10049277 -0.03075631 -0.08861017 -0.1138158 0.012369291 -0.1714848 0.054447114
0.0042934036 -0.027317083 0.041834757 0.0059193913 0.062185667 -0.028908972 -0.020460935 0.036893576
-0.07472688 0.08902589 -0.14914659 -0.017832834 0.09397805 0.045809202 0.08424873 0.04357259
0.004921136 0.08237815 -0.010203793 0.017996794 -0.004106548 -0.02694229 0.11370544 0.013787934
0.110417865 -0.17229855 0.01911871 0.044744667 -0.010475805 -0.04714016 -0.062394705 -0.021087606
-0.10941942 -0.07251954 0.011920762 -0.1070451 0.014647597 0.11373391 0.033903267 0.073961824
0.05617868 0.036183625 0.06715846 0.045208443 0.0035331661 -0.025474705 0.03270422 -0.020903567
-0.119331755 0.021533737 0.10796051 0.060899597 0.11188342 0.0022537492 -0.12684967 0.052736506
-0.025171254 0.08040971 0.11398439 0.1765742 -0.0016813542 0.03159581 0.019173313 0.03954058
0.06936551 0.104163125 -0.0008820368 0.118664935 0.10310569 0.10617674 0.008476906 0.20735207
-0.05134935 -0.041462597 -0.09875447 0.047052618 -0.05371864 0.055291973 -0.064398885 -0.12300526
-0.02869733 -0.013197768 0.029033443 -0.07908006 0.06425141 0.051160797 -0.068028405 0.017839164
-0.030672014 0.027630359 -0.005865043 -0.030622652 -0.015031311 -0.15114148 0.30804744 -0.25783184
-0.013920552 0.061576832 0.12739396 0.13414042 0.035718672 0.110278115 0.12215364 0.053509235
0.14326917 0.045542482 0.0359166 0.023793489 -0.022392703 0.13127935 0.042668037 0.017939864
0.06177868 0.0009486495 0.06753826 0.017350322 -0.08725378 -0.039553322 0.026885921 -0.02741365
0.0044772797 -0.009318787 0.05316359 0.03441328 0.005529703 -0.033800706 0.03660022 -0.0117688
-0.064982906 -0.13560511 0.0573177 0.16262306 0.074803844 0.07272599 0.013269216 0.058983564

final_layer.conv_classifier.bias f4 [4]
00000000: e4ff 583d 2782 debc f8c9 5cbd 82e9 ea3c
0.05297841 -0.02716167 -0.05390355 0.028675798
