result_eegneteca_cv5/fold_3/best_model_fold3.pth (torch, 22590 bytes, 19 tensors)

conv_time.weight f4 [8, 1, 1, 64]
0	0xbddc2109	-0.107484885
1	0x3dbe0216	0.092777416
2	0x3d0c5fae	0.034270935
3	0x3db359d7	0.0875737
4	0xbdef373e	-0.116804585
5	0xbb03b549	-0.0020097068
6	0x3d37ac1d	0.044841874
7	0xbe0cd4dc	-0.13753074
8	0x3d00ff7c	0.03149365
9	0xbdf34a99	-0.11879463
10	0xbe0a7451	-0.13520934
11	0xbdd05d0b	-0.101739965
12	0xbbe2ec80	-0.0069251657
13	0xbd2c5226	-0.04207053
14	0x3db3d9ca	0.08781774
15	0x3bb1826b	0.0054171584
16	0x3ce5a256	0.02803151
17	0x3ca5b379	0.02022718
18	0x3ca44795	0.020053664
19	0x3debed4d	0.11519871
20	0xbdade012	-0.08490004
21	0xbe049353	-0.12946825
22	0xbdcddb6a	-0.100516155
23	0xbbf80780	-0.0075692534
24	0xbdd947aa	-0.10609372
25	0xbd6e037d	-0.058108795
26	0xbde9de7d	-0.114193894
27	0xbdb9cd30	-0.090723395
28	0xbda68e8f	-0.0813266
29	0x3d155472	0.036457486
30	0xbd76757a	-0.060170628
31	0xbaa7cccd	-0.0012802124
32	0x3d5e9e1d	0.054350007
33	0x3d342b16	0.043986402
34	0xbd89c50a	-0.06727035
35	0xbe0ad76a	-0.13558736
36	0x3cf0d825	0.02939994
37	0xbdc36f17	-0.09542673
38	0xbe15ea9d	-0.14640279
39	0xbd5b7fad	-0.053588558
40	0xbd9d4521	-0.07679201
41	0xbe195874	-0.14975148
42	0x3d16731d	0.036730874
43	0xbdaa43c6	-0.08313708
44	0xbdab8386	-0.083746955
45	0xbd70e3c2	-0.058810957
46	0x3cb9f1fe	0.022698399
47	0x3cd75813	0.026287114
48	0xbdceca94	-0.100972325
49	0xbb99c902	-0.0046931515
50	0xbddb4d04	-0.10708049
51	0xbdecb911	-0.11558736
52	0xbd3bbe66	-0.045835875
53	0xbcf1dd88	-0.02952458
54	0xbe18cf96	-0.14922938
55	0x3d7909e3	0.060800444
56	0xbd85a501	-0.065256126
57	0xbc85a995	-0.016316215
58	0xbc5ce927	-0.013483322
59	0x3d10f9d5	0.03539451
60	0x3caf6969	0.021412568
61	0xbc2c7d9a	-0.010527993
62	0xbe04109f	-0.12896965
63	0xbe23ebe8	-0.1600796
64	0xbd1724d2	-0.03690035
65	0xbdcd9cb0	-0.100396514
66	0xbdd9961f	-0.106243365
67	0x3d8c16aa	0.0684026
68	0xbd4efd32	-0.050534435
69	0x3c75cdcf	0.015002682
70	0xbdc01d5e	-0.09380601
71	0x3db16dd4	0.08663526
72	0xbd786293	-0.060640883
73	0x3d130e5b	0.035902362
74	0x3c41b2f0	0.011822447
75	0x3d4084a0	0.04700148
76	0xbd470ee7	-0.048598196
77	0x3ad3c008	0.0016155252
78	0xbd6b02e3	-0.0573758
79	0x3b835dce	0.004008985
80	0xbdb14166	-0.08655052
81	0x3cffa2f9	0.031205641
82	0xbd4e7dbc	-0.05041288
83	0x3ce51207	0.027962698
84	0xbd8ff2fb	-0.07028767
85	0x3d33b2b7	0.043871608
86	0x3c99f796	0.018794816
87	0xbd89f614	-0.06736389
88	0xbd71daa5	-0.059046406
89	0xbd1a853b	-0.037724715
90	0xbd289669	-0.041159067
91	0x3d14096d	0.0361418
92	0x3dcb8caf	0.09938943
93	0xbde4652f	-0.11152112
94	0xbdd0d0f5	-0.101961054
95	0xbcb6429f	-0.022248564
96	0xbdf924d8	-0.121652305
97	0xbd8187f9	-0.06324763
98	0xbdda66dd	-0.10664151
99	0x3d4d0a18	0.050058454
100	0xbe0f63a1	-0.14002849
101	0xbda939b7	-0.08262961
102	0xbe06fa41	-0.13181402
103	0xbd7d0c70	-0.06177944
104	0xbdd81cf8	-0.105524
105	0xbe0e91bd	-0.13922782
106	0xbcd2573d	-0.025676364
107	0xbdc15af4	-0.09441176
108	0xbdc95528	-0.098306954
109	0xbd5fa798	-0.05460319
110	0xbcc70eca	-0.024299044
111	0xbd2a6bb3	-0.041606616
112	0x3e23e687	0.16005908
113	0x3bca42a1	0.0061724936
114	0x3e00d598	0.1258148
115	0x3d5b23b5	0.05350085
116	0xbd4a8b81	-0.049449448
117	0x3da77457	0.08176487
118	0x3d892630	0.06696737
119	0x3e2d2920	0.16910219
120	0x3dd777ef	0.105209224
121	0x3da6af51	0.08138908
122	0xbd3c35f4	-0.04594989
123	0x3e005a3a	0.12534419
124	0x3dc3c336	0.09558718
125	0x3e4c13af	0.19929384
126	0x3d29aefd	0.041426647
127	0x3e6e79ca	0.23288646
128	0x3c5f489e	0.013628153
129	0xbc347d73	-0.011016238
130	0x3dff65c1	0.1247058
131	0x3d812eb7	0.06307738
132	0xbde009be	-0.10939358
133	0x3dbc7c42	0.09203388
134	0x3d7782c8	0.060427457
135	0xbd60172f	-0.05470961
136	0x3d9e6244	0.077335864
137	0xbcaa13ef	-0.020761458
138	0xbd5b476e	-0.053534918
139	0xbc932ae0	-0.01796478
140	0x3dad86fb	0.08473011
141	0x3c417fb5	0.011810233
142	0x3ba96d14	0.005170474
143	0xbc4c1146	-0.01245529
144	0xbd4b64a4	-0.049656525
145	0xbc6fcf70	-0.014636859
146	0x3d4ad909	0.049523387
147	0x3d60eb47	0.054911878
148	0xbd04f37c	-0.032458767
149	0xbdc7c5ef	-0.0975455
150	0x3d4d5164	0.05012645
151	0xbe00c91f	-0.12576722
152	0x3ba4d8a7	0.00503071
153	0x3d638883	0.05555011
154	0x3c5bcd1a	0.013415599
155	0xbd86a4a4	-0.065743715
156	0xbde4bdec	-0.11169037
157	0x3d0c781b	0.03429423
158	0x3dc004cf	0.09375917
159	0x3d327b97	0.043574896
160	0xbd467901	-0.048455242
161	0xbd37158c	-0.044698283
162	0x3d0c290a	0.034218825
163	0x3d0d1a8e	0.034449153
164	0x3dd8705c	0.10568306
165	0x3d03c07e	0.032165997
166	0x3da91e47	0.08257728
167	0x3d211753	0.039328884
168	0x3e345c57	0.1761335
169	0xbc848cd4	-0.016180433
170	0x3db2c523	0.08729007
171	0x3e2e5cd7	0.17027603
172	0x3e293578	0.16524303
173	0x3e242c5b	0.16032545
174	0xbda825d1	-0.08210338
175	0x3dde11cc	0.10843238
176	0x3dd3013c	0.1030297
177	0x3e455e1d	0.19274183
178	0x3d8b4c68	0.06801683
179	0x3e36818b	0.17822854
180	0x3d69a349	0.057040486
181	0x3ae95c04	0.0017803912
182	0x3e4a0df5	0.19731887
183	0x3d001d76	0.031278096
184	0x3ddf8d9a	0.1091568
185	0x3e16897d	0.14700885
186	0x3db7cb6c	0.089743465
187	0xbdaf9e2a	-0.08575089
188	0x3dbae53a	0.09125753
189	0x3d1796e0	0.03700912
190	0x3d22c725	0.0397407
191	0x3debae6f	0.1150788
192	0xbe227e54	-0.15868503
193	0xbcd5a989	-0.026081817
194	0x3e1eb963	0.15500407
195	0x3d872057	0.06597965
196	0xbd237a03	-0.03991128
197	0x3ded175d	0.11576722
198	0xbdd0ab5a	-0.10188933
199	0x3ce48043	0.027893191
200	0xbe08fef0	-0.13378501
201	0xbcec93fe	-0.028879162
202	0x3b8893a5	0.004167991
203	0x3dca6683	0.09882834
204	0x3d0fb890	0.035088122
205	0xbbcd4d52	-0.006265321
206	0x3e153b25	0.14573343
207	0x3de30d49	0.11086518
208	0xbd796e6a	-0.060896315
209	0x3c8b243f	0.016985057
210	0xbdff7e66	-0.124752805
211	0x3cf4b4fb	0.029871454
212	0x3c486589	0.012231239
213	0x3c9e8a65	0.019353101
214	0xbd81205a	-0.06304999
215	0x3a745ef1	0.00093220087
216	0xbda9e634	-0.08295861
217	0x3d974eae	0.07388054
218	0xbe0935a7	-0.13399373
219	0xbdbabfc1	-0.091186054
220	0x3a9b0ada	0.0011828796
221	0x3d4bd7f6	0.049766503
222	0xbc8ab42c	-0.016931616
223	0x3da26f55	0.07931391
224	0x3e1be7de	0.15225169
225	0x3e24578e	0.16049024
226	0xbc81bb1d	-0.015836293
227	0xb94fc7b8	-0.0001981546
228	0xbda27437	-0.079323225
229	0x3d255e28	0.040372998
230	0xbc982d8b	-0.018576404
231	0xbda34070	-0.07971275
232	0xbdfcb720	-0.12339616
233	0x3d9be732	0.076124564
234	0x3e20b4bd	0.15693946
235	0x3e160b47	0.1465274
236	0x3d932e12	0.071865216
237	0xbbc7562b	-0.00608327
238	0xbd11a6a4	-0.03555931
239	0xbce9446f	-0.028475014
240	0xbe2e07a8	-0.16995108
241	0xbe202eca	-0.15642849
242	0xbd8272ff	-0.0636959
243	0xbd806ee2	-0.06271149
244	0x3d99019e	0.074710116
245	0x3d1bdbc3	0.038051378
246	0x3cda89d2	0.026677046
247	0x3d60e996	0.054910265
248	0x3db9db8d	0.09075079
249	0xbda70a70	-0.08156288
250	0x3d2f22fb	0.04275797
251	0x3d9bf539	0.07615132
252	0x3daed818	0.0853731
253	0x3da3c84f	0.0799719
254	0xbdca5379	-0.098792024
255	0x3bababc2	0.005238981

bn1.weight f4 [8]
0	0x3fa2287b	1.2668604
1	0x3f8bfd5a	1.0936692
2	0x3f75ce9f	0.96018404
3	0x3f9d9ae4	1.2312894
4	0x3f9ecb46	1.2405784
5	0x3f84d9f5	1.0379015
6	0x3febc6d6	1.8420055
7	0x3f85367a	1.040725

bn1.bias f4 [8]
0	0xbd4af60c	-0.049551055
1	0xbd13dc86	-0.03609898
2	0xbdb1286b	-0.08650287
3	0x3d209f2d	0.0392143
4	0xbc92ee61	-0.017935934
5	0x3ce12137	0.027481658
6	0xbc3f4799	-0.011674785
7	0x3d31436a	0.04327718

bn1.running_mean f4 [8]
0	0xb93a578e	-0.00017770959
1	0xba5d9a37	-0.0008453461
2	0xb8a06941	-7.6489996e-05
3	0xb8baaa62	-8.9009074e-05
4	0xba2ba3dc	-0.0006547549
5	0xb92084e8	-0.000153083
6	0x3893e597	7.052271e-05
7	0x38ddf952	0.00010584541

bn1.running_var f4 [8]
0	0x3e8d5239	0.27601793
1	0x3fb04e86	1.3773963
2	0x3f48ec58	0.7848563
3	0x3f0a7a81	0.54093176
4	0x3f796f9e	0.9743594
5	0x3e53b58a	0.2067472
6	0x3eeb3e98	0.45946193
7	0x3fe1b20f	1.7632464

conv_depth.weight f4 [16, 1, 22, 1]
0	0xbdae483a	-0.0850987
1	0x3e8341a8	0.2563603
2	0xbc61f1aa	-0.013790527
3	0xbd4c0d0e	-0.049817137
4	0x3d0e9782	0.034812458
5	0xbd87b261	-0.0662582
6	0x3d5c1354	0.05372937
7	0xbe01eaba	-0.12687197
8	0xbd86901d	-0.06570456
9	0x3e713d14	0.23558456
10	0xbd8ddd38	-0.0692696
11	0xbd83d350	-0.06436789
12	0x3d7cda51	0.06173164
13	0xbe5265d3	-0.20546655
14	0xbdc70b04	-0.09718898
15	0x3e1f8ddd	0.1558146
16	0x3e4d4b5c	0.20048279
17	0xbe3a7878	-0.18210018
18	0xbe829824	-0.255067
19	0xbddee9fc	-0.10884473
20	0x3df9330a	0.12167938
21	0x3e6c1ca8	0.23057806
22	0x3d9a7af2	0.07542981
23	0xbd9a150e	-0.07523547
24	0x3e7c6a4e	0.24649927
25	0xbd92957d	-0.07157419
26	0xbd75b81d	-0.059990037
27	0xbdc8125e	-0.09769128
28	0x3d442730	0.047888935
29	0x3dc48d4e	0.09597264
30	0xbdb97fca	-0.09057577
31	0x3d26eca4	0.04075302
32	0x3db8fa30	0.090320945
33	0x3e25faa5	0.16208895
34	0xbe033c91	-0.12816073
35	0x3c0b2471	0.008492575
36	0xbe838e4f	-0.2569451
37	0xbe4aa63f	-0.1978998
38	0x3df318fa	0.11869998
39	0xbc070d87	-0.008242971
40	0xbe08ca41	-0.13358404
41	0xbd10d803	-0.035362255
42	0x3e2ef490	0.1708548
43	0x3e0d9be1	0.13828994
44	0x3d1cd660	0.03829038
45	0xbbdac4bd	-0.006676285
46	0xbd6da2d4	-0.058016613
47	0xbb88ab73	-0.004170829
48	0x3d81abdb	0.06331607
49	0xbe15b187	-0.14618503
50	0x3d9067be	0.07051037
51	0x3afad9cc	0.0019138395
52	0x3d715053	0.058914494
53	0xbd341630	-0.043966472
54	0xbc6bdde2	-0.014396163
55	0x3e4e97de	0.2017512
56	0x3d5833dd	0.052783836
57	0xbc9a611f	-0.01884514
58	0x3e35e140	0.17761707
59	0xbc3174a1	-0.010831029
60	0xbe22e64a	-0.15908161
61	0x3ea9138f	0.33022735
62	0xbe4c9d0d	-0.19981785
63	0x3e6bf2f3	0.23041897
64	0xbdbd2185	-0.09234909
65	0x3d122b72	0.035685964
66	0xbd454ae0	-0.04816711
67	0xbc098786	-0.008394128
68	0xbd273127	-0.04081836
69	0xbd047ead	-0.03234737
70	0x3dab64ee	0.0836886
71	0xbd349a6b	-0.044092577
72	0x3e2d6baf	0.1693561
73	0x3dc5b8d6	0.09654395
74	0x3deecb1f	0.11659836
75	0xbccfd8e1	-0.02537197
76	0x3da8ee47	0.08248573
77	0xbdf57228	-0.11984664
78	0xbda0960b	-0.078411184
79	0xbe0695a3	-0.1314302
80	0xbdea0318	-0.11426371
81	0x3da36e98	0.079800785
82	0xbc81fc21	-0.015867295
83	0x3e2e6c2e	0.17033455
84	0xbea4dd60	-0.32200146
85	0xbe3eeeba	-0.18645754
86	0x3e60f915	0.21970017
87	0x3e195fb6	0.14977917
88	0x3ba2008e	0.004943914
89	0xbcf6c7b6	-0.030124526
90	0x3e0eae5f	0.13933705
91	0x3c959a67	0.018262101
92	0xbdad4afc	-0.08461568
93	0xbcef5b21	-0.029218258
94	0xbe246b99	-0.1605667
95	0x3dddec38	0.10836071
96	0x3c6a4fa1	0.014301212
97	0x3bc25643	0.0059306934
98	0xbd584628	-0.05280128
99	0xbd98cba0	-0.074607134
100	0xbd7fdbd2	-0.062465496
101	0x3e02e6f9	0.12783422
102	0xbc9d0ea4	-0.01917202
103	0xbe319c13	-0.17344694
104	0x3cff5610	0.031168967
105	0x3e7194c9	0.23591913
106	0xbd939513	-0.07206168
107	0x3e2128b7	0.15738188
108	0x3e47eee8	0.19524729
109	0xbeac1e75	-0.33616987
110	0x3e01df7a	0.12682906
111	0xbe638f0e	-0.2222254
112	0x3db39105	0.08767895
113	0xbe3b764c	-0.18306845
114	0xbd2a4e21	-0.041578416
115	0x3da49612	0.08036436
116	0x3e5222fa	0.20521155
117	0x3e53e203	0.20691685
118	0xbda318d8	-0.07963723
119	0xbe659a9d	-0.22422262
120	0xbb95b57c	-0.0045687538
121	0xbc8f7d9a	-0.017515946
122	0x3e9d16db	0.306815
123	0x3da238ef	0.079210155
124	0x3d8839c4	0.06651643
125	0xbdfe0ae5	-0.12404422
126	0x3d295024	0.041336194
127	0x3da55d8a	0.08074482
128	0xbe20bfa6	-0.15698108
129	0x3d6c74d8	0.05772862
130	0xbe144a89	-0.14481558
131	0x3d9fca13	0.078022145
132	0x3d8ab9e7	0.06773739
133	0xbe2fb0f2	-0.17157343
134	0x3e154c3d	0.14579864
135	0x3e008dbb	0.12554066
136	0xbcab081d	-0.020877892
137	0x3e38bd03	0.18040852
138	0x3d8ba603	0.068187736
139	0x3d9d5c9a	0.07683678
140	0xbe1302b7	-0.14356504
141	0xbc846e37	-0.016165836
142	0xbe479e58	-0.19493997
143	0xbe9305f8	-0.2871549
144	0x3d62e604	0.05539514
145	0xbdce5dad	-0.10076461
146	0x3dcd8030	0.100342155
147	0x3e626e53	0.22112398
148	0xbc9926ea	-0.018695313
149	0xbe145ae3	-0.14487796
150	0xbd96af5b	-0.07357665
151	0x3dc47d1d	0.09594176
152	0xbdb140a6	-0.08654909
153	0x3dc07a83	0.09398367
154	0x3d25c9ae	0.04047554
155	0x3d05680a	0.032569923
156	0x3e163771	0.14669587
157	0x3e0a7f49	0.13525118
158	0x3db515f0	0.08842075
159	0x3d6ae761	0.057349566
160	0x3e7976b7	0.24361692
161	0xbe8574e7	-0.26065752
162	0xbe80d2b3	-0.2516075
163	0x3db29f7d	0.08721826
164	0xbe23ba30	-0.15988994
165	0xbdaf2096	-0.08551137
166	0x3cf2b2b4	0.029626228
167	0xbe802c46	-0.25033778
168	0xbe8f6a7b	-0.28010926
169	0x3e664135	0.22485812
170	0xbdcc5d50	-0.099787354
171	0x3de39a45	0.11113409
172	0x3dbab7b5	0.091170706
173	0xbc4f4e4f	-0.012652948
174	0xbdda1eaf	-0.10650384
175	0x3d98ef6c	0.07467541
176	0x3e9c5198	0.30531
177	0x3d2f0b3e	0.04273533
178	0x3e272d07	0.1632577
179	0xbd7eb27f	-0.062181946
180	0xbd12769d	-0.03575765
181	0xbbf5b87f	-0.0074988003
182	0xbcd6a6d8	-0.026202604
183	0xbe6afc55	-0.2294782
184	0x3d911503	0.07084086
185	0x3d908251	0.07056106
186	0xbe05fdc3	-0.13085084
187	0x3cc6f6fc	0.024287693
188	0xbd9625b0	-0.07331407
189	0x3d55b458	0.052173942
190	0x3e342756	0.1759313
191	0x3d160371	0.036624376
192	0xbd41f3ee	-0.04735177
193	0x3e7cfabb	0.24705021
194	0x3de20e3b	0.110378705
195	0xbe636657	-0.22207008
196	0x3d75ddb6	0.060025893
197	0xbe100d61	-0.14067604
198	0x3dab553c	0.083658665
199	0x3e97099c	0.2949952
200	0x3df95048	0.121735156
201	0xbda0d8c0	-0.07853842
202	0x3dcc2f0c	0.09969911
203	0xbe332cf0	-0.17497611
204	0xbda95213	-0.082676075
205	0xbda412b8	-0.08011383
206	0x3e428074	0.18994313
207	0xbc3fb4e4	-0.0117008425
208	0xbe015891	-0.12631442
209	0xbdb41063	-0.08792188
210	0x3e1a7dfd	0.15087123
211	0xbe1a074f	-0.1504185
212	0xbe435644	-0.19075876
213	0x3d5b95a4	0.053609505
214	0x3e21263a	0.15737239
215	0x3cbbae94	0.022910394
216	0x3ce2d386	0.027688753
217	0x3df72c91	0.12069047
218	0xbe0a41e1	-0.13501693
219	0xbdcaef89	-0.09908969
220	0x3e186c52	0.14885071
221	0xbda57f35	-0.080809034
222	0xbe367747	-0.17818938
223	0x3d85a79d	0.0652611
224	0xbd9a0827	-0.07521086
225	0x3e02cae6	0.12772712
226	0x3c0ba667	0.00852356
227	0x3dbc3bce	0.09191094
228	0x3e653b7e	0.22385976
229	0x3e06532a	0.13117662
230	0x3da921ed	0.08258424
231	0xbdf99543	-0.121866725
232	0xbc0c647a	-0.008568877
233	0xbe3035f4	-0.17208081
234	0xbe6710e8	-0.22565043
235	0xbc01d592	-0.007924454
236	0x3ad317a3	0.0016105067
237	0x3d9025fc	0.07038495
238	0xbe43ac20	-0.19108629
239	0x3c9aeb6f	0.018911092
240	0xbdd27e4a	-0.10277994
241	0x3e539bb0	0.20664859
242	0xbd48e2ef	-0.049044546
243	0x3c8e1184	0.017342336
244	0xb99342ec	-0.00028087886
245	0xbd981da6	-0.0742753
246	0x3d2dbce1	0.042416457
247	0x3d4c4c51	0.04987747
248	0xbdc28bb1	-0.094993
249	0xbdc44984	-0.095843345
250	0x3d4c5b84	0.049891964
251	0x3df5673f	0.11982583
252	0x3d48cbbe	0.04902243
253	0x3de52554	0.111887604
254	0x3dd10e43	0.10207798
255	0x3e02ff93	0.12792806

bn2.weight f4 [16]
0	0x3f93eeee	1.155729
1	0x3f9cd23e	1.2251661
2	0x3f9103eb	1.1329321
3	0x3f895817	1.0730008
4	0x3f78534e	0.9700211
5	0x3f6caf40	0.9245491
6	0x3f9d8e68	1.2309084
7	0x3f914bdf	1.1351279
8	0x3f942d23	1.1576275
9	0x3f9eaee9	1.2397128
10	0x3f833236	1.0249698
11	0x3f7abbdb	0.97942895
12	0x3fb9a89e	1.4504583
13	0x3fbd4afc	1.4788508
14	0x3f67b047	0.9050335
15	0x3f86f3e1	1.0543176

bn2.bias f4 [16]
0	0xbeb51a5c	-0.35371673
1	0xbec41fa3	-0.38305387
2	0xbee8278f	-0.4534268
3	0xbe5cd9ce	-0.21567461
4	0xbdf71b91	-0.12065805
5	0xbe10fbb6	-0.1415852
6	0xbf0ab3de	-0.54180706
7	0xbeeaf504	-0.45890057
8	0xbef36e29	-0.47544983
9	0xbeea2216	-0.4572913
10	0xbe34a552	-0.1764119
11	0xbe630628	-0.22170317
12	0xbf39d2f1	-0.72587496
13	0xbf262898	-0.6490569
14	0xbe50f6b2	-0.20406607
15	0xbe6a091a	-0.22855034

bn2.running_mean f4 [16]
0	0x3b0a95ce	0.002114642
1	0xbafc4649	-0.0019247021
2	0xbc930a7d	-0.017949337
3	0xb9cbc185	-0.0003886336
4	0x3ba40731	0.00500574
5	0xbc9af84a	-0.018917222
6	0xba9adeaf	-0.0011815632
7	0xbbb718a9	-0.0055876565
8	0xbbd7c981	-0.0065853004
9	0xbae4035b	-0.001739602
10	0x3995870e	0.00028520118
11	0xbb12555c	-0.002232871
12	0xb838a36d	-4.402122e-05
13	0xb8fdffd7	-0.00012111634
14	0x3bb5bb10	0.005545981
15	0x3c0c4cea	0.00856326

bn2.running_var f4 [16]
0	0x3d72ca9e	0.059275262
1	0x3d056198	0.032563776
2	0x3e7e4d08	0.24834073
3	0x3c8f1d01	0.017469885
4	0x3c4411fc	0.011967178
5	0x3d907a03	0.07054522
6	0x3da54e4e	0.08071576
7	0x3e42b6d2	0.19015053
8	0x3e5f7928	0.21823561
9	0x3de243fc	0.11048123
10	0x3d2520ac	0.04031436
11	0x3cd98c19	0.026556062
12	0x3e92ac62	0.28647143
13	0x3e38ef65	0.18060072
14	0x3e1b6986	0.15176973
15	0x3d470194	0.04858549

conv_sep.0.weight f4 [16, 1, 1, 16]
0	0xbbfdc9da	-0.00774501
1	0xbd384c2e	-0.044994526
2	0xbe1174b2	-0.14204672
3	0x3c2c5d16	0.01052024
4	0x3bda3e4b	0.006660258
5	0xbd7af78f	-0.061271247
6	0x3e0783cd	0.13233872
7	0x3d487a30	0.048944652
8	0x3e92aa05	0.2864534
9	0x3e8286d8	0.25493503
10	0x3e864cb5	0.26230398
11	0x3ea45800	0.3209839
12	0x3e095604	0.13411719
13	0x3d4b0121	0.049561623
14	0x3e174b35	0.14774783
15	0xbd91cdf6	-0.07119362
16	0x3d4c766e	0.04991763
17	0x3d2a4c2a	0.041576542
18	0x3e0975f7	0.13423906
19	0x3c83e49b	0.016100219
20	0xbcdc5bfe	-0.026899334
21	0x3d300604	0.042974487
22	0xbce511d3	-0.0279626
23	0x3d3c976a	0.046042837
24	0x3e2c8763	0.16848521
25	0x3e4b5304	0.19855887
26	0xbbaebaa8	-0.0053323098
27	0x3e3d8d15	0.1851085
28	0x3e509581	0.20369531
29	0x3e484f24	0.1956144
30	0x3e17f327	0.14838849
31	0x3cc2c76b	0.02377673
32	0x3e861d52	0.26194245
33	0x3ea8d556	0.32975262
34	0x3dd461df	0.1037023
35	0x3e3a332c	0.18183583
36	0xbda89e4f	-0.0823332
37	0xbdf01480	-0.1172266
38	0xbca2365b	-0.01980131
39	0xbd0ca794	-0.034339502
40	0x3e15ba59	0.14621867
41	0x3df8cc61	0.12148357
42	0x3c10df01	0.008842231
43	0xbd4770d0	-0.04869157
44	0x3d7ee66b	0.062231462
45	0x3d90bc5b	0.07067176
46	0x3e1e4527	0.15456067
47	0xbe102247	-0.14075576
48	0xbc4f2d7f	-0.012645124
49	0xbe44340a	-0.19160476
50	0xbcec572d	-0.028850162
51	0xbe166432	-0.14686659
52	0x3c9d11fe	0.019173618
53	0x3db4e7bf	0.088332646
54	0x3da978b2	0.08274974
55	0x3e240a78	0.16019619
56	0x3e24d7be	0.16097924
57	0x3d1ab97f	0.03777456
58	0xbbe51a85	-0.0069916868
59	0xbe12e1b9	-0.14343919
60	0xbdc4b195	-0.096041836
61	0xbe9abaab	-0.3022054
62	0xbe821471	-0.2540622
63	0xbe34c5b5	-0.17653544
64	0xbe67d3e1	-0.22639419
65	0xbdf324ef	-0.11872279
66	0xbea93c77	-0.33053944
67	0xbea45db2	-0.32102734
68	0x3c283178	0.0102657005
69	0x3bfb193c	0.0076629203
70	0xbd20e1e8	-0.03927794
71	0x3e1be589	0.1522428
72	0x3e4b8b9c	0.19877476
73	0xbcdc8b10	-0.026921779
74	0x3d95e281	0.07318593
75	0x3da98a55	0.08278338
76	0xbde90f16	-0.113798305
77	0x3d701869	0.05861703
78	0xbdf62c0b	-0.12020119
79	0xbd303b1d	-0.043025125
80	0xbe213adf	-0.15745114
81	0xbdef4c88	-0.11684519
82	0xbc7f78e4	-0.015592787
83	0xbd1f1053	-0.038833927
84	0x3d5d37bc	0.05400823
85	0xbe730990	-0.23734117
86	0xbd2ee4a7	-0.04269853
87	0x3b3faa0e	0.0029245648
88	0xbd8c7104	-0.068574935
89	0x3cd52cd0	0.026022345
90	0x3e42cc52	0.19023255
91	0x3e288f63	0.16460948
92	0x3d8abf08	0.067747176
93	0x3e4fc895	0.2029136
94	0x3e55029e	0.2080178
95	0x3e15a839	0.14614953
96	0x3e1450c6	0.14483938
97	0xba63f232	-0.00086954527
98	0x3d264b03	0.04059888
99	0x3d80ca8b	0.06288632
100	0x3e918274	0.2841984
101	0xbd089004	-0.03334047
102	0x3e205017	0.15655552
103	0x3ca9ca20	0.020726264
104	0x3e61b374	0.22041112
105	0x3da05110	0.078279614
106	0x3de24d96	0.110499546
107	0x3dd2ebdc	0.10298893
108	0x3de870c8	0.11349636
109	0x3d982797	0.07429426
110	0x3e267f20	0.16259432
111	0x3e649a26	0.22324428
112	0x3e607391	0.21919085
113	0x3e306446	0.17225751
114	0x3e650c97	0.22368084
115	0x3d77479b	0.060371023
116	0xbd2ce5b8	-0.042211264
117	0x3dc63676	0.09678356
118	0x3e84fa73	0.25972328
119	0x3e3641a4	0.17798477
120	0xbd42d6a7	-0.04756799
121	0xbd4913ca	-0.049091138
122	0x3dfe6647	0.124218516
123	0x3dd19ca5	0.10234956
124	0x3e419d9a	0.18907776
125	0x3df48b13	0.11940589
126	0x3e06e0ed	0.1317174
127	0x3e044e4d	0.12920494
128	0x3e2f5395	0.17121728
129	0x3de4f174	0.11178866
130	0x3c9306e1	0.017947616
131	0x3e2418b9	0.16025056
132	0xbcb08684	-0.021548517
133	0x3e861849	0.26190403
134	0x3da7d665	0.081951894
135	0x3dff650e	0.124704465
136	0xbdd1f27d	-0.10251329
137	0x3d9ad7f5	0.07560722
138	0x3e10c62e	0.141381
139	0x3cca1dfd	0.024672503
140	0x3e31a3e9	0.17347683
141	0x3da1f3cd	0.079078294
142	0x3e429558	0.19002283
143	0x3e8080fa	0.250984
144	0xbd9c08e5	-0.07618884
145	0x3d974cf8	0.073877275
146	0xbdf20f2d	-0.11819301
147	0x3ca42dcb	0.020041367
148	0xbcf88116	-0.03033499
149	0x3d7de844	0.061989084
150	0x3ce190e0	0.027534902
151	0xbd7ad7e4	-0.061241046
152	0xbdeec9a2	-0.11659552
153	0xbdd52953	-0.104082726
154	0xbdc65f46	-0.09686141
155	0xbe761e85	-0.2403508
156	0xbe7d6de6	-0.24748954
157	0xbe927d97	-0.28611442
158	0xbdbe7f2d	-0.093016006
159	0xbe07d809	-0.13266005
160	0x3e84eecb	0.25963435
161	0xbdcaa65c	-0.09895012
162	0xbe196671	-0.14980485
163	0xbe0478bf	-0.12936686
164	0x3d81d3b6	0.06339209
165	0x3c85cd25	0.016333172
166	0xbc2056a1	-0.009786279
167	0xbd4a32ff	-0.04936504
168	0x3e7ddb27	0.24790631
169	0x3e0d182b	0.1377875
170	0x3ea98f6a	0.3311723
171	0x3cfcbad0	0.030850798
172	0x3aa4893a	0.0012553104
173	0x3d096bc9	0.033550058
174	0x3cd4af76	0.025962573
175	0xbcf2994d	-0.029614115
176	0x3e932401	0.28738406
177	0x3d7f2826	0.062294148
178	0x3e895536	0.26822823
179	0x3e2141ec	0.15747803
180	0x3e2c108b	0.16803186
181	0x3d05bf00	0.032652855
182	0x3e533176	0.20624337
183	0x3e4f0411	0.20216395
184	0x3c72011d	0.014770773
185	0x3d2537c4	0.040336385
186	0xbd81a7fc	-0.063308686
187	0xbdf0c057	-0.11755436
188	0x3d1c56ad	0.038168598
189	0xbe473bb1	-0.19456364
190	0xbe7113a5	-0.2354265
191	0xbe0061f2	-0.12537363
192	0x3d3ff0ee	0.046860628
193	0x3e1e3204	0.15448767
194	0x3e2b98cd	0.16757508
195	0x3e77001b	0.24121134
196	0x3e38f70a	0.18062988
197	0x3e667181	0.22504236
198	0x3df414b6	0.11918013
199	0x3e4cc3d9	0.19996585
200	0x3e004e45	0.12529857
201	0x3c696e11	0.014247433
202	0x3e14229a	0.14466324
203	0x3dd22ad3	0.10262074
204	0x3de01ca5	0.109429635
205	0xbbf6a934	-0.007527495
206	0x3df49752	0.119429246
207	0x3e0ec3b0	0.13941836
208	0xbda0784d	-0.078354456
209	0xbd6d3bfd	-0.057918537
210	0xbd73d839	-0.059532378
211	0xbdda9cc1	-0.1067443
212	0xbe50cd24	-0.20390755
213	0xbe5d1aeb	-0.215923
214	0xbe0a37cd	-0.13497849
215	0xbd6e192e	-0.058129482
216	0xbe731666	-0.23739013
217	0xbe55187a	-0.20810118
218	0xbdfa833e	-0.12232064
219	0xbe408d2f	-0.18803857
220	0xbda15088	-0.07876688
221	0xbe834c43	-0.2564412
222	0xbe1897ac	-0.14901608
223	0xbe4b182d	-0.19833441
224	0x3e6cfc2f	0.23143075
225	0xbe3d4473	-0.18483143
226	0xbdbeaa93	-0.09309878
227	0xbe08cc11	-0.13359095
228	0xbde5b2ea	-0.11215766
229	0xbe450b27	-0.19242536
230	0x3d1b0237	0.03784391
231	0x3d66e95a	0.056374885
232	0x3daa5ad8	0.08318108
233	0x3e6cbdac	0.23119229
234	0x3e1ac9a0	0.15115976
235	0x3e323c04	0.17405707
236	0xbdb63671	-0.088971026
237	0xbd4d6223	-0.05014242
238	0xbe4790a0	-0.19488764
239	0xbe810ab1	-0.2520347
240	0xbd5ea0e0	-0.05435264
241	0xbc0a4fb4	-0.008441854
242	0xbeadd2c6	-0.3394987
243	0xbd9347b7	-0.07191413
244	0xbdeb766a	-0.11497195
245	0x3e640333	0.22266845
246	0x3e15286b	0.145662
247	0xbcefe4de	-0.029283937
248	0x3e12e409	0.14344801
249	0x3e47dde5	0.1951824
250	0x3da91775	0.08256427
251	0xbe04e4cf	-0.12977909
252	0xbeb25799	-0.34832457
253	0xbe61b657	-0.22042213
254	0xbdbbc90d	-0.09169207
255	0xbd84a71c	-0.06477186

conv_sep.1.weight f4 [16, 16, 1, 1]
0	0xbdecffee	-0.11572252
1	0x3d4c87cc	0.049934193
2	0x3d8183cd	0.06323967
3	0x3d081d75	0.033231217
4	0x3e65a739	0.22427072
5	0xbd076b11	-0.03306109
6	0x3e4590b4	0.19293481
7	0xbd940888	-0.0722819
8	0xbd8f43cb	-0.06995352
9	0x3e38cf30	0.18047786
10	0xbe86d01f	-0.2633066
11	0x3d378f39	0.044814322
12	0x3e2ad31f	0.16682099
13	0x3e2ba7f1	0.16763283
14	0xbe4531c7	-0.1925727
15	0x3d26d120	0.04072678
16	0xbd8ca3da	-0.0686719
17	0x3caaf403	0.020868307
18	0x3e969ffd	0.29418936
19	0xbe42c9e1	-0.19022323
20	0xbd8b4aed	-0.068014
21	0xbe0b87a3	-0.1362596
22	0xbddb345f	-0.10703348
23	0x3e129b27	0.14316998
24	0x3e28dd7a	0.16490737
25	0xbd1f7158	-0.038926452
26	0x3d959d90	0.07305443
27	0x3d5cb1d0	0.053880513
28	0xbe78b2bf	-0.24286936
29	0xbdedffc6	-0.116210505
30	0xbdc50b23	-0.09621265
31	0xbd11b23d	-0.035570372
32	0x3e544b10	0.20731759
33	0x3da3acfd	0.07991979
34	0x3e036739	0.12832345
35	0xbe151dc7	-0.1456214
36	0x3e283ff0	0.1643064
37	0x3b66d685	0.0035223078
38	0xbd989ffb	-0.07452389
39	0x3d8a221d	0.06744788
40	0x3e8aaf9f	0.27087113
41	0xbe6fd004	-0.23419195
42	0xbda2a6d5	-0.07941977
43	0xbd8df3e7	-0.06931286
44	0x3e6eb40c	0.2331087
45	0x3da4a075	0.08038417
46	0x3e097112	0.13422039
47	0x3e00f0ce	0.1259186
48	0x3d96d175	0.073641695
49	0xbe287883	-0.16452222
50	0xbd5e73f9	-0.05430982
51	0x3e0bfa2a	0.13669649
52	0xbe679627	-0.22615872
53	0xbe6b3b12	-0.22971752
54	0xbe0d3543	-0.13789849
55	0x3e0191b6	0.1265324
56	0x3e6fb5e2	0.23409227
57	0xbd4e79d9	-0.05040917
58	0xbe022ef3	-0.12713222
59	0xbc2794ef	-0.01022838
60	0xbdf9944d	-0.12186489
61	0x3d9a7641	0.075420864
62	0xbe5b91dc	-0.2144236
63	0x3dad434f	0.08460104
64	0xbdd5b668	-0.10435182
65	0x3d06e3a0	0.032931924
66	0xbd599c38	-0.053127497
67	0x3c281868	0.010259725
68	0xbe43a9e3	-0.19107775
69	0xbe194246	-0.14966688
70	0x3e8425dc	0.25810134
71	0xbdc75660	-0.097332716
72	0xbce8a964	-0.028401084
73	0x3e8d0f7d	0.2755088
74	0xbce430cc	-0.0278553
75	0x3e296dc4	0.16545779
76	0x3e295b0b	0.16538636
77	0x3de6c48b	0.11267956
78	0xbd4868d3	-0.048928093
79	0x3e67bd52	0.22630814
80	0x3a067e88	0.0005130549
81	0xbe78280e	-0.2423403
82	0x3e07b225	0.1325155
83	0xbc906cfa	-0.01763009
84	0x3d7a03ca	0.06103877
85	0x3e190439	0.14943017
86	0xbdc0d0fd	-0.09414861
87	0x3e09dca9	0.13463081
88	0x3c16077e	0.00915706
89	0x3d9b65ee	0.07587801
90	0x3c8163b0	0.015794605
91	0xbdb27425	-0.08713559
92	0x3e7cc01d	0.2468266
93	0x3ccfc6af	0.025363294
94	0xbd9c348e	-0.076272115
95	0xbeae1c88	-0.34006143
96	0x3e7a343c	0.24433988
97	0x3df30782	0.118666664
98	0xbdcad0ff	-0.09903144
99	0xbe396646	-0.1810542
100	0xbd843896	-0.064561054
101	0x3d0ff6ff	0.035147663
102	0x3dc70bfb	0.09719082
103	0xbe399c10	-0.1812594
104	0xbdeb13f2	-0.11478414
105	0x3e11a420	0.14222765
106	0x3d2ed83b	0.042686682
107	0x3e3fd388	0.18733037
108	0x3c551eac	0.013007801
109	0xbcf0610e	-0.029343154
110	0xbae12eaf	-0.001718005
111	0xbe29b069	-0.16571201
112	0x3e00f47a	0.1259326
113	0xbe8e2e09	-0.27769497
114	0xbc2d81fa	-0.010590071
115	0x3ea607dd	0.32427874
116	0x3de05209	0.10953147
117	0xbe702ecf	-0.23455356
118	0xbe42412b	-0.18970172
119	0xbdc21fac	-0.09478697
120	0xbd566825	-0.052345414
121	0xbe7b7b60	-0.24558783
122	0x3e134ff2	0.14385965
123	0x3e10b420	0.14131212
124	0xbda8bfb3	-0.08239689
125	0xbe513ae3	-0.2043262
126	0x3d95b35a	0.07309599
127	0x3d049719	0.03237066
128	0xbd1229ed	-0.035684515
129	0x3b1cddcc	0.0023935912
130	0xbdc234b9	-0.09482712
131	0x3e92eceb	0.2869638
132	0x3d48bec1	0.049010042
133	0x3cee2eb6	0.029075008
134	0x3ca50038	0.020141706
135	0xbe5c9180	-0.21539879
136	0x3da0c8ce	0.078508005
137	0xbdccfb7e	-0.10008906
138	0x3d0be670	0.03415531
139	0x3e112a75	0.14176352
140	0x3e0022f5	0.12513335
141	0xbdab91cf	-0.0837742
142	0xbea4b5ad	-0.32169858
143	0x3d16b8c7	0.03679731
144	0x3d39c141	0.045350317
145	0x3d861bac	0.06548247
146	0xbe4d4f22	-0.20049718
147	0xbbbaebce	-0.0057043796
148	0xbe74ec0b	-0.23918168
149	0xbda88be3	-0.08229806
150	0x3d845c38	0.06462902
151	0x3e7401a8	0.23828757
152	0xbe589db6	-0.21153912
153	0xbd6bd451	-0.057575528
154	0xbe618ac5	-0.22025593
155	0xbd1659a8	-0.036706597
156	0x3ca97f95	0.020690719
157	0xbe67bbc4	-0.2263022
158	0x3d17a8a4	0.037026063
159	0xbd7f6447	-0.06235149
160	0xbe8bb2f0	-0.27284956
161	0xbdc65190	-0.096835256
162	0x3dfb490d	0.12269793
163	0x3d7d4ad7	0.06183895
164	0x3ce64fc7	0.028114213
165	0xbd56a0b2	-0.052399345
166	0x3d40d4d7	0.04707798
167	0xbd8887fb	-0.06666561
168	0x3d7b4bff	0.061351772
169	0xbe2678ba	-0.16256991
170	0xbda2766d	-0.07932744
171	0xbe3c97d7	-0.18417297
172	0xbe1163f8	-0.14198291
173	0x3e47bf4d	0.19506569
174	0xbe1ee8c3	-0.15518479
175	0x3e0d9583	0.13826565
176	0x3df59cd2	0.11992802
177	0x3df9cd0c	0.12197313
178	0x3e506e79	0.20354642
179	0x3db5dd71	0.08880127
180	0x3d30995b	0.043115
181	0x3d4c9592	0.04994733
182	0x3d967685	0.073468246
183	0x3da0b4d1	0.07846988
184	0xbcb44c4c	-0.022009037
185	0x3da0c0d1	0.07849277
186	0x3e60000e	0.21875021
187	0x3e287c48	0.1645366
188	0x3da3d0f4	0.07998839
189	0xbe0cfc2a	-0.13768068
190	0xbae3b956	-0.001737396
191	0x3d00aaaf	0.031412777
192	0xbdc158c8	-0.09440762
193	0xbdc42a6a	-0.09578402
194	0xbdabf161	-0.08395649
195	0x3df30a7a	0.118672326
196	0xbe246aff	-0.16056441
197	0x3d4531a8	0.04814306
198	0xbd2baf49	-0.04191521
199	0x3dc965db	0.098338805
200	0xbdb4f593	-0.08835902
201	0x3e288d92	0.16460255
202	0xbe152d34	-0.14568025
203	0xbdc187d9	-0.09449739
204	0xbdd0227f	-0.101628296
205	0xbc966578	-0.018358931
206	0x3c4f5c34	0.01265626
207	0x3e0dc8c5	0.13846119
208	0xbdaa306d	-0.08310018
209	0xbe294c0b	-0.16532914
210	0x3e314138	0.17310035
211	0xbe5504cb	-0.2080261
212	0xbe44b607	-0.19210063
213	0x3e6bbc9b	0.23021166
214	0x3e1f339e	0.15547034
215	0xbdfd1af6	-0.12358658
216	0x3e07fc9a	0.13279954
217	0xbd88ea4b	-0.06685313
218	0x3cb03326	0.021508764
219	0x3e25d2b4	0.16193658
220	0xbddced61	-0.10787464
221	0x3e2f1735	0.17098697
222	0x3d08bd20	0.03338349
223	0x3dd1ab8b	0.10237797
224	0xbdd0778e	-0.10179053
225	0xbea4535d	-0.3209485
226	0xbd7b4abd	-0.061350573
227	0x3ced1979	0.02894281
228	0x3d4a7f22	0.04943765
229	0x3da28b4c	0.07936725
230	0x3e573551	0.21016432
231	0x3d9ba75b	0.0760028
232	0xbd111d4c	-0.03542833
233	0x3e42807e	0.18994328
234	0x3cec2194	0.028824605
235	0x3e844b83	0.2583886
236	0x3e1eae34	0.1549614
237	0x3e312a8a	0.17301384
238	0x3d3c9d70	0.04604858
239	0xbe361557	-0.17781578
240	0x3e25cf89	0.1619245
241	0xbe5c1839	-0.21493615
242	0x3e384f00	0.17998886
243	0x3e8183f7	0.25295994
244	0x3d26b5dd	0.040700782
245	0x3c44c48f	0.012009754
246	0xbe030f95	-0.12798913
247	0xbc035d1e	-0.008017806
248	0xbd289729	-0.041159783
249	0x3df18d59	0.11794538
250	0xbdcea8b2	-0.1009077
251	0xbe1b4f0d	-0.15166874
252	0xbd8a9293	-0.06766238
253	0x3dbca54b	0.09211215
254	0xbe5f37d8	-0.21798646
255	0xbe2a6ce3	-0.166431

bn3.weight f4 [16]
0	0x3fafb949	1.372842
1	0x3fb111f1	1.38336
2	0x3fb6501b	1.4243196
3	0x3fbc8b65	1.473004
4	0x3fbd1bfe	1.4774168
5	0x3fb7a7bc	1.4348063
6	0x3fba4e17	1.4555081
7	0x3fb4caa8	1.4124346
8	0x3fdcf21c	1.7261386
9	0x3fa3b3fd	1.2789303
10	0x3fab0653	1.3361305
11	0x3fa64b28	1.2991686
12	0x3fbc6340	1.4717789
13	0x3fc334e6	1.5250518
14	0x3fabbb71	1.3416578
15	0x3fbc424c	1.4707732

bn3.bias f4 [16]
0	0xbdbf9163	-0.09353902
1	0xbcb3e88d	-0.021961475
2	0xbd9749b4	-0.07387105
3	0xbe09cd29	-0.13457169
4	0xbe2595a5	-0.16170366
5	0xbdc78c3f	-0.09743547
6	0xbe82c5ba	-0.25541478
7	0xbcc4eb02	-0.024037842
8	0xbe194208	-0.14966595
9	0xbd41fcf5	-0.04736038
10	0xbe64e810	-0.2235415
11	0xbd70e15d	-0.058808673
12	0xbe63cd20	-0.22246218
13	0xbe4292e7	-0.19001351
14	0xbe31579e	-0.1731858
15	0xbe398bd1	-0.18119742

bn3.running_mean f4 [16]
0	0xbcb29d00	-0.021803379
1	0xbc989733	-0.018626785
2	0xbe3c97be	-0.1841726
3	0x3d0ddb37	0.034632888
4	0xbc4b412f	-0.012405678
5	0xbda1fcf5	-0.07909576
6	0x3d1dafb7	0.038497653
7	0x3c44d448	0.012013502
8	0xbd67b411	-0.05656821
9	0xbdc613ba	-0.09671731
10	0x3dbc6518	0.091989696
11	0xbe0c87dc	-0.13723701
12	0x3db04d50	0.08608496
13	0x3d6b0ec3	0.057387125
14	0xbbe220b9	-0.0069008735
15	0x3dbdcc27	0.092674546

bn3.running_var f4 [16]
0	0x3e019539	0.1265458
1	0x3e036a0f	0.12833427
2	0x3de2aab8	0.11067718
3	0x3e16a32a	0.1471068
4	0x3e1b63ce	0.15174791
5	0x3e2a3097	0.16620098
6	0x3ddff436	0.109352514
7	0x3e2cdd2b	0.16881244
8	0x3e092a2c	0.13394994
9	0x3e12c1b8	0.1433171
10	0x3e05d500	0.13069534
11	0x3d9f149f	0.07767605
12	0x3dcec9b3	0.10097065
13	0x3e141a74	0.14463216
14	0x3df0d253	0.11758866
15	0x3e2afc67	0.16697846

eca.conv1d.weight f4 [1, 1, 3]
0	0xbf2e6335	-0.6812013
1	0x3d3b3131	0.04570121
2	0xbfab3fce	-1.3378847

classifier.weight f4 [4, 560]
0	0x3d1644d5	0.036686737
1	0xbc169833	-0.009191561
2	0x3cbb80e0	0.0228886
3	0x3bef2da7	0.0072991434
4	0xbd0111b3	-0.03151102
5	0xbdf85db5	-0.12127248
6	0xbda10833	-0.07862892
7	0xbcce79e9	-0.025204616
8	0x3d4c90f4	0.049942926
9	0xbd597dae	-0.053098373
10	0xbce9b3b0	-0.028528064
11	0xbd20314f	-0.039109524
12	0xbc4d9d1b	-0.012549664
13	0xbda0cc14	-0.07851425
14	0x3db0c5e9	0.08631498
15	0x3ca73ebc	0.020415656
16	0xbe4ddd8b	-0.20104043
17	0x3df46e06	0.11935048
18	0xbda47b6d	-0.08031354
19	0x3d25a1f0	0.04043764
20	0xbded7a9c	-0.115956515
21	0x3d772940	0.060342073
22	0xbd471890	-0.04860741
23	0xbbe684f6	-0.007034893
24	0xbd234bcd	-0.03986721
25	0x3d976b29	0.07393486
26	0xbde772ef	-0.11301219
27	0x3cfb867a	0.030703772
28	0x3d64ea88	0.05588773
29	0xbd5e901a	-0.054336645
30	0xbcef51e2	-0.02921385
31	0x3d759e33	0.059965324
32	0x3d954f91	0.07290567
33	0xbdece177	-0.115664415
34	0x399eb6e1	0.00030272364
35	0xbdddeba9	-0.10835964
36	0xbd423772	-0.047416158
37	0x3dd5e823	0.10444667
38	0x3cb94b07	0.022618784
39	0x3da63821	0.081161745
40	0x3e013e5d	0.12621446
41	0x3bf8e48c	0.0075956043
42	0xbce640a9	-0.028107004
43	0x3d62d9f5	0.05538364
44	0xbe065a84	-0.13120466
45	0xbdb957c6	-0.090499446
46	0xbd8d1480	-0.06888676
47	0xbcab7a76	-0.020932417
48	0xbc55b879	-0.01304447
49	0x3c6f547b	0.014607544
50	0x3d144ce4	0.03620614
51	0xbce85700	-0.028361797
52	0xbc5098ce	-0.012731744
53	0xbcc2947e	-0.023752447
54	0xbd85b5e1	-0.06528831
55	0x3b075cbb	0.0020654637
56	0xbc8c8f65	-0.01715822
57	0xbe6e4e5e	-0.23272082
58	0x3d992822	0.07478358
59	0xbd9e2a3b	-0.077228986
60	0xbd957e65	-0.072994985
61	0xbe1f3f0c	-0.15551394
62	0x3d0dc600	0.034612656
63	0x3daaec57	0.083458595
64	0xbd8f2bf6	-0.06990807
65	0xbd99f380	-0.07517147
66	0xbdb0595b	-0.08610793
67	0xbd0fe92b	-0.035134476
68	0x3e27c2f2	0.1638296
69	0x3d8cfea9	0.0688451
70	0x3da35b4b	0.07976397
71	0xbb68bb59	-0.0035512059
72	0x3be9e28b	0.0071376017
73	0xbbfea336	-0.007770921
74	0x3e0e545e	0.13899371
75	0xbcada0a8	-0.021194771
76	0x3e086738	0.13320625
77	0xbe449f64	-0.19201428
78	0x3d40652a	0.046971478
79	0xbcb6381c	-0.022243552
80	0x3c0221dc	0.007942643
81	0x3d66778d	0.056266356
82	0xbcbc7779	-0.023006188
83	0x3de105fc	0.109874696
84	0xbd8d2920	-0.068926096
85	0x3db21f42	0.08697368
86	0xbd174436	-0.036930285
87	0x3dbd03fb	0.09229275
88	0x3d9d9ad2	0.07695545
89	0x3d215936	0.03939172
90	0xbd732700	-0.059363365
91	0xbd212b37	-0.039347854
92	0x3d0093cb	0.031390946
93	0xbd38e26e	-0.045137815
94	0x3d86d858	0.06584233
95	0xbc4e660f	-0.012597575
96	0xbc0ccc48	-0.008593626
97	0xbd19af9a	-0.037520982
98	0xbd3f183a	-0.046653964
99	0x3c8028f9	0.015644537
100	0x3da008b0	0.07814157
101	0x3dafde91	0.08587373
102	0xbda1d3bc	-0.07901713
103	0xbb8d8c89	-0.0043197316
104	0x3c873cd0	0.01650849
105	0x3c5c676a	0.01345239
106	0x3cc39dfc	0.023879044
107	0x3bafa985	0.0053607845
108	0xb98a1e69	-0.00026344068
109	0xbd9b3ea7	-0.07580309
110	0x3dea995e	0.11455034
111	0x3c5bdb12	0.01341893
112	0x3c033d4f	0.008010223
113	0xbbc72d5a	-0.0060784044
114	0xbde8e23a	-0.11371274
115	0x3e065ef1	0.13122155
116	0x3d833e1b	0.0640833
117	0x3c439446	0.011937207
118	0x3de38e52	0.1111113
119	0xbc753930	-0.014967248
120	0x3dc180e8	0.09448415
121	0x3e00c7ce	0.1257622
122	0xbb0067e0	-0.0019593164
123	0xbc4c0ea9	-0.012454667
124	0xbdae43c6	-0.085090205
125	0x3dac1b2b	0.084036194
126	0x3df48349	0.11939103
127	0xbdecb197	-0.1155731
128	0x3d5626ed	0.052283216
129	0x3cc5c829	0.024143295
130	0xbcab4cbc	-0.020910613
131	0x3cfd7dc1	0.030943753
132	0x3cf29dfe	0.029616352
133	0x3d758bc9	0.059947763
134	0x3cc78212	0.024354015
135	0x3d2fcc8f	0.04291969
136	0xbe14f4dc	-0.14546531
137	0xbdcf2b5f	-0.10115694
138	0x3d281d09	0.041043315
139	0x3c33db65	0.010977601
140	0x3cd3386e	0.025783744
141	0x3c15ff43	0.009155097
142	0xbda9ff0e	-0.08300601
143	0xbc814abb	-0.015782705
144	0xbe8b423b	-0.27198967
145	0x3e68a8a9	0.22720589
146	0x3df6add6	0.12044875
147	0xbd95cc04	-0.073143035
148	0x3d8bfa8f	0.068349
149	0x3cf0da81	0.029401066
150	0x3d47d5bf	0.04878783
151	0xbd9d7239	-0.07687802
152	0xbd6d78c4	-0.0579765
153	0x3d2aa97c	0.04166554
154	0x3c59c223	0.013290915
155	0x3c50f890	0.012754574
156	0x3ce0a5d8	0.02742283
157	0x3bc9d97c	0.0061599594
158	0x3ced7898	0.028988168
159	0xbc8a25df	-0.016863761
160	0xbcad90ae	-0.021187153
161	0x3ccd80d1	0.025085839
162	0x3d1ebe1e	0.03875553
163	0x3dde28ba	0.10847612
164	0xbc34f2a1	-0.011044175
165	0x3d575599	0.052571867
166	0x3c13f5fd	0.009030816
167	0xbdb743f1	-0.08948506
168	0xbca4b2f6	-0.020104866
169	0x3c067676	0.008206954
170	0x3bdf0a74	0.006806666
171	0x3d95b5c1	0.073100574
172	0x3d0da0f9	0.034577344
173	0xbd32c42c	-0.043644115
174	0x3df391cc	0.11893043
175	0xbd835187	-0.064120345
176	0xbd476f81	-0.048690323
177	0x3dea0476	0.11426632
178	0xbd5f3435	-0.054493148
179	0x3e1274ab	0.14302318
180	0xbde4aa61	-0.1116531
181	0x3d711d4a	0.058865823
182	0x3e67270c	0.22573489
183	0x3d64174a	0.055686273
184	0x3dc29835	0.095016874
185	0xbcdbaf4b	-0.026816985
186	0xbb45de22	-0.0030192216
187	0x3ca38c08	0.019964233
188	0x3bcd53ac	0.006266078
189	0x3e8a1161	0.26966384
190	0xbd7d76e9	-0.06188098
191	0xbc16c6f7	-0.00920271
192	0x3b157514	0.002280538
193	0x3cb97533	0.022638893
194	0xbdedead3	-0.11617055
195	0xbce06870	-0.02739355
196	0xbcf267c2	-0.029590491
197	0x3de7f430	0.11325872
198	0x3db904d6	0.090341255
199	0x3c6bac17	0.014384291
200	0x3d983258	0.07431477
201	0xbd9b841c	-0.07593557
202	0x3df2edf3	0.118617915
203	0x3d091c18	0.033474058
204	0xbd7eb53d	-0.06218456
205	0x3d99ddab	0.07512983
206	0xbdd1b32e	-0.10239254
207	0x3d121f14	0.03567417
208	0x3e0fa011	0.14025904
209	0xbbfa30db	-0.0076352186
210	0x3d58b9de	0.05291163
211	0x3de03f99	0.1094963
212	0xbd821162	-0.06350972
213	0xbd1820c2	-0.037140615
214	0x3e3bfbd5	0.18357785
215	0xbdc6c5c5	-0.0970569
216	0x3dcee564	0.101023465
217	0x3d47193a	0.048608042
218	0xbd92e26b	-0.07172092
219	0x3dc8e9d1	0.09810222
220	0x3d5ea65f	0.054357883
221	0xbcd36e49	-0.025809424
222	0xbdc7d842	-0.09758045
223	0x3d2e85f2	0.04260821
224	0xbd61ade3	-0.055097472
225	0xbd119a2b	-0.035547417
226	0xbd029a0e	-0.0318852
227	0x3c813c65	0.015775869
228	0xbcfff68b	-0.03124549
229	0xbd6581ff	-0.056032177
230	0x3d9ed63a	0.07755704
231	0x3d84c04b	0.064819895
232	0x3d1de41c	0.03854762
233	0x3d8b205f	0.06793284
234	0x3d3ff1b6	0.046861373
235	0x3d494e69	0.049147043
236	0x3d854011	0.0650636
237	0x3c691df9	0.014228337
238	0x3cc60c98	0.024175927
239	0xbd6893cb	-0.05678157
240	0xbc225391	-0.009907619
241	0xbcdfb1e1	-0.027306499
242	0xbd8844dc	-0.06653759
243	0xbd5fc20e	-0.054628424
244	0x3ddcea28	0.10786849
245	0x3db11abc	0.08647677
246	0xbc096676	-0.008386245
247	0x3c4449b1	0.01198046
248	0x3cd9e06e	0.026596274
249	0x3e57abbd	0.21061607
250	0xbe88c44d	-0.26712266
251	0x3dc67e72	0.09692086
252	0x3d50a5bd	0.05093931
253	0x3de2fea2	0.110837236
254	0x3d4b4eec	0.049635813
255	0x3d936edd	0.0719888

classifier.bias f4 [4]
0	0x3d8e2263	0.069401525
1	0xbc1d75e5	-0.009610628
2	0xbdf888e7	-0.12135487
3	0xbac7eae9	-0.0015252504
