result_eegnetecasca_cv5/fold_4/best_model_fold4.pth (torch, 24202 bytes, 21 tensors)

conv_time.weight f4 [8, 1, 1, 64]
-0.014637108 -0.137173 -0.018640868 -0.1060028 0.022986775 0.031532105 -0.15473232 -0.05224436
-0.111647 -0.048689645 0.08725316 -0.14616726 0.056624163 -0.09676579 0.006710248 0.02183854
-0.015241023 0.03295238 -0.039619584 0.028088497 -0.12979604 0.039854005 0.05337857 -0.10002953
-0.109293595 -0.11385635 -0.0019940068 -0.09930312 -0.05708961 -0.08093977 -0.10011927 -0.052205298
-0.09585913 -0.09521026 -0.10462876 0.0060452265 -0.15520972 -0.14720282 -0.029761199 -0.08666614
-0.16011645 -0.13333677 -0.032103136 -0.16504887 -0.17640772 0.030572644 -0.10101228 -0.11336413
-0.07605179 -0.11082605 -0.009483097 0.06854313 -0.13720727 -0.13396183 0.013170999 0.035989434
-0.0069009718 0.03216654 -0.040856354 0.03998872 0.07081583 0.017146148 -0.006873533 0.14043948
0.07051455 0.04018922 0.046557363 -0.008710979 -0.017118102 0.06873719 0.05082042 0.031004108
-0.077058956 0.15061095 0.023497537 0.018865291 0.048346024 -0.014682363 0.054360352 0.08466634
0.06794764 0.057829577 -0.019976836 0.010858815 0.16178484 -0.023922183 0.027849158 0.048483845
0.0060554207 0.12856252 0.03666941 -0.047481854 0.055825293 -0.0015197451 0.14371775 0.054433968
-0.011999002 0.12605943 0.034410994 -0.0011764149 0.111188985 0.1304307 0.08199288 0.036177617
0.12295984 0.18384194 0.03620756 0.06807876 0.14490989 0.19274816 0.029971141 0.11075438
0.25168827 -0.011634974 0.06073919 0.14931077 0.17995724 -0.0048466837 0.15393318 0.083513126
0.10191887 0.036897365 0.09142994 0.09584222 0.0032359625 0.0057456023 0.06419406 0.0935185
0.15907267 0.054227665 -0.04654707 0.02658431 -0.10938061 -0.07461478 -0.009671358 0.081900954
-0.01651986 0.022877403 -0.036268312 0.08125394 0.062748924 -0.090017244 -0.031947497 -0.12493259
-0.025673447 -0.0006346532 -0.105682105 0.012386686 -0.047879275 0.02948473 0.08323084 -0.09835631
0.00039822917 -0.057280473 0.011625877 0.07758692 0.1167001 0.07259743 -0.030376228 -0.067732476
-0.16378568 -0.115938246 -0.12848149 -0.12932856 -0.063334234 -0.029899228 -0.03636569 0.06531372
0.0580076 -0.06532091 0.055998456 -0.07992721 -0.09681524 -0.11569909 -0.09824395 -0.07521866
-0.01905916 0.026498752 0.056622446 0.036304235 0.0041487725 -0.07452621 -0.045015898 -0.073424034
0.017189508 -0.062175587 -0.052713115 0.038928952 0.0115061775 -0.0904827 -0.064539395 -0.18092617
-0.0006384489 -0.015567101 -0.14400928 0.045663018 0.042904384 0.031592138 0.044856437 0.006532538
0.0057441243 0.10607225 0.20987895 0.009407845 0.027549602 0.061651237 0.17631318 0.14226705
-0.0024261093 0.04337045 0.075956635 -0.06461436 0.060622092 0.0052768057 0.032486446 0.031515688
0.090026684 0.08765686 -0.04507443 -0.05832414 -0.04658424 -0.0014161153 0.07405875 -0.09491803
-0.02559629 0.08504307 0.09314087 -0.105501965 -0.03344367 -0.033637583 -0.009157273 0.107849665
-0.052646693 2.1322267e-05 -0.07739201 -0.10825417 -0.04343799 0.02363802 -0.08487701 -0.058276147
-0.2256982 -0.028942067 -0.10713365 -0.06777918 -0.17897457 -0.16608755 -0.11141041 -0.12966725
0.0051584067 -0.19290172 -0.019822534 -0.15073067 -0.048115432 -0.052036986 0.031002153 -0.056054
00000000: 7bd0 6fbc 1477 0cbe bcb4 98bc ff17 d9bd
00000010: c34e bc3c cf27 013d 2672 1ebe 2ffe 55bd
00000020: 2fa7 e4bd cb6e 47bd c9b1 b23d dfac 15be
00000030: bdee 673d 242d c6bd a4e1 db3b bde6 b23c
00000040: 7cb5 79bc 13f9 063d 2548 22bd d919 e63c
00000050: 41e9 04be f43d 233d 7da3 5a3d 48dc ccbd
00000060: 52d5 dfbd 852d e9bd e2ad 02bb 6f5f cbbd
00000070: cbd6 69bd c0c3 a5bd 550b cdbd 39d5 55bd
00000080: cb51 c4bd 99fd c2bd 9a47 d6bd 0917 c63b
00000090: 4cef 1ebe 56bc 16be c2cd f3bc 047e b1bd
000000a0: 91f5 23be 6f89 08be 947e 03bd 9202 29be
000000b0: 3aa4 34be 7b73 fa3c 87df cebd 742b e8bd
000000c0: 0ac1 9bbd c5f8 e2bd fe5e 1bbc 5760 8c3d
000000d0: 1080 0cbe 4a2d 09be 2ccb 573c a869 133d
000000e0: 8c21 e2bb 10c1 033d fe58 27bd 36cb 233d
000000f0: e407 913d 1476 8c3c 603b e1bb 5ecf 0f3e
00000100: ef69 903d 749d 243d efb2 3e3d 7eb8 0ebc
00000110: 433b 8cbc 15c6 8c3d 1329 503d 54fc fd3c
00000120: 16d1 9dbd c239 1a3e e87d c03c 628b 9a3c
00000130: 7b06 463d 4b8e 70bc f6a8 5e3d 8c65 ad3d
00000140: 2228 8b3d b5de 6c3d 76a6 a3bc 2ce9 313c
00000150: edaa 253e 74f8 c3bc eb23 e43c ff96 463d
00000160: 8d6c c63b e5a5 033e aa32 163d 557c 42bd
00000170: 10a9 643d 2f32 c7ba bf2a 133e 27f6 5e3d
00000180: 7697 44bc b915 013e 8bf2 0c3d ef31 9aba
00000190: 0db7 e33d a08f 053e e2eb a73d fb2e 143d
000001a0: 5ed2 fb3d 1041 3c3e 614e 143d e06c 8b3d
000001b0: 4263 143e c65f 453e 0a86 f53c 31d3 e23d
000001c0: 49dd 803e 9ea0 3ebc a8c9 783d ece4 183e
000001d0: b646 383e eed0 9ebb a9a0 1d3e ee08 ab3d
000001e0: d7ba d03d b121 173d 9f3f bb3d ed48 c43d
000001f0: 7112 543b 9b45 bc3b 2d78 833d a186 bf3d
00000200: f2e3 223e d41d 5e3d 24a8 3ebd 57c7 d93c
00000210: f102 e0bd a2cf 98bd 9e74 1ebc b0bb a73d
00000220: a854 87bc 6469 bb3c 158e 14bd 7768 a63d
00000230: 8282 803d f65a b8bd 61db 02bd a8dc ffbd
00000240: 1f51 d2bc db5e 26ba dc6f d8bd 87f1 4a3c
00000250: 0f1d 44bd f689 f13c ee74 aa3d 086f c9bd
00000260: 6ac9 d039 ee9e 6abd 767a 3e3c e4e5 9e3d
00000270: 7600 ef3d f6ad 943d 91d7 f8bc 53b7 8abd
00000280: 6fb7 27be 0871 edbd a790 03be b56e 04be
00000290: 61b5 81bd 3aef f4bc 31f4 14bd 33c3 853d
000002a0: 6199 6d3d f8c6 85bd a35e 653d e1b0 a3bd
000002b0: 1247 c6bd a5f3 ecbd 2034 c9bd 3e0c 9abd
000002c0: f521 9cbc e913 d93c f0ec 673d c0b3 143d
000002d0: 6df2 873b 33a1 98bd 9762 38bd 575f 96bd
000002e0: 03d1 8c3c d4ab 7ebd b5e9 57bd f773 1f3d
000002f0: 6884 3c3c fe4e b9bd 3b2d 84bd b644 39be
00000300: 955d 27ba 270d 7fbc 2b77 13be 2509 3b3d
00000310: 82bc 2f3d c266 013d 62bb 373d e70e d63b
00000320: 3539 bc3b 683c d93d 82ea 563e 5d23 1a3c
00000330: b4af e13c 0286 7c3d 718b 343e 74ae 113e
00000340: 5cff 1ebb 37a5 313d 278f 9b3d 8954 84bd
00000350: df4e 783d 0ee9 ac3b 8210 053d 9816 013d
00000360: e95f b83d 7185 b33d f79f 38bd 4be5 6ebd
00000370: 1ecf 3ebd f29c b9ba 1dac 973d 6264 c2bd
00000380: 50af d1bc 102b ae3d a4c0 be3d 6a11 d8bd
00000390: 3bfc 08bd 90c7 09bd 6308 16bc 49e0 dc3d
000003a0: 0fa4 57bd 38dd b237 b47f 9ebd 5db4 ddbd
000003b0: 09ec 31bd 85a4 c13c ffd3 adbd f8b2 6ebd
000003c0: 6e1d 67be ea17 edbc e368 dbbd d0cf 8abd
000003d0: 1c45 37be db12 2abe 242b e4bd 7ec7 04be
000003e0: da07 a93b 0788 45be de62 a2bc 2459 1abe
000003f0: b014 45bd bc24 55bd 3af8 fd3c e198 65bd

bn1.weight f4 [8]
1.5036546 0.38193324 1.8334514 1.2354969 1.776085 0.7765764 1.8454564 1.7038982
00000000: c177 c03f c18c c33e 89ae ea3f c324 9e3f
00000010: c156 e33f b6cd 463f ea37 ec3f 5619 da3f

bn1.bias f4 [8]
0.022104861 -0.016971903 0.02100319 0.013783791 0.02187345 -0.022444041 0.012292141 0.015764045
00000000: 4115 b53c a908 8bbc e20e ac3c 69d5 613c
00000010: f32f b33c 91dc b7bc fa64 493c 9923 813c

bn1.running_mean f4 [8]
-0.0006693926 0.00089906703 -0.0006381035 -0.0005980903 -0.0002904662 -0.00028200052 0.00012797807 -0.0007142363
00000000: 2d7a 2fba 5eaf 6b3a 6746 27ba 29c9 1cba
00000010: b749 98b9 78d9 93b9 da31 0639 963b 3bba

bn1.running_var f4 [8]
0.6766024 0.40690565 0.43199864 1.2541432 0.4579284 1.2010932 0.9256298 0.42209285
00000000: d135 2d3f f055 d03e ed2e dd3e c487 a03f
00000010: 9775 ea3e 6cbd 993f 13f6 6c3f 8e1c d83e

sca.fc1.weight f4 [5, 22]
0.028930888 -0.12727678 0.19140546 0.3997833 0.28627297 0.1896268 -0.09931401 -0.085956946
0.22110537 0.083726265 -0.046790984 -0.0876602 -0.11177246 -0.107795626 -0.030267078 0.22126147
-0.027957877 -0.043878265 -0.12538537 -0.022098696 0.09632717 -0.05016006 0.2766173 0.04106163
-0.14171435 0.025863422 -0.07156108 0.1951669 0.17824592 -0.15328516 -0.26900935 0.14439245
0.07648782 0.34044293 0.36358607 -0.12506787 -0.25804853 0.0684269 -0.11499386 0.23940691
-0.27428842 -0.24085353 0.17576848 -0.00011863348 -0.3802593 -0.27877358 -0.38597953 -0.5070578
-0.19175196 -0.11462606 -0.25345588 -0.47052336 -0.32969642 -0.17066394 -0.008503977 -0.07232201
-0.06254592 -0.29856738 -0.04565072 -0.3166245 -0.3677668 -0.14888124 -0.4122484 -0.3251265
-0.08172109 -0.40074918 -0.2887652 -0.21227208 0.07825914 -0.022499176 -0.044198718 0.027373292
0.15137556 0.22504097 0.09114894 -0.1265923 0.0829491 -0.12342246 0.12845314 0.17561294
0.04008701 0.17301191 0.13238418 0.18661183 0.40519083 0.1350759 0.28546327 0.36767775
-0.21471962 -0.0009623684 -0.060190015 0.18876776 0.3106727 0.07658296 0.0955286 0.01933323
-0.17627002 0.28147513 0.26808128 0.20200998 0.32415113 -0.186771 0.07446337 0.30048835
0.10329991 0.23566224 -0.07629655 0.29791832 0.24016134 0.008708026
00000000: 7800 ed3c d854 02be cbff 433e 66b0 cc3e
00000010: 5f92 923e 872d 423e 2565 cbbd 320a b0bd
00000020: 7269 623e ad78 ab3d e7a7 3fbd 3187 b3bd
00000030: f6e8 e4bd f4c3 dcbd aaf2 f7bc 5e92 623e
00000040: eb07 e5bc b2b9 33bd 0665 00be 5308 b5bc
00000050: 2e47 c53d a374 4dbd c8a0 8d3e 3d30 283d
00000060: 911d 11be 87df d33c 9e8e 92bd d5d9 473e
00000070: 1986 363e c9f6 1cbe 98bb 89be 9ddb 133e
00000080: a5a5 9c3d 894e ae3e f427 ba3e cb11 00be
00000090: f01e 84be 6723 8c3d e781 ebbd 1627 753e
000000a0: 886f 8cbe 4fa2 76be a7fc 333e ddca f8b8
000000b0: 59b1 c2be 69bb 8ebe 1c9f c5be 8ace 01bf
000000c0: a05a 44be 11c1 eabd f8c4 81be 70e8 f0be
000000d0: f8cd a8be 87c2 2ebe 4454 0bbc 901d 94bd
000000e0: 1318 80bd d3dd 98be 40fc 3abd 9b1c a2be
000000f0: ee4b bcbe 5374 18be 3912 d3be fb76 a6be
00000100: 635d a7bd ff2e cdbe 08d9 93be da5d 59be
00000110: 5446 a03d 3150 b8bc b709 35bd f43d e03c
00000120: 3202 1b3e 2471 663e 4cac ba3d 69a1 01be
00000130: 38e1 a93d eac4 fcbd 3889 033e e1d3 333e
00000140: 4732 243d 092a 313e b88f 073e 2c17 3f3e
00000150: 2c75 cf3e 5651 0a3e 3e28 923e 4240 bc3e
00000160: 76df 5bbe 7347 7cba ce89 76bd 564c 413e
00000170: 7e10 9f3e 87d7 9c3d 80a4 c33d b960 9e3c
00000180: 2180 34be 821d 903e f341 893e b4db 4e3e
00000190: 23f7 a53e e640 3fbe 4080 983d 9cd9 993e
000001a0: e78e d33d 7151 713e 5e41 9cbd c088 983e
000001b0: dbec 753e 1cac 0e3c

sca.fc2.weight f4 [22, 5]
-0.19022803 -0.18372697 0.089057215 0.03628296 0.20790228 0.00067210855 -0.21123153 -0.509107
0.20279495 0.45505533 0.048575066 0.37048158 -0.435692 0.10471308 -0.08442517 0.32193223
0.16831756 0.20640951 -0.03884162 -0.11431092 -0.5763037 0.26665655 0.39521384 -0.25798583
-0.217126 0.51365626 0.26138055 -0.1126214 -0.70344317 -0.15832724 0.1520672 -0.0997965
-0.13360678 -0.43477976 -0.42296743 -0.24116823 -0.28781992 0.34495333 0.2314144 -0.38761356
0.03976621 -0.1430005 0.39705098 -0.0478149 -0.45723528 0.009964709 -0.31211683 0.13284104
-0.28308034 0.06215504 -0.35604182 -0.221128 0.14918256 0.067442186 -0.29721826 -0.2756795
0.12517193 -0.26442757 0.041552622 -0.20107184 -0.5598292 0.6468438 0.10635443 -0.29105783
0.37013057 0.202183 -0.13133079 0.019063141 0.075467 -0.09689634 -0.13972227 -0.1145386
0.585363 -0.059480526 0.109936364 -0.33358252 -0.4421274 -0.53474 -0.16585857 -0.5071823
0.06441964 0.019799894 0.06748419 0.102055065 -0.33450553 -0.26064068 -0.3909999 -0.72037196
0.11694524 -0.34455276 -0.17756394 0.5846457 -0.08625241 0.114254214 0.47414732 0.18228857
-0.3425073 -0.05708964 0.25177598 -0.21562596 0.30609688 -0.7294707 -0.6090516 0.4592265
-0.22972453 0.20427515 0.46468997 -0.11659395 -0.39346042 -0.32920495
00000000: 23cb 42be ec22 3cbe a163 b63d 719d 143d
00000010: 56e4 543e 7130 303a 144d 58be d654 02bf
00000020: 7ba9 4f3e 03fd e83e a6f6 463d c3af bd3e
00000030: 0613 dfbe d073 d63d 1be7 acbd 4dd4 a43e
00000040: 705b 2c3e 045d 533e 6418 1fbd d81b eabd
00000050: a488 13bf 3587 883e 7859 ca3e b816 84be
00000060: 4756 5ebe fa7e 033f acd3 853e 0ca6 e6bd
00000070: da14 34bf 8920 22be 81b7 1b3e 1b62 ccbd
00000080: 37d0 08be 749b debe 308f d8be cef4 76be
00000090: 225d 93be b99d b03e e5f7 6c3e 4975 c6be
000000a0: e5e1 223d b96e 12be 444a cb3e 8ed9 43bd
000000b0: be1a eabe 0543 233c c7cd 9fbe 7b07 083e
000000c0: e8ef 90be 4996 7e3d 1d4b b6be 616f 62be
000000d0: 50c3 183e 211f 8a3d fe2c 98be dd25 8dbe
000000e0: 122d 003e 0d63 87be 1533 2a3d c7e5 4dbe
000000f0: f750 0fbf 8e97 253f 5ad0 d93d 8805 95be
00000100: c181 bd3e 0f09 4f3e 947b 06be 4e2a 9c3c
00000110: 718e 9a3d 9771 c6bd 5b13 0fbe 3793 eabd
00000120: 59da 153f daa1 73bd 5126 e13d 54cb aabe
00000130: 865e e2be b8e4 08bf d4d6 29be b3d6 01bf
00000140: 72ee 833d 6333 a23c 2735 8a3d 3f02 d13d
00000150: 4f44 abbe b272 85be 2431 c8be 4c6a 38bf
00000160: fc80 ef3d 3869 b0be 52d3 35be 57ab 153f
00000170: 1ba5 b0bd 1dfe e93d 70c3 f23e dba9 3a3e
00000180: 1e5d afbe d4d6 69bd c8e8 803e 0dcd 5cbe
00000190: bbb8 9c3e 97be 3abf ceea 1bbf bc1f eb3e
000001a0: e83c 6bbe 812d 513e d8eb ed3e cfc8 eebd
000001b0: a573 c9be 8d8d a8be

conv_depth.weight f4 [16, 1, 22, 1]
0.0016677864 -0.084006526 0.05078536 -0.097297154 0.052049514 0.08918402 0.13650344 0.031791225
0.013745179 -0.059101786 0.021878546 -0.04370304 -0.08869862 -0.044154257 -0.023394976 0.13023776
0.032885812 -0.042765412 -0.3529433 -0.025112554 0.043974046 0.31903476 0.024401484 0.1478938
0.11426056 -0.18571745 -0.07268578 -0.07527726 0.1988692 -0.08342289 0.2152714 -0.15050563
-0.0023648702 0.14438555 -0.123264134 0.09698262 0.062496442 -0.039734587 -0.21495436 -0.088087074
0.17477927 0.023967689 -0.021556163 -0.2262986 -0.12598468 -0.10797588 -0.017721163 0.11207553
0.059819236 -0.046448544 0.18495643 0.09025621 -0.18108588 -0.030207232 -0.053011525 0.17020904
0.15018421 -0.20616943 0.1636311 0.115875244 0.068705775 -0.17165866 0.22660016 -0.03159797
-0.29794732 0.13218279 0.040202823 0.11693003 -0.015664652 -0.023999736 -0.019460805 -0.18290067
0.050613746 0.12922688 -0.031455442 0.061900426 0.07557214 -0.1995175 -0.023299553 -0.20835371
-0.14238544 0.14231145 0.009622508 0.21043092 -0.33642456 0.14954191 0.24063905 -0.04935147
0.16294958 0.3111538 0.062122233 -0.028596811 0.020837802 -0.04516971 -0.051407017 0.08162612
-0.03635412 -0.16044964 0.044948764 -0.20191394 0.14288712 -0.08940518 -0.16617146 -0.06903564
-0.030114375 0.019793827 0.12915349 -0.13336186 0.045338273 0.18260425 -0.08899504 0.0843463
0.077379175 -0.08884054 -0.11165266 -0.1296854 -0.100592926 0.029669218 0.017706338 -0.12307997
0.15049025 0.19106816 -0.0051512667 0.017816428 -0.1382317 -0.11179498 0.07261511 0.30341628
0.058406506 0.001702752 0.027812999 -0.12062572 -0.2076108 0.079298235 -0.07285268 0.106946826
-0.072482444 0.14064981 0.027586745 0.25737226 0.07604042 -0.05111221 -0.11973642 0.092326574
-0.051590115 -0.13803743 0.07714054 -0.26354748 0.1638062 -0.07941287 -0.050797023 0.057063147
0.25874063 -0.11361456 -0.06386813 0.052299015 -0.025329975 0.2062433 0.32778212 0.17851664
-0.06572912 0.028628325 -0.1070095 0.0043762857 -0.15258354 -0.009899108 0.14036807 0.17307022
0.02314621 0.100933194 -0.0007954708 0.032756258 -0.17148088 -0.17904665 -0.17000404 0.025380619
0.03221385 0.10717328 -0.1137306 0.09739753 -0.10685812 0.013955563 0.18472287 -0.30484217
0.10612756 0.23794554 -0.03738832 0.08123047 -0.00763612 -0.25121075 -0.17155185 0.1406572
-0.047528446 -0.072962105 0.04155328 -0.014923127 -0.040718235 0.108383186 0.23643635 -0.22560965
-0.2620166 -0.2635194 -0.06962608 0.11728867 0.18013969 -0.22538862 -0.038509108 -0.15692621
-0.106089555 -0.07258023 0.11493409 0.072984986 0.054381587 -0.12757193 0.12317865 0.016486274
-0.14941104 -0.061581727 0.13363814 -0.07924996 0.10070807 0.11773018 -0.004204834 0.21726623
-0.07332748 0.16008039 0.084560595 -0.10719254 -0.10688891 -0.0024945012 -0.012495146 -0.07788321
0.17142023 0.120704226 0.0016873451 -0.35237074 -0.1909193 0.053396292 0.041544583 -0.11052918
-0.14752522 0.18875182 -0.03390369 0.00520462 -0.10370695 -0.16543444 0.12845714 0.10315517
-0.008320338 -0.0038245176 -0.05546831 -0.067734875 -0.14174663 -0.0049159504 -0.08858322 0.31048933
00000000: a099 da3a 9d0b acbd 4f04 503d bb43 c7bd
00000010: df31 553d 1da6 b63d 8fc7 0b3e 8437 023d
00000020: 7633 613c b714 72bd a33a b33c f501 33bd
00000030: 9fa7 b5bd 18db 34bd d2a6 bfbc 0c5d 053e
00000040: 46b3 063d c92a 2fbd fcb4 b4be d8b8 cdbc
00000050: 211e 343d 8658 a33e 9fe5 c73c 7971 173e
00000060: 7101 ea3d b72c 3ebe 48dc 94bd f72a 9abd
00000070: 5ea4 4b3e 9fd9 aabd 1b70 5c3e 261e 1abe
00000080: f0fb 1abb ced9 133e e871 fcbd d39e c63d
00000090: 45fc 7f3d bcc0 22bd ff1c 5cbe ff66 b4bd
000000a0: 56f9 323e e357 c43c 8d96 b0bc d2ba 67be
000000b0: 2102 01be 7522 ddbd f92b 91bc db87 e53d
000000c0: 0405 753d d440 3ebd 3865 3d3e 3fd8 b83d
000000d0: 946e 39be 2875 f7bc 9d22 59bd 474b 2e3e
000000e0: e4c9 193e 141e 53be e98e 273e 0050 ed3d
000000f0: 9db5 8c3d 4ac7 2fbe df09 683e df6c 01bd
00000100: 8d8c 98be ed5a 073e b7ab 243d 0379 ef3d
00000110: 2853 80bc 189b c4bc 446c 9fbc 504a 3bbe
00000120: 5c50 4f3d 0d54 043e 6cd7 00bd 4d8b 7d3d
00000130: 91c5 9a3d 514e 4cbe b4de bebc ad5a 55be
00000140: 7dcd 11be 18ba 113e b9a7 1d3c 347b 573e
00000150: d73f acbe 8421 193e 156a 763e c424 4abd
00000160: 41dc 263e 8d4f 9f3e e273 7e3d dc43 eabc
00000170: 0ab4 aa3c e003 39bd 2a90 52bd 982b a73d
00000180: 0fe8 14bd e94c 24be 321c 383d 87c2 4ebe
00000190: 0051 123e 101a b7bd da28 2abe 8f62 8dbd
000001a0: 6cb2 f6bc aa26 a23c d040 043e 0390 08be
000001b0: a0b4 393d 9cfc 3a3e 0843 b6bd c1bd ac3d
000001c0: f978 9e3d 07f2 b5bd 26aa e4bd 40cc 04be
000001d0: aa03 cebd dc0c f33c e20c 913c 5a11 fcbd
000001e0: 1e1a 1a3e 5fa7 433e f5cb a8bb c2f3 913c
000001f0: 9c8c 0dbe c4f4 e4bd 3bb7 943d 6159 9b3e
00000200: a93b 6f3d e02e df3a 16d8 e33c 9e0a f7bd
00000210: ed97 54be 1d67 a23d c933 95bd f006 db3d
00000220: ad71 94bd 8106 103e 99fd e13c 4cc6 833e
00000230: 14bb 9b3d 095b 51bd 5e38 f5bd b715 bd3d
00000240: 2850 53bd af59 0dbe dcfb 9d3d b2ef 86be
00000250: d0bc 273e 37a3 a2bd 8a10 50bd 0cbb 693d
00000260: a779 843e c0ae e8bd 4bcd 82bd 7e37 563d
00000270: cf80 cfbc 7231 533e 0fd3 a73e 11cd 363e
00000280: fd9c 86bd f385 ea3c cc27 dbbd f266 8f3b
00000290: dc3e 1cbe de2f 22bc a6bc 0f3e 5239 313e
000002a0: 1f9d bd3c 10b6 ce3d 2487 50ba 6d2b 063d
000002b0: af98 2fbe 0158 37be 8a15 2ebe 04eb cf3c
000002c0: acf2 033d aa7d db3d 97eb e8bd 5b78 c73d
000002d0: 6ed8 dabd e0a5 643c fe27 3d3e 4614 9cbe
000002e0: 6859 d93d ffa7 733e 7f24 19bd 295c a63d
000002f0: 6b38 fabb b29e 80be 4aab 2fbe 7108 103e
00000300: 30ad 42bd 286d 95bd c633 2a3d 2280 74bc
00000310: 2ac8 26bd 01f8 dd3d 5f1c 723e 3706 67be
00000320: 0a27 86be 04ec 86be 1e98 8ebd 0b35 f03d
00000330: 8a76 383e 46cc 66be babb 1dbd 44b1 20be
00000340: 7b45 d9bd f2a4 94bd 9062 eb3d 2779 953d
00000350: 3abf 5e3d 37a2 02be 1745 fc3d 390e 873c
00000360: 35ff 18be 1f3d 7cbd 70d8 083e ce4d a2bd
00000370: 0840 ce3d 851c f13d b4c8 89bb 0a7b 5e3e
00000380: b82c 96bd 1dec 233e 1b2e ad3d c387 dbbd
00000390: 93e8 dabd c97a 23bb 71b8 4cbc 3b81 9fbd
000003a0: c988 2f3e c733 f73d e829 dd3a f069 b4be
000003b0: 5980 43be 12b6 5a3d a72a 2a3d 1f5d e2bd
000003c0: da10 17be 2848 413e 98de 0abd 848b aa3b
000003d0: 4f64 d4bd a567 29be 458a 033e 0543 d33d
000003e0: 0752 08bc c2a4 7abb bd32 63bd 95b8 8abd
000003f0: 0726 11be fb15 a1bb 1f6b b5bd 75f8 9e3e

bn2.weight f4 [16]
1.0670241 1.188772 1.1211379 1.0934559 1.0187265 1.3062433 1.0749848 1.0647798
1.5410789 1.194929 1.2588211 1.3612224 1.3958908 1.2487012 0.9809016 0.99578524
00000000: 3f94 883f ae29 983f 7281 8f3f 5df6 8b3f
00000010: a165 823f fb32 a73f 1a99 893f b44a 883f
00000020: 1342 c53f 6ff3 983f 0d21 a13f 893c ae3f
00000030: 8dac b23f 71d5 9f3f 5e1c 7b3f c8eb 7e3f

bn2.bias f4 [16]
-0.240273 -0.56311005 -0.4190793 -0.44340578 -0.19561416 -0.5791769 -0.39834794 -0.46861565
-0.76371676 -0.46875957 -0.6549402 -0.59131134 -0.6497751 -0.55784434 -0.13769588 -0.17890167
00000000: 200a 76be fb27 10bf 9091 d6be 1506 e3be
00000010: 144f 48be f044 14bf 43f4 cbbe 64ee efbe
00000020: f182 43bf 4101 f0be 29aa 27bf 2e60 17bf
00000030: a957 26bf e3ce 0ebf 2600 0dbe 0032 37be

bn2.running_mean f4 [16]
0.00078311533 -0.00097569317 -0.0016160825 6.612599e-06 0.002493462 0.00021827855 0.00081833825 0.002603749
-0.00014171156 -0.008340416 -0.0009174727 0.00028048776 -0.00013344221 -0.0014652708 -0.00082502986 -0.00049977767
00000000: fb49 4d3a a9c5 7fba bbd2 d3ba cbe1 dd36
00000010: 5a69 233b b4e1 6439 c085 563a a9a3 2a3b
00000020: 6898 14b9 3da6 08bc 8d82 70ba 6e0e 9339
00000030: 9fec 0bb9 540e c0ba d146 58ba 8303 03ba

bn2.running_var f4 [16]
0.0056408322 0.06767789 0.0012964533 0.0006322096 0.052625734 0.06619352 0.0101779485 0.09034343
0.035975117 0.50228673 0.014510418 0.0117411865 0.027455216 0.05992449 0.011556874 0.031054161
00000000: bbd6 b83b b59a 8a3d c1ed a93a deba 253a
00000010: 158e 573d 7890 873d 69c1 263c fa05 b93d
00000020: a55a 133d dd95 003f 1bbd 6d3c 1b5e 403c
00000030: c3e9 e03c 6273 753d 0b59 3d3c 4c65 fe3c

conv_sep.0.weight f4 [16, 1, 1, 16]
0.16574612 0.10627447 -0.04928154 -0.060253616 -0.25772876 -0.1871431 -0.118610665 0.09682981
0.058071382 0.22976914 0.23809978 0.28224102 0.14936364 0.16336276 -0.0034887998 -0.16774097
-0.043275286 -0.0043193656 0.17864226 0.22471993 0.18292241 0.13629773 0.011528824 0.11132614
0.016221493 0.005895851 -0.14222817 -0.0077632717 0.13050497 0.23921144 0.19561516 0.25017682
-0.032879062 -0.25464442 -0.15377478 -0.29653713 -0.1488404 -0.07723281 -0.14026259 -0.19398195
-0.07466883 0.16766447 0.11104718 -0.11018456 -0.18721758 0.07029653 -0.12839164 -0.0075569116
-0.17213276 -0.28705367 -0.1807335 -0.32687914 -0.14980198 -0.18732598 -0.21755515 0.09187679
0.0017939353 0.02064357 0.11511045 0.025466552 -0.11431493 0.019975279 -0.104125336 -0.028984196
-0.042572808 -0.027513329 0.045263413 -0.30470523 -0.12408394 -0.1236219 -0.24781512 -0.25695732
-0.035931677 -0.16917577 -0.07501767 0.19837147 0.08189228 -0.014506982 0.153303 0.07962508
0.23124892 0.10544309 0.04590101 0.13504162 -0.04977296 0.10124126 -0.007811971 0.025052352
0.1752616 0.19965307 0.10360827 0.17057782 0.080798104 0.20878756 0.05285182 0.12425231
-0.08466847 -0.13186005 -0.03997136 -0.23051628 -0.13886094 -0.04739049 -0.09405064 0.14016956
0.0973822 0.02101858 -0.0077537694 0.05721503 -0.050469283 -0.01870511 -0.12285019 -0.25857523
0.14849727 0.067210704 0.1612055 0.10383035 0.056251474 0.05109873 0.06678733 -0.10672863
0.17180084 0.014343009 0.1987706 0.0031293125 0.11157951 0.16799447 0.0817698 0.10901299
0.20717876 0.11008388 0.019989857 0.20124961 0.23676836 0.23763563 0.18112105 0.13769592
0.15942289 0.06532573 0.045085024 0.01059146 0.04833955 0.18787743 0.25522456 0.17931241
-0.16927123 -0.18311734 0.12468716 0.27425355 0.089466706 -0.00222666 -0.074920915 -0.09313245
0.10239148 0.2173285 0.0993164 0.063023634 0.21913105 0.20919372 0.22827789 0.3166254
0.21732076 0.17971769 0.19209571 0.16587049 0.18977128 0.19610734 -0.020084755 0.19418652
0.17659922 -0.06636975 0.03173132 0.28085235 0.20412368 -0.030812217 0.04562375 0.1736577
0.118249245 0.1106306 0.12357454 0.13417171 0.010654521 0.15908036 0.17631872 0.062473983
0.11838486 0.08003188 0.0131939985 0.22170866 0.16528696 0.08816169 0.08312433 -0.00619904
-0.2528611 -0.07996603 -0.08460549 -0.031038247 -0.1711939 -0.11384486 -0.18008417 -0.043424435
-0.028275788 0.018823717 -0.060148206 -0.09181297 -0.0964995 -0.04128143 -0.049460877 -0.28937617
-0.13005887 0.030386457 -0.1254585 -0.20319831 -0.22297625 -0.031523976 -0.095150456 -0.1285672
-0.019997 -0.22148153 -0.20370156 -0.24141516 -0.07204764 0.056980528 -0.03654098 -0.054820906
-0.18125011 -0.03407475 0.036689587 0.05675059 0.16779892 0.0554959 0.104353696 0.13004924
-0.18815526 -0.091176435 -0.12721904 -0.13678393 -0.050842553 0.2727338 0.3451922 0.28087723
0.2957339 0.13947964 0.10629387 0.16693957 -0.017517045 0.16849765 0.19331604 -0.08313493
-0.24065937 -0.2450201 0.048635464 -0.16481376 0.0017668534 -0.08614824 -0.13968267 -0.14379898
00000000: 5ab9 293e 6ea6 d93d 71db 49bd 7fcc 76bd
00000010: 06f5 83be 71a2 3fbe 26ea f2bd b54e c63d
00000020: 42dc 6d3d 9a48 6b3e 6ed0 733e e581 903e
00000030: c8f2 183e 9148 273e 59a4 64bb 4ac4 2bbe
00000040: 6d41 31bd 7789 8dbb ffed 363e fb1c 663e
00000050: 0350 3b3e a291 0b3e 65e3 3c3c f6fe e33d
00000060: f0e2 843c fc31 c13b 43a4 11be 0b63 febb
00000070: 18a3 053e d8f3 743e 574f 483e 2d17 803e
00000080: 32ac 06bd c160 82be 2377 1dbe b7d3 97be
00000090: 9e69 18be 3c2c 9ebd ffa0 0fbe 34a3 46be
000000a0: f9eb 98bd 3cb0 2b3e b46c e33d 71a8 e1bd
000000b0: f7b5 3fbe a1f7 8f3d 1979 03be f89f f7bb
000000c0: 9243 30be b3f8 92be 3412 39be b45c a7be
000000d0: b165 19be 62d2 3fbe c7c6 5ebe e629 bc3d
000000e0: 7b22 eb3a b41c a93c 07bf eb3d 3b9f d03c
000000f0: f21d eabd 32a3 a33c aa3f d5bd 4470 edbc
00000100: d360 2ebd a263 e1bc 2166 393d 5302 9cbe
00000110: b91f febd 7b2d fdbd 3fc3 7dbe e98f 83be
00000120: 182d 13bd 6a3c 2dbe dda2 99bd e421 4b3e
00000130: 24b7 a73d b1ae 6dbc 76fb 1c3e 7912 a33d
00000140: 84cc 6c3e 8cf2 d73d b302 3c3d 5a48 0a3e
00000150: bbde 4bbd 9457 cf3d 90fb ffbb 973a cd3c
00000160: c777 333e db71 4c3e 9330 d43d f4ab 2e3e
00000170: 7a79 a53d 68cc 553e 267b 583d ff77 fe3d
00000180: aa66 adbd 5206 07be 02b9 23bd 760c 6cbe
00000190: 9031 0ebe 881c 42bd 9f9d c0bd 9c88 0f3e
000001a0: 5270 c73d 282f ac3c 5513 febb 4f5a 6a3d
000001b0: e1b8 4ebd 753b 99bc e198 fbbd f963 84be
000001c0: ab0f 183e c4a5 893d 0e13 253e 02a5 d43d
000001d0: f267 663d e74c 513d ccc7 883d 8a94 dabd
000001e0: 8fec 2f3e f1fe 6a3c 858a 4b3e 2715 4d3b
000001f0: cc83 e43d be06 2c3e ed76 a73d 3442 df3d
00000200: ab26 543e a873 e13d c5c1 a33c 6114 4e3e
00000210: 6873 723e c156 733e cc77 393e 2900 0d3e
00000220: c13f 233e 7fc9 853d 13ab 383d ce87 2d3c
00000230: b1ff 453d f162 403e cbac 823e ac9d 373e
00000240: 7055 2dbe 1d83 3bbe fb5b ff3d f66a 8c3e
00000250: 523a b73d 28ed 11bb 2370 99bd 3abc bebd
00000260: a0b2 d13d 5d8b 5e3e 6666 cb3d 8912 813d
00000270: e463 603e e136 563e aec1 693e b91c a23e
00000280: 5589 5e3e ea07 383e bdb4 443e f4d9 293e
00000290: 6753 423e 5dd0 483e c988 a4bc d5d8 463e
000002a0: 6dd6 343e ddec 87bd b3f8 013d e1cb 8f3e
000002b0: cc05 513e e769 fcbc f8df 3a3d 53d3 313e
000002c0: a92c f23d 4c92 e23d a614 fd3d 4f64 093e
000002d0: 4d90 2e3c f6e5 223e e58c 343e b8e4 7f3d
000002e0: c373 f23d c1e7 a33d a42b 583c 9807 633e
000002f0: fc40 293e 1e8e b43d 173d aa3d 5121 cbbb
00000300: 0377 81be 3bc5 a3bd a545 adbd ec43 febc
00000310: 744d 2fbe 7e27 e9bd fc67 38be d2dd 31bd
00000320: a0a2 e7bc 3234 9a3c f75d 76bd 7008 bcbd
00000330: 88a1 c5bd b716 29bd 7d97 4abd 1d29 94be
00000340: 272e 05be 05ed f83c 3178 00be 3813 50be
00000350: e353 64be 491f 01bd 3ede c2bd 1fa7 03be
00000360: c0d0 a3bc 0ecc 62be 2497 50be 8935 77be
00000370: b78d 93bd 6a64 693d ffab 15bd e38b 60bd
00000380: a199 39be f791 0bbd d247 163d 4f73 683d
00000390: 7bd3 2b3e ab4f 633d 64b7 d53d a12b 053e
000003a0: c6ab 40be b6ba babd b545 02be 1611 0cbe
000003b0: 4840 50bd c4a3 8b3e 08bd b03e 24cf 8f3e
000003c0: 6f6a 973e c0d3 0e3e 9ab0 d93d 35f2 2a3e
000003d0: e87f 8fbc a68a 2c3e a4f4 453e a542 aabd
000003e0: 696f 76be 8de6 7abe fb35 473d f0c4 28be
000003f0: c395 e73a 7d6e b0bd f908 0fbe 0a40 13be

conv_sep.1.weight f4 [16, 16, 1, 1]
-0.2270976 -0.16855155 -0.112259686 -0.11307114 0.1886215 -0.11811502 -0.03226583 0.0032982023
0.016855508 -0.18374267 0.061873294 0.13120112 0.08401356 0.18742485 0.13727501 -0.103331916
-0.20237754 -0.07948636 0.07270232 0.17588608 0.08844407 0.034575876 -0.05384997 -0.15439464
-0.021221802 0.013110594 -0.15309528 -0.14537944 -0.31647027 0.071162075 0.13592517 0.0878536
-0.045603298 0.2192754 0.124668986 -0.077432014 -0.073226705 -0.083728105 -0.10228318 -0.20790316
-0.09316945 0.018127624 0.27880555 0.14791507 -0.26723978 -0.15818936 -0.0896271 -0.16346945
0.026736706 0.19014211 0.090968795 -0.38787887 0.24662672 0.121543296 0.0819639 0.12541516
-0.003006051 0.03199711 0.009884609 -0.105452865 0.010817622 0.09808724 -0.095407754 0.16776769
0.16495137 -0.11914081 0.031013057 0.091556825 -0.017947437 0.16694142 0.045710497 -0.07401694
0.15593028 0.098555885 0.2295598 -0.09034076 -0.36647654 -0.17685695 -0.016324626 -0.08174185
0.12181787 0.25116524 0.07114381 -0.029489128 0.098519675 0.17062882 0.012491494 -0.24641487
-0.05610112 -0.015003027 0.041069206 -0.1539869 -0.0376302 -0.005838371 -0.018190525 0.037821893
0.17733602 -0.025032664 0.062320746 -0.064415894 -0.18693429 -0.02678349 0.019364323 -0.23973092
-0.35447514 -0.18022537 0.0789706 -0.17763819 -0.00069721916 -0.027031362 -0.12822622 -0.12528972
-0.005962439 -0.1711757 -0.061567787 0.15101455 -0.075438514 -0.028737795 -0.21907344 -0.042270593
0.16201927 0.009195676 0.093114465 -0.07770508 -0.054463256 0.28063154 0.072810374 0.17880073
0.26186246 -0.006663827 0.056803454 -0.18930656 0.15979888 -0.12938203 0.1538147 -0.15794006
0.1369346 -0.17608675 -0.09645156 0.07091926 -0.048005022 0.048853125 -0.15187217 0.06946653
-0.1721568 0.30870777 0.18163662 0.0011166546 -0.10790233 0.00078000355 0.029929265 -0.035363525
0.19640681 -0.21671027 -0.06944683 0.26642382 -0.0440265 0.17603098 -0.0982862 0.023684584
-0.09802983 -0.101880535 0.23679292 -0.2487624 -0.056571204 0.18740915 0.24973486 0.19526845
-0.062200375 0.017329838 -0.16239458 -0.070014894 -0.25227165 0.06833078 -0.15007803 -0.027386226
0.17541368 -0.05376294 -0.27756903 0.08085563 0.20900431 0.21098383 0.1052048 -0.01842017
0.104889065 0.0074161757 -0.016019193 0.0011988258 -0.28193292 0.07423674 -0.15879405 -0.30123127
-0.029691646 -0.044539217 0.20180413 0.1511617 0.31299433 0.09161849 -0.008227517 0.21146722
-0.11438704 0.031405233 0.32060286 -0.24247316 0.110508315 -0.023049193 -0.19393031 -0.030310571
0.20115477 0.15428841 -0.18562585 -0.048635155 -0.17857823 -0.15055114 -0.22086754 -0.019386286
0.112038024 -0.08266542 0.102618255 0.008966758 -0.036303766 0.0358487 0.12074577 0.0437375
-0.19994032 -0.0077512 0.037021253 0.09671126 -0.09238732 -0.3287254 -0.023112636 -0.0064368057
0.14544217 0.11195101 -0.05197491 0.1454708 0.18427472 -0.28927308 0.10209842 0.10454417
-0.01543323 0.09100718 -0.25809047 -0.04067622 -0.0031745946 0.0650265 -0.26574737 -0.022412766
0.0012382169 0.29308853 0.0042684157 -0.237677 -0.11332408 -0.033593453 0.26690537 0.08377857
00000000: 468c 68be c798 2cbe 68e8 e5bd d891 e7bd
00000010: ff25 413e 4ae6 f1bd 2d29 04bd a726 583b
00000020: 9014 8a3c 0a27 3cbe da6e 7d3d 9659 063e
00000030: 4d0f ac3d 4dec 3f3e d291 0c3e af9f d3bd
00000040: 0f3c 4fbe bfc9 a2bd f4e4 943d 7b1b 343e
00000050: 2a22 b53d 6f9f 0d3d c991 5cbd a119 1ebe
00000060: 58d9 adbc d1cd 563c 02c5 1cbe 59de 14be
00000070: 6408 a2be 6cbd 913d f82f 0b3e 97ec b33d
00000080: 86ca 3abd bb89 603e 7452 ff3d ad94 9ebd
00000090: e2f7 95bd a479 abbd d879 d1bd 91e4 54be
000000a0: a0cf bebd 6280 943c 9abf 8e3e 0c77 173e
000000b0: a7d3 88be 64fc 21be 6a8e b7bd 8964 27be
000000c0: f006 db3c 9db4 423e d94d ba3d 0f98 c6be
000000d0: b78b 7c3e b1eb f83d b0dc a73d d56c 003e
000000e0: 2b01 45bb 670f 033d 0ef3 213c acf7 d7bd
000000f0: 653c 313c f6e1 c83d 2465 c3bd 4bcb 2b3e
00000100: 03e9 283e 1900 f4bd 180f fe3c 2582 bb3d
00000110: 8106 93bc b1f2 2a3e ee3a 3b3d 3296 97bd
00000120: 30ac 1f3e abd7 c93d b911 6b3e 9404 b9bd
00000130: d0a2 bbbe fd19 35be 39bb 85bc 4568 a7bd
00000140: a67b f93d bb98 803e d9b3 913d 2f93 f1bc
00000150: afc4 c93d 52b9 2e3e 20a9 4c3c 2e54 7cbe
00000160: 4aca 65bd 42cf 75bc 2f38 283d beae 1dbe
00000170: 2022 1abd ce4f bfbb 4c04 95bc 21eb 1a3d
00000180: 9397 353e 4d11 cdbc 0a44 7f3d 7bec 83bd
00000190: b46b 3fbe 0d69 dbbc eea1 9e3c 067c 75be
000001a0: c47d b5be 008d 38be 57bb a13d c9e6 35be
000001b0: 96c5 36ba e070 ddbc bc4d 03be f34b 00be
000001c0: 9060 c3bb af48 2fbe 812e 7cbd 8fa3 1a3e
000001d0: 827f 9abd 866b ebbc ca54 60be ee23 2dbd
000001e0: 61e8 253e 76a9 163c ccb2 be3d d723 9fbd
000001f0: dd14 5fbd f0ae 8f3e 9b1d 953d 8a17 373e
00000200: d612 863e 3c5c dabb bdaa 683d 94d9 41be
00000210: 51a2 233e b97c 04be 9a81 1d3e 0abb 21be
00000220: 9538 0c3e 1650 34be 6588 c5bd 1e3e 913d
00000230: eaa0 44bd 371a 483d 6184 1bbe 7844 8e3d
00000240: df49 30be f20e 9e3e f3fe 393e b65c 923a
00000250: e6fb dcbd 2779 4c3a 382e f53c 58d9 10bd
00000260: de1e 493e 4ce9 5dbe 243a 8ebd b468 883e
00000270: 2255 34bd 7741 343e 464a c9bd 2c06 c23c
00000280: ddc3 c8bd bea6 d0bd d879 723e 92bb 7ebe
00000290: 35b7 67bd 2fe8 3f3e 7fba 7f3e 74f4 473e
000002a0: d2c5 7ebd 4ef7 8d3c c44a 26be f863 8fbd
000002b0: c029 81be 02f1 8b3d 0eae 19be 1459 e0bc
000002c0: a59f 333e 8736 5cbd 871d 8ebe a397 a53d
000002d0: 3a05 563e 250c 583e 9d75 d73d e5e5 96bc
000002e0: 14d0 d63d 6403 f33b af3a 83bc eb21 9d3a
000002f0: 8359 90be 6f09 983d e89a 22be fc3a 9abe
00000300: e53b f3bc c16e 36bd bea5 4e3e 22ca 1a3e
00000310: cb40 a03e 7aa2 bb3d b5cc 06bc dd8a 583e
00000320: c143 eabd c6a2 003d 0f26 a43e e24a 78be
00000330: 2f52 e23d a9d1 bcbc ab95 46be e04d f8bc
00000340: 84fb 4d3e c8fd 1d3e b414 3ebe a835 47bd
00000350: 36dd 36be 142a 1abe 1a2b 62be fdcf 9ebc
00000360: 3174 e53d 7d4c a9bd 8529 d23d 4fe9 123c
00000370: 42b3 14bd 16d6 123d 8f49 f73d 1826 333d
00000380: 28bd 4cbe c7fd fdbb 99a3 173d 8e10 c63d
00000390: 9035 bdbd b24e a8be b656 bdbc d7eb d2bb
000003a0: cbee 143e 9246 e53d a5e3 54bd 4cf6 143e
000003b0: 83b2 3c3e 9a1b 94be fa18 d13d 411b d63d
000003c0: a9db 7cbc f961 ba3d 6f24 84be 1c9c 26bd
000003d0: dc0c 50bb 9d2c 853d 0a10 88be fa9a b7bc
000003e0: aa4b a23a b30f 963e 11de 8b3b 9961 73be
000003f0: 7516 e8bd 4a99 09bd d2a7 883e 1994 ab3d

bn3.weight f4 [16]
1.4624293 1.5408607 1.5271438 1.399793 1.225078 1.3193862 1.388287 1.3624276
1.4524618 1.2415633 1.3316821 1.3785108 1.3282288 1.4048568 1.4685779 1.3644048
00000000: e230 bb3f ec3a c53f 7379 c33f 6b2c b33f
00000010: 5bcf 9c3f a6e1 a83f 63b3 b13f 0764 ae3f
00000020: 45ea b93f 8ceb 9e3f 8f74 aa3f 0b73 b03f
00000030: 6703 aa3f 59d2 b33f 5cfa bb3f d1a4 ae3f

bn3.bias f4 [16]
0.006609821 -0.022472622 -0.1781509 -0.083055645 -0.037135363 -0.09947999 -0.07884294 -0.020132624
-0.018105673 0.024379807 -0.082171895 -0.03395026 -0.06064044 -0.106545694 0.05257863 -0.064288
00000000: 3397 d83b 8118 b8bc 316d 36be 1419 aabd
00000010: 401b 18bd 2abc cbbd 6878 a1bd 2ced a4bc
00000020: 5952 94bc 29b8 c73c bd49 a8bd 6e0f 0bbd
00000030: 1c62 78bd a134 dabd b15c 573d 6da9 83bd

bn3.running_mean f4 [16]
0.058565453 0.12790312 -0.22647765 -0.1150552 -0.26484936 -0.015174967 0.23174877 0.027121969
0.039613288 -0.0898954 0.008125956 -0.15202352 -0.023206256 -0.1264402 -0.0013736095 -0.12028189
00000000: 54e2 6f3d 09f9 023e c2e9 67be 10a2 ebbd
00000010: 569a 87be 6da0 78bc 8d4f 6d3e e42e de3c
00000020: 8b41 223d 141b b8bd bb22 053c 0eac 1bbe
00000030: 0c1b bebc 8a79 01be b00a b4ba 5a56 f6bd

bn3.running_var f4 [16]
0.119347215 0.11660526 0.16681899 0.16785944 0.16851346 0.07002945 0.141115 0.09587401
0.14025524 0.1702208 0.14033024 0.17302711 0.13414273 0.10265188 0.1241104 0.101761825
00000000: 506c f43d bdce ee3d 99d2 2a3e 58e3 2b3e
00000010: cb8e 2c3e 9a6b 8f3d 7380 103e 9859 c43d
00000020: 129f 0f3e 5d4e 2e3e bbb2 0f3e 052e 313e
00000030: b65c 093e 263b d23d 982d fe3d 8168 d03d

eca.conv1d.weight f4 [1, 1, 5]
0.93196857 -0.5474625 0.56804377 -0.4350626 -0.90144235
00000000: 7e95 6e3f 8126 0cbf 516b 113f 86c0 debe
00000010: edc4 66bf

classifier.weight f4 [4, 560]
0.027963383 -0.0389072 -0.013624874 0.05947044 -0.28421006 0.13751188 0.20141819 -0.040656075
0.0951512 -0.13976787 -0.03073138 -0.107743345 -0.055228017 0.18091726 -0.046096664 -0.012320596
-0.14090958 -0.029123027 -0.17284848 0.039118137 0.0983572 -0.07895307 -0.13126466 0.021294469
-0.033337962 -0.056617036 -0.13107343 -0.03233765 -0.0076043466 -0.03831981 0.06750862 -0.078083694
-0.112261936 0.048575897 -0.122863166 0.20153517 0.0048760283 -0.062697 -0.021710053 -0.2646963
-0.048458736 0.034713104 0.06709957 0.043836523 0.08839177 0.2572251 -0.04449949 0.11757687
0.017373785 0.04975434 -0.038922757 0.03575156 0.041793868 0.05175021 0.10180952 0.07248104
0.0254755 0.19606566 0.0108024785 0.03633266 0.08477748 0.21072628 -0.039933264 0.010403947
0.016976528 0.04097311 -0.004189556 0.043927047 -0.06776137 -0.036059264 0.024810458 -0.09551385
0.008628933 0.09891685 -0.13506764 0.03405666 -0.059299216 -0.14651531 0.017703898 0.017158145
-0.06324257 0.02508004 0.038018737 0.009739091 0.03367769 0.019445086 0.08858566 0.05815631
-0.01801724 -0.0033323397 -0.09460293 0.03713266 0.0870827 0.029452428 0.036285114 -0.07908118
0.068806745 -0.090360664 -0.059525672 0.02381165 0.042247232 0.10235938 0.031126514 0.08513408
0.0037065055 0.03972016 -0.009566939 -0.098267704 0.0039303442 0.062406667 0.037518263 0.03436149
0.12241137 -0.0021926742 0.08427842 0.07557757 -0.05163031 -0.022699539 -0.02863331 -0.15784676
-0.044667155 -0.12151384 0.033507492 -0.06369542 -0.08287766 -0.04792643 0.028267961 -0.023253094
-0.07345873 -0.12461856 -0.05100203 -0.026626488 -0.09877481 0.011450712 -0.1192217 -0.013781924
-0.017106654 -0.08346398 -0.10229522 0.09514448 -0.03871837 0.087964855 0.04372078 -0.071311586
0.04203123 0.019569645 -0.028417028 -0.015300304 0.021933483 0.009120074 -0.073089555 -0.004517274
-0.07272816 -0.09980919 0.025359703 0.015532539 -0.04998888 0.12770356 0.048175506 -0.016204154
-0.09357311 -0.0006341013 0.03486483 0.03570654 0.025787745 -0.016110566 0.03267059 -0.01752749
-0.019652495 -0.051140632 -0.0021144594 0.03127839 0.008236236 -0.047968578 0.016516663 0.08495166
0.03694574 -0.03979561 0.065906264 0.17352845 -0.09949977 -0.06459638 -0.14835848 0.050356526
0.008036437 0.05336883 -0.085923485 0.07608994 -0.101765245 0.046218015 0.059171192 0.03433735
0.041099418 -0.082820356 -0.06667379 -0.06327664 0.02036831 0.14806046 0.08629748 -0.042675965
0.06697754 0.04239277 0.01981517 -0.051505934 0.02819477 -0.08009279 -0.010076584 -0.054885715
-0.087297186 0.019409062 0.048326895 0.03549754 -0.029098641 0.097203955 0.020627351 0.0076905354
-0.15739748 -0.12216831 -0.033408273 0.008617764 -0.15034984 -0.08947883 -0.1197569 -0.039220143
-0.040656578 0.022438288 -0.058796514 -0.03079446 -0.0867512 -0.07058758 0.058382418 -0.14002314
0.05721452 -0.08537424 0.027417567 0.16515379 0.08953087 0.05539653 -0.072592795 0.028540624
-0.009702416 -0.05518685 0.028045332 -0.010316166 -0.06146158 0.04720073 -0.007498087 -0.12584813
-0.09011706 0.17655745 -0.14440134 0.113633394 0.15025546 -0.058252238 0.14144713 -0.0024199677
00000000: 7713 e53c 285d 1fbd dd3a 5fbc 4797 733d
00000010: fb83 91be eacf 0c3e 9240 4e3e fc86 26bd
00000020: a2de c23d 4f1f 0fbe 60c0 fbbc 8ba8 dcbd
00000030: c636 62bd 6042 393e dbcf 3cbd 53dc 49bc
00000040: 9a4a 10be 6a93 eebc 31ff 30be 573a 203d
00000050: 806f c93d 26b2 a1bd 3e6a 06be bd71 ae3c
00000060: 638d 08bd 44e7 67bd 1d38 06be 7c74 04bd
00000070: e22d f9bb 3cf5 1cbd f641 8a3d 58ea 9fbd
00000080: 96e9 e5bd 85f7 463d af9f fbbd 3c5f 4e3e
00000090: 17c7 9f3b 4967 80bd 48d9 b1bc 4686 87be
000000a0: ab7c 46bd 542f 0e3d 806b 893d ed8d 333d
000000b0: bf06 b53d 02b3 833e 1945 36bd 24cc f03d
000000c0: 7853 8e3c 35cb 4b3d 786d 1fbd 3a70 123d
000000d0: 0c30 2b3d 07f8 533d 8281 d03d f170 943d
000000e0: ffb1 d03c 70c5 483e e1fc 303c 8ed1 143d
000000f0: d19f ad3d a1c8 573e 1091 23bd 5175 2a3c
00000100: 5c12 8b3c 6bd3 273d 8b48 89bb d9ec 333d
00000110: 79c6 8abd e1b2 13bd 4d3f cb3c c49c c3bd
00000120: 5e60 0d3c eb94 ca3d 2c4f 0abe ff7e 0b3d
00000130: bce3 72bd 1c08 16be c407 913c 3d8f 8c3c
00000140: 5285 81bd a874 cd3c 89b9 1b3d b590 1f3c
00000150: 9ef1 093d 4d4b 9f3c 666c b53d 5035 6e3d
00000160: e498 93bc 6263 5abb 2ebf c1bd 6b18 183d
00000170: 6a58 b23d 3846 f13c b39f 143d 50f5 a1bd
00000180: 8dea 8c3d 030f b9bd 31d1 73bd a610 c33c
00000190: 6f0b 2d3d cba1 d13d 08fd fe3c c75a ae3d
000001a0: d8e8 723b 9bb1 223d a7be 1cbc 9440 c9bd
000001b0: 1eca 803b 229e 7f3d c0ac 193d a2be 0c3d
000001c0: d0b2 fa3d f8b2 0fbb 2a9a ac3d 6ac8 9a3d
000001d0: 4e7a 53bd 62f4 b9bc 6790 eabc 95a2 21be
000001e0: e8f4 36bd 40dc f8bd 273f 093d bf72 82bd
000001f0: c3bb a9bd 814e 44bd 3692 e73c 467d bebc
00000200: 8871 96bd 0438 ffbd 81e7 50bd cb1f dabc
00000210: 734a cabd c49b 3b3c 822a f4bd 94cd 61bc
00000220: 4123 8cbc 2aef aabd 2880 d1bd 1cdb c23d
00000230: 2797 1ebd eb26 b43d 9014 333d cf0b 92bd
00000240: f028 2c3d 8550 a03c d4ca e8bc 20ae 7abc
00000250: d9ad b33c 5d6c 153c faaf 95bd a405 94bb
00000260: 80f2 94bd c368 ccbd 27bf cf3c 317c 7e3c
00000270: 24c1 4cbd b9c4 023e ae53 453d 93be 84bc
00000280: 42a3 bfbd d139 26ba 6dce 0e3d 0541 123d
00000290: d240 d33c 4efa 83bc 99d1 053d d095 8fbc
000002a0: 45fe a0bc d778 51bd be92 0abb c51d 003d
000002b0: 47f1 063c b37a 44bd f44d 873c 23fb ad3d
000002c0: 6b54 173d b900 23bd ddf9 863d 71b1 313e
000002d0: 89c6 cbbd 1b4b 84bd 49eb 17be a542 4e3d
000002e0: 43ab 033c 4699 5a3d a7f8 afbd 0bd5 9b3d
000002f0: 4c6a d0bd 1a4f 3d3d 7e5d 723d 52a5 0c3d
00000300: dd57 283d b89d a9bd 458c 88bd 2f97 81bd
00000310: 71db a63c 299d 173e bcbc b03d fecc 2ebd
00000320: 852b 893d 0ba4 2d3d 6c53 a23c e3f7 52bd
00000330: b8f8 e63c b007 a4bd 4218 25bc d8cf 60bd
00000340: dec8 b2bd c1ff 9e3c 6cf2 453d de65 113d
00000350: 4660 eebc de12 c73d b1fa a83c e300 fc3b
00000360: ce2c 21be 6133 fabd 1dd7 08bd 8631 0d3c
00000370: 4ff5 19be ad40 b7bd 1b43 f5bd 4da5 20bd
00000380: 8387 26bd 80d0 b73c 9dd4 70bd aa44 fcbc
00000390: 9daa b1bd 3990 90bd 6722 6f3d 3a62 0fbe
000003a0: c659 6a3d b1d8 aebd ce9a e03c 131e 293e
000003b0: f65b b73d 79e7 623d 88ab 94bd 07ce e93c
000003c0: e2f6 1ebc 9b0b 62bd 53bf e53c 2305 29bc
000003d0: 23bf 7bbd 8d55 413d 83b2 f5bb 55de 00be
000003e0: 4b8f b8bd 7acb 343e f2dd 13be a0b8 e83d
000003f0: 91dc 193e e699 6ebd 84d7 103e 5298 1ebb

classifier.bias f4 [4]
0.026751118 0.047771726 -0.11618648 0.011220303
00000000: 2925 db3c 49ac 433d 2df3 edbd 5dd5 373c
