result_eegnetsca_cv5/fold_0/best_model_fold0.pth (torch, 23812 bytes, 20 tensors)

conv_time.weight f4 [8, 1, 1, 64]
0.17171033 0.13969606 -0.024258595 0.0855692 -0.06091684 -0.009487034 -0.08341722 0.048003282
0.079211004 -0.12610403 0.04666703 -0.03932277 0.04134657 0.007099015 0.090291664 0.04258856
0.14620082 0.041238178 -0.071471706 -0.016975608 -0.10679358 -0.03342616 -0.010497276 0.16355634
0.0077443523 0.02349025 -0.013605217 -0.11577938 -0.059385456 -0.15780482 0.1271957 -0.02559144
0.18148169 0.08464187 -0.026126862 0.049064375 -0.003237487 0.11535278 0.08190188 0.042104598
0.06972144 -0.06619699 -0.042892285 0.00061223796 -0.0025378282 -0.06543551 0.10848153 0.09488632
0.13952868 -0.010618057 -0.08131464 -0.026029741 -0.07292669 0.12397332 0.067509845 0.07617009
0.04786063 -0.0087589845 0.07479585 -0.10689875 -0.011655646 -0.08828954 0.036952607 -0.061890867
0.019816937 0.016169 0.17819202 0.027017647 0.01656867 -0.020112585 0.116682224 0.025945524
0.09797118 -0.10640984 -0.12328319 -0.10815299 -0.114405915 -0.0020013591 -0.0073028207 0.06531342
-0.07272107 -0.082315624 0.052172445 -0.075887084 0.0405894 -0.033435486 0.11163743 -0.004331536
0.03957447 0.11234748 0.058188085 -0.034676626 0.049726892 0.061297905 -0.0995491 -0.080385774
0.07703618 -0.08903323 -0.10890411 -0.19273463 -0.15343055 -0.064912386 -0.11125709 -0.16577612
-0.040479124 -0.081430346 -0.07773143 -0.04857416 -0.12118953 -0.1391461 0.015417785 -0.0968912
-0.06951142 -0.17877586 -0.098098055 -0.019487951 0.058781426 -0.06696494 -0.03532492 -0.0844655
-0.035321202 -0.083658755 -0.03207736 -0.07523539 -0.04862976 -0.027471138 -0.020174257 -0.12854083
0.09863001 -0.057187382 0.06393315 0.0067059714 -0.12348823 0.057719357 -0.060874674 -0.06874689
-0.10491793 -0.10701403 0.054321058 -0.00032926584 0.078162126 -0.05355058 0.14478567 -0.024548851
0.031096125 0.053331878 0.0726169 0.106645994 0.12736592 -0.07369569 0.029585091 -0.09184432
-0.096691184 -0.1827197 0.044927564 -0.10627291 0.07416833 0.059478868 0.039574616 -0.09642901
0.04455517 -0.026660357 0.0028583212 -0.094028175 0.0626061 -0.00931159 -0.04129823 0.14150578
0.11551736 0.06896487 0.081282325 0.10638955 0.12664555 -0.02588534 -0.110459745 -0.10762778
-0.1574998 -0.015619373 0.047545742 -0.14180703 0.008165298 0.050623506 0.014906324 -0.04799809
0.059479002 0.07398899 0.08037259 0.031879727 0.019100215 0.045317005 -0.008667844 -0.039368246
0.09751136 0.07540609 -0.07055658 -0.096843764 -0.055838414 -0.03567787 0.027617553 0.040094633
-0.11850775 -0.08484094 0.036599822 -0.013340916 -0.041435044 -0.07906145 -0.06944958 -0.11505061
-0.07221738 -0.013209103 0.02221913 0.019026652 -0.12471809 -0.095757894 -0.066450424 0.041768003
-0.060812134 -0.0882033 0.022446252 -0.050218787 -0.080958046 0.06491371 -0.09577549 -0.07827783
-0.1730847 0.03334101 0.05291916 0.013999671 -0.11035961 -0.1517784 -0.149705 0.0064296965
-0.05510364 -0.03534754 -0.0816743 -0.10148024 -0.097652525 -0.14124575 -0.12175011 -0.12647875
0.012862885 -0.119243816 -0.10202602 -0.14615898 -0.08604889 -0.13664155 -0.1352826 -0.031453792
-0.11317883 0.0031586098 -0.08337581 -0.099433474 -0.006062726 -0.031315558 -0.019656843 -0.12445267
00000000: d5d4 2f3e 7c0c 0f3e f6b9 c6bc e83e af3d
00000010: f083 79bd 816f 1bbc a6d6 aabd 179f 443d
00000020: 6139 a23d 6a21 01be ed25 3f3d ea10 21bd
00000030: 055b 293d db9e e83b d6ea b83d 5871 2e3d
00000040: abb5 153e 5de9 283d c25f 92bd 6e10 8bbc
00000050: 98b6 dabd dfe9 08bd c4fc 2bbc 507b 273e
00000060: 56c4 fd3b a06e c03c 6be8 5ebc bd1d edbd
00000070: 2a3e 73bd 9697 21be 973f 023e 24a5 d1bc
00000080: 56d6 393e b758 ad3d 0008 d6bc baf7 483d
00000090: 052c 54bb 143e ec3d 2cbc a73d df75 2c3d
000000a0: 1dca 8e3d 4a92 87bd d2af 2fbd 987e 203a
000000b0: b151 26bb 0d03 86bd 902b de3d c253 c23d
000000c0: 9be0 0e3e 5cf7 2dbc 4a88 a6bd 533c d5bc
000000d0: 975a 95bd b9e5 fd3d 9a42 8a3d 10ff 9b3d
000000e0: 8209 443d d881 0fbc 912e 993d bbed dabd
000000f0: 53f7 3ebc 25d1 b4bd 9e5b 173d 4781 7dbd
00000100: 2157 a23c da74 843c f877 363e 1d54 dd3c
00000110: 05bb 873c 26c3 a4bc 17f7 ee3d b58b d43c
00000120: 1da5 c83d 67ed d9bd e67b fcbd 517f ddbd
00000130: a64d eabd 3c29 03bb 804c efbb 0bc3 853d
00000140: c9ee 94bd 1895 a8bd c6b2 553d b06a 9bbd
00000150: 1241 263d a6f3 08bd 2aa2 e43d 8fef 8dbb
00000160: d718 223d 7016 e63d a156 6e3d 1409 0ebd
00000170: 6dae 4b3d 8313 7b3d 66e0 cbbd 4ca1 a4bd
00000180: 25c5 9d3d 0e57 b6bd 1e09 dfbd 3a5c 45be
00000190: e61c 1dbe c9f0 84bd c2da e3bd 37c1 29be
000001a0: 70cd 25bd f4c4 a6bd a831 9fbd b3f5 46bd
000001b0: 3732 f8bd 517c 0ebe e19a 7c3c e56e c6bd
000001c0: 015c 8ebd 0511 37be a2e7 c8bd 32a5 9fbc
000001d0: cbc4 703d ea24 89bd ddb0 10bd 40fc acbd
000001e0: f7ac 10bd 4855 abbd 8d63 03bd 0315 9abd
000001f0: 0030 47bd 270b e1bc 7c44 a5bc 35a0 03be
00000200: 88fe c93d 513d 6abd 62ef 823d c4bd db3b
00000210: 66e7 fcbd 226b 6c3d b957 79bd 2bcb 8cbd
00000220: 36df d6bd 2c2a dbbd c27f 5e3d 50a1 acb9
00000230: 7713 a03d da57 5bbd b242 143e ac1a c9bc
00000240: 4dbd fe3c 8772 5a3d 2bb8 943d 3769 da3d
00000250: 366c 023e c4ed 96bd 6f5c f23c e018 bcbd
00000260: 0706 c6bd df1a 3bbe f705 383d 9da5 d9bd
00000270: 91e5 973d 1da0 733d fe18 223d 937c c5bd
00000280: 7b7f 363d d266 dabc ac52 3b3b d891 c0bd
00000290: a137 803d a48f 18bc 5528 29bd e4e6 103e
000002a0: 5e94 ec3d 743d 8d3d 5977 a63d c4e2 d93d
000002b0: 5faf 013e 7e0d d4bc b838 e2bd f46b dcbd
000002c0: a147 21be 66e8 7fbc 53bf 423d dd35 11be
000002d0: bec7 053c 985a 4f3d a839 743c a599 44bd
000002e0: 41a0 733d 8a87 973d 629a a43d 5194 023d
000002f0: 0e78 9c3c 539e 393d 9303 0ebc 9940 21bd
00000300: 09b4 c73d 826e 9a3d f87f 90bd 0656 c6bd
00000310: d2b6 64bd f522 12bd 353e e23c 453a 243d
00000320: 31b4 f2bd 16c1 adbd b2e9 153d db93 5abc
00000330: cbb7 29bd f8ea a1bd 953b 8ebd a79f ebbd
00000340: b5e6 93bd fe6a 58bc e504 b63c c8dd 9b3c
00000350: 336c ffbd b71c c4bd 2917 88bd ed14 2b3d
00000360: 2516 79bd efa3 b4bd 34e1 b73c 37b2 4dbd
00000370: 55cd a5bd 7bf1 843d f125 c4bd 2050 a0bd
00000380: 1e3d 31be 9590 083d c3c1 583d e05e 653c
00000390: 3804 e2bd cc6b 1bbe 444c 19be 34b0 d23b
000003a0: 5bb4 61bd 95c8 10bd db44 a7bd dfd4 cfbd
000003b0: 0cfe c7bd baa2 10be 1f58 f9bd a583 01be
000003c0: dabe 523c 1a36 f4bd 05f3 d0bd b3aa 15be
000003d0: 673a b0bd c3eb 0bbe 8687 0abe b1d5 00bd
000003e0: 4dca e7bd ae00 4f3b f0c0 aabd c7a3 cbbd
000003f0: d5a9 c6bb be44 00bd 6307 a1bc 0be1 febd

bn1.weight f4 [8]
1.484444 0.751023 1.4690187 0.73777384 0.8523587 0.5512394 0.61021745 1.2328945
00000000: 4302 be3f 0b43 403f ce08 bc3f bfde 3c3f
00000010: 2e34 5a3f 061e 0d3f 3637 1c3f 7dcf 9d3f

bn1.bias f4 [8]
-0.19054118 -0.19773433 -0.1654298 -0.20118278 -0.1917057 -0.18423744 -0.18835539 -0.19649243
00000000: 3a1d 43be de7a 4abe 6e66 29be dc02 4ebe
00000010: 804e 44be bda8 3cbe 3ce0 40be 5035 49be

bn1.running_mean f4 [8]
0.000202482 -0.000409456 -8.444044e-05 -0.00011147426 1.7439064e-05 0.0002451792 0.0001863811 4.96859e-06
00000000: 5951 5439 41ac d6b9 9e15 b1b8 4ac7 e9b8
00000010: 1b4a 9237 658b 8039 4c6f 4339 ddb7 a636

bn1.running_var f4 [8]
0.34651977 1.0962074 0.7189311 0.39487997 1.1670749 0.7671945 0.7613689 1.1848364
00000000: 0a6b b13e 8650 8c3f de0b 383f b52d ca3e
00000010: b662 953f dc66 443f 12e9 423f b8a8 973f

sca.fc1.weight f4 [5, 22]
-0.032220982 -0.26073548 -0.23184314 -0.26540002 0.0686071 -0.29855004 0.03664787 -0.12333567
-0.13595235 0.014777146 -0.13121676 0.016004521 0.047024623 -0.2951234 -0.03896651 -0.077884436
-0.06899169 -0.07582304 -0.061159506 -0.21132731 -0.1314029 0.08819838 0.13130188 -0.009222822
-0.1939552 0.003531581 -0.14287156 0.15519573 -0.12502418 -0.019105455 -0.050563652 0.029774277
0.18166551 0.0063273134 0.10228952 0.14988297 0.15550701 -0.07565721 -0.055736687 0.08437326
-0.06345793 0.08662342 -0.053714972 -0.1478554 -0.0817197 -0.13292634 -0.075541206 0.034805138
-0.028515344 0.029848156 -0.15770213 -0.3466698 -0.31519023 -0.30028552 -0.34881097 -0.26460126
-0.34220007 -0.36519638 -0.29954386 -0.37952507 -0.29791614 -0.08825932 -0.011347531 -0.23685943
-0.23283115 -0.059286892 -0.083465695 -0.08006831 0.13980514 -0.16116798 0.040373202 0.19381537
0.053128067 0.07281096 -0.0992645 0.015603492 0.029032795 0.06425434 0.09232864 0.19371676
-0.13486902 0.025093324 -0.08250375 -0.14396049 0.0022475645 -0.16013132 0.15901805 0.036933858
-0.27816275 -0.04861444 -0.34883717 -0.2431562 -0.19868417 -0.3322069 -0.28123146 -0.17827977
0.00044991245 0.035541013 -0.02785525 -0.2754943 -0.29059285 0.03010735 -0.07606636 -0.14314859
-0.12060873 -0.3086234 -0.21105944 0.052048374 -0.1985906 -0.1596796
00000000: 26fa 03bd 1f7f 85be 4a68 6dbe 83e2 87be
00000010: e181 8c3d 8ddb 98be 141c 163d 6997 fcbd
00000020: 1837 0bbe d81b 723c b05d 06be ea1b 833c
00000030: e49c 403d 6a1a 97be 599b 1fbd e081 9fbd
00000040: 844b 8dbd 1c49 9bbd 6482 7abd 3066 58be
00000050: 7b8e 06be 5aa1 b43d 0074 063e 521b 17bc
00000060: 319c 46be 1972 673b ec4c 12be a1eb 1e3e
00000070: 5706 00be 0b83 9cbc d51b 4fbd 2fe9 f33c
00000080: 8606 3a3e 5a55 cf3b 2b7d d13d ec7a 193e
00000090: 3b3d 1f3e 2bf2 9abd 274c 64bd e3cb ac3d
000000a0: 3bf6 81bd 9f67 b13d 3b04 5cbd 6867 17be
000000b0: a85c a7bd d81d 08be 59b5 9abd d58f 0e3d
000000c0: 0399 e9bc 1f84 f43c ab7c 21be b47e b1be
000000d0: 9d60 a1be 06bf 99be 5a97 b2be d179 87be
000000e0: d934 afbe 05fb babe d05d 99be 1c51 c2be
000000f0: 7788 98be 4dc1 b4bd ffea 39bc 478b 72be
00000100: 4a6b 6ebe d0d6 72bd 10f0 aabd dbfa a3bd
00000110: 1429 0f3e 3809 25be 5f5e 253d 8977 463e
00000120: d19c 593d ea1d 953d 304b cbbd caa5 7f3c
00000130: 2fd6 ed3c c897 833d cc16 bd3d b05d 463e
00000140: 1b1b 0abe 8490 cd3c baf7 a8bd 616a 13be
00000150: e04b 133b 77f9 23be a1d5 223e f547 173d
00000160: 596b 8ebe ef1f 47bd c99a b2be f0fd 78be
00000170: dd73 4bbe 0617 aabe 92fd 8fbe f98e 36be
00000180: 3ae2 eb39 7493 113d b130 e4bc 970d 8dbe
00000190: 96c8 94be b0a3 f63c aec8 9bbd 8b95 12be
000001a0: b601 f7bd e303 9ebe f71f 58be ad30 553d
000001b0: 565b 4bbe 0d83 23be

sca.fc2.weight f4 [22, 5]
-0.44284916 -0.23343427 -0.045670465 -0.24610946 -0.10616188 -0.010791313 -0.41958454 -0.04759567
-0.28272003 -0.39011785 0.12993835 0.32739016 -0.17296381 -0.17179966 -0.43751585 -0.34488487
-0.35767305 -0.2720213 0.07389459 -0.54238546 0.33641094 0.27235532 -0.420084 -0.19911176
0.12822291 -0.20331423 -0.042247202 -0.29796135 0.33288258 -0.32985148 0.42455742 0.03410214
0.14363173 0.3300588 -0.007801292 -0.14837737 -0.0726032 0.42071122 -0.3161069 0.16907638
-0.39646488 0.23232445 0.16799429 0.0069816737 0.17770702 -0.04773771 0.24540517 -0.4349284
-0.076809384 0.1079545 0.43314964 0.21833766 -0.2586317 0.32522368 -0.047248047 -0.21828818
-0.39041233 -0.17857799 0.29891545 -0.048155483 -0.45203015 0.118673496 -0.3456008 0.3899852
-0.57797647 -0.015169955 -0.4123606 -0.06585577 0.13284375 0.552353 -0.009004701 0.422506
-0.04816091 0.23538569 0.2274879 0.3912361 -0.23991752 0.48382148 0.26671913 -0.10454487
-0.1407414 -0.3441897 0.14168245 -0.34349304 0.2380507 0.22434063 -0.36336005 0.15679565
-0.045944616 0.24330941 0.30529603 -0.41630223 0.45357478 0.351892 0.25436723 -0.43571103
-0.13750905 -0.22891685 -0.11168754 0.15297662 0.19159326 0.3146089 -0.11604314 0.1353468
0.20373988 -0.1875145 -0.3986409 -0.11183748 0.28317583 -0.2588225
00000000: 20bd e2be 6509 6fbe f410 3bbd 1e04 7cbe
00000010: 666b d9bd 0cce 30bc c9d3 d6be adf3 42bd
00000020: aec0 90be 87bd c7be 8f0e 053e af9f a73e
00000030: 6d1d 31be 40ec 2fbe 1402 e0be c094 b0be
00000040: ec20 b7be 6046 8bbe 0c56 973d c6d9 0abf
00000050: 0e3e ac3e 2872 8b3e 4015 d7be f4e3 4bbe
00000060: de4c 033e 9b31 50be 670b 2dbd 648e 98be
00000070: 966f aa3e 4be2 a8be 975f d93e b0ae 0b3d
00000080: 3214 133e 78fd a83e fba1 ffbb 3df0 17be
00000090: fdb0 94bd 7667 d73e c3d8 a1be 5c22 2d3e
000000a0: 72fd cabe 76e6 6d3e b206 2c3e 86c6 e43b
000000b0: d4f8 353e 9e88 43bd 7e4b 7b3e efae debe
000000c0: 3d4e 9dbd 4017 dd3d cac5 dd3e e893 5f3e
000000d0: 606b 84be b883 a63e 2b87 41bd f086 5fbe
000000e0: 20e4 c7be 26dd 36be 720b 993e af3e 45bd
000000f0: 7f70 e7be 170b f33d 97f2 b0be 24ac c73e
00000100: 44f6 13bf 678b 78bc ee20 d3be 64df 86bd
00000110: 3108 083e 0267 0d3f 7488 13bc b552 d83e
00000120: 6044 45bd f208 713e 97f2 683e 1950 c83e
00000130: f0ac 75be 73b7 f73e 698f 883e 9f1b d6bd
00000140: 831e 10be a239 b0be 3415 113e 52de afbe
00000150: 90c3 733e 8db9 653e 540a babe 0a8f 203e
00000160: 6c30 3cbd 1a26 793e c34f 9c3e 9125 d5be
00000170: f43a e83e 302b b43e 6c3c 823e 8415 dfbe
00000180: 2ccf 0cbe 2e69 6abe 70bc e4bd e7a5 1c3e
00000190: 0631 443e 6b14 a13e 07a8 edbd 5a98 0a3e
000001a0: 30a1 503e cd03 40be a91a ccbe 0c0b e5bd
000001b0: 6cfc 903e 6284 84be

conv_depth.weight f4 [16, 1, 22, 1]
-0.09604572 -0.06496441 0.07123378 0.08388509 -0.074980795 -0.065171815 -0.16967827 0.35824928
0.15016164 -0.16405867 0.042935327 0.11008207 -0.0464509 0.008587661 0.11604689 -0.24133462
-0.17482413 0.15196663 -0.025559353 0.0713961 -0.04931943 0.025852555 0.20715714 -0.12244692
0.08086116 0.17592141 -0.16906965 0.141422 0.053305194 -0.17518684 -0.0011909234 0.004045796
-0.2017394 0.046862923 -0.014805767 -0.24642049 -0.06576437 0.30283743 0.090600945 -0.0024972241
-0.00895613 -0.02422796 -0.06272346 -0.005011683 -0.036616042 -0.1178907 -0.062489547 0.02223372
0.08009033 0.019734642 0.0026367058 -0.06784718 -0.15825282 -0.13465251 0.17387255 0.11664386
0.055315953 0.2410373 -0.0812504 0.11991716 0.059830576 -0.14602378 0.1774863 -0.20586847
-0.16657692 -0.021592628 -0.1697097 0.19210279 -0.0708848 0.038323585 -0.17099716 0.098321356
0.04895701 -0.19895884 -0.0323525 0.0180068 0.2658448 -0.112355985 -0.106362395 -0.031083371
0.02557981 0.13071701 0.17613387 -0.10087665 0.04074618 0.054607306 -0.0967365 0.029744714
0.07301693 0.15162672 -0.064419076 -0.022098273 -0.09599462 -0.0018662743 0.18069978 -0.16901638
0.14780788 0.061258666 0.14217098 0.06622816 -0.03858479 -0.2789388 -0.2239122 0.15309784
-0.13628045 -0.040074237 0.031679984 -0.008117997 0.079664245 0.026273217 -0.056703627 -0.047846466
0.06184597 -0.04492609 -0.10795671 -0.17694978 -0.03433038 0.09279753 -0.00040478402 -0.13226123
-0.18538786 0.14996058 -0.13150787 -0.039279945 -0.03602084 0.013800763 0.26453772 0.37412682
0.013724518 -0.19912553 0.04119536 -0.107122965 -0.060904484 0.03834212 0.04102789 0.043478653
0.10318829 -0.09184818 0.087136485 0.06388213 -0.06835194 0.01600701 -0.053858593 -0.053264063
-0.035382535 -0.17062467 -0.01119635 -0.01792806 0.06099262 0.00027968278 -0.26490515 0.061505985
0.08660501 0.460349 0.18524347 -0.055633258 -0.16379143 0.00089228456 -0.04761334 -0.10259494
0.058400217 -0.07390329 0.07360996 -0.006850223 -0.08037163 -0.12162211 -0.069806755 -0.20719059
0.06992889 0.17727953 0.20351115 -0.0030890128 -0.043370876 0.08792021 -0.02428542 0.16036646
0.09791764 -0.12584995 -0.2166872 0.17002073 0.1431071 0.08587916 0.16221794 -0.08107624
-0.10725113 0.008289145 -0.09211901 0.01052114 -0.10324473 0.124317005 -0.103821814 0.00063343154
0.16387896 -0.09861234 0.0071359733 0.15603143 -0.14502302 0.13398154 0.3026915 -0.045509316
-0.18417811 -0.14621462 -0.02656574 0.06932878 -0.028120909 0.05822089 0.13726027 0.01213453
-0.06758085 -0.035176903 -0.17631713 -0.08241939 -0.14380203 0.10078918 0.04498415 -0.079437934
-0.16620706 0.110052034 0.124421805 0.016125798 0.18937832 0.10647705 0.16258618 -0.10713839
-0.1670006 -0.15923166 0.27700195 -0.04436071 -0.16196539 0.026107298 -0.15763122 -0.101343416
-0.10657773 -0.003568508 -0.0062053422 -0.025948925 0.07562869 -0.017605083 0.023343518 0.059481546
0.12704515 -0.045718912 0.0907508 0.038840115 -0.10971717 0.11234467 0.12941554 0.21205918
0.03914664 -0.04591233 0.07524146 0.13145374 -0.31865293 -0.046291787 -0.09617456 -0.00094364915
00000000: 9eb3 c4bd 100c 85bd 04e3 913d f2cb ab3d
00000010: 888f 99bd cd78 85bd 24c0 2dbe 736c b73e
00000020: f9c3 193e fffe 27be f4dc 2f3d b572 e13d
00000030: 4d43 3ebd 43b3 0c3c fea9 ed3d 6c20 77be
00000040: 1905 33be 249d 1b3e d961 d1bc 1e38 923d
00000050: 2c03 4abd bdc8 d33c 0021 543e 73c5 fabd
00000060: 899a a53d be24 343e 9820 2dbe eed0 103e
00000070: 8c56 5a3d 2e64 33be c218 9cba 9992 843b
00000080: c694 4ebe 56f3 3f3d e393 72bc a755 7cbe
00000090: 78af 86bd 820d 9b3e fd8c b93d 78a8 23bb
000000a0: bbbc 12bc b779 c6bc 2875 80bd 0b39 a4bb
000000b0: b4fa 15bd ae70 f1bd 0af5 7fbd 7e23 b63c
000000c0: 6606 a43d 8baa a13c 95cc 2c3b 76f3 8abd
000000d0: 070d 22be 59e2 09be a50b 323e fae2 ee3d
000000e0: fb92 623d 7bd2 763e 9c66 a6bd 2197 f53d
000000f0: e810 753d 4287 15be f8be 353e 2fcf 52be
00000100: 2493 2abe 06e3 b0bc 61c8 2dbe 98b6 443e
00000110: 0d2c 91bd 31f9 1c3d e119 2fbe b55c c93d
00000120: 2587 483d debb 4bbe 0e84 04bd ff82 933c
00000130: cf1c 883e e51a e6bd 87d4 d9bd 8ea2 febc
00000140: c08c d13c aeda 053e 705c 343e 6b98 cebd
00000150: 77e5 263d e9ab 5f3d c91d c6bd 30ab f33c
00000160: e689 953d 0944 1b3e 26ee 83bd 7007 b5bc
00000170: d498 c4bd c69d f4ba 5d09 393e a112 2dbe
00000180: f35a 173e 5eea 7a3d 4595 113e a1a2 873d
00000190: 160b 1ebd 11d1 8ebe 3d49 65be aec5 1c3e
000001a0: 1a8d 0bbe e224 24bd dfc2 013d 5901 05bc
000001b0: 0227 a33d ee3a d73c 1042 68bd a8fa 43bd
000001c0: 3352 7d3d 6b04 38bd 6818 ddbd 5332 35be
000001d0: 039e 0cbd a20c be3d 3139 d4b9 7d6f 07be
000001e0: 51d6 3dbe 448f 193e 00aa 06be 02e4 20bd
000001f0: 978a 13bd 981c 623c 7d71 873e 8d8d bf3e
00000200: cddc 603c 90e7 4bbe 77bc 283d 4963 dbbd
00000210: fb76 79bd a00c 1d3d dc0c 283d ac16 323d
00000220: 6254 d33d e61a bcbd 9d74 b23d a2d4 823d
00000230: 1afc 8bbd 2221 833c d49a 5cbd 6b2b 5abd
00000240: 47ed 10bd 3cb8 2ebe e570 37bc dedd 92bc
00000250: 66d3 793d 63a2 9239 a6a1 87be b3ed 7b3d
00000260: f85d b13d ddb2 eb3e 77b0 3d3e b3df 63bd
00000270: f1b8 27be 34e8 693a 3506 43bd 4c1d d2bd
00000280: 1135 6f3d 9c5a 97bd d2c0 963d d677 e0bb
00000290: e299 a4bd 0315 f9bd d8f6 8ebd c529 54be
000002a0: e136 8f3d c488 353e 3a65 503e 0971 4abb
000002b0: a9a5 31bd 830f b43d 38f2 c6bc 1b37 243e
000002c0: 0b89 c83d cfde 00be 40e3 5dbe ea19 2e3e
000002d0: ab8a 123e 6ae1 af3d 761c 263e 4d0b a6bd
000002e0: 7ba6 dbbd 32cf 073c e4a8 bcbd dc60 2c3c
000002f0: f971 d3bd ea99 fe3d 88a0 d4bd df0c 263a
00000300: e3cf 273e 44f5 c9bd e2d4 e93b b4c6 1f3e
00000310: ea80 14be 7532 093e 61fa 9a3e fa67 3abd
00000320: 3099 3cbe 49b9 15be 65a0 d9bc 3ffc 8d3d
00000330: d25d e6bc 0779 6e3d f58d 0c3e e8cf 463c
00000340: d467 8abd a815 10bd 7a8c 34be 7fcb a8bd
00000350: d740 13be 8f6a ce3d 4d41 383d 5bb0 a2bd
00000360: 2f32 2abe f662 e13d dcd0 fe3d 401a 843c
00000370: 64ec 413e a410 da3d fe7c 263e 5f6b dbbd
00000380: 3502 2bbe a00d 23be 33d3 8d3e 93b3 35bd
00000390: 41da 25be f9de d53c 146a 21be 238d cfbd
000003a0: 6d45 dabd a1dd 69bb 2f56 cbbb d792 d4bc
000003b0: 37e3 9a3d 8938 90bc e83a bf3c eca2 733d
000003c0: 2018 023e c143 3bbd 8edb b93d d016 1f3d
000003d0: 65b3 e0bd f614 e63d 8285 043e 0b26 593e
000003e0: 3a58 203d 910e 3cbd 3218 9a3d cf9b 063e
000003f0: 7a26 a3be 759c 3dbd 2bf7 c4bd 395f 77ba

bn2.weight f4 [16]
1.394282 1.2212515 1.2626302 1.1336324 1.3925631 1.3948089 1.0388421 0.97231084
1.0657774 1.2605668 1.2053496 1.0347354 0.9086956 1.0643214 1.2099094 1.1287725
00000000: d577 b23f f851 9c3f de9d a13f de1a 913f
00000010: 823f b23f 1989 b23f c7f8 843f 5de9 783f
00000020: 656b 883f 415a a13f e548 9a3f 3672 843f
00000030: 46a0 683f af3b 883f 50de 9a3f 9e7b 903f

bn2.bias f4 [16]
-0.61691445 -0.511979 -0.34959865 -0.44074905 -0.6858425 -0.6581499 -0.22007188 -0.1672781
-0.32688504 -0.69256055 -0.5368915 -0.3323903 -0.18351789 -0.2536179 -0.56518453 -0.485684
00000000: 1bee 1dbf 0e11 03bf 98fe b2be dca9 e1be
00000010: 6093 2fbf 837c 28bf 865a 61be f34a 2bbe
00000020: 7a5d a7be a64b 31bf b971 09bf 102f aabe
00000030: 1dec 3bbe 35da 81be efaf 10bf 93ab f8be

bn2.running_mean f4 [16]
-0.0032279815 0.00968123 0.0037153687 -0.005160179 0.0008380721 -0.00039062966 -0.009358536 -0.009760312
-0.015019075 0.014344223 -0.004336992 -0.002833064 0.0007491898 -0.002826424 0.020281717 -0.009539064
00000000: 8b8c 53bb 069e 1e3c 8b7d 733b b816 a9bb
00000010: 11b2 5b3a 6dcd ccb9 8c54 19bc b7e9 1fbc
00000020: 9112 76bc 0804 6b3c 531d 8ebb edaa 39bb
00000030: 4765 443a 873b 39bb d825 a63c bc49 1cbc

bn2.running_var f4 [16]
0.018417938 0.035342373 0.0031529034 0.0052948613 0.029410068 0.06310562 0.0030369584 0.0051195566
0.0045515206 0.0059223874 0.0070041763 0.0018659149 0.0016722311 0.0041057677 0.048473496 0.11687969
00000000: 37e1 963c 2ac3 103d f1a0 4e3b 8480 ad3b
00000010: 62ed f03c 853d 813d b507 473b f4c1 a73b
00000020: ec24 953b 9610 c23b 4a83 e53b b791 f43a
00000030: c42e db3a ad89 863b 258c 463d 9e5e ef3d

conv_sep.0.weight f4 [16, 1, 1, 16]
-0.013719677 0.16473489 0.2974773 0.28634465 -0.007415792 -0.1634922 -0.022620235 0.020461248
-0.13370162 0.1271387 0.17082243 0.13436238 0.04716377 0.23719148 0.14224379 0.06168914
-0.12931056 0.026032656 -0.087179996 0.17095847 0.034336213 0.2971648 0.21890365 0.15222201
0.07710897 0.073757105 -0.12369504 -0.21999092 -0.109731056 0.20917772 0.10549291 0.14029905
0.007936349 0.20877641 0.07669658 -0.001268096 -0.10298714 -0.1819757 -0.053244196 -0.15715362
0.07839181 -0.02418766 0.2839093 0.42211297 0.30989835 0.127428 -0.105122805 0.23673965
0.06916159 -0.17439167 0.087919526 -0.08207281 0.05258362 0.19302388 -0.13319471 -0.26288918
-0.18103144 -0.18456367 0.012146065 -0.18382342 -0.11369458 -0.20628889 -0.14059192 -0.08090691
0.1914475 0.10432675 0.0009590273 0.23345476 0.10401435 0.09797431 0.017778121 0.09383824
0.11577903 0.17628501 -0.06216373 0.1601591 0.07383254 0.13783504 0.1403029 0.19063258
-0.16729946 0.16203125 -0.15254137 -0.14268254 -0.35541782 -0.17900015 -0.013262207 -0.042744987
-0.16040505 -0.12350279 0.063891605 -0.01098227 -0.04252353 -0.06978284 -0.07368017 -0.20980884
0.09241968 -0.028360749 -0.21327555 -0.21344836 -0.02780899 -0.07689411 0.022451853 -0.04546679
0.090493985 0.23203604 0.09949768 0.23246095 0.09365468 -0.25745174 -0.29365557 -0.2404498
-0.17505497 -0.11201076 -0.029304115 -0.115031295 -0.17397448 -0.14194354 -0.13235696 0.094176434
-0.14664689 -0.13264364 0.059043035 0.0023094804 0.22472626 0.19930488 0.20938335 -0.11543493
0.05205857 0.12811674 -0.014078278 0.22672318 0.25328565 0.16058068 0.23943675 -0.053402845
-0.24103877 -0.05504822 -0.017844772 -0.17158699 0.1788136 0.09037948 0.20778981 0.17715794
0.0022657195 -0.12440996 0.078861445 0.01592261 0.08648474 0.23456155 0.29457012 0.07070754
0.020539813 0.030995885 -0.06830729 0.13353391 0.03590727 0.07830737 0.06668569 -0.03973843
0.09356878 -0.035309285 -0.25399333 -0.16568072 -0.14755508 -0.0883326 -0.14178109 -0.33638003
-0.121207505 -0.04016773 0.014028024 0.13555235 -0.1122822 0.052846923 0.021482917 -0.10025699
0.041498154 0.16729313 -0.021263918 0.017393863 0.3047936 0.2861736 0.04504984 0.09675908
-0.09355783 -0.18527299 0.06424467 0.16315955 0.017725434 0.06467832 -0.12329002 0.21505319
0.044339363 0.07070355 0.041691516 -0.042656165 -0.20002495 -0.17842932 -0.14580306 -0.21015832
-0.25585407 -0.021873632 0.0015515544 -0.08557002 0.15067446 0.11483271 0.18386844 0.071637936
0.077793926 -0.06209892 0.12799111 0.07164691 -0.31867087 -0.3142683 -0.11094301 0.083252154
0.008164079 0.08638109 -0.03631035 -0.094384566 -0.12486689 0.11487654 0.08878198 -0.3028596
0.052353293 -0.008337067 0.11966863 0.24295773 0.17698216 0.02071446 0.13095662 0.017923169
0.0844953 0.09033569 -0.08182612 -0.019110125 -0.051774092 0.1136947 0.13418892 0.18201658
-0.00502951 -0.059625246 -0.0051880553 0.08469153 -0.11802165 0.08254974 -0.066964425 0.07139942
0.22065067 0.23739554 -0.14491 0.021072822 0.04815317 0.17101014 0.42273885 0.16251282
00000000: 7fc8 60bc 43b0 283e f24e 983e c49b 923e
00000010: 2c00 f3bb 806a 27be 124e b9bc 599e a73c
00000020: 14e9 08be a630 023e 13ec 2e3e 4b96 093e
00000030: cc2e 413d 53e2 723e 5ba8 113e c0ad 7c3d
00000040: fd69 04be 7042 d53c 6d8b b2bd bd0f 2f3e
00000050: 21a4 0c3d fc25 983e 4728 603e 16e0 1b3e
00000060: 4feb 9d3d f70d 973d d353 fdbd 4d45 61be
00000070: adba e0bd af32 563e ab0c d83d 8eaa 0f3e
00000080: 7607 023c 7cc9 553e 1913 9d3d 3e36 a6ba
00000090: ecea d2bd d757 3abe 9616 5abd e1ec 20be
000000a0: e38b a03d 3325 c6bc 8f5c 913e 311f d83e
000000b0: ffaa 9e3e 7c7c 023e a04a d7bd e16b 723e
000000c0: 97a4 8d3d bb93 32be 270f b43d ca15 a8bd
000000d0: ec61 573d 0da8 453e 3264 08be 6999 86be
000000e0: 4e60 39be 42fe 3cbe 4a00 473c 353c 3cbe
000000f0: b4d8 e8bd 653d 53be 54f7 0fbe 86b2 a5bd
00000100: d00a 443e 43a9 d53d 3c67 7b3a c40e 6f3e
00000110: 7a05 d53d c1a6 c83d 6ca3 913c 432e c03d
00000120: 8e1d ed3d 0f84 343e 659f 7ebd bf00 243e
00000130: 8435 973d a124 0d3e 90ab 0f3e 3035 433e
00000140: 8d50 2bbe 85eb 253e ce33 1cbe 5f1b 12be
00000150: 53f9 b5be d14b 37be ba49 59bc 5e15 2fbd
00000160: 3941 24be 08ef fcbd 9ad9 823d fbee 33bc
00000170: 272d 2ebd 4eea 8ebd a1e5 96bd 21d8 56be
00000180: 8746 bd3d cd54 e8bc e864 5abe 3592 5abe
00000190: aecf e3bc a97a 9dbd f3ec b73c 633b 3abd
000001a0: e954 b93d db9a 6d3e 71c5 cb3d 3e0a 6e3e
000001b0: 06ce bf3d b7d0 83be 065a 96be 7938 76be
000001c0: 9c41 33be e665 e5bd 2f0f f0bc 8795 ebbd
000001d0: 5e26 32be a659 11be 9588 07be 93df c03d
000001e0: 9a2a 16be bcd3 07be 1cd7 713d a75a 173b
000001f0: a41e 663e 9416 4c3e 9768 563e 2669 ecbd
00000200: 5e3b 553d 0931 033e 94a8 66bc 1f2a 683e
00000210: a8ae 813e 436f 243e e82e 753e f1bc 5abd
00000220: ded2 76be 3e7a 61bd 332f 92bc 80b4 2fbe
00000230: ea1a 373e e018 b93d dac6 543e e468 353e
00000240: 777c 143b a6ca febd 1c82 a13d 2270 823c
00000250: e91e b13d e730 703e e5d1 963e 1dcf 903d
00000260: 1c43 a83c 15eb fd3c b1e4 8bbd 1dbd 083e
00000270: 8013 133d 9d5f a03d 8292 883d c4c4 22bd
00000280: fda0 bf3d 78a0 10bd 6a0b 82be 35a8 29be
00000290: ae18 17be b9e7 b4bd 102f 11be 013a acbe
000002a0: a43b f8bd eb86 24bd ccd5 653c 3cce 0a3e
000002b0: 36f4 e5bd 0476 583d f1fc af3c 8953 cdbd
000002c0: f8f9 293d e44e 2b3e ab31 aebc 937d 8e3c
000002d0: e80d 9c3e 5985 923e 2e86 383d a029 c63d
000002e0: 3f9b bfbd 34b8 3dbe b692 833d 4c13 273e
000002f0: ee34 913c 1176 843d 7a7f fcbd e736 5c3e
00000300: 319d 353d 06cd 903d b9c4 2a3d 3bb8 2ebd
00000310: 57d3 4cbe 2db6 36be 664d 15be be33 57be
00000320: 4eff 82be 5530 b3bc 875d cb3a 563f afbd
00000330: 684a 1a3e 692d eb3d 0248 3c3e e9b6 923d
00000340: 6c52 9f3d 705b 7ebd 1a10 033e 9dbb 923d
00000350: d428 a3be c6e7 a0be 1736 e3bd 1b80 aa3d
00000360: a1c2 053c 92e8 b03d 29ba 14bd b24c c1bd
00000370: 36ba ffbd 6444 eb3d 54d3 b53d 6a10 9bbe
00000380: 6870 563d 3298 08bc d414 f53d e9c9 783e
00000390: d03a 353e 5fb1 a93c 7e19 063e 9cd3 923c
000003a0: df0b ad3d eb01 b93d 7494 a7bd d68c 9cbc
000003b0: 1211 54bd c4d8 e83d d268 093e 8e62 3a3e
000003c0: 96ce a4bb 9a39 74bd 9000 aabb c172 ad3d
000003d0: 56b5 f1bd d70f a93d a524 89bd dc39 923d
000003e0: 40f2 613e d117 733e 4963 14be e9a0 ac3c
000003f0: 423c 453d 481d 2f3e 3a71 d83e c369 263e

conv_sep.1.weight f4 [16, 16, 1, 1]
-0.07813892 -0.19070692 0.022316748 0.062494006 -0.02557896 -0.060528524 -0.20423521 0.039573886
-0.18213655 0.005237593 0.097756766 -0.09584591 0.06290923 -0.070031 0.12529951 0.030433515
-0.045585744 0.03241766 0.11144942 -0.1208629 -0.1754804 0.0057420526 -0.2594056 0.028449818
0.20735152 -0.22603048 -0.26756895 -0.062686734 0.14970236 0.10356036 -0.12862606 0.1661376
-0.040988863 -0.044128872 0.024523456 0.09671664 0.15536083 0.021695048 0.4234453 0.026274806
0.24361336 -0.14154853 0.26094925 -0.13457038 0.107947804 0.11907257 -0.15066335 0.029511569
-0.049680576 -0.15329969 -0.061461642 0.09093114 0.027156679 -0.23839934 0.027272612 0.10751696
0.034632202 -0.00044397236 -0.16035251 -0.19997011 0.013461582 -0.2973912 -0.21845418 -0.09591928
-0.19893828 -0.10079572 -0.1547391 -0.015141289 -0.1489395 -0.07535527 -0.08259226 0.089101955
-0.0018915326 -0.08900426 -0.09399112 0.037221074 -0.11578918 -0.0036651003 -0.0082076555 0.070297234
0.1389674 0.31300855 -0.08814488 -0.07010769 0.06947498 -0.25131798 -0.04251902 0.012695285
-0.1655151 -0.10383881 0.16722332 0.05174711 0.11615873 0.207291 -0.15115844 0.09334159
0.17512839 0.20135704 -0.201403 0.13136587 -0.24941257 -0.132679 -0.09322922 -0.16377619
-0.010563651 -0.13742992 0.06565677 0.110418774 -0.23413986 -0.14629686 -0.078860335 -0.0013302766
0.12506963 0.23000121 0.014844154 -0.26007035 0.017312434 0.097821675 0.25945807 -0.116788775
-0.129239 0.09950234 -0.05003376 -0.15252285 -0.087573096 -0.13161986 0.19890523 -0.037562564
0.20085911 0.28570622 0.11077655 0.047989044 0.066381335 0.18520391 -0.16192368 0.09285745
-0.1161341 0.020640185 -0.016290378 -0.11846653 0.09922768 -0.13550873 -0.1631922 -0.086421154
-0.06033621 0.022672607 0.09176283 0.19490653 0.036128886 0.12413647 -0.08343733 -0.20553133
-0.045359623 -0.14990316 -0.26686114 -0.19585568 -0.238041 -0.013903387 0.051448785 0.27920187
0.21646461 -0.090415455 0.0490805 -0.019222314 0.08192253 -0.25055695 0.102790505 0.121155374
-0.014831532 0.1338403 -0.030100271 0.3395984 0.00065950747 0.23854212 0.10278562 0.0937737
0.08371199 0.13864401 0.15313879 0.007900338 0.11161603 0.091070496 0.10136535 0.24519373
0.07738101 -0.21647725 0.015625663 0.006873339 -0.080549315 -0.16993935 0.18063875 0.24647039
-0.12706412 -0.060024384 -0.14099471 -0.13355422 -0.029393956 -0.10076319 -0.113502115 -0.10590619
-0.022833401 0.30927297 0.10746913 0.14745297 0.061403785 0.15355173 0.0004668355 0.08218165
-0.17984527 -0.07515224 -0.03069667 -0.07060887 0.039821982 0.073081575 0.20374185 -0.093414426
-0.12863436 -0.23681632 -0.19067071 -0.19500214 0.094593555 0.17332065 0.18989071 -0.020272246
-0.024200385 0.011408985 -0.09969471 -0.013436739 -0.039646413 -0.0022072773 0.11864134 0.09857542
-0.11426657 -0.1355347 0.0022048631 0.03701834 -0.14024073 0.06623716 -0.04885544 -0.037529964
0.030167198 -0.09926742 -0.26382172 0.15287289 0.10961844 0.1278317 -0.07131072 0.053880963
0.12175225 0.13649757 0.021006618 0.0024235155 -0.06875436 0.03238254 0.21742828 -0.13602012
00000000: 4c07 a0bd ad48 43be 9dd1 b63c b7f9 7f3d
00000010: f88a d1bc c2ec 77bd 0923 51be 3a18 223d
00000020: 0182 3abe 1da0 ab3b b334 c83d dc4a c4bd
00000030: 8ed6 803d 6a6c 8fbd 844e 003e b54f f93c
00000040: 1eb8 3abd 61c8 043d 983f e43d f886 f7bd
00000050: 22b1 33be d427 bc3b d0d0 84be 980f e93c
00000060: f553 543e 8974 67be ccfe 88be e761 80bd
00000070: 934b 193e 7417 d43d 8db6 03be fa1f 2a3e
00000080: f0e3 27bd 7ac0 34bd 6ae5 c83c 6013 c63d
00000090: e916 1f3e d0b9 b13c d3cd d83e 433e d73c
000000a0: c875 793e 19f2 10be 249b 853e d1cc 09be
000000b0: bd13 dd3d 52dc f33d 7e47 1abe 3fc2 f13c
000000c0: dc7d 4bbd 98fa 1cbe 34bf 7bbd 1b3a ba3d
000000d0: af77 de3c f51e 74be d06a df3c da31 dc3d
000000e0: 7fda 0d3d f6c4 e8b9 7333 24be f7c4 4cbe
000000f0: f88d 5c3c a943 98be 74b2 5fbe 5471 c4bd
00000100: 7ab6 4bbe fd6d cebd ed73 1ebe 2b13 78bc
00000110: 9983 18be dd53 9abd 2126 a9bd 167b b63d
00000120: 4ded f7ba de47 b6bd 6b7e c0bd 2075 183d
00000130: e122 edbd 2e32 70bb 6779 06bc fff7 8f3d
00000140: 784d 0e3e a842 a03e 4e85 b4bd 9f94 8fbd
00000150: e648 8e3d c0ac 80be 6d28 2ebd e2ff 4f3c
00000160: ca7c 29be 71a9 d4bd 973c 2b3e c7f4 533d
00000170: a1e4 ed3d 1844 543e 47c9 1abe e029 bf3d
00000180: db54 333e 8a30 4e3e 973c 4ebe c684 063e
00000190: 0266 7fbe 01dd 07be f6ee bebd f2b4 27be
000001a0: 2a13 2dbc 6eba 0cbe 0e77 863d 3d23 e23d
000001b0: 5cc2 6fbe d8ce 15be 8781 a1bd ad5c aeba
000001c0: 4112 003e 7085 6b3e e534 733c f127 85be
000001d0: ced2 8d3c bb56 c83d b0d7 843e f42e efbd
000001e0: 3a57 04be e2c7 cb3d 33f0 4cbd f32e 1cbe
000001f0: 8659 b3bd 5bc7 06be d0ad 4b3e 34db 19bd
00000200: 03ae 4d3e 1648 923e d1de e23d 2990 443d
00000210: f0f2 873d 18a6 3d3e 52cf 25be 0c2c be3d
00000220: b7d7 edbd 9b15 a93c 6673 85bc 959e f2bd
00000230: e237 cb3d cdc2 0abe db1b 27be 93fd b0bd
00000240: 1a23 77bd e7bb b93c 27ee bb3d 9495 473e
00000250: e2fb 133d 433b fe3d 31e1 aabd ce76 52be
00000260: 03cb 39bd 3780 19be 06a2 88be 648e 48be
00000270: 05c1 73be 08cb 63bc f6bb 523d 8cf3 8e3e
00000280: e6a8 5d3e bd2b b9bd a208 493d 1d78 9dbc
00000290: 00c7 a73d 0049 80be d483 d23d 4f20 f83d
000002a0: f4ff 72bc 6e0d 093e d894 f6bc d7df ad3e
000002b0: cce2 2c3a 6344 743e 4481 d23d 6d0c c03d
000002c0: 3171 ab3d b2f8 0d3e 6ad0 1c3e 6b70 013c
000002d0: f296 e43d 2b83 ba3d a398 cf3d 1114 7b3e
000002e0: ef79 9e3d 36ac 5dbe 6401 803c bf39 e13b
000002f0: 0af7 a4bd 9504 2ebe 5df9 383e bc62 7c3e
00000300: 191d 02be 21dc 75bd eb60 10be 70c2 08be
00000310: 98cb f0bc ee5c cebd cc73 e8bd 58e5 d8bd
00000320: 1d0d bbbc 0759 9e3e c618 dc3d e9fd 163e
00000330: 8982 7b3d aa3c 1d3e 9ac1 f439 da4e a83d
00000340: 5c29 38be 6be9 99bd 9577 fbbc 629b 90bd
00000350: 601c 233d cbab 953d b4a1 503e 1050 bfbd
00000360: bab8 03be fa7f 72be 2f3f 43be a4ae 47be
00000370: 44ba c13d f87a 313e b672 423e fb11 a6bc
00000380: e33f c6bc c0ec 3a3c bd2c ccbd c525 5cbc
00000390: 4764 22bd f8a7 10bb 3bfa f23d e9e1 c93d
000003a0: 9704 eabd 9cc9 0abe 777f 103b 8ba0 173d
000003b0: 449b 0fbe 59a7 873d a41c 48bd 05b9 19bd
000003c0: 3321 f73c b84c cbbd a413 87be b68a 1c3e
000003d0: a27f e03d 50e6 023e 5b0b 92bd 49b2 5c3d
000003e0: 3e59 f93d 05c6 0b3e 1216 ac3c d8d3 1e3b
000003f0: 16cf 8cbd 8ea3 043d 85a5 5e3e dc48 0bbe

bn3.weight f4 [16]
1.2886257 1.2599291 1.2320803 1.2521849 1.1180102 1.2279162 1.0451094 1.2344533
1.2392039 1.2060833 1.183575 1.2396514 1.1367769 1.190629 1.1598886 1.1808218
00000000: b0f1 a43f 5b45 a13f cfb4 9d3f 9847 a03f
00000010: f51a 8f3f 5c2c 9d3f 25c6 853f 9102 9e3f
00000020: 3c9e 9e3f f060 9a3f 637f 973f e6ac 9e3f
00000030: e881 913f 8866 983f 3b77 943f 2b25 973f

bn3.bias f4 [16]
-0.2355341 -0.21086185 -0.15056238 -0.1639764 -0.19269344 -0.07822603 -0.16273594 -0.106837705
-0.11811602 -0.16367789 -0.1020879 -0.062772326 -0.111576304 -0.088452846 -0.1484133 -0.07803314
00000000: da2f 71be 2bec 57be 062d 1abe 6ee9 27be
00000010: 6e51 45be f834 a0bd 40a4 26be bacd dabd
00000020: d0e6 f1bd 2d9b 27be 7613 d1bd c78e 80bd
00000030: 1e82 e4bd c426 b5bd a8f9 17be d7cf 9fbd

bn3.running_mean f4 [16]
0.041049153 0.031989403 0.07576641 0.01027927 0.06406004 -0.078840055 0.070355214 -0.11036917
0.019760326 0.0030175508 -0.21761683 -0.08338486 -0.06879919 0.038947638 0.062464874 -0.021691753
00000000: 2823 283d 5207 033d 6b2b 9b3d 626a 283c
00000010: e931 833d e576 a1bd 6516 903d 3b09 e2bd
00000020: 68e0 a13c 1ac2 453b f2d6 5ebe aec5 aabd
00000030: 97e6 8cbd 8f87 1f3d 2bdb 7f3d e7b2 b1bc

bn3.running_var f4 [16]
0.077343926 0.15410328 0.21556963 0.1086585 0.05805905 0.11212204 0.12591986 0.14651337
0.102602996 0.1297843 0.12477583 0.110698976 0.0673202 0.10830998 0.03876138 0.088352546
00000000: 7e66 9e3d 40cd 1d3e 49be 5c3e 5988 de3d
00000010: 54cf 6d3d 3da0 e53d 23f1 003e 9a07 163e
00000020: 8521 d23d 2de6 043e 788a ff3d 25b6 e23d
00000030: 2cdf 893d 9fd1 dd3d 41c4 1e3d 2ef2 b43d

classifier.weight f4 [4, 560]
0.021168377 0.09217805 -0.024699021 0.17943917 -0.22744404 -0.0016762937 0.1583857 -0.078218125
0.090905815 0.032225978 -0.14468536 0.035738967 -0.01099915 0.037817094 -0.018007603 0.039560266
0.065536305 -0.15955785 0.0066305357 -0.012436972 0.05345399 -0.048055723 0.030769875 -0.032877833
0.084345154 0.008983815 0.0120415045 0.040333655 0.03810537 -0.11919291 -0.090583704 0.07304188
0.0011913347 -0.07998859 -0.100800335 0.10604552 0.06714882 -0.09393964 0.111380264 -0.09080792
-0.00823609 -0.08294222 0.05561776 -0.02108895 0.010936484 0.0728658 -0.1548286 -0.08238128
-0.012245618 -0.12261795 0.014436432 -0.03279081 -0.05924802 -0.102163315 0.036039922 -0.046916343
0.12755074 -0.079383574 0.06269024 -0.08664919 -0.07130262 0.008336748 0.0019533215 -0.09312108
0.19822085 -0.07404032 -0.08036255 0.036264017 0.008783308 0.12607878 0.10774034 -0.076837175
-0.095824145 -0.19986871 0.18088567 0.14421724 0.07862264 0.050258346 0.039202627 0.084390625
0.11337202 0.108168244 0.0044559767 0.11166662 0.13004765 0.16798322 -0.047727667 0.016463233
0.06113955 -0.051436294 0.024960907 0.017717103 -0.004798618 0.03107488 -0.0016460168 -0.055188734
0.015412015 -0.008668689 0.0076139285 0.0038475355 -0.036712054 -0.01262477 -0.021989506 -0.033188123
0.19606417 -0.0042915856 0.08004853 -0.07610364 -0.00854608 0.016523847 0.015453924 0.08281452
0.06319944 -0.015072948 0.17190549 0.005229675 -0.038345315 0.07188989 -0.034638178 0.004097249
0.034037914 -0.0043197516 0.090639934 0.16242047 -0.0046419566 0.08977781 0.06132361 0.08499728
0.2109903 0.040244885 0.11139014 0.05658226 -0.014709168 0.1239108 0.04950302 -0.06923777
0.012458197 0.09354126 0.10273998 0.11694986 -0.032791775 0.042807717 -0.034457263 0.114728406
-0.17346597 0.07410901 -0.023162145 -0.021520952 -0.029378954 0.046745855 -0.004693375 0.018865203
0.03294639 0.085563764 -0.04510178 0.014662453 -0.14661694 -0.0759727 0.036228966 -0.03974096
-0.058787677 0.022685299 -0.105378285 0.0004052872 -0.073705934 -0.042291757 -0.044294666 -0.07099242
-0.06420685 0.033191215 -0.025642324 0.07460833 -0.028130017 0.03540893 0.10839001 0.07048858
0.04272657 -0.03285965 0.11226116 -0.07028814 -0.15038107 -0.022120466 0.10699464 0.043078914
0.03739996 0.034055516 0.025290571 -0.10224277 0.037860703 -0.011423338 -0.04698311 0.14798862
-0.030291565 0.020280316 -0.05014749 0.04466113 0.06780933 0.06372079 -0.05040683 -0.03773563
-0.04341405 -0.024302995 0.0062811323 -0.10807175 0.02710114 0.015625954 -0.035968125 0.007786201
-0.09706606 -0.05903254 0.06526773 -0.072413504 -0.013286135 0.04434722 -0.09096224 0.099859335
0.014270253 0.021589754 0.105296515 0.021870261 0.016449722 0.02012699 0.027629796 0.07126321
0.034990616 0.031644803 -0.013637134 -0.07015329 0.028430287 -0.04589755 -0.08874495 -0.040163785
-0.009801835 -0.12069298 -0.031641915 0.0047875275 0.007407044 0.037030913 -0.098218456 -0.09415404
0.06186476 -0.08882373 -0.007747202 0.053342797 -0.113560654 -0.02022078 -0.08951808 0.015363184
-0.18199195 0.11438709 0.13102224 -0.014331073 -0.09149408 -0.08808661 -0.094794236 -0.09585288
00000000: 4e69 ad3c d8c7 bc3d 9a55 cabc e7be 373e
00000010: 17e7 68be 15b7 dbba dc2f 223e d330 a0bd
00000020: d42c ba3d 63ff 033d 6628 14be 0663 123d
00000030: c735 34bc 19e6 1a3d ae84 93bc f209 223d
00000040: e637 863d 2263 23be f744 d93b 71c4 4bbc
00000050: 92f2 5a3d 14d6 44bd 1b11 fc3c e8aa 06bd
00000060: 27bd ac3d da30 133c bb49 453c e734 253d
00000070: 6014 1c3d 6a1b f4bd f383 b9bd fb96 953d
00000080: 8f26 9c3a 0fd1 a3bd 6870 cebd 652e d93d
00000090: 5285 893d 6d63 c0bd 561b e43d 81f9 b9bd
000000a0: aaf0 06bc 9cdd a9bd 73cf 633d bcc2 acbc
000000b0: f02e 333c aa3a 953d 638b 1ebe 84b7 a8bd
000000c0: d8a1 48bc 1f1f fbbd c986 6c3c a84f 06bd
000000d0: 0dae 72bd 003b d1bd 999e 133d 5a2b 40bd
000000e0: a99c 023e db93 a2bd be63 803d 2175 b1bd
000000f0: 1c07 92bd db96 083c 4c03 003b 44b6 bebd
00000100: 68fa 4a3e 74a2 97bd 1f95 a4bd 9489 143d
00000110: dde7 0f3c cc1a 013e f8a6 dc3d cf5c 9dbd
00000120: 733f c4bd 62aa 4cbe 183a 393e afad 133e
00000130: e804 a13d b2db 4d3d ef92 203d fed4 ac3d
00000140: 972f e83d 5087 dd3d 7103 923b 78b1 e43d
00000150: 362b 053e cb03 2c3e 167e 43bd e7dd 863c
00000160: 776d 7a3d ddae 52bd d17a cc3c 7523 913c
00000170: ba3d 9dbb bf90 fe3c 29bf d7ba 950d 62bd
00000180: ad82 7c3c 1e07 0ebc 437e f93b ef26 7c3b
00000190: 615f 16bd 20d8 4ebc 5623 b4bc 45f0 07bd
000001a0: 0cc5 483e 6ea0 8cbb 7cf0 a33d 3adc 9bbd
000001b0: dc04 0cbc 055d 873c 7532 7d3c a99a a93d
000001c0: b56e 813d 87f4 76bc fe07 303e b25d ab3b
000001d0: fa0f 1dbd 023b 933d c3e0 0dbd 3742 863b
000001e0: 576b 0b3d b48c 8dbb 6ea1 b93d 8d51 263e
000001f0: 8e1b 98bb 6edd b73d 772e 7b3d 0e13 ae3d
00000200: d70d 583e d2d7 243d 8420 e43d cdc2 673d
00000210: b9fe 70bc f2c4 fd3d aec3 4a3d 88cc 8dbd
00000220: 771d 4c3c 8f92 bf3d 5769 d23d 6883 ef3d
00000230: ab50 06bd 2557 2f3d 0f23 0dbd baf6 ea3d
00000240: 10a1 31be 77c6 973d 8abe bdbc b54c b0bc
00000250: 22ac f0bc 9578 3f3d e2ca 99bb 338b 9a3c
00000260: cbf2 063d 0e3c af3d a5bc 38bd c93a 703c
00000270: c022 16be 9397 9bbd d364 143d 6bc7 22bd
00000280: 59cb 70bd 85d6 b93c 92d0 d7bd ba7c d439
00000290: 23f3 96bd 1f3a 2dbd 536e 35bd 7964 91bd
000002a0: e27e 83bd 83f3 073d da0f d2bc 41cc 983d
000002b0: ec70 e6bc f408 113d 95fb dd3d 515c 903d
000002c0: 0e02 2f3d d797 06bd 2ee9 e53d 3af3 8fbd
000002d0: 7ffd 19be fb35 b5bc 0120 db3d 8473 303d
000002e0: b330 193d cc7d 0b3d 2c2e cf3c a864 d1bd
000002f0: d313 1b3d f428 3bbc 5d71 40bd 548a 173e
00000300: 0426 f8bc e822 a63c 7467 4dbd 97ee 363d
00000310: 9edf 8a3d 0c80 823d 6477 4ebd ad90 1abd
00000320: eed2 31bd 1317 c7bc f5d1 cd3b b954 ddbd
00000330: 3603 de3c 0002 803c 5053 13bd 6323 ff3b
00000340: 92ca c6bd 1bcc 71bd 16ab 853d 884d 94bd
00000350: 17ae 59bc 6ea5 353d 694a babd 0d83 cc3d
00000360: c7cd 693c ffdc b03c b3a5 d73d 4329 b33c
00000370: 91c1 863c 5be1 a43c e257 e23c 72f2 913d
00000380: 5252 0f3d fb9d 013d 496e 5fbc 87ac 8fbd
00000390: a2e6 e83c 12ff 3bbd eabf b5bd c882 24bd
000003a0: e097 20bc e22d f7bd f49a 01bd b1e0 9c3b
000003b0: cab6 f23b baad 173d c226 c9bd d5d3 c0bd
000003c0: e765 7d3d 37e9 b5bd 3edc fdbb fa7d 5a3d
000003d0: 7d92 e8bd 0da6 a5bc 4155 b7bd ddb5 7b3c
000003e0: 195c 3abe c743 ea3d b22a 063e e0cc 6abc
000003f0: 4061 bbbd c166 b4bd 7b23 c2bd 844e c4bd

classifier.bias f4 [4]
-0.015151556 0.04540112 -0.08500836 0.04463633
00000000: 3b3e 78bc 86f6 393d dd18 aebd 96d4 363d
