result_eegnetecasca_cv5/fold_3/best_model_fold3.pth (torch, 24202 bytes, 21 tensors)

conv_time.weight f4 [8, 1, 1, 64]
000000 b5 6f 86 bd db 3a b8 3d bb a9 82 39 d8 cf 24 3d
       -0.06564275 0.08995601 0.0002492199 0.040237278
000010 46 b3 24 be ae b0 db bc 13 83 50 3d 1b 8f be bd
       -0.16084012 -0.026817646 0.050906252 -0.09304639
000020 71 b0 e7 3d 6d e0 7c bc bb 24 1d bd 3f cb 2f bd
       0.113129504 -0.015434367 -0.038365107 -0.04291844
000030 a9 6c 4d bb ab 2f b2 bd 0e 57 a1 3c 6d 75 78 bd
       -0.0031345284 -0.08700498 0.019694831 -0.06065886
000040 cc e2 cf bc e2 52 d3 bc bb 60 dc bc 0e f3 8c 3d
       -0.0253767 -0.025796358 -0.026901593 0.068822965
000050 b3 8b f2 bd 15 ff 09 be ac 9c 98 bd 22 28 0e 3d
       -0.11843052 -0.13476212 -0.07451758 0.034706242
000060 6c e2 91 bd bb 2c 45 bd 08 d7 09 be 2b 1f 06 be
       -0.07123265 -0.04813836 -0.13460934 -0.13097827
000070 bc 31 fe bd 91 db 9c bb f1 3c e3 bd ec f1 99 bd
       -0.1241183 -0.0047869165 -0.11095608 -0.07516846
000080 a4 a3 2a bd df bc 7f bd 19 6b 22 be c9 61 3b be
       -0.041659966 -0.06243598 -0.15861167 -0.18299021
000090 fb c4 fa 3c c7 85 8f bd 45 be 03 be 70 c1 67 bd
       0.030611506 -0.07007938 -0.12865551 -0.05658096
0000a0 f7 01 ba bd 4d e8 27 be 86 40 d0 3c 31 e6 cc bd
       -0.09082406 -0.1639721 0.025421392 -0.10004843
0000b0 05 07 f1 bd 58 b6 ef bd cc 9c 62 bd 68 64 57 bd
       -0.11768917 -0.11704701 -0.055325314 -0.05258599
0000c0 98 32 1e be 57 fd 6f bc cb 1a 96 bd 52 63 5a bd
       -0.15448987 -0.014647803 -0.07329329 -0.053317375
0000d0 46 ad ae 3c 4e 59 bb 3c 8d c8 f8 bd 8f c3 82 3d
       0.021322858 0.022869732 -0.12147627 0.06384956
0000e0 4f 1c a5 bd d9 1d 2b bd 9f 96 33 bd 76 05 b9 3b
       -0.0806204 -0.04177651 -0.043844815 0.005646403
0000f0 d8 d6 b8 ba 63 66 46 bc ad f7 b0 bd a2 aa 6d bd
       -0.0014102114 -0.012109372 -0.086409904 -0.058024056
000100 ea 67 15 3d 8d 86 76 bd f7 0a b0 bd b1 f9 b5 3d
       0.036476053 -0.06018691 -0.085958414 0.088855155
000110 22 8e 89 bc ab 76 6d 3d d5 fd 6f bd cf 05 c4 3d
       -0.016791407 0.0579745 -0.058591682 0.095714204
000120 94 3e 9c bd 42 2b a6 3c d8 21 e6 3c 90 ce d5 3d
       -0.07629123 0.020284299 0.02809231 0.10439789
000130 53 0f 0d 3d ad dc ae 3d cd 6b f7 3b 53 b6 39 3d
       0.034438442 0.08538184 0.0075506927 0.045339894
000140 dc d9 7b bd e6 3b 4a 3d a5 d2 14 bd 91 68 06 3d
       -0.061487064 0.04937353 -0.0363337 0.032814566
000150 bb b8 a9 bd 53 b6 70 3c 50 76 9a bc 04 8f d9 bd
       -0.08287188 0.014691907 -0.018855244 -0.10622981
000160 3a 9e ce bd 06 26 b6 bd 15 03 dc bd 5b 6c 23 bd
       -0.10088773 -0.08893971 -0.10742775 -0.039898258
000170 87 e8 cc 3c 75 af 2f be 44 e0 13 be e8 63 77 bd
       0.025013221 -0.17156775 -0.1444102 -0.060398012
000180 67 fd 35 be 2b f8 17 be 01 09 55 be c7 20 2e bd
       -0.17772447 -0.14840762 -0.20804216 -0.042511728
000190 0e 19 50 be aa 9a db bd ec a7 07 be 32 e4 57 bd
       -0.20322058 -0.10722859 -0.13247651 -0.05270786
0001a0 6d 4b b9 bd 38 72 e9 bd 9b 53 59 3c 21 c1 4d bd
       -0.090475895 -0.113987386 0.013264562 -0.05023301
0001b0 99 89 84 bd f3 ad 49 bd cc 7d 70 bd 68 a9 e5 bd
       -0.06471557 -0.049238157 -0.05871372 -0.11213952
0001c0 fe cf 8d 3d 04 20 b0 bd 69 04 42 3d 70 63 f1 bb
       0.06924437 -0.085998565 0.047367487 -0.00736659
0001d0 f2 a4 c8 bd 02 1e 14 3d 4d da 99 3c 2c 1e f1 3d
       -0.09797086 0.03616143 0.018780852 0.11773333
0001e0 1f 96 58 3d 94 da e9 3c a0 51 c6 bd 32 fd 99 3d
       0.05287754 0.028546609 -0.096835375 0.07518996
0001f0 d9 72 14 3d 93 dd dd 3d 95 2e ea bd bb d3 4b bc
       0.03624234 0.108332776 -0.11434666 -0.012440617
000200 bd cb 6e bc 53 f5 d0 bc d3 23 f2 3d e0 3b 7b 3d
       -0.014574942 -0.025507605 0.11823239 0.061336398
000210 cb 64 dc bd 4f 30 c9 3d 0e b9 95 3d 39 cd 0c bd
       -0.10761412 0.09823667 0.07310687 -0.034375403
000220 4c a9 d7 3d 10 80 08 3c d5 b7 f0 bc 10 ce 76 3b
       0.10530338 0.008331314 -0.029384533 0.0037659444
000230 a7 b0 e5 3d 84 2c 52 3d b8 17 60 3d 51 1a 07 3d
       0.112153344 0.051311985 0.05471012 0.03298408
000240 bb e1 02 bd 5d c0 2c bd 6a 1f 3a bc dd 29 ca 3a
       -0.031953555 -0.04217564 -0.011360029 0.0015423853
000250 97 2a 28 bd df f5 54 bd 94 bb ff 3d 72 3f 67 bd
       -0.04105624 -0.051992293 0.124869496 -0.05645699
000260 f5 26 50 3d 11 e9 ad 3d 8b 50 2b 3d c6 57 dc bc
       0.050818402 0.084917195 0.04182486 -0.026897322
000270 c7 a1 84 bd a8 46 a6 3d fe 24 07 3e 72 ad 90 3d
       -0.06476169 0.08118945 0.13197705 0.07064332
000280 73 71 f3 bc 82 a6 ee bc 69 8b 4d 3d de 48 4a 3d
       -0.029717183 -0.029132131 0.05018178 0.049385898
000290 6e 61 ef 3d e1 9c 2a 3d d5 33 ba 3d eb 8f 42 3d
       0.11688505 0.041653518 0.090919174 0.047500532
0002a0 05 33 3a 3e c4 2a 41 bc e4 57 b5 3d c2 b0 2e 3e
       0.18183525 -0.011789981 0.088546544 0.17059615
0002b0 7b 6d 2a 3e 0c 95 27 3e f8 3c 9d bd 7f 4c eb 3d
       0.16643326 0.1636545 -0.076776445 0.114892
0002c0 18 dd e0 3d 57 4b 46 3e 2a 8b 60 3d d6 72 14 3e
       0.1097967 0.19364677 0.054820217 0.14496931
0002d0 a6 70 06 3c 92 d6 43 bd 74 7f 25 3e c0 c2 94 3c
       0.008205568 -0.047812052 0.16161901 0.01815927
0002e0 fd e1 e4 3d cd 59 14 3e f4 d9 91 3d 34 11 f4 bd
       0.11175916 0.14487381 0.071216494 -0.11917344
0002f0 d7 61 6b 3d 44 a4 77 3c 07 2f 0e 3d ae 1a f1 3d
       0.057466354 0.015114848 0.034712818 0.11772667
000300 1f f2 e1 bd c5 d8 ed bc ef 42 00 3e e4 95 0b 3d
       -0.11032509 -0.029034028 0.12525533 0.034078494
000310 e2 cb 3f bd 34 0e 16 3e b1 16 33 bd f6 e0 ab 3d
       -0.046825297 0.14653856 -0.043722812 0.08392517
000320 cd 95 e2 bd f1 3c 46 bd b1 55 69 bd ea 95 bf 3b
       -0.110637285 -0.048397962 -0.056966487 0.0058467286
000330 3d 75 85 bd 7a 2e a1 bd 90 4e 0e 3e 9f 18 43 3e
       -0.06516502 -0.07870193 0.13897157 0.19052361
000340 4e 62 c0 3d d8 8a 4e 3e 79 f3 ec 3c 4e 60 d8 3d
       0.0939375 0.20170152 0.02892469 0.10565244
000350 47 be 0c bc f5 c9 ad bd 41 03 4e be 34 56 b0 bd
       -0.0085902875 -0.08485786 -0.20118429 -0.08610192
000360 b8 37 86 bd 28 4b 34 3e 1e 32 65 3b d4 39 04 3d
       -0.06553596 0.17606795 0.00349725 0.03228171
000370 43 0d 9c 3d cb f2 79 3d 10 0d 96 bd 38 2d 1a bd
       0.07619717 0.06102256 -0.0732671 -0.03764078
000380 0e ac 0f 3c 87 ff 4e 3d cb 35 98 bd d3 0f 87 bc
       0.008769048 0.05053666 -0.07432135 -0.016487038
000390 23 70 79 bd 0d 2c bc 3d b2 d6 87 3d 5b 36 15 3d
       -0.060897958 0.091880895 0.06632747 0.03642879
0003a0 f8 0b c0 3b be 6e 27 3e 52 4e 28 3e 9f 03 b0 3d
       0.005860802 0.16350839 0.16436127 0.08594441
0003b0 02 89 05 bd d5 2f f1 bd 81 dd d2 bd a0 09 4c bb
       -0.032601364 -0.11776701 -0.10296155 -0.0031133667
0003c0 00 90 3e bd c4 cb e1 3b 34 94 7b 3d 86 ee 82 bc
       -0.046524048 0.006890746 0.061420634 -0.015982877
0003d0 6c 1e 41 3d 21 5f f7 bc 89 a8 1b bd d5 1d c5 3c
       0.047148153 -0.030196728 -0.038002525 0.024062077
0003e0 6a d9 c5 3d fd 47 65 bd 35 6c 89 3d 44 73 a5 3d
       0.09660609 -0.055976856 0.06710092 0.08078626
0003f0 15 76 77 3d 54 c4 00 3d 50 68 1e be 2f 9d d9 bc
       0.060415346 0.031437233 -0.1546948 -0.026564209

bn1.weight f4 [8]
000000 05 52 91 3f bd 37 9d 3f 9e 08 76 3f 52 65 8b 3f
       1.1353155 1.2282635 0.961069 1.0890296
000010 67 24 86 3f fc 71 b4 3f 48 4b 18 3f 05 93 99 3f
       1.0479859 1.4097285 0.5948987 1.1997992

bn1.bias f4 [8]
000000 3d bb d7 3d 67 c4 d8 3d 17 b0 d1 3d 32 46 e0 3d
       0.1053376 0.10584336 0.102386646 0.10950889
000010 1b 51 db 3d 7e ea e9 3d 56 6e 81 3e 55 aa d0 3d
       0.10708829 0.11421679 0.25279492 0.10188738

bn1.running_mean f4 [8]
000000 e1 e7 c7 3a 3d 4f 91 3a 89 8e b2 ba 8e de 97 b9
       0.00152516 0.0011086237 -0.0013622801 -0.0002896678
000010 de 93 6a 3a 57 09 9b 39 70 85 da b8 db 3e f7 39
       0.00089484255 0.00029570863 -0.00010419905 0.00047158342

bn1.running_var f4 [8]
000000 ee e8 97 3e 25 99 a1 3f 60 d7 ff 3e 94 4c 02 3f
       0.296699 1.2624861 0.49969006 0.508981
000010 0c f1 69 3f 8f 20 6c 3f 5b 97 fd 3e 2f b5 a3 3f
       0.91383433 0.9223718 0.49529538 1.2789668

sca.fc1.weight f4 [5, 22]
000000 5f e7 d3 bd ea 23 44 3e 9d 05 0e be a3 da 3e be
       -0.10346865 0.19154325 -0.13869329 -0.18638091
000010 42 6c 20 bd 7f 16 e2 bc ff 66 1a be 4c 99 2f be
       -0.039165743 -0.027598618 -0.15078352 -0.17148322
000020 e8 1e 4d be a5 40 b2 3d ea 76 db bd 94 ef 8c bd
       -0.20031321 0.08703736 -0.107160404 -0.068816334
000030 a0 36 e4 bc e6 e9 32 bd 88 25 b4 bd db 0e e4 3d
       -0.027858078 -0.043680094 -0.08796221 0.11135646
000040 58 f6 43 3e 5e dc 31 be c0 09 29 be c4 ab e7 bd
       0.19136941 -0.1736922 -0.16507626 -0.113120586
000050 5c fd fa 3d 42 8e 39 3e 91 7d 4a 3e 13 fa d3 bd
       0.12255356 0.18120673 0.19774462 -0.10350432
000060 c9 65 49 3e 56 c6 30 be d8 33 a4 bd aa 98 24 bd
       0.19667734 -0.17263159 -0.08017701 -0.040184654
000070 2a 18 73 bc 3c 38 71 3d eb 24 27 be a9 ad 5d bd
       -0.014837304 0.05889152 -0.16322677 -0.054120693
000080 92 73 78 3d f0 e1 05 3e ed 25 c8 bd e4 51 3a 3d
       0.06065709 0.1307447 -0.09772859 0.045488253
000090 12 93 31 be 21 af 19 be dd 12 ce 3d fd 39 98 bd
       -0.17341259 -0.15008213 0.10062192 -0.074329354
0000a0 aa 24 33 bd 46 cb 2b 3c d0 8a fd 3d de 73 e3 3d
       -0.043736137 0.010485476 0.12379992 0.11106084
0000b0 22 26 02 3e 9a ba d4 3d a8 92 d3 3d d6 3f bb 3d
       0.12709859 0.10387154 0.10330707 0.09143035
0000c0 72 a3 69 3e bc 5d 50 3e 98 65 33 3e 1b a2 fa 3d
       0.22816256 0.20348257 0.17519224 0.122379504
0000d0 42 52 84 3e f2 db db 3d 91 d0 a3 3e 67 91 8c 3e
       0.25844008 0.107353106 0.3199506 0.27454683
0000e0 b9 c2 af 3e e7 a0 19 3d bf d1 95 3e da 11 4c 3d
       0.3432825 0.037506964 0.29261586 0.049821712
0000f0 0e b1 af 3c 7d d5 af 3e 85 39 06 bc 32 f4 a3 3e
       0.021446731 0.34342566 -0.008192425 0.32022244
000100 f4 10 61 3a 50 81 05 3e 01 09 e5 bd 6e 6e 18 be
       0.0008585595 0.1303761 -0.11183358 -0.14885876
000110 a5 b6 16 be 5e 99 0b bd 1e c5 2d 3e ac f1 96 3d
       -0.14718111 -0.03408181 0.16969725 0.07370314
000120 0e b5 a0 3d 6f 90 37 bc 83 2b ea 3b 01 9d d2 bd
       0.078470334 -0.011203869 0.0071463003 -0.10283852
000130 3f 4b 05 3e 29 ce 79 bd 97 17 b7 3d aa df a3 bd
       0.13016985 -0.060987625 0.08940046 -0.08001645
000140 70 db fc bd eb b8 30 3d 37 b5 2a bd ff dd 42 3e
       -0.12346542 0.0431451 -0.041676726 0.19029997
000150 5d 12 44 be bd 7c 5d be 82 73 26 3e 41 94 69 3d
       -0.1914763 -0.21629615 0.16255 0.05702615
000160 e7 3c 3a bd fd 37 98 bd e6 7f 42 3e 87 81 18 3e
       -0.045468237 -0.07432554 0.18994102 0.14893161
000170 fa 9c b9 bc bb d8 08 be d5 43 1e be 41 db f3 3d
       -0.02265786 -0.13363926 -0.15455563 0.11907054
000180 91 85 a6 3d ee 12 7e 3d 18 c8 94 bd c0 73 1f be
       0.081309445 0.06202977 -0.07264727 -0.15571499
000190 4b cb 9d bd 3c 6e 07 3e aa b9 ab 3c dc 2f 0c be
       -0.07704791 0.13225645 0.020962555 -0.13690132
0001a0 74 90 a6 bc 06 86 d1 3d 57 c9 ef bd 24 99 0a 3e
       -0.020332552 0.10230641 -0.117083244 0.13534981
0001b0 ee 68 ab 3d 35 0f 4a be
       0.08369623 -0.19732364

sca.fc2.weight f4 [22, 5]
000000 52 e6 51 3e 59 9f d6 be 61 df 3e 3e a1 4d b7 be
       0.20498016 -0.41918448 0.186399 -0.35801414
000010 72 5e bd 3c 8e 80 82 3e 07 7f 92 3e 71 77 a0 3e
       0.023116324 0.25488704 0.2861254 0.31341127
000020 04 2b 50 be e2 b4 ad be 29 fe 69 3e bc 03 3e 3d
       -0.20328909 -0.33927065 0.2285086 0.04639028
000030 64 60 c8 3e 73 d7 1c 3d e7 4b 9c 3d 1a 4a 6e be
       0.3913604 0.038291406 0.07631665 -0.23270455
000040 f8 ec 16 3e f9 d4 a5 3e c4 ef db be 25 41 20 3e
       0.14738834 0.32389048 -0.42956364 0.1564985
000050 9b 48 77 be 25 55 8a 3e 06 60 af 3e dd b0 a3 be
       -0.2414879 0.27018085 0.34252948 -0.31970873
000060 64 7a 9a 3e 25 85 5a 3e 9a 13 6c be af bd 73 3e
       0.30171502 0.21339853 -0.23054352 0.23802827
000070 56 21 67 3e 67 44 40 3e 0c 04 ce be cc 10 0e be
       0.2257131 0.18776093 -0.40237463 -0.13873595
000080 ff f1 c7 be fa bc d5 be 77 93 af 3d 76 cf 06 bd
       -0.39051816 -0.4174574 0.085730486 -0.032912694
000090 59 a3 2b 3e e0 dd e4 3e e7 a1 78 3d 81 c6 62 bd
       0.16761531 0.44700527 0.060701277 -0.05536509
0000a0 3a 4f f5 bb d3 9f 65 3e 98 fd 08 bf 55 8b 68 3d
       -0.007486251 0.2242425 -0.53511953 0.056773502
0000b0 79 f4 56 be a3 c4 84 be fc 4f b7 3e 08 90 81 3e
       -0.20991696 -0.25931272 0.3580321 0.253052
0000c0 93 bc 88 3e 41 79 50 3d cf 61 50 bd 89 d4 b3 be
       0.2670637 0.050896887 -0.050874528 -0.3512309
0000d0 7e d5 e8 be be d8 1b 3d b9 ef b9 be e9 bd b1 be
       -0.45475382 0.0380485 -0.36315706 -0.34715202
0000e0 57 3e ae be 78 93 e9 be 82 8f d2 be 70 80 ce 3e
       -0.34031937 -0.45620322 -0.41125113 0.40332365
0000f0 6a 83 87 be 9b 0c ef 3d 54 e1 fc 3d 64 92 5f be
       -0.26467448 0.11672326 0.123476654 -0.21833187
000100 ef 37 76 be 10 c4 8e bd d6 37 c3 3e f2 03 dc 3d
       -0.24044774 -0.0697099 0.38128537 0.1074294
000110 69 04 95 3e 14 21 ee bd 12 c8 95 3e e0 e2 cf 3e
       0.29104927 -0.11627403 0.29254204 0.4060278
000120 ab 72 0f 3d 9f da bf be b0 33 2f 3c 10 9f cf bd
       0.035021465 -0.37471482 0.010693476 -0.10137761
000130 a0 86 c1 be 7e 23 b7 3d 9d 3a b2 be 42 b6 aa 3d
       -0.37798023 0.089423165 -0.34810343 0.08335544
000140 34 de 79 3e 9d 3a 8e bc 50 81 4f be 0a 1c c6 3e
       0.2440117 -0.017361933 -0.20264173 0.38693267
000150 d8 7d c8 3e 85 60 c5 be 11 4e 92 3e 09 01 bd bd
       0.3915851 -0.385502 0.28575185 -0.09228713
000160 2e ce 71 3e c8 b1 b3 3e 12 b5 50 3e ca 71 3e bd
       0.23613808 0.35096574 0.20381573 -0.046495236
000170 96 d9 13 3f 79 ba ee 3d f4 6c 6e be 57 cd ac be
       0.57753885 0.116566606 -0.2328375 -0.33750412
000180 0d 10 96 3e 7d 5c 8c be 98 0a 53 be 3d 27 c5 bd
       0.2930912 -0.27414313 -0.2060951 -0.09626625
000190 eb ca c0 3e ab 07 fb bc ac ce cd bd 64 4d e7 3d
       0.37654814 -0.030643305 -0.10049185 0.11294058
0001a0 28 af 7e 3e fb 46 fa bc 32 44 c9 3e c9 01 b7 3e
       0.24871504 -0.030551424 0.3930984 0.3574355
0001b0 4c 79 84 be eb 10 40 be
       -0.25873792 -0.18756454

conv_depth.weight f4 [16, 1, 22, 1]
000000 bd 04 9d 3d 09 64 1e be 53 2c 4f be 74 66 dd 3c
       0.076669194 -0.15467848 -0.20231752 0.027026393
000010 0b 5a 26 bd 6c 9b 3c 3e 43 2c f5 bd 43 cc 5e 3d
       -0.040613215 0.18418664 -0.11971333 0.054394018
000020 e6 f5 4c 3e b9 7b 02 3e 7c 54 55 3e af a9 6b bd
       0.20015678 0.12742509 0.2083301 -0.05753487
000030 9f dc 58 be be 5a 87 bd 4d 46 11 be f8 c6 f7 3c
       -0.2117791 -0.066091046 -0.14186974 0.030246243
000040 28 4b e4 3c cb 28 c8 3c 52 1e 60 bd a3 65 fe 3b
       0.027867869 0.024433514 -0.054716416 0.007763581
000050 aa d3 ac bd f8 e8 67 3e 1c 5c 83 3c d4 98 07 3c
       -0.08438809 0.22647464 0.016035132 0.008276183
000060 a9 a0 2d bc 8e a2 90 bd 20 d0 80 bc 48 8b ac 3c
       -0.010597386 -0.07062255 -0.015724242 0.021062508
000070 a2 84 d8 bd bf 93 cd bd 9c f6 51 3c 12 ee d3 3d
       -0.10572173 -0.10037946 0.012815144 0.10348143
000080 b2 55 1b 3d 5a 04 f8 3d 7d 25 a5 3d 08 3c 02 3e
       0.037923522 0.12110205 0.08063791 0.12718213
000090 60 1c 80 3d 12 0e 27 be 5a 12 17 be 3e 38 dc bd
       0.06255412 -0.16313961 -0.14753094 -0.10752915
0000a0 d5 16 ba 3e aa ed c0 bc f1 e2 a7 bd 96 0f 44 be
       0.36345544 -0.023550827 -0.081975825 -0.1914657
0000b0 cd 41 d5 3d 1d 0f 48 bd 57 91 73 be 0a cd 7d be
       0.10412941 -0.04884254 -0.23785912 -0.24785247
0000c0 9a d8 3b 3d 8b 0b 10 be e2 80 17 bd fb 86 0c 3e
       0.045860864 -0.14066903 -0.036988147 0.13723366
0000d0 77 92 98 3d 87 e6 e8 bd 70 8b 5f 3d 22 88 56 3e
       0.07449811 -0.113720946 0.054576337 0.20950368
0000e0 04 e7 37 3e e0 14 d9 bd 64 a2 0c 3e cd 8a ad 3d
       0.17959219 -0.10599685 0.13733822 0.0847374
0000f0 0e 91 df bd 89 b2 c6 3d 30 00 a7 3d 29 02 1f be
       -0.10916339 0.09702022 0.08154333 -0.15528168
000100 5a 26 0d 3d fa c0 2e 3e 3f 35 02 bc 84 8c c5 3c
       0.034460403 0.17065802 -0.007947265 0.024114855
000110 bf 04 37 be d0 88 9d 3c a9 23 0e 3e 5c 31 05 3e
       -0.17872904 0.019230276 0.13880791 0.1300711
000120 1a 50 c5 bc f9 a5 5b bc d3 19 40 3d 31 b1 c6 bd
       -0.024086047 -0.01340627 0.046899628 -0.09701765
000130 4d 1f 26 be f5 05 58 bd 84 9c aa 3d f0 95 46 3d
       -0.16222878 -0.052740056 0.08330634 0.048482835
000140 7b 60 e2 3c 65 85 55 3e 4f ec 32 bd 13 b2 ac bd
       0.027633896 0.20851667 -0.043682393 -0.084324025
000150 d6 7b 25 3e 6a 1e 3a bd ab aa ae be bf 40 14 3e
       0.16160521 -0.04543916 -0.34114584 0.14477824
000160 d8 d0 9d bd 3a 7f fa 3d 8a a4 3a 3d 5b 3c 01 be
       -0.077058494 0.12231298 0.045567073 -0.1262068
000170 3e 8a d8 bb 3f d5 ae bd 66 18 56 3e 85 4b 8a 3e
       -0.0066082766 -0.08536767 0.20907745 0.27010742
000180 64 ba 3e bd 28 c7 e6 3d 42 e3 35 be 2b 9c 9d 3d
       -0.046564475 0.11268455 -0.17762473 0.07695802
000190 2f 62 2a 3e 7b 41 3e 3e 95 a4 63 be e1 b0 a0 bd
       0.16639017 0.18579666 -0.22230752 -0.07846237
0001a0 6e 71 b1 3d 39 ca bb 3d 45 b4 b5 3d 2f db b5 bd
       0.08664213 0.0916943 0.08872274 -0.088796966
0001b0 a1 5a bf 3d ae 0f f9 3d d0 91 a3 bd c4 ee a0 bc
       0.09343458 0.12161194 -0.07986796 -0.019645102
0001c0 c1 4b 02 3e 2b f8 62 3d ec 29 1f be 60 65 fe 3c
       0.1272421 0.055412453 -0.15543336 0.031054199
0001d0 1b ed 4e 3d 5e a8 28 bd 24 b2 41 be 28 e5 be 3d
       0.05051909 -0.041176192 -0.18915612 0.09321052
0001e0 3f 6c 49 3e 4b e6 69 bd da c9 60 be 1a 1e 6e 3d
       0.19670199 -0.05710439 -0.21952 0.058134176
0001f0 bb ed 7c bd 3f 6d f1 3c 74 1c 27 3e 93 69 06 be
       -0.061750155 0.029471038 0.16319448 -0.13126211
000200 e7 a0 0a be 5b 59 8f 3d 83 ea 21 3e ea e3 28 3e
       -0.13537942 0.06999465 0.15812115 0.16493192
000210 9f 5b 47 3c e9 f0 d2 bd f1 f3 3e be 52 1c 74 3d
       0.01216784 -0.10299856 -0.18647744 0.05959732
000220 ba 43 b9 3b df 3c 49 bb d6 70 9e 3d b8 72 e6 bc
       0.0056538256 -0.0030706448 0.077363655 -0.028130874
000230 51 6b dd bb fd de 7c bd 3f 41 92 bd c2 6e 51 3e
       -0.006757178 -0.061736096 -0.07141351 0.20452407
000240 b2 51 4b be 01 f8 b9 bd fe e6 21 3e 2b 08 c2 bd
       -0.19855383 -0.09080506 0.15810773 -0.09474214
000250 9b 2a bf 3d 30 b5 c9 3d a8 d5 50 3e 46 af 77 3d
       0.09334298 0.09849012 0.20394003 0.06046989
000260 8b a2 c0 3d 00 29 d7 3d 01 d3 8c bc 12 c3 f2 bd
       0.094060026 0.10505867 -0.017190458 -0.11853613
000270 14 94 d7 3d 30 38 53 bd 58 56 e1 bd bb b7 80 3d
       0.105262905 -0.051567256 -0.11002797 0.06285044
000280 85 4c 58 be 69 c0 8c 3e c3 23 61 3e 67 91 90 bd
       -0.2112294 0.27490547 0.21986298 -0.07058983
000290 5c e9 9a bb 69 7a 7a 3d bd 95 ff bc 67 eb 92 3d
       -0.0047275256 0.061151896 -0.03119933 0.07173806
0002a0 55 e6 0e be 98 e2 10 be 01 5c 24 3d f6 fb 9f 3c
       -0.13955052 -0.14148939 0.040126804 0.019529324
0002b0 fe 02 59 3d 31 cc 61 3d d9 b9 be bc aa 42 01 bd
       0.05298137 0.055126373 -0.023281978 -0.031557716
0002c0 db be 01 3e 33 b4 08 3e e0 c6 3f 3e 79 f5 52 be
       0.12670462 0.1334999 0.18728209 -0.20601453
0002d0 b2 09 80 bd 2d c2 2f be 4c 8b d5 3d c4 5a 23 3d
       -0.06251849 -0.17163916 0.104269594 0.039881483
0002e0 b9 5e 46 3e 22 f8 c0 3c fd ad 58 bd 5b 35 ba 3c
       0.19372071 0.023555819 -0.052900303 0.02273052
0002f0 3c a4 00 ba 55 ca 7e 3d 68 53 19 3e 8e ef 86 bd
       -0.00049072853 0.062204678 0.14973223 -0.0658866
000300 aa 42 b7 3d 42 81 ca bd 28 f1 00 be 24 1f c9 bd
       0.08948262 -0.09887935 -0.12591994 -0.09820393
000310 9a 72 27 be 59 87 2b bd 10 48 e2 bd e2 94 64 be
       -0.16352311 -0.041877124 -0.11048901 -0.2232242
000320 28 b7 a1 3d 2e 2c 8f 3c d9 d6 0e bc f1 71 4a 3e
       0.078962624 0.017477121 -0.008718216 0.19770028
000330 57 01 91 3e 2c 74 3a be 56 0b cd bb 8a a5 c8 3c
       0.28321335 -0.18208379 -0.006257455 0.024492998
000340 de 74 20 bc d5 c2 06 3e fc 55 2e be 95 70 4b 3d
       -0.009793488 0.1316026 -0.17024988 0.049667913
000350 19 70 b3 bd 5a 6d ff bd c7 d6 77 3d a6 89 46 3d
       -0.08761615 -0.12472029 0.060507562 0.048471116
000360 38 ae df 3d 8c 41 1f be ef 97 28 3d c2 19 9c 3d
       0.109219015 -0.15552348 0.04116052 0.076221004
000370 e8 87 fb bd fb 8f 1e be f4 39 30 3d 39 1f 3e 3d
       -0.122817814 -0.15484612 0.04302402 0.046416495
000380 33 28 94 ba 9c e3 17 3e 29 0f 8c bd 1c 77 bf 3e
       -0.0011303484 0.1483292 -0.06838829 0.3739556
000390 98 c4 82 3d 0c 7d 7c be e2 86 07 bb 15 1f 2a be
       0.063851535 -0.24657077 -0.0020679762 -0.1661342
0003a0 47 76 c2 3c 53 dc cf 3d 58 4c c3 3d 46 96 ff bd
       0.02373804 0.101494454 0.09536046 -0.12479834
0003b0 73 00 27 3e a2 98 aa bd 5b 4d fa bd 85 ea d0 bb
       0.16308765 -0.08329894 -0.12221786 -0.006375613
0003c0 2d 4e a5 3d 71 4b 83 bd 91 8e be 3d 28 c3 0a bd
       0.080715515 -0.06410874 0.09304536 -0.03387752
0003d0 61 3d 8b be f7 91 bf 3c e1 75 50 3e e8 d7 64 3a
       -0.27195266 0.023385031 0.20357467 0.00087296823
0003e0 05 dd 07 be cc 57 33 3d 73 9c 2e bc 81 21 4b be
       -0.13267906 0.0437849 -0.010657418 -0.19837
0003f0 7b 4c e6 bd fc f7 08 be 61 fc 8d 3a 15 a3 97 3e
       -0.11245056 -0.13375849 0.0010832661 0.2961661

bn2.weight f4 [16]
000000 45 cf 87 3f da 33 7e 3f 1f f4 68 3f 7d bf 7f 3f
       1.0610129 0.9929787 0.909975 0.9990156
000010 4a fb a5 3f f8 54 75 3f 61 03 8b 3f 3f 03 b4 3f
       1.2967312 0.9583278 1.0860406 1.4063491
000020 13 91 7e 3f dd 6d 6d 3f da 86 a4 3f ef 12 a9 3f
       0.99440116 0.92745763 1.2853653 1.3208903
000030 2b 4c b5 3f 98 cf a3 3f 60 d0 86 3f d2 c0 92 3f
       1.416387 1.2797728 1.0532341 1.1465094

bn2.bias f4 [16]
000000 a9 5d dc be 1c 20 3a be 64 77 8c bd 69 4a 1d be
       -0.43040207 -0.18176311 -0.068587095 -0.15360416
000010 11 01 17 bf b0 10 e9 bd 10 76 ca be 2d 57 36 bf
       -0.58986 -0.11380136 -0.395432 -0.7122677
000020 66 81 2d be c5 4c 50 be 18 46 0b bf f1 68 2a bf
       -0.16943893 -0.20341785 -0.5440383 -0.6656638
000030 0a b1 1b bf 20 4a 01 bf de 3c 4a be ab cb c7 be
       -0.60817015 -0.5050373 -0.19749781 -0.39022574

bn2.running_mean f4 [16]
000000 07 8d d3 3a 8c 49 ec ba 37 cb 22 3c 07 08 27 3b
       0.0016140052 -0.001802729 0.0099361455 0.0025486962
000010 7f 8c 2c 3d 4b 18 84 3b b6 20 87 3c 55 9a 49 3a
       0.042126175 0.0040312163 0.01649509 0.0007690539
000020 2a 98 f3 39 e0 21 5f b9 a8 07 45 ba 7a 85 93 3a
       0.00046461943 -0.00021279557 -0.00075160945 0.0011254989
000030 7d 31 b5 3b 22 62 4e ba 16 9f 61 3b f5 56 05 3c
       0.005529581 -0.00078728993 0.0034427098 0.008138408

bn2.running_var f4 [16]
000000 00 ec 55 3c ef 65 3c 3b f6 7d 26 3d 80 95 a3 3b
       0.013056755 0.002874728 0.04064747 0.004992187
000010 10 63 ef 3d b3 8a 2d 3c f2 ce 6b 3d 96 a7 af 3b
       0.116888165 0.0105921505 0.057570405 0.005360554
000020 a7 13 fb 3c 45 13 9a 3b 7b 1f f9 3c 1e 82 f4 3c
       0.03064902 0.004702004 0.030410519 0.029847201
000030 b6 a3 eb 3b 5b e2 1f 3c 43 8b 16 3c 39 0e 3d 3c
       0.0071911467 0.009758557 0.009188476 0.0115390355

conv_sep.0.weight f4 [16, 1, 1, 16]
000000 1c 10 99 3e e4 fe a8 3b 50 a6 76 3d 3b 55 83 3c
       0.29895103 0.0051573385 0.0602172 0.016031852
000010 36 85 6a 3e 8a c7 15 bd 72 51 a8 3d 83 d7 ce 3c
       0.22902378 -0.03656725 0.082186595 0.025249248
000020 5c f7 52 bd eb 9d ed bd b8 60 49 3e d1 c7 71 3e
       -0.05150543 -0.11602386 0.19665802 0.2361138
000030 25 8d 29 3e 87 fb 10 3e bd 17 99 3d 49 57 70 3e
       0.16557749 0.1415845 0.07475231 0.23470797
000040 64 96 48 bd 66 28 0a 3e 99 d0 83 3d 90 b9 b2 3b
       -0.04897155 0.13491973 0.06436271 0.0054542497
000050 09 d8 57 bd d6 75 c8 3c 0a 77 59 be 29 72 fb 3c
       -0.05269626 0.024470251 -0.21236816 0.030694084
000060 cc 01 8c bd 37 ce 8c 3e a1 07 50 3e 1d 9b 4a 3d
       -0.0683628 0.2750108 0.2031541 0.049464334
000070 73 c6 73 3e 22 e4 83 3e de fc 37 3e dd 58 d9 3d
       0.23806171 0.2575999 0.17967555 0.106126525
000080 68 9f 16 be 10 b0 27 be c5 8c 30 be 6a 02 79 be
       -0.14709246 -0.16375756 -0.172412 -0.24317327
000090 a3 4f 70 bd f9 1f 51 3d 32 3e 86 3d 0a 9a d4 3d
       -0.058669697 0.051055882 0.065548316 0.10380943
0000a0 16 74 5e 3e 19 71 b8 bc 2f 69 ed 3d 61 cf 0d be
       0.21723971 -0.022514867 0.11592328 -0.1384864
0000b0 5a 7c fc bd 0d 9e c5 3d 4d 6a df bd eb 67 29 bc
       -0.12328406 0.096492864 -0.10908947 -0.010339717
0000c0 57 6d 5e 3e 40 07 38 3e 3c 83 87 bd 58 64 4c 3d
       0.21721397 0.17971516 -0.06616828 0.049900383
0000d0 e0 81 1a be 46 40 e8 bd d9 83 13 3d 89 af 39 be
       -0.15088606 -0.11340384 0.03601441 -0.18133368
0000e0 2a 1d 02 be a3 73 8f bd a0 bf 4c 3d 15 7c 93 3e
       -0.12706438 -0.07004478 0.049987435 0.28805605
0000f0 e3 b5 93 3e 8e 26 42 3e ab 75 e3 3d 95 bd b0 3c
       0.28849706 0.1896002 0.11106428 0.021574775
000100 8f 74 a1 be 14 4f 26 be 7a 44 85 bb 2d d2 b7 bd
       -0.3153424 -0.16241103 -0.004067001 -0.08975635
000110 9b 93 ab ba f3 af 3e 3d a6 db 56 3d 35 00 67 be
       -0.0013090255 0.046554517 0.052455567 -0.22558673
000120 d6 f9 0b be 2a 49 c7 bd 0e 5f 84 be 13 94 d8 bd
       -0.13669524 -0.09730752 -0.2585377 -0.10575118
000130 66 ad 66 bc 32 03 68 be 1d f7 25 be 94 19 cb bd
       -0.014079427 -0.22657469 -0.16207547 -0.09916988
000140 f2 cf 84 3e a7 27 15 3e b8 89 02 3e 3e d5 22 3d
       0.259399 0.14565907 0.12747848 0.039754145
000150 dc 0f 76 bd d2 2b 22 be af a5 1c 3d 9c 84 f5 3d
       -0.06007372 -0.15837029 0.038243946 0.11988184
000160 0a a0 85 bd 89 d8 45 be 4c 7c 35 be 88 cb 78 3c
       -0.06524666 -0.19320883 -0.17723197 0.015185244
000170 09 a8 97 3d 65 5f f3 bd ca 74 4e be fb 61 61 be
       0.07405097 -0.118834294 -0.20161739 -0.22010033
000180 82 dc 37 be ee a1 eb bd a0 89 83 be 79 d0 f6 3d
       -0.17955211 -0.11505495 -0.25690937 0.12051482
000190 84 65 a9 bc 48 f6 b8 bd 4c 0f 60 be 3e 8e 49 3c
       -0.02067829 -0.090313494 -0.21880835 0.01230198
0001a0 ac 37 fb bd 0d 57 c7 bd 5c 82 74 3d 64 65 6f be
       -0.12266478 -0.097334005 0.059694633 -0.23378521
0001b0 e5 cb 5c be fe f0 4c 3e a7 31 8c 3c c0 7b cf 3b
       -0.21562155 0.20013806 0.01711352 0.006331891
0001c0 2c 24 50 3e 55 ed 3f 3e f3 fa 9c 3e ab 88 65 3e
       0.20326298 0.18742879 0.3066021 0.22415416
0001d0 3a 72 50 3e 38 b8 5f 3c dd 80 da 3d cb 43 03 3e
       0.20356074 0.013654761 0.1066911 0.1281883
0001e0 d8 5d 04 3e 10 68 6c 3b 7d f8 f1 bd 68 84 b2 3d
       0.12926424 0.0036072768 -0.118149735 0.08716661
0001f0 2e cd e8 3d ce ca b0 3d 97 44 9b 3d 0d 31 ac bd
       0.1136726 0.08632432 0.07581442 -0.08407793
000200 cb 93 06 3e 99 d9 8b bd 3b 5e 1d be 72 dd 3b be
       0.13142316 -0.06828613 -0.15367977 -0.18346193
000210 7c 73 a2 3d 3b 5d 9e 3d 03 4f 01 be b1 c3 7f be
       0.07932183 0.07732626 -0.12627797 -0.24976994
000220 e6 73 21 be af cc 47 bd c9 56 e3 3d c9 60 8c 3b
       -0.15766868 -0.048779186 0.11100537 0.0042839986
000230 40 38 19 3d 8a 53 e8 3d 8b 1e 35 3e 6d f0 af 3d
       0.03740716 0.11344059 0.17687432 0.085907795
000240 61 fa cf 3d 8f 2e f3 3d bd 3a b7 3c 4d fa 05 bb
       0.10155178 0.11874115 0.022366876 -0.002044338
000250 69 69 69 3e d8 39 ea bd d4 25 83 3d 1b 66 9e 3d
       0.22794117 -0.11436814 0.064036995 0.07734319
000260 7d 73 f4 3d bb 0f 84 be c7 89 7c be c7 55 12 be
       0.1193609 -0.2579325 -0.24661933 -0.14290534
000270 eb 2f 38 be fe d2 44 be d0 55 e1 3d e0 74 6d 3e
       -0.17987029 -0.19221112 0.110026956 0.23189116
000280 b8 a1 df ba 55 71 da bd 3e 85 1b be 96 b8 0e be
       -0.0017061746 -0.106661476 -0.15187547 -0.13937601
000290 de 62 e7 bd e4 57 da bd 70 fa 34 be cb e0 2f 3d
       -0.11298154 -0.10661295 -0.1767366 0.04293899
0002a0 b0 bd cb bd 4e 75 8c bd b8 02 33 be 9e 28 3a be
       -0.099482894 -0.068583116 -0.17481506 -0.18179557
0002b0 d3 5e 36 3d 82 b2 ed bd 94 65 24 bd cd 93 42 bb
       0.044524025 -0.11606313 -0.040135935 -0.0029690147
0002c0 9d 0f a1 bd 66 1b 61 bd 34 8c 92 be ae 7f 10 be
       -0.07864306 -0.05495777 -0.28622591 -0.14111206
0002d0 cc 1c 9a bd cb fd 60 3d b4 80 54 be 24 d1 33 be
       -0.07525024 0.054929536 -0.20752221 -0.1756025
0002e0 9a e6 36 be f8 fa 96 be 50 78 2c bd 60 6e a8 3d
       -0.17861405 -0.2948835 -0.042106926 0.08224177
0002f0 de a7 78 be 3a 90 5f be b3 c4 a1 be e2 90 f4 bd
       -0.24282786 -0.21832362 -0.31595382 -0.11941697
000300 8f 82 6e bd c3 52 13 be 9a 9d 1b bd c6 50 19 be
       -0.05822998 -0.1438704 -0.037992097 -0.14972219
000310 4e ca 05 be e5 9b 84 be 2a 9c 4b bd 0b 9a 76 bd
       -0.13065454 -0.25900188 -0.049709477 -0.0602055
000320 be fc 61 be 7e cd 54 bd 0c f5 18 be 1b 5a 21 be
       -0.2206907 -0.051953785 -0.14937228 -0.15757029
000330 a3 73 b6 bd f5 f9 65 be 68 8a 0c be 79 8d f3 bd
       -0.08908775 -0.22458632 -0.13724673 -0.11892218
000340 7d 6a f4 38 d1 3b 21 3e 32 ff 54 3c e3 8e 73 3e
       0.00011654662 0.15745474 0.013000296 0.23784976
000350 15 c2 39 3e d8 15 58 3e 16 af 18 3e 1b dc af 3d
       0.18140443 0.21102083 0.1491054 0.08586904
000360 a3 00 b2 3d 25 a7 e7 3d 16 0f e5 3c e6 3f 45 3d
       0.08691528 0.11311177 0.027961295 0.04815664
000370 c7 12 dd 3c 92 0e 08 3e 54 28 21 3e 0e a2 e4 3d
       0.026986493 0.13286808 0.1573804 0.11163722
000380 16 56 d8 3c 97 00 be bd e6 87 2b be f1 af 27 be
       0.026408236 -0.09277456 -0.1675106 -0.1637571
000390 03 76 53 be d2 38 2b be 2f d8 f5 bd 07 4a 6a 3d
       -0.20650487 -0.16720894 -0.120041244 0.057199504
0003a0 2b 9f f3 3d 86 dc 00 3e 0d b3 82 3d 51 ea 41 3d
       0.11895593 0.12584123 0.063818075 0.047342602
0003b0 b3 d8 ce ba eb ff 88 3d 01 d7 0e be a8 3f 14 be
       -0.0015781134 0.066894375 -0.13949205 -0.14477408
0003c0 51 da 39 bd b6 7c 4f bb 36 36 e7 3c 19 6c 57 3d
       -0.04537422 -0.0031660027 0.028224092 0.052593324
0003d0 8c dd 27 3d 76 04 e1 bd 2d d7 df 3d 1d 82 40 3d
       0.040982768 -0.10987179 0.109297134 0.046999086
0003e0 c6 58 67 bc 36 5d 84 3e e1 33 83 3e 82 a0 9d 3d
       -0.014120286 0.25852364 0.25625518 0.0769663
0003f0 a8 ef 69 3e 61 7e ff 3d bd 98 1b 3e dc 01 ec 3d
       0.22845328 0.12475277 0.15194984 0.11523792

conv_sep.1.weight f4 [16, 16, 1, 1]
000000 75 da 51 be 5c 3a 66 3e 49 fc 42 3d 60 2b 57 3e
       -0.20493491 0.224832 0.04760388 0.2101264
000010 7e cd 8f 3d 3e 89 88 bc 10 6f 86 3d 45 12 00 bd
       0.070216164 -0.016667005 0.06564152 -0.031267423
000020 af a8 a6 3d cc 98 a8 3d 60 8f bf 3d 5b 4c cc 3d
       0.081376426 0.08232269 0.093535185 0.09975501
000030 86 12 3b be fd 8d 24 3e 68 4c 29 3e e3 6a bc 3c
       -0.18268785 0.16069789 0.16533053 0.023000186
000040 08 00 25 3e 2e 43 42 3d 3d f2 ed 3b 78 7b 6c be
       0.16113293 0.04742735 0.007261543 -0.23093975
000050 e2 8b 6c 3d 26 ed a6 be da 86 85 3e 93 bd d9 3e
       0.05775059 -0.32602805 0.26079446 0.42527446
000060 a6 1f bc 3c f5 34 04 be 6a 14 3d be 4f 4e 87 bd
       0.02296431 -0.12910827 -0.18464819 -0.06606733
000070 d6 6b 9c bd 53 78 87 3d 4e 20 67 be 64 ae cc bd
       -0.076377556 0.06614747 -0.22570917 -0.099942
000080 59 74 82 bd bd fa f9 bb f7 46 fe bd 99 fd 9b bd
       -0.06369848 -0.0076287673 -0.12415879 -0.07616729
000090 47 3f 88 3d b6 ab 45 bd 18 af 17 3d b3 23 03 3c
       0.06652694 -0.04825946 0.037032217 0.008004117
0000a0 ae 52 74 bd 6a 7f 81 3d 7a 43 8e be 9e 24 55 3c
       -0.059649162 0.063231304 -0.27785856 0.0130092185
0000b0 d1 a9 94 3d 81 96 97 bd cf 05 a4 be 62 fb 99 bd
       0.072589524 -0.07401753 -0.32035682 -0.075186506
0000c0 84 47 74 3c be 17 0c be f6 5b 29 3d 54 67 80 3c
       0.014909629 -0.13680932 0.041347466 0.01567427
0000d0 8b 74 2d be 99 16 62 3e 5e 55 90 be af 0c 60 3e
       -0.16938989 0.22078933 -0.2819013 0.21879838
0000e0 f9 28 17 3e f9 f3 1a be 86 db e3 3d af 0a 25 3c
       0.14761724 -0.1513213 0.11125855 0.010073348
0000f0 aa a6 5d bd 0b 73 73 3e 3f 28 a9 3d d1 c3 2f bd
       -0.05411402 0.23774354 0.082596295 -0.042911354
000100 0b 3b be bd 7a 28 de bd 60 b2 29 be 62 2c 8d 3c
       -0.09288605 -0.10847564 -0.16571951 0.017233077
000110 c5 80 65 3e a7 fe 6b be 99 0d 19 3e c9 c0 a3 3d
       0.22412403 -0.23046361 0.14946593 0.07995755
000120 0a 2a 72 3e c6 33 12 3e 48 a7 f1 bc 24 ba ef 3d
       0.23648849 0.14277562 -0.029498711 0.117054254
000130 25 82 8f be 74 f7 be bd 1a c8 ed bd 9c 41 ac be
       -0.2802898 -0.09324542 -0.11610432 -0.33643806
000140 48 06 72 be 15 22 76 be 3d 72 0e be ca 60 83 3e
       -0.23635209 -0.24036439 -0.13910766 0.25659782
000150 25 43 5f be a5 96 a1 3d 11 17 f6 bc f0 05 3d 3e
       -0.21802957 0.07890061 -0.030040296 0.18459296
000160 5f 37 02 bd ce 53 c9 3d c3 5a 25 be 21 d3 1a be
       -0.031791087 0.098304376 -0.16147904 -0.15119602
000170 9a 9c 4c be a8 4d 60 bc 44 b3 44 3e ef 56 80 be
       -0.19981614 -0.01369039 0.1920901 -0.25066325
000180 68 47 4e bd 29 51 e4 bd a7 58 65 be fd d2 71 bd
       -0.050361067 -0.111482926 -0.223971 -0.059039105
000190 8f 8a 1a 3e fd 4b 4d be be fc 6a be 6d 37 8b 3d
       0.15091918 -0.20048518 -0.22947976 0.06797681
0001a0 73 51 17 3d 7a 9c 24 3c a6 33 5a be 04 b0 22 be
       0.03694291 0.010047073 -0.21308765 -0.15887457
0001b0 c9 de 48 3e 8c 79 28 be 0d 70 37 3e af 42 87 3e
       0.19616236 -0.16452616 0.17913838 0.26418063
0001c0 d0 59 22 3e 74 6b ca bd b2 92 37 3d dd 41 f2 3d
       0.15854573 -0.09883776 0.044817634 0.11828969
0001d0 ec b0 a1 bb c8 e8 80 3e 67 c4 c9 bd d6 bc 3a be
       -0.004934421 0.25177598 -0.09851914 -0.18236098
0001e0 e9 65 5b bd 05 c1 fb 3d 5d be 89 3d bf c5 00 be
       -0.053563986 0.12292675 0.06725762 -0.12575434
0001f0 f6 21 0b bd bf 14 f9 bc 54 ba c6 bd 56 dd 95 3c
       -0.033967935 -0.0304054 -0.09703508 0.018294018
000200 3e e6 f3 3d 9c ce d3 3d 12 7d 70 3e d4 78 10 be
       0.119091496 0.10342142 0.2348521 -0.14108592
000210 e7 ab 31 be c0 76 e3 3d 55 11 56 3d 97 fb 8b 3d
       -0.17350732 0.11106634 0.052262623 0.06835096
000220 dd f1 aa 3c 6c 9c 3c 3e a2 e8 6b bb c4 db a3 bd
       0.020867283 0.18419045 -0.0035996814 -0.08000901
000230 0f 0d 94 3b f7 90 4f 3e 32 2f 08 3e c6 d3 2b be
       0.0045181583 0.20270143 0.13299254 -0.16780004
000240 74 6b 65 3c 0b 18 6f 3d 4a 91 52 3e 58 38 76 bd
       0.01400267 0.05837254 0.20563236 -0.060112327
000250 d1 00 c1 3c 67 32 50 3e 2c c9 df bc 6c f8 88 3e
       0.02355996 0.20331727 -0.027317606 0.2675203
000260 35 95 ad bd 37 72 26 3d 74 2f 3c be 6f c4 91 be
       -0.084757246 0.040636268 -0.18377477 -0.2847018
000270 16 76 f9 bb e7 15 4e 3e 88 7f b0 3d c1 7e 93 bc
       -0.007612954 0.20125543 0.08618075 -0.018004777
000280 c9 8a 83 3e 3d 57 77 3e ca df 2e be 42 37 af 3d
       0.25691822 0.24154373 -0.17077556 0.085554615
000290 51 c4 8e 3b 24 44 e8 bc a1 b6 13 3e 9f 69 1f be
       0.004356899 -0.028352804 0.14425136 -0.15567635
0002a0 11 6a 58 be af 92 2c 3e 9c 51 58 bd 87 4c 73 3c
       -0.21134211 0.1685283 -0.052812204 0.0148497885
0002b0 d8 6d 93 bd 58 af c5 bd d8 76 14 3e e4 00 8a bd
       -0.071986854 -0.09652585 0.1449846 -0.06738451
0002c0 fc b4 27 bd e5 4e 68 be 3e 59 2b be 1c 1a 64 be
       -0.040944085 -0.22686346 -0.16733262 -0.22275585
0002d0 a2 98 ed 3d 9f cf 6c 3d 1a 7f 3b be 6b 18 0f be
       0.11601378 0.05781519 -0.18310204 -0.13974158
0002e0 17 f9 3c be d5 fa 96 bd 14 b8 c7 3d f6 eb 27 ba
       -0.18454395 -0.07372061 0.09751907 -0.00064057054
0002f0 40 87 49 be aa 24 92 3e 74 9f 33 be eb 14 03 3c
       -0.196805 0.28543597 -0.17541295 0.008000593
000300 58 5c eb 3c 01 71 91 be 50 0f 87 bd 83 41 e3 3d
       0.028730556 -0.28406528 -0.065947175 0.1109648
000310 17 33 4c be ab 80 86 be e1 39 54 be 14 7b a0 3d
       -0.19941364 -0.2627004 -0.20725204 0.07835975
000320 fb c7 3a be f9 1d b9 3d 04 54 41 be e2 45 a6 3d
       -0.18240349 0.0903892 -0.18879706 0.08118798
000330 fe 1d 19 3d ed 1b b1 3d 1a 92 f8 3d bd 2f 0f 3e
       0.03738212 0.086479045 0.12137242 0.13983054
000340 fc a2 ee 3c 13 e2 18 be 6d c4 08 bd 20 cc 40 3e
       0.029130451 -0.1492999 -0.03339045 0.18827868
000350 5e ba 58 3d 14 e2 ee 3d b2 95 46 bc 07 33 0d bd
       0.05291211 0.11664215 -0.012120651 -0.03447249
000360 f2 23 0f be f8 01 9f bd 8f ce 0f bd 55 77 81 3d
       -0.13978556 -0.077640474 -0.0351091 0.06321589
000370 38 61 96 3d 76 37 e3 3d 91 b6 b1 bd 3c 87 a3 bd
       0.07342762 0.11094563 -0.086774 -0.07984778
000380 68 e3 82 3d f7 65 24 3e dd 0a a0 3d 8e ca f4 3d
       0.063910306 0.16054522 0.07814572 0.11952697
000390 e6 97 d8 3d 5c b9 b2 bd d9 81 43 39 4f 8b 79 3d
       0.10575847 -0.08726761 0.00018645021 0.06092387
0003a0 fb f0 04 be 87 ec 46 3e 04 33 49 be 28 85 81 be
       -0.12982552 0.19426166 -0.19648367 -0.25296903
0003b0 68 3a 91 3e 4d fd 2c be e6 d8 02 3e 76 c0 bb bd
       0.28364873 -0.16893502 0.12778053 -0.091675684
0003c0 60 aa 66 3e 68 4a 6a 3e 54 b3 33 3e 0e c7 09 3e
       0.2252593 0.22879946 0.17548877 0.1345484
0003d0 fd 32 26 3d 09 3e e5 3c 2d 8c d0 3d 6d 82 5c be
       0.04057597 0.027983682 0.101829864 -0.21534128
0003e0 5d aa 86 3d 5b 30 df 3d 30 99 84 bd 24 37 fd 3d
       0.06575463 0.10897895 -0.06474531 0.12364033
0003f0 4b cc 87 be 47 f5 17 3e 40 2a 7e be 72 a2 21 be
       -0.2652305 0.1483966 -0.24820805 -0.15784624

bn3.weight f4 [16]
000000 d7 ba ba 3f f7 84 af 3f b0 58 c0 3f 6b cf a7 3f
       1.4588269 1.3712453 1.5027065 1.3110174
000010 c9 cb c7 3f 01 57 b1 3f c6 9b b4 3f 1b 05 b4 3f
       1.5609065 1.3854676 1.4110038 1.4064058
000020 de f8 b0 3f 46 93 a3 3f bc 32 ba 3f a5 fc b5 3f
       1.3825948 1.2779319 1.4546733 1.4217726
000030 98 7d b1 3f 0c 20 ba 3f ab b5 c6 3f 1a eb b1 3f
       1.3866453 1.454103 1.5524191 1.3899872

bn3.bias f4 [16]
000000 7e 29 8d bc 3c f0 43 3c 7b 91 24 bd 53 fc 25 3d
       -0.0172317 0.011959132 -0.040177803 0.04052384
000010 c5 ef c7 3a f6 a6 84 3d 5b 39 3b 3d 08 84 98 bd
       0.0015253952 0.06477158 0.045708995 -0.07447058
000020 8c 28 d0 3d 74 4b cf 3d 4e 32 eb bd d8 1c 7f ba
       0.10163984 0.101218134 -0.11484204 -0.0009731776
000030 e0 f2 cd 3d 18 41 2d 3c b2 ca 98 3c 1d 9f ae bd
       0.1005609 0.010574602 0.01865134 -0.08526442

bn3.running_mean f4 [16]
000000 d0 46 7b 3d 65 cc 50 be 4c 21 13 3d 65 17 42 be
       0.06134683 -0.2039047 0.035920426 -0.18954237
000010 a8 1f d2 3d bd f4 45 be b9 bf 2b bd cf f6 17 bd
       0.10259944 -0.19331641 -0.041930888 -0.03710061
000020 1c 2d 23 be b6 68 99 be 44 9f 04 3d b8 0b f9 bc
       -0.15935177 -0.299627 0.03237845 -0.030401096
000030 4d 43 f3 bd c9 e3 46 3d 2b 70 ff bc 7e 9f 0f 3c
       -0.11878071 0.048557077 -0.031181416 0.008766053

bn3.running_var f4 [16]
000000 df 21 08 3e 86 43 62 3e a7 64 be 3d c3 ad cb 3d
       0.13294171 0.2209607 0.09296542 0.09945252
000010 f4 d3 28 3e b9 b7 45 3e fa b5 0e 3e 78 09 95 3d
       0.16487104 0.19308366 0.13936606 0.07277197
000020 74 c1 dc 3d ef ce 3f 3e 41 df 04 3e 43 88 33 3e
       0.10779086 0.18731283 0.1297579 0.17532448
000030 f0 ff e0 3d 7e 32 82 3d 00 f7 14 3e 6f 04 2b 3e
       0.10986316 0.06357287 0.14547348 0.1670091

eca.conv1d.weight f4 [1, 1, 5]
000000 b2 d0 b7 3e d8 48 ed 3d 4c 02 b7 3d 84 95 0a bf
       0.3590141 0.115861595 0.08935985 -0.5413439
000010 46 a7 4d 3f
       0.80333364

classifier.weight f4 [4, 560]
000000 40 89 d7 3d 44 41 0f 3c 28 23 1d bd 5f 92 3e 3d
       0.10524225 0.008743588 -0.038363606 0.04652631
000010 33 7d 10 be 90 9e 08 be 65 56 cd 3d 4c 43 ab bd
       -0.1411026 -0.13341737 0.10026244 -0.08362445
000020 e4 b9 e5 ba 7b e8 b0 3c dc 8a 96 bd 68 92 85 3c
       -0.0017526713 0.02159523 -0.07350704 0.016305164
000030 0e 56 4a 3c bc 2c f5 bd 8d 5a c8 3d 81 9a d4 3b
       0.012349619 -0.11971423 0.09782896 0.006488145
000040 cb aa 39 bd 54 48 27 bd 09 16 9a 3d 58 ce cf 3d
       -0.045328896 -0.04084046 0.07523734 0.10146779
000050 74 ce 91 bd f8 7b 8f 3d 2f bf ff 3c 5b 33 69 3d
       -0.07119456 0.07006067 0.031219093 0.056933742
000060 7e e8 8e bd d0 4e ef 3c 87 1c e2 bd ec 55 a0 bd
       -0.06977938 0.029212385 -0.110405974 -0.07828888
000070 72 26 c6 bc 74 ee 90 bd a5 34 23 bc b9 c6 d7 3c
       -0.024188254 -0.07076731 -0.009961282 0.026339876
000080 4c 66 9a 3d 3e 94 f0 bc c2 15 53 3c d9 70 7a bd
       0.07539043 -0.029367562 0.012883605 -0.061142776
000090 bb 29 6d bc 1f 5d 89 3d a8 c8 09 3d 86 ae 02 bd
       -0.014475281 0.067072146 0.033638626 -0.03190472
0000a0 89 81 7e 3e 42 7b 6d be 44 9f 7a 3d 77 86 47 3e
       0.24854101 -0.2319155 0.061187044 0.19484888
0000b0 b7 7c c9 3d 80 86 d8 3d 17 b6 85 3d b0 a2 9d bc
       0.098382406 0.10572529 0.065288715 -0.019242615
0000c0 a5 34 51 3c 6e db a2 3d 9b 77 d3 bc a2 87 69 3d
       0.012768899 0.07952009 -0.025813868 0.057014115
0000d0 5e 9a e7 3c c3 06 6b 3b 47 7a a4 3c b3 4c d0 3d
       0.02827185 0.0035862185 0.020077838 0.10170879
0000e0 02 49 04 3d 05 b9 3a 3d 7c 44 fc 3c 62 dd a8 3d
       0.03229619 0.045586605 0.030794375 0.082453504
0000f0 e4 85 ea 3c 91 5f db bc a1 78 1a bd 35 cb 83 3b
       0.028628297 -0.026778968 -0.037712697 0.004022027
000100 35 36 f8 3b 78 b8 2a 3b 80 42 de bc d4 e7 c0 bd
       0.0075748214 0.0026049893 -0.027131319 -0.09419218
000110 d9 31 5d 3d 16 85 df bb 7b 49 1a be 88 8d db bd
       0.054002617 -0.006821285 -0.15067093 -0.10720354
000120 b7 a6 26 3b 26 60 0d bd b3 96 90 bc e6 7c 4c 3e
       0.002542896 -0.034515522 -0.017649984 0.1996952
000130 e0 06 a7 be 53 1a d7 bc 9a a4 2b 3e 79 51 a7 3d
       -0.32622433 -0.02625767 0.1676201 0.081698366
000140 4f bb ec 3d 0b f0 8c bd 7e 95 23 3e 7c e6 c8 3c
       0.11559164 -0.06881722 0.15974995 0.024523966
000150 38 b0 68 bd 77 fd 08 3e 35 19 40 bc 6a f3 81 3d
       -0.05680868 0.13377939 -0.01172476 0.06345256
000160 d9 16 4a bd 75 fa 36 be 68 71 68 bb f7 2e 9f bc
       -0.049338195 -0.1786898 -0.0035467986 -0.019431574
000170 4d 0f 08 3c 83 b0 e3 bb d7 60 c0 bd 94 bc 63 bb
       0.008304429 -0.006948532 -0.09393471 -0.0034749852
000180 13 e3 ac bd 08 17 15 be f6 ad 5e bb 98 5e 14 bd
       -0.084417485 -0.14559567 -0.00339782 -0.036223024
000190 de ad bf bb 9a 33 d4 bc 2b 22 2a be 0a 91 c2 b8
       -0.005849584 -0.025903512 -0.16614597 -9.2776565e-05
0001a0 c1 56 f2 bd f2 0f c4 bd 2d a8 8c 3d 33 ab 58 bd
       -0.11832953 -0.09573354 0.068680145 -0.052897643
0001b0 5c a6 91 bc 96 41 72 3d 36 f8 ed bd 06 17 38 3c
       -0.017779522 0.05914458 -0.11619608 0.011235958
0001c0 36 46 06 3e d1 67 9d bd 37 00 2a 3e 9c 5f 6b bd
       0.13112721 -0.07685817 0.16601644 -0.057464227
0001d0 fc 31 c8 bc 7e da b0 bd e9 ae c3 3c 07 0b 2b 3c
       -0.024437897 -0.08635424 0.023887115 0.010439641
0001e0 95 d6 9f bd 2b 38 18 3d 66 26 8d bc 01 e1 11 b9
       -0.078046 0.03716294 -0.017230224 -0.00013912098
0001f0 aa 2c cf 3c 45 4a a8 bd ce c2 d9 bd 21 87 59 3c
       0.025289852 -0.08217291 -0.10632859 0.013276846
000200 88 5b 0f bd 02 b0 79 3d b1 f4 0f bd 83 12 52 bd
       -0.0349994 0.06095887 -0.035145465 -0.051287185
000210 f9 d1 7b bd c6 b6 4b bd 3d 18 1d bd b0 ef 8a 3d
       -0.061479542 -0.049734853 -0.038353194 0.06783998
000220 9c 98 22 bd ed ea 9d bc 44 51 d8 bc 70 f5 d9 bc
       -0.03969632 -0.01927706 -0.026405938 -0.026606292
000230 78 b4 f0 3c 78 73 90 bd 7d db 10 be 8b d8 61 3d
       0.02938293 -0.07053274 -0.14146228 0.055138152
000240 38 7f a2 bd 11 c8 b3 3d 66 a4 c8 bd f5 9c b8 bd
       -0.07934421 0.08778394 -0.097969815 -0.09014312
000250 b7 22 3f 3e 81 df 3c 3d 55 9f 87 3a 5c 73 63 bc
       0.18665586 0.046111587 0.0010347167 -0.013882484
000260 e0 a9 90 3d 3c 5e 20 bd 3c 52 0f bd b0 49 19 3e
       0.07063651 -0.03915237 -0.034990534 0.14969516
000270 1c 09 9b 3c e5 33 79 3d 11 e1 65 3c da 40 45 bb
       0.018925242 0.060840506 0.014030711 -0.003009847
000280 64 55 ea 3c 32 69 60 3d 23 62 ae 3c b1 b4 02 3d
       0.02860517 0.054787822 0.02128703 0.031910602
000290 82 f4 ff 3c a6 7f 1d 3e 48 ed 7a bd fe 16 77 3c
       0.03124452 0.15380725 -0.061261445 0.015081165
0002a0 4e 4b 0f 3e 42 8f 09 3d c4 51 2a 3d 6c 4a 1f bc
       0.1399357 0.033583887 0.041581884 -0.009722333
0002b0 af 2a e4 bc 71 7d 07 3c 81 ee 96 3d ef d7 14 3e
       -0.027852384 0.008269654 0.0736971 0.14535497
0002c0 d7 d0 83 bc 91 37 c3 bd 90 dd 15 bd 8a 3a 7c 3d
       -0.016090794 -0.09532083 -0.03658825 0.061579265
0002d0 f4 54 2f be 9d 4c f4 3d 4c 89 5a bd e5 8f 89 3d
       -0.17122251 0.11928675 -0.053353593 0.06716899
0002e0 30 a3 a8 3d 63 de 27 bd 96 09 dd 3c f1 e3 a6 3d
       0.082342505 -0.04098357 0.02698211 0.08148945
0002f0 48 db e0 bc ba 01 18 bc ab 94 01 3e 76 1d 3e 3d
       -0.027448311 -0.009277755 0.12654369 0.046414815
000300 76 8c 6f 3d 58 b6 9d 3c 0d c6 f8 3d b7 ca 96 3c
       0.058483563 0.019251987 0.1214715 0.018407209
000310 0d 7e 3b bd 07 da 83 3d c1 e5 85 bc 22 99 90 3c
       -0.04577451 0.0643807 -0.016344907 0.017651144
000320 8a 49 8d bc 30 98 b7 bd a0 62 01 bd a3 b2 39 3d
       -0.01724698 -0.08964574 -0.031588197 0.045336377
000330 d6 36 01 3e 40 b3 7c 3d 66 2d 07 3d 94 12 a1 3d
       0.12618575 0.061694384 0.03300228 0.078648716
000340 5e cd 07 bd 5d 6e a9 3d 6d 0c 73 3d db 2a be bd
       -0.033154838 0.08273003 0.059338022 -0.09285518
000350 41 a1 cd 3d 2e c0 b5 bd e4 e7 69 3c 9b 59 b7 bd
       0.10040522 -0.08874546 0.014276478 -0.08952638
000360 bf 66 09 3e 94 c0 84 be e3 43 a4 3d 3a 20 03 bd
       0.13418101 -0.25928175 0.08020761 -0.032013156
000370 25 d7 8e bd a9 2b 12 3e e2 e3 33 bd 3d c6 a5 3c
       -0.06974629 0.14274468 -0.043918498 0.020236129
000380 4b 80 3b bc 7b d3 d2 3d e9 40 ce 3c c1 9b 61 3c
       -0.011444162 0.10294243 0.025177436 0.013770045
000390 de 7c 84 3d 67 d3 2c ba 3b 44 d8 3c 16 70 c9 bb
       0.06469129 -0.00065927807 0.026399722 -0.006147395
0003a0 2f a5 33 bd 24 3f ab 3c 6d 55 b5 ba ea ee f5 bd
       -0.043858703 0.020904131 -0.0013834663 -0.1200846
0003b0 b6 5d e6 bb bd 9a b6 bc 18 34 06 3c 79 01 7f bc
       -0.007030214 -0.022290582 0.008191131 -0.015564316
0003c0 9d a2 89 bc 8b 70 01 bd 92 0a b7 3b 0a a9 64 3d
       -0.016801173 -0.03160147 0.005585977 0.05582527
0003d0 48 9e 65 bd 8f d1 56 bd 56 40 b8 3d 71 bb 5e 3d
       -0.056059152 -0.052445944 0.08996646 0.054377977
0003e0 da 8d 94 bd ff b4 60 3e 19 90 5f be 22 cb 9c 3d
       -0.072536185 0.21944045 -0.21832313 0.07655932
0003f0 54 53 3c 3e d0 42 14 be 4a bc aa 3a 66 6d a7 bd
       0.18391162 -0.14478612 0.0013026085 -0.08175163

classifier.bias f4 [4]
000000 7d f9 0f 3d 64 82 5a bd 13 fc bf bd e4 fc 9c 3c
       0.03515004 -0.053347006 -0.09374251 0.019163556
