result_eegnetv4_cv5/fold_0/best_model_fold0.pth (torch, 22648 bytes, 18 tensors)

conv_temporal.weight f4 [8, 1, 1, 64]
0.14787352 0.067187995 0.06409098 -0.017605685 -0.08039936 -0.10785884 -0.10817805 0.035801165
0.02896873 -0.10647042 -0.003866686 -0.057833333 0.0693698 -0.03789432 0.088598765 0.093396954
0.09121242 0.09942952 0.04362456 0.02829858 -0.09451041 -0.027602984 -0.0020983058 0.060599156
-0.050310194 -0.010784787 -0.021658972 -0.051311675 -0.019782025 -0.046676327 0.049049627 -0.009716074
0.10439629 -0.009276152 -0.038217917 -0.12153245 0.07274866 0.0027766079 0.127669 0.02139818
0.016417379 0.07285526 -0.015389237 0.049781565 0.009135948 -0.034009486 0.06943647 0.0734632
-0.09208458 -0.11849926 -0.009149856 -0.120665945 -0.00882224 -0.008880206 0.07382046 0.02393986
0.07712049 0.026819324 0.004156225 -0.0011460888 0.068464026 0.093314186 -0.013218038 -0.06757221
0.08009232 0.10360418 0.02406661 -0.03601976 0.0659293 0.06425672 -0.055587504 -0.07910136
0.0143399695 0.10622552 -0.05737803 0.0036149677 0.027565856 -0.030638983 -0.016933369 0.10943407
0.106760666 -0.030561773 0.05435138 -0.021808865 0.0936583 -0.023448333 -0.017065862 -0.019543145
0.036845878 0.08765333 -0.016502729 0.047219172 0.11271794 0.030847553 0.040932976 0.019817118
-0.02069747 0.0031654667 -0.031994756 -0.1441365 0.024090441 0.040560354 0.03895087 0.20016675
0.14139813 0.16958979 -0.031366393 0.08487059 0.056411903 -0.11492739 -0.11176529 -0.020823637
-0.026040163 0.06707918 0.08375441 0.02696267 0.10598876 0.03644808 -0.0004648091 -0.06010809
0.049915712 -0.077234246 0.010995497 0.024948688 -0.037572615 0.064565174 0.086214185 0.16476178
0.071936205 -0.023129381 0.0010833639 0.032364223 -0.019583654 0.06795323 -0.027542613 -0.02625931
0.09641864 0.1458647 0.07124457 0.003536893 0.10118655 0.1116649 0.11114256 0.036311883
0.11724976 0.002205497 0.21978761 0.07609998 0.05802808 0.16415523 0.04441248 0.111425474
-0.021034516 0.1195757 0.12758099 0.04782707 0.08011821 -0.079174764 -0.035782464 0.016465265
0.046623293 -0.054429278 0.067514956 -0.021345617 -0.04148411 0.021796439 -0.09162915 -0.124024756
-0.020225639 -0.030010518 -0.026105398 -0.06606705 -0.10755171 -0.10113899 0.06841596 -0.13126338
-0.04679452 -0.019386346 -0.02266655 -0.12936999 -0.049828373 -0.047364637 0.117786124 -0.03845341
-0.061656244 -0.06782564 0.055329345 0.03274379 0.044157296 0.0770443 -0.006505653 0.03577392
0.0023385328 0.08750944 0.093312494 0.08363561 -0.000308366 0.090489686 0.027053362 0.052594222
0.05061269 0.0699663 -0.015521068 0.15570882 0.022795616 0.07586247 0.08713806 0.036802698
0.054429468 0.03691498 0.059644043 0.021717886 0.079995304 -0.0066404245 -0.0013886476 0.10397956
0.07552403 0.025753994 -0.08158437 0.004111289 0.013962339 -0.07076348 -0.037500937 -0.0120430915
-0.14853008 -0.06945792 -0.09765186 -0.11948763 -0.010522982 0.03445636 -0.035750583 0.014426126
-0.12442382 -0.04720393 -0.08366222 -0.13140509 -0.04618134 -0.03141224 -0.06930829 -0.029605405
-0.03007547 0.012767178 -0.059384573 -0.04023829 -0.018524135 0.019762732 -0.04385422 0.007403001
-0.07032126 -0.064704135 -0.0884765 0.054212417 -0.09675274 -0.08158956 -0.10377326 -0.06797203
00000000: 286c 173e dc99 893d 2242 833d cc39 90bc
00000010: 6ba8 a4bd 18e5 dcbd 748c ddbd 3ea4 123d
00000020: d44f ed3c 2a0d dabd 3a68 7dbb a5e2 6cbd
00000030: c111 8e3d 1337 1bbd 4573 b53d e746 bf3d
00000040: 94cd ba3d b4a1 cb3d abaf 323d 6cd2 e73c
00000050: ad8e c1bd a71f e2bc bb83 09bb d236 783d
00000060: 1012 4ebd adb2 30bc 286e b1bc 312c 52bd
00000070: ea0d a2bc ad2f 3fbd 43e8 483d 2b30 1fbc
00000080: b9cd d53d 00fb 17bc 648a 1cbd 01e6 f8bd
00000090: 40fd 943d c0f7 353b aabb 023e 3c4b af3c
000000a0: bd7d 863c 2335 953d 2323 7cbc c1e7 4b3d
000000b0: f1ae 153c 884d 0bbd b534 8e3d e073 963d
000000c0: d796 bcbd bdaf f2bd 47e9 15bc b51f f7bd
000000d0: 288b 10bc 497e 11bc 2e2f 973d 861d c43c
000000e0: 59f1 9d3d 33b4 db3c f130 883b 5c38 96ba
000000f0: de36 8c3d 821b bf3d 7890 58bc 4d63 8abd
00000100: 7107 a43d 6e2e d43d 5727 c53c 7589 13bd
00000110: f105 873d 0799 833d b9af 63bd e5ff a1bd
00000120: 31f2 6a3c c48c d93d 3a05 6bbd 18e9 6c3b
00000130: cad1 e13c 9bfe fabc d9b7 8abc f81e e03d
00000140: 56a5 da3d af5c fabc 8d9f 5e3d 81a8 b2bc
00000150: eccf bf3d b816 c0bc b5cd 8bbc f218 a0bc
00000160: b4eb 163d 9783 b33d bb30 87bc e468 413d
00000170: aad8 e63d 02b4 fc3c 56a9 273d 8257 a23c
00000180: be8d a9bc b873 4f3b ef0c 03bd 8598 13be
00000190: 5159 c53c 9d22 263d f38a 1f3d 83f8 4c3e
000001a0: acca 103e f2a8 2d3e 0c7a 00bd a2d0 ad3d
000001b0: 2b10 673d 0d5f ebbd 33e5 e4bd 5596 aabc
000001c0: 2e52 d5bc cf60 893d 6f87 ab3d d1e0 dc3c
000001d0: a310 d93d 954a 153d 9fb1 f3b9 e733 76bd
000001e0: 6b74 4c3d fd2c 9ebd 7526 343c 3161 cc3c
000001f0: bee5 19bd bf3a 843d 1091 b03d 50b7 283e
00000200: 4a53 933d d479 bdbc a9ff 8d3a 5990 043d
00000210: e66d a0bc 102b 8b3d 0ca1 e1bc c41d d7bc
00000220: 2377 c53d 8e5d 153e ace8 913d 38cb 673b
00000230: e53a cf3d 91b0 e43d b69e e33d c5bb 143d
00000240: a420 f03d 198a 103b 0110 613e 4eda 9b3d
00000250: daae 6d3d 4f18 283e dce9 353d 0a33 e43d
00000260: 9450 acbc 1be4 f43d 97a4 023e 51e6 433d
00000270: 0415 a43d 6126 a2bd a290 12bd 2ae2 863c
00000280: 11f8 3e3d 3cf1 5ebd 4845 8a3d 01dd aebc
00000290: 3eeb 29bd 728e b23c 10a8 bbbd b100 febd
000002a0: 3db0 a5bc 9ed8 f5bc fdda d5bc 294e 87bd
000002b0: 1244 dcbd f521 cfbd ab1d 8c3d e869 06be
000002c0: 9cab 3fbd 1dd0 9ebc 33af b9bc 9179 04be
000002d0: d618 4cbd 6c01 42bd da39 f13d 5381 1dbd
000002e0: 428b 7cbd 2be8 8abd 06a1 623d 5a1e 063d
000002f0: 48de 343d 67c9 9d3d 5f2d d5bb ad87 123d
00000300: 1242 193b 2638 b33d 9f1a bf3d 2649 ab3d
00000310: 2fac a1b9 a852 b93d 039f dd3c 0a6d 573d
00000320: 414f 4f3d 7e4a 8f3d 144c 7ebc 2272 1f3e
00000330: dfbd ba3c c85d 9b3d 7075 b23d 6dbe 163d
00000340: 6ff1 5e3d 2934 173d 504d 743d b5e9 b13c
00000350: 94d4 a33d eb97 d9bb 4803 b6ba 3cf3 d43d
00000360: 58ac 9a3d 0afa d23c b515 a7bd feb7 863b
00000370: 4bc2 643c 72ec 90bd 959a 19bd 6350 45bc
00000380: 4518 18be f43f 8ebd b3fd c7bd eeb5 f4bd
00000390: 9668 2cbc 1d22 0d3d 346f 12bd 8f5b 6c3c
000003a0: ead1 febd e858 41bd 1957 abbd 0e8f 06be
000003b0: a528 3dbd 1faa 00bd 81f1 8dbd 0987 f2bc
000003c0: d560 f6bc 6d2d 513c 3d3d 73bd e8d0 24bd
000003d0: edbf 97bc 74e5 a13c 7ca0 33bd e094 f23b
000003e0: 9804 90bd 9a83 84bd 2b33 b5bd d70d 5e3d
000003f0: 4d26 c6bd 6d18 a7bd 1387 d4bd eb34 8bbd

bnorm_temporal.weight f4 [8]
1.2164491 1.2637095 0.9780384 1.0880144 1.260189 1.1403481 1.0128713 1.2865313
00000000: 9bb4 9b3f 3cc1 a13f b960 7a3f 0e44 8b3f
00000010: e04d a13f edf6 913f c4a5 813f 0fad a43f

bnorm_temporal.bias f4 [8]
-0.029855473 -0.044964485 -0.0039733867 0.017663468 0.05434119 0.06429985 -0.093491726 -0.022628376
00000000: 7793 f4bc ae2c 38bd 2f33 82bb fab2 903c
00000010: de94 5e3d a4af 833d 9778 bfbd 255f b9bc

bnorm_temporal.running_mean f4 [8]
-8.480169e-06 -0.00020058858 -0.0003867402 -0.00012637484 -6.73799e-05 -0.00025119656 -4.4224456e-05 4.0552113e-06
00000000: 0c46 0eb7 1655 52b9 64c3 cab9 7d83 04b9
00000010: 4f4e 8db8 08b3 83b9 a67d 39b8 0012 8836

bnorm_temporal.running_var f4 [8]
0.41264233 0.29780376 1.1049656 0.7456339 0.4161653 0.5665922 0.6661747 0.7611805
00000000: db45 d33e bc79 983e 836f 8d3f dde1 3e3f
00000010: 9e13 d53e 300c 113f 6d8a 2a3f badc 423f

conv_spatial.weight f4 [16, 1, 22, 1]
-0.040242534 0.045467053 -0.026992854 -0.042698603 -0.07492944 -0.13792574 0.016359154 -0.082738794
0.10543988 -0.049884196 -0.00535959 0.08498043 0.031883825 0.05050919 -0.108724445 -0.033886157
0.19460028 0.17740294 -0.0593039 -0.006030571 -0.0035435501 -0.02708035 -0.037724365 -0.025490502
0.031617694 0.033913758 0.1146531 0.011301596 0.13018958 -0.021389756 0.055857647 0.060374193
-0.014021353 -0.032958865 0.1178017 -0.085457906 -0.028311219 -0.071271315 -0.21350764 -0.10096295
-0.13589601 0.08568269 0.0059131975 0.13223928 0.0136770625 0.01807611 -0.058359805 0.2079552
0.11328799 -0.043911237 -0.026813949 -0.06461603 -0.01619363 -0.12010205 -0.03325834 -0.085369356
0.15893406 0.1336181 0.090834364 0.12076498 0.016235596 0.08126467 -0.01869614 0.028452873
-0.07093291 -0.120007485 -0.026119772 -0.042110953 -0.014633014 -0.03989757 0.091330625 0.043758158
-0.13395685 0.25333562 -0.08508921 -0.11071878 -0.04981284 -0.07468202 0.011692471 0.17218612
0.063595146 -0.08477294 0.11298111 0.057401586 -0.050681904 0.035368763 -0.069257826 -0.034508865
0.037011154 0.02569387 -0.08885667 -0.0153752025 0.057322662 0.013582214 -0.0008583398 -0.14234497
0.066440985 -0.022971658 0.0041815364 0.011180482 0.096977405 0.09224523 -0.022580067 0.0006034143
0.021314112 -0.14743058 0.13475658 -0.03479174 -0.1798069 0.14132348 0.027908184 -0.13327351
0.104951985 -0.0838352 0.09260957 -0.11047007 0.12689157 0.05146674 -0.07289809 0.038052764
0.030797997 -0.02298235 0.032433104 0.0006689099 -0.10122179 0.059115026 0.00065282546 -0.0032689064
-0.1451618 0.034280628 -0.07178175 0.23138297 -0.067464426 -0.035806965 -0.14410721 0.058364194
0.10293119 -0.007902333 0.08503104 -0.045402084 -0.054549422 -0.0732836 0.19238235 -0.025520956
0.07437296 0.18369168 0.017326761 -0.16684264 -0.056390595 -0.020846432 0.030264206 -0.08010208
-0.022091646 0.05322826 0.007871626 0.039992727 -0.051812015 0.014903334 0.026596576 -0.011937775
-0.099141195 -0.056394015 0.02442776 0.04010092 -0.06295214 -0.035555515 0.06395684 0.14083257
0.030467523 -0.054063916 -0.07529572 0.09607838 0.1769938 -0.018439012 -0.0006094442 -0.2303908
-0.10461885 0.017799562 -0.04640745 0.060810603 -0.09254646 -0.07078879 -0.04226394 0.16086985
0.07882614 -0.051925085 0.11286521 0.011614868 0.03940048 0.0368213 -0.12165926 0.10334901
-0.015930867 -0.03964653 0.02067423 0.1278747 0.031672712 -0.15299517 0.055919323 0.0965822
-0.035825625 -0.07017575 -0.14930904 -0.13414451 -0.071296565 0.01841924 0.009587082 0.033166878
0.10229207 0.11958196 0.009402997 0.06643212 -0.11947448 0.013686601 -0.056091063 0.20409712
-0.023313038 0.015054531 -0.08977361 0.03533286 -0.0049262736 -0.09624554 0.08317105 0.021819701
-0.11390764 -0.10054623 -0.021996196 0.10892799 0.1492362 0.037424844 -0.028856134 -0.026530027
0.1087881 0.007826071 -0.0021273554 -0.032236807 -0.10179797 0.044205107 -0.14781743 -0.04506313
-0.068327695 0.09944254 0.09990656 -0.1641958 -0.0596398 0.00010275125 0.09463447 0.07309248
-0.045647446 0.06689131 -0.0036034894 -0.09956918 -0.017830668 -0.033815637 -0.08413823 0.02370182
00000000: 5bd5 24bd a93b 3a3d 1e20 ddbc bbe4 2ebd
00000010: 9b74 99bd 683c 0dbe a203 863c f572 a9bd
00000020: ddf0 d73d 5f53 4cbd 809f afbb 380a ae3d
00000030: 9d98 023d b9e2 4e3d ecaa debd 36cc 0abd
00000040: 4c45 473e 1ea9 353e a5e8 72bd 199c c5bb
00000050: e83a 68bb 9cd7 ddbc dd84 1abd 75d1 d0bc
00000060: 8e81 013d 27e9 0a3d 3fcf ea3d 542a 393c
00000070: 6b50 053e 9239 afbc fdca 643d ee4a 773d
00000080: d1b9 65bc e0ff 06bd 0542 f13d 8e04 afbd
00000090: eeec e7bc b2f6 91bd bfa1 5abe aac5 cebd
000000a0: 5328 0bbe 687a af3d 7fc3 c13b bc69 073e
000000b0: c215 603c 5a14 943c b10a 6fbd 35f2 543e
000000c0: 8903 e83d 45dc 33bd eda8 dbbc 6955 84bd
000000d0: 81a8 84bc 10f8 f5bd e639 08bd 21d6 aebd
000000e0: 9cbf 223e 2fd3 083e 5e07 ba3d a153 f73d
000000f0: 8300 853c 176e a63d a628 99bc 0016 e93c
00000100: 4645 91bd 7cc6 f5bd 22f9 d5bc 897c 2cbd
00000110: 4fbf 6fbc a26b 23bd 8d0b bb3d c13b 333d
00000120: fc2b 09be 35b5 813e 4043 aebd 87c0 e2bd
00000130: 8c08 4cbd e3f2 98bd c791 3f3c 8f51 303e
00000140: 2c3e 823d 6f9d adbd a462 e73d ed1d 6b3d
00000150: d497 4fbd d6de 103d 0cd7 8dbd 2b59 0dbd
00000160: 0299 173d f37b d23c 7cfa b5bd 46e8 7bbc
00000170: 2bcb 6a3d ef87 5e3c 3502 61ba e1c2 11be
00000180: 3612 883d 0f2f bcbc 4505 893b 572e 373c
00000190: 179c c63d 11eb bc3d d5f9 b8bc 732e 1e3a
000001a0: ef9a ae3c 0bf8 16be a1fd 093e c981 0ebd
000001b0: 4d1f 38be 1ab7 103e b49f e43c da78 08be
000001c0: 11f1 d63d cab1 abbd 16aa bd3d 223e e2bd
000001d0: ddef 013e cace 523d 984b 95bd 37dd 1b3d
000001e0: 154c fc3c 7b45 bcbc 93d8 043d c959 2f3a
000001f0: 5f4d cfbd 9922 723d 6022 2b3a 263b 56bb
00000200: 4ba5 14be d869 0c3d 4f02 93bd a8ef 6c3e
00000210: ca2a 8abd 53aa 12bd d790 13be 4b0f 6f3d
00000220: 96cd d23d c978 01bc c124 ae3d 89f7 39bd
00000230: 376f 5fbd b615 96bd e1ff 443e 5311 d1bc
00000240: da50 983d ac19 3c3e daf0 8d3c ccd8 2abe
00000250: d3f9 66bd 23c6 aabc a4ec f73c 8f0c a4bd
00000260: 8af9 b4bc e005 5a3d fef7 003c 6acf 233d
00000270: d638 54bd 1d2d 743c 10e1 d93c a896 43bc
00000280: 8a0a cbbd 69fd 66bd ba1c c83c dd40 243d
00000290: 0ded 80bd a9a2 11bd cefb 823d 6a36 103e
000002a0: 0797 f93c 2072 5dbd a434 9abd bec4 c43d
000002b0: dd3d 353e 690d 97bc 1cc3 1fba 91eb 6bbe
000002c0: 6842 d6bd 63d0 913c bd15 3ebd 8a14 793d
000002d0: 0089 bdbd b7f9 90bd f41c 2dbd 11bb 243e
000002e0: 996f a13d 66af 54bd e025 e73d 4a4c 3e3c
000002f0: 6662 213d eed1 163d 7d28 f9bd a5a8 d33d
00000300: 7381 82bc 6664 22bd 015d a93c 96f1 023e
00000310: 3fbb 013d c4aa 1cbe a90b 653d e3cc c53d
00000320: e4bd 12bd 4eb8 8fbd 78e4 18be 2e5d 09be
00000330: ef03 92bd f2e3 963c 2313 1d3c fed9 073d
00000340: 817e d13d 63e7 f43d 070f 1a3c 900d 883d
00000350: 09af f4bd c43d 603c bebf 65bd d6fe 503e
00000360: fcfa bebc 48a7 763c 3adb b7bd 30b9 103d
00000370: 946c a1bb 621c c5bd 9555 aa3d 3bbf b23c
00000380: 6948 e9bd 2feb cdbd 5e31 b4bc a315 df3d
00000390: 60d1 183e cb4a 193d b363 ecbc 8055 d9bc
000003a0: 4ccc de3d ec38 003c 1a6b 0bbb be0a 04bd
000003b0: 747b d0bd 6a10 353d 745d 17be 1e94 38bd
000003c0: 64ef 8bbd 88a8 cb3d cf9b cc3d f222 28be
000003d0: dd48 74bd 287c d738 b8cf c13d 83b1 953d
000003e0: d1f8 3abd 50fe 883d 8528 6cbb edea cbbd
000003f0: 9f11 92bc 4482 0abd aa50 acbd 522a c23c

bnorm_1.weight f4 [16]
1.2290636 1.1213325 1.1465133 1.2771201 0.94937104 0.99910486 1.0031023 1.0505923
1.0484551 1.2395445 0.9717833 1.1151401 1.0031455 1.2133936 1.2683585 1.0077015
00000000: f551 9d3f d387 8f3f f3c0 923f ac78 a33f
00000010: fb09 733f 56c5 7f3f a865 803f cf79 863f
00000020: c733 863f 65a9 9e3f cac6 783f e9bc 8e3f
00000030: 1267 803f 7b50 9b3f 9259 a23f 5dfc 803f

bnorm_1.bias f4 [16]
-0.50965035 -0.45745438 -0.3848674 -0.5374971 -0.15534844 -0.17753644 -0.06822288 -0.25705022
-0.24741274 -0.5327639 -0.20455778 -0.2108531 -0.24581146 -0.5000246 -0.56169534 -0.27705106
00000000: 7278 02bf 7637 eabe 570d c5be 6999 09bf
00000010: a913 1fbe 1dcc 35be 70b8 8bbd 169c 83be
00000020: c459 7dbe 3763 08bf 9877 51be e0e9 57be
00000030: 00b6 7bbe 9d01 00bf 44cb 0fbf a3d9 8dbe

bnorm_1.running_mean f4 [16]
-0.00016258543 -0.0008023758 -0.014305487 -0.00032436286 -6.683241e-05 -0.00020839786 -0.00011562778 -0.0010551133
0.0037134343 0.0009230731 -0.007882558 -0.0005970157 0.0044293967 0.04098835 3.3590495e-05 0.0025429314
00000000: b27b 2ab9 8756 52ba 9061 6abc 3f0f aab9
00000010: 6028 8cb8 6085 5ab9 317d f2b8 ba4b 8aba
00000020: 175d 733b 63fa 713a d825 01bc 0c81 1cba
00000030: 7924 913b 66e3 273d 85e3 0c38 4fa7 263b

bnorm_1.running_var f4 [16]
0.071848765 0.039264962 0.16063607 0.031190505 0.0061050095 0.008346207 0.014417328 0.009171588
0.041057024 0.033433285 0.026871355 0.03572505 0.010963949 0.18607186 0.061344776 0.057526954
00000000: 7225 933d 4cd4 203d c87d 243e 3b83 ff3c
00000010: 880c c83b 88be 083c a836 6c3c 6e44 163c
00000020: 692b 283d 57f1 083d 5121 dc3c 6e54 123d
00000030: 23a2 333c 9f89 3e3e a944 7b3d 62a1 6b3d

conv_separable_depth.weight f4 [16, 1, 1, 16]
-0.028447231 -0.17073427 -0.14375898 0.02278589 -0.042023387 -0.052883867 -0.089776255 0.05337604
0.073867604 -0.097225115 -0.10045484 -0.13949928 -0.035889663 0.049825914 -0.111285895 -0.05315489
0.10758935 -0.09159907 -0.14945802 -0.09849921 -0.0008244128 0.09049746 -0.04650639 -0.062412612
-0.15393688 -0.06672889 0.07916599 0.104268715 -0.038861915 -0.1294567 -0.12217511 0.011179167
-0.018210376 0.110338494 -0.16156544 -0.2014605 -0.10007117 -0.14605357 -0.0030775815 -0.0030214672
-0.100375526 -0.069330215 -0.007571347 0.019357016 -0.07866768 0.06842665 -0.09069724 -0.0665167
0.08762072 0.08762084 0.13307035 0.028236441 -0.06467646 0.07495008 0.11955012 0.16168296
0.07865952 -0.028579202 0.05804025 0.010218137 0.10678055 0.012968906 0.01140519 0.008915421
0.12080582 -0.0010835044 0.08628359 0.19149363 0.10796193 0.13911127 -0.03109425 -0.096534565
-0.09055995 -0.039381083 -0.050233405 0.047837857 0.070685014 0.001494748 0.11385236 -0.018834464
-0.09071566 -0.1712202 0.014958191 -0.081966855 0.13147533 0.057433855 0.12326588 0.009600701
0.044146746 -0.10918842 -0.09199629 -0.12031498 -0.121603474 -0.050491028 0.06646909 0.13131106
0.018441202 -0.06531293 0.023485906 -0.16201721 -0.13046722 -0.018317387 0.06108462 0.13199453
0.15104884 0.030103417 -0.15943418 -0.11512719 -0.08644384 -0.19461514 -0.07358118 0.07620983
-0.019092623 0.07242309 0.10333758 -0.0074043204 -0.008691189 0.09577869 -0.0908253 -0.036228765
-0.14501478 -0.1059612 -0.048554253 -0.08740039 -0.011702451 -0.16264507 -0.06619905 0.059286725
0.12753536 0.03309664 -0.062718496 -0.18582179 -0.06881857 -0.011010666 0.041952513 -0.027281437
0.11734869 0.037667617 -0.007314896 0.16353586 0.09829113 -0.12770338 -0.10130803 -0.10111961
0.1204248 0.17810945 0.055937633 0.064008154 -0.06509031 0.10761857 0.15218556 0.14202465
-0.056654684 0.06894787 -0.04250175 0.057356272 0.08825638 -0.10217919 0.04334342 0.14533065
-0.03996678 0.17732082 0.16467535 0.15080464 0.03123857 -0.08847339 -0.12873368 -0.025261173
-0.043345828 0.06923502 0.099531315 -0.0026960995 -0.1271215 0.020769345 0.08337246 -0.11376159
-0.16642131 -0.056558926 0.08534951 0.04570836 0.1351014 0.085158534 -0.025167024 -0.027154123
-0.03943012 0.049928065 -0.0044607553 0.014720881 0.043441575 0.16094007 0.24275655 0.16614379
-0.0518534 -0.031049162 0.00039612543 0.17997313 0.1396821 0.13338162 0.08956117 -0.041636266
0.059673097 0.15231615 -0.0387711 0.062277116 -0.080794714 -0.07246497 0.009112518 0.07767076
0.04801796 0.055945285 0.15188715 -0.04019415 -0.026183007 -0.046851616 0.04892322 0.06996748
0.10700442 4.6302812e-05 0.058087222 0.08543139 0.17120764 0.1761898 -0.07551274 -0.1679798
0.13092275 0.10722153 -0.020791417 0.083617814 -0.075524606 -0.023167185 0.09319838 0.12478106
0.041926462 0.08370046 0.06421288 0.085726686 -0.055303104 0.026633328 0.07353726 0.14093976
0.055221893 0.04222009 0.07336683 -0.05754722 -0.043715145 0.18486367 0.119278066 0.14322776
-0.13335632 -0.13322747 0.060291834 0.08511992 0.15776208 -0.009359583 0.040419765 -0.045639742
00000000: 2b0a e9bc f7d4 2ebe 8e35 13be 7aa9 ba3c
00000010: b720 2cbd c19c 58bd 9ddc b7bd d6a0 5a3d
00000020: e647 973d f61d c7bd 44bb cdbd e6d8 0ebe
00000030: 0a01 13bd 4216 4c3d dce9 e3bd f1b8 59bd
00000040: ce57 dc3d 4b98 bbbd 860b 19be f4b9 c9bd
00000050: 681d 58ba bb56 b93d 7c7d 3ebd 5ea4 7fbd
00000060: a1a1 1dbe 28a9 88bd c721 a23d d68a d53d
00000070: ac2d 1fbd 4c90 04be f236 fabd d328 373c
00000080: ed2d 95bc 26f9 e13d 6971 25be a94b 4ebe
00000090: 1df2 ccbd 118f 15be 40b1 49bb cf03 46bb
000000a0: af91 cdbd 00fd 8dbd 1019 f8bb 9b92 9e3c
000000b0: 851c a1bd 4523 8c3d 79bf b9bd e839 88bd
000000c0: 7e72 b33d 8e72 b33d 9843 083e 1c50 e73c
000000d0: 1875 84bd 6d7f 993d b1d6 f43d 3890 253e
000000e0: 3e18 a13d ee1e eabc 9dbb 6d3d f969 273c
000000f0: c3af da3d 897b 543c d6dc 3a3c fc11 123c
00000100: 0b69 f73d 6004 8eba 73b5 b03d e816 443e
00000110: 251b dd3d 2f73 0e3e 5eb9 febc eab3 c5bd
00000120: 7f77 b9bd 0f4e 21bd 8bc1 4dbd a1f1 433d
00000130: 4ec3 903d 6ceb c33a 6d2b e93d bc4a 9abc
00000140: 22c9 b9bd 5954 2fbe 3313 753c 3dde a7bd
00000150: 78a1 063e c33f 6b3d d272 fc3d 424c 1d3c
00000160: 38d3 343d 2e9e dfbd 8d68 bcbd b367 f6bd
00000170: 3e0b f9bd aecf 4ebd f220 883d 6876 063e
00000180: 0112 973c c9c2 85bd 8465 c03c d7e7 25be
00000190: 3399 05be 580e 96bc de33 7a3d 9329 073e
000001a0: 8cac 1a3e 719b f63c b742 23be cec7 ebbd
000001b0: 7809 b1bd 3149 47be bbb1 96bd e613 9c3d
000001c0: 2268 9cbc 8f52 943d a7a2 d33d f19f f2bb
000001d0: 7d65 0ebc 9e27 c43d 9d02 babd 9d64 14bd
000001e0: c17e 14be 3002 d9bd d3e0 46bd fafe b2bd
000001f0: a3bb 3fbc 6e8c 26be 5e93 87bd a3d6 723d
00000200: a198 023e 5890 073d 8e72 80bd 1148 3ebe
00000210: c0f0 8cbd 1566 34bc 66d6 2b3d 527d dfbc
00000220: 8354 f03d 5c49 1a3d ccb1 efbb f275 273e
00000230: dc4c c93d adc4 02be 967a cfbd cc17 cfbd
00000240: 47a1 f63d 5362 363e dc1e 653d b516 833d
00000250: 124e 85bd 2067 dc3d 88d6 1b3e e96e 113e
00000260: be0e 68bd 8a34 8d3d 5116 2ebd 69ee 6a3d
00000270: c3bf b43d 5343 d1bd df88 313d 8fd1 143e
00000280: 35b4 23bd 9793 353e a8a0 283e 886c 1a3e
00000290: 08e8 ff3c 8931 b5bd c3d2 03be 85f0 cebc
000002a0: 658b 31bd 17cb 8d3d 13d7 cb3d 0bb1 30bb
000002b0: 232c 02be 7924 aa3c 2ebf aa3d d6fb e8bd
000002c0: 596a 2abe 55aa 67bd b9cb ae3d b038 3b3d
000002d0: 0558 0a3e 9967 ae3d 132b cebc 5372 debc
000002e0: 7a81 21bd 5f81 4c3d 872b 92bb da2f 713c
000002f0: cbef 313d 79cd 243e 2c95 783e 9921 2a3e
00000300: 3b64 54bd d05a febc 0eaf cf39 e04a 383e
00000310: d308 0f3e 3195 083e d96b b73d ca8a 2abd
00000320: c76b 743d c4f8 1b3e 72ce 1ebd 4a16 7f3d
00000330: b377 a5bd 8468 94bd ac4c 153c d911 9f3d
00000340: 7bae 443d e226 653d 4e88 1b3e 9fa2 24bd
00000350: bf7d d6bc 7be7 3fbd b763 483d 1c4b 8f3d
00000360: 2225 db3d 4435 4238 deec 6d3d a7f6 ae3d
00000370: 0e51 2f3e 196b 343e 6ca6 9abd e602 2cbe
00000380: 9d10 063e f696 db3d c352 aabc d13f ab3d
00000390: a5ac 9abd 1cc9 bdbc cbde be3d 368d ff3d
000003a0: 15bb 2b3d 266b ab3d 0b82 833d 7991 af3d
000003b0: 8285 62bd 232e da3c b49a 963d 8352 103e
000003c0: 5a30 623d f9ee 2c3d 5941 963d a2b6 6bbd
000003d0: a70e 33bd e74c 3d3e 0f48 f43d 4caa 123e
000003e0: 8f8e 08be c86c 08be 92f4 763d 5a53 ae3d
000003f0: 628c 213e f058 19bc 328f 253d bdf0 3abd

conv_separable_point.weight f4 [16, 16, 1, 1]
-0.1530198 -0.2426406 -0.07177691 -0.34515256 -0.36149794 -0.06355574 -0.11750335 0.33532155
-0.10798959 0.20075066 -0.17833279 0.13668162 0.5646838 -0.37044173 -0.082710356 0.25657448
-0.010403532 -0.30467272 0.0473274 -0.26207334 -0.017482735 -0.29859003 0.11799053 -0.08487073
-0.25581577 -0.1498874 0.22414361 0.21951304 -0.34012106 -0.0840666 -0.31060174 0.13956243
0.30395904 -0.43486568 0.1335162 0.03401011 -0.023148755 0.23408693 0.2416053 0.3609423
0.09477735 -0.22146113 -0.27758726 -0.20248736 0.05799057 -0.10307801 0.35865095 -0.26176643
-0.037977524 -0.18690962 -0.052984282 0.43456912 -0.23089647 -0.07960708 -0.27050778 -0.32858393
-0.3733157 0.04555724 0.029682389 0.32409564 -0.23284663 0.191718 0.23281766 -0.16480105
0.14866158 0.3429378 -0.25066516 0.22118235 -0.29145017 0.25102922 -0.2395788 -0.17020944
0.20363972 0.008197417 0.28061047 -0.2737985 0.04410223 0.5390383 -0.19197042 0.36228302
0.37885624 0.26663142 0.04789488 -0.09234311 -0.26260114 -0.16478693 -0.054521292 -0.40856704
0.049996432 -0.044276237 -0.021160988 -0.06237395 0.38226604 -0.021498369 0.4410623 0.4786516
-0.21736218 -0.49748242 0.35248628 -0.15045011 0.29042363 -0.026790295 0.20128801 0.18073837
0.0012073739 0.33146197 -0.5353664 -0.06057928 -0.0951271 0.3247776 0.12754555 0.29742488
0.12353594 0.20293425 -0.1649646 0.0031501928 -0.008255474 0.22558884 -0.14899756 0.031204887
-0.12572145 -0.0325615 0.29887137 0.24248882 0.3958367 -0.26753044 -0.28549188 0.40061018
0.08475202 0.22738715 0.008257254 -0.031131752 -0.40565333 -0.69969493 -0.023933297 0.09017291
0.08143926 0.0060812947 0.18923493 -0.3318563 0.102004215 -0.25030723 -0.16421358 -0.19839449
-0.1179313 0.065958336 0.25776872 -0.22872585 -0.36033642 0.21183425 -0.14265902 -0.0055771256
0.24716513 -0.018912243 0.21225962 0.25392136 0.25920144 -0.045224555 -0.13483846 -0.20632273
-0.106334776 0.2771699 0.09027784 -0.09903912 0.41809613 -0.038896546 0.13732684 -0.114813045
0.29195854 0.4126254 0.023997735 0.08304601 -0.04758369 -0.30814064 -0.24878727 -0.19076407
0.060026795 -0.2591114 -0.081559725 -0.33319515 -0.15519516 0.05756446 0.11395616 -0.11794352
0.30313805 0.4031433 0.33595818 -0.35447338 -0.022927662 -0.20269251 -0.33821106 0.30238318
-0.46673584 -0.19391131 0.20682651 0.51396096 -0.3094577 -0.23029219 -0.034642905 0.23345105
0.24391028 0.369833 -0.009474612 0.05296214 0.19968343 -0.11095938 0.06270719 -0.25701088
0.16684322 0.15778032 -0.14080775 0.28738523 0.0515211 0.04441818 0.43080202 0.3690978
-0.07138553 -0.19204156 0.13903981 -0.03074697 0.0233302 0.1752654 0.24841417 0.16211694
-0.36829814 0.25044972 -0.008768613 -0.28533858 -0.30295515 0.3681965 0.18459253 -0.43502116
-0.29234296 0.2940564 0.23311746 -0.08794826 -0.18995674 0.3837692 -0.2687943 0.14338893
-0.2855831 -0.17305514 -0.51570266 0.22272135 0.19804126 -0.49297756 0.43798885 -0.27281824
-0.45731035 0.1830164 0.39650732 0.33510607 0.04109811 0.5455747 -0.27540055 0.046434958
00000000: 39b1 1cbe c776 78be c6ff 92bd d6b7 b0be
00000010: 4216 b9be 8329 82bd 99a5 f0bd 44af ab3e
00000020: a529 ddbd 9591 4d3e df9c 36be 44f6 0b3e
00000030: 1e8f 103f 8aaa bdbe 0c64 a9bd bb5d 833e
00000040: 9373 2abc 10fe 9bbe 60da 413d 7a2e 86be
00000050: f437 8fbc cbe0 98be 05a5 f13d b5d0 adbd
00000060: 49fa 82be 157c 19be e785 653e 07c8 603e
00000070: 5924 aebe 1c2b acbd 3107 9fbe 74e9 0e3e
00000080: 85a0 9b3e b7a6 debe 79b8 083e 2f4e 0b3d
00000090: 75a2 bdbc 7cb4 6f3e 6167 773e 6ecd b83e
000000a0: a11a c23d b5c6 62be eb1f 8ebe d958 4fbe
000000b0: 8587 6d3d 901a d3bd 19a1 b73e 4006 86be
000000c0: 528e 1bbd 3c65 3fbe 0c06 59bd d87f de3e
000000d0: 2070 6cbe 0909 a3bd ff7f 8abe 273c a8be
000000e0: 3c23 bfbe 3a9a 3a3d 7b28 f33c ddef a53e
000000f0: 596f 6ebe b951 443e c167 6e3e 9bc1 28be
00000100: be3a 183e 8b95 af3e 2f57 80be a07d 623e
00000110: f538 95be e786 803e 2554 75be 624b 2ebe
00000120: ee86 503e 754e 063c 2dac 8f3e 512f 8cbe
00000130: 8aa4 343d 6afe 093f e593 44be 297d b93e
00000140: 72f9 c13e ea83 883e 6c2d 443d 621e bdbd
00000150: a873 86be e8bd 28be b851 5fbd b32f d1be
00000160: 0fc9 4c3d 005b 35bd cf59 adbc d47b 7fbd
00000170: 60b8 c33e 591d b0bc ebd2 e13e d311 f53e
00000180: 3194 5ebe 04b6 febe 1579 b43e 980f 1abe
00000190: 68b2 943e 5277 dbbc 721e 4e3e 7b13 393e
000001a0: bf40 9e3a 62b5 a93e c60d 09bf fb21 78bd
000001b0: ffd1 c2bd 4049 a63e 4d9b 023e 1348 983e
000001c0: 6900 fd3d ffcd 4f3e 7bec 28be 7773 4e3b
000001d0: f841 07bc c300 673e d192 18be 64a1 ff3c
000001e0: 20bd 00be 355f 05bd ab05 993e fd4e 783e
000001f0: 1cab ca3e c0f9 88be fe2b 92be c71c cd3e
00000200: 7892 ad3d 2dd8 683e 6f49 073c 0408 ffbc
00000210: cbb1 cfbe 351f 33bf c30f c4bc 93ac b83d
00000220: a0c9 a63d 9945 c73b cdc6 413e 12e9 a9be
00000230: 96e7 d03d 4528 80be 9b27 28be ed27 4bbe
00000240: f785 f1bd 2a15 873d 43fa 833e 1c37 6abe
00000250: 047e b8be 14eb 583e 3515 12be 52c0 b6bb
00000260: db18 7d3e d9ed 9abc 965a 593e fb01 823e
00000270: 0db6 843e 623d 39bd 1813 0abe 4446 53be
00000280: 0cc6 d9bd 37e9 8d3e 97e3 b83d 06d5 cabd
00000290: b210 d63e fc51 1fbd 689f 0c3e 1a23 ebbd
000002a0: 977b 953e a343 d33e e696 c43c 0714 aa3d
000002b0: 1ee7 42bd 9cc4 9dbe 17c2 7ebe a857 43be
000002c0: a8de 753d 40aa 84be c908 a7bd 8e98 aabe
000002d0: 7beb 1ebe b6c8 6b3d d961 e93d 5f8c f1bd
000002e0: e934 9b3e cc68 ce3e b602 ac3e 897d b5be
000002f0: cbd2 bbbc a08e 4fbe 002a adbe f8d1 9a3e
00000300: 00f8 eebe b090 46be 54ca 533e f292 033f
00000310: 3d71 9ebe b7d1 6bbe b8e5 0dbd cb0d 6f3e
00000320: 9ec3 793e c05a bd3e 673b 1bbc d4ee 583d
00000330: d079 4c3e ac3e e3bd a16c 803d ee96 83be
00000340: f3d8 2a3e 2a91 213e e82f 10be 2824 933e
00000350: ca07 533d d6ef 353d 1592 dc3e 63fa bc3e
00000360: 9432 92bd 8ba6 44be 7460 0e3e 12e1 fbbc
00000370: fa1e bf3c c678 333e 4960 7e3e fc01 263e
00000380: 9391 bcbe f23a 803e 3baa 0fbc e617 92be
00000390: f01c 9bbe 4084 bc3e d305 3d3e 18bb debe
000003a0: faad 95be 8f8e 963e 58b6 6e3e 381e b4bd
000003b0: 0584 42be 667d c43e 689f 89be 8cd4 123e
000003c0: f337 92be 5e35 31be 1705 04bf 1111 643e
000003d0: 54cb 4a3e 8e67 fcbe 1340 e03e d5ae 8bbe
000003e0: 9524 eabe a768 3b3e 0203 cb3e 0693 ab3e
000003f0: 7e56 283d c9aa 0b3f 4d01 8dbe 9532 3e3d

bnorm_2.weight f4 [16]
1.1214219 1.1322972 1.1146058 1.1094643 1.0999273 1.1402833 1.1284318 1.1152132
1.1566556 1.089933 1.0639318 1.0843008 1.1596268 1.0819421 1.0257746 1.0103204
00000000: c18a 8f3f 1def 903f 67ab 8e3f ed02 8e3f
00000010: 6bca 8c3f cef4 913f 7470 903f 4ebf 8e3f
00000020: 4a0d 943f ed82 8b3f eb2e 883f 5eca 8a3f
00000030: a76e 943f 147d 8a3f 954c 833f 2e52 813f

bnorm_2.bias f4 [16]
-0.13844982 -0.17968163 -0.0884107 -0.05602903 -0.15713899 -0.090300076 -0.14132077 -0.13660258
-0.1865807 -0.12635429 -0.08386705 -0.1370355 -0.09238907 -0.07587572 -0.08953571 -0.112801254
00000000: cac5 0dbe 76fe 37be ab10 b5bd b27e 65bd
00000010: 0be9 20be 3fef b8bd 64b6 10be 8ce1 0bbe
00000020: 030f 3fbe 0563 01be 7dc2 abbd 0953 0cbe
00000030: 7b36 bdbd bb64 9bbd 805e b7bd 5804 e7bd

bnorm_2.running_mean f4 [16]
0.0076812264 0.082849964 -0.01163601 -0.10415982 -0.02183489 0.0010023229 -0.120875895 0.078091726
0.069512405 0.06954313 0.027275274 0.0072458405 -0.16375533 -0.05572883 -0.041808207 -0.14994267
00000000: ccb2 fb3b 3ead a93d f7a4 3ebc be51 d5bd
00000010: 15df b2bc 6060 833a c88d f7bd 8eee 9f3d
00000020: 855c 8e3d a16c 8e3d 6570 df3c 846e ed3b
00000030: 7aaf 27be ea43 64bd 153f 2bbd 928a 19be

bnorm_2.running_var f4 [16]
0.17422168 0.11276795 0.13570648 0.12551022 0.20040947 0.15286489 0.21643335 0.13825826
0.21765833 0.094731495 0.10479386 0.16482034 0.1634314 0.106860206 0.14203915 0.31645593
00000000: 2b67 323e e2f2 e63d a4f6 0a3e c085 003e
00000010: 2438 4d3e 9d88 1c3e b4a0 5d3e 9393 0d3e
00000020: d3e1 5e3e 9602 c23d 2a9e d63d aac6 283e
00000030: 905a 273e 86d9 da3d b672 113e 8306 a23e

final_layer.conv_classifier.weight f4 [4, 16, 1, 35]
-0.07176828 -0.004168181 -0.010469753 -0.038539857 0.14287364 -0.21113594 0.1622341 -0.16407825
0.026909735 0.08281955 -0.13344881 -0.13327983 0.0010288544 -0.056941304 0.0013275018 0.055383317
-0.008135671 0.010544075 0.07108734 -0.060544226 0.05340352 0.083761506 0.0018216033 0.048214186
-0.047742624 0.020406775 0.10955115 -0.08681846 0.039853185 0.02716834 9.308576e-06 0.05884054
-0.017396051 -0.08210788 0.15552174 0.13830484 -0.10205408 0.11827149 0.076127954 0.10826891
0.052338813 -0.09027781 -0.010514214 -0.02710312 -0.083395936 -0.015545553 -0.059027836 -0.026875068
-0.07315296 0.04939385 0.07992676 -0.22125117 -0.046299335 -0.11063836 -0.08355614 -0.113871805
-0.013438133 -0.23077528 -0.09335147 -0.017988728 0.038414374 -0.08066517 -0.13918363 0.11071437
-0.124369 -0.027320908 0.041089777 -0.18033521 0.13556033 0.07455598 -0.041092012 0.05546018
-0.059003077 -0.0530968 0.10189977 -0.14096716 0.10181312 0.02717556 -0.02439588 -0.020942923
0.024126785 0.011179461 -0.033998523 -0.09830174 -0.02139784 -0.045647748 0.13305213 0.0013283646
-0.10061688 0.023509856 -0.015856408 -0.07100466 -0.037711162 -0.15456991 0.041316163 -0.0036291084
-0.079246774 0.035832625 -0.1024471 -0.026085693 0.07720962 -0.012197105 -0.010717949 -0.19371097
0.0053484854 0.042387877 -0.07832192 0.058110896 0.088522494 -0.1290449 0.0446365 -0.001198835
0.00681559 0.23930894 -0.012543633 -0.037827898 0.032281112 0.030003168 -0.018586362 0.07723789
0.013919996 -0.026610395 -0.03508367 -0.04110226 -0.06933382 0.028997999 -0.0058304346 -0.04432897
0.12929288 0.058173943 -0.07421362 -0.042999 0.008913857 -0.0030139924 -0.027330466 -0.028702114
0.05800378 0.013758405 0.06443163 0.015243081 0.1243389 0.028128114 0.095580146 0.008539833
0.09509579 0.092773534 -0.0024056036 0.12252238 -0.07547551 -0.1380463 -0.033449754 -0.13787459
0.0282493 -0.13658153 -0.04533803 -0.09255531 0.1027493 0.063807234 0.025435263 -0.011095873
-0.021902528 -0.008203227 -0.05288009 0.059080508 -4.7498124e-05 -0.060980577 0.09609376 0.10282883
0.015189413 0.031753972 0.07436331 0.038444392 0.06534574 0.057536777 -0.007311436 -0.09098105
0.098495856 0.069766074 0.12877014 0.0890527 0.078757234 -0.13652179 0.013468147 0.04670268
0.013995913 0.019919418 0.083496355 0.044508554 -0.04696872 0.051186223 0.13696161 0.0130164
-0.027167886 0.02908477 -0.020682639 0.064815104 0.08111825 -0.014696026 0.100608386 -0.06856262
-0.045089196 -0.01362052 0.037573 0.034110054 0.1213871 -0.026793294 -0.07589193 -0.10649126
0.029396111 -0.033284187 0.013591958 0.03579537 0.07573849 -0.029590262 0.028004073 0.035725806
-0.11127464 -0.034077212 0.08790344 -0.010139482 -0.046539582 0.05332541 -0.050475247 -0.04974332
0.14478248 -0.13386023 0.043302137 0.05208342 0.020474901 -0.11495778 0.053805105 0.013479893
-0.04879984 0.0063642096 -0.054631528 -0.085773185 0.049053367 0.006438658 0.042589344 0.028847927
0.016867127 -0.07265456 0.060987808 -0.08260721 -0.00063287496 -0.014432976 -0.04806235 0.09270023
0.0802102 0.07265803 -0.08226718 0.15044437 0.0470404 -0.11504205 0.06701205 0.08256467
00000000: 3ffb 92bd 3d95 88bb 5489 2bbc f8db 1dbd
00000010: 784d 123e 0534 58be b220 263e 2104 28be
00000020: ce71 dc3c 4c9d a93d cea6 08be 827a 08be
00000030: a0da 863a 493b 69bd 92ff ad3a 9ed9 623d
00000040: 7a4b 05bc 0ec1 2c3c 3d96 913d 39fd 77bd
00000050: a6bd 5a3d 278b ab3d ddc2 ee3a 3d7c 453d
00000060: c58d 43bd 1c2c a73c 5a5c e03d e0cd b1bd
00000070: 183d 233d 2390 de3c 082c 1c37 c702 713d
00000080: 2a82 8ebc 2d28 a8bd 1741 1f3e c99f 0d3e
00000090: bb01 d1bd 5338 f23d f9e8 9b3d 17bc dd3d
000000a0: 3961 563d 93e3 b8bd cf43 2cbc 5d07 debc
000000b0: 7dcb aabd c6b2 7ebc 2cc7 71bd 1a29 dcbc
000000c0: 38d1 95bd 3551 4a3d a4b0 a33d ab8f 62be
000000d0: 5fa4 3dbd 5d96 e2bd 7b1f abbd 9f35 e9bd
000000e0: 9d2b 5cbc 5b50 6cbe 0e2f bfbd 195d 93bc
000000f0: 6458 1d3d c833 a5bd 2786 0ebe 37be e23d
00000100: 2db5 febd 19d0 dfbc c14d 283d cba9 38be
00000110: 54d0 0a3e ceb0 983d 1950 28bd 372a 633d
00000120: 36ad 71bd 087c 59bd d4b0 d03d b259 10be
00000130: 6683 d03d 489f de3c ded9 c7bc 7e90 abbc
00000140: 89a5 c53c 0f2a 373c 0942 0bbd 6c52 c9bd
00000150: 864a afbc 22f9 3abd d13e 083e 851c ae3a
00000160: 3910 cebd be97 c03c 4ce5 81bc e46a 91bd
00000170: 0577 1abd 9347 1ebe 233b 293d 56d6 6dbb
00000180: 224c a2bd 3bc5 123d c9cf d1bd aab1 d5bc
00000190: 1420 9e3d 5ed6 47bc 569a 2fbc 2b5c 46be
000001a0: 5942 af3b e99e 2d3d 3e67 a0bd b105 6e3d
000001b0: 484b b53d 5924 04be c3d4 363d 3a22 9dba
000001c0: 5055 df3b 670d 753e cf83 4dbc 6df1 1abd
000001d0: 3339 043d 34c9 f53c 6d42 98bc e62e 9e3d
000001e0: b210 643c 0bfe d9bc e5b3 0fbd d85a 28bd
000001f0: e4fe 8dbd 368d ed3c 3b0d bfbb 4b92 35bd
00000200: 5a65 043e cd47 6e3d 4ffd 97bd b81f 30bd
00000210: 6d0b 123c 6786 45bb 24e4 dfbc b220 ebbc
00000220: 5f95 6d3d ef6a 613c bbf4 833d 1ebe 793c
00000230: 65a5 fe3d ee6c e63c 86bf c33d a8ea 0b3c
00000240: 95c1 c23d 0d00 be3d 55a7 1dbb 03ed fa3d
00000250: e792 9abd 025c 0dbe 9c02 09bd ff2e 0dbe
00000260: 136b e73c 07dc 0bbe 5fb4 39bd a38d bdbd
00000270: 3a6e d23d 5ead 823d 9d5d d03c 77cb 35bc
00000280: ee6c b3bc d466 06bc cb98 58bd 67fe 713d
00000290: b938 47b8 c5c6 79bd cecc c43d ec97 d23d
000002a0: 04dd 783c 7410 023d cb4b 983d de77 1d3d
000002b0: fdd3 853d afab 6b3d c594 efbb 4654 babd
000002c0: 32b8 c93d 84e1 8e3d 52dc 033e 4361 b63d
000002d0: 794b a13d 5ecc 0bbe 81a9 5c3c 4f4b 3f3d
000002e0: 1d4f 653c 0c2e a33c 2300 ab3d 9a4e 363d
000002f0: 4662 40bd a5a8 513d aa3f 0c3e bd42 553c
00000300: 308f debc 2f43 ee3c a36e a9bc c8bd 843d
00000310: 5321 a63d 9ac7 70bc c50b ce3d 8f6a 8cbd
00000320: 73af 38bd 9a28 5fbc 25e6 193d fcb6 0b3d
00000330: cd99 f83d 9c7d dbbc 3a6d 9bbd 1718 dabd
00000340: 1dd0 f03c 0055 08bd ceb0 5e3c 2a9e 123d
00000350: c81c 9b3d 4767 f2bc cc68 e53c 3955 123d
00000360: f5e3 e3bd 8c94 0bbd b806 b43d 1220 26bc
00000370: 4aa0 3ebd bf6b 5a3d 22bf 4ebd a7bf 4bbd
00000380: dc41 143e a812 09be 955d 313d 6d55 553d
00000390: fbba a73c fc6e ebbd be62 5c3d c5da 5c3c
000003a0: 57e2 47bd dc8a d03b 4fc5 5fbd daa9 afbd
000003b0: 2fec 483d 61fb d23b 2a72 2e3d 7d52 ec3c
000003c0: ee2c 8a3c eacb 94bd 5ace 793d f82d a9bd
000003d0: 85e7 25ba 4a78 6cbc 07dd 44bd 9ed9 bd3d
000003e0: 3f45 a43d bccd 943d b27b a8bd 170e 1a3e
000003f0: 6fad 403d 2b9b ebbd 9d3d 893d aa17 a93d

final_layer.conv_classifier.bias f4 [4]
-0.0053474936 0.026420334 -0.009821846 -0.0120741995
00000000: 073a afbb 756f d83c cfeb 20bc ddd2 45bc
