result_shallowfbcspnet_cv5/fold_2/best_model_fold2.pth (torch, 193974 bytes, 9 tensors)

conv_time_spat.conv_time.weight f4 [40, 1, 25, 1]
00000000: dcf2 db3d 0b3d 9dbd af7a b0bb ed0c 80bc
00000010: 9784 1c3c c86f 8b3d 8816 513c 525f 653d
00000020: b68f 91bd a4b0 ff3c 6fdd 5c3c abc5 6bbd
00000030: 6520 343d b2a9 5dbd d86c db3c 0a97 3f3c
00000040: e6aa 8dbd 23b7 03bc 9da0 8a3d eb74 11ba
00000050: b50e 6e3d 2ffd 83bc 968f 9abd 9c4f 68bc
00000060: 1ec3 413d d2cd 043d c013 533b af0a c73c
00000070: 1f16 e3ba 9f11 aa3d 6a24 21bd f944 f3bc
00000080: 114b 8ebc 180e 40bd 7421 ae3c 7a33 8c3d
00000090: 6702 5d3d 9516 033d 18a4 94bd 0303 1a3d
000000a0: e01d b7bd 3de9 8bbc 9f16 763d bf20 ea3c
000000b0: 5b29 b33d ffe4 74bd b3b9 b9bd 8b18 4ebd
000000c0: 9c6a b5bd fd3f a43c 8792 f5bd 759e 223d
000000d0: 08e9 163d cfd2 bc3d e768 1f3d 9ec9 a0bb
000000e0: c9af 073d de98 99bb fc9e 70bc 3679 983d
000000f0: 1fe3 5dbd e0b5 35bc 63dd 883b f0e6 85bd
00000100: 40fb 6c3d 739d 8dbc ceaf 633c a20c aa3d
00000110: 748d 133d e76b 1d3d 1001 0a3d 40ce a4bd
00000120: 3633 a13d f06f da3d 02b0 393d b0f8 503d
00000130: 1fb9 efbc 5371 e03d 7c06 57bd 26a7 a8bc
00000140: bf13 48bd 8111 c2bd 2021 89bd 0520 97bd
00000150: 5b8b 3dbc 76ee 023d 4919 823d 0233 683d
00000160: 64f8 f83c fdf2 713c 8084 513d 5317 f13c
00000170: a7f1 c3bc a1b7 493d 5cd3 a3bd bc91 103b
00000180: 9570 b7bd f437 e6ba d756 553d 8f1e e13d
00000190: 8018 9bbd f53a 86bc 8236 b43c 31b5 d2bc
000001a0: 420c 4c3d 7d2b 703d fdd9 b43d 7b1e 033c
000001b0: 7a6d 1bbc 590b b5bd a767 babd 9916 cbbd
000001c0: e011 13ba d32a 9f3b 6f26 2c3d 554a b1ba
000001d0: 69a5 f03c 724f 2cbd 9f93 95bd 3def 4a3d
000001e0: 0d87 253d 7402 72bd ab70 b7bd 3b5b 15bc
000001f0: d5a4 9cbd c8f0 f8bc d4dd dd3d 4bc2 583d
00000200: 2b32 eb3b 036e 89bd ec41 2dbd 61f9 54bd
00000210: 9a5b 8a3d 51fd 343d 941b e7bc 487a 503d
00000220: 029a ea3c 05dd 3dbd 3030 e63b 1f1c 28bd
00000230: 7d79 6dbc 14cd 92bd 9d79 90bd 26b7 e5bc
00000240: 1252 1fbc f93c 8c3d 84b1 903d 5f3e bf3d
00000250: ceb0 4abd 0cb7 11be a66a ba3d 6491 86bd
00000260: e13c 84bd 746e c7bd f47b 93bd e75f 31bd
00000270: 1d22 9c3d 7230 0e3e 1f09 0f3e 9865 e63d
00000280: 0578 8b3d 3aac 9aba 98ec d43c 21a9 a0bd
00000290: beab d33c 3ff3 f8bc e11c 40bd e637 02bd
000002a0: 1d10 ab3d c156 cdbc 3dc7 1a3d f81a 4ebd
000002b0: d887 033d 1c6a 693c dbef 343d 8688 c4bd
000002c0: 96fa d5bd 7969 67bd ebb6 9c3c db58 b6bc
000002d0: 96e2 a3bd 2c62 aebc d870 013d d80c 823d
000002e0: 746e 7f3c 7897 8c3d ca7b 4c3d 7ef9 933d
000002f0: 1207 983d ca26 7c3d 1ebc 313a 8ae9 8a3d
00000300: 0a87 7c3b 7acb 273b be7f 85bc 261d 8a3d
00000310: b32b 9fbc 37d2 03bd 3d1f 94bd 5b53 23bd
00000320: debe e63d 08ac 61bb 4800 5fbb ed09 823d
00000330: 8976 0fbd c03f 0abb b850 d53c 062d 20bd
00000340: c250 813d 5cf6 39bd 5c99 d83c 6ca1 653d
00000350: 9753 90bc 2b29 34bc 5118 bfbb 828a 743d
00000360: 1a25 333d d820 20bd e89d 28bc 6450 bc3c
00000370: f5f1 1f3d 1493 a6bd dadb 8bbd 2607 513d
00000380: 56f7 be3d 5ac9 7f3b 2dc1 763c ddbb 17bc
00000390: 9f6b 49bb 1887 a7bd c018 9bbd 2407 56bc
000003a0: e4b4 6c3c dfac e3bc 94cb a4bd bed9 60bd
000003b0: 7044 983d b3c0 173c a020 e93d 52ab c53d
000003c0: bc49 923b d772 63bd bc59 bdbd 784c 27bd
000003d0: df43 f7bd fba3 81bd 3ed3 15bc bb18 883d
000003e0: e90f 26bd 7740 27bd 651b 10be e62e 8cbd
000003f0: a2a9 643d afc9 d93c c517 cc3d d917 abbb
0.10739681 -0.07677659 -0.005385719 -0.015631163 0.009553096 0.0680843 0.0127617195 0.055999108
-0.07107489 0.031212159 0.013480528 -0.057561558 0.043976206 -0.054116912 0.0267853 0.011693725
-0.06917362 -0.008039269 0.06768916 -0.0005548733 0.058119494 -0.016111938 -0.07546918 -0.014179137
0.04730522 0.032422848 0.0032207817 0.024297087 -0.0017325318 0.08304142 -0.039341368 -0.029695975
-0.017369779 -0.04688844 0.021256186 0.06845756 0.05395737 0.032003958 -0.07257861 0.03760053
-0.08941245 -0.01707899 0.060080167 0.028580068 0.08748122 -0.0597887 -0.090686224 -0.050316375
-0.08858225 0.020050043 -0.119908385 0.039701898 0.03684333 0.09219896 0.038918402 -0.004906847
0.033126626 -0.0046874126 -0.014686342 0.07444994 -0.054171678 -0.011090726 0.004176782 -0.065381885
0.0578568 -0.017286992 0.013896896 0.08303191 0.036023572 0.03843298 0.03369242 -0.080471516
0.07871096 0.10665882 0.04533387 0.051018417 -0.029263077 0.10959115 -0.05249642 -0.020587515
-0.048846956 -0.09475995 -0.06695771 -0.07379154 -0.011568869 0.031965695 0.06352479 0.05668927
0.03039188 0.014767406 0.051151752 0.029430067 -0.02391894 0.049247388 -0.07999298 0.002205952
-0.0895702 -0.0017564283 0.05208477 0.10992157 -0.075730324 -0.016385535 0.021998648 -0.025721164
0.049816377 0.058635224 0.088306405 0.008002873 -0.00948655 -0.08840055 -0.09101801 -0.099164195
-0.00056102686 0.0048574 0.04202884 -0.0013526181 0.029375749 -0.042067952 -0.07303547 0.04954456
0.040411998 -0.05908437 -0.089570366 -0.009115989 -0.07648627 -0.030388251 0.10833326 0.052919667
0.0071776113 -0.06710436 -0.042299196 -0.05199564 0.06755753 0.044186894 -0.028211392 0.050897866
0.02863789 -0.04635336 0.0070247874 -0.041042443 -0.014494297 -0.07168022 -0.07054446 -0.028041434
-0.009724157 0.06847567 0.070651084 0.09338068 -0.04948502 -0.14229983 0.09102373 -0.065707
-0.06456924 -0.09737864 -0.072013766 -0.04330435 0.07623694 0.13885668 0.13968323 0.11249846
0.06810001 -0.0011800595 0.025991723 -0.07844759 0.025838729 -0.030389426 -0.04690254 -0.03179159
0.08352683 -0.025065782 0.037787665 -0.05031869 0.032111973 0.01424649 0.044174057 -0.09596352
-0.10448186 -0.05649707 0.01913019 -0.022259166 -0.08002202 -0.021287046 0.031601757 0.06350106
0.015590299 0.06864828 0.049922742 0.07225321 0.074232236 0.06156043 0.0006780046 0.06782825
0.0038532638 0.002560346 -0.016296264 0.06743841 -0.019430017 -0.0321829 -0.07232521 -0.039874416
0.11266874 -0.0034434814 -0.0034027267 0.063495494 -0.035025153 -0.0021095127 0.026039466 -0.039105438
0.063142315 -0.045400962 0.026440315 0.056062147 -0.017617984 -0.010996143 -0.005831756 0.059702404
0.043736555 -0.039093822 -0.010291554 0.022987552 0.039049108 -0.08133522 -0.06829043 0.051032208
0.09324519 0.0039029927 0.015060705 -0.009261099 -0.0030734313 -0.08180064 -0.0757308 -0.013063226
0.014447425 -0.027792392 -0.08046642 -0.054895155 0.074349284 0.009262252 0.11383176 0.096518174
0.004464356 -0.05552944 -0.09245631 -0.04084441 -0.12073492 -0.06330105 -0.009144602 0.06645342
-0.040542517 -0.040832963 -0.1407295 -0.06844883 0.055825837 0.026585428 0.09965471 -0.0052213487

conv_time_spat.conv_time.bias f4 [40]
00000000: c6dc 0a3d 5d16 453d a01a ab3c 2469 273c
00000010: b40c b93b 6bf1 d7bc 4de4 473a 84d8 eabc
00000020: 9c00 1d3d 336a 46bd efbf 0abd 2056 8f3a
00000030: c6cd 81bc 92e6 763c cb0f 663b a31f 68bd
00000040: 1df1 74bb 0fde 923c 4d94 25bc e28e e2bc
00000050: c1fb 70bc dc62 19bd 7d19 7dbc 034a 4fbc
00000060: cf7a fdbc 1ff5 8f3c aa5c 17bd 18d3 453c
00000070: 9170 c8bc 964b 0b3d 0939 c0bb 076a ffbc
00000080: 046c 9cbc bff4 aa3c cd69 ab3c 0a31 ef3c
00000090: b590 88bc ba5b 8b3b 0070 053d f476 cd3c
0.033901952 0.04811703 0.02088672 0.010217939 0.0056472663 -0.026360234 0.0007625267 -0.028667696
0.03833066 -0.048441123 -0.03387445 0.0010935701 -0.01584519 0.015069621 0.0035104628 -0.056670796
-0.003737516 0.017928151 -0.010106158 -0.027656022 -0.01470846 -0.037447795 -0.015447971 -0.012651923
-0.030942349 0.017572938 -0.036953606 0.012074254 -0.024467738 0.03400763 -0.005866174 -0.031178487
-0.019094475 0.020868657 0.020924473 0.029198188 -0.016670564 0.004252878 0.032577515 0.025081135

conv_time_spat.conv_spat.weight f4 [40, 40, 1, 22]
00000000: 53d0 ce3c aeee 413b 0478 53bd ae85 22bc
00000010: 90ec 6dbd 8a62 52bd fbec edbc 63a4 9bbb
00000020: 89dc 1cbd 8fd6 c7bd 0f03 8f3d 8c26 f03a
00000030: 0a0c a5bc 2e8e f03c bfa4 aabb 69e3 7fbd
00000040: 8e03 9c3d 817a d53c 57ae c83c 396f 95bb
00000050: 7974 443d 856a 4ebc f603 bfbd 3d81 69bd
00000060: ce69 f33c 7a91 183d 3e52 edbc 34a1 03be
00000070: b298 8ebd ff0c 26bd cae9 f13a df55 a93d
00000080: 7e92 ae3d 2d3e 203d 6cb6 f4bd 5a30 753d
00000090: e0d2 b33c 2aed 653d 664b 783d a748 90bd
000000a0: 196e bd3c bab7 333c 622f 3fbd 824a 95ba
000000b0: e005 b83d bb7e 05bd 3a3c 47bc ee20 823c
000000c0: 9e21 ca3a ab4b dd3d f7d8 8a3d 894d a3bc
000000d0: 7f82 77bd 2b1d 8d3c 7268 57bc dee0 89bd
000000e0: 47e4 34bd 4d97 1d3d e444 22bc 19ef 00bd
000000f0: 5fc3 6fbd 5931 103d 4b32 18bd b487 ccbc
00000100: 5bdc 44bc 5333 f1bd 2b4c 52bd 4021 08bd
00000110: c615 c1bc 4387 543d 8f0a 823d 43b4 f53d
00000120: 8521 35bd bba7 9ebc def2 90bc 8582 023e
00000130: 63af 023c d294 c43c f023 f63c 11f5 42bd
00000140: 4297 0bbd 2cb4 093c edf0 67bc 9714 2ebd
00000150: 6144 e3ba 3463 69bd 267d 84bd bfb6 933d
00000160: b385 d43c 1f22 c3bd 6d3a 153d 8c78 09ba
00000170: 3828 553c 3e58 b7bd 9631 4f3c 06b3 29bd
00000180: 2b81 84bd 876c 8cbd 5508 2e3d d1fa 373c
00000190: 48fd afbd 83f2 433c 5018 d83c c172 6e3c
000001a0: bdb3 823d df28 ef3a df9b 8b3a e532 b43d
000001b0: 8004 ac3d 503d 123d 17ec 893c 8e47 81bc
000001c0: 7ee6 35bc e613 843d 7e31 a63c 9293 073c
000001d0: bb17 743d c5e7 cfbc da41 bb3c 5117 e8bd
000001e0: 176f 3a3d 237a 80bd e757 55bc eff6 92bd
000001f0: 5abe 68bd 0b05 9cbb bac2 28bc 2360 823d
00000200: 825c 7bbd 9ee3 f73b 198e d63d 6fae 053d
00000210: 1cd2 55bd 662a a63d 023c ab3d 27a6 75bd
00000220: 08d7 86bd 9ac6 0fbe 39b9 30bd b5f9 c93d
00000230: 0a52 943c 60e3 80bd 8a70 69bd 90e0 7fbd
00000240: d616 103d 5411 663c 8a22 273d 9a05 04bc
00000250: 7376 b1bc e58a e5bc f850 53ba 960d 833c
00000260: 0d95 9bbd 18be 89bc 2071 0bbd 04f0 9d3d
00000270: 03ad 253d 9514 723c c24d 9ebb d20a e3bd
00000280: 0bf2 163c 830e d73c 02f5 d33d aeaf 9c3d
00000290: e8dc 90bb 80d4 ff3c 6bd3 7ebc 9b67 c6bb
000002a0: 1025 353d b785 df3c 68b1 703b 5d4e 8fbd
000002b0: 43a2 cc3d f9c5 653a 97ef 18be d049 853d
000002c0: 6f8e d6bd 270c bebc 0691 6fbd 8448 59b9
000002d0: be13 283c b703 b43d b8e3 5f3c d147 eebc
000002e0: 9603 10bd 0eaa cc3c 36b6 42bc 4fe8 4eba
000002f0: bd2d 21bc 5dab d43c 18a7 393d 863f fcbb
00000300: c040 49bc 6b05 68bb 93c0 a2bd 0332 643d
00000310: 31e4 17bd 5717 04be e9c2 bdbd 3d76 2ebd
00000320: 5d6f 4c3c 14a6 df3c 3432 ee3c f35c 29bb
00000330: d074 02bd 6136 44bd 6284 893c 812d fe3c
00000340: a6dd 213c a93a 773d 18e5 253d 9b84 e4bc
00000350: 1b55 f1bc af1e a63d c46f d2bb c275 6dbd
00000360: d28c 4a3c 7fe0 5c3d 8b25 4ebd c636 8f3d
00000370: cd68 b53d 5c67 01bd cbb9 153d d562 62bd
00000380: 670c 35bd ba87 fd3c 80ca 123c 4d30 a23d
00000390: cb5c b83c a642 47bd ade7 9ebb 8b18 55bc
000003a0: 3cf2 a3bd 5dce 903d f42f 51bc e338 343d
000003b0: c532 70bd 8d9a 5f3d 021c cbbc a4a6 c93c
000003c0: 5c83 133d 4c78 fb3c c714 90bb 89e9 15bb
000003d0: 7d2d a0bc 5837 17bd ea15 d13c bbca 713c
000003e0: 6ee4 853d 337f 913c d9f3 59bd 5862 e5bd
000003f0: 4139 63bd 96e4 32bd 8489 39bd ccf5 22bd
0.025245821 0.0029591727 -0.051628128 -0.009919567 -0.05808693 -0.051363505 -0.029043665 -0.004749821
-0.038296256 -0.09757721 0.06983005 0.0018322035 -0.020147342 0.029364672 -0.0052076275 -0.062472735
0.076178655 0.026059391 0.024497194 -0.004560378 0.04796264 -0.012598638 -0.09326927 -0.057008017
0.029713538 0.037248112 -0.02896988 -0.12854463 -0.06962718 -0.040539738 0.0018456515 0.08268332
0.08524035 0.039121795 -0.11948857 0.059860565 0.021951139 0.05613438 0.06061878 -0.07045107
0.023123788 0.010969097 -0.046676047 -0.0011390003 0.089854956 -0.032591563 -0.012160355 0.015884843
0.0015421396 0.10805448 0.06779664 -0.019934433 -0.060427185 0.017225822 -0.01314746 -0.06732343
-0.044163015 0.03847437 -0.00990412 -0.03147802 -0.05853593 0.03520331 -0.037157338 -0.024967052
-0.012015427 -0.117773674 -0.05134217 -0.033234835 -0.023569953 0.051886808 0.0634967 0.11997273
-0.04422142 -0.01936709 -0.017693933 0.12745102 0.007976386 0.023996744 0.030046433 -0.047596995
-0.034079798 0.008404773 -0.014156562 -0.042500105 -0.0017339104 -0.056979373 -0.06469183 0.072125904
0.025942659 -0.095279925 0.036432672 -0.0005244098 0.013010077 -0.08952378 0.0126461 -0.041430496
-0.06469949 -0.068566374 0.042488415 0.011229233 -0.085932314 0.011959675 0.02637878 0.014553727
0.063819386 0.0018246433 0.0010651312 0.0879877 0.08399296 0.035703003 0.01683621 -0.01578119
-0.011102317 0.06449108 0.020287272 0.00827493 0.059592944 -0.025379071 0.022858549 -0.11332572
0.0455161 -0.06273296 -0.013021446 -0.07176005 -0.05682216 -0.0047613434 -0.010300333 0.06365993
-0.06136752 0.007564976 0.10476322 0.032637056 -0.05220233 0.081135556 0.08361055 -0.05997291
-0.06583983 -0.14040604 -0.043145392 0.09862081 0.018105526 -0.06293368 -0.05699209 -0.06247002
0.035178028 0.014042217 0.040804423 -0.008057976 -0.021662926 -0.028020332 -0.00080610765 0.01599769
-0.075967886 -0.016814277 -0.03404343 0.07711795 0.0404482 0.014775415 -0.004831047 -0.11086048
0.009212981 0.026252037 0.10349466 0.07650696 -0.0044208653 0.031229258 -0.015553336 -0.006054831
0.0442248 0.02728544 0.0036726836 -0.069973685 0.099918865 0.0008765157 -0.14935146 0.06508219
-0.10476386 -0.023199154 -0.058487915 -0.00020721747 0.010258613 0.08789771 0.013665132 -0.02908698
-0.03515967 0.024983432 -0.011884263 -0.0007892893 -0.009837565 0.025960619 0.04532537 -0.0076980023
-0.012283504 -0.003540362 -0.07946887 0.055711757 -0.037082855 -0.12899528 -0.09265692 -0.04259323
0.012477723 0.027300872 0.029076673 -0.0025842756 -0.031849682 -0.047903422 0.016786758 0.031027557
0.009879505 0.060358677 0.040501684 -0.027895262 -0.029459527 0.08111321 -0.006422015 -0.05797363
0.012362676 0.053925034 -0.050328773 0.06992869 0.0885788 -0.03159271 0.03655414 -0.055270035
-0.04420128 0.030948509 0.008959413 0.07919369 0.022505185 -0.048647545 -0.0048493952 -0.01300634
-0.08005187 0.07070611 -0.012767781 0.043999564 -0.058642168 0.05459075 -0.024793629 0.024615593
0.036013946 0.03069701 -0.004397008 -0.0022874794 -0.01955294 -0.036918014 0.025523145 0.014757807
0.0653771 0.017760849 -0.053211067 -0.11200398 -0.055474523 -0.043675028 -0.04529716 -0.03978519

bnorm.weight f4 [40]
00000000: 45ed 863f 877a 853f a1d2 853f 8fff 8a3f
00000010: ea39 853f 3067 843f 8d82 8a3f dee3 853f
00000020: fc96 833f 8f6f 853f 3a45 853f d619 843f
00000030: f358 853f 9ed6 813f d99e 843f 3694 843f
00000040: 04cf 873f 6115 873f ad63 883f 3aa9 863f
00000050: 797a 873f 86d5 833f 3db8 843f c529 853f
00000060: 2934 8a3f 40ec 863f f07e 8d3f b88b 863f
00000070: c14d 853f 1574 853f bfbe 813f 9cd7 823f
00000080: 5070 813f 15a5 853f 73d9 863f 8797 853f
00000090: cbc8 843f 7c51 843f e3d0 853f 3174 823f
1.0541159 1.0428017 1.0454904 1.085924 1.0408299 1.034399 1.0821091 1.0460165
1.0280452 1.042467 1.0411751 1.0320385 1.041777 1.0143621 1.0360976 1.035773
1.0610051 1.0553399 1.0655419 1.0520394 1.0584251 1.0299537 1.0368725 1.0403372
1.0797168 1.0540848 1.1054363 1.0511389 1.0414354 1.042605 1.0136336 1.0222049
1.01124 1.0441004 1.053511 1.0436867 1.0373777 1.0337367 1.0454372 1.0191709

bnorm.bias f4 [40]
00000000: c9a8 293e ae20 98bd 31ce d8bd da23 d53d
00000010: 369c 1c3e fc52 5e3d e423 083e 28f4 3bbd
00000020: 43cb 073e b9d3 a3bb 5dc2 2ebe bbde 5cbd
00000030: 7ebf be3c 6c20 66be e3f2 fd3d 161b 073e
00000040: 934a cdbd a100 e43d b655 07be 6411 1b3d
00000050: dae0 c2bd 190a 523b 4df1 de3c 76d8 e03c
00000060: b7c4 a93d 0578 003d 2100 b33d 3eaa 9e3d
00000070: 0cd0 64bb 9509 28bd fc66 febd fc4f fd3d
00000080: 3edd 463e b934 dd3c 760f d7bd 1640 753d
00000090: 6012 b3bd 4a46 26be e99b 06be 9a84 f3bd
0.16568293 -0.07428108 -0.10586203 0.10407229 0.15293965 0.05427836 0.13294941 -0.045887142
0.13261132 -0.0049996045 -0.17066331 -0.05392335 0.02328467 -0.22473305 0.123998426 0.13193926
-0.100239895 0.111329325 -0.1321629 0.037858382 -0.09515543 0.0032049476 0.02721467 0.027446967
0.082894735 0.03136446 0.08740259 0.07747315 -0.0034914045 -0.041024763 -0.124219865 0.123687714
0.19420335 0.02700268 -0.10500996 0.05987557 -0.08743739 -0.1623775 -0.13145413 -0.11890526

bnorm.running_mean f4 [40]
00000000: d0fe 8fbd 8047 913d e0cb 30bc 4a5c 133b
00000010: 46d5 6e3c 719b 89bc 7d1b 333b 54ac 883d
00000020: ab36 bbbc dace 7d3c dbaa 0c3d afba 94bd
00000030: 9ea9 0fbd 7b0a d33d 2f01 d4bb 4dab 193d
00000040: f215 a33c 702b 2c3c 2ae9 913c 709b d83b
00000050: e340 a2bc 1921 ffbb 2203 81bd d556 cdbd
00000060: 453b 913b 8cf8 4ebd 3a19 823c 60cd 623d
00000070: 5f50 0e3d b2f0 883d 04c3 a8bc fb63 07bd
00000080: daa4 6abd 84ae 833c 6175 04bd 3b60 fb3c
00000090: 151e 12bd 4b0c 3e3d e4d5 863c ddd2 d33d
-0.070310235 0.07093716 -0.010790795 0.0022485428 0.014577216 -0.016797753 0.0027329617 0.06673494
-0.022853216 0.015491212 0.034342628 -0.072621696 -0.03507387 0.10304733 -0.0064698677 0.03751688
0.019907925 0.010508403 0.017811377 0.0066103265 -0.019806331 -0.007785928 -0.06299426 -0.100263275
0.0044321143 -0.05053 0.01588117 0.055371642 0.034744617 0.06686534 -0.020600803 -0.033054333
-0.05728612 0.016074426 -0.032338504 0.030685535 -0.03567322 0.046398442 0.016459413 0.10342953

bnorm.running_var f4 [40]
00000000: 3da5 e13e eb68 d63e 9150 7e3e 4f82 163f
00000010: 0e3b 1b3f c253 9c3e 0797 5f3e 7dbc b13e
00000020: e7ae ef3e c76a ae3e 7ea1 dd3e 3a77 243f
00000030: 4f72 af3e c7eb 133f d3f6 823e 7181 f33e
00000040: 97cd e83e 0b37 453e edde c93e e84f 893e
00000050: e8af b43e 7511 df3e c5d6 e23e 4a8f c93e
00000060: 9b33 3d3e 184a bb3e 27db 853e fd80 9d3e
00000070: 9619 bd3e 0029 8e3e bc6b 113f 49c0 da3e
00000080: 1fba bc3e e71c f63e b845 ec3e c812 a53e
00000090: 2290 da3e 244e b93e 323c 3b3e c279 ab3e
0.4407138 0.4187692 0.24835421 0.58792585 0.60636985 0.30532652 0.21834956 0.34714118
0.46813127 0.3406584 0.4328727 0.64244425 0.34266898 0.5778164 0.25578937 0.47559693
0.45469353 0.19259278 0.3942789 0.26818776 0.35290456 0.43568006 0.4430448 0.39367133
0.18476717 0.36579967 0.26143762 0.30762473 0.36933583 0.27765656 0.56805015 0.42724827
0.3686075 0.48068926 0.4614694 0.3224089 0.4268809 0.3619243 0.18284681 0.3349133

final_layer.conv_classifier.weight f4 [4, 40, 69, 1]
00000000: 6087 98bb 6264 123c 4248 a43d 3d7d 8e3d
00000010: 09ec 333d a950 513c 8c59 513d b6c8 4fbb
00000020: 4be5 783b 0f81 14bd 31e9 50bd 2275 3cbd
00000030: da95 0bbd d799 84bc e069 8eb8 51bc 583c
00000040: f711 1abc 0af4 a6bd 2ef8 a1bd 670a 95bd
00000050: f612 9ebd 9286 a5bd ce86 62bd f626 53bd
00000060: 8027 f7bc 6df3 42bd 3bf9 b2bc 77dc 42bd
00000070: 2283 2ebd c597 6dbd 671a f8bc 8d31 cfbc
00000080: 52c5 323d 3ae5 7d3d 56ea 4a3d b9cd 3e3d
00000090: 17d4 5fbc 401b d13c 5ea6 b23c bb95 153d
000000a0: bc1a febc bfc4 513d 7aed 7cbc 86a0 7f3d
000000b0: ec49 f2bb fb5d f0bb a1fd 793c 3938 4abb
000000c0: 2bbd 08bd eaee 8cbc e521 533c 0d88 593d
000000d0: 7a50 693d 44c3 413d 4a06 9a3d e584 713d
000000e0: 68f3 453d 7a29 a13d 9af7 a03d a0ef 9a3c
000000f0: a8d6 8d3c f9af f1bc 7f69 623c 40a7 34bd
00000100: 82b7 2d3c 41a5 b53a bf90 2f3d 5fc6 1dbd
00000110: 3f9e c3bc 3c1e afba 2b77 123d 1fe3 183d
00000120: bb58 193d 36e2 a23c 82ce 26bc c388 debc
00000130: 1678 23bd 0dc2 87bd d428 b1bc 92d1 b1bc
00000140: c461 16bc 69aa 27bd 967e 75bd 5813 44bd
00000150: e116 d6bd e0b9 a8bd 2c2d 77bd 3b06 05bd
00000160: 54d6 58bc 4472 cf3c 28f7 443c 676e d2bc
00000170: a846 10bd 118d 6cbd 78d2 3ebc 4fa2 a6bd
00000180: c580 4abd 09f2 92bd 2a52 93bc 4b77 a7bd
00000190: 888b e63b 4f14 59bd 512c bdbd a499 a0bd
000001a0: 5dc5 a0bb 66cf afbc 1f8c bebc 4f1a 953a
000001b0: 98b5 fc3c f08c 113c 31d2 b23b c6b1 4dbc
000001c0: 40f2 14ba cc3e 36bd f5b8 a2bc ac21 b63c
000001d0: 543f 5d3d bc6b a73d 58a8 433d b1d2 d53c
000001e0: 05ca 8abb 8028 3bbd 8028 64bd 31ab c6bc
000001f0: 7c66 a7bc cea7 debc 9383 20bc 041c 383b
00000200: bc7f a73c 8299 6cbb b28f 13bc 39ef 39bb
00000210: 9cd3 b23c 4e61 073d 4d52 36bc 2086 c03c
00000220: 8746 ce3a 9adb e63b d30d 413c 4619 2e3d
00000230: b0ce 683d 04b8 9d3d d68d 1ebc 4cdc 7dbc
00000240: d4b4 88bd 2760 a53c 6301 4e3d 7d9e 0f3d
00000250: 1037 013d 9a4d a53d 5c9e a43c 8f2e 49bd
00000260: ddc8 8bbd ddf6 86bd 046b e0bd 187e dbbd
00000270: ed6f a0bd ca4c a9bc f356 dbbb c4de 49bc
00000280: ac2e d1bc 96e0 9bbd f9c3 70bd a916 d5bd
00000290: cd2d a1bd f442 09bd a50e de3b 6970 573d
000002a0: e16c 713d 47ce 9d3d 151f 2e3d 246e 2f3d
000002b0: 641d 78b9 2e88 753d 39ab 933d 3c16 e33d
000002c0: 109f a13d 0a13 0a3d 5799 2b3d d189 1f3d
000002d0: 11ba 073c 6f7d 813c ca00 ed3c 0a31 9c3d
000002e0: b966 973d 52fe b73d 50e0 903d 7570 653d
000002f0: 9dfb d33d 1954 a13d d3f1 6d3d 3a88 af3d
00000300: 1f4d bc3d e3ee 753d 1314 b83c ba41 703d
00000310: 2c86 bb3d 8e11 283d 722c 3c3d 6210 c03d
00000320: 354e 283d 16a5 043d 730d 013e 3d0f fd3d
00000330: 71d7 f53d 71a0 e63d e8ab ab3d 7cfc 8e3c
00000340: 35b9 873c 5413 c8bb 8f8b 9cbc d209 45bd
00000350: 429a bb3a bfa3 90bc eceb 9cbc c2b5 393d
00000360: ef48 803b dc36 26bd dff0 92bc 6726 133d
00000370: 2b8c 073d 8607 2e3d 9755 103d 1373 813c
00000380: 57b6 1dbc c505 2abd 3000 fabb 55ab 3b3d
00000390: 0764 e73c f677 603d 48ee 8c3d b21c a33c
000003a0: ab04 953d e59b 5d3d 9c83 b53c 4aea f63c
000003b0: 041a 9f3d b216 3c3d b5c2 aa3d ffe6 5f3d
000003c0: 82a1 383d 5445 363d 023f 7b3d d4d3 2f3d
000003d0: 1660 3d3d df45 053d 17fd 0d3d 07bf a83d
000003e0: 78e5 923d 1a7b 993d 8765 463d 2e22 ffbb
000003f0: 9ed7 8bbc 5a73 8c3d b273 2c3d e0e3 3a3d
-0.00465481 0.008935066 0.080215946 0.06957481 0.043926273 0.012775579 0.05111079 -0.0031705326
0.0037978466 -0.036255892 -0.05100364 -0.046010144 -0.034078456 -0.016186638 -6.7908084e-05 0.013228492
-0.009403697 -0.081520155 -0.07908665 -0.07277375 -0.0771846 -0.08082308 -0.05530434 -0.051550828
-0.030170202 -0.04759543 -0.021847358 -0.047573533 -0.042605527 -0.058006067 -0.030286027 -0.025292182
0.04364521 0.061986186 0.049539886 0.04658291 -0.013661406 0.02552569 0.021807846 0.036519747
-0.031018607 0.051213022 -0.015437478 0.062408946 -0.007394066 -0.007335422 0.015258224 -0.0030856265
-0.03338353 -0.017203767 0.012886499 0.053108264 0.056961514 0.04730536 0.07520731 0.05896463
0.048327833 0.07869239 0.07859726 0.01891309 0.01731427 -0.029502856 0.013819098 -0.044104815
0.010602834 0.0013858454 0.04286265 -0.03851926 -0.023879169 -0.0013360451 0.03575818 0.037325975
0.037438136 0.019883256 -0.010181071 -0.027164822 -0.039909445 -0.06628809 -0.021625914 -0.021706376
-0.009178583 -0.040934 -0.059935175 -0.04787001 -0.104535826 -0.08238578 -0.060345814 -0.032476645
-0.013234694 0.02532304 0.012021817 -0.02568741 -0.035223633 -0.05775172 -0.011646859 -0.08136427
-0.04943921 -0.07175071 -0.017983515 -0.0817705 0.0070356764 -0.052997883 -0.09236968 -0.078418046
-0.00490634 -0.0214612 -0.023260174 0.0011375638 0.03084831 0.0088837 0.0054571857 -0.0125545915
-0.000568185 -0.04449348 -0.019863585 0.022232853 0.054015473 0.081748456 0.047767967 0.026101442
-0.0042355084 -0.04569292 -0.055702686 -0.024251552 -0.02043461 -0.027179625 -0.009796995 0.002809287
0.02044665 -0.003610224 -0.009006428 -0.0028371348 0.021829419 0.03305178 -0.0111280205 0.023501456
0.0015737572 0.0070452215 0.011783081 0.04250457 0.056837738 0.07701114 -0.009677371 -0.015494417
-0.06675115 0.02018745 0.05029429 0.035063256 0.031546652 0.08071442 0.020095043 -0.049116667
-0.06825421 -0.06590054 -0.109579116 -0.1071741 -0.07833848 -0.020666499 -0.0066937148 -0.012321178
-0.02553495 -0.07611196 -0.058780644 -0.10404713 -0.07870064 -0.033511117 0.006776648 0.052597437
0.058941726 0.0770536 0.04251011 0.042829648 -0.00023662072 0.059944324 0.072103925 0.11088225
0.07891667 0.033709563 0.041894283 0.03894979 0.008284108 0.015806882 0.02893104 0.07626541
0.0739264 0.089840546 0.07074034 0.05601545 0.10350726 0.078773685 0.05809195 0.08570905
0.09194397 0.060042273 0.02247051 0.05865643 0.09156451 0.041032366 0.045940824 0.09378125
0.04109021 0.032384 0.12602787 0.12356422 0.12003983 0.112610705 0.08382398 0.017454378
0.016567806 -0.0061058197 -0.019109515 -0.04810507 0.001431294 -0.017656205 -0.019155465 0.045339353
0.0039149444 -0.04057966 -0.017937122 0.035925295 0.03309266 0.042487644 0.035237875 0.015801942
-0.009625993 -0.04150941 -0.007629417 0.04581769 0.028245939 0.054801904 0.06881386 0.019911144
0.07276281 0.05410375 0.022157483 0.030141015 0.07768634 0.04592008 0.08337919 0.054663654
0.0450759 0.04449971 0.061339386 0.042926624 0.046234213 0.032537337 0.034665193 0.082395606
0.07172674 0.07494183 0.048436668 -0.007786057 -0.017070588 0.06857939 0.042102523 0.045627475

final_layer.conv_classifier.bias f4 [4]
00000000: d541 a23c 03d5 39bc fcf3 93bc 5e71 083c
0.019806782 -0.01134229 -0.018060677 0.00832781
