result_eeginception_cv5/fold_1/best_model_fold1.pth (torch, 92196 bytes, 60 tensors)

inception_block_1.branches.0.0.weight f4 [8, 1, 1, 64]
-0.10351132 -0.005590528 -0.15515886 -0.032508392 -0.010079881 -0.06905032 0.063203886 0.042159777
0.051362015 0.1327244 0.0027735992 -0.025357025 0.031662073 -0.0028547046 -0.009798019 -0.04104174
-0.06966455 -0.030427959 -0.056148373 -0.077924006 -0.08021008 0.032371473 0.01817334 -0.07441473
-0.093114726 0.008385153 -0.031755734 0.0031311593 -0.0600629 0.008875179 0.04780447 0.02314398
0.06631022 -0.0002980839 -0.023130553 -0.0438915 -0.050021987 0.02533164 0.03927909 -0.10464366
-0.09753798 -0.059225537 -0.016154137 -0.12931687 0.013374539 -0.10263413 -0.021050071 -0.002640068
0.051516585 -0.040864564 0.075213484 0.011451349 0.087180614 0.029960271 0.09141614 -0.032882165
-0.07440795 -0.04363721 -0.12406602 -0.09431195 -0.14636736 0.045023717 -0.077078514 0.038038153
0.054768857 -0.024171684 0.014305564 -0.041311752 0.06314654 0.050921403 0.045165904 0.011365551
0.17620432 0.10807438 0.03395104 0.06424651 -0.016296465 0.051901 0.023875715 -0.06274522
-0.05655401 -0.06320468 -0.061520737 0.0581934 -0.05882001 0.10603364 0.02369504 0.09629317
0.13746428 0.05919215 -0.04909798 0.0890288 0.0900221 -0.090806246 0.038571965 0.07539755
0.09189464 0.07127678 0.020885708 0.06753089 0.031774033 0.03721595 -0.06416024 0.09759035
-0.089839034 0.022176119 0.0044853855 -0.07383856 0.037075765 0.07264941 0.050371833 0.066477545
0.19202694 0.12849852 0.030720314 0.023511453 0.026935933 0.05760719 0.040046327 0.013758903
-0.041185614 0.012030983 -0.06946396 0.040714197 -0.011066094 -0.026042774 0.007864608 0.12813479
0.08128078 0.057004005 0.13823998 -0.004917792 0.13348684 0.09325349 0.032016426 0.094026364
0.08341864 -0.023357205 0.15128957 -0.011894877 0.09846374 0.05336386 -0.090058655 -0.06909317
-0.016015356 -0.027306039 -0.060843892 -0.009663191 -0.05278465 0.08010974 0.004668822 -0.009286983
-0.027876401 0.016296104 0.011552296 -0.08270188 0.09306923 -0.112070896 0.065472886 0.0075133364
0.007928665 -0.12111976 -0.058574654 0.0034257525 0.03497829 -0.0734934 -0.0018780046 -0.093011186
0.038613457 -0.0034059691 -0.048190072 -0.01290233 0.05427176 0.047296863 -0.08139321 -0.077461325
-0.06929993 -0.01990243 0.041164413 -0.049975637 -0.017371811 0.026570061 -0.09626575 -0.08257664
0.0057500526 -0.08877529 -0.022577787 -0.04135238 0.021375246 0.037800435 -0.005415875 0.07008897
0.15794635 0.116531976 0.054231882 -0.03683002 -0.005210538 0.036427718 0.07457522 -0.008611289
-0.08370199 0.039296176 0.060700342 -0.101898156 0.06629887 0.009510962 0.045102183 0.02910705
0.056124054 0.026824614 0.06353301 0.10200241 0.08797117 0.035427004 0.11386003 0.0834582
-0.0029764678 0.09886556 0.02080878 0.008954872 0.0827629 -0.07335169 0.0006382664 0.06758812
0.07651222 -0.019166123 0.06955974 0.047293205 0.00049751974 0.120028175 0.063556254 0.06754106
0.032577176 0.13404827 -0.0040479815 0.12671977 0.007992461 0.12894276 -0.05077994 0.134597
0.056941617 -0.037013173 0.088197626 -0.034478705 0.089309916 0.019694975 -0.047244392 0.08306274
-0.053316858 -0.022367435 0.10121563 0.05785132 -0.02445362 0.07974876 0.13227393 0.100083694
00000000: befd d3bd bf30 b7bb f7e1 1ebe 8527 05bd
00000010: 1626 25bc 416a 8dbd 0a71 813d bbaf 2c3d
00000020: fa60 523d e8e8 073e 46c5 353b 89b9 cfbc
00000030: 17b0 013d ff15 3bbb df87 20bc 621b 28bd
00000040: 4aac 8ebd 0e44 f9bc d6fb 65bd 9f96 9fbd
00000050: 2f45 a4bd f397 043d 42e0 943c c066 98bd
00000060: efb2 bebd e161 093c 4d12 02bd 2334 4d3b
00000070: 8404 76bd 3369 113c 9fce 433d 7298 bd3c
00000080: a7cd 873d 2548 9cb9 497c bdbc 93c7 33bd
00000090: dbe3 4cbd 4d84 cf3c 1ce3 203d 6a4f d6bd
000000a0: fec1 c7bd 7a96 72bd ae55 84bc a46b 04be
000000b0: e220 5b3c d831 d2bd 3371 acbc fe04 2dbb
000000c0: 0e03 533d 9a61 27bd 8709 9a3d 709e 3b3c
000000d0: c08b b23d 3e6f f53c 6338 bb3d 73af 06bd
000000e0: 3263 98bd eebc 32bd 5316 febd a026 c1bd
000000f0: 53e1 15be ca6a 383d 57db 9dbd e5cd 1b3d
00000100: 4f55 603d b203 c6bc e261 6a3c 8336 29bd
00000110: f952 813d f692 503d e2ff 383d 9336 3a3c
00000120: e86e 343e 1a56 dd3d 3f10 0b3d ad93 833d
00000130: 2a80 85bc 2596 543d 0197 c33c 9180 80bd
00000140: 2da5 67bd 7571 81bd 2bfd 7bbd 345c 6e3d
00000150: 40ed 70bd 2a28 d93d 1a1c c23c 5a35 c53d
00000160: 70c3 0c3e 7873 723d f71a 49bd bb54 b63d
00000170: 825d b83d a0f8 b9bd a3fd 1d3d 086a 9a3d
00000180: 4233 bc3d 8ff9 913d 8118 ab3c a34d 8a3d
00000190: 7d25 023d c16f 183d 7266 83bd 73dd c73d
000001a0: 87fd b7bd b1aa b53c 24fa 923b ac38 97bd
000001b0: c2dc 173d 37c9 943d b252 4e3d 6125 883d
000001c0: b6a2 443e 1e95 033e 2ba9 fb3c 179b c03c
000001d0: bfa8 dc3c 84f5 6b3d 9e07 243d 066d 613c
000001e0: 3fb2 28bd 9a1d 453c 1f43 8ebd eec3 263d
000001f0: 904e 35bc a857 d5bc 8fda 003c c435 033e
00000200: 8a76 a63d 087d 693d c88e 0d3e 6e25 a1bb
00000210: c6b0 083e b0fb be3d a823 033d e590 c03d
00000220: 64d7 aa3d 9c57 bfbc a7eb 1a3e bbe2 42bc
00000230: 5ba7 c93d 1094 5a3d ac70 b8bd b880 8dbd
00000240: a332 83bc eab0 dfbc 7237 79bd 5c52 1ebc
00000250: b834 58bd 9310 a43d ebfc 983b 6e28 18bc
00000260: 0d5d e4bc 687f 853c d745 3d3c 9a5f a9bd
00000270: 159b be3d 6d85 e5bd a616 863d 6f32 f63b
00000280: 3be7 013c a30d f8bd faeb 6fbd 9782 603b
00000290: 6545 0f3d b583 96bd 6127 f6ba a67c bebd
000002a0: 2529 1e3d ae36 5fbb f462 45bd 4b64 53bc
000002b0: 114c 5e3d 5bba 413d 7cb1 a6bd 0ba4 9ebd
000002c0: 1fed 8dbd 6c0a a3bc 049c 283d 41b3 4cbd
000002d0: 544f 8ebc 75a9 d93c fa26 c5bd f11d a9bd
000002e0: f06a bc3b d2cf b5bd 0df5 b8bc 1d61 29bd
000002f0: 241b af3c a1d4 1a3d a777 b1bb ce8a 8f3d
00000300: b0bc 213e 51a8 ee3d 4022 5e3d 13db 16bd
00000310: 29bd aabb 3b35 153d e5ba 983d 5d16 0dbc
00000320: f36b abbd 07f5 203d eca0 783d fbaf d0bd
00000330: b4c7 873d ded3 1b3c 11bd 383d e871 ee3c
00000340: 56e2 653d 4bbf db3c 981d 823d a4e6 d03d
00000350: 3b2a b43d e81b 113d 732f e93d 22ec aa3d
00000360: d810 43bb 077a ca3d 2d77 aa3c 75b7 123c
00000370: 987f a93d 6939 96bd 5551 273a a46b 8a3d
00000380: 70b2 9c3d 4602 9dbc 5675 8e3d 85b6 413d
00000390: fc6b 023a 55d1 f53d c829 823d f852 8a3d
000003a0: a56f 053d f343 093e eea4 84bb d4c2 013e
000003b0: d0f2 023c 9209 043e a0fe 4fbd ccd3 093e
000003c0: 9d3b 693d 209b 17bd f5a0 b43d 8b39 0dbd
000003d0: 1ee8 b63d 5b57 a13c 5683 41bd cc1c aa3d
000003e0: c762 5abd e93b b7bc 244a cf3d 81f5 6c3d
000003f0: f552 c8bc 5153 a33d d172 073e aef8 cc3d

inception_block_1.branches.0.0.bias f4 [8]
0.011232354 -0.003483013 -0.0698876 -0.009993754 -0.022313545 -0.018521652 0.058429446 -0.008731258
00000000: e807 383c 4343 64bb 3b21 8fbd d8bc 23bc
00000010: e5ca b6bc b8ba 97bc b753 6f3d 8d0d 0fbc

inception_block_1.branches.0.1.weight f4 [8]
1.1177257 1.4799865 0.998349 1.5053613 1.0338163 1.2890539 0.9132924 1.036967
00000000: a311 8f3f 3370 bd3f cd93 7f3f aeaf c03f
00000010: 1854 843f b8ff a43f 88cd 693f 56bb 843f

inception_block_1.branches.0.1.bias f4 [8]
-0.18635195 -0.24552502 -0.08791537 -0.22357582 -0.2326396 -0.18014471 0.014020079 -0.2292571
00000000: 0cd3 3ebe e96a 7bbe f90c b4bd 0ff1 64be
00000010: 1339 6ebe db77 38be 79b4 653c 60c2 6abe

inception_block_1.branches.0.1.running_mean f4 [8]
-0.17655662 0.28897214 -0.07045997 0.39861465 0.15730312 0.29751974 0.20969324 -0.05068945
00000000: 42cb 34be 28f4 933e 514d 90bd 3817 cc3e
00000010: 1214 213e 8254 983e d3b9 563e be9f 4fbd

inception_block_1.branches.0.1.running_var f4 [8]
0.28871325 0.26542062 0.29208508 0.18865804 0.29873425 0.44630465 0.24348213 0.74925053
00000000: 39d2 933e 36e5 873e 2d8c 953e 932f 413e
00000010: b2f3 983e 0b82 e43e 6153 793e e2ce 3f3f

inception_block_1.branches.0.4.weight f4 [16, 1, 22, 1]
-0.12220641 -0.055509575 -0.10762433 -0.14591822 -0.023492206 -0.031616487 -0.0640143 -0.12865882
-0.089584894 0.040516876 0.04492283 0.06107978 -0.052147407 -0.037776418 -0.004816229 0.081220746
0.14366186 0.18179235 0.0050121658 0.041928343 0.07454309 0.0031275374 -0.14981796 -0.0081272395
-0.053415835 -0.057741318 -0.09320251 0.0025762815 0.015542318 0.17105591 0.0047383606 -0.102666385
-0.096882336 -0.01441198 -0.041075557 0.25532588 0.02423801 -0.030636802 -0.0055065886 -0.026300918
0.085258126 -0.051889386 -0.033314016 -0.040574916 -0.117272966 -0.10418177 -0.058767047 -0.030698804
-0.0035210664 -0.050513647 -0.08051719 0.18307634 -0.03627352 -0.07875485 -0.024233915 -0.0099163735
-0.05465693 0.22640349 0.027875168 -0.040180746 0.04696799 0.059863094 0.05587384 -0.018683271
-0.013852611 -0.027771309 0.018863808 -0.008272184 0.0019706218 -0.03410618 0.014824494 -0.04516962
-0.08078221 0.12674521 -0.0033940154 -0.05944246 -0.009734537 -0.0025752727 -0.06640751 0.17577386
-0.019483456 -0.11347809 -0.08531038 0.10366154 0.07669179 -0.05988965 0.011281085 -0.08927931
0.110557035 0.119597696 -0.051397324 -0.107775435 -0.014277553 -0.08219691 0.062357906 -0.04755899
-0.122225046 0.08167064 0.065576956 0.017753927 0.02858005 -0.056757733 0.045450445 0.10864638
0.10315759 0.029244768 -0.11025374 -0.082687214 0.10694048 -0.17107488 0.12976572 0.13098589
0.10163998 0.029385796 0.0013767739 0.108246796 0.10867686 0.055890948 0.03118328 -0.06800803
-0.040466454 -0.10644213 -0.0624051 -0.031176284 0.026373442 -0.035308924 -0.08231749 -0.12256704
-0.01850471 0.06859675 -0.048917882 0.12698056 0.040095523 0.02854221 0.07369438 0.1134913
0.06085826 0.0032725395 -0.12234136 0.11726525 -0.06355678 0.0034928552 -0.043713916 -0.051047746
-0.03155467 0.16643693 -0.046794437 -0.13847205 -0.09328021 -0.019845065 -0.03862649 -0.05493217
-0.050354518 -0.10970344 0.10872008 -0.017380696 -0.03207495 0.06791113 -0.12418305 0.11564649
0.18052326 -0.08960063 0.029121447 -0.062092606 0.03147867 -0.07037558 0.17287035 -0.05775891
0.12794642 0.09607658 0.07065261 -0.07526788 -0.00434917 -0.00022876471 -0.099512495 -0.04793551
-0.11490416 -0.07437445 -0.05265077 0.045673702 0.07339446 -0.08930943 -0.13237391 -0.01617401
-0.034807045 0.063831985 0.040538643 -0.08119867 -0.021370767 0.17886738 0.062904224 -0.07219267
-0.00941199 0.03467618 0.07911326 -0.018386569 0.022343162 0.09404625 -0.04226825 -0.040213764
0.009649061 0.021234665 0.04497024 0.053550027 0.09522672 -0.06269316 0.04849115 0.06303104
-0.030951729 0.10053428 0.07636832 0.10095068 -0.007675381 -0.009035536 0.0790601 -0.019449834
-0.039557174 -0.10845675 -0.03815285 -0.24680209 -0.105118774 -0.018922646 -0.07534624 -0.083106086
-0.014169515 -0.031839862 0.18306632 -0.20190927 0.040641118 -0.0628423 -0.008142361 0.071704395
0.0440447 -0.21832153 0.03387345 0.12818329 0.038459755 -0.04109384 -0.057805512 -0.022883704
-0.0538315 0.062138695 -0.113936946 -0.10313862 -0.082995415 -0.10181029 -0.048275523 -0.07159047
-0.068984 0.026151627 -0.05424066 -0.03709559 0.023449115 0.1034233 0.049637504 -0.0047539035
00000000: 5b47 fabd 025e 63bd 256a dcbd 966b 15be
00000010: ba72 c0bc 4a80 01bd ee19 83bd 23bf 03be
00000020: 4978 b7bd 06f5 253d 0001 383d cb2e 7a3d
00000030: 8598 55bd 72bb 1abd 75d1 9dbb 1057 a63d
00000040: 181c 133e c627 3a3e 183d a43b 0ebd 2b3d
00000050: 0caa 983d 5ff7 4c3b e169 19be 1d28 05bc
00000060: 90ca 5abd 2982 6cbd f5e0 bebd d5d6 283b
00000070: 35a5 7e3c 4829 2f3e 4044 9b3b c142 d2bd
00000080: 3f6a c6bd 3a20 6cbc d83e 28bd 13ba 823e
00000090: cb8e c63c 08fa fabc 9d70 b4bb 0675 d7bc
000000a0: d09b ae3d f789 54bd 4774 08bd e231 26bd
000000b0: cf2c f0bd 405d d5bd b7b5 70bd 0f7c fbbc
000000c0: b1c1 66bb 66e7 4ebd 32e6 a4bd 5d78 3b3e
000000d0: 8b93 14bd 394a a1bd 3486 c6bc 4978 22bc
000000e0: f2df 5fbd 51d6 673e 775a e43c 9194 24bd
000000f0: 8261 403d 0133 753d f8db 643d a90d 99bc
00000100: 10f6 62bc a880 e3bc 4688 9a3c 0e88 07bc
00000110: 8c25 013b ecb2 0bbd 6fe2 723c c803 39bd
00000120: 2571 a5bd 7fc9 013e 216e 5ebb f079 73bd
00000130: 9c7d 1fbc e8c5 28bb a900 88bd 10fe 333e
00000140: c59b 9fbc 3367 e8bd 35b7 aebd 804c d43d
00000150: 9610 9d3d da4e 75bd 4dd4 383c 12d8 b6bd
00000160: ba6b e23d a3ef f43d 0086 52bd 5eb9 dcbd
00000170: 66ec 69bc db56 a8bd 016b 7f3d 37cd 42bd
00000180: 2051 fabd f042 a73d 364d 863d af70 913c
00000190: b620 ea3c cc7a 68bd 3f2a 3a3d fe81 de3d
000001a0: 4944 d33d b992 ef3c b6cc e1bd ea57 a9bd
000001b0: 9c03 db3d 412e 2fbe 4ee1 043e 2a21 063e
000001c0: 9f28 d03d 7bba f03c de74 b43a 7fb0 dd3d
000001d0: f991 de3d e8ed 643d 1474 ff3c cb47 8bbd
000001e0: 27c0 25bd 55fe d9bd 7d9c 7fbd 6865 ffbc
000001f0: 1e0d d83c 17a0 10bd 1296 a8bd 6e04 fbbd
00000200: 3197 97bc 747c 8c3d 1e5e 48bd 3107 023e
00000210: 343b 243d 5ad1 e93c 14ed 963d 206e e83d
00000220: 8346 793d 1a78 563b 1b8e fabd c328 f03d
00000230: 0f2a 82bd 63e8 643b 5d0d 33bd 7117 51bd
00000240: 783f 01bd 716e 2a3e 86ab 3fbd 9ecb 0dbe
00000250: b209 bfbd 1e92 a2bc cf36 1ebd 8e00 61bd
00000260: 8a40 4ebd 32ac e0bd a2a8 de3d f661 8ebc
00000270: 0661 03bd fe14 8b3d af53 febd 11d8 ec3d
00000280: 17db 383e 8980 b7bd 1a90 ee3c d154 7ebd
00000290: c7ef 003d 1221 90bd ed04 313e 9b94 6cbd
000002a0: 6304 033e ccc3 c43d 51b2 903d 0c26 9abd
000002b0: 7b83 8ebb 8fe0 6fb9 35cd cbbd 0658 44bd
000002c0: df52 ebbd a251 98bd 55a8 57bd 5914 3b3d
000002d0: d64f 963d dde7 b6bd 078d 07be 5b7f 84bc
000002e0: d591 0ebd 58ba 823d d90b 263d 7d4b a6bd
000002f0: bf11 afbc 0329 373e eed3 803d c0d9 93bd
00000300: bf34 1abc 9c08 0e3d 2206 a23d 6e9f 96bc
00000310: 0209 b73c 529b c03d 7921 2dbd 30b7 24bd
00000320: 1817 1e3c 52f4 ad3c b732 383d 4657 5b3d
00000330: 3a06 c33d 4565 80bd a89e 463d 6b16 813d
00000340: 7b8e fdbc ebe4 cd3d fe66 9c3d 3bbf ce3d
00000350: c381 fbbb c909 14bc 43ea a13d 4255 9fbc
00000360: b406 22bd 931e debd 2a46 1cbd b0b9 7cbe
00000370: 8348 d7bd aa03 9bbc 214f 9abd 8633 aabd
00000380: 4127 68bc 846a 02bd bd75 3b3e 4ec1 4ebe
00000390: 4d77 263d 77b3 80bd 8a67 05bc c1d9 923d
000003a0: 3768 343d ae8f 5fbe e3be 0a3d 7b42 033e
000003b0: fa87 1d3d 0452 28bd 79c5 6cbd 9b76 bbbc
000003c0: 6b7e 5cbd 2585 7e3d c657 e9bd 573a d3bd
000003d0: 80f9 a9bd ea81 d0bd 8ebc 45bd 069e 92bd
000003e0: 7c47 8dbd f03b d63c 742b 5ebd 8cf1 17bd
000003f0: 5c18 c03c 98cf d33d b250 4b3d a2c6 9bbb

inception_block_1.branches.0.5.weight f4 [16]
1.1316153 1.1440641 1.2124493 1.1056956 0.96588373 0.9765796 1.0781205 0.9475502
0.90590423 1.0019627 1.0794455 1.2233359 0.955557 0.85958743 0.94799674 0.9748264
00000000: c5d8 903f b170 923f 8a31 9b3f 6f87 8d3f
00000010: 2844 773f 1f01 7a3f daff 893f a692 723f
00000020: 57e9 673f 5040 803f 452b 8a3f 4596 9c3f
00000030: 629f 743f ec0d 5c3f eaaf 723f 398e 793f

inception_block_1.branches.0.5.bias f4 [16]
-0.3392569 -0.3139624 -0.27001736 -0.078351706 -0.08934269 -0.115232915 -0.08696674 -0.055973355
-0.046689827 -0.0480982 -0.025177782 -0.3127205 -0.054718785 -0.010258851 -0.16514048 -0.09558146
00000000: 15b3 adbe aebf a0be b73f 8abe dc76 a0bd
00000010: 4df9 b6bd 3cff ebbd 9e1b b2bd 5144 65bd
00000020: d53d 3fbd 9e02 45bd a341 cebc e71c a0be
00000030: ce20 60bd bd14 28bc 961a 29be 36c0 c3bd

inception_block_1.branches.0.5.running_mean f4 [16]
0.0028610171 -0.0025278425 0.00061740715 -0.012679543 0.00429021 0.02521291 -0.053550035 0.023723923
0.0058732675 -0.002682398 -0.033773843 0.0073120114 -0.02207821 -0.041827377 -0.010070917 -0.0023654525
00000000: e77f 3b3b 29aa 25bb 7ed9 213a dcbd 4fbc
00000010: e494 8c3b 4e8b ce3c 4857 5bbd ac58 c23c
00000020: 8a74 c03b 2ccb 2fbb 7156 0abd 9999 ef3b
00000030: 5ddd b4bc 2f53 2bbd 7d00 25bc b505 1bbb

inception_block_1.branches.0.5.running_var f4 [16]
0.24899146 0.2538566 0.30298212 0.19628458 0.13021412 0.17899854 0.40525267 0.33798423
0.10599572 0.1249734 0.3188149 0.3307209 0.13865565 0.13240701 0.23611623 0.16430528
00000000: 9ef7 7e3e 7ef9 813e 7920 9b3e d3fe 483e
00000010: da56 053e 654b 373e 477d cf3e 450c ad3e
00000020: 4914 d93d 0ef2 ff3d b53b a33e 4054 a93e
00000030: bffb 0d3e b495 073e 74c8 713e a53f 283e

inception_block_1.branches.1.0.weight f4 [8, 1, 1, 32]
0.0688949 -0.0795398 -0.12666905 -0.14333695 0.06504112 -0.0024400265 -0.124129035 0.08016516
-0.14714944 0.08760766 -0.10861987 0.033902045 -0.0043583824 -0.098380655 -0.017812064 0.050615247
-0.012895249 0.18951733 0.048487436 0.085708395 -0.033054356 0.161569 -0.056181133 0.09410854
-0.042278025 -0.052209184 -0.033266056 0.06688492 0.14278786 -0.083384156 0.14504758 0.12955408
-0.0476386 -0.12873957 0.07416658 -0.088919744 -0.051354952 -0.007996719 0.13951483 0.039398175
0.15796982 0.05409191 0.021919208 -0.032119732 -0.0051868963 -0.14094062 -0.15004395 0.0504361
-0.007416525 0.030337906 0.071390875 0.089560345 0.07963453 0.15423201 -0.07140181 -0.0598896
-0.031239668 -0.10460808 -0.024974475 -0.0900203 0.051429845 0.045996036 0.035672225 0.2045869
0.07935823 -0.04012081 0.09731031 -0.09673912 -0.0889482 -0.005284916 0.026792618 0.044576854
-0.00040147014 -0.035703305 0.029545741 0.006023729 0.12598069 0.10809119 -0.006666931 0.092013136
-0.02065776 0.09598037 0.08475292 -0.1322941 -0.029447014 0.055819113 0.061344072 -0.11520085
0.06723447 -0.08662394 0.1906152 -0.045663744 -0.025252644 0.20166093 0.0689864 0.12426389
0.18341936 0.14727145 0.045108415 -0.029462583 0.10457759 0.024730131 -0.036158573 0.09073125
0.10671441 0.102904305 0.059443105 -0.086229384 -0.054653384 0.1544674 0.09977819 0.16148604
-0.0110554295 0.13015117 -0.024187973 0.15971978 0.022749115 -0.02910049 0.10684558 -0.06331826
-0.009710235 0.08182846 0.12415142 0.12512197 0.116726644 0.008333525 0.03457253 0.070061184
-0.06786532 -0.15302068 -0.0051433584 0.063456826 0.0039646984 -0.021822667 -0.113345966 -0.058947906
-0.016264062 -0.13724662 0.10416927 -0.009432994 0.019366693 0.0006178735 -0.0470705 0.0033411898
0.13887338 0.08027827 0.006199565 -0.059653882 -0.06205347 0.026294064 0.0631982 0.08949509
-0.08226399 -0.12756704 -0.115795344 -0.106310695 -0.19123557 -0.03366729 -0.0033613348 -0.08057486
0.020884387 -0.06551466 0.041181147 -0.14758441 0.027482292 -0.14681154 0.06730592 0.03917198
-0.10598271 -0.08730123 -0.08306503 -0.050502088 0.012151742 -0.07519088 -0.057114094 -0.11161015
-0.1188395 -0.045454193 -0.041421175 -0.09610264 -0.1437773 -0.040291104 -0.13394302 0.012264056
-0.019016134 -0.09425026 -0.1451092 0.03215385 0.00934701 -0.13569935 0.04688766 -0.11763948
0.07054387 0.03375364 -0.054290906 0.102706306 0.03362665 0.12758626 0.12816073 -0.05483021
0.030848064 0.08184952 -0.028218219 0.036954436 0.036229037 0.10401264 0.12281064 0.13143131
-0.041435957 0.110449836 0.15159748 0.004631651 0.0006078366 0.030169034 0.036749884 0.07653939
0.109654285 0.07202005 0.046571612 0.09412246 0.020587655 0.1248793 0.10818071 0.02507796
-0.067387395 -0.08127144 -0.0058965557 -0.10462952 0.108871624 -0.1276806 -0.13938697 -0.018868698
0.07028427 -0.050656836 0.05235255 -0.17439908 -0.13793173 0.030210705 -0.14014289 -0.09265114
0.056949582 -0.14112648 -0.10299654 -0.03692489 -0.0067854095 0.0063400078 -0.14853682 -0.037926536
-0.03807371 0.066281565 -0.09006229 -0.059598356 0.03778178 -0.01897752 -0.0060782875 -0.11774729
00000000: c518 8d3d c3e5 a2bd 88b5 01be ecc6 12be
00000010: 4734 853d dae8 1fbb 5d37 febd a22d a43d
00000020: 58ae 16be a56b b33d 1874 debd dfdc 0a3d
00000030: c3d0 8ebb cc7b c9bd 9bea 91bc ef51 4f3d
00000040: 9846 53bc d510 423e c39a 463d e287 af3d
00000050: 0164 07bd 5872 253e 301e 66bd fabb c03d
00000060: b92b 2dbd 4cd9 55bd fd41 08bd f6fa 883d
00000070: fb36 123e 50c5 aabd 5a87 143e d3a9 043e
00000080: b120 43bd 4ed4 03be a6e4 973d 8e1b b6bd
00000090: 9259 52bd ac04 03bc fadc 0e3e fb5f 213d
000000a0: d7c2 213e 7b8f 5d3d e98f b33c fb8f 03bd
000000b0: d7f6 a9bb bd52 10be 1fa5 19be 1696 4e3d
000000c0: 5206 f3bb 3387 f83c 6135 923d 6a6b b73d
000000d0: 6e17 a33d ffee 1d3e 1d3b 92bd cc4e 75bd
000000e0: 55ea ffbc c33c d6bd 4597 ccbc 905c b8bd
000000f0: 1aa8 523d 5766 3c3d 0a1d 123d 3a7f 513e
00000100: 9186 a23d b855 24bd a14a c73d 291f c6bd
00000110: 792a b6bd 172d adbb 317c db3c 3896 363d
00000120: 697c d2b9 a13d 12bd e909 f23c b462 c53b
00000130: 1501 013e ea5e dd3d 4576 dabb 6271 bc3d
00000140: 763a a9bc 5b91 c43d f092 ad3d 1b78 07be
00000150: dd3a f1bc 95a2 643d ec43 7b3d 6cee ebbd
00000160: 3ab2 893d e467 b1bd a230 433e e809 3bbd
00000170: a2de cebc 3480 4e3e be48 8d3d 117e fe3d
00000180: 49d2 3b3e 54ce 163e 9ac3 383d 845b f1bc
00000190: c72c d63d d896 ca3c 031b 14bd 4ed1 b93d
000001a0: 168d da3d 7ebf d23d 9d7a 733d 0899 b0bd
000001b0: 3adc 5fbd b42c 1e3e 8258 cc3d 995c 253e
000001c0: d521 35bc 5946 053e db25 c6bc 958d 233e
000001d0: 5a5c ba3c 2764 eebc dbd1 da3d 01ad 81bd
000001e0: ad17 1fbc ae95 a73d 1a43 fe3d f91f 003e
000001f0: 610e ef3d 5689 083c ed9b 0d3d 3d7c 8f3d
00000200: f9fc 8abd 74b1 1cbe 9e89 a8bb a7f5 813d
00000210: 4dea 813b 73c5 b2bc ee21 e8bd 5c73 71bd
00000220: 363c 85bc 618a 0cbe b356 d53d d88c 1abc
00000230: e6a6 9e3c caf8 213a ffcc 40bd ddf7 5a3b
00000240: d334 0e3e ef68 a43d b825 cb3b a157 74bd
00000250: c82b 7ebd a666 d73c 0f6e 813d 3449 b73d
00000260: 067a a8bd efa0 02be 1c26 edbd 6cb9 d9bd
00000270: 42d3 43be b6e6 09bd d749 5cbb 6f04 a5bd
00000280: bc15 ab3c 8d2c 86bd 90ad 283d 5e20 17be
00000290: 8b22 e13c c455 16be b0d7 893d cc72 203d
000002a0: 770d d9bd fdca b2bd 001e aabd 47db 4ebd
000002b0: 1a18 473c adfd 99bd 78f0 69bd dd93 e4bd
000002c0: 2062 f3bd 2d2e 3abd 40a9 29bd 76d1 c4bd
000002d0: 5b3a 13be 4908 25bd 5c28 09be 2eef 483c
000002e0: b9c7 9bbc 4806 c1bd 8297 14be c1b3 033d
000002f0: 3424 193c c5f4 0abe 460d 403d f8ec f0bd
00000300: 4e79 903d 4241 0a3d 2460 5ebd af57 d23d
00000310: 19bc 093d f9a5 023e 913c 033e a495 60bd
00000320: 14b5 fc3c b9a0 a73d e529 e7bc 895d 173d
00000330: e664 143d 9404 d53d 2584 fb3d ee95 063e
00000340: c0b8 29bd 8633 e23d 5f3c 1b3e 1bc5 973b
00000350: 3957 1f3a 0d25 f73c 0c87 163d afc0 9c3d
00000360: 6d92 e03d 3f7f 933d e0c1 3e3d 47c3 c03d
00000370: 71a7 a83c b8c0 ff3d d98d dd3d 4b70 cd3c
00000380: 6702 8abd a471 a6bd e537 c1bb 0048 d6bd
00000390: 16f8 de3d b4be 02be 75bb 0ebe 8792 9abc
000003a0: 33f1 8f3d 8b7d 4fbd a16f 563d ac95 32be
000003b0: fa3d 0dbe 717c f73c 9e81 0fbe e2bf bdbd
000003c0: f743 693d 7683 10be daef d2bd 8e3e 17bd
000003d0: 2458 debb d7bf cf3b 091a 18be db58 1bbd
000003e0: 2ef3 1bbd a1be 873d 9472 b8bd 681d 74bd
000003f0: 11c1 1a3d be76 9bbc 5f2c c7bb 7e25 f1bd

inception_block_1.branches.1.0.bias f4 [8]
0.028085712 0.05905175 -0.013099675 0.011269116 -0.033915598 0.007511083 -0.03978237 -0.06345438
00000000: 0214 e63c 3fe0 713d 05a0 56bc 19a2 383c
00000010: 15eb 0abd 881f f63b d7f2 22bd 5ff4 81bd

inception_block_1.branches.1.1.weight f4 [8]
1.0515119 1.3100713 1.0416489 0.9768119 1.0636518 0.8942457 1.0641526 1.0465691
00000000: f197 863f 6bb0 a73f c054 853f 5810 7a3f
00000010: be25 883f 49ed 643f 2736 883f faf5 853f

inception_block_1.branches.1.1.bias f4 [8]
-0.108320154 -0.26765233 -0.031435754 -0.021373274 0.04441599 -0.02271011 -0.13768406 -0.07401198
00000000: f5d6 ddbd ba09 89be c7c2 00bd 0117 afbc
00000010: 8bed 353d 8d0a babc 0dfd 0cbe 9893 97bd

inception_block_1.branches.1.1.running_mean f4 [8]
0.06909005 0.09751596 0.10920969 0.2962209 -0.16144943 -0.25197703 0.23808013 -0.2924263
00000000: 167f 8d3d 73b6 c73d 54a9 df3d 44aa 973e
00000010: 0053 25be 2203 81be 47cb 733e e6b8 95be

inception_block_1.branches.1.1.running_var f4 [8]
0.2037505 0.16853118 0.110199116 0.2092463 0.27565673 0.21585295 0.2135329 0.13960466
00000000: f9a3 503e 7093 2c3e 13b0 e13d a944 563e
00000010: e122 8d3e 8e08 5d3e 5ea8 5a3e 86f4 0e3e

inception_block_1.branches.1.4.weight f4 [16, 1, 22, 1]
-0.14189354 -0.061350964 0.13090318 -0.11966522 -0.05081221 -0.028772488 -0.12413106 0.050518516
0.040171288 -0.03186697 -0.028969444 0.0027084542 -0.0914015 0.008728806 0.092894666 0.0955496
-0.121595055 0.07958541 -0.02649268 -0.061641064 -0.044795785 -0.09978148 -0.012460421 0.014488607
0.043533728 0.009165971 -0.0941941 -0.100687034 0.05455124 -0.016415577 0.0035527823 -0.10068428
-0.0034943859 0.055372443 0.14223987 -0.009425838 -0.036170695 0.021943174 0.024422806 -0.029772133
-0.07308659 0.14305879 0.07714766 0.21240216 -0.100354254 -0.07000158 -0.092833936 -0.07301125
-0.049622223 -0.014067297 0.0346582 0.17633252 -0.00020578617 0.05318287 -0.040254056 -0.029107938
-0.01876501 0.2001387 0.00035844685 -0.017504586 -0.036240496 0.032665428 0.057685252 0.0064108134
-0.020050816 -0.09098039 0.020494584 0.09169393 0.19744487 -0.013544029 0.019831324 0.04502813
0.004603497 0.18339393 -0.0676006 -0.048369452 -0.014632021 0.02953993 -0.045339018 -0.04880881
0.074151605 -0.11561506 0.060249846 0.08545788 -0.07278137 -0.052080985 -0.025627384 -0.09259427
0.07146111 0.0589333 -0.01587108 0.0076468415 -0.041182257 -0.018238677 0.019254575 -0.010139168
0.065581046 -0.030873545 -0.07534118 -0.0048136287 -0.06656214 -0.13576029 0.02661947 -0.04066937
0.001229526 -0.066867255 -0.008920479 0.07695417 0.032632187 0.2128429 0.15614693 -0.02542182
0.002945971 0.069833264 -0.08155602 0.08104206 -0.082776174 -0.06299236 -0.019192616 -0.065283276
0.008719902 0.057549268 0.011179669 -0.017640712 -0.08411905 -0.10296499 0.074450456 0.14969474
0.027642785 0.053479973 -0.0013083338 -0.065554775 -0.027712611 0.011290397 -0.024954597 0.04939948
0.02305427 -0.041259203 0.044139918 -0.13496642 -0.013345161 0.06780256 0.06583118 -0.09168388
-0.12897733 -0.15012418 -0.059047043 0.08268643 0.082425684 -0.13821158 -0.0076375953 0.07160635
-0.08305517 0.1692833 -0.09884428 -0.033547543 0.040465444 -0.03749785 -0.023157006 0.0056171403
0.10778222 -0.05019014 0.0434888 -0.03282504 0.006002702 -0.0040370193 0.062678106 0.08677696
0.010514883 -0.055554863 -0.06433698 0.08259687 -0.009190525 -0.028058723 -0.105529085 0.25657752
-0.12423678 -0.103773125 -0.053152833 -0.08050617 0.049876913 0.031551883 -0.04122881 -0.08789746
-0.042532198 -0.053087264 0.05639813 0.068579756 0.14693512 -0.085466094 -0.059672657 -0.043129176
-0.0328553 0.12509754 -0.096570455 -0.050451294 0.013255448 0.06546403 0.0047823745 -0.14068493
-0.10209477 0.11309835 -0.058203984 -0.12939543 0.03078448 -0.05507546 0.025533346 -0.0028537805
0.073552996 -0.02610476 -0.055655997 -0.14627339 -0.050455097 -0.06511961 -0.102804825 -0.04476347
0.0013661043 0.0617371 0.03474788 -0.09283313 0.020857971 0.0021497004 -0.0027798137 0.060851607
0.06555097 0.05408884 -0.07447475 -0.12492519 -0.027287122 -0.0218197 -0.03487279 -0.0785485
-0.13412641 -0.13089348 0.077265605 0.0124530345 0.0075756586 -0.08396885 -0.08436888 0.115098864
-0.18967086 -0.10022793 -0.09766132 -0.063688815 -0.051217854 -0.0028487463 0.13011658 -0.032918237
-0.028911365 0.0008347867 0.01629577 0.03858151 -0.045463726 -0.057417665 -0.08165265 -0.09308006
00000000: 8a4c 11be 264b 7bbd 7c0b 063e 0a13 f5bd
00000010: 7720 50bd 48b4 ebbc 6d38 febd 81ec 4e3d
00000020: a68a 243d f186 02bd 5451 edbc 5280 313b
00000030: b630 bbbd 4403 0f3c 8f3f be3d 82af c33d
00000040: d406 f9bd adfd a23d 2d07 d9bc 577b 7cbd
00000050: c97b 37bd 3c5a ccbd cb26 4cbc 9f61 6d3c
00000060: 6c50 323d de2c 163c d6e8 c0bd 0135 cebd
00000070: 1f71 5f3d f679 86bc ccd5 683b 8f33 cebd
00000080: 1102 65bb 37ce 623d 54a7 113e d46e 1abc
00000090: b927 14bd 2cc2 b33c 5612 c83c b0e4 f3bc
000000a0: 6cae 95bd 017e 123e 98ff 9d3d f47f 593e
000000b0: 8886 cdbd fd5c 8fbd b81f bebd ec86 95bd
000000c0: ac40 4bbd 857a 66bc c2f5 0d3d 8390 343e
000000d0: 4ec8 57b9 48d6 593d 70e1 24bd c573 eebc
000000e0: 14b9 99bc 29f1 4c3e eced bb39 c765 8fbc
000000f0: ea70 14bd 2fcc 053d 5f47 6c3d cd11 d23b
00000100: 9c41 a4bc ed53 babd 42e4 a73c 07ca bb3d
00000110: fd2e 4a3e c6e7 5dbc 4d75 a23c 6b6f 383d
00000120: efd8 963b 9ecb 3b3e 2f72 8abd 0c1f 46bd
00000130: 25bb 6fbc b9fd f13c 68b5 39bd bfeb 47bd
00000140: ccdc 973d 97c7 ecbd 8bc8 763d 8a04 af3d
00000150: 660e 95bd df52 55bd 85f0 d1bc 11a2 bdbd
00000160: 345a 923d 0b64 713d 1104 82bc 5b92 fa3b
00000170: baae 28bd 4769 95bc c5bb 9d3c c11e 26bc
00000180: 5b4f 863d 84ea fcbc 7a4c 9abd a5bb 9dbb
00000190: bb51 88bd bf04 0bbe 1311 da3c ed94 26bd
000001a0: 0c28 a13a b3f1 88bd 3327 12bc 269a 9d3d
000001b0: 54a9 053d 7df3 593e fbe4 1f3e 6c41 d0bc
000001c0: 3111 413b be04 8f3d d806 a7bd 61f9 a53d
000001d0: 8e86 a9bd 2302 81bd d539 9dbc 3db3 85bd
000001e0: ebdd 0e3c c8b8 6b3d ee2a 373c 4183 90bc
000001f0: 9c46 acbd 4fdf d2bd 7b79 983d 9449 193e
00000200: 1f73 e23c d10d 5b3d 667c abba 9541 86bd
00000210: 8f05 e3bc 5bfb 383c 956d ccbc 1c57 4a3d
00000220: 4fdc bc3c 69ff 28bd 0fcc 343d a334 0abe
00000230: aaa5 5abc 12dc 8a3d 7fd2 863d c2c4 bbbd
00000240: a212 04be 27ba 19be 50db 71bd 8157 a93d
00000250: ccce a83d 5687 0dbe cb44 fabb 5aa6 923d
00000260: d418 aabd 9a58 2d3e df6e cabd 2669 09bd
00000270: 18bf 253d 5897 19bd c3b3 bdbc fd0f b83b
00000280: edbc dc3d 2d94 4dbd 5021 323d 8d73 06bd
00000290: 50b2 c43b f948 84bb 615d 803d 1eb8 b13d
000002a0: 9e46 2c3c 7f8d 63bd 1bc3 83bd 8c28 a93d
000002b0: db93 16bc 68db e5bc a21f d8bd 215e 833e
000002c0: da6f febd 0187 d4bd c9b6 59bd 6be0 a4bd
000002d0: bc4b 4c3d 8c3c 013d 8adf 28bd 9503 b4bd
000002e0: 3e36 2ebd 0872 59bd ba01 673d 8b73 8c3d
000002f0: 2976 163e d908 afbd 516b 74bd 38a8 30bd
00000300: 4793 06bd 9219 003e bbc6 c5bd 04a6 4ebd
00000310: 612d 593c 0112 863d 77b5 9c3b b60f 10be
00000320: 1017 d1bd 1ca0 e73d 4d67 6ebd 3c80 04be
00000330: bc2f fc3c ce96 61bd 4f2b d13c 7e06 3bbb
00000340: f4a2 963d a6d9 d5bc 8bf7 63bd b1c8 15be
00000350: 01aa 4ebd 6e5d 85bd 568b d2bd e659 37bd
00000360: db0e b33a 0be0 7c3d cb53 0e3d 4c1f bebd
00000370: 56de aa3c fde1 0c3b 892d 36bb 893f 793d
00000380: 963f 863d 428c 5d3d 3886 98bd c7d8 ffbd
00000390: 3e89 dfbc 3abf b2bc c5d6 0ebd 09de a0bd
000003a0: 6f58 09be f108 06be 6e3d 9e3d d007 4c3c
000003b0: 3b3d f83b dcf7 abbd 97c9 acbd f4b8 eb3d
000003c0: 1439 42be 4d44 cdbd a802 c8bd 486f 82bd
000003d0: d0c9 51bd 08b2 3abb 483d 053e 46d5 06bd
000003e0: 87d7 ecbc 96d5 5a3a b57e 853c a507 1e3d
000003f0: 2c38 3abd c92e 6bbd 8139 a7bd c2a0 bebd

inception_block_1.branches.1.5.weight f4 [16]
0.9419778 0.9005774 1.0174942 0.8719761 0.9291984 0.9163073 0.96303684 0.9073279
1.0749598 0.9183378 0.99205166 1.0024606 0.9608081 0.8995568 0.951956 1.0321212
00000000: 7525 713f 3e8c 663f 403d 823f d339 5f3f
00000010: f2df 6d3f 1d93 6a3f 9589 763f a446 683f
00000020: 4898 893f 3018 6b3f 19f7 7d3f a150 803f
00000030: 85f7 753f 5b49 663f 63b3 733f 8c1c 843f

inception_block_1.branches.1.5.bias f4 [16]
-0.007645314 -0.034042537 -0.20431665 -0.046947427 -0.041409414 -0.08518861 -0.013425479 -0.13706829
-0.20526336 -0.13307288 -0.11695134 -0.076506056 -0.12691522 -0.044706423 -0.030200616 -0.009306673
00000000: 8b85 fabb 3070 0bbd 6238 51be f24b 40bd
00000010: eb9c 29bd 5e77 aebd 8af6 5bbc a15b 0cbe
00000020: 8f30 52be 4244 08be 2f84 efbd 35af 9cbd
00000030: 10f6 01be 151e 37bd 4867 f7bc 047b 18bc

inception_block_1.branches.1.5.running_mean f4 [16]
-0.045161404 0.022069493 0.0018826161 0.016271235 0.007842009 0.008793231 -0.028183814 0.020164533
-0.088388145 -0.16197287 -0.069392264 0.011842371 0.040948316 0.001381228 -0.036805306 -0.029790178
00000000: 2afb 38bd 15cb b43c 1dc2 f63a 414b 853c
00000010: c57b 003c 7c11 103c bee1 e6bc 1730 a53c
00000020: d804 b5bd 37dc 25be 881d 8ebd 8106 423c
00000030: 6cb9 273d 520a b53a 29c1 16bd 880a f4bc

inception_block_1.branches.1.5.running_var f4 [16]
0.20923445 0.15537526 0.18645585 0.22371224 0.10240148 0.12759832 0.14942086 0.11353768
0.24930584 0.33950567 0.22611703 0.11797855 0.34682494 0.11474486 0.12955359 0.18183868
00000000: 8e41 563e b11a 1f3e 48ee 3e3e d214 653e
00000010: deb7 d13d 22a9 023e c801 193e 7186 e83d
00000020: 084a 7f3e b0d3 ad3e 398b 673e bd9e f13d
00000030: 0a93 b13e 5aff ea3d b2a9 043e eb33 3a3e

inception_block_1.branches.2.0.weight f4 [8, 1, 1, 16]
0.16755204 0.14818494 0.0609499 -0.11674416 0.11216707 0.010947317 0.045358207 0.049640466
-0.079745725 -0.21141705 -0.04233895 0.06214868 -0.04999803 -0.12643097 -0.13632458 0.15910189
-0.17018276 -0.13035916 0.14754628 0.013692491 0.08217556 -0.08292774 0.15101202 -0.016112806
-0.14927469 0.037812863 0.08347064 -0.09708215 -0.21853833 0.10689131 0.028602554 -0.14993964
0.11893452 -0.106573895 0.20543353 -0.029561467 0.13603261 -0.13823515 0.07621925 0.12978704
0.012255399 -0.15181652 -0.15532592 -0.12034252 -0.009318721 -0.16746171 0.014461155 -0.12289532
-0.033195015 0.12249696 -0.07680334 0.13669047 -0.1618083 -0.19936179 0.033695642 0.0770791
-0.16574168 -0.14983936 -0.1099295 -0.016898967 -0.014409636 -0.120583355 -0.11900299 -0.105994225
0.06450668 0.18059541 0.13782696 -0.13624766 0.056748122 0.1437483 -0.19483751 -0.043164276
-0.06357977 -0.11319449 -0.08737583 -0.053494114 0.04482531 0.21916978 0.1406021 -0.04608458
0.028101819 0.09495432 -0.015016429 -0.13192035 -0.06197538 -0.0869728 -0.1307417 0.03799439
-0.019064046 -0.18597445 0.051901866 -0.18169747 -0.03873981 -0.059539013 -0.005479913 -0.18814768
0.18902372 0.07669828 -0.10844623 0.14611 -0.0020426714 0.04754827 -0.11486798 0.06912741
0.11222016 0.0832512 0.0615196 0.02510604 0.18344295 -0.045293443 0.05721951 0.12545548
0.11544549 -0.04432444 -0.24477413 0.03943774 -0.1486473 -0.042218506 -0.038229126 -0.0894527
0.17402332 0.1343224 -0.14661452 0.04045827 0.17709307 0.0058426284 0.1443953 -0.14449556
00000000: c392 2b3e cbbd 173e 9aa6 793d 9017 efbd
00000010: d9b7 e53d 605c 333c 87c9 393d cd53 4b3d
00000020: ba51 a3bd b67d 58be 9b6b 2dbd 9d8f 7e3d
00000030: bcca 4cbd 1f77 01be ac98 0bbe 9beb 223e
00000040: 6444 2ebe df7c 05be 5f16 173e 7856 603c
00000050: a94b a83d 05d6 a9bd e5a2 1a3e 01ff 83bc
00000060: 77db 18be a9e1 1a3d a8f2 aa3d 02d3 c6bd
00000070: 83c8 5fbe d5e9 da3d e74f ea3c c789 19be
00000080: f193 f33d 6a43 dabd 2b5d 523e e42a f2bc
00000090: 224c 0b3e 848d 0dbe d718 9c3d e5e6 043e
000000a0: deca 483c ca75 1bbe c20d 1fbe 2476 f6bd
000000b0: 8cad 18bc 157b 2bbe 7bee 6c3c 8bb0 fbbd
000000c0: 7ff7 07bd b0df fa3d 124b 9dbd 96f8 0b3e
000000d0: 13b1 25be 7f25 4cbe 7104 0a3d a6db 9d3d
000000e0: 30b8 29be 7d6f 19be b822 e1bd b46f 8abc
000000f0: 6516 6cbc 68f4 f6bd d7b7 f3bd 8013 d9bd
00000100: 141c 843d 01ee 383e 8322 0d3e 8284 0bbe
00000110: b870 683d c132 133e 7c83 47be 06cd 30bd
00000120: 1c36 82bd 83d2 e7bd 19f2 b2bd a51c 5bbd
00000130: bf9a 373d 0b6e 603e fff9 0f3e 2fc3 3cbd
00000140: c935 e63c 6977 c23d 7807 76bc 2116 07be
00000150: e5d9 7dbd cc1e b2bd 27e1 05be 01a0 1b3d
00000160: 342c 9cbc 1670 3ebe 0d97 543d e70e 3abe
00000170: a3ad 1ebd 2edf 73bd d890 b3bb c9a9 40be
00000180: 6f8f 413e fd13 9d3d 0f19 debd dc9d 153e
00000190: 57de 05bb fac1 423d e73f ebbd ac92 8d3d
000001a0: afd3 e53d 9b7f aa3d fafb 7b3d 2fab cd3c
000001b0: 78d8 3b3e 9e85 39bd 015f 6a3d 6777 003e
000001c0: af6e ec3d 8b8d 35bd 12a6 7abe 7889 213d
000001d0: ff36 18be 50ed 2cbd 2596 1cbd fa32 b7bd
000001e0: 2b33 323e d08b 093e 1e22 16be 92b7 253d
000001f0: e357 353e 8573 bf3b 5ddc 133e a5f6 13be

inception_block_1.branches.2.0.bias f4 [8]
-0.01241868 0.018455746 -0.0152616175 -0.0151906125 0.018639904 0.008617344 -0.03865634 -0.0060706753
00000000: b877 4bbc 8130 973c dd0b 7abc 0ce2 78bc
00000010: b6b2 983c c32f 0d3c 1c56 1ebd 84ec c6bb

inception_block_1.branches.2.1.weight f4 [8]
1.0630978 1.0802627 1.1501354 0.9648806 1.182812 0.9094391 1.0776466 1.0989764
00000000: 9713 883f 0c46 8a3f a337 933f 6a02 773f
00000010: 6266 973f 00d1 683f 53f0 893f 42ab 8c3f

inception_block_1.branches.2.1.bias f4 [8]
-0.020886766 -0.045389876 -0.12288895 0.03563828 -0.22334878 -0.09355877 0.024583861 0.016838025
00000000: b91a abbc bcea 39bd 34ad fbbd 72f9 113d
00000010: 8bb5 64be be9b bfbd 1864 c93c e6ef 893c

inception_block_1.branches.2.1.running_mean f4 [8]
-0.0012746014 -0.03808915 -0.060569398 -0.14965019 0.053709026 -0.12379633 0.098250225 -0.013576849
00000000: 8710 a7ba 5e03 1cbd 9e17 78bd e63d 19be
00000010: fffd 5b3d ee88 fdbd 6a37 c93d 6f71 5ebc

inception_block_1.branches.2.1.running_var f4 [8]
0.15800238 0.046630137 0.22121483 0.22267562 0.1349057 0.20072004 0.12897475 0.113146424
00000000: 60cb 213e 3eff 3e3d 2486 623e 1405 643e
00000010: b824 0a3e 8e89 4d3e f511 043e 50b9 e73d

inception_block_1.branches.2.4.weight f4 [16, 1, 22, 1]
-0.091375686 -0.06919025 -0.010197757 -0.060878415 0.0070726876 -0.046585597 0.06951138 -0.12477124
-0.021106279 -0.14745346 -0.030117353 0.07269086 0.07903868 -0.16861871 -0.05770995 -0.06532302
0.0030926252 0.08500429 -0.029117925 0.01213327 -0.013830615 -0.014672113 -0.081818745 0.016110497
0.06681835 -0.07808388 0.015592587 -8.082555e-05 0.16812749 0.035761565 -0.043061763 -0.12543587
-0.11858054 0.07166768 -0.000949912 -0.045875482 -0.04546627 0.051436488 0.091142386 -0.07215139
0.03985363 -0.05009186 -0.044022933 -0.09127822 -0.10221632 0.041961048 0.046784095 0.08404344
-0.13570364 -0.017725874 0.0036961879 0.07785384 -0.055902466 0.049217172 0.00048286343 -0.21834412
-0.095690005 -0.0009222482 0.06316542 -0.061682265 -0.011334227 -0.054097373 0.04514972 -0.09871124
-0.06458622 -0.07951084 -0.08588081 -0.015468371 -0.0860697 -0.115546346 -0.006431785 0.020780053
0.16716681 0.023013605 -0.028666604 -0.1302829 -0.067545526 0.008878949 -0.026649255 0.11156615
0.061367184 -0.04885514 0.08423914 -0.09522555 0.045429748 0.06254968 0.019541226 -0.08041028
-0.07601959 0.059872836 -0.049562465 0.10039522 -0.0025793274 0.026869945 0.0313855 0.04277463
-0.010294568 -0.05882765 0.09587215 0.027845446 0.18603314 0.03123997 -0.016116839 0.06175377
0.00051822263 -0.006766884 -0.10223086 -0.00079464406 -0.094310045 -0.17569597 -0.1465069 -0.016106864
-0.08829664 -0.02154206 -0.06230668 -0.08648204 -0.10136228 0.006684531 -0.043584228 -0.027108636
0.014365194 0.06469541 -0.045992166 0.04670132 0.021634832 0.0232898 0.07534571 0.15602536
0.07272069 0.07748026 0.08387087 -0.02463882 -0.0055455887 0.1395053 -0.02087003 -0.056066964
-0.12509082 0.014537447 -0.013668919 -0.052397147 -0.010420192 0.016738703 0.028221516 -0.16840981
0.113333315 0.03722352 -0.118611254 -0.06647221 -0.042451866 -0.0057367175 0.095198885 -0.012370429
0.097731285 0.16407658 -0.025389424 -0.084711485 -0.088169314 0.010262521 -0.023522446 -0.056268577
0.023695787 0.13257864 0.10845725 -0.09027099 -0.1127696 0.10071888 -0.039733984 0.02521129
0.15604839 -0.099323615 -0.0035420542 -0.06283722 -0.11163939 0.0340075 0.08166388 -0.18402092
-0.088679515 0.0053053345 -0.07049864 -0.0737174 -0.024093889 -0.054264978 0.0108876815 0.16573355
-0.011906541 -0.04667347 -0.014738642 -0.024738066 -0.016813423 0.22024444 -0.030184664 0.016889967
-0.02132372 -0.025650503 0.020534204 -0.034583077 -0.034727655 -0.04629419 -0.112666294 0.11235545
-0.090984404 -0.0053747892 -0.10098621 0.05635335 0.08280087 0.1796659 0.029816786 0.03559388
0.073482 -0.06269573 0.024908507 -0.026767677 -0.04589952 0.16677059 0.025369057 0.023171837
-0.01961452 0.05921006 0.065421805 0.07005472 0.115448795 0.09760917 0.10176215 0.029617654
-0.09533858 0.072710775 0.08112811 0.0949885 -0.047733925 -0.1317686 0.054560468 0.07698292
0.11865135 -0.05369492 0.048235513 -0.06864212 -0.05411857 -0.015506189 -0.032266714 -0.07629697
0.082465775 -0.17239596 -0.06176471 -0.0072250124 0.049373463 -0.018224504 -0.014143784 0.03953441
0.07912401 -0.014620753 0.0148572065 0.072039075 0.062243775 -0.11046462 -0.04860486 0.04729552
00000000: 2d23 bbbd 9eb3 8dbd 7e14 27bc a55b 79bd
00000010: 01c2 e73b 8ad0 3ebd fb5b 8e3d 1088 ffbd
00000020: 13e7 acbc 0afe 16be abb8 f6bc f2de 943d
00000030: 08df a13d 62aa 2cbe 4561 6cbd 13c8 85bd
00000040: a4ad 4a3b bb16 ae3d b788 eebc 9fca 463c
00000050: ce99 62bc 4d63 70bc 9690 a7bd 29fa 833c
00000060: 0fd8 883d 71ea 9fbd 0d78 7f3c e380 a9b8
00000070: 9d29 2c3e b87a 123d 8861 30bd 4372 00be
00000080: 5bda f2bd 81c6 923d 8403 79ba eee7 3bbd
00000090: d73a 3abd 11af 523d dca8 ba3d 1cc4 93bd
000000a0: 8f3d 233d 1f2d 4dbd 6451 34bd 13f0 babd
000000b0: ca56 d1bd 59df 2b3d aea0 3f3d f81e ac3d
000000c0: e5f5 0abe da35 91bc be3b 723b d671 9f3d
000000d0: fcf9 64bd f297 493d d528 fd39 9a95 5fbe
000000e0: 1ff9 c3bd 07c3 71ba df5c 813d 8ba6 7cbd
000000f0: 32b3 39bc 3595 5dbd eaee 383d 1e29 cabd
00000100: c845 84bd 94d6 a2bd 47e2 afbd 0d6f 7dbc
00000110: 5045 b0bd 90a3 ecbd b9c1 d2bb ee3a aa3c
00000120: c72d 2b3e 0787 bc3c 3ad6 eabc e168 05be
00000130: 4f55 8abd 0379 113c 8a4f dabc cb7c e43d
00000140: 285c 7b3d 541c 48bd 9285 ac3d 9d05 c3bd
00000150: 8b14 3a3d 0c1a 803d ec14 a03c 25ae a4bd
00000160: 29b0 9bbd 383d 753d 0302 4bbd 029c cd3d
00000170: ef09 29bb 5c1e dc3c 158e 003d 7334 2f3d
00000180: 8caa 28bc 43f5 70bd 9e58 c43d 221c e43c
00000190: 797f 3e3e f7ea ff3c 7607 84bc 85f1 7c3d
000001a0: 55d9 073a bdbc ddbb 6a5e d1bd a94f 50ba
000001b0: a025 c1bd a5e9 33be e805 16be 8bf2 83bc
000001c0: ded4 b4bd f978 b0bc 4a35 7fbd 7f1d b1bd
000001d0: 0797 cfbd e909 db3b 6085 32bd ee12 debc
000001e0: fe5b 6b3c 077f 843d 4862 3cbd e249 3f3d
000001f0: 883b b13c 40ca be3c da4e 9a3d 1dc5 1f3e
00000200: 96ee 943d f8ad 9e3d 7ec4 ab3d 5ad7 c9bc
00000210: c5b7 b5bb 7ada 0e3e a0f7 aabc 79a6 65bd
00000220: cf17 00be 792e 6e3c 9af3 5fbc 649e 56bd
00000230: 74b9 2abc 9b1f 893c cf30 e73c 9f73 2cbe
00000240: 4c1b e83d b177 183d 75ea f2bd 9522 88bd
00000250: 02e2 2dbd 13fb bbbb a2f7 c23d 57ad 4abc
00000260: 5727 c83d b103 283e 7bfd cfbc 377d adbd
00000270: 1d92 b4bd 2224 283c 25b2 c0bc e179 66bd
00000280: ab1d c23c b2c2 073e d61e de3d ffdf b8bd
00000290: bff3 e6bd b345 ce3d 1ac0 22bd e887 ce3c
000002a0: 26cb 1f3e 2e6a cbbd cf21 68bb cdb0 80bd
000002b0: 31a3 e4bd 734b 0b3d 643f a73d fb6f 3cbe
000002c0: 9b9d b5bd 5fd8 ad3b 9761 90bd 26f9 96bd
000002d0: 8c60 c5bc f444 5ebd 3f62 323c 0eb6 293e
000002e0: a713 43bc ae2c 3fbd 587a 71bc 7ca7 cabc
000002f0: 4ebc 89bc c287 613e d445 f7bc d45c 8a3c
00000300: 15af aebc 0121 d2bc 5937 a83c fca6 0dbd
00000310: 963e 0ebd fa9e 3dbd 96bd e6bd 9d1a e63d
00000320: 0856 babd 001f b0bb dcd1 cebd c5d2 663d
00000330: 8193 a93d 56fa 373e 5542 f43c e3ca 113d
00000340: bb7d 963d 9e66 80bd ed0c cc3c e347 dbbc
00000350: 2301 3cbd e9c5 2a3e c5d2 cf3c ddd2 bd3c
00000360: a1ae a0bc 3f86 723d defb 853d d978 8f3d
00000370: 6b70 ec3d 51e7 c73d ad68 d03d b9a0 f23c
00000380: e040 c3bd 63e9 943d 7f26 a63d 5589 c23d
00000390: a684 43bd 59ee 06be cc7a 5f3d 39a9 9d3d
000003a0: 7bff f23d 34ef 5bbd 9a92 453d 3d94 8cbd
000003b0: 6fab 5dbd ac0d 7ebc 1a2a 04bd 9641 9cbd
000003c0: d1e3 a83d 9188 30be fefc 7cbd ccbf ecbb
000003d0: d43b 4a3d 8e4b 95bc 54bb 67bc d5ee 213d
000003e0: c50b a23d e28b 6fbc a46b 733c 3989 933d
000003f0: 54f3 7e3d 463b e2bd e415 47bd f2b8 413d

inception_block_1.branches.2.5.weight f4 [16]
1.1047418 0.89049304 0.8588913 0.95846266 0.9204382 1.0457245 0.87940556 0.95978546
1.0859381 0.8214034 0.8873975 0.8674786 0.9637042 0.8895425 1.1194832 0.88346
00000000: 2e68 8d3f 5af7 633f 4de0 5b3f cf5d 753f
00000010: d6a1 6b3f 4dda 853f b920 613f 80b4 753f
00000020: 0500 8b3f 7e47 523f 7c2c 633f 1413 5e3f
00000030: 52b5 763f 0fb9 633f 3a4b 8f3f 6f2a 623f

inception_block_1.branches.2.5.bias f4 [16]
-0.12610196 -0.10257002 -0.08857039 -0.16118822 -0.060569987 -0.14956334 -0.050028928 -0.10596096
-0.24401915 -0.104514174 -0.040260803 -0.0906157 -0.06958425 0.03641368 -0.22043471 -0.12571953
00000000: df20 01be 3b10 d2bd 6564 b5bd 860e 25be
00000010: 3c18 78bd 2227 19be 22eb 4cbd 0f02 d9bd
00000020: 28e0 79be 870b d6bd 83e8 24bd b994 b9bd
00000030: 3082 8ebd 8326 153d a3b9 61be 9fbc 00be

inception_block_1.branches.2.5.running_mean f4 [16]
-0.09195592 -0.036488824 -0.08503762 -0.026915228 0.0038202382 0.0073767286 -0.0008734889 -0.06476652
-0.0032480678 0.03410286 0.013971647 0.016524948 -0.20496878 -0.036899235 -0.04866999 -0.029970223
00000000: 6353 bcbd 4e75 15bd 3428 aebd 537d dcbc
00000010: f65c 7a3b 7cb8 f13b d9fa 64ba 4fa4 84bd
00000020: 89dd 54bb 71af 0b3d 56e9 643c 545f 873c
00000030: 56e3 51be a723 17bd 2f5a 47bd 1d84 f5bc

inception_block_1.branches.2.5.running_var f4 [16]
0.3298734 0.13064699 0.27863905 0.14698403 0.13540946 0.15922976 0.10320993 0.14243414
0.15215264 0.28858802 0.116775386 0.06944709 0.91466767 0.13931362 0.2831395 0.1544821
00000000: 2be5 a83e 53c8 053e c7a9 8e3e fb82 163e
00000010: c7a8 0a3e 200d 233e ba5f d33d 41da 113e
00000020: e7cd 1b3e cfc1 933e ef27 ef3d 473a 8e3d
00000030: a927 6a3f 3ba8 0e3e a9f7 903e 8e30 1e3e

inception_block_2.branches.0.0.weight f4 [8, 48, 1, 16]
-0.010868206 0.013077872 -0.024494706 -0.07259276 -0.07649575 -0.016261123 -0.026208261 -0.035220236
-0.0037523068 0.009100667 -0.003406875 -0.066304475 0.038577322 -0.049860388 -0.049583506 -0.03404334
0.06910309 0.16137967 0.00986791 0.0040438436 0.1270888 0.1040619 0.13168411 0.043144256
-0.027387293 0.063960575 0.08176115 0.06422193 0.11503984 -0.0071321996 0.11134946 0.08479255
-0.011294501 -0.048588753 -0.018119203 0.037092105 0.042038605 -0.008400271 0.06329033 0.050816856
-0.06241311 0.10725133 0.008553138 0.07339844 0.032192882 0.026586564 -0.0024742496 0.0664129
-0.052428443 -0.06869596 -0.19421439 -0.050203454 -0.053837582 -0.0717123 -0.06191399 -0.050763488
0.04835526 -0.0076526445 0.007374284 0.019532016 0.02222138 0.009150223 0.09055448 -0.009880502
0.04859323 0.063268155 -0.06745146 -0.046618044 -0.06468162 -0.016373308 -0.029417036 0.025081636
0.034892652 0.11307831 0.12649587 0.018597491 0.019755194 -0.0767077 -0.07434206 -0.04173224
-0.06640714 -0.009743607 -0.028391521 -0.104452066 -0.012994416 -0.011723819 0.027338434 0.06998595
0.08530113 0.086140074 0.07931073 -0.013994691 -0.017020203 -0.011999313 -0.01847404 -0.07760957
-0.072477 -0.028683834 -0.03137886 -0.010021729 0.012112226 0.032797214 -0.06167165 -0.012684705
0.026846064 -0.054954123 -0.00084209855 0.086866185 0.030450456 0.12143667 0.10976061 0.05672406
-0.04500143 -0.040721882 0.10046066 -0.06822742 -0.027176548 0.09207578 -0.014889563 0.016623797
-0.07543395 -0.006800019 0.04382002 0.07570393 0.07715511 0.018694691 0.068020105 0.055621814
-0.062333416 -0.0045304145 0.02099288 0.05563531 -0.028347313 0.031049216 -0.084763296 -0.08916072
-0.12879534 -0.046525244 -0.0592739 -0.00015539637 0.019461093 -0.010658917 -0.0058766785 0.075614646
-0.038228404 0.03359198 0.051554482 0.01875999 -0.055336762 -0.094031215 -0.054774024 -0.07517014
-0.09742485 0.0074378755 -0.11551445 -0.05774442 -0.014504845 -0.070523195 -0.041466173 -0.039011482
-0.052171968 0.022672923 -0.03127602 0.009313636 -0.048768718 -0.068784066 -0.050760772 -0.018597674
0.014830864 -0.07029687 -0.032674834 -0.01240501 0.039563093 -0.049046956 -0.036185287 -0.011088118
-0.055357892 -0.009122858 -0.10053376 -0.08756543 -0.07181352 -0.07470501 -0.07399921 -0.05881007
-0.024378642 0.0026391344 -0.07650971 -0.07948294 -0.12752402 -0.07054155 -0.056335766 -0.07423182
-0.031740222 0.08614957 0.010390937 0.05296806 -0.018036928 0.08505129 0.0720799 -0.025624963
0.042487133 0.0024958935 -0.08199325 -0.034779735 0.004180713 0.024488192 0.01102549 0.058068205
0.00782739 0.059735503 0.028170418 -0.008572657 -0.06457418 -0.037511233 -0.08148667 0.019402096
-0.023541506 -0.07574748 -0.111192316 0.0072228094 0.0067387703 0.035639588 -0.023527846 0.1088019
0.015447023 0.057605516 0.0035142337 -0.00066886656 0.035700236 0.0017196625 0.039433707 0.112400234
0.08783947 -0.02131414 0.03432103 -0.040741865 -0.05534755 0.056967355 0.010102031 0.11311505
-0.011022753 0.023146486 -0.087695494 0.014640074 0.09291086 0.06363227 0.018732252 -0.035050824
-0.020924767 0.011077669 0.04695384 0.02123722 -0.00532852 0.028841855 -0.055132177 -0.032180976
00000000: 8f10 32bc 9244 563c 1fa9 c8bc 83ab 94bd
00000010: cea9 9cbd 0c36 85bc b5b2 d6bc 1843 10bd
00000020: 43e9 75bb f71a 153c e145 5fbb a4ca 87bd
00000030: 4103 1e3d 683a 4cbd 1318 4bbd 0771 0bbd
00000040: ec85 8d3d b640 253e 04ad 213c 3882 843b
00000050: 9123 023e 681e d53d 33d8 063e 08b8 303d
00000060: 515b e0bc c3fd 823d 6472 a73d ca86 833d
00000070: 029a eb3d 3ab5 e9bb 300b e43d b7a7 ad3d
00000080: 920c 39bc 0005 47bd b96e 94bc e4ed 173d
00000090: ac30 2c3d 4aa1 09bc 5c9e 813d 5625 503d
000000a0: e4a4 7fbd 96a6 db3d 7622 0c3c ec51 963d
000000b0: afdc 033d 11cc d93c 0527 22bb 7d03 883d
000000c0: 35bf 56bd 78b0 8cbd 23e0 46be 23a2 4dbd
000000d0: cc84 5cbd e6dd 92bd 8699 7dbd 60ed 4fbd
000000e0: 2a10 463d 09c3 fabb faa3 f13b 9b01 a03c
000000f0: 9d09 b63c d1ea 153c a174 b93d d4e1 21bc
00000100: b209 473d bc92 813d fe23 8abd 90f2 3ebd
00000110: cc77 84bd 5121 86bc fffb f0bc 0178 cd3c
00000120: 99eb 0e3d 9a95 e73d 2288 013e c459 983c
00000130: a5d5 a13c ed18 9dbd a640 98bd 6def 2abd
00000140: 7700 88bd a6a3 1fbc 5695 e8bc f7ea d5bd
00000150: 88e6 54bc 4315 40bc daf4 df3c cb54 8f3d
00000160: 5cb2 ae3d 356a b03d aa6d a23d fd49 65bc
00000170: f46d 8bbc c498 44bc df56 97bc c4f1 9ebd
00000180: d26e 94bd 5cfa eabc 1f87 00bd 2e32 24bc
00000190: 5c72 463c 5f56 063d 699b 7cbd 82d3 4fbc
000001a0: 47ec db3c 9317 61bd 47c0 5cba e6e6 b13d
000001b0: 3c73 f93c cab3 f83d 2cca e03d 7d57 683d
000001c0: 6b53 38bd fdcb 26bd 52be cd3d d1ba 8bbd
000001d0: 5aa1 debc 3a92 bc3d 5bf3 73bc a12e 883c
000001e0: 1d7d 9abd b2d2 debb 9f7c 333d a90a 9b3d
000001f0: 8003 9e3d 9c25 993c 204e 8b3d b3d3 633d
00000200: 5351 7fbd df73 94bb 43f9 ab3c dae1 633d
00000210: a038 e8bc ed5a fe3c 6198 adbd e599 b6bd
00000220: ede2 03be 4191 3ebd 30c9 72bd e5f1 22b9
00000230: df6c 9f3c bda2 2ebc 2791 c0bb dadb 9a3d
00000240: 6395 1cbd be97 093d cb2a 533d 8dae 993c
00000250: cda8 62bd 7093 c0bd ba5a 60bd cdf2 99bd
00000260: ae86 c7bd 6cb9 f33b d792 ecbd 6a85 6cbd
00000270: bba5 6dbc 776e 90bd 6fd8 29bd 81ca 1fbd
00000280: 46b2 55bd 91bc b93c 491b 00bd 3998 183c
00000290: b5c1 47bd a9de 8cbd 87ea 4fbd 265a 98bc
000002a0: 27fd 723c cef7 8fbd 0cd6 05bd 623e 4bbc
000002b0: e90c 223d 76e5 48bd 0637 14bd f0aa 35bc
000002c0: f5be 62bd 0a78 15bc a5e4 cdbd 8155 b3bd
000002d0: f712 93bd f1fe 98bd e68c 97bd d4e2 70bd
000002e0: b8b5 c7bc 54f5 2c3b 1fb1 9cbd f4c7 a2bd
000002f0: a895 02be 1778 90bd 55c0 66bd da06 98bd
00000300: 0902 02bd 306f b03d c03e 2a3c 09f5 583d
00000310: 2ec2 93bc 5f2f ae3d a09e 933d 71eb d1bc
00000320: fd06 2e3d 2592 233b 14ec a7bd 3275 0ebd
00000330: 5dfe 883b 769b c83c 42a4 343c edd8 6d3d
00000340: 743e 003c 37ad 743d a6c5 e63c 5474 0cbc
00000350: 783f 84bd 61a5 19bd 7ce2 a6bd 25f1 9e3c
00000360: 1eda c0bc 7f21 9bbd ccb8 e3bd 51ad ec3b
00000370: e7d0 dc3b d1fa 113d 78bd c0bc 88d3 de3d
00000380: 8315 7d3c c3f3 6b3d 0f4f 663b e056 2fba
00000390: 693a 123d 4c66 e13a 3d85 213d 1832 e63d
000003a0: 2ee5 b33d fe9a aebc 3594 0c3d f1e0 26bd
000003b0: 1db4 62bd 9a56 693d fd82 253c dda8 e73d
000003c0: c798 34bc b39d bd3c b299 b3bd ecdc 6f3c
000003d0: 0d48 be3d a351 823d 6174 993c 7491 0fbd
000003e0: 6b6a abbc 1d7f 353c ab52 403d aef9 ad3c
000003f0: de9a aebb c145 ec3c 47d2 61bd 33d0 03bd

inception_block_2.branches.0.1.weight f4 [8]
1.0641527 1.0531361 0.9924674 1.2522691 1.0516256 1.0435612 1.0753541 1.0411693
00000000: 2836 883f 2acd 863f 5812 7e3f 5b4a a03f
00000010: ab9b 863f 6a93 853f 34a5 893f 0945 853f

inception_block_2.branches.0.1.bias f4 [8]
-0.052664533 -0.05042527 -0.01854565 -0.22906564 -0.12904598 -0.10463192 -0.11397151 -0.07073368
00000000: c4b6 57bd ba8a 4ebd 0ced 97bc 2f90 6abe
00000010: a124 04be 4349 d6bd e569 e9bd d2dc 90bd

inception_block_2.branches.0.1.running_mean f4 [8]
-0.20289855 -0.00503848 -0.13890596 -0.28377658 -0.28073907 0.023502916 0.1250653 0.0040787384
00000000: a3c4 4fbe d519 a5bb 5d3d 0ebe 2a4b 91be
00000010: 08bd 8fbe 3089 c03c 1e11 003e f0a6 853b

inception_block_2.branches.0.1.running_var f4 [8]
2.0131598 1.5555247 1.9440604 3.019782 2.258331 1.6218973 2.015874 1.914632
00000000: 9cd7 0040 6f1b c73f f9d6 f83f 1c44 4140
00000010: 7f88 1040 559a cf3f 1404 0140 a912 f53f
