result_eeginception_cv5/fold_0/best_model_fold0.pth (torch, 92196 bytes, 60 tensors)

inception_block_1.branches.0.0.weight f4 [8, 1, 1, 64]
0.14529872 0.013063707 -0.023066374 0.07440215 0.10980569 0.07012516 -0.029525012 0.10391209
0.018430036 0.02942111 0.08689208 0.054502398 -0.029270422 0.066182405 -0.009061318 -0.00044055106
0.09048659 -0.011669331 -0.0056732753 0.08758727 0.112065956 0.062308516 0.123135254 0.032820713
-0.00704373 0.1264476 0.08461737 0.09129544 -0.03977916 0.04555925 0.07088407 0.013795732
0.08953213 -0.056640677 0.07333791 -0.006148647 0.086595975 0.026427362 0.10418946 -0.0009958541
0.06723592 0.14963526 0.023979325 0.06669644 0.029162334 0.038567413 0.13616537 0.018281475
0.074201256 0.006021792 0.05068766 0.06269863 -0.013942281 0.057194777 -0.01305085 -0.025980411
0.088322684 -0.046251085 -0.007578526 0.053249985 0.024909083 0.056648906 0.08497227 0.0707346
-0.01148053 0.05465859 0.08697467 0.04847757 -0.014136363 -0.031446885 0.14933923 0.07325478
0.11641752 -0.026119275 0.024087017 -0.06731358 -0.073329024 -0.068618 0.07737925 0.053838145
-0.07512693 -0.07813252 0.04075318 0.010404271 0.058706213 0.07813088 -0.021764742 0.07166612
0.03113438 -0.04512892 -0.065412305 0.09692609 -0.03788027 -0.004913779 0.070377514 -0.08687528
-0.09074117 -0.11847117 -0.0058279503 -0.03809798 -0.05843856 -0.026350189 -0.01686453 -0.04140687
-0.0040774844 -0.035015583 -0.0077552875 0.04075659 0.019908758 0.043190304 0.049243107 0.05922576
0.06110745 -0.047438066 -0.004746461 -0.12257457 0.021425225 -0.054812696 -0.10341523 -0.10285481
-0.10917925 -0.06985033 0.02618036 -0.09456434 -0.022995522 -0.020736156 0.03915772 -0.02880981
0.017382545 -0.07015223 0.071522236 -0.08019287 -0.065539956 0.0141079575 -0.024007095 0.023107067
0.010649925 -0.11076904 0.059817795 -0.03282393 -0.013410637 -0.024061201 0.010445299 -0.061350584
0.035451148 0.10326741 0.015752455 0.12026328 0.0045903292 0.08672726 0.04437371 -0.019645352
0.11037626 0.040724754 0.067216694 0.0742283 0.0801606 0.14504337 0.026076606 0.09006602
0.074860446 0.1223569 -0.0012438585 -0.009881376 0.03339617 0.013337044 0.113466546 0.11362169
0.0073868055 0.0053302767 0.06667982 0.09911085 0.071659304 0.029605612 0.06449723 -0.008645431
0.052011546 -0.011550218 -0.05462759 0.03564432 -0.034009576 -0.021461314 -0.036125623 0.044761427
-0.041590005 0.06316226 0.036004014 -0.014497639 -0.016276732 0.06029902 -0.047404807 0.034791928
0.02296925 0.025714898 -0.025486838 -0.025917195 0.068729766 0.018839313 -0.039670814 0.012705565
0.037865985 -0.053274713 0.055026866 -0.1005372 0.06638577 0.032699164 -0.05336898 -0.08278834
0.058337793 0.014008405 0.07962525 0.10647412 0.0054608746 0.081877865 0.03810315 -0.046513848
0.038843904 0.012926728 -0.11183304 0.04135094 0.0017975284 0.018592315 -0.10968222 -0.096077904
0.044989116 0.06925745 -0.06723143 0.11746538 0.007874767 -0.0462085 -0.04100722 0.0037404494
0.06886153 -0.06787647 0.063045904 0.09356892 0.10143061 0.070511565 0.00011303033 0.0018474229
0.09451152 -0.02327575 -0.011722235 0.05650139 -0.14913094 -0.08181857 -0.106147125 -0.08022168
-0.042963736 -0.041676223 0.106921986 0.077732615 -0.01041768 0.14920418 0.029070692 0.08208397
00000000: 30c9 143e 2909 563c b1f5 bcbc 2860 983d
00000010: cee1 e03d c89d 8f3d 70de f1bc ddcf d43d
00000020: 96fa 963c 8a04 f13c 7af4 b13d e83d 5f3d
00000030: 86c8 efbc a48a 873d ec75 14bc c3f9 e6b9
00000040: 0951 b93d b930 3fbc e2e6 b9bb f460 b33d
00000050: d682 e53d 3737 7f3d 562e fc3d 036f 063d
00000060: 17cf e6bb 7b7b 013e df4b ad3d 1bf9 ba3d
00000070: 79ef 22bd 569c 3a3d ab2b 913d 7e07 623c
00000080: 9f5c b73d 0e00 68bd 3032 963d 977a c9bb
00000090: 3b59 b13d 327e d83c 4961 d53d 5287 82ba
000000a0: fcb2 893d fc39 193e 4a70 c43c 2598 883d
000000b0: d9e5 ee3c ddf8 1d3d ef6e 0b3e 08c3 953c
000000c0: d4f6 973d 7452 c53b dd9d 4f3d 2468 803d
000000d0: 2a6e 64bc 1245 6a3d 3bd3 55bc dfd4 d4bc
000000e0: 86e2 b43d c771 3dbd 4955 f8bb a81c 5a3d
000000f0: 220e cc3c af08 683d f105 ae3d 4ddd 903d
00000100: d518 3cbc b0e1 5f3d c71f b23d 6b90 463d
00000110: 349c 67bc 73ce 00bd 62ec 183e 9a06 963d
00000120: 4f6c ee3d 17f8 d5bc 2352 c53c b4db 89bd
00000130: 872d 96bd 9887 8cbd 0379 9e3d 6385 5c3d
00000140: 26dc 99bd f103 a0bd ceec 263d ad76 2a3c
00000150: ed75 703d 1503 a03d f94b b2bc b0c5 923d
00000160: 870d ff3c 1ad9 38bd e3f6 85bd 3081 c63d
00000170: 5828 1bbd c403 a1bb 1622 903d abeb b1bd
00000180: 82d6 b9bd 03a1 f2bd 64f8 bebb a10c 1cbd
00000190: 465d 6fbd 5adc d7bc 7c27 8abc 409a 29bd
000001a0: 6b9c 85bb 806c 0fbd 1120 febb 62f0 263d
000001b0: b117 a33c 51e8 303d 24b3 493d b696 723d
000001c0: ce4b 7a3d 6b4e 42bd 3388 9bbb 6008 fbbd
000001d0: f483 af3c 4783 60bd 5dcb d3bd 8ba5 d2bd
000001e0: 5f99 dfbd b10d 8fbd 3278 d63c f3aa c1bd
000001f0: 1b61 bcbc dfde a9bc d863 203d 8d02 ecbc
00000200: d765 8e3c f9ab 8fbd 407a 923d 293c a4bd
00000210: d039 86bd 1025 673c 87aa c4bc 084b bd3c
00000220: 067d 2e3c e1da e2bd 8103 753d 6372 06bd
00000230: 4ab8 5bbc ff1b c5bc c222 2b3c c04a 7bbd
00000240: 3935 113d dd7d d33d 4b0b 813c 984c f63d
00000250: 796a 963b 109e b13d 35c1 353d 4aef a0bc
00000260: f30c e23d 00cf 263d e8a8 893d 0205 983d
00000270: 3e2b a43d 4086 143e 9b9e d53c 8974 b83d
00000280: 6f50 993d 4196 fa3d f708 a3ba 7fe5 21bc
00000290: 6cca 083d 9e83 5a3c 2661 e83d 7db2 e83d
000002a0: 040d f23b 9aa9 ae3b 6e8f 883d a1fa ca3d
000002b0: 1dc2 923d 7887 f23c 2017 843d 91a5 0dbc
000002c0: 0f0a 553d 203d 3dbc 2ec1 5fbd c7ff 113d
000002d0: a04d 0bbd a3cf afbc 76f8 13bd c257 373d
000002e0: 485a 2abd 375b 813d f278 133d 8187 6dbc
000002f0: c856 85bc 1bfc 763d 8b2b 42bd fb81 0e3d
00000300: 022a bc3c 0da8 d23c c6c9 d0bc 4c50 d4bc
00000310: 31c2 8c3d e754 9a3c dd7d 22bd 012b 503c
00000320: 5d19 1b3d 9636 5abd da63 613d 73e6 cdbd
00000330: 43f5 873d 8fef 053d 6e99 5abd ef8c a9bd
00000340: 9cf3 6e3d 8283 653c 9012 a33d 1a0f da3d
00000350: 23f1 b23b 95af a73d 0c12 1c3d 4e85 3ebd
00000360: c91a 1f3d a1ca 533c b908 e5bd 9a5f 293d
00000370: 0b9b eb3a e94e 983c 12a1 e0bd 7ec4 c4bd
00000380: 8246 383d dad6 8d3d a2b0 89bd b091 f03d
00000390: 2b05 013c 2045 3dbd 30f7 27bd 5422 753b
000003a0: 4607 8d3d d202 8bbd 361e 813d 10a1 bf3d
000003b0: daba cf3d 5e68 903d b20a ed38 3a25 f23a
000003c0: 418f c13d c9ac bebc 9e0e 40bc 006e 673d
000003d0: c8b5 18be 7f90 a7bd aa63 d9bd 444b a4bd
000003e0: befa 2fbd b0b4 2abd eaf9 da3d 4732 9f3d
000003f0: ebae 2abc fbc8 183e a925 ee3c a41b a83d

inception_block_1.branches.0.0.bias f4 [8]
-0.013025852 4.7632926e-05 -0.04749356 0.0013320465 -0.0044939253 -0.041488923 -0.023073215 -0.0020956756
00000000: 626a 55bc 77c9 4738 9b88 42bd 1098 ae3a
00000010: c741 93bb 4af0 29bd 0a04 bdbc 9a57 09bb

inception_block_1.branches.0.1.weight f4 [8]
1.04569 1.0107136 0.9923284 1.1482036 0.9725549 1.3990606 1.1289023 1.170844
00000000: 2bd9 853f 105f 813f 3c09 7e3f 56f8 923f
00000010: 5cf9 783f 6b14 b33f df7f 903f 37de 953f

inception_block_1.branches.0.1.bias f4 [8]
-0.17011021 -0.09720925 -0.09174215 -0.02528568 -0.039064147 -0.2889163 -0.09180496 -0.18754193
00000000: 5f31 2ebe a515 c7bd 4fe3 bbbd ea23 cfbc
00000010: ba01 20bd d6ec 93be 3d04 bcbd fe0a 40be

inception_block_1.branches.0.1.running_mean f4 [8]
0.417073 -0.065599814 0.18717638 0.087825626 0.12411504 0.25853816 0.03069333 -0.052070122
00000000: 988a d53e 3259 86bd 2aab 3f3e ecdd b33d
00000010: 0730 fe3d 1d5f 843e 9470 fb3c 7b47 55bd

inception_block_1.branches.0.1.running_var f4 [8]
0.13033772 0.3171128 0.26207316 0.2631979 0.2598359 0.21840431 0.37919465 0.40563822
00000000: 4077 053e 9c5c a23e 742e 863e e0c1 863e
00000010: 3609 853e 61a5 5f3e cd25 c23e d0af cf3e

inception_block_1.branches.0.4.weight f4 [16, 1, 22, 1]
-0.0031588196 0.018433345 0.034362964 -0.09694119 -0.08941534 0.11035698 0.24494657 0.06744582
-0.12601846 0.018973526 0.04377778 -0.08880899 0.10603445 -0.004276719 0.047399603 -0.015237063
0.022765545 -0.11556176 -0.002162027 -0.017317133 0.022079092 -0.09962878 -0.006972872 -0.016281528
-0.04413997 -0.056865215 -0.06530977 0.029317029 0.18396442 -0.16025868 0.043211725 -0.082358636
0.021213688 0.035226118 -0.010719903 -0.15428628 0.021352122 0.028641654 0.03502895 -0.062396083
-0.09034669 -0.0019964133 -0.03065618 0.060911864 -0.029163254 0.15363893 0.14984055 0.07164538
0.09115252 0.041021872 -0.054295775 0.035735756 0.020207768 -0.0512082 0.03211139 0.068229966
0.01832117 0.13358279 -0.024209257 0.12646767 -0.04982582 0.09714372 0.11113439 -0.07375289
-0.066129655 0.11377487 0.102337204 -0.014485743 0.038772274 0.040427897 -0.03808075 0.051849224
0.0044911075 -0.16868931 -0.04599003 -0.03383006 0.03542554 -0.14516747 -0.097068235 -0.17567843
-0.06789207 -0.038053524 -0.011608843 -0.08647149 0.0542159 0.10152889 0.058589455 -0.0033642845
0.015304368 -0.14824133 -0.052063417 -0.0132234655 -0.096128695 0.06264322 0.08442541 0.061352313
0.070058934 0.12062939 0.04640244 0.022746574 -0.062016 0.0541046 -0.05509166 0.086046524
-0.02785678 -0.0010715623 0.108574316 -0.08964668 -0.034333937 -0.25243318 -0.095349394 0.09377828
0.03204628 -0.03215548 -0.07666997 0.028324295 0.017689405 0.07165495 -0.10562519 -0.081615366
0.00019409595 0.041935362 0.16128264 0.15313095 0.029159384 -0.093422815 -0.00854845 0.09114297
0.050233252 0.00924625 0.09939309 -0.0922791 -0.073075056 -0.10714473 -0.013746905 0.02237256
0.03446648 -0.028758477 0.084108345 -0.1092424 -0.05094699 -0.0455149 -0.0709691 0.1491095
0.08568264 -0.09067838 -0.10896187 -0.0713146 0.041744996 0.15779738 0.028636113 0.088459074
-0.05756692 0.016996466 -0.09639757 -0.06787964 -0.029903146 -0.064050026 -0.0901999 0.014328024
0.07082787 0.17479463 -0.049912117 0.02578219 -0.019138824 -0.06242811 0.03398392 0.10999892
-0.030055355 -0.061029147 0.07787659 -0.072856486 0.00984532 -0.0122464625 -0.071024604 -0.045156963
0.1071076 0.037388287 -0.014862219 -0.004491551 -0.107335635 -0.020675682 -0.034729797 0.09540114
0.0910122 0.013789681 -0.012155179 0.1103826 0.053441957 -0.02923198 0.1059965 -0.03469654
-0.081433706 0.051836535 -0.051009856 -0.10709521 -0.08287711 -0.19916552 -0.036423486 -0.0920103
-0.11340982 -0.07076776 0.08979395 -0.015550067 -0.10337955 -0.08190766 0.10069935 0.013729078
-0.0054632667 0.1457134 0.0020727718 0.057991255 0.09122679 -0.0078055193 -0.03754099 0.0713816
0.028364064 -0.1013693 -0.014139564 -0.13983624 -0.14150165 0.02157325 -0.052318674 -0.07700089
-0.025118483 -0.06208647 -0.09269181 0.2112571 -0.01416335 -0.08562543 -0.07387345 -0.040826857
-0.031293336 0.19907677 -0.026692444 -0.08736779 -0.020853138 0.067223564 0.09513738 -0.057357892
0.041334074 -0.10990259 -0.12356361 -0.07917149 -0.044161048 -0.06400166 -0.034907777 -0.09322229
-0.11175186 0.05903769 -0.04678994 -0.026042484 0.005404938 -0.01349449 -0.023806773 0.16049138
00000000: 3304 4fbb 8701 973c 2ec0 0c3d 1a89 c6bd
00000010: 641f b7bd d702 e23d 46d3 7a3e 0921 8a3d
00000020: fc0a 01be 5e6e 9b3c 5450 333d 7de1 b5bd
00000030: 9728 d93d b823 8cbb 1626 423d e0a4 79bc
00000040: cf7e ba3c a5ab ecbd cbb0 0dbb a9dc 8dbc
00000050: 36df b43c 2c0a ccbd b17c e4bb d760 85bc
00000060: 1dcc 34bd 80eb 68bd 21c1 85bd 442a f03c
00000070: 2b61 3c3e da1a 24be c7fe 303d a5ab a8bd
00000080: 54c8 ad3c 4349 103d 88a2 2fbc 39fd 1dbe
00000090: a5ea ae3c e7a1 ea3c 847a 0f3d 0993 7fbd
000000a0: af07 b9bd 42d6 02bb ab22 fbbc b87e 793d
000000b0: c7e7 eebc 8653 1d3e cd6f 193e d0ba 923d
000000c0: 2cae ba3d 8d06 283d 3f65 5ebd a85f 123d
000000d0: c38a a53c b1bf 51bd 3c87 033d 27bc 8b3d
000000e0: 4716 963c edc9 083e 7e52 c6bc be80 013e
000000f0: 2916 4cbd 49f3 c63d 6d9a e33d c10b 97bd
00000100: fc6e 87bd cd02 e93d 2b96 d13d 9c55 6dbc
00000110: adcf 1e3d b997 253d 8ffa 1bbd da5f 543d
00000120: 242a 933b e4bc 2cbe 0b60 3cbd 6491 0abd
00000130: 5f1a 113d c8a6 14be b6cb c6bd 0ce5 33be
00000140: ff0a 8bbd 03de 1bbd 0433 3ebc f717 b1bd
00000150: 7e11 5e3d 61ee cf3d 7ffb 6f3d 547b 5cbb
00000160: 2cbf 7a3c 93cc 17be 7340 55bd 3ca7 58bc
00000170: 1fdf c4bd 174b 803d 3be7 ac3d 904c 7b3d
00000180: 0f7b 8f3d 8b0c f73d 7c10 3e3d 0657 ba3c
00000190: 7d04 7ebd c99c 5d3d cba7 61bd 2939 b03d
000001a0: e733 e4bc aa73 8cba 365c de3d ae98 b7bd
000001b0: bea1 0cbd ec3e 81be 8b46 c3bd d40e c03d
000001c0: f642 033d 77b5 03bd 2505 9dbd 5a08 e83c
000001d0: 5fe9 903c d5bf 923d 0552 d8bd f525 a7bd
000001e0: 3c86 4b39 6ac4 2b3d 4727 253e 5cce 1c3e
000001f0: a9df ee3c 7654 bfbd cc0e 0cbc 2aa9 ba3d
00000200: 62c1 4d3d 957d 173c 9b8e cb3d d3fc bcbd
00000210: 60a8 95bd b26e dbbd b33a 61bc a946 b73c
00000220: b92c 0d3d e696 ebbc ff40 ac3d 7bba dfbd
00000230: caad 50bd d56d 3abd 3f58 91bd 29b0 183e
00000240: 617a af3d 96b5 b9bd 6727 dfbd 640d 92bd
00000250: cdfc 2a3d a395 213e 4896 ea3c 082a b53d
00000260: 4acb 6bbd 2c3c 8b3c 176c c5bd 7b04 8bbd
00000270: 71f7 f4bc a92c 83bd baba b8bd 17c0 6a3c
00000280: 340e 913d 5dfd 323e a670 4cbd 2c35 d33c
00000290: 06c9 9cbc 9eb4 7fbd b932 0b3d 1d47 e13d
000002a0: a636 f6bc b3f9 79bd c37d 9f3d c835 95bd
000002b0: 444e 213c 63a5 48bc 5975 91bd 82f6 38bd
000002c0: 3b5b db3d 7624 193d aa80 73bc dc2d 93bb
000002d0: c9d2 dbbd 0c60 a9bc d540 0ebd ac61 c33d
000002e0: 9b64 ba3d 1dee 613c 8426 47bc 4610 e23d
000002f0: f4e5 5a3d e877 efbc b114 d93d f61d 0ebd
00000300: b7c6 a6bd 8c52 543d b6ef 50bd bc54 dbbd
00000310: 79bb a9bd 0cf2 4bbe cb30 15bd e56f bcbd
00000320: 6843 e8bd b0ee 90bd e4e5 b73d b5c5 7ebc
00000330: a8b8 d3bd 34bf a7bd 763b ce3d edef 603c
00000340: 3405 b3bb e535 153e 57d7 073b 3d88 6d3d
00000350: 1cd5 ba3d 71c5 ffbb 95c4 19bd 8430 923d
00000360: c15b e83c b59a cfbd a1a9 67bc 3b31 0fbe
00000370: cfe5 10be 62ba b03c 1b4c 56bd a5b2 9dbd
00000380: 47c5 cdbc 624e 7ebd 34d5 bdbd c853 583e
00000390: 650d 68bc 635c afbd f74a 97bd 103a 27bd
000003a0: 712d 00bd c8da 4b3e 1daa dabc e2ed b2bd
000003b0: 33d4 aabc 82ac 893d 63d7 c23d 1cf0 6abd
000003c0: eb4d 293d 9c14 e1bd eb0e fdbd aa24 a2bd
000003d0: 37e2 34bd 4d13 83bd 75fb 0ebd 54eb bebd
000003e0: 29de e4bd 81d1 713d cfa6 3fbd 0c57 d5bc
000003f0: e81b b13b fe17 5dbc 6c06 c3bc da57 243e

inception_block_1.branches.0.5.weight f4 [16]
0.9814244 1.0370955 0.93679327 0.9130488 0.94192934 0.95138496 0.92924595 1.0167282
0.9466634 0.91721684 1.2886553 1.1724446 0.9773245 0.8860414 1.0919082 1.0216122
00000000: a13e 7b3f 8cbf 843f afd1 6f3f 91bd 693f
00000010: 4822 713f f78d 733f 10e3 6d3f 2624 823f
00000020: 8858 723f b9ce 6a3f a8f2 a43f aa12 963f
00000030: f031 7a3f 9cd3 623f a6c3 8b3f 30c4 823f

inception_block_1.branches.0.5.bias f4 [16]
-0.060602594 -0.012526475 -0.06155654 -0.068387106 -0.028230665 -0.06625355 -0.09329423 -0.09067385
-0.038418874 0.006983581 -0.2745865 -0.24838106 -0.07378078 -0.009862618 -0.19596823 -0.0583005
00000000: 6d3a 78bd d83b 4dbc b622 7cbd 8a0e 8cbd
00000010: ff43 e7bc f1af 87bd 0c11 bfbd 36b3 b9bd
00000020: 1c5d 1dbd 86d6 e43b 9a96 8cbe 9b57 7ebe
00000030: 611a 97bd d196 21bc e5ab 48be 81cc 6ebd

inception_block_1.branches.0.5.running_mean f4 [16]
-0.0036152534 -0.013495525 0.084298536 -0.045616616 -0.007265609 0.018407438 -0.010530756 -0.044784617
-0.010291605 -0.027912367 -0.0029491016 0.0151324095 0.0016257212 -0.064153284 0.008984732 -0.015315327
00000000: e3ed 6cbb 561c 5dbc b6a4 ac3d 7dd8 3abd
00000010: 5914 eebb 32cb 963c 3189 2cbc 1370 37bd
00000020: 1f9e 28bc 7aa8 e4bc b745 41bb eded 773c
00000030: 2716 d53a cc62 83bd b334 133c 23ed 7abc

inception_block_1.branches.0.5.running_var f4 [16]
0.13954777 0.1570779 0.43610904 0.19840387 0.12670328 0.1423305 0.20399308 0.17509995
0.121126935 0.10942046 0.35552564 0.25844255 0.13429849 0.23349491 0.19062936 0.17636666
00000000: 9ce5 0e3e 07d9 203e af49 df3e 622a 4b3e
00000010: 81be 013e 16bf 113e 90e3 503e 674d 333e
00000020: 6611 f83d d617 e03d 7507 b63e 9552 843e
00000030: 8b85 093e 4a19 6f3e 5834 433e 7699 343e

inception_block_1.branches.1.0.weight f4 [8, 1, 1, 32]
0.06318328 -0.13910569 7.3132915e-06 0.0984687 0.017574262 0.036666952 -0.048919875 0.0007645863
-0.08936565 -0.03547868 0.058596294 0.05840246 0.088095605 -0.06806005 0.056916833 -0.06440289
-0.115378186 -0.09505811 -0.1409886 -0.0025237575 0.015306756 0.09849214 0.089287564 0.042409427
0.06179826 0.04030016 -0.14667231 -0.097375095 -0.16205148 -0.12800038 -0.005962976 0.11466331
0.12668502 -0.023353565 0.06615594 0.13041511 0.06932742 -0.06399612 0.07056702 0.09979606
0.042274304 0.12877508 0.11414043 -0.066349454 0.1350662 -0.08903807 -0.054899253 0.057281006
-0.019465903 0.08469364 0.056386463 -0.026875155 0.15884575 -0.07476816 0.03214155 0.025320323
0.07212078 0.10758141 0.07145568 -0.028890992 0.16138637 0.1480206 0.047952678 0.15149795
0.13287333 0.08149128 0.11241813 0.049104672 -0.0018160891 0.050819945 0.026449459 -0.06726331
-0.07041255 0.083702765 -0.012317264 0.043467656 0.14614472 0.09380833 0.049233127 0.059654534
0.10907075 -0.057583846 0.17211124 -0.06876556 -0.06867379 -0.04789576 0.14203969 0.09763927
0.08290479 0.14357509 -0.055350967 -0.052281916 0.11363915 0.013378135 0.113378465 -0.03179422
0.17430522 -0.07467223 0.10869283 0.09858967 -0.055114113 0.14873436 0.11079851 -0.013788295
-0.008495857 0.15476073 0.0037378597 0.03694138 0.08173494 0.072447285 -0.075172156 0.09019731
0.030419886 0.042566825 -0.062207736 0.06771109 -0.010951632 0.09974748 0.06285625 0.09378898
-0.019147648 0.098672174 0.12846214 0.06380132 0.033450536 -0.043901462 -0.027690709 0.11086889
-0.1179998 -0.100963 0.049590047 -0.08075702 -0.1081517 0.041756783 0.08558524 -0.086261675
0.06498949 -0.06798953 0.07840294 0.07137555 0.029017167 0.11996734 -0.028538767 -0.04379988
0.049741812 0.046097048 -0.06407658 -0.09387307 -0.05064946 0.030403266 0.008844993 -0.12709832
0.056450903 -0.14317787 -0.02914565 0.038042914 -0.08919177 0.14851484 -0.014488512 0.18771213
0.010853286 -0.044103306 0.18674564 0.05709246 0.109432414 0.21552643 -0.06624989 0.1536342
-0.046864137 -0.10641495 0.07727245 -0.046178855 -0.13114804 -0.123865865 0.006931648 -0.01392666
-0.04705825 0.07225745 0.06091566 -0.056377478 0.06461995 0.108210005 -0.026408287 -0.037030928
0.11252643 -0.06712466 0.101352654 0.09699475 0.10148389 0.03679886 0.030488072 -0.004469967
-0.12293395 -0.05553944 -0.10227545 -0.08080766 -0.15046963 -0.1251983 -0.1713493 -0.18081142
-0.037101384 0.06441403 -0.10409481 -0.103649676 -0.028502678 -0.02957805 -0.13079366 0.096195236
0.04086801 0.041529074 -0.11931944 -0.11226258 0.13422255 -0.07923449 -0.11225002 -0.106436655
0.059617683 0.007720651 -0.052131772 0.15201429 -0.05283321 0.02212003 0.075109296 0.07501174
0.044220027 -0.062016472 0.069466956 0.032129247 0.094359055 -0.0024803714 0.15586777 0.10038003
0.10069998 0.06958045 0.13670117 -0.078575425 0.11952626 0.06640959 0.013321053 -0.051217645
-0.14375718 -0.029374015 -0.11047268 -0.08899162 0.07294713 -0.04118194 0.15767911 0.014197672
0.06957892 0.021331225 0.13761958 0.079300396 0.06843085 0.12932333 0.12125177 -0.082591
00000000: 3c66 813d b971 0ebe b264 f536 f5a9 c93d
00000010: e6f7 8f3c 1630 163d 3560 48bd 856e 483a
00000020: 5705 b7bd 1852 11bd ab02 703d 6b37 6f3d
00000030: 786b b43d 1163 8bbd a021 693d aae5 83bd
00000040: 664b ecbd d4ad c2bd 515f 10be a065 25bb
00000050: 30c9 7a3c 3fb6 c93d 66dc b63d 82b5 2d3d
00000060: 2c20 7d3d c811 253d 4431 16be 986c c7bd
00000070: d3f0 25be 8812 03be 1165 c3bb 99d4 ea3d
00000080: b8b9 013e fa4f bfbc c47c 873d 8a8b 053e
00000090: 89fb 8d3d 6610 83bd 7185 903d e061 cc3d
000000a0: d227 2d3d 9ddd 033e 75c2 e93d 39e2 87bd
000000b0: cb4e 0a3e 9759 b6bd 0ade 60bd 7d9f 6a3d
000000c0: f576 9fbc dc73 ad3d 7ef5 663d 4929 dcbc
000000d0: 76a8 223e 0d20 99bd dca6 033d 916c cf3c
000000e0: 0fb4 933d a453 dc3d 5b57 923d cdac ecbc
000000f0: 7842 253e b692 173e 076a 443d 4722 1b3e
00000100: f20f 083e e6e4 a63d 7a3b e63d fb21 493d
00000110: d709 eeba 9328 503d 89ac d83c 59c1 89bd
00000120: 7434 90bd 5b6c ab3d 5ace 49bc 240b 323d
00000130: f6a6 153e 951e c03d ada8 493d 5058 743d
00000140: 7c60 df3d 0add 6bbd ee3d 303e f5d4 8cbd
00000150: d8a4 8cbd 582e 44bd da72 113e 19f7 c73d
00000160: fdc9 a93d 5905 133e b2b7 62bd 9025 56bd
00000170: a5bb e83d f72f 5b3c f832 e83d a83a 02bd
00000180: 117d 323e c1ed 98bd 599a de3d 62e9 c93d
00000190: 56bf 61bd d24d 183e 54ea e23d 4de8 61bc
000001a0: 3532 0bbc 9979 1e3e e1f6 743b d84f 173d
000001b0: a664 a73d 3e5f 943d dcf3 99bd 5eb9 b83d
000001c0: 2033 f93c 8d5a 2e3d 8acd 7ebd 1dac 8a3d
000001d0: 796e 33bc 6848 cc3d c7ba 803d 7014 c03d
000001e0: 87db 9cbc a314 ca3d 948b 033e 44aa 823d
000001f0: 6e03 093d 05d2 33bd a0d7 e2bc 3b0f e33d
00000200: e1a9 f1bd b0c5 cebd ef1e 4b3d f063 a5bd
00000210: a37e ddbd 2909 2b3d 5047 af3d f6a9 b0bd
00000220: 3619 853d 183e 8bbd b891 a03d 582d 923d
00000230: 69b5 ed3c 70b1 f53d 22ca e9bc 8167 33bd
00000240: 12be 4b3d 42d0 3c3d 953a 83bd 8640 c0bd
00000250: cf75 4fbd 4510 f93c 97ea 103c 1026 02be
00000260: 1039 673d 389d 12be dcc2 eebc e3d2 1b3d
00000270: 2daa b6bd 4614 183e 3961 6dbc 9c37 403e
00000280: fbd1 313c aba5 34bd 403a 3f3e c9d9 693d
00000290: 1a1e e03d f6b2 5c3e 06ae 87bd 4952 1d3e
000002a0: 9cf4 3fbd 15f0 d9bd 0541 9e3d 0a26 3dbd
000002b0: ac4b 06be 63ad fdbd e122 e33b a52c 64bc
000002c0: 27c0 40bd b7fb 933d b382 793d 12ec 66bd
000002d0: 7757 843d 359d dd3d 3156 d8bc bead 17bd
000002e0: 4274 e63d a778 89bd fb91 cf3d 2fa5 c63d
000002f0: c9d6 cf3d 67ba 163d 1fc2 f93c cd78 92bb
00000300: cbc4 fbbd 537d 63bd cb75 d1bd 7d7e a5bd
00000310: b614 1abe fc33 00be 3176 2fbe a126 39be
00000320: 9ff7 17bd 81eb 833d a92f d5bd 4846 d4bd
00000330: 737e e9bc ab4d f2bc c6ee 05be 0202 c53d
00000340: 3765 273d 641a 2a3d c05d f4bd ece9 e5bd
00000350: a371 093e b145 a2bd 57e3 e5bd 76fb d9bd
00000360: ac31 743d 84fd fc3b 2088 55bd a2a9 1b3e
00000370: a367 58bd 1135 b53c e7d2 993d c19f 993d
00000380: 0f20 353d fc04 7ebd b144 8e3d f599 033d
00000390: 523f c13d ba8d 22bb cd9b 1f3e 0c94 cd3d
000003a0: cb3b ce3d 3280 8e3d 64fb 0b3e 27ec a0bd
000003b0: 2fca f43d c001 883d 8c40 5a3c 98c9 51bd
000003c0: 1535 13be c6a1 f0bc 803f e2bd 3d41 b6bd
000003d0: 4e65 953d 65ae 28bd a276 213e 5a9d 683c
000003e0: 657f 8e3d d2be ae3c 26ec 0c3e 3f68 a23d
000003f0: 7925 8c3d 566d 043e d952 f83d 7825 a9bd

inception_block_1.branches.1.0.bias f4 [8]
-0.009494548 -0.0180271 0.033499 -0.010202175 0.037662942 -0.02986329 -0.002356268 0.0053533837
00000000: 058f 1bbc 92ad 93bc 3f36 093d 0627 27bc
00000010: 7544 1a3d dca3 f4bc 9e6b 1abb 706b af3b

inception_block_1.branches.1.1.weight f4 [8]
1.0360972 1.1141446 1.0428997 0.96508306 1.0138241 1.2682213 0.9818961 1.2762821
00000000: d59e 843f 4a9c 8e3f bd7d 853f af0f 773f
00000010: fdc4 813f 1355 a23f 8b5d 7b3f 365d a33f

inception_block_1.branches.1.1.bias f4 [8]
-0.03972439 -0.024971472 -0.013026501 -0.03839477 -0.058282867 -0.10500587 -0.21517298 -0.27583653
00000000: 0bb6 22bd f990 ccbc 1b6d 55bc d643 1dbd
00000010: 04ba 6ebd 510d d7bd 4e56 5cbe 723a 8dbe

inception_block_1.branches.1.1.running_mean f4 [8]
-0.06875317 0.23641506 0.238802 0.21788865 0.017115248 0.08557015 -0.19153054 0.18418184
00000000: 76ce 8cbd ca16 723e 8388 743e 341e 5f3e
00000010: 4735 8c3c 673f af3d 9520 44be 2a9a 3c3e

inception_block_1.branches.1.1.running_var f4 [8]
0.14202406 0.24073535 0.14515518 0.14804132 0.16600563 0.27811304 0.39406824 0.3819933
00000000: c16e 113e 5483 763e 8fa3 143e 2598 173e
00000010: 61fd 293e d564 8e3e 50c3 c93e a094 c33e

inception_block_1.branches.1.4.weight f4 [16, 1, 22, 1]
-0.088785 0.060773358 0.045359224 0.026152305 -0.01609368 -0.11516139 0.061012805 -0.010990986
0.08794256 0.011183772 0.020937355 0.03954382 0.14065388 -0.009347342 0.09944847 0.13844539
-0.0052553546 0.028782196 0.07327204 0.15383156 -0.058074012 0.05827252 0.026534628 0.028875858
-0.08756263 0.1237165 0.14663292 0.056408793 -0.009824655 0.023854146 -0.04532428 -0.121947646
0.1182333 -0.11378993 -0.0018474978 -0.05026789 -0.09783384 -0.1010081 0.035743423 -0.12318554
-0.09312295 -0.032072466 -0.00044973136 0.020944284 -0.0084658 -0.14421071 -0.0927157 -0.06206737
0.12300336 0.039092086 -0.07629717 -0.043110754 0.010854571 -0.03627147 -0.011281089 0.012849845
0.0014778405 0.0137880985 0.05197926 0.004855964 -0.0038912368 0.17960735 0.1371314 0.01951762
0.021640223 0.07342424 0.0119046075 0.18419161 0.067654125 -0.06981485 0.066054165 0.12255866
-0.030831156 -0.06297396 0.045873165 -0.02030117 -0.07152507 0.055398997 0.10350392 0.043542113
-0.10100937 -0.0035954043 -0.043703493 -0.027053008 -0.022509411 0.0931077 0.15016447 0.1307352
-0.026786992 -0.19892593 -0.10774283 -0.033150066 -0.075498454 -0.02556649 -0.06147689 -0.20844169
0.06570124 -0.020687766 0.04519377 0.022957174 0.092665836 -0.14327697 0.0014778177 -0.006583516
0.11284035 0.0653997 -0.101614855 0.0043338626 -0.035723846 -0.028003518 0.040149864 0.018540066
0.036025155 -0.038343485 0.047986053 -0.020905362 -0.07267854 0.114025414 -0.09416766 0.030894797
0.0122767445 0.031758804 0.018898139 0.1555975 -0.088655815 -0.094044805 -0.12956272 0.105468094
0.017579578 -0.11672076 0.00086399337 -0.11480435 -0.011147098 0.08198093 0.0035153092 -0.06355203
0.013161119 0.0334861 -0.05964983 0.13097896 -0.03783926 -0.02955004 -0.015673533 -0.0350081
0.06876917 0.1842577 0.018191764 -0.07610926 0.040820625 -0.011293851 0.014735197 -0.07758771
-0.08100188 -0.20763496 0.13431908 0.2005264 0.017904392 0.09318835 0.08716452 -0.024738923
-0.064041264 -0.041264255 -0.012202106 -0.036645357 0.010408295 -0.10627129 -0.057664156 -0.059134714
-0.086215064 0.006663713 0.052467894 0.009864859 -0.09357135 -0.030596305 0.07012348 0.09066801
-0.11533339 -0.09967185 -0.026682751 -0.030428272 -0.012971742 0.012039868 -0.039697107 -0.10921306
0.057656404 -0.019786112 0.00890122 -0.03947475 0.06395085 -0.087529205 -0.032313783 0.11549817
0.09174787 -0.13172422 -0.14455886 0.08891731 -0.093500115 -0.088847674 0.07751201 0.07386597
0.08782414 0.10578752 0.06588622 0.10062913 -0.07535907 -0.015995337 -0.040629588 0.026516745
-0.008896406 0.011578137 0.009070985 -0.23888451 -0.05092989 0.030053237 0.045514636 -0.040748496
-0.08914532 0.016060285 0.033635695 0.05798285 -0.09043404 0.050454143 -0.051914595 -0.10912519
-0.022919778 -0.042670373 -0.054718345 0.21373922 -0.09475581 -0.061888233 0.011211373 -0.023054551
0.015638165 0.24738567 0.013779077 -0.09044859 -0.057080973 -0.039418045 0.07308561 -0.06219659
0.031201445 -0.048152313 -0.12022124 -0.02523589 -0.092044316 -0.14289181 -0.0017091448 0.039342795
0.009269725 -0.0017647372 -0.01061254 -0.012164671 -0.049906895 0.16055545 0.08307004 -0.05208763
00000000: e9d4 b5bd 7ced 783d 98ca 393d 5c3d d63c
00000010: e5d6 83bc bcd9 ebbd 90e8 793d 8913 34bc
00000020: 3b1b b43d 243c 373c d184 ab3c b3f8 213d
00000030: 9207 103e 9825 19bc a4ab cb3d a1c4 0d3e
00000040: 1c35 acbb a4c8 eb3c a70f 963d 0586 1d3e
00000050: 04df 6dbd 2aaf 6e3d 265f d93c 108d ec3c
00000060: 0954 b3bd 145f fd3d f126 163e e80c 673d
00000070: 97f7 20bc c569 c33c f4a5 39bd b0bf f9bd
00000080: 4d24 f23d b20a e9bd bd27 f2ba b4e5 4dbd
00000090: 1c5d c8bd 56dd cebd b267 123d b348 fcbd
000000a0: 3fb7 bebd 6b5e 03bd ecc9 ebb9 5993 ab3c
000000b0: 24b4 0abc f9ab 13be bbe1 bdbd 5b3a 7ebd
000000c0: 30e9 fb3d 061f 203d b141 9cbd e794 30bd
000000d0: 5fd7 313c 6591 14bd 51d4 38bc 2888 523c
000000e0: 19b4 c13a 7ae7 613c 34e8 543d c71e 9f3b
000000f0: 1f04 7fbb fdea 373e 2c6c 0c3e 6ae3 9f3c
00000100: d646 b13c 735f 963d 8b0b 433c ba9c 3c3e
00000110: 3f8e 8a3d 17fb 8ebd 6847 873d 0900 fb3d
00000120: 9f91 fcbc 7ef8 80bd 80e5 3b3d a44e a6bc
00000130: bc7b 92bd 0fea 623d ddf9 d33d 3759 323d
00000140: 00de cebd e0a0 6bbb 6f02 33bd 459e ddbc
00000150: a865 b8bc 40af be3d b7c4 193e 73df 053e
00000160: 6570 dbbc 3db3 4bbe 46a8 dcbd 5dc8 07bd
00000170: ef9e 9abd d170 d1bc 31cf 7bbd bd71 55be
00000180: 5f8e 863d 6479 a9bc 1a1d 393d af10 bc3c
00000190: 96c7 bd3d 33b7 12be 55b3 c13a 89ba d7bb
000001a0: d718 e73d 47f0 853d 731b d0bd 1303 8e3b
000001b0: 2b53 12bd a267 e5bc 2f74 243d 56e1 973c
000001c0: 1d8f 133d 0f0e 1dbd 068d 443d b941 abbc
000001d0: 7dd8 94bd 2886 e93d f9da c0bd 1617 fd3c
000001e0: 6624 493c 8515 023d 45d0 9a3c f354 1f3e
000001f0: 2e91 b5bd 909a c0bd 17ac 04be a8ff d73d
00000200: 0c03 903c 4b0b efbd 9d7d 623a 8b1e ebbd
00000210: 51a2 36bc 9ee5 a73d 1a61 663b 9127 82bd
00000220: bca1 573c b928 093d 6153 74bd 591f 063e
00000230: 57fd 1abd ed12 f2bc c865 80bc a764 0fbd
00000240: dad6 8c3d 0dae 3c3e e506 953c 2cdf 9bbd
00000250: 8733 273d d809 39bc e56b 713c 4ee6 9ebd
00000260: 50e4 a5bd 429e 54be f18a 093e cb56 4d3e
00000270: 3bac 923c 89d9 be3d 5083 b23d 48a9 cabc
00000280: 1128 83bd b504 29bd 58eb 47bc 7119 16bd
00000290: 8e87 2a3c c3a4 d9bd 4031 6cbd 3e37 72bd
000002a0: 8691 b0bd 475b da3b 93e8 563d 38a0 213c
000002b0: 56a2 bfbd 1aa5 fabc e69c 8f3d 26b0 b93d
000002c0: ea33 ecbd c120 ccbd c995 dabc b644 f9bc
000002d0: 6e87 54bc de42 453c 6f99 22bd 19ab dfbd
000002e0: 1f29 6c3d 7c16 a2bc 6cd6 113c 47b0 21bd
000002f0: aaf8 823d 8342 b3bd 755b 04bd 4e8a ec3d
00000300: 4fe6 bb3d b7e2 06be 3d07 14be 471a b63d
00000310: fd7c bfbd c5f5 b5bd 9ebe 9e3d 0b47 973d
00000320: 25dd b33d 21a7 d83d 5bef 863d a516 ce3d
00000330: db55 9abd a708 83bc 366b 26bd a539 d93c
00000340: 3bc2 11bc 3ab2 3d3c 789e 143c 249e 74be
00000350: dc9b 50bd 3532 f63c 8e6d 3a3d e5e7 26bd
00000360: d291 b6bd dc90 833c 95c5 093d 6d7f 6d3d
00000370: 7b35 b9bd 01a9 4e3d 66a4 54bd 077d dfbd
00000380: 42c2 bbbc 21c7 2ebd 5820 60bd 74de 5a3e
00000390: 560f c2bd 847e 7dbd e8af 373c e6dc bcbc
000003a0: 9c1b 803c ab52 7d3e a3c1 613c 1c3d b9bd
000003b0: bdcd 69bd d174 21bd e9ad 953d dac1 7ebd
000003c0: 2c9a ff3c 5c3b 45bd 8e36 f6bd 7fbb cebc
000003d0: bb81 bcbd 3b52 12be 6205 e0ba e925 213d
000003e0: 0be0 173c c14e e7ba 38e0 2dbc 544e 47bc
000003f0: 2c6b 4cbd a668 243e a020 aa3d d759 55bd

inception_block_1.branches.1.5.weight f4 [16]
0.8800525 0.88168323 0.92541903 0.9296519 0.97636425 1.0066819 0.9913066 1.0376959
0.9999395 1.0929897 1.1544411 1.1099696 0.97362494 0.98907226 1.1274257 1.0305125
00000000: 1f4b 613f feb5 613f 43e8 6c3f abfd 6d3f
00000010: 02f3 793f f4da 803f 45c6 7d3f 38d3 843f
00000020: 09fc 7f3f 16e7 8b3f bac4 933f 7c13 8e3f
00000030: 7c3f 793f d733 7d3f 7c4f 903f d5e7 833f

inception_block_1.branches.1.5.bias f4 [16]
-0.059813738 -0.0660902 -0.10199486 -0.09828305 -0.11145392 -0.03651231 -0.038192574 -0.08395176
-0.13423212 -0.112340994 -0.13777289 -0.114202954 -0.021139646 -0.06810624 -0.049108326 -0.09187354
00000000: 40ff 74bd 4c5a 87bd aee2 d0bd a048 c9bd
00000010: f441 e4bd ef8d 15bd d16f 1cbd e6ee abbd
00000020: 2574 09be 0913 e6bd 5614 0dbe 3de3 e9bd
00000030: 0d2d adbc 497b 8bbd d025 49bd 3228 bcbd

inception_block_1.branches.1.5.running_mean f4 [16]
0.10807019 -0.041237675 0.045133892 0.097138435 -0.10025087 -0.021343214 -0.01739747 0.016506346
-0.08107947 0.017894423 -0.022983298 -0.03175062 0.0050437367 0.0018247862 0.0015145123 -0.009292152
00000000: e753 dd3d d6e8 28bd 51de 383d 84f0 c63d
00000010: 5450 cdbd f7d7 aebc 2485 8ebc 5138 873c
00000020: fe0c a6bd 5397 923c 7847 bcbc f00c 02bd
00000030: ee45 a53b aa2d ef3a 9a82 c63a 1c3e 18bc

inception_block_1.branches.1.5.running_var f4 [16]
0.36116746 0.1590837 0.22249584 0.36292073 0.44241652 0.13073179 0.1350175 0.13150217
0.2641578 0.17450239 0.28856447 0.24618383 0.15419394 0.15763786 0.21801588 0.15219851
00000000: f1ea b83e d6e6 223e f3d5 633e bfd0 b93e
00000010: 6b84 e23e 8ede 053e 0742 0a3e 81a8 063e
00000020: b13f 873e c1b0 323e b9be 933e 9d17 7c3e
00000030: 04e5 1d3e d26b 213e 8e3f 5f3e edd9 1b3e

inception_block_1.branches.2.0.weight f4 [8, 1, 1, 16]
0.15000117 0.098445624 0.04207386 0.013404217 -0.049656767 0.016473802 -0.1310826 -0.11018224
0.029942308 0.11387603 -0.0016073728 0.20229442 0.22602375 -0.10515171 -0.004970819 0.11960112
0.009893381 0.09005007 -0.0788636 0.12723747 -0.10799289 0.0022391612 -0.17649212 -0.07078175
0.119745515 0.099692896 -0.14445384 0.10908716 -0.029441424 -0.1454952 0.19745265 0.10086595
0.019998822 0.06990922 0.09858839 -0.15943992 0.14328034 0.1688533 0.04095069 -0.041565184
0.03903149 0.022886472 0.045433752 -0.104631305 0.1480809 0.03482764 0.023856884 -0.06742382
0.057834465 -0.24197657 -0.14529803 -0.18926609 0.10146116 -0.12675348 -0.044087514 -0.053973757
0.13285851 -0.14377443 -0.045526404 -0.12244402 0.007655572 -0.14379309 0.0035767877 0.074266925
0.032516886 0.03282624 -0.02999044 -0.14176479 -0.045071475 0.13742252 0.018897677 0.032848567
-0.04547713 0.15191627 0.14825329 0.06369127 0.17447928 0.06357752 0.052522786 0.08588428
-0.17821318 0.11800443 -0.12827078 -0.121397175 -0.03252121 -0.14511232 -0.1096928 0.18039493
-0.01679886 0.08034572 0.045072295 0.20585915 -0.07099229 -0.07770599 0.20095728 -0.14336644
-0.2103867 -0.05120523 0.07762238 0.043026894 -0.16723037 -0.16142586 0.06961102 -0.12486633
0.09625232 -0.07715849 -0.12265953 -0.06920805 0.14851663 -0.11335309 -0.15751773 0.03768289
0.004753645 -0.14032595 0.013161211 -0.13418733 -0.13093367 -0.14986095 -0.08112681 -0.12097341
0.014880089 -0.08447917 0.091925494 -0.14619862 0.067257404 0.12315433 -0.07190692 -0.13643137
00000000: e899 193e dc9d c93d a455 2c3d 5c9d 5b3c
00000010: e564 4bbd 11f4 863c 843a 06be 3aa7 e1bd
00000020: 9249 f53c d637 e93d 7bae d2ba 4526 4f3e
00000030: c572 673e c859 d7bd 41e2 a2bb 6ff1 f43d
00000040: d917 223c 2c6c b83d 3d83 a1bd 8a4a 023e
00000050: 602b ddbd e4be 123b 5aba 34be 06f6 90bd
00000060: 233d f53d ca2b cc3d b5eb 13be 1769 df3d
00000070: 242f f1bc b2fc 14be 0731 4a3e cf92 ce3d
00000080: 92d4 a33c 912c 8f3d b6e8 c93d 3844 23be
00000090: 15b8 123e e1e7 2c3e e9bb 273d 4140 2abd
000000a0: 7cdf 1f3d 697c bb3c be18 3a3d f048 d6bd
000000b0: 85a2 173e 6da7 0e3d 836f c33c 8015 8abd
000000c0: d5e3 6c3d b5c8 77be 02c9 14be f8ce 41be
000000d0: deca cf3d aacb 01be 1c95 34bd 9613 5dbd
000000e0: 100c 083e 9b39 13be e579 3abd eec3 fabd
000000f0: 98db fa3b 7f3e 13be 8a68 6a3b 4219 983d
00000100: 6d30 053d cf74 063d 83ae f5bc ca2a 11be
00000110: de9c 38bd 7db8 0c3e 4dcf 9a3c 388c 063d
00000120: 3a46 3abd f08f 1b3e b6cf 173e 9270 823d
00000130: b2aa 323e ee34 823d 2222 573d 19e4 af3d
00000140: 847d 36be 4eac f13d 6a59 03be 159f f8bd
00000150: f634 05bd 5398 14be 9ea6 e0bd 73b9 383e
00000160: c39d 89bc 4c8c a43d ba9d 383d becc 523e
00000170: 6864 91bd 5124 9fbd bfc7 4d3e a7ce 12be
00000180: 9c6f 57be 93bc 51bd 7bf8 9e3d f83c 303d
00000190: 703e 2bbe d24c 25be 3990 8e3d ebb9 ffbd
000001a0: f01f c53d 4505 9ebd eb34 fbbd f3bc 8dbd
000001b0: be14 183e aa25 e8bd 544c 21be 6059 1a3d
000001c0: 77c4 9b3b 9bb1 0fbe 1fa2 573c 6768 09be
000001d0: 7a13 06be 2675 19be d025 a6bd e8c0 f7bd
000001e0: 9ecb 733c 6a03 adbd 6f43 bc3d 17b5 15be
000001f0: 40be 893d 5638 fc3d ef43 93bd aab4 0bbe

inception_block_1.branches.2.0.bias f4 [8]
0.009976629 0.031616043 0.018660018 -0.013315483 0.013056164 0.010701408 0.0016486762 -0.030832728
00000000: 0475 233c d37f 013d e5dc 983c 2f29 5abc
00000010: 85e9 553c f554 2f3c 6518 d83a eb94 fcbc

inception_block_1.branches.2.1.weight f4 [8]
1.0989139 1.1051384 0.9965237 0.93710154 0.96956456 1.0818743 1.0492022 1.0263436
00000000: 36a9 8c3f 2d75 8d3f 2d1c 7f3f e3e5 6f3f
00000010: 6235 783f db7a 8a3f 424c 863f 3a5f 833f

inception_block_1.branches.2.1.bias f4 [8]
-0.15381329 -0.16344906 -0.030104635 0.023729859 -0.08050844 -0.040295087 -0.0727506 -0.08152301
00000000: 3b81 1dbe 315f 27be ff9d f6bc 1f65 c23c
00000010: 9ce1 a4bd 760c 25bd 44fe 94bd 89f5 a6bd

inception_block_1.branches.2.1.running_mean f4 [8]
0.10012084 0.047373265 0.089957066 -0.14444889 0.1267146 -0.01949239 -0.114754856 -0.16374692
00000000: 280c cd3d 780a 423d 693b b83d 69ea 13be
00000010: 79c1 013e 81ae 9fbc 9804 ebbd 46ad 27be

inception_block_1.branches.2.1.running_var f4 [8]
0.12014898 0.041361228 0.06390476 0.19146384 0.21942596 0.14183055 0.09602557 0.20741427
00000000: ab10 f63d 646a 293d 80e0 823d 190f 443e
00000010: 33b1 603e 073c 113e 0ea9 c43d 6864 543e

inception_block_1.branches.2.4.weight f4 [16, 1, 22, 1]
-0.016216632 -0.13267314 0.08728959 0.059141386 0.01655331 -0.08082465 -0.0857873 0.048024468
0.077388585 0.053331688 0.12619266 0.12346005 0.045559317 -0.084029965 0.040501166 0.0047056815
0.088388875 0.041214954 0.07144726 0.050677706 -0.069933034 -0.08636787 -0.05420535 -0.04402837
0.0062637473 -0.031142907 0.10617817 0.02431953 -0.05954127 -0.057515014 -0.05905841 0.011666684
0.022516895 0.15016356 -0.011436984 -0.011279585 0.016988883 0.03925988 0.059194583 0.11461844
0.108081505 -0.07533144 0.0020123008 -0.123538926 -0.05372986 -0.12653692 -0.030008558 -0.05396605
-0.028381277 0.111691214 0.16414863 -0.026778204 0.06955391 0.026042309 -0.025565214 0.00615508
0.0070900973 -0.1314732 0.072045766 -0.06312154 -0.06184265 -0.08839049 -0.041414913 0.11845282
-0.0025173558 0.10250693 0.122634344 0.14712353 0.06168627 0.013442356 -0.008902696 0.062747285
0.060421597 -0.007644584 -0.030490186 -0.04942299 0.06802291 0.048129503 0.11651045 0.06894281
0.0360949 -0.039917294 0.12906891 0.02912324 0.031075375 0.07220873 -0.05774114 0.056321114
0.12258019 0.03522483 -0.11121372 0.04457407 0.015401792 -0.029576039 0.027273735 0.12889844
0.08782131 0.032757837 -0.07319243 -0.050497234 0.1284768 0.055197094 0.099792786 0.06685315
-0.09822729 0.098954886 0.08220784 -0.11021479 0.0006398271 -0.15604208 0.07379255 0.1229828
0.048596118 0.021258965 -0.05951459 -0.023506764 -0.07491557 0.12568077 0.04666684 -0.045593563
-0.114788085 -0.06624643 0.078473374 -0.0872342 0.014015899 -0.09833332 -0.04179856 -0.12302726
-0.09290897 -0.05563904 -0.035841834 -0.006432353 0.0826767 0.0010611913 0.028671209 -0.08913046
-0.07721799 -0.12332161 0.10813204 -0.015213015 -0.056675173 -0.19528727 -0.0068209325 -0.16058886
0.10905137 -0.11860174 0.011738627 0.02046707 -0.12080517 0.07742927 0.06964481 0.07228746
0.07564063 -0.00831548 -0.030511193 0.09512093 0.057316873 -0.13625163 0.07271138 -0.04962663
-0.014920013 0.06050384 0.08804544 -0.0949256 -0.009712997 -0.052886236 -0.029599292 0.12493613
0.02748537 -0.1323815 -0.02854336 0.04513389 -0.048121944 0.0734874 -0.1286141 -0.043142162
0.14739867 0.15649983 0.097481556 0.04891849 -0.025599835 0.05396784 -0.03852013 0.14474732
0.07212278 -0.10486743 -0.010471779 -0.017304529 -0.0841647 -0.08356342 -0.007837529 0.10483088
0.07277326 0.0064677414 -0.046338636 -0.034319304 0.018866597 0.053056743 -0.1307098 -0.1424377
-0.11216075 -0.043215558 -0.0072465376 0.04023534 0.0945758 -0.023595672 -0.009072448 0.038969725
0.012060416 0.13947873 0.038201973 -0.10462731 0.015238026 -0.008652474 0.023223294 0.033215374
-0.011662423 0.0151694575 -0.08786299 -0.16266795 -0.110681474 -0.15553437 -0.14407067 0.08072562
0.059488796 0.041706193 0.059868567 0.017367302 -0.037729815 -0.017189866 -0.041536815 0.077238806
0.02573698 -0.086802274 0.026553614 -0.07155117 0.11912687 0.06380527 0.03981706 -0.04630239
0.075980574 0.075961106 0.015931098 -0.059847966 -0.061727863 -0.033336893 -0.09315556 -0.046283074
-0.030115392 0.19270554 -0.056248143 -0.067600556 -0.0061697457 -0.048529 -0.028988041 0.16811493
00000000: bed8 84bc 78db 07be e2c4 b23d 3d3e 723d
00000010: cf9a 873c 6587 a5bd 40b1 afbd 4eb5 443d
00000020: e87d 9e3d 5472 5a3d a638 013e 9fd8 fc3d
00000030: 689c 3a3d e717 acbd 8de4 253d 1e32 9a3b
00000040: 3a05 b53d 03d1 283d f152 923d 6d93 4f3d
00000050: 0d39 8fbd a3e1 b0bd 6e06 5ebd 1857 34bd
00000060: 1f40 cd3b 691f ffbc f173 d93d c039 c73c
00000070: 8ce1 73bd dd94 6bbd 3be7 71bd 9f25 3f3c
00000080: 5a75 b83c 7ac4 193e 3062 3bbc 02ce 38bc
00000090: 452c 8b3c f8ce 203d 0576 723d 13bd ea3d
000000a0: d659 dd3d 5f47 9abd cee0 033b fa01 fdbd
000000b0: d713 5cbd e592 01be 82d4 f5bc 810b 5dbd
000000c0: da7f e8bc 5dbe e43d 9416 283e f75d dbbc
000000d0: 4872 8e3d ae56 d53c 246e d1bc 8eb0 c93b
000000e0: 0c54 e83b e9a0 06be bb8c 933d de45 81bd
000000f0: b84e 7dbd 1306 b5bd afa2 29bd 6497 f23d
00000100: 39fa 24bb 27ef d13d b727 fb3d 8da7 163e
00000110: beaa 7c3d 543d 5c3c 9ddc 11bc a681 803d
00000120: a37c 773d 6b7f fabb 8ec6 f9bc c36f 4abd
00000130: 984f 8b3d 7123 453d 089d ee3d e331 8d3d
00000140: 3fd8 133d 5180 23bd a42a 043e dc93 ee3c
00000150: c991 fe3c 2ce2 933d f981 6cbd f8b0 663d
00000160: 530b fb3d e947 103d 05c4 e3bd 4d93 363d
00000170: cc57 7c3c 7349 f2bc 2b6d df3c f4fd 033e
00000180: a9db b33d 152d 063d eae5 95bd 30d6 4ebd
00000190: 6c8f 033e 5916 623d 2960 cc3d 4eea 883d
000001a0: 642b c9bd dca8 ca3d 965c a83d 4bb8 e1bd
000001b0: 12ba 273a 7fc9 1fbe 8c20 973d 68de fb3d
000001c0: b90c 473d 4827 ae3c 92c5 73bd 4291 c0bc
000001d0: 566d 99bd 76b2 003e ba25 3f3d 51c0 3abd
000001e0: 0416 ebbd 35ac 87bd a6b6 a03d d8a7 b2bd
000001f0: f1a2 653c fb62 c9bd f834 2bbd b7f5 fbbd
00000200: 0f47 bebd c3e5 63bd e3ce 12bd 7dc6 d2bb
00000210: 6752 a93d ac17 8b3a e2df ea3c 088a b6bd
00000220: 7724 9ebd 0a90 fcbd 5574 dd3d 0240 79bc
00000230: 3a24 68bd 63f9 47be 2182 dfbb 6871 24be
00000240: 5356 df3d 78e5 f2bd 5f53 403c 8faa a73c
00000250: b368 f7bd 3d93 9e3d f0a1 8e3d 730b 943d
00000260: 7ae9 9a3d a73d 08bc 9cf2 f9bc c3ce c23d
00000270: 19c5 6a3d 8c85 0bbe b4e9 943d 4b45 4bbd
00000280: 1273 74bc e0d2 773d 2b51 b43d 5a68 c2bd
00000290: 4323 1fbc 3d9f 58bd 377a f2bc 84de ff3d
000002a0: 0029 e13c 048f 07be c4d3 e9bc 50de 383d
000002b0: 841b 45bd 9080 963d 6ab3 03be d6b5 30bd
000002c0: adef 163e 7e41 203e 69a4 c73d c15e 483d
000002d0: bfb6 d1bc 620d 5d3d 49c7 1dbd a438 143e
000002e0: 1cb5 933d bcc4 d6bd d391 2bbc 3ac2 8dbc
000002f0: 8b5e acbd 4c23 abbd fb68 00bc 93b1 d63d
00000300: 260a 953d 59ef d33b 95cd 3dbd 6692 0cbd
00000310: 1f8e 9a3c 0752 593d cad8 05be 30db 11be
00000320: 89b4 e5bd cc02 31bd 5d74 edbb d0cd 243d
00000330: f5b0 c13d b64b c1bc 9ba4 14bc b89e 1f3d
00000340: 0d99 453c 83d3 0e3e ac79 1c3d d846 d6bd
00000350: eaa8 793c 1bc3 0dbc c73e be3c d80c 083d
00000360: bf13 3fbc 5189 783c 83f1 b3bd 6d92 26be
00000370: f8ac e2bd 6744 1fbe 4387 13be 7953 a53d
00000380: 86aa 733d 1dd4 2a3d be38 753d df45 8e3c
00000390: 948a 1abd c3d1 8cbc 8222 2abd 612f 9e3d
000003a0: 5cd6 d23c 64c5 b1bd f786 d93c 6b89 92bd
000003b0: caf8 f33d 56ac 823d 3717 233d 93a7 3dbd
000003c0: b49b 9b3d 7f91 9b3d ef81 823c 2423 75bd
000003d0: 5bd6 7cbd 448c 08bd 58c8 bebd 5293 3dbd
000003e0: 8eb4 f6bc 9a54 453e 7464 66bd 2972 8abd
000003f0: 942b cabb 58c6 46bd 5478 edbc 5226 2c3e

inception_block_1.branches.2.5.weight f4 [16]
0.91960746 0.9613432 0.88852465 0.95621717 0.9004305 0.91742396 0.86107385 0.8259802
0.9097983 0.9728695 0.9121157 0.97568053 0.96301854 0.9641551 0.93941545 0.91434735
00000000: 656b 6b3f 971a 763f 5a76 633f a6ca 743f
00000010: 9d82 663f 4cdc 6a3f 566f 5c3f 7073 533f
00000020: 8be8 683f fa0d 793f 6a80 693f 33c6 793f
00000030: 6288 763f ded2 763f 887d 703f ab12 6a3f

inception_block_1.branches.2.5.bias f4 [16]
-0.07199011 -0.093920924 -0.07695991 -0.10749365 -0.07545011 -0.06970846 -0.0821232 -0.077185355
-0.088857576 -0.073311746 -0.074141026 -0.14996688 -0.044141248 0.0511046 -0.028330378 0.0018583237
00000000: 8d6f 93bd 9d59 c0bd 289d 9dbd a125 dcbd
00000010: 9685 9abd 4fc3 8ebd 3530 a8bd 5b13 9ebd
00000020: f6fa b5bd 7824 96bd 40d7 97bd eb90 19be
00000030: 74cd 34bd 0f53 513d 1c15 e8bc ff92 f33a

inception_block_1.branches.2.5.running_mean f4 [16]
0.022899523 0.009546776 0.00023158404 0.0622717 0.042041913 -0.053530347 -0.054341238 -0.021902323
0.038235966 -0.032182083 0.0038374753 -0.05275168 -0.035590623 0.013871114 0.024207167 8.885087e-06
00000000: c897 bb3c 156a 1c3c 5ed5 7239 9c10 7f3d
00000010: 2434 2c3d a342 5bbd eb94 5ebd 806c b3bc
00000020: 519d 1c3d 5cd1 03bd 277e 7b3b 2512 58bd
00000030: 79c7 11bd ab43 633c 1c4e c63c 2811 1537

inception_block_1.branches.2.5.running_var f4 [16]
0.22476766 0.12944807 0.11014064 0.48554665 0.214132 0.24574633 0.1564419 0.08588977
0.26997033 0.19992469 0.13133517 0.16965947 0.15871832 0.14502512 0.12443849 0.10631842
00000000: 7e29 663e 098e 043e 6a91 e13d 9299 f83e
00000010: 6b45 5b3e eda4 7b3e 4e32 203e fae6 af3d
00000020: 8d39 8a3e 0fb9 4c3e ba7c 063e 36bb 2d3e
00000030: 0e87 223e 7781 143e 9bd9 fe3d 79bd d93d

inception_block_2.branches.0.0.weight f4 [8, 48, 1, 16]
0.024157818 0.017760588 0.012477699 0.064646155 -0.021372082 0.0010857849 -0.06648904 0.0008415946
-0.07679185 0.038716216 -0.016729511 -0.022088608 -0.06664162 -0.0114461165 0.016432388 -0.099175684
0.108592406 0.06285427 -0.018123824 -0.020560186 0.08158776 -0.0005900005 0.064308 0.096395016
0.07729433 -0.068182044 0.017607005 0.09769876 0.030152623 0.011490574 0.023514312 0.092598304
0.05553958 -0.045422383 0.041350853 0.0868584 0.09597031 0.081330866 0.026921757 -0.0013011219
0.054312404 0.04620627 -0.04550943 -0.012243257 -0.009963643 0.08151936 -0.030292569 -0.06297725
-0.040850267 -0.017846376 -0.029936308 0.017049707 -0.080422156 0.008664854 -0.017998671 -0.08611042
-0.03464831 -0.021400278 0.014857208 -0.022354173 0.03876225 -0.008079565 -0.001817544 0.07040221
0.029859997 0.053890016 -0.0011795369 -0.05021257 0.07286219 0.09810079 0.06158547 0.061623447
-0.0061074668 0.04019121 -0.030940956 0.01426639 0.06869598 -0.022559335 -0.0092814285 0.014266294
0.057025522 -0.07322221 0.034446057 -0.025538968 -0.009487238 -0.0033187123 -0.043223962 -0.06297023
-0.100588076 0.031122299 -0.012100289 -0.06883722 -0.0783721 -0.036527224 -0.05808419 -0.0431217
-0.123098604 -0.0368553 -0.035164073 0.011717599 0.07287778 -0.053299155 -0.026586814 0.014196669
-0.06545114 -0.086115584 -0.10508189 -0.024898928 -0.09307442 -0.11830043 -0.09452948 -0.07357363
0.08763756 0.11355455 0.07648729 -0.06697658 -0.03456894 0.07216987 0.032002266 0.09517466
-0.04927698 0.05748034 0.041302085 -0.02602804 0.036244616 -0.00849495 -0.016901799 0.053785883
-0.05093989 -0.01402649 -0.06562085 0.083180465 0.011816273 -0.0077229845 -0.06622893 -0.07051613
-0.023651982 0.01935979 0.0009447685 -0.044858 -0.0054168375 -0.019550268 -0.060270127 0.079006955
-0.025331976 0.015462624 -0.08352445 -0.03845408 -0.06435673 0.05088021 0.0217127 0.026654046
0.049367383 -0.04525458 -0.018828359 0.116439566 -0.0084881475 0.07526191 0.052844036 -0.00913325
-0.011392903 -0.016396087 -0.022064151 -0.06393142 0.013502598 0.06260528 0.1128338 0.052547444
-0.027342066 -0.09162178 0.097267754 0.07530642 0.15561053 -0.0066925385 -0.024043573 0.009307916
-0.02705319 -0.05340403 -0.056212567 -0.10945442 -0.0069772564 -0.039974388 -0.0150385015 0.024790522
-0.086535476 -0.0644707 -0.10686048 -0.0041727456 0.032993656 0.021596542 0.05529241 -0.11001377
-0.069465 -0.008976409 -0.023995789 0.070613794 0.048385154 0.07971255 0.08560304 0.0011033532
0.081694484 0.055640787 0.051058892 -0.0154215 0.04195644 0.06270711 -0.016532902 0.04772493
-0.022175048 -0.052454006 -0.040947214 -0.040718865 0.06293236 -0.052900642 -0.07763614 0.08973827
0.013609867 0.05821106 -0.053342145 -0.041207783 -0.054191742 0.027324937 -0.025172088 -0.038501527
-0.039260603 -0.07608512 0.047361918 -0.061995044 -0.1383124 -0.10710672 0.0068323887 -0.054111075
-0.09518163 -0.057884198 -0.16909681 -0.055523038 -0.076101676 -0.13926622 -0.15791139 -0.09810423
0.0030520435 -0.028473344 0.00035816772 -0.008374385 0.07090317 -0.054445036 0.00045954183 0.0038074034
-0.09602849 -0.0052859723 0.0077729174 -0.013453769 0.08429077 0.03989036 -0.041828066 0.010213223
00000000: 9ee6 c53c a77e 913c 436f 4c3c 3465 843d
00000010: 8114 afbc e550 8e3a 682b 88bd 759e 5c3a
00000020: 0c45 9dbd e594 1e3d 540c 89bc 2bf3 b4bc
00000030: 677b 88bd 7e88 3bbc 379d 863c 9f1c cbbd
00000040: b265 de3d bdb9 803d 6a78 94bc d66d a8bc
00000050: 7c17 a73d 43aa 1aba eab3 833d c06a c53d
00000060: 7d4c 9e3d 07a3 8bbd 913c 903c 4a16 c83d
00000070: a202 f73c f642 3c3c 16a1 c03c 2ea4 bd3d
00000080: 787d 633d d20c 3abd 835f 293d d1e2 b13d
00000090: 158c c43d cc90 a63d 048b dc3c 688a aaba
000000a0: af76 5e3d c942 3d3d 1968 3abd f197 48bc
000000b0: 8c3e 23bc 9ff3 a63d 1f28 f8bc 37fa 80bd
000000c0: 9c52 27bd 9032 92bc fd3c f5bc d4ab 8b3c
000000d0: 5fb4 a4bd 08f7 0d3c f371 93bc a95a b0bd
000000e0: 63eb 0dbd a34f afbc a66b 733c 1920 b7bc
000000f0: 2ac5 1e3d 2760 04bc a83a eeba 092f 903d
00000100: f49c f43c c7bb 5c3d b19a 9aba b2ab 4dbd
00000110: c638 953d 11e9 c83d 0c41 7c3d de68 7c3d
00000120: 2521 c8bb 8a9f 243d e377 fdbc 94bd 693c
00000130: 7ab0 8c3d 5bce b8bc 2211 18bc 2dbd 693c
00000140: 9893 693d 87f5 95bd 4f17 0d3d 1937 d1bc
00000150: 5c70 1bbc c17e 59bb 9c0b 31bd 89f6 80bd
00000160: 1f01 cebd 31f4 fe3c 4a40 46bc 87fa 8cbd
00000170: 8d81 a0bd 929d 15bd b0e9 6dbd 61a0 30bd
00000180: 1f1b fcbd 95f5 16bd 3408 10bd 2cfb 3f3c
00000190: f240 953d 3750 5abd 97cc d9bc 2599 683c
000001a0: 3f0b 86bd 5e5d b0bd 2d35 d7bd d6f8 cbbc
000001b0: cd9d bebd 7f47 f2bd ac98 c1bd c5ad 96bd
000001c0: 527b b33d 4a8f e83d 5ea5 9c3d 042b 89bd
000001d0: 2998 0dbd cccd 933d cf14 033d efea c23d
000001e0: a9d6 49bd 8170 6b3d 602c 293d c238 d5bc
000001f0: 3c75 143d 672e 0bbc a475 8abc 964e 5c3d
00000200: 59a6 50bd 5dcf 65bc 3964 86bd 855a aa3d
00000210: 0b99 413c 1711 fdbb 09a3 87bd c36a 90bd
00000220: cdc1 c1bc 6c98 9e3c 57aa 773a 06bd 37bd
00000230: ba7f b1bb e227 a0bc cfdd 76bd 66ce a13d
00000240: 0185 cfbc f256 7d3c de0e abbd 0682 1dbd
00000250: 76cd 83bd c467 503d d5de b13c 9659 da3c
00000260: 7435 4a3d de5c 39bd ee3d 9abc de77 ee3d
00000270: df11 0bbc eb22 9a3d fd72 583d a1a3 15bc
00000280: 4ca9 3abc 1651 86bc e1bf b4bc 7aee 82bd
00000290: 003a 5d3c 3237 803d 6815 e73d fd3b 573d
000002a0: 78fc dfbc 33a4 bbbd 5134 c73d 413a 9a3d
000002b0: 5e58 1f3e 154d dbbb 07f7 c4bc 3b80 183c
000002c0: a79e ddbc 2fbe 5abd 263f 66bd a429 e0bd
000002d0: 78a1 e4bb 2fbc 23bd 0c64 76bc 7e15 cb3c
000002e0: 8339 b1bd 3709 84bd abd9 dabd 87bb 88bb
000002f0: 5b24 073d 3beb b03c 4b7a 623d e64e e1bd
00000300: aa43 8ebd ca11 13bc d192 c4bc f79d 903d
00000310: 832f 463d 5540 a33d a650 af3d 649e 903a
00000320: 704f a73d 98e7 633d 2123 513d 76aa 7cbc
00000330: 84da 2b3d 966c 803d 0270 87bc 377b 433d
00000340: 72a8 b5bc 03da 56bd 44b8 27bd d3c8 26bd
00000350: aee2 803d 58ae 58bd b2ff 9ebd b3c8 b73d
00000360: ebfb 5e3c b86e 6e3d 4b7d 5abd 7ec9 28bd
00000370: 29f8 5dbd 8cd8 df3c b235 cebc c7b3 1dbd
00000380: bacf 20bd 84d2 9bbd 92fe 413d 84ee 7dbd
00000390: c4a1 0dbe c55a dbbd 3be2 df3b 93a3 5dbd
000003a0: 96ee c2bd fb17 6dbd b727 2dbe 206c 63bd
000003b0: 32db 9bbd ce9b 0ebe 86b3 21be dfea c8bd
000003c0: cb04 483b ee40 e9bc 75c8 bb39 b734 09bc
000003d0: ae35 913d c201 5fbd a9ee f039 a185 793b
000003e0: 96aa c4bd f335 adbb f5b3 fe3b 326d 5cbc
000003f0: a4a0 ac3d 1364 233d e853 2bbd 5d55 273c

inception_block_2.branches.0.1.weight f4 [8]
1.0817517 1.1471472 1.0146092 1.0494199 1.0511824 1.09761 0.9843641 1.12556
00000000: d776 8a3f b8d5 923f b7de 813f 6453 863f
00000010: 258d 863f 7c7e 8c3f 49ff 7b3f 5a12 903f

inception_block_2.branches.0.1.bias f4 [8]
-0.12144077 -0.015144812 -0.13102867 -0.21539202 -0.098690845 -0.2616494 -0.06349576 -0.103970245
00000000: f0b5 f8bd f221 78bc 612c 06be ba8f 5cbe
00000010: 6d1e cabd e9f6 85be 110a 82bd 5aee d4bd

inception_block_2.branches.0.1.running_mean f4 [8]
-0.3223622 -0.38926193 -0.022349853 0.06029731 -0.26227465 -0.022943702 0.070993885 -0.30288145
00000000: a90c a5be 574d c7be 0a17 b7bc 50fa 763d
00000010: dd48 86be 6ef4 bbbc 3e65 913d 4713 9bbe

inception_block_2.branches.0.1.running_var f4 [8]
2.3263693 1.9581994 2.0636566 2.7463918 2.2242193 2.8609273 1.8326558 2.630041
00000000: 3ce3 1440 47a6 fa3f f312 0440 e2c4 2f40
00000010: 9c59 0e40 6f19 3740 7794 ea3f 9752 2840
