result_eegnetv4_cv5/fold_3/best_model_fold3.pth (torch, 22648 bytes, 18 tensors)

conv_temporal.weight f4 [8, 1, 1, 64]
000000 a4 41 5c 3d 7b 34 c8 3b 19 cb 3c bd 24 fb 3c 3c
       0.053773537 0.006109772 -0.046092127 0.011534486
000010 22 0d ae 3d 10 4a 98 3c 0b 53 87 3c e3 39 cc bd
       0.08498599 0.018590003 0.01651909 -0.099719785
000020 f9 16 82 3d 3f a5 9b bd 77 69 d9 bd eb 56 ff 3c
       0.06352038 -0.075998776 -0.10615819 0.031169375
000030 93 ad 56 bb ea 96 aa 3d d5 25 04 3e c6 e5 7a 3c
       -0.0032757267 0.08329566 0.12905057 0.015313571
000040 7d bf af 3d dc b8 1c 3d e2 3b be 3d 70 4c 3f bd
       0.08581445 0.038262233 0.092887655 -0.046703756
000050 40 7a bc bd 68 df 12 3d 32 07 40 3d bb 22 a6 bd
       -0.09203005 0.035857588 0.046881862 -0.08112093
000060 91 18 2b bc fa 34 34 3d e7 d3 62 bd e4 59 d4 3d
       -0.010442869 0.043995835 -0.055377867 0.10368708
000070 8d f1 70 3d cb 42 a9 3d 9c e0 e0 bc a4 3d 49 bd
       0.05882411 0.08264693 -0.027450852 -0.04913105
000080 d6 7b 65 bd 89 2b 5b bd d6 53 8c 3b 11 e9 ee ba
       -0.056026302 -0.053508315 0.004282455 -0.0018227418
000090 d0 17 91 3d e6 98 2c 3e 20 ee a7 3d cc 6d 05 3e
       0.0708462 0.16855201 0.081997156 0.13030165
0000a0 d5 3a 05 3e 6f 0c 80 bd c8 20 67 3d 44 c4 95 bd
       0.13010724 -0.062523715 0.056427747 -0.07312825
0000b0 c1 a7 8e 3d af 76 c3 bb e8 6a db bd 5d 63 2a bd
       0.0696559 -0.005965076 -0.1071375 -0.041598666
0000c0 f3 2d 40 ba c1 36 22 3d dc 3e 5d bd 21 5b 8e bd
       -0.0007331066 0.039603 -0.054015025 -0.06950975
0000d0 22 af d9 3d fe 96 d4 3d f5 d2 d4 bb c8 85 0c 3d
       0.10629107 0.10380362 -0.0064948746 0.03430727
0000e0 73 32 1d 3d c4 f0 03 3e 4d 47 d4 bc 3d 15 31 3d
       0.03837819 0.12884814 -0.025912905 0.043233145
0000f0 b9 a5 c5 3d bc ce b5 bc 81 51 1a 3c 0a 9f c5 bd
       0.0965075 -0.022193305 0.009418846 -0.09649475
000100 c5 bb 00 bd 07 72 53 3c 76 fc d7 bd aa ee 46 3c
       -0.03142907 0.012905604 -0.105462 0.012141863
000110 4a b3 52 bc 3e bf ae bd 7c db 8b 3d 52 28 a3 bd
       -0.012860129 -0.0853257 0.06828973 -0.07966675
000120 a9 2b 9a bd 80 15 ec bc 54 ce 81 bd d4 a7 cb 3d
       -0.07527859 -0.028818846 -0.06338182 0.0994412
000130 39 65 80 bd 2e b4 b1 3d d9 68 f8 bd 99 5d cd 3c
       -0.06269307 0.08676945 -0.12129373 0.025069045
000140 d4 36 d3 bd c7 8c ff bc a2 c7 4e bd 13 ce 13 be
       -0.10313192 -0.031195058 -0.050483353 -0.1443408
000150 3c c1 60 bc 32 01 c2 bd 89 2b 5b 3d 41 7c 5e bd
       -0.013717946 -0.09472884 0.053508315 -0.054317717
000160 56 0c 04 3c e3 fd a0 bc 6e ae d4 3c 5b d1 f6 bc
       0.008059582 -0.019652313 0.02596208 -0.030129125
000170 e5 92 27 3d 9f 4e 2b bd 0b 7c 3f 3d 89 c2 de 3d
       0.040911574 -0.041823026 0.046749156 0.108769484
000180 24 6f 94 bd a9 ce e2 3d a8 05 77 3d 82 4e 38 3e
       -0.07247761 0.110745735 0.06030813 0.17998698
000190 68 be 80 3d c6 6c f7 3d 03 b2 00 3e 8e 82 bb 3d
       0.06286317 0.12081294 0.12567906 0.09155761
0001a0 40 ae 96 3d 85 98 a1 3d 19 46 d6 39 d0 f1 a4 3d
       0.07357454 0.07890419 0.00040869488 0.080539346
0001b0 2d 72 8f 3d d0 16 bb bd 3e 7e 53 3c d2 32 9e 3d
       0.07004199 -0.091352105 0.012908516 0.07724537
0001c0 3d 99 ee ba 51 7b f8 3d 69 71 4e 3a cf 3c 13 bd
       -0.0018203628 0.12132896 0.0007875176 -0.035946663
0001d0 a9 d0 66 3d e4 e0 81 bd b6 9e 8a bc 0b b9 67 bd
       0.056351338 -0.063417226 -0.016921382 -0.056572955
0001e0 48 22 6b bd 7c 69 90 3c 75 e0 08 3d c3 44 1a bd
       -0.05740574 0.017628424 0.033417184 -0.037663233
0001f0 91 f9 1d bc 24 aa b2 3d 47 5e 20 bd 0b 73 c7 bd
       -0.009642021 0.08723858 -0.03915241 -0.097387396
000200 30 08 99 3b bd b6 2d 3d c7 58 59 bd 59 d6 cc 3b
       0.0046701655 0.0424106 -0.05306318 0.006251138
000210 69 d1 64 3d 2c db 74 bd 0b e4 0c bc 29 5a 65 bd
       0.05586377 -0.05977933 -0.008599292 -0.055994187
000220 97 19 09 3e 7d 3a 3a bd 9b ce 1e 3e ce b3 14 3e
       0.13388668 -0.045465935 0.15508501 0.14521715
000230 e1 50 cf bc 5c ad 00 3e f6 a0 2d 3e f2 86 cd 3c
       -0.02530712 0.12566131 0.16955933 0.025088761
000240 5d 12 f5 3c c6 7c 35 3e 38 77 8a 3d 42 95 33 3c
       0.029915983 0.17723379 0.067610204 0.010960879
000250 94 a7 2d 3e 3a 0d 2b bd c3 73 ca 3d 17 21 85 3d
       0.16958457 -0.04176066 0.09885361 0.06500452
000260 32 8d 67 bd c2 51 67 3d a2 49 32 bd f0 cb bb bb
       -0.05653114 0.056474455 -0.043527253 -0.0057310984
000270 7f 3a 28 3d 0b 69 fd bc 83 33 ad bb a5 22 c1 3c
       0.04107141 -0.030933877 -0.0052856817 0.02357609
000280 ef 43 8e bd 91 26 93 bd 17 24 cf 3b 95 f3 0c 3c
       -0.06946551 -0.0718509 0.006321441 0.008602996
000290 d0 76 a4 3c 61 a3 56 3d 46 ee 90 bd 02 83 cd bd
       0.020076185 0.052401904 -0.07076697 -0.100347534
0002a0 0d 96 ba bd f6 01 c9 3c 18 40 c4 bd 69 b4 5d 3d
       -0.09110651 0.024537068 -0.095825374 0.05412713
0002b0 6b c3 5e bd d2 e0 f6 bd 07 da e6 3c bb da c8 bd
       -0.054385584 -0.120546 0.028180135 -0.098073445
0002c0 c6 c8 c5 bc 99 c4 07 3d 0f 80 91 bd 73 a3 90 bd
       -0.024143588 0.033146475 -0.07104503 -0.070624255
0002d0 da 9a e4 bb 33 be c3 bc 7d ce 69 bc 90 c9 82 3c
       -0.0069764676 -0.023894405 -0.014270422 0.015965253
0002e0 b6 50 49 bd d7 6d 89 bb d4 84 7e bd 58 49 dc 3c
       -0.049149238 -0.004194002 -0.062138394 0.026890442
0002f0 b6 a3 86 bc f2 c9 81 bd 6f 3f b4 bd 00 48 bd bc
       -0.016435485 -0.06337346 -0.088011615 -0.023105621
000300 9c 06 e0 3d b3 15 33 3c ca 17 51 bd f2 ab 1d bb
       0.10938761 0.010930466 -0.051048078 -0.0024058786
000310 fe 48 b3 3d 5c ae 27 3d b8 46 f3 3c a8 91 d3 3d
       0.087541565 0.040937766 0.029696807 0.10330516
000320 9a 8b 88 3d 35 52 e1 3a 1e 62 95 bc 81 af a9 bd
       0.06667252 0.0017190637 -0.018235262 -0.08285428
000330 76 84 29 3b ea d7 e5 bd 5c 4c 80 3d 7e ba 2c 3d
       0.0025866306 -0.11222823 0.062645644 0.04217004
000340 73 85 b5 3d bc 4a 45 3d 7b f8 97 bd f8 b2 bc 3d
       0.08863344 0.048166975 -0.07420441 0.09213823
000350 17 26 5f bd 5d 43 64 3b 4d c0 35 3d 0a 6e 06 3d
       -0.054479685 0.003483019 0.044372845 0.032819785
000360 0c 46 2e 3c 2c c7 03 3d fb ae 04 bd 37 2e bc 3d
       0.010636818 0.032172367 -0.032393437 0.09188502
000370 cc 9a 06 3d 38 94 41 bd 11 fc 42 bd 38 34 03 be
       0.03286247 -0.047260493 -0.04760367 -0.12812889
000380 66 98 15 be b1 dc 9e 3b 1b 16 6e bd e1 c0 ee 3c
       -0.14608917 0.004848086 -0.05812655 0.029144706
000390 6a 43 07 be b1 88 1e 3b 39 06 b5 bd 8f 1b 42 3d
       -0.1320931 0.002419036 -0.088390775 0.047389563
0003a0 4d 2f 1c bd 95 19 35 3d 41 4c e3 bd e3 94 a2 3c
       -0.038131047 0.04421385 -0.11098529 0.019846385
0003b0 8d 94 2a bd a8 8b eb 3c d9 b4 0d 3d 17 14 0e 3d
       -0.041645575 0.028753117 0.034596298 0.034687128
0003c0 77 1b b4 bd 0b 16 34 3d 2b 4f 0e 3a e7 8f 00 be
       -0.08794301 0.043966334 0.0005428667 -0.12554894
0003d0 c4 97 5e bd bd 9a c0 bd 49 4e 1f 3d 76 a6 79 bd
       -0.054343954 -0.09404514 0.038893018 -0.060949765
0003e0 61 07 82 bd 0c ca ac bc 59 40 e7 bd ae 73 31 3d
       -0.06349064 -0.021092437 -0.1129157 0.04332321
0003f0 b0 99 a5 bd bd aa 72 3d c3 4f a4 bd 90 08 36 bd
       -0.08085954 0.05924486 -0.08023026 -0.04444176

bnorm_temporal.weight f4 [8]
000000 53 63 a7 3f d4 bf 73 3f e9 fa 6e 3f a0 d3 6d 3f
       1.3077186 0.9521458 0.9335161 0.9290104
000010 74 f3 85 3f 73 b7 90 3f e7 86 88 3f 55 8d 95 3f
       1.0464921 1.1305984 1.0666169 1.1683756

bnorm_temporal.bias f4 [8]
000000 00 d7 19 bd 0b e6 bc 3b 29 54 d8 3c 89 08 b8 3c
       -0.037558556 0.005764728 0.026407318 0.022465007
000010 fe c1 a7 bb 82 ef e4 ba f6 e0 e5 bc 4d e5 78 3c
       -0.005119561 -0.0017466398 -0.028061371 0.015191388

bnorm_temporal.running_mean f4 [8]
000000 f6 93 db b8 d8 d2 2c 39 f0 39 71 b9 62 2a c7 37
       -0.00010470294 0.00016481744 -0.00023005134 2.3742385e-05
000010 00 5f 8b b9 12 17 7f 35 cd 9a 1e b9 42 31 30 37
       -0.00026582927 9.5028474e-07 -0.00015125722 1.0501886e-05

bnorm_temporal.running_var f4 [8]
000000 2a 52 af 3e c2 94 4c 3f 7f ea 21 3f 8a d2 ae 3e
       0.34242374 0.79914486 0.6324844 0.34145004
000010 e8 51 52 3f 6b 49 09 3f 12 4e 2e 3f a1 03 08 3f
       0.8215623 0.5362765 0.68087876 0.5313054

conv_spatial.weight f4 [16, 1, 22, 1]
000000 0d 9d ec bb 76 6d 96 bd 3e 55 85 3d 01 41 b0 bd
       -0.0072208703 -0.07345097 0.06510399 -0.086061485
000010 be f0 9d 3c 3c ce a2 3d e7 56 e5 bd e2 9e 3f 3e
       0.019279834 0.07949492 -0.11198216 0.18712953
000020 5d f7 a4 bd 57 96 cd bd 0e 5e 07 3d 1f f2 bf bd
       -0.08054993 -0.10038441 0.033048682 -0.09372353
000030 73 f9 16 3c 86 06 52 3e 13 03 aa 3d b1 ce 63 bd
       0.009214747 0.20510301 0.083013676 -0.05561704
000040 85 ca d1 3d 60 54 4b 3c 06 11 82 bd 5b 20 85 bd
       0.10243706 0.012410253 -0.06350903 -0.06500312
000050 d0 87 51 3b c9 bf 21 ba 6a 5d 20 bd c3 65 18 bd
       0.003197182 -0.0006170241 -0.039151587 -0.037206423
000060 5e 4a 95 bd 92 1e ae 39 c4 2b d9 bd 8b 2c 8e bd
       -0.07289575 0.00033210643 -0.10604051 -0.0694209
000070 23 02 ad 3b 69 e8 8a 3d 9e 67 b7 3d 5c ad ac 3d
       0.0052797957 0.0678261 0.0895531 0.08431503
000080 aa 63 04 3e 2e 30 11 3d 25 bb ae bd d7 8b b7 bd
       0.12928644 0.03544634 -0.08531789 -0.08962219
000090 b5 93 c1 bd 73 ff 44 3d cf 68 4e 3e 9e a6 5c bd
       -0.09452001 0.048095178 0.20157169 -0.053869836
0000a0 f3 56 17 3d d2 b2 a8 bc 84 3a eb 3c a6 fe d2 3c
       0.036948156 -0.02059308 0.028714426 0.025756191
0000b0 ee 93 f0 3d d6 b7 ad 3d 32 8e 00 3e 5e e0 13 bc
       0.11746965 0.084823295 0.12554243 -0.009025661
0000c0 d9 84 ba bd ae bf 8b bd 72 65 a4 bd f6 26 0f bc
       -0.0910737 -0.068236694 -0.08027162 -0.008737316
0000d0 f4 6f b8 bd 0e eb 95 3b 25 c7 7e 3d 3f 25 8e 3c
       -0.09005728 0.00457514 0.062201638 0.017351745
0000e0 24 da 92 bd ad ec 46 be 8b 97 2d 3d 63 46 88 3d
       -0.07170513 -0.19426222 0.04238085 0.0665405
0000f0 d5 ef 59 bd 57 64 1b 3e 40 54 da 3b 12 92 94 bd
       -0.053207237 0.15174995 0.0066628754 -0.07254423
000100 cf 9a f7 bc 7f cf 1b be ba 0e e3 3d 16 00 bd bd
       -0.030225186 -0.15215872 0.11086793 -0.09228532
000110 a2 a0 b9 3d 56 55 b2 3d f5 f4 ec 3c 0d 91 37 3b
       0.090638414 0.08707683 0.028925398 0.002801004
000120 b2 85 9c bd 2d ef 78 bd 55 b5 a5 3d 99 70 6e 3c
       -0.07642688 -0.06077497 0.08091227 0.014553213
000130 0b 78 96 3d 60 16 99 bd b3 90 30 be c4 3a 85 3c
       0.07347115 -0.07474971 -0.17242698 0.016263373
000140 7a 07 ab bd f6 d8 f0 bc 36 9e 9a 3d 86 cf 10 bc
       -0.083510354 -0.02940033 0.075497076 -0.00883854
000150 e8 27 50 bd 16 a4 b5 3d d2 26 c7 3b 74 a9 32 be
       -0.050819308 0.088691875 0.006077626 -0.17447454
000160 7f a0 97 bd 14 9c a6 3d 29 a6 dd 37 78 15 54 3d
       -0.07403659 0.08135238 2.6422627e-05 0.051778287
000170 7d 61 e4 3d e1 e9 0e bd 9a ff 2c 3d 8b e8 01 3d
       0.11151407 -0.034891013 0.04223595 0.03171591
000180 59 86 4c bd 30 63 e5 3c 1e 6e b1 bd a5 e2 99 bc
       -0.04993281 0.028001398 -0.08663581 -0.01878483
000190 84 18 2b bd 93 2c ac bd ad fd 9f bd f2 b2 cd 3c
       -0.041771427 -0.08406939 -0.07812057 0.025109742
0001a0 cd cb d6 3d 66 88 c5 bd b3 85 39 be 99 00 6a 3d
       0.10488091 -0.096451566 -0.18117408 0.057129476
0001b0 b8 ce bb 3c c9 aa 70 3e eb 1d a4 bb bf 11 1f ba
       0.02292572 0.2350265 -0.0050084493 -0.0006068013
0001c0 9c 7a 94 bd e1 6d 7b 3d 73 07 7e 3d 03 e5 16 bc
       -0.072499484 0.061384086 0.062018823 -0.009209874
0001d0 e6 22 5b bc 61 b5 7d bd ab 36 9a bd b9 d3 84 bd
       -0.01337502 -0.061940555 -0.07529958 -0.064856954
0001e0 a0 a1 9a 3d e0 85 74 3d 7d 0e ce 3d 0a 4f 99 3d
       0.07550359 0.059697986 0.10061357 0.07485779
0001f0 c8 4c 02 bd bc 3e ab 3d 8c 90 93 bd bb 21 23 be
       -0.031811506 0.08361575 -0.072053045 -0.15930836
000200 9f 23 10 3e ef 77 cf 3d ed 52 37 be 88 eb 17 bc
       0.14076088 0.101302974 -0.17902727 -0.009272464
000210 0c 79 e4 bd 22 34 15 be 97 ce 82 3b 90 4e 84 3b
       -0.111559 -0.14570668 0.0039919126 0.0040376857
000220 f2 d1 98 3d 17 d1 e3 3d 2f c9 98 3d ea 35 dc bd
       0.07461919 0.11123865 0.07460248 -0.10752471
000230 cf 9b df bd 2d 7a 8c bd 75 57 ce bd 2e b8 82 bb
       -0.1091839 -0.06859241 -0.10075275 -0.003989241
000240 a1 ed 91 39 65 19 20 3e d1 4b b9 3d 7c 51 fc bc
       0.00027833603 0.15634687 0.09047664 -0.030800574
000250 58 83 22 3d fd 9b d4 bc dd 8c f0 3d 83 af 1d 3c
       0.03967604 -0.025953287 0.117456175 0.009624365
000260 66 d4 15 bd fd 4e 79 3d 33 bb 0e 3d b1 0b d0 bb
       -0.036579512 0.060866345 0.034846496 -0.00634905
000270 ba 18 de bc d2 7d 7f 3d 43 82 fe 3c 00 26 38 3e
       -0.0271114 0.06237585 0.031067973 0.17983246
000280 df 17 f1 bb fc 04 4f bd ad 39 ef bd d3 3e 51 bd
       -0.007357582 -0.050541863 -0.11680923 -0.051085304
000290 6f ba dd bd 7c d5 9b bc 59 15 25 bd c1 c1 53 3e
       -0.10826575 -0.019022696 -0.04030356 0.2067938
0002a0 37 e7 fa 3d f6 e9 40 3d 5e 9f ec bd 71 6f 82 bd
       0.12251132 0.047098123 -0.115538344 -0.06368912
0002b0 af 65 1b 3e 38 80 fd bd 34 cc f8 3c af 8a aa bc
       0.15175508 -0.123779714 0.03037081 -0.020818083
0002c0 34 40 3d 3d f9 c9 35 bd e6 8b 82 bd f9 38 23 3d
       0.046203807 -0.04438207 -0.0637434 0.039849255
0002d0 02 7c 1b bc 8c 4f b1 3d 67 20 c0 bc 31 61 e2 bd
       -0.009490015 0.086577505 -0.02345295 -0.11053694
0002e0 e7 12 36 3b 96 f3 72 bc 92 d3 55 bc 41 af 5e 3d
       0.0027782263 -0.014828583 -0.013050931 0.054366354
0002f0 27 74 b1 bd a4 54 9a bd e1 5b a4 bd f9 3d 0a 3e
       -0.086647324 -0.07535675 -0.08025337 0.13500203
000300 ab a4 a1 bd 42 f1 e7 3d 91 f7 00 be 99 a1 db 3d
       -0.07892736 0.11325313 -0.12594439 0.10724182
000310 77 f3 2c 3d 91 eb f1 3d 6e 76 1d 3e 37 8f 75 3b
       0.042224374 0.11812509 0.15377209 0.0037469396
000320 9d e1 af bd d9 ea 81 3d c6 a6 80 3d 8b 80 ad bc
       -0.08587954 0.06343622 0.062818095 -0.021179458
000330 66 1f 1c bd 19 1b 64 bd 03 9d 02 3d f3 51 67 bc
       -0.03811588 -0.055689905 0.03188802 -0.014118659
000340 da c5 92 3c 5e 92 77 bd 6c 4a c4 bc 76 db ac 3c
       0.017916609 -0.06044232 -0.023961268 0.02110074
000350 de 33 9b bc fb 9e 84 bd 74 a4 a9 3d 40 5e 04 be
       -0.01894563 -0.064756356 0.0828332 -0.12926579
000360 72 5d bf bd 57 cb 66 bc d0 c6 0b 3e 0d 5d f2 3d
       -0.09343995 -0.014086566 0.1365006 0.11834154
000370 71 a5 45 3d 32 8b d2 bb 57 c2 92 bd 2a 19 56 3d
       0.04825348 -0.006425285 -0.07165974 0.052270092
000380 32 1b 03 3d 1b 29 65 bd 65 69 13 bd d6 14 c6 3d
       0.032008357 -0.055947404 -0.035989184 0.09671943
000390 8f ef a8 bd a9 ee e0 3c 3a 46 81 3d 1b 2f 34 bd
       -0.08248817 0.027457552 0.06312223 -0.043990236
0003a0 e8 da 21 3d f5 dc 93 3d 58 81 d0 3d 39 4e 54 bc
       0.039515406 0.072198786 0.1018092 -0.012958103
0003b0 9f bb 42 3d 37 5b 98 3d 85 4a 3e 3e be 8f 8a 3d
       0.04754221 0.07439273 0.18583114 0.06765698
0003c0 0e 87 22 3e 0c a1 7a 3e b8 4a 3f bc 95 4d 63 bd
       0.15871832 0.24475497 -0.011675529 -0.05549391
0003d0 5a 53 3b 3e 44 ae 07 3e 0c 0a c7 bd 9c 22 96 bd
       0.18293515 0.13250071 -0.09718713 -0.0733082
0003e0 a3 93 b9 3b cc bf 75 bd a1 94 04 3e 32 df cc 3d
       0.0056633516 -0.059997365 0.12947322 0.100035086
0003f0 e4 0c 2e 3d cc 61 3b 3d 60 0a 5f bc a2 98 95 bc
       0.042492762 0.045747563 -0.013613313 -0.018261258

bnorm_1.weight f4 [16]
000000 05 e4 a3 3f 25 fb 86 3f f7 1b 81 3f c7 51 6c 3f
       1.2803961 1.0545393 1.0086659 0.9231228
000010 ae d2 71 3f 63 36 70 3f cc f9 73 3f ea 65 72 3f
       0.94462097 0.9383299 0.95303035 0.9468676
000020 d8 75 84 3f 56 f0 7c 3f a2 24 92 3f d0 2f 88 3f
       1.0348463 0.98804224 1.141743 1.0639591
000030 a5 43 84 3f f4 5a 8a 3f 0b 73 82 3f 73 9b 9d 3f
       1.0333143 1.0809007 1.0191358 1.2313064

bnorm_1.bias f4 [16]
000000 f8 42 0c bf a9 7c 5a be fa 73 3f be 71 c0 08 bd
       -0.54789686 -0.21336617 -0.18696585 -0.03338665
000010 28 c6 66 bc 8e ca c6 bd 04 f9 be bd 33 12 3a bd
       -0.01408533 -0.09706603 -0.0932484 -0.045427512
000020 c3 fd 13 be 6e d0 18 be 11 fc 93 be 7a 9e 9f be
       -0.14452271 -0.1492326 -0.2890325 -0.31175596
000030 46 64 b8 bd d2 64 aa be 75 2e 1a be 50 b3 00 bf
       -0.09003501 -0.33280045 -0.15056784 -0.5027361

bnorm_1.running_mean f4 [16]
000000 65 17 1b ba fd da 24 bb 54 1e 26 bb b7 e1 db ba
       -0.0005916267 -0.0025154941 -0.0025347667 -0.0016775642
000010 3b ae c8 3a 62 71 29 b9 b3 35 03 3a 0d be 04 3b
       0.0015310714 -0.00016159334 0.0005005255 0.002025488
000020 5c 3d 73 37 d7 1b 0e b8 29 9e ba 3a f6 66 12 3a
       1.4498215e-05 -3.3881366e-05 0.0014237809 0.00055848004
000030 c1 5d 75 3b 2b f0 45 3b 7d 8d 7a ba e1 b4 20 3a
       0.0037439915 0.0030202966 -0.00095578266 0.00061304687

bnorm_1.running_var f4 [16]
000000 17 b1 07 3d 76 f2 5c 3d 75 69 6f 3d aa 4f 40 3d
       0.03312787 0.053942166 0.05845018 0.046950974
000010 35 3d 1e 3c 16 e4 9e 3b 91 48 37 3d c2 72 da 3c
       0.009658148 0.0048489673 0.04474694 0.026666049
000020 de 3e 17 3d 23 be fc 3c 7c a0 80 3f ec 0f 48 3e
       0.03692519 0.030852383 1.0048976 0.19537324
000030 88 0e 6c 3d 69 75 af 3d 73 73 6a 3c 4e 9b a8 3d
       0.057631046 0.08567316 0.014309752 0.08232747

conv_separable_depth.weight f4 [16, 1, 1, 16]
000000 c0 70 d5 3d d9 e2 d3 3d f9 03 36 3e ea a3 1e 3d
       0.10421896 0.10346002 0.17774953 0.03873054
000010 88 8f 73 3d e8 7e dd 3c 84 49 1d 3e 3c 48 91 3c
       0.059463054 0.027038053 0.15360075 0.01773464
000020 1b d6 9f 3d 9b 68 df 3d a6 1e 36 3c a0 f1 0a 3e
       0.07804509 0.10908624 0.011115706 0.13568735
000030 76 56 b4 3d be 09 91 bd 2f 24 59 3c ed 9c 24 3d
       0.088055536 -0.07081936 0.013253256 0.04018872
000040 f7 3a 13 bd 70 fa c1 bc 61 36 d6 bd 62 c8 36 bb
       -0.035944905 -0.023678988 -0.10459591 -0.0027890434
000050 f1 da 78 bd 65 64 3b be 10 18 c6 bd 39 9e 09 bd
       -0.060755674 -0.18300016 -0.09672558 -0.03359816
000060 a0 fb 0c be 93 a8 93 bd c1 9d d6 bd 73 7a ae 3c
       -0.13767862 -0.07209887 -0.10479308 0.021298623
000070 ee 51 c1 bd 24 bc 58 3d e6 4a b6 bd 3e b4 66 3d
       -0.09439455 0.0529138 -0.089010045 0.056324236
000080 fd 54 17 3d fd cd 7d 3d 35 eb 21 3d 18 52 04 bd
       0.036946286 0.061964024 0.03953095 -0.032304853
000090 74 6e cb bd dc 76 b5 3c ed ce 51 3d e7 5d e7 3d
       -0.09933177 0.022151403 0.05122273 0.11297207
0000a0 dc 5b 07 3d 0c 86 46 3d 7f 7d 0d bd 14 c1 62 b9
       0.03304659 0.04846768 -0.03454351 -0.00021624967
0000b0 0a 1f 0e 3e 92 5a b1 3c af 34 03 3e ce a1 95 3d
       0.13879028 0.021649633 0.12813066 0.073062524
0000c0 bf 1d 1e be 00 49 04 be e0 1b 17 bd 2c 19 02 bb
       -0.15441035 -0.12918472 -0.036891818 -0.001985143
0000d0 6d bb 7c 3d f4 85 90 bd 2c 16 80 3d c1 f5 9b 3d
       0.06170218 -0.070567995 0.06254229 0.07615233
0000e0 6d e5 c5 3d cc 2c 95 3d 9d 13 31 be 42 41 d7 bc
       0.096629 0.07283935 -0.17292638 -0.026276235
0000f0 5a 8e 10 bd 8a 70 eb bd a4 5b 35 3d f7 e0 ab 3d
       -0.035292007 -0.114960745 0.04427685 0.08392518
000100 8b e2 a8 bd 3a f3 fb ba 20 21 3e be d4 f1 16 be
       -0.08246335 -0.0019222267 -0.18567324 -0.14740688
000110 0a d1 67 3b 3d 58 f3 3d 6f a0 09 bd 31 55 0f 3e
       0.00353724 0.118820645 -0.033600267 0.13997342
000120 47 30 0c 3e 0d 99 a5 3d 85 96 bd bc 6c ee 58 3b
       0.13690291 0.08085833 -0.023143062 0.0033101095
000130 57 f0 cd bd 3d c2 78 3d 2e 10 8b 3d 2c 0d 76 3c
       -0.10055607 0.060732115 0.067901954 0.015017789
000140 3c c1 3f 3d 44 49 09 be e0 b3 81 bd e9 fa 99 3c
       0.046815142 -0.13406855 -0.063331366 0.018796401
000150 b2 71 56 bd a0 8d 0f be de 74 1c 3d 36 84 eb 3d
       -0.052354522 -0.1401887 0.03819739 0.114998266
000160 13 bf 57 3d ec 64 11 3e 7a 83 ea 3d d4 1d 27 bc
       0.052672457 0.14198655 0.114508584 -0.010199983
000170 3d 36 3f 3d cb 06 a9 3d 3e 92 4f 3d 9c d2 95 bd
       0.046682585 0.08253249 0.050676577 -0.07315561
000180 00 bf b0 3d 16 f1 ca 3d 4f 30 60 3d ee 67 ed 3c
       0.0863018 0.09909265 0.05473357 0.028980222
000190 09 65 64 bd 76 28 a4 bd 4f 6d 78 bd 28 bd dd 3c
       -0.055760417 -0.0801553 -0.06065112 0.027067736
0001a0 b6 e7 52 3d f7 19 2f 3d ce 6b 26 bd 75 68 04 be
       0.051490508 0.04274937 -0.040630154 -0.12930472
0001b0 bd ab 13 3b 79 31 01 bd 53 c6 cd bd 14 19 f5 bd
       0.0022532784 -0.03154132 -0.10047593 -0.11967674
0001c0 04 31 92 3c ff 16 42 3d 0d 66 88 3d d6 eb dd 3d
       0.017845638 0.047385212 0.0666009 0.10835998
0001d0 2c da 17 bd d4 01 ad bc 91 98 fa 3d 02 f7 97 3b
       -0.0370733 -0.021119036 0.12236131 0.0046376
0001e0 28 be 93 bd 9d 89 0c be a9 33 3b 3c ca fb 0b bc
       -0.07214004 -0.1372437 0.011425891 -0.008543918
0001f0 f7 28 d9 bc 91 d6 19 3c 07 5c 32 be 94 42 53 3d
       -0.026508791 0.0093895355 -0.17417918 0.051577166
000200 93 5b 0b 3e 35 29 26 3c 64 03 cb bd e7 da 42 be
       0.13609152 0.01014166 -0.09912756 -0.19028817
000210 d4 e0 f9 bd 0b 29 12 be 68 2c 03 be b6 8d e0 3c
       -0.12201086 -0.14273469 -0.12809908 0.027411323
000220 54 ac 02 3e 06 7a 20 3e 9a 6b b8 bd 25 4b 93 bd
       0.1276105 0.15671548 -0.09004898 -0.07192067
000230 aa b4 c5 bb 3b 5a b2 bc 9d 5b 45 bd 46 be 98 bb
       -0.0060334997 -0.02177154 -0.048183072 -0.0046613542
000240 63 be 55 bd d9 8c bc bc 72 43 0e 3c b7 a3 4d 3d
       -0.05218352 -0.02301638 0.008683072 0.05020496
000250 f3 4d 37 3d 44 49 dd bc a3 af 0b 3b 04 9b 94 3d
       0.044752073 -0.027012475 0.0021314404 0.072561294
000260 ec a7 98 3d 93 56 42 3e a4 31 3e 3c b5 65 13 3d
       0.074539036 0.18978338 0.011608515 0.035985667
000270 33 48 c3 bd 81 a3 b9 bd 9a 2f 36 bd 43 6c 17 3e
       -0.09535255 -0.09064389 -0.04447899 0.14787392
000280 e3 84 b7 bb 94 63 06 bd 56 8d 53 bd d5 a2 1b 3c
       -0.005600558 -0.03280981 -0.05164846 0.009499271
000290 f2 5e fe 3c 7c ec 49 bd 47 b1 2d bd 4d a1 d8 3d
       0.031051133 -0.049297795 -0.042405393 0.10577641
0002a0 17 da a5 3d 9d 22 90 bd f9 3d 60 be ad 36 5e be
       0.08098238 -0.07037852 -0.2189864 -0.21700545
0002b0 38 7d d9 bd 8f da 3b 3c 06 94 1c 3d 62 f8 5e bd
       -0.10619587 0.011465683 0.038227104 -0.054436095
0002c0 c9 78 ff 3d 80 70 25 bd 7a 31 33 be 5e 5e 17 be
       0.1247421 -0.04039049 -0.17499343 -0.14782092
0002d0 cd 75 53 bd f6 6e 98 3c f6 8d fe bc f3 fa cd bd
       -0.051626015 0.018607598 -0.031073552 -0.100576304
0002e0 1f 2b 8d bc b0 31 a2 bd a5 e0 58 3d 56 42 d5 bd
       -0.017232476 -0.079196334 0.052948613 -0.10413043
0002f0 69 12 ca bd ce e0 ce bc 10 51 50 bd 6d f6 91 3d
       -0.09866793 -0.02525368 -0.050858557 0.0712708
000300 87 1a 2c 3e 5b 91 cb 3d 33 8a cb 3d db 05 fb bd
       0.16806994 0.09939834 0.09938469 -0.12256976
000310 40 9a 85 bd 23 0e 01 3d 54 77 d6 3c ab a5 ed bc
       -0.065235615 0.031507622 0.026179947 -0.02900966
000320 aa 1d 63 3d e1 f0 19 bd 47 fd 08 be cd d8 b9 bd
       0.05544821 -0.037583236 -0.13377868 -0.090745546
000330 de f0 99 3c 18 55 00 bd 76 73 bf bc 32 4d 25 be
       0.018791612 -0.03133115 -0.023370486 -0.16142729
000340 54 ae 96 3d ac b4 2c bd 20 82 36 be f9 fe 00 be
       0.07357469 -0.04216449 -0.17823076 -0.12597264
000350 cb 9c a9 bd 21 78 b9 3d 96 b4 2e bc 39 9b 10 3d
       -0.08281859 0.09056116 -0.010663172 0.03530428
000360 11 1e e2 3b 95 7b a8 bd 6d cd 8b bc 58 aa c9 bd
       0.006900557 -0.082266964 -0.017065728 -0.098469436
000370 e0 cf 4d be ef 3c 04 be 0d e3 94 3d e8 20 8e 3d
       -0.2009883 -0.1291387 0.07269869 0.0693987
000380 8a 10 e1 ba 22 25 ee 3d 31 fb e9 3d 98 c7 82 3d
       -0.0017171067 0.11628176 0.11424864 0.06385726
000390 36 62 b1 bc a5 f7 fd bc ca e7 ae 3d a6 cc 02 3e
       -0.021653276 -0.031001875 0.08540304 0.1277338
0003a0 7c 71 a3 3d b1 ef 19 bd 11 f7 3f be 97 2c 09 3d
       0.0798063 -0.037582103 -0.18746592 0.03348979
0003b0 b8 ff db bd 52 77 44 bd fd c6 3c be 8c 08 2a bd
       -0.10742134 -0.047965355 -0.18435283 -0.041512057
0003c0 32 df 70 3e 89 89 a7 3b 19 57 2e bd b2 c7 f6 bc
       0.23522642 0.005112831 -0.04256353 -0.030124519
0003d0 52 71 95 3d 1b ea d8 3d 05 0d aa bc a7 01 43 3d
       0.07297005 0.10591527 -0.020758161 0.047608998
0003e0 e9 f5 f8 3d fe 93 0d 3e 07 1b 47 3e 91 36 3f 3d
       0.12156279 0.13825986 0.19443904 0.046682898
0003f0 72 53 93 3c 72 56 bc bd f7 3c 28 3e d5 90 20 3e
       0.017984126 -0.09196176 0.16429506 0.15680249

conv_separable_point.weight f4 [16, 16, 1, 1]
000000 eb 56 a2 3e e9 20 9f bd 84 14 6d bd 6f 53 9c bd
       0.31706938 -0.07769949 -0.057880893 -0.07633101
000010 c0 f6 e7 bc 3f 20 b8 be 96 02 83 be 26 0a 3d be
       -0.028315902 -0.35962102 -0.2558791 -0.18460903
000020 22 c9 7b 3e 5c 43 e2 3e 81 df 67 be d1 e9 c7 be
       0.24588445 0.44192016 -0.22643854 -0.39045575
000030 73 3a c9 3e b2 18 c7 3d 52 3e 5d 3e 09 4f c1 be
       0.39302406 0.09721507 0.21605805 -0.37755612
000040 7a 07 9b be 46 a5 01 3e 1c ba 90 be eb 65 4c 3e
       -0.30279142 0.12660703 -0.2826699 0.19960754
000050 58 59 95 be 5a b9 f6 be 61 00 ce 3e 3a e3 80 3e
       -0.29169726 -0.48188287 0.40234664 0.2517336
000060 77 f6 a5 be 73 f8 7e 3e 17 0d 69 3e ee 99 43 3c
       -0.324146 0.24899463 0.227589 0.011938555
000070 f5 d1 b8 bb 1d 55 0d be ac 65 4c be 41 8c 89 3c
       -0.005640263 -0.13802 -0.1996066 0.016790511
000080 79 d3 52 be c0 6f 2e 3e 2f b8 83 3d 07 4c 43 be
       -0.20588483 0.17034817 0.064316146 -0.19071971
000090 51 23 ee bd ad ce 75 be d6 7c a6 3e 6c 2c 69 3e
       -0.1162783 -0.24004622 0.32517117 0.22770852
0000a0 96 b5 8d 3e 93 0c 20 be f2 53 20 be 08 55 18 bd
       0.27677602 -0.15629797 -0.15657023 -0.037190467
0000b0 c4 87 b3 be bd de 17 be 40 0c 8e 3e c2 59 5b bd
       -0.35064518 -0.14831062 0.2774372 -0.053552397
0000c0 d1 e8 a9 3e 77 19 22 3e 5d bb e0 bd df c9 2c 3d
       0.33185437 0.15830027 -0.10973237 0.042184707
0000d0 fc 92 3d be 19 49 ad 3d 36 f9 b0 be 34 ba 20 be
       -0.18513101 0.08461208 -0.34565133 -0.15696031
0000e0 ca c9 64 bd a6 f6 d7 3c a2 68 b8 be e2 ad de be
       -0.055856504 0.026362728 -0.36017329 -0.43492037
0000f0 e0 bb 38 be cb f1 ab be e4 16 cf 3d 65 a9 22 be
       -0.18040419 -0.3358291 0.10111788 -0.15884931
000100 4f f6 02 3e 10 9d d7 3d af 4d da 3b ba a1 50 be
       0.12789272 0.10528004 0.0066620926 -0.20374194
000110 33 a3 82 be cd 66 8a be ee 22 2d bc ca 68 d2 be
       -0.25515136 -0.27031556 -0.01056741 -0.41095573
000120 b5 a4 db bc 7a 51 7f be 89 59 8d 3e 0b 27 2c 3d
       -0.026811937 -0.24933425 0.27607372 0.04202942
000130 99 d7 23 be 7d 72 46 3e 1d ec 58 3e c1 55 09 3f
       -0.16000213 0.19379611 0.2118382 0.53646475
000140 e5 36 a8 3e 17 6f a3 3d a6 31 d1 be 38 01 22 3e
       0.3285438 0.07980173 -0.4085819 0.15820777
000150 18 7b 21 be 87 65 80 bd 65 95 b9 be ff 5a bb be
       -0.15769613 -0.06269365 -0.3624679 -0.36592862
000160 c2 6e a9 3e 75 c4 d6 be 60 0c 3a 3d ec 05 14 3e
       0.33092314 -0.4194676 0.045421958 0.14455384
000170 03 3e 0f 3b 08 1a 40 be 68 6e 12 be 13 fd 8f be
       0.002185703 -0.1875993 -0.14299929 -0.28122768
000180 c8 41 0c be 33 6a ed bd 1c c1 79 bb 60 a4 d9 be
       -0.13696969 -0.115925215 -0.0038109487 -0.4250822
000190 bf f4 62 be 5e 65 9a be 0b aa 03 3e c4 74 d4 bd
       -0.22163676 -0.30155462 0.12857835 -0.10373834
0001a0 10 99 68 be 7b 54 b9 bd f7 fb 9f bd 5f 05 8a bd
       -0.22714639 -0.090493165 -0.0781173 -0.06739306
0001b0 fb 1e 87 be 24 52 c9 3e 4e 0b 58 3d 5f 5a dd 3d
       -0.26390824 0.3932048 0.052745156 0.108082525
0001c0 ea a2 88 3e af bb 88 3e e1 6d 45 3e 37 ac 63 be
       0.26686794 0.2670569 0.19280197 -0.22233663
0001d0 38 7a a3 be 26 1f fc 3d d1 6a d5 3e f4 70 d0 be
       -0.31929183 0.123106286 0.41683057 -0.40711176
0001e0 6f 4c 92 be d8 3d 24 3e c5 b3 2f be b6 eb 9e 3e
       -0.2857394 0.16039217 -0.1715842 0.31039208
0001f0 66 49 b8 3e a3 1f 33 be 75 a1 15 be 2d cc 72 bd
       0.359935 -0.17492537 -0.14612372 -0.05927675
000200 13 72 1a be c1 87 98 3d 8b 76 4e be e2 33 7d 3d
       -0.15082578 0.07447768 -0.20162408 0.061817057
000210 ba be a7 3d 18 e2 97 be 48 53 42 3e c6 5b 2c bb
       0.08190675 -0.29664683 0.18977082 -0.0026299818
000220 12 09 b2 3e 8b 54 8b 3c 47 32 cb bd 3f 33 6e be
       0.34772545 0.017008087 -0.09921699 -0.23261736
000230 35 1c 66 3d 76 29 92 be cd 60 00 3e 2e 4a 28 3d
       0.056179244 -0.28547257 0.12536927 0.04108637
000240 61 d6 ad 3a 3d ce a3 be af 0f ce be 10 13 87 be
       0.0013262742 -0.31993285 -0.4024634 -0.2638173
000250 fb 66 25 3e 2d be 65 3e a8 ba c2 bb ae d1 4b bd
       0.16152565 0.22435828 -0.0059426613 -0.049760513
000260 c8 ed 4b 3d c7 88 9e 3e 0c 46 bd bd 77 b3 96 bd
       0.049787313 0.30963728 -0.09241876 -0.07358449
000270 e5 e5 11 3e a4 07 db be 57 80 b3 bd f6 3a 91 be
       0.14247854 -0.42779267 -0.08764713 -0.28365296
000280 de db 5b 3e 5c 77 3a 3e f9 e6 8d 3e 83 9a 78 3e
       0.21470591 0.18209594 0.2771528 0.24277692
000290 fd b9 5b 3e 73 f5 93 3e ac ab 38 be 70 07 a1 be
       0.21457668 0.288982 -0.18034238 -0.31450987
0002a0 e4 22 c5 be c7 51 28 be 58 cc e2 be f8 80 b7 bc
       -0.38503182 -0.16437446 -0.44296527 -0.022400364
0002b0 c3 af fa bd ef 17 be 3e e2 1a a1 be 60 52 e8 3d
       -0.12240555 0.37127635 -0.31465822 0.11343837
0002c0 85 1d bc 3e 78 c8 8a 3e 2c 27 65 3d c8 23 09 bd
       0.36741272 0.2710607 0.05594556 -0.03348139
0002d0 f2 32 d2 be 86 32 c2 3e 5a 7a eb bd b8 8b c0 be
       -0.41054493 0.3792917 -0.11497946 -0.37606597
0002e0 39 06 33 bc 35 05 6a be d2 69 cd 3b 1b 83 b5 be
       -0.010926777 -0.22853549 0.0062687183 -0.35451588
0002f0 04 9f 00 3e 2d db ca bc 02 a0 96 be aa 7c d2 bd
       0.1256066 -0.024762714 -0.2941895 -0.10277684
000300 01 59 d8 be 77 45 ce be f2 67 1e be 85 e4 e0 3d
       -0.42255405 -0.40287372 -0.1546934 0.10981087
000310 45 9e 72 bd 5c 34 ec bd ef 1f 22 be a9 eb 9f be
       -0.05923297 -0.11533424 -0.15832494 -0.31234482
000320 8d 57 90 3e 96 cf 17 3e 9f de 5c be 40 4b 69 3d
       0.28191796 0.14825282 -0.21569298 0.05695653
000330 ef 8d c4 3e e6 30 99 3e b4 70 bc bd 58 bf d9 3e
       0.38389537 0.2992012 -0.09201184 0.42528796
000340 56 92 d2 3e d0 89 72 be 8c 6a 9c be e4 55 d5 3d
       0.4112727 -0.23685384 -0.3055004 0.10416773
000350 0d c5 b4 3e d0 b1 82 be c1 da fd bd 8c 5d 86 bd
       0.35306588 -0.25526285 -0.123952396 -0.065608114
000360 62 49 ae be 6b 2b 09 bd 5f e2 c3 3d b7 e6 c9 3d
       -0.34040362 -0.033488672 0.09564661 0.098584585
000370 8b 9a 93 bd 6c f4 02 3d 74 01 bf 3e 9c a3 7b 3e
       -0.07207211 0.03197138 0.37305796 0.24574131
000380 a0 04 f0 3d 09 56 b4 bd 4b e6 8b be e3 b9 f9 be
       0.11719632 -0.088054724 -0.27324137 -0.48774633
000390 9f 0c 9f be 01 c1 57 3e f4 e1 a9 3d b4 e3 a2 be
       -0.31064317 0.21069719 0.0829505 -0.3181435
0003a0 49 81 c8 3c 58 07 55 be 94 8e 03 be 8a 3b 16 3e
       0.02447571 -0.20803583 -0.12847358 0.1467115
0003b0 18 5f f3 be 56 b6 bf be b4 68 ac 3e dd c8 76 be
       -0.47533488 -0.374438 0.33673632 -0.24100061
0003c0 2e 9b 7b 3e 3a 1f 77 be b9 45 88 3e 4d ae a8 be
       0.24570915 -0.24133006 0.26615694 -0.3294548
0003d0 0a f8 69 3e 9a 4e d4 bb 5d 2f 05 be 29 bb 8c 3e
       0.22848526 -0.0064790966 -0.13006349 0.27486542
0003e0 62 de 1b 3e 17 11 e9 3c 97 95 9b be 21 09 db 3e
       0.15221551 0.028450532 -0.30387565 0.42780402
0003f0 e7 34 2f bd 88 8b 82 be 20 ab 57 be 8c c2 55 3e
       -0.04277506 -0.2549708 -0.21061373 0.20874995

bnorm_2.weight f4 [16]
000000 10 e4 82 3f f0 97 88 3f ca 55 8e 3f a6 11 86 3f
       1.0225849 1.0671368 1.1119931 1.0474136
000010 a2 f1 96 3f 92 a3 8b 3f fb 5a 83 3f a1 40 89 3f
       1.179249 1.0909293 1.026214 1.0722848
000020 8d e4 93 3f a6 0f 8c 3f 6b 58 84 3f a3 6c 7f 3f
       1.1554123 1.0942276 1.0339483 0.9977514
000030 19 f1 84 3f 4a 4a 94 3f b9 58 85 3f fa 03 85 3f
       1.0386077 1.1585171 1.0417701 1.0391839

bnorm_2.bias f4 [16]
000000 fa f3 ad bd 91 e6 30 bd 5f fe e3 bd ec 34 48 bd
       -0.084938005 -0.043188635 -0.11132502 -0.048878595
000010 96 38 be bd 4f 17 8f bd 13 ea a8 bd 46 e6 ce bd
       -0.09288137 -0.06986868 -0.08247771 -0.10102515
000020 7a f7 0b be 56 b7 13 be ad 9b 95 bd 4f 58 59 bd
       -0.13668624 -0.14425406 -0.073050834 -0.053062733
000030 d2 94 b2 bd 19 9f b2 bd 45 95 98 bd 4e f4 81 bd
       -0.087197915 -0.08721752 -0.07450346 -0.063454255

bnorm_2.running_mean f4 [16]
000000 8c 0f 3e bc 93 ea e9 3c 77 f4 c2 3c 81 47 47 bd
       -0.011600386 0.028554237 0.02379821 -0.048652176
000010 ea 85 ac bd 3f 0e 09 bd 7a 2f 0c 3d 71 19 f8 bc
       -0.084239796 -0.03346085 0.034224965 -0.030285569
000020 0a b8 a2 bc 45 3c 0c 3d bc cc ce bc a5 d5 6f bd
       -0.019863147 0.034237165 -0.02524411 -0.058553357
000030 f8 bc 01 3c d6 9c ab bd 59 ab b5 3c 05 49 3f bd
       0.007918589 -0.083795235 0.022176431 -0.046700496

bnorm_2.running_var f4 [16]
000000 59 be 0f 3e 2c 7f fb 3d c6 fd 9a 3d ab 2b bf 3d
       0.14037456 0.122801155 0.07567935 0.09334501
000010 69 0d 29 3e 11 ec e0 3d d6 e4 b8 3d b4 03 f2 3d
       0.16509022 0.10982526 0.09028022 0.118171126
000020 ad df 88 3d a5 e3 a9 3d ec b9 0c 3e 9e 9f e4 3d
       0.06683288 0.08295373 0.13742799 0.11163257
000030 2d fe 00 3e ce 84 19 3e 59 57 10 3e f7 d8 c7 3d
       0.1259696 0.14992067 0.1409582 0.0975818

final_layer.conv_classifier.weight f4 [4, 16, 1, 35]
000000 e8 e1 b6 bd fe 49 9d bc 17 13 4f 3d a8 38 83 3d
       -0.08929807 -0.019200321 0.050555315 0.06407291
000010 58 cd f0 3a ae 87 0e 3c 01 b5 8a 3c 7c 45 0f 3c
       0.0018371744 0.008699341 0.016932013 0.008744594
000020 70 6b 55 bd 81 f4 07 3d f0 aa c4 3c 62 46 ae 3b
       -0.052104414 0.03319216 0.02400729 0.005318449
000030 d2 0c 70 3d fd 5d b3 3d e1 9b 3d 3c d0 97 cb bc
       0.058605976 0.08758161 0.011572809 -0.024852663
000040 0b 82 52 bd 77 26 9e bc 4f b9 1c bd a7 d2 52 bc
       -0.05139355 -0.01930545 -0.03826266 -0.012867606
000050 92 d0 0c 3c dd d4 b6 bd a3 bb a3 3d c0 90 81 bc
       0.008594649 -0.08927319 0.07994773 -0.015816092
000060 ec 3f 04 bd 7c 13 09 be 28 dd 84 b9 c2 a5 a0 bc
       -0.032287523 -0.13386339 -0.00025341776 -0.01961029
000070 a8 12 8b bd 03 80 b7 bd 8f 07 c2 bd 7d bb 1c 3b
       -0.06790668 -0.08959963 -0.09474098 0.0023915463
000080 79 91 16 bd 62 70 bb bc 77 dc 87 bd 45 41 a0 bd
       -0.036759827 -0.022880737 -0.06633847 -0.07824949
000090 a4 08 77 3d e4 8a 22 bd de ce b0 3d a1 9b 3a be
       0.060310975 -0.039683238 0.08633207 -0.1822343
0000a0 a5 e9 91 3d cb 54 8f bc f2 1e cc 3d 3d 16 dd 3b
       0.07124642 -0.017496487 0.0996684 0.006747036
0000b0 51 8f 0a 3d 00 64 a8 3d 79 61 50 bd a0 aa 95 bd
       0.033828083 0.082221985 -0.050874207 -0.07307935
0000c0 b3 0e 46 3c 7d ed 9b 3d 51 0c 1c bd c4 43 50 3d
       0.0120884655 0.07613657 -0.038097683 0.050845876
0000d0 5c 8d e8 3c 18 82 14 bd 73 b6 cd bd 22 93 88 3d
       0.028387718 -0.03625688 -0.10044565 0.06668688
0000e0 3f a5 c9 bd a0 9c 6b 3a b0 73 56 bd ef bc a7 3c
       -0.09845971 0.00089878775 -0.052356422 0.020475833
0000f0 78 78 8c 3d 55 dd ff bc b4 d3 9b 3d 7e 78 d3 bc
       0.06858915 -0.031233469 0.076087385 -0.025814291
000100 3d 4c 31 bd 5b c3 30 3a b0 9d 56 bc 20 f0 0a 3b
       -0.043285597 0.00067429774 -0.013099119 0.0021200255
000110 70 85 b5 3d c7 45 6e bd ea e5 10 be 72 ea 9c bd
       0.08863342 -0.058172014 -0.14150205 -0.076619044
000120 8a 09 b7 bb 32 51 c8 3d d1 c8 ec 3c be 8f 3e 3e
       -0.005585854 0.09781112 0.02890435 0.18609521
000130 f5 36 9c 3a 26 65 15 bd fe e3 09 3e 8d 67 98 bd
       0.0011918234 -0.036473416 0.13465878 -0.07441626
000140 17 6b ea bc 7c b3 b1 3c 70 eb 3d 3d 38 ee ad bd
       -0.028615518 0.02169203 0.04636711 -0.08492702
000150 9f 71 7b bc 27 81 42 3d 84 9e 3e be 55 75 2e bd
       -0.015346914 0.04748645 -0.18615156 -0.042592365
000160 d3 10 24 bd 54 40 43 bc 0a 84 88 bd de 0a 90 bc
       -0.040055107 -0.0119171925 -0.066658095 -0.017583307
000170 1f 75 1b 3d fd a4 3d 3d 06 f3 6f 3c d3 07 a3 bd
       0.037953492 0.046299923 0.014645344 -0.07960477
000180 a0 bf b4 bc 3e a3 bc bb 5f da 25 bd 45 16 5a 3d
       -0.02206403 -0.0057567647 -0.040491458 0.053243894
000190 06 f0 86 bc 87 fd b2 bd 7e 8f 6e bd 66 a2 e6 3d
       -0.016471874 -0.08739763 -0.058242314 0.11261444
0001a0 db b6 62 bc 3f b3 ab bd 13 27 0e bd 04 5d 06 3e
       -0.013837541 -0.08383798 -0.034705233 0.1312142
0001b0 e6 c5 89 3c 28 c9 87 3d 51 0f b5 3d fb 13 54 bd
       0.016817998 0.066301644 0.08840812 -0.051776867
0001c0 9f f2 33 3d 55 6f 07 3d db 98 36 bd d9 d6 60 3d
       0.043932553 0.03306516 -0.044579368 0.054892395
0001d0 83 32 82 3d 88 b9 eb 3c be 46 64 3b c9 44 10 3e
       0.063572906 0.028774992 0.0034832205 0.1408874
0001e0 bd 87 95 bc cc b9 08 3e 8a 0c 37 bd af d9 74 bb
       -0.018253202 0.13352126 -0.044689693 -0.0037361195
0001f0 7e 82 d1 38 7b 65 aa bc 41 f4 e8 bd 2d 2f 26 bd
       9.990203e-05 -0.020800343 -0.11374713 -0.040572334
000200 f2 0f bd bc cb 01 4e b9 a3 be ec bc 60 c4 d8 bd
       -0.023078892 -0.00019646359 -0.028899496 -0.105843306
000210 72 74 1f bd bd a0 37 3d db 4b 9f 3c cf b3 06 bc
       -0.03892941 0.044831026 0.01944535 -0.008221581
000220 80 d5 54 bd 72 5e 93 3c fb c6 1d 3c ce f6 03 3d
       -0.051961422 0.017989371 0.00962996 0.032217793
000230 b9 3b a1 bc dd 6e 2e bd 89 5f 84 3d 1a 09 3a bd
       -0.019681798 -0.042586196 0.064635344 -0.045418836
000240 53 b6 25 3c 6c 52 dd bb e4 de 1c be 45 34 ae 3d
       0.01011427 -0.00675421 -0.15319401 0.08506063
000250 e4 ef 1e 3e 86 c4 8c 3d 12 8c 20 3d 16 2c ac bc
       0.15521199 0.06873421 0.03919608 -0.021017116
000260 4f 4e 82 bb 72 d6 5d 3d 6f e9 c2 bb b2 ac ef 3d
       -0.0039766203 0.05415959 -0.0059482376 0.11702861
000270 78 9d b0 3c 88 fb 22 3e 6f 16 29 3c 4b 73 5f 3d
       0.021559462 0.15916264 0.01032029 0.05455331
000280 73 30 8e 3b 6a 49 fa 3d b3 8d d3 b9 df 3d ce 3d
       0.0043392717 0.12221034 -0.0004035063 0.10070395
000290 90 a1 97 bc a4 48 9d 3d d9 5f 48 bd 9b 39 ac bc
       -0.018509656 0.07679871 -0.048919532 -0.021023562
0002a0 a4 6a 05 bd 3f cf 82 bb c5 43 9a 3c 10 f1 4d ba
       -0.032572404 -0.003991991 0.018831143 -0.00078560505
0002b0 58 44 0a bd 10 09 62 bd c5 7a ea bc ea cf cc bd
       -0.033756584 -0.055184424 -0.028622994 -0.10000594
0002c0 90 72 11 bd 9d 2a db 3d a8 a7 04 3d 6f 86 ac bd
       -0.035509646 0.10701487 0.032386452 -0.08424079
0002d0 d1 62 18 3d ca 7f 6a be 7b 3f 46 3b ad 8b 83 bb
       0.037203614 -0.2290031 0.003025024 -0.0040144534
0002e0 db 25 96 3d 24 e1 ef 3c 5e 8f 0b 3e 79 be de 3c
       0.07331439 0.02928216 0.13628909 0.027190434
0002f0 40 58 9c 3c 39 dc 0a bc 9d a0 38 bc 2e 47 fa 3c
       0.01908505 -0.008475357 -0.011268762 0.03055152
000300 4a 5f 50 3d aa e0 9c 3d 5b 45 0f bc b2 18 bf bc
       0.050872125 0.07660039 -0.008744563 -0.023327205
000310 a9 b6 9c 3d 7a 7e 1b bd 6e d3 ad bc ea c4 01 3d
       0.07652027 -0.037962414 -0.021218982 0.031681933
000320 74 21 d5 3c 56 b5 88 3d ff 13 6d 3b 00 7f 7f bc
       0.026016928 0.06675212 0.0036175249 -0.015594244
000330 35 47 76 3c 51 98 05 3d ab c6 83 3c fb 3e 3b bd
       0.0150316255 0.032615963 0.016085943 -0.04571436
000340 5f 64 9a bd 5c 19 3c 3d 0f 86 99 3a 6f 02 a6 bc
       -0.075386755 0.045922622 0.0011712926 -0.020264832
000350 0c 0a 41 3d 97 50 e8 3d 07 48 e9 3c e0 e1 ef 3d
       0.047128722 0.11343496 0.028476728 0.11713004
000360 17 74 34 be 44 25 62 3d 4d 54 9f 3c 16 37 6b bd
       -0.1762241 0.05521132 0.019449377 -0.05742558
000370 e4 f7 cc 3d 45 7a 01 be 4a 09 9c 3c d9 2c 1d 3b
       0.10008219 -0.12644298 0.019047398 0.002398303
000380 5d e6 35 bd 49 78 7c 3d 47 4d bb bd 4b a7 04 3d
       -0.044409145 0.06163815 -0.09145599 0.032386106
000390 42 6e aa bc 64 19 52 be 14 82 6f bd 05 e9 bd 3c
       -0.020804528 -0.20517498 -0.05847366 0.023182401
0003a0 c4 00 cd 3c cb c1 e3 3d 08 88 ba b7 19 e6 a6 3d
       0.02502478 0.111209475 -2.2236272e-05 0.081493564
0003b0 99 54 fa ba de d3 54 3d c0 5a 34 bd e8 a6 9b bd
       -0.0019098698 0.051959865 -0.04403186 -0.07600194
0003c0 aa 13 81 bd 87 b5 ee bc 46 3d b6 3b 04 b0 62 bd
       -0.06302579 -0.029139293 0.0055615036 -0.055343643
0003d0 3c 5b 17 be 4e c7 c3 bb 62 cd d9 3c 68 f2 ce bd
       -0.14780897 -0.0059746867 0.026587192 -0.10104829
0003e0 cd ae b5 bb 44 6a 84 bd b7 28 31 3e bf f1 aa bd
       -0.0055445195 -0.06465581 0.17300688 -0.08346891
0003f0 2b 9a 04 bc 4b 98 e9 3d 2d e2 13 3c 5d 2a a3 bd
       -0.008093397 0.11406001 0.0090260925 -0.079670645

final_layer.conv_classifier.bias f4 [4]
000000 3f 19 25 bb 6b c3 81 3c c0 a3 59 bb cf 51 34 bc
       -0.002519205 0.015840253 -0.0033209175 -0.011005833
