result_shallowfbcspnet_cv5/fold_1/best_model_fold1.pth (torch, 193974 bytes, 9 tensors)

conv_time_spat.conv_time.weight f4 [40, 1, 25, 1]
0	0xbd74d21a	-0.05977068
1	0x3d2e6105	0.042572994
2	0x3d2f73b5	0.042834956
3	0x3d8f1fdf	0.06988501
4	0x3d4c4b48	0.04987648
5	0x3d6aac22	0.057293065
6	0x3ce63033	0.028099155
7	0x3d15479d	0.03644525
8	0x3c96c4b4	0.018404342
9	0xbc5d4478	-0.013505094
10	0xbd330cb2	-0.04371328
11	0xbdab453a	-0.08362813
12	0xbcbe5a98	-0.023236558
13	0xbc152010	-0.009101883
14	0x3cc498eb	0.023998698
15	0xbbf4fef0	-0.00747668
16	0xbd1ef692	-0.038809367
17	0xbd31fee6	-0.04345598
18	0xbd0a6d8a	-0.03379587
19	0x3d8e9847	0.06962638
20	0x3d83cae6	0.06435184
21	0xbd24746f	-0.040150102
22	0xbcb26912	-0.021778617
23	0xbca20f67	-0.019782735
24	0x3d955600	0.07291794
25	0xbdd84ed1	-0.10561908
26	0xbe0ebd24	-0.13939339
27	0xbda4e4e4	-0.0805147
28	0xbda08646	-0.078381106
29	0x3d729a95	0.059229452
30	0x3d8eeb5b	0.06978484
31	0xbd84bb54	-0.064810425
32	0x3bbf1f78	0.005832609
33	0x3d7bb556	0.061452232
34	0xbc9e4228	-0.019318655
35	0x3cf58246	0.029969346
36	0xbd4619a1	-0.048364285
37	0xbd6e8573	-0.058232736
38	0x3d8a3c9f	0.06749844
39	0x3d82a056	0.06378238
40	0x3dbe879f	0.093032114
41	0x3ddf48ac	0.10902533
42	0x3e043f05	0.12914665
43	0x3e20105a	0.15631238
44	0x3e00f892	0.12594822
45	0x3d635c44	0.055507913
46	0xbddddb20	-0.108328104
47	0xbdabd948	-0.083910525
48	0xbd9766b4	-0.07392636
49	0x3d92c295	0.0716602
50	0xbc8e47d7	-0.01736824
51	0xbcedb985	-0.029019127
52	0x3d64df62	0.055877097
53	0xbdb3dbd8	-0.08782166
54	0xbd30f194	-0.043199137
55	0x3c90d8ea	0.017681558
56	0xbd41eb07	-0.04734328
57	0x3d86ed86	0.06588273
58	0x3da9bfaf	0.08288514
59	0x3b747bb7	0.0037305185
60	0xbd6456b9	-0.055746768
61	0x3d4fae83	0.050703537
62	0xbc2754ea	-0.010213116
63	0x3cd7a576	0.026324015
64	0xbca64150	-0.020294815
65	0x3d99360b	0.07481011
66	0xbc66ee73	-0.014094937
67	0xbd8878b4	-0.06663647
68	0xbd3e7155	-0.0464948
69	0xbca0604e	-0.019577172
70	0x3d34cf46	0.044142984
71	0x3cd61969	0.026135163
72	0x3d82d997	0.06389158
73	0x3d10c041	0.035339598
74	0xbc62df51	-0.013847188
75	0x3cd7b8c8	0.026333228
76	0xbcdb7ca9	-0.026792841
77	0xbd6afa11	-0.05736739
78	0xbda32bd4	-0.07967344
79	0xbbb519dd	-0.005526765
80	0xbdcfe137	-0.10150378
81	0xbdc7e92b	-0.0976127
82	0xbd837ca8	-0.06420261
83	0xbd569fdd	-0.05239855
84	0xbd4533f0	-0.048145235
85	0xbdae5dd7	-0.08513992
86	0xbca8be20	-0.020598471
87	0xbd639dfe	-0.055570595
88	0xbd6565de	-0.05600535
89	0x3c80b9ee	0.015713658
90	0xbd456170	-0.048188627
91	0xbd57c7d8	-0.05268082
92	0x3d712dd6	0.058881603
93	0xbd911e6f	-0.07085883
94	0xb9c15766	-0.00036876946
95	0xbcce1a61	-0.025159063
96	0x3d3c3491	0.04594857
97	0xbdcce728	-0.10005027
98	0xbdc2a77d	-0.09504602
99	0xbdee763d	-0.11643646
100	0x3d0a6199	0.033784483
101	0x3d8fc03e	0.07019089
102	0x3d493e41	0.049131636
103	0x3d2bfd4c	0.04198961
104	0xbd99d35a	-0.07511015
105	0xbdde5316	-0.10855691
106	0xbda04b16	-0.078268215
107	0xbd9d01ef	-0.076663844
108	0x3d7a5989	0.061120544
109	0x3e02271e	0.12710235
110	0x3dd6ea58	0.10493916
111	0x3dd2a863	0.102860235
112	0x3d0a3f83	0.033751976
113	0x3d6430dd	0.055710662
114	0xbd1a4e85	-0.03767254
115	0xbdc5eb93	-0.09664073
116	0x3d250d2b	0.04029576
117	0xbd36ac99	-0.044598196
118	0x3b995eff	0.004680514
119	0xbd7bbc9d	-0.061459173
120	0xbd0ccb26	-0.034373425
121	0xbd530032	-0.05151386
122	0xbcf151f9	-0.029458033
123	0x3da44075	0.08020107
124	0xbcfa7d0e	-0.030577209
125	0x3d1aedab	0.037824314
126	0xbd502e04	-0.050825134
127	0xbcf13065	-0.029442022
128	0xbd8e44ce	-0.06946717
129	0xbd99dcf9	-0.0751285
130	0x3c4045b0	0.011735365
131	0x3a00a474	0.0004907318
132	0x3d8ed10b	0.069734655
133	0x3d5caa7b	0.05387352
134	0xbc8617e0	-0.016368806
135	0xbd1e07ef	-0.038581785
136	0x3d12764c	0.035757348
137	0xbd9d35be	-0.07676266
138	0xbd44fb98	-0.0480915
139	0xbcc42dcd	-0.02394762
140	0xbd61fdf1	-0.055173818
141	0xbd28d552	-0.041219063
142	0x3dbb502b	0.0914615
143	0x3d1c30e4	0.038132563
144	0x3ce23d80	0.027617216
145	0x3c8299bd	0.015942449
146	0xbdb3c1b8	-0.08777183
147	0xbd8b3b1f	-0.06798386
148	0x3d62ce75	0.055372674
149	0x3c5308ba	0.012880499
150	0xbd5c4046	-0.053772233
151	0x3d4f410e	0.05059915
152	0xbd83c10f	-0.064333074
153	0x3b9e8c9c	0.0048385393
154	0x3d004800	0.031318665
155	0x3cd4550e	0.025919463
156	0xbcb23fcd	-0.021758938
157	0x3c77b67a	0.015119189
158	0x3c99d633	0.018778896
159	0xbbdfb410	-0.006826885
160	0xbd0fd031	-0.035110656
161	0xbd35b914	-0.044365957
162	0x3d84a423	0.06476619
163	0x3dd00e7a	0.10159011
164	0x3dafdd4b	0.0858713
165	0x3d5c2b3e	0.053752176
166	0xbd99ab7d	-0.07503412
167	0xbd74828d	-0.059694815
168	0xbd25f325	-0.040515084
169	0x3d72b58c	0.059255168
170	0x3cb6e5db	0.0223264
171	0x3c2fe993	0.010736841
172	0x3db9cc45	0.090721644
173	0xbd2911f9	-0.041276906
174	0xbd3fb509	-0.046803508
175	0x3d78809a	0.06066952
176	0x3ca33d12	0.019926582
177	0xbd594142	-0.05304075
178	0x3d10b221	0.035326127
179	0xbdc6e061	-0.09710766
180	0xbd47f394	-0.04881628
181	0x3c9338d3	0.017971432
182	0x3d225fdc	0.0396422
183	0x3d8a622c	0.06757006
184	0xbc6d22f5	-0.014473666
185	0xbd616697	-0.055029478
186	0xbbee119a	-0.007265282
187	0x3d80215a	0.06256361
188	0x3d802136	0.062563345
189	0x3c614687	0.013749725
190	0x3be50c5e	0.0069899997
191	0x3d865732	0.065596
192	0xbc72fded	-0.014831048
193	0xbd8ff4a3	-0.070290826
194	0x3d737d9b	0.05944596
195	0xbced418e	-0.028961923
196	0xbd5de8e2	-0.054177172
197	0x3aa5b27e	0.0012641696
198	0x3d832408	0.06403357
199	0x3d469b28	0.048487812
200	0x3d941ee8	0.072324574
201	0xbd7628d9	-0.06009755
202	0xbd8d19b3	-0.06889667
203	0xbda1a576	-0.07892887
204	0x3da9cbb5	0.08290807
205	0x3d647223	0.05577291
206	0x3d0a899a	0.033822633
207	0x3bd03212	0.006353625
208	0xbd809b9b	-0.062796794
209	0xbc833e69	-0.01602097
210	0xbd893549	-0.066996165
211	0x3db22f4f	0.0870043
212	0xbbadd9b9	-0.0053054956
213	0xbcfccef7	-0.030860407
214	0xbce61c2b	-0.028089603
215	0xbd043c9e	-0.03228437
216	0x3d05ee83	0.032698166
217	0x3d039a69	0.03212968
218	0xbbce54f9	-0.0062967506
219	0xbda1e295	-0.07904545
220	0x3c1e7c20	0.009673148
221	0x3cf74a9f	0.03018695
222	0x3d4a0c58	0.04932818
223	0x3d5c3f33	0.05377121
224	0xbceb3add	-0.028714592
225	0xbd362ec7	-0.044478204
226	0x3c420c83	0.011843803
227	0x3daa94b8	0.08329147
228	0xbd198d63	-0.037488353
229	0xbdb23b3b	-0.087027036
230	0xbd0a2f52	-0.033736534
231	0xbdbb785c	-0.09153816
232	0xbd95f83d	-0.07322738
233	0xbd27a85e	-0.04093205
234	0x3d3c7f50	0.046019852
235	0x3d3309cc	0.043710515
236	0x3caa15e8	0.020762399
237	0xbd9a7b87	-0.07543092
238	0x392fc589	0.00016762888
239	0xbdb39535	-0.08768693
240	0xbd48f132	-0.049058147
241	0x3dc36401	0.095405586
242	0x3e0ee548	0.13954651
243	0x3cf62a6d	0.030049527
244	0x3dec3663	0.11533811
245	0x3a6bc7e3	0.0008994324
246	0xbe032035	-0.12805255
247	0xbdb059e3	-0.086108945
248	0xbdf7e148	-0.12103516
249	0x3db0bfed	0.08630357
250	0x3cc19be3	0.023633903
251	0xbc95d3d4	-0.018289484
252	0xbc881a97	-0.016614242
253	0xbcf84ca1	-0.030309977
254	0x3c986d6a	0.01860686
255	0x3d726da0	0.059186578

conv_time_spat.conv_time.bias f4 [40]
0	0x3d095271	0.033525888
1	0xbc07e8f9	-0.008295291
2	0x3cb9862b	0.022646984
3	0x3be724e6	0.007053959
4	0x3caf07ee	0.021366086
5	0xbcf62f05	-0.030051718
6	0xbb435dff	-0.0029810665
7	0x3d048667	0.03235474
8	0xbc77b79a	-0.015119458
9	0x3c267826	0.010160482
10	0x3cb5e57b	0.022204151
11	0x3c2754c6	0.010213083
12	0xbcedb720	-0.029017985
13	0xbd2eeda4	-0.0427071
14	0xbbd0cc4f	-0.0063720117
15	0x3d32bd34	0.04363747
16	0xbcf4b03b	-0.02986919
17	0xbcce7441	-0.025201919
18	0x3c516d50	0.01278241
19	0x3c99e129	0.018784123
20	0xbb7e293e	-0.0038781906
21	0x3d33335c	0.043750152
22	0x3d33083c	0.043709025
23	0x3ce2c9fe	0.027684208
24	0x3d0031eb	0.031297605
25	0xbcf50829	-0.029911118
26	0x3ba38ce1	0.0049911593
27	0x3d02a1fe	0.03189277
28	0xbd068360	-0.032840133
29	0x39b6606d	0.00034785588
30	0xbd27e21e	-0.040987127
31	0x3c512192	0.012764351
32	0x3bffa811	0.0078020175
33	0x3c9f93d6	0.019479673
34	0xbc4971fc	-0.012295242
35	0x3c9510d7	0.018196506
36	0x3c2e67ba	0.0106448475
37	0x3c14c11f	0.009079247
38	0xbcaa6c45	-0.02080358
39	0x390d1b68	0.00013457017

conv_time_spat.conv_spat.weight f4 [40, 40, 1, 22]
0	0x3dcbc7c9	0.09950215
1	0xbc9c63bb	-0.019090524
2	0x3d1e44f4	0.038639978
3	0x3d28ea04	0.0412388
4	0xbd4a02ef	-0.049319204
5	0xbbb76330	-0.005596541
6	0xbb2dbfac	-0.002651195
7	0x3cd24837	0.0256692
8	0x3d244cd4	0.04011233
9	0xbd4ab17c	-0.04948567
10	0x3bdbec9a	0.0067115547
11	0xba4faa0f	-0.0007921764
12	0xbe2c9e0f	-0.1685717
13	0xbd7f3ada	-0.062311985
14	0xbd80afcc	-0.062835306
15	0x3ca803b9	0.020509588
16	0x3d1a89ed	0.037729193
17	0xbc86d694	-0.01645974
18	0xbda9b6e8	-0.0828684
19	0x3cad3edd	0.02114814
20	0x3d9f0008	0.07763678
21	0x3d1f4a7e	0.0388894
22	0xbd961bdc	-0.073295325
23	0xbba986c7	-0.0051735374
24	0xbde4a1a1	-0.11163641
25	0x3b1381c6	0.002250777
26	0x3d4eed38	0.0505192
27	0x3d421ada	0.04738889
28	0xbcd37c8c	-0.025816225
29	0xbd1bc6df	-0.038031455
30	0xbcecdcbe	-0.028913852
31	0xbb04a78d	-0.002024147
32	0x3d4ff429	0.05076996
33	0x3dc10ce8	0.0942629
34	0x3ca8d8c8	0.020611182
35	0x3c2fb4d9	0.01072427
36	0x3c2f72a0	0.010708481
37	0x3ccd605b	0.02507036
38	0x3c36031a	0.011109138
39	0xbdf5e9f3	-0.12007513
40	0x3bb02360	0.005375311
41	0x3c92235e	0.01783913
42	0xbd5bcdcf	-0.05366307
43	0xbd7f0f87	-0.062270667
44	0xbd1abc36	-0.03777715
45	0xbd00d2f7	-0.03145119
46	0x3cbb6191	0.022873672
47	0x3c7af021	0.01531604
48	0x3d4a9390	0.049457133
49	0xbd335422	-0.043781407
50	0x3ca2f942	0.019894246
51	0xbc9a13a1	-0.018808188
52	0xbd883f07	-0.066526465
53	0x3ca5e9ae	0.020253029
54	0xbd36313f	-0.04448056
55	0xbbc4fa10	-0.006011255
56	0xbd81638f	-0.063178174
57	0x3d2256ea	0.03963367
58	0xbcd26a19	-0.025685357
59	0xbd18fbae	-0.037349395
60	0x3d0d64c2	0.03451992
61	0xbcbc2155	-0.022965113
62	0x3c62d0fb	0.01384377
63	0xbc3ea73f	-0.011636554
64	0x3d430f9d	0.04762231
65	0x3dd7b9e0	0.105335
66	0xbd8578de	-0.06517194
67	0x3de6f719	0.11277599
68	0x3dce5fb1	0.100768454
69	0x3c9bec08	0.019033447
70	0xbc7f5ad9	-0.015585625
71	0xbd0c25a5	-0.034215588
72	0x3c9a8e85	0.018866787
73	0x3c31ec5b	0.010859574
74	0x3d987c14	0.07445541
75	0xbd85891e	-0.06520294
76	0xbdb27e3a	-0.08715482
77	0xbc60f33c	-0.013729867
78	0x3e17d4f4	0.14827329
79	0x3d94ca28	0.07265121
80	0x3ce9b96c	0.028530799
81	0xbccfe1d2	-0.025376234
82	0xbdabf7a0	-0.0839684
83	0xbcf12855	-0.029438177
84	0xbd090c37	-0.033458915
85	0xbd1e742d	-0.038685013
86	0xbd296851	-0.04135925
87	0xbd48343e	-0.048877947
88	0xbd7e05d0	-0.062017262
89	0xbd27aecf	-0.040938195
90	0xbb81c658	-0.003960412
91	0x3bbbce96	0.005731414
92	0x3d3982cf	0.045290764
93	0xbc2a5636	-0.010396531
94	0xbd727dfb	-0.059202176
95	0xbd419a16	-0.04726609
96	0x3a9dc003	0.0012035373
97	0x3c79f792	0.015256779
98	0xbc94f7b3	-0.018184518
99	0x3d5a366f	0.05327457
100	0x3da6707a	0.08126922
101	0xbb8877b6	-0.0041646613
102	0x3d99a891	0.075028546
103	0x3cdd059c	0.026980214
104	0xbc8d1ffc	-0.017227165
105	0xbcd69eaf	-0.026198713
106	0x3d2cb535	0.042165
107	0x3c865b46	0.016400944
108	0xbc57aa17	-0.013163111
109	0xbb164e99	-0.0022935031
110	0x3c3f5534	0.011678029
111	0x3d0e9b1d	0.034815896
112	0xbcd2cc28	-0.025732115
113	0xbcc414bc	-0.023935668
114	0x3c4faaf4	0.012675036
115	0x3c6f4382	0.014603497
116	0xbc413142	-0.011791529
117	0x3d978fd4	0.0740048
118	0x3d3ab9a2	0.04558719
119	0xbdbd409e	-0.092408404
120	0x3cba9ac0	0.022778869
121	0x3da2565f	0.0792663
122	0x3d93c1dd	0.07214711
123	0x3d3ea212	0.04654128
124	0xbcf62a7b	-0.030049553
125	0xbd887094	-0.066620976
126	0x3d1a81a8	0.037721306
127	0xbcd69fe9	-0.026199298
128	0x3beedd4a	0.0072895633
129	0xbd9352da	-0.07193537
130	0x3cda3f77	0.02664159
131	0xbdb43846	-0.08799796
132	0xbd862f1e	-0.06551956
133	0xbc9a9dff	-0.018874167
134	0xbc12b7de	-0.00895497
135	0xbd34a699	-0.044104192
136	0x3c0ec8d7	0.008714876
137	0xbbfafe1b	-0.0076596863
138	0xba850447	-0.001014837
139	0xbd674b8a	-0.056468524
140	0x3b2ddf2d	0.0026530728
141	0x3dbc3e23	0.09191539
142	0xbc96c807	-0.018405927
143	0x3d55b64f	0.052175816
144	0xbb9f1c61	-0.004855678
145	0xbd0b7ebc	-0.03405641
146	0xbd1048af	-0.035225566
147	0xbb988a2a	-0.0046551423
148	0xbceb6199	-0.028733062
149	0xbc74001e	-0.014892606
150	0x3db49096	0.0881664
151	0x3d89c78a	0.06727512
152	0x3c0a72c2	0.008450212
153	0x3b84ab82	0.0040487656
154	0x3c135546	0.008992499
155	0xbcd752df	-0.026284633
156	0xbd347ef9	-0.044066403
157	0x3d57b97e	0.052667134
158	0x3d913eed	0.0709208
159	0xbba9a63a	-0.0051772865
160	0xbd94a02f	-0.07257115
161	0xbd0b8b97	-0.03406867
162	0xbd4d0fe9	-0.050064
163	0x3da85dbe	0.08221005
164	0x3cdd7626	0.027033877
165	0x3d6339d4	0.05547507
166	0x3d49ff6f	0.049315866
167	0x3d36db85	0.044642944
168	0xbce5c7f4	-0.028049447
169	0xbd1e05c2	-0.03857971
170	0xbd764de7	-0.060132887
171	0xbc1eeb50	-0.009699658
172	0x3d10ae75	0.035322625
173	0x3d4b7bdc	0.04967867
174	0xbd8b6f28	-0.06808311
175	0x3d04c3d1	0.032413308
176	0x3de5924d	0.11209545
177	0x3d0d1a02	0.03444863
178	0x3dba6d57	0.09102886
179	0x3da9ff4c	0.08300647
180	0xbcd4d458	-0.02598016
181	0xbdaec8ac	-0.08534369
182	0x3e1aad1f	0.15105103
183	0x3c2f2fe4	0.01069257
184	0x3b6023bf	0.0034200994
185	0xbd108f83	-0.035293113
186	0xbd8640e0	-0.06555343
187	0xbdb051b1	-0.086093314
188	0xbd90b46a	-0.07065661
189	0xbc8679a9	-0.016415434
190	0x3c8cbf06	0.01718093
191	0xbd40365a	-0.046926834
192	0xbd323911	-0.043511454
193	0x39ec54c0	0.0004507657
194	0x3c4652f4	0.0121047385
195	0x3c284cce	0.010272218
196	0x3d08d7ce	0.033408932
197	0x3d58ec81	0.052959923
198	0x3c455d87	0.012046224
199	0x3cf82057	0.030288858
200	0xbcbbc5b3	-0.022921419
201	0xbd9ce4b8	-0.07660812
202	0xbd27a7c4	-0.04093148
203	0x3d830062	0.063965574
204	0xbc966142	-0.018356923
205	0x3d01f8cd	0.031731416
206	0xbceb84fd	-0.028749937
207	0xbc82d07c	-0.015968554
208	0x3c9ecf59	0.01938598
209	0x3de17b7b	0.1100988
210	0x3e34656d	0.17616816
211	0x3db46d97	0.08809965
212	0x3c83a10b	0.016068002
213	0x3cfb0f5a	0.030646969
214	0xbda8f3fb	-0.082496606
215	0xbdab1ef3	-0.083555125
216	0xbd0ee349	-0.034884725
217	0xbd68dccf	-0.056851204
218	0xbdbcd43a	-0.092201665
219	0xbdd0c1d1	-0.101932175
220	0xbb406930	-0.0029359572
221	0x3ce59931	0.028027149
222	0x3d6e5fcb	0.058196824
223	0xbc517ecd	-0.012786579
224	0xbc9921de	-0.018692907
225	0xbd43e00b	-0.047821086
226	0xbb8eb740	-0.004355341
227	0x3cb03f25	0.021514485
228	0x3d50cfd6	0.050979458
229	0x3d5ba6c0	0.053625822
230	0xbc56a42b	-0.013100664
231	0x3d23047c	0.0397992
232	0x3d031afd	0.03200816
233	0xbd823710	-0.063581586
234	0x3c1d7e76	0.00961267
235	0xbc149334	-0.009068299
236	0x3d8090c1	0.062776096
237	0x3dc942e1	0.09827209
238	0xbdb89fe7	-0.09014874
239	0xbcbda224	-0.023148604
240	0xbcf74dcd	-0.030188465
241	0xbd93c294	-0.07214847
242	0xbdfe3d3b	-0.124140225
243	0xbd7e8950	-0.06214267
244	0xbcb24e5b	-0.021765878
245	0xbda24bb6	-0.07924597
246	0xbc858bc3	-0.016301995
247	0x3dcfb9ba	0.101428464
248	0xbdb3737a	-0.0876226
249	0xbb610e34	-0.003434074
250	0xbd060622	-0.032720692
251	0x3d627eff	0.055296894
252	0x3c19e399	0.009392642
253	0x3e1615b8	0.14656723
254	0x3e438882	0.19095042
255	0xbd4e5fc7	-0.05038431

bnorm.weight f4 [40]
0	0x3f851fc7	1.0400323
1	0x3f85ce9c	1.0453677
2	0x3f840db9	1.0316688
3	0x3f83a488	1.0284586
4	0x3f82f448	1.0230799
5	0x3f825d92	1.0184805
6	0x3f863aa4	1.0486646
7	0x3f83d572	1.0299513
8	0x3f838d9e	1.0277593
9	0x3f869109	1.0513011
10	0x3f8472a5	1.0347487
11	0x3f8d4d07	1.1039132
12	0x3f867206	1.0503547
13	0x3f87b94c	1.0603423
14	0x3f8a7f85	1.0820166
15	0x3f7f2283	0.99662036
16	0x3f84796f	1.0349559
17	0x3f8593ff	1.043579
18	0x3f83c7be	1.0295331
19	0x3f87ad09	1.0599681
20	0x3f893bff	1.0721434
21	0x3f84a46f	1.0362681
22	0x3f8b8533	1.0900024
23	0x3f83e296	1.0303524
24	0x3f847246	1.0347373
25	0x3f8681d3	1.0508369
26	0x3f86339e	1.0484502
27	0x3f829750	1.0202427
28	0x3f8513fb	1.0396723
29	0x3f832e13	1.0248436
30	0x3f84f4bb	1.0387186
31	0x3f861049	1.047372
32	0x3f877934	1.0583863
33	0x3f84eca9	1.0384723
34	0x3f86737b	1.0503992
35	0x3f85cdd1	1.0453435
36	0x3f834416	1.0255153
37	0x3f87a977	1.0598592
38	0x3f840e34	1.0316834
39	0x3f82b49d	1.0211369

bnorm.bias f4 [40]
0	0xbd816ae6	-0.063192174
1	0xbc6603b9	-0.0140389735
2	0xbdf58139	-0.11987538
3	0xbe06f1da	-0.13178197
4	0xbd1d3f27	-0.038390305
5	0xbe331888	-0.17489827
6	0x3dd0133a	0.10159917
7	0x3d5ad7d9	0.053428505
8	0xbe0394c5	-0.1284972
9	0xbd838eb1	-0.064237006
10	0xbb656077	-0.0035000124
11	0x3cf62efe	0.030051704
12	0xbd3cc9f1	-0.046091024
13	0x3bec91c0	0.007219523
14	0x3e340458	0.17579782
15	0xbe338ae2	-0.17533448
16	0xbdceb2fc	-0.10092732
17	0x3d53085e	0.05152165
18	0x3dc0c1a7	0.09411936
19	0xbce8cb6e	-0.028417315
20	0x3db466bd	0.08808658
21	0xbd1cd507	-0.038289096
22	0xbda1bb59	-0.07897062
23	0xbd97bb00	-0.07408714
24	0x3e053051	0.13006712
25	0xbcb221e2	-0.021744672
26	0x3b00b5bd	0.0019639574
27	0xbe07ce49	-0.13262285
28	0x3e133c87	0.14378558
29	0xbd76d724	-0.060263768
30	0xbe18a0b5	-0.14905055
31	0xbd886ba8	-0.06661159
32	0xbd951a7d	-0.07280443
33	0xbd8127f9	-0.06306452
34	0xbd5bda7e	-0.053675167
35	0x3dfd80b7	0.12378066
36	0x3d95438f	0.072882764
37	0x3d0d66d2	0.034521885
38	0x3db74ee7	0.08950596
39	0x3d2234b6	0.03960105

bnorm.running_mean f4 [40]
0	0xbd17e8d6	-0.037087284
1	0x3d117ef1	0.03552145
2	0xbbd931d1	-0.006628253
3	0x3d265dd6	0.040616833
4	0xbcf761ca	-0.030197997
5	0xba8a4554	-0.0010549226
6	0x3d399d82	0.045316227
7	0xbc79707b	-0.015224571
8	0xbd878da5	-0.066188134
9	0x3bbe6668	0.0058105476
10	0xbd2ead74	-0.042645887
11	0xbad44c48	-0.001619705
12	0x3c4e7813	0.01260187
13	0xbd7b2df8	-0.061323136
14	0xbba72f75	-0.005102093
15	0x3d307cf2	0.043087907
16	0xbd75e8f6	-0.060036622
17	0xbadee1a3	-0.0017004501
18	0xbd44659d	-0.04794847
19	0x3c02b389	0.007977375
20	0xbc0a9ea0	-0.008460671
21	0xbd2510bb	-0.04029916
22	0xbb6ee853	-0.0036454394
23	0xbd208891	-0.03919274
24	0x3c4bbe6f	0.01243554
25	0x3d38d978	0.04512927
26	0xbbff74fb	-0.0077959276
27	0xbd29f287	-0.041491058
28	0x3d2f203b	0.042755347
29	0x3bdda1fe	0.0067636957
30	0x3d38ecfb	0.045147877
31	0xbd876da3	-0.066127084
32	0xbccd88f8	-0.025089726
33	0x3ccfc324	0.025361605
34	0x3d17bb84	0.037044063
35	0xbd37401f	-0.044738885
36	0xbc4d41db	-0.012527908
37	0xbcdefb60	-0.027219474
38	0x3d18d17f	0.037309166
39	0x3c6b79b4	0.014372278

bnorm.running_var f4 [40]
0	0x3eb7622a	0.3581708
1	0x3e96d110	0.29456377
2	0x3f2d168e	0.6761254
3	0x3f2a6cf6	0.6657251
4	0x3f0890b9	0.5334583
5	0x3f5770f8	0.8415675
6	0x3f1f7b12	0.62297165
7	0x3f13cdbc	0.577358
8	0x3f2616e6	0.6487869
9	0x3ed4acdb	0.41538128
10	0x3e7dcfa6	0.24786243
11	0x3e477ba8	0.19480765
12	0x3ee22375	0.44167677
13	0x3ea9f387	0.3319361
14	0x3f0682ed	0.52543527
15	0x3f11597a	0.56777155
16	0x3f08271b	0.5318467
17	0x3ebf569f	0.37370774
18	0x3eed78c0	0.46381187
19	0x3ec98fb3	0.39367446
20	0x3e68cd05	0.22734459
21	0x3ebd6f74	0.36999094
22	0x3e2c07c7	0.16799842
23	0x3eb45486	0.35220736
24	0x3f04112f	0.5158872
25	0x3e9ec170	0.31006956
26	0x3f01b832	0.50671685
27	0x3f047dd3	0.5175449
28	0x3ee52d5d	0.44761172
29	0x3f405d04	0.7514193
30	0x3efb7760	0.49114513
31	0x3ebbebaa	0.36703235
32	0x3e381677	0.1797732
33	0x3f1f1f65	0.6215728
34	0x3e3750c9	0.17901911
35	0x3f1ba300	0.60795593
36	0x3f466b8c	0.77507854
37	0x3ed3d428	0.413728
38	0x3ea0a95e	0.31379217
39	0x3eda5cbb	0.42648873

final_layer.conv_classifier.weight f4 [4, 40, 69, 1]
0	0xbce8d399	-0.02842121
1	0xbca78fe5	-0.020454356
2	0xbc3cbc36	-0.011519482
3	0x3d137af3	0.036005925
4	0x3d156334	0.03647156
5	0x3d191724	0.037375584
6	0x3d83a2a5	0.06427506
7	0x3d0e2cb3	0.034710597
8	0x3c7c369f	0.015393882
9	0x3be9e52d	0.0071379156
10	0xbd419859	-0.04726443
11	0xbc3e0805	-0.011598592
12	0x3be8a1aa	0.00709935
13	0x3d5a842e	0.053348713
14	0x3d4a4333	0.049380492
15	0x3d1ead35	0.0387394
16	0x3c876ca0	0.016531289
17	0x3d5c2050	0.053741753
18	0x3b97d9a8	0.004634101
19	0xbbc92a70	-0.006139092
20	0x3c4ce766	0.012506342
21	0x3c8940fd	0.016754622
22	0x3cd71862	0.026256744
23	0x3d89a8ed	0.06721673
24	0x3d365b3f	0.044520613
25	0x3c5b4dd6	0.013385257
26	0x3d6e883f	0.058235403
27	0x3bdd939c	0.006761981
28	0xbd87aefb	-0.06625172
29	0x3d4be53e	0.04977917
30	0x3d5ebbfb	0.05437849
31	0x3d5a33c7	0.053272035
32	0x3de29707	0.110639624
33	0x3d578844	0.052620187
34	0x3c2dac5b	0.010600175
35	0xbcbfae09	-0.023398416
36	0xbd3c757e	-0.046010487
37	0xbc1cad78	-0.009562843
38	0xbc8cc4cf	-0.01718369
39	0xbbccc872	-0.006249481
40	0xbcfc0188	-0.030762449
41	0xbccf4d4e	-0.025305416
42	0xbd25facc	-0.04052238
43	0xbd5e4d22	-0.05427278
44	0xbd4b0b23	-0.049571168
45	0xbd558523	-0.052128922
46	0x3d2686d1	0.040655915
47	0x3cbb0c42	0.022832993
48	0x3a5ca33e	0.0008416659
49	0xbcc4bf0b	-0.024016878
50	0xbccde849	-0.025135176
51	0x3c0621c3	0.00818676
52	0xbc795f38	-0.015220456
53	0x3a48d98a	0.00076618104
54	0x3c8e5e72	0.01737902
55	0x3d4b2376	0.049594365
56	0x3c616ee1	0.013759346
57	0x3c863152	0.01638094
58	0x3c35fa85	0.011107092
59	0x3d0131c1	0.03154159
60	0x3d03e77e	0.03220319
61	0x3ba3cd57	0.0049988437
62	0x3c385ed7	0.01125308
63	0x3cbcf28b	0.023064872
64	0x3d0dddeb	0.034635466
65	0x3d0b93f9	0.034076665
66	0x3bc06848	0.0058718063
67	0x3c00bd50	0.007857636
68	0x3d112552	0.035435982
69	0x3d2ef893	0.042717528
70	0x3d9219f4	0.071338564
71	0xbc25d282	-0.01012099
72	0x3c2a3395	0.010388275
73	0xbd355e43	-0.044279348
74	0x3cc98b16	0.024602454
75	0x3acdc320	0.001569841
76	0xbc7b8ccc	-0.015353393
77	0xbc6f3c00	-0.014601707
78	0x3d1ded72	0.038556524
79	0x3c83b12b	0.016075691
80	0x3d268121	0.04065049
81	0xbc677953	-0.014128047
82	0xbd661c1c	-0.05617915
83	0xbd8e25f0	-0.0694083
84	0xbda9a1dd	-0.08282826
85	0xbd83b0ef	-0.06430232
86	0xbcffbc34	-0.031217672
87	0xbc97e255	-0.01854054
88	0xbcc58a5d	-0.024113828
89	0xbc72e0ac	-0.014824074
90	0xbbbe6cf6	-0.005811329
91	0xbd40437f	-0.04693937
92	0xbd50e45b	-0.050999027
93	0xbcdaed9f	-0.026724635
94	0x3c2fd17b	0.010731096
95	0x3cae6bfa	0.021291722
96	0x3db6ae46	0.08919959
97	0x3dbefb59	0.093252845
98	0x3d004978	0.031320065
99	0x3d5abeed	0.053404737
100	0x3cc7457b	0.024325123
101	0x3d282352	0.04104931
102	0x3aea12c2	0.0017858373
103	0x3cdaa1d0	0.026688486
104	0x3d12ee3d	0.035871733
105	0x3d002724	0.031287327
106	0x3d6a4ce3	0.05720223
107	0x3c520a73	0.012819874
108	0x3cf28979	0.029606568
109	0x3d9b4412	0.07581343
110	0x3cae60ea	0.021286447
111	0x3ba44c34	0.005013967
112	0xbc9b2b87	-0.018941654
113	0xbcd19da5	-0.025587866
114	0xbd3c69e6	-0.04599943
115	0x3b18de3e	0.0023325826
116	0x3ce66d7f	0.028128384
117	0x3cdc0a29	0.026860313
118	0x3d70136e	0.05861228
119	0x3dd56116	0.10418908
120	0x3e116dc1	0.14202024
121	0x3de53e76	0.11193554
122	0x3df83714	0.1211988
123	0xbb4f338e	-0.0031616422
124	0xbc3bdf00	-0.011466742
125	0xbcbf8d68	-0.023382857
126	0xbcb0acbd	-0.021566743
127	0x3c096be3	0.008387539
128	0x3d32074d	0.043463994
129	0x3ceb0b59	0.028691934
130	0x3ddde542	0.10834743
131	0x3ce413d8	0.027841493
132	0x3ceac801	0.028659822
133	0x3d35e92a	0.044411816
134	0x3d99d968	0.0751217
135	0x3d136ce0	0.035992503
136	0x3d7b7a95	0.0613962
137	0x3da35e1c	0.07976934
138	0xbb120ae1	-0.0022284316
139	0x3c77f848	0.015134878
140	0x3d827a5f	0.06370997
141	0x3d18cdd8	0.037305683
142	0x3d465ae9	0.048426542
143	0x3d2400e9	0.04003993
144	0x3d52c648	0.051458627
145	0xbad28f10	-0.0016064364
146	0x3c31542c	0.010823291
147	0x3cfe81aa	0.031067688
148	0x3cf3f52e	0.029779997
149	0x3c9440ea	0.01809736
150	0x3cc15d8d	0.023604179
151	0x3d9597cd	0.07304344
152	0xbc8a3d75	-0.016875008
153	0xbd1b7930	-0.03795737
154	0x3b03fa69	0.002013827
155	0x3ba5a9a5	0.0050556236
156	0xbd792627	-0.0608274
157	0xbc9c1fd3	-0.019058144
158	0xbd1393c4	-0.036029592
159	0xbd7eea61	-0.06223524
160	0xbdb145ee	-0.08655916
161	0xbdc1b88d	-0.094590284
162	0xbd2d0bf4	-0.042247728
163	0x399c2644	0.0002978315
164	0x3c994a6e	0.018712249
165	0x3cabb7ce	0.020961668
166	0x3cd420b1	0.025894495
167	0xbc73027a	-0.014832133
168	0xbb7959c2	-0.0038047885
169	0xbcbff61c	-0.023432784
170	0xbda2effd	-0.079559304
171	0xbd0831c5	-0.03325059
172	0xbd289c09	-0.04116443
173	0xbc650ad2	-0.013979631
174	0x3c3e47d3	0.011613804
175	0x3d66ca08	0.056345016
176	0x3d72de4c	0.05929403
177	0x3cf79e44	0.030226834
178	0x3bb0d571	0.005396538
179	0xbb90cce3	-0.0044189557
180	0xbd4d91b9	-0.0501878
181	0xbcaee54a	-0.021349568
182	0xbd294a53	-0.041330647
183	0xbc8553f2	-0.01627538
184	0x3ce7a1da	0.028275419
185	0xbd0d7371	-0.03453392
186	0x3be604e6	0.007019627
187	0x3cb5c2b3	0.022187566
188	0x3d031745	0.032004613
189	0xbd37540a	-0.04475788
190	0xbd0185d4	-0.03162177
191	0xbad957a8	-0.001658191
192	0xbb9d2073	-0.004795128
193	0x3c9f87ca	0.019473929
194	0x3d08e664	0.033422843
195	0x3d4d44bb	0.050114375
196	0x3d2e9e55	0.042631466
197	0x3d10dbe6	0.03536596
198	0x3d4230e7	0.04740992
199	0x3c7c0bb5	0.015383651
200	0xbbab70a1	-0.0052319323
201	0x3b13f663	0.0022577278
202	0x3dab7a1a	0.083728984
203	0x3ddf2a21	0.10896707
204	0x3d99d2eb	0.075109325
205	0x3df6699e	0.12031864
206	0x3d637063	0.055527102
207	0x3bd48545	0.0064856135
208	0xbbba6e76	-0.0056894375
209	0xbbf29336	-0.007402803
210	0xbcaa09da	-0.02075665
211	0x3d9f75e4	0.07786158
212	0x3cd93245	0.026513228
213	0x3d0ae0a0	0.033905625
214	0x3dad1dfc	0.08452985
215	0x3d70c236	0.058778964
216	0x3d9d6162	0.0768459
217	0x3d54d12d	0.051957298
218	0x3d91a811	0.07112134
219	0x3cbaf3ac	0.02282127
220	0x3d71864c	0.058965966
221	0x3c9f619e	0.019455727
222	0x3d6ff587	0.058583762
223	0x3cf07f02	0.029357437
224	0x3d3095f2	0.04311175
225	0x3d3df480	0.04637575
226	0x3bcdb2db	0.0062774247
227	0xbcbf41cc	-0.023346804
228	0x3bea7511	0.0071550687
229	0x3cf524b3	0.029924726
230	0xbc68b713	-0.014203805
231	0xbd4f43cb	-0.05060176
232	0xbcae08cb	-0.021244427
233	0xbda1880e	-0.078872785
234	0xbd6b562c	-0.057455227
235	0xbd588117	-0.052857485
236	0x3ba6235f	0.0050701345
237	0x3d0659fb	0.032800656
238	0x3cd16ea0	0.025565445
239	0x39460b9c	0.00018887076
240	0xbca86103	-0.020554071
241	0x3b94c723	0.0045403405
242	0xbce7b8cb	-0.028286358
243	0x3c633736	0.013868144
244	0x3a707897	0.0009173243
245	0xbcfa33a9	-0.030542212
246	0x3cb8dbf2	0.022565816
247	0x3cb783cf	0.022401718
248	0x3c5c0470	0.013428792
249	0x3d9b2556	0.07575481
250	0x3d00527d	0.031328667
251	0x3c1a7c31	0.009429024
252	0x3c0fc2d1	0.008774475
253	0x3da41344	0.08011487
254	0xbb424f0c	-0.0029649166
255	0x3d88a210	0.06671536

final_layer.conv_classifier.bias f4 [4]
0	0x3c6bba15	0.014387627
1	0xbd0d9672	-0.034567304
2	0xbbbb05cb	-0.0057074777
3	0x3ccb6d22	0.024832312
