result_eegnetv4_cv5/fold_4/best_model_fold4.pth (torch, 22648 bytes, 18 tensors)

conv_temporal.weight f4 [8, 1, 1, 64]
00000000: 8d86 18bd b391 013d c744 92bd 0fe1 533d
00000010: bdad 193d b76b 6b3d 69a1 eb3c 8195 133e
00000020: 7d63 e33d 57a7 8dbd 035b ddbd db11 d33b
00000030: 72ab 88bd 79a7 473c ad43 34bc 0c3a d93c
00000040: 331a 693a 6cb0 503d 9df2 afbd b4b1 0a3d
00000050: cf66 d8bd 233f 75bd 39bd fd3c 82d8 c03c
00000060: 355a 0cbc 9c90 82bd 0245 17bd 1616 9f3d
00000070: 7902 f43d c80b 513e 910b 793d 0036 6c3d
00000080: 77ef 9a3d 7595 c83c 323a ddbd c693 dbbd
00000090: 48ff 23bc 2949 3c3d b93c 763d c70e 00be
000000a0: 695f 27bd bdaf dabd 791c 00bd bc28 8a3c
000000b0: 0f0c f63b 8628 ce3b c60f e63d 4885 d03d
000000c0: 57f0 4a3c 28ef 3e3c 53a3 c43d baa8 edbc
000000d0: 0761 d63d 807a 0d3d 6c7a 1abd a286 63bc
000000e0: 0f91 95bc af64 1cbe 96e3 51bc 916f b33c
000000f0: 0883 8e3d c5a7 593d f0e6 10bd dc47 87bd
00000100: 63ce b13d 818a 8a3d f80e 65bc f68d 1b3e
00000110: eb12 dd3d d092 b33d ad31 243e d849 283d
00000120: a95f b83d 1279 973d 8fcc 743c 6bdf 853d
00000130: b61c 583d 4ed0 e7bc 7c57 21bd c82e b3bc
00000140: 1612 b93d 5792 57bc 8230 a23d f180 8f3c
00000150: 62cd 883d 098b 86bc 7299 103d d4c7 9d3d
00000160: 82d5 783d e8d1 ebbd 803c 16bd bf6f 8f3c
00000170: 4d0f 1ebd 046e 74bd 1ee1 62bc 77b7 e9bc
00000180: 687f d73c 3308 e93c 1e2d 5a3d e4ac acbd
00000190: 0f30 c4bc 95f8 b8bb 00af a43c 15f8 3439
000001a0: 16ff 90bd e90d b13d a2a5 413c a48b a43d
000001b0: bbd9 013e a260 133e c203 093e f7c2 14bd
000001c0: bb77 3e3d a265 7d3c 0dd5 0e3c 1a75 d3bd
000001d0: 6d7f 86bc 5d4c 8fbd a8ca b139 b2c4 53bc
000001e0: 6397 e03c f6d2 e53d f00f dc3c 8904 3e3e
000001f0: ef62 af3d 5e32 103c a630 a53d 5592 003e
00000200: b418 683b 5687 083c 48fa 2ebd 74af db3d
00000210: aff0 953d 121c 703d fcbe 11bd 0868 cf3d
00000220: d266 0e3b ee13 53bd b7c8 18bd 3aec 073c
00000230: 0cdd 8bbd 150d 8d3d a687 e6bd 75fa a5bd
00000240: e681 cabd b07d 0ebd 764e f7bd eea1 fbba
00000250: a659 363c d674 a4bd 2094 6f3d 5654 153d
00000260: d2b4 d93c 5af4 573d 68f0 ae3d 4a33 ec3d
00000270: c423 98bd e844 2939 434c 1c3d de04 773d
00000280: edb5 0f3d ca88 bd3d 9f45 813d 2d5b 52bd
00000290: 7d2a cbbc 8234 0bbd 8ac6 cd3d 69b8 5e3d
000002a0: e25b 1e3e 650d 393d dfac ea3c b8b7 fc3d
000002b0: ce1e 63bd 993e 783c 7a56 b43d 01bf 8a3c
000002c0: 24d0 8d3d 2f91 033e 198d 7c3d caa2 fa3d
000002d0: aa2c b13d 75ca 43bd c5fe 59bd d880 3c3b
000002e0: f15d f3bc 4ab3 923d 38ed b7bd 3a17 55bc
000002f0: 4f50 15bd 6759 cebd d6fd 82bd 2ce6 2dbe
00000300: e600 113e 5e4c 303e 651c eb3d 3a04 563d
00000310: cacd 3f3d 266a 653d 3a1f 33bd 7fdc 873d
00000320: b02c 0d3e 7b1d 323d 37b7 bb3d 8daa 8b3c
00000330: f806 ac3d 9c96 a73d 9d94 833d d5d1 61bc
00000340: f7da 6f3c ffe0 c7bc 3c29 29bd 2c1c 3bbd
00000350: 5c6c a1bd 36c2 1e3d 45c5 a4ba 9b7a 9ebd
00000360: 9604 8bbd 9e9a bd3c d57f 0c3d 8ddc 11bd
00000370: 0f0c aebc e00d 2dbd fde9 823c 8ebe dcbd
00000380: 4fbd 00be 5b39 e1bd f460 74bd a311 833c
00000390: 9e64 f33b 507d b7bc 3e98 e3bd ab4c afbd
000003a0: 1af9 173d 8fc4 19bd 2c08 c3bc 20fd b73c
000003b0: 5253 51bd d3a0 95bd d87e 25bd c9b1 88bc
000003c0: 6892 b5bd 9250 74bd c919 003c 79f4 0fbe
000003d0: 99bc d8bd 9bbe e0bc 95f1 a0bc f6cd e0bd
000003e0: a3b3 1d3d 5e1c d8bd 666a 87bd 071e 4abd
000003f0: 08c8 98bd 3ba7 0e3d 9742 903d 198d 833d
-0.037237693 0.03163309 -0.071420245 0.051728304 0.037519205 0.05747577 0.02876349 0.144125
0.1110296 -0.06916683 -0.10808375 0.0064413375 -0.066733256 0.012185925 -0.011002463 0.026516937
0.00088921486 0.0509495 -0.08591197 0.033860877 -0.10566484 -0.059874665 0.030974017 0.023540739
-0.008566429 -0.06375238 -0.036931045 0.077678844 0.11914534 0.2041465 0.060802046 0.057668686
0.075652055 0.02448533 -0.108021155 -0.10721545 -0.010009594 0.04596821 0.060116503 -0.12505637
-0.040862475 -0.10678051 -0.031277154 0.016865127 0.0075087617 0.006291452 0.11233477 0.101816714
0.012386403 0.011653699 0.09601464 -0.02901112 0.10467725 0.034540653 -0.037714407 -0.013887079
-0.018257646 -0.15272783 -0.012810608 0.021903785 0.06958586 0.053138513 -0.03537649 -0.06605503
0.08681943 0.06764699 -0.01398062 0.15190873 0.10794624 0.08768237 0.16034575 0.041086048
0.09002621 0.07396139 0.014941349 0.06536754 0.052761756 -0.02829757 -0.039390072 -0.021872893
0.09036653 -0.013157449 0.079194084 0.017517539 0.06679799 -0.016423719 0.035302587 0.0770413
0.060750492 -0.11514646 -0.03667879 0.01750934 -0.03858881 -0.05967523 -0.013847617 -0.028529866
0.02630587 0.028446293 0.053265683 -0.08431414 -0.023948697 -0.0056448677 0.020102978 0.00017258555
-0.07079904 0.08645231 0.011819275 0.08034447 0.12680714 0.14392331 0.1338034 -0.036318745
0.046500903 0.015466126 0.008717787 -0.1032507 -0.016418183 -0.06996987 0.00033911061 -0.012925314
0.027415937 0.11221878 0.026863068 0.18556418 0.08563792 0.008801071 0.080659196 0.12555821
0.0035415115 0.008333048 -0.042719156 0.107268244 0.073212974 0.05862052 -0.035582528 0.10127264
0.0021728766 -0.05153268 -0.03730079 0.008296067 -0.06829271 0.06887261 -0.11256342 -0.081044115
-0.098880574 -0.034787834 -0.12075512 -0.0019198039 0.011129772 -0.08030097 0.058490872 0.036457382
0.02657548 0.052723266 0.085419476 0.1153322 -0.07428697 0.00016142766 0.038158666 0.060307376
0.035085607 0.09254606 0.06312107 -0.051356483 -0.024800533 -0.033985622 0.10047634 0.054375086
0.15464738 0.04517879 0.028646884 0.12339729 -0.0554493 0.015151643 0.088055566 0.01693678
0.06924465 0.12848352 0.061658 0.12238081 0.08651097 -0.0478005 -0.053221483 0.002876332
-0.02970788 0.07163103 -0.08980793 -0.013006026 -0.03645354 -0.10075646 -0.063960716 -0.16982335
0.14160499 0.17216632 0.11480025 0.052250125 0.046827115 0.056009434 -0.04373095 0.06633853
0.13786578 0.043485146 0.09165805 0.017049098 0.08399767 0.08183023 0.0642483 -0.013782938
0.014639608 -0.024399279 -0.04129909 -0.045681164 -0.07881996 0.038759433 -0.0012570998 -0.07738229
-0.06787984 0.023145016 0.034301598 -0.035610724 -0.021245984 -0.04224956 0.015980715 -0.10778533
-0.12572215 -0.10997268 -0.059662774 0.01599962 0.007427766 -0.02239862 -0.11113022 -0.08559545
0.037102796 -0.03754097 -0.023807608 0.022459567 -0.05110485 -0.073060654 -0.04040417 -0.016686337
-0.088658154 -0.05964715 0.007818648 -0.14058103 -0.10582847 -0.027434638 -0.019646445 -0.10976784
0.038501393 -0.105522856 -0.06612091 -0.049345043 -0.07460028 0.034827452 0.07043951 0.064233966

bnorm_temporal.weight f4 [8]
00000000: df0b ba3f ed63 913f 1549 863f d818 903f
00000010: 5621 8f3f bd12 af3f 3aa9 933f 9588 a53f
1.4534873 1.135862 1.0491053 1.1257582 1.1182048 1.3677593 1.1536019 1.2932307

bnorm_temporal.bias f4 [8]
00000000: 801a 30bc a649 4abd 3bdc 913c ad13 223c
00000010: e563 a43c c4e2 5cbd 19d0 a4bd fed6 12bd
-0.010748506 -0.049386643 0.01780521 0.009892386 0.020067165 -0.053927198 -0.08047504 -0.035849564

bnorm_temporal.running_mean f4 [8]
00000000: a7e9 53b8 54ff 3bb9 b8f8 31b6 40b8 9038
00000010: 618e 5bb9 ee91 bbb8 3ebd 8eb9 f399 9338
-5.0523926e-05 -0.00017928827 -2.6519829e-06 6.900774e-05 -0.00020938508 -8.9440364e-05 -0.00027225347 7.0381815e-05

bnorm_temporal.running_var f4 [8]
00000000: bf03 0a3f c9fc 3b3f fbb3 6b3f f167 423f
00000010: 4ae7 ab3f 3bec 443e fd5a 5f3e 3537 503f
0.53911966 0.73432595 0.92071503 0.7593985 1.3429959 0.1923074 0.21812053 0.8133424

conv_spatial.weight f4 [16, 1, 22, 1]
00000000: a132 203e 499d 523c 0ed1 80bd 94f0 3f3d
00000010: f490 8b3d cf17 a63d 315c 7a3d 111b a2bd
00000020: 64d9 043e d405 34bd 0806 b03c 217d 6cbc
00000030: da99 a53d cb32 9fbd 5135 e2bd 26f6 4f3d
00000040: 0fa9 26bd 9670 aebd b481 e4bd e2ac cf3c
00000050: 35c3 eebd 2b6c d53d b7da 803d 0fff 053d
00000060: f627 0e3c f07a c7bd f1f9 e5bd 5f9e cabd
00000070: 7b97 f1bc 2246 a939 4c2d 4c3c 8561 3a3c
00000080: 4312 8abd 3e25 203e d50e 39bd 1471 cb3c
00000090: 3caa 4bbd ca7e 17bd 929a 1e3e 79b7 383e
000000a0: 2641 c6ba ce08 51bc 85bf 67bd a9a2 06bc
000000b0: 457d a23c a888 2a3e 7ae4 75bd 40e3 a63c
000000c0: 862d 88bd 926b febc 02b9 d23c cf1d 57bd
000000d0: 46ea e1bd c958 283e 1b15 96bb 18c0 64bd
000000e0: 09d0 c7bd ce4e 44be 49e1 c7bd 5a97 183e
000000f0: 8a11 ba3d 481b 033e 7bdd aa3c e074 5abc
00000100: 4b90 dcbc 169b 853c d405 f43c 413b 2e3d
00000110: 3dc9 8bbd 7ebc 5cbd de0b 2b3c 536f 06be
00000120: 3ce0 76bd eb4b 9abd 697f 97bd 6886 003d
00000130: 166b bf3c 2ec3 6f3d e303 87bc 3254 273e
00000140: 712f 273e 715f be3c 165c 82bd ae0e b13d
00000150: 4c09 263e 4457 f5bd c77e 8e3d 3a0c 2abe
00000160: 5b09 eb3c 7f5c 5d3e 031b 3c3d 2d27 d03d
00000170: 6e02 be3c 0907 d6bd 7c30 06be abd7 ff3d
00000180: 7352 933d bb72 6dbc bc71 fd3c 2952 1a3b
00000190: 777e c0bc 7e66 353d 08f3 3e3c 514d 73bd
000001a0: 5c70 00bd eb7f 81bd cd22 13bd 2d26 ebbd
000001b0: 4e39 6f3d 09ee 4a3c 290d 78bd d5e4 b4bd
000001c0: c4c3 44bd 519a 89bd 0831 a63b 5143 183e
000001d0: 6434 243e d9de 603d 5bf1 8a3d 7568 20be
000001e0: 6b64 a1bd ce00 dabd 5c48 943d d161 6d3d
000001f0: d347 cf3b be27 e83d d15a 813d 4de9 b3bb
00000200: 9c46 0abd f4a1 a5bd b171 97bc 5ebb 443d
00000210: e378 d4bd 7230 38bd 1c65 123d 5f20 fd3d
00000220: b3fa 2d3d e88e cf3a b5c3 20bb a89a 403e
00000230: 5d9f 1fbe f8b6 55bd f0e3 08bd 54c3 ea3c
00000240: d811 843d 3c29 c43d e966 3fbd 63ec 81bc
00000250: c8a0 d9bd 320d aa3d d8ae e83d 0abe 223d
00000260: bbd7 e6bd 0a70 cd3b ae65 04bd 9eba 053d
00000270: f092 f13d cbdf 30bd 0345 d53d 6ef9 99bc
00000280: dc2b 84bc fe97 cf3d 9f90 4cbd 3076 863d
00000290: 3da1 01be cf96 a8bd 4ea8 4a3c ed6c 76bd
000002a0: edc3 a5bc 8efd 12be f75f 083d 9214 213e
000002b0: 4759 b4bd fc11 373d 6832 d83d e09c 0fbe
000002c0: f793 9fbb f26c f93d eb73 72bc b5af 70ba
000002d0: 3052 60bd d81a 463d 6841 353c 997c c53b
000002e0: d2ad bdbd b64b 903d c4b7 6e3d 029d 8e3d
000002f0: a7fa 7fbc da5f fe3d e635 debb ea19 17be
00000300: cea8 a0bd 3d35 283e 59fe c53d 98e3 443d
00000310: 0702 963d 8260 693d ca5c 8a3c d9cd 64bc
00000320: edb3 14be 026d ad3d d0a2 edbd 1799 07bd
00000330: 4cb8 e53c aa20 903c 4dcb ee3d 055c 6d3d
00000340: be40 bb3d 2113 863b 0932 db3d c782 52bc
00000350: b3fe 5d3d 85f6 b9bc 29f2 58bd 7343 73bd
00000360: 16ce 2a3e d350 dbbd 2821 f1bd 513d 1cbe
00000370: f8b7 7f3c 39a5 69bd 3890 3dbd c2b8 91bd
00000380: 09aa 233d 9f72 3fbd 6804 813c 87bc 1abc
00000390: 1e4b 05bd 726b 763e 73fc 023e 8865 f4bc
000003a0: 8602 ed3c 5e38 8ebb 8150 3abd 8030 423e
000003b0: bdde 37bb 7504 30be be7d b3bd 01c4 3abd
000003c0: d908 a73c a3d5 393d 13de 973c 315a b93d
000003d0: a3f0 7fbd 192a 7a3d 240b 603d acd1 42bd
000003e0: adf5 ab3d abc4 86be 8248 25be 8813 e93d
000003f0: 8ae9 f9bc 0883 033d cd56 f73c c897 363d
0.15644313 0.0128548825 -0.06289874 0.046860293 0.06814757 0.0811001 0.061123077 -0.07915319
0.12973553 -0.04395087 0.02148725 -0.01443413 0.080859855 -0.0777336 -0.110453255 0.050771855
-0.04068857 -0.08517568 -0.111575514 0.025350992 -0.116583265 0.10421022 0.062917165 0.032713946
0.00867652 -0.09740245 -0.11229313 -0.09893488 -0.029491177 0.00032286445 0.0124619715 0.0113757895
-0.067417644 0.15639207 -0.04518016 0.024834193 -0.049722895 -0.03698615 0.15488651 0.1803874
-0.0015125617 -0.012758447 -0.05657913 -0.008217492 0.019835124 0.16653693 -0.060032345 0.020372033
-0.06649308 -0.031057153 0.025722984 -0.052518662 -0.11031012 0.16440119 -0.0045801527 -0.055847257
-0.097564764 -0.19170687 -0.097597666 0.14901486 0.090853766 0.12803376 0.020857563 -0.013333529
-0.026924273 0.016309302 0.029787935 0.042536978 -0.068254925 -0.053890698 0.010439841 -0.13128404
-0.06027244 -0.075340115 -0.073973484 0.03137818 0.023366492 0.058535747 -0.016481346 0.16340712
0.16326691 0.02323887 -0.0636522 0.08645378 0.16214484 -0.11979535 0.069577746 -0.16606227
0.028690984 0.21617316 0.045924198 0.10163722 0.023194518 -0.104505606 -0.13104433 0.12492307
0.0719346 -0.014492686 0.030938022 0.0023547506 -0.023497803 0.044287197 0.011654623 -0.059399907
-0.031357154 -0.063232265 -0.03592186 -0.11481891 0.05840426 0.012385854 -0.060559426 -0.08832709
-0.04803826 -0.06718887 0.005071763 0.14869429 0.1603561 0.054900024 0.06784316 -0.15664847
-0.07880481 -0.10644685 0.07240364 0.057954613 0.006325701 0.11335705 0.0631615 -0.005490458
-0.033758745 -0.08087531 -0.01848683 0.04803025 -0.1037462 -0.044968076 0.035740957 0.1235969
0.042475414 0.0015835436 -0.0024530713 0.18808997 -0.15588136 -0.052176446 -0.033420503 0.028657593
0.06448716 0.09578177 -0.046729002 -0.015859788 -0.1062637 0.08303298 0.11361474 0.039732017
-0.11271616 0.0062694596 -0.03232353 0.032648675 0.11795604 -0.043182176 0.104135536 -0.018795695
-0.016134195 0.10136412 -0.04994261 0.06565511 -0.12659164 -0.082318895 0.0123692285 -0.060162473
-0.020235026 -0.14354536 0.033294644 0.15730503 -0.08806091 0.044694886 0.10556489 -0.14024687
-0.0048699337 0.12178983 -0.014798145 -0.0009181456 -0.05476588 0.048365444 0.011062957 0.006026816
-0.09261669 0.07045691 0.05828072 0.069635406 -0.015623725 0.12420626 -0.0067813275 -0.14755979
-0.07844697 0.16426559 0.096676536 0.048068613 0.073246054 0.056976803 0.016889948 -0.0139650935
-0.14521761 0.08468057 -0.1160332 -0.033104982 0.028041981 0.0175937 0.1165987 0.057949085
0.09143208 0.004091636 0.10702903 -0.012848563 0.05419798 -0.022700557 -0.052965317 -0.059390496
0.16680178 -0.10708775 -0.11773902 -0.15257765 0.015607826 -0.057042334 -0.046280116 -0.07115318
0.03995708 -0.04674017 0.015749171 -0.0094443625 -0.03254234 0.24064425 0.12791614 -0.02983357
0.028931867 -0.0043402156 -0.04548693 0.18963814 -0.0028056346 -0.171892 -0.08764218 -0.04559708
0.020389961 0.045369755 0.01853851 0.09050406 -0.06248535 0.061075304 0.054698125 -0.04756324
0.08396468 -0.2632192 -0.16140941 0.113806784 -0.030506868 0.032107383 0.030192757 0.044578344

bnorm_1.weight f4 [16]
00000000: 6d1b 883f c042 b83f 5a43 933f a791 883f
00000010: 457b 9a3f 25a0 7e3f 9032 8d3f 5241 813f
00000020: 77f3 9a3f 3fb3 7d3f 2071 963f cd7f ae3f
00000030: cb3c 903f 74e0 8f3f 1d82 a63f e964 723f
1.063337 1.439537 1.1504929 1.066945 1.2068869 0.9946311 1.1031055 1.0098059
1.210555 0.9910163 1.1753273 1.3632752 1.1268553 1.1240373 1.3008457 0.94685227

bnorm_1.bias f4 [16]
00000000: 45cb a8be 16ed 25bf b456 c7be 8b4b 91be
00000010: eee5 9cbe fe03 8cbd c103 a7be b6b2 b0be
00000020: 1afc 0dbf 5f2a 0ebe 21c4 c9be c103 16bf
00000030: 81d7 90be 17d3 c7be 6036 0cbf fc1e 4abe
-0.32967582 -0.6481489 -0.38933337 -0.28377947 -0.30644172 -0.06836699 -0.32620052 -0.34511346
-0.554628 -0.13883351 -0.39407447 -0.5859948 -0.28289416 -0.39028236 -0.5477047 -0.19738382

bnorm_1.running_mean f4 [16]
00000000: 9965 9fba 1fc8 18b9 bcb9 db3a c8d3 b2b9
00000010: 26c6 653b a1cd 213a a4b7 d93a 1f91 4aba
00000020: 7f81 293c 2e0f ffba 46ca 8ebb 6186 7c39
00000030: b053 2d3b c6ca 2c3c 6e7f b5b8 43ba 9cbc
-0.0012161016 -0.000145704 0.0016763727 -0.00034108595 0.0035060733 0.00061723037 0.0016610515 -0.0007727313
0.010345816 -0.001945948 -0.004357609 0.00024082653 0.0026447587 0.010546392 -8.654488e-05 -0.019131785

bnorm_1.running_var f4 [16]
00000000: c651 0c3e f2aa 743d acec ab3c 3bad c73c
00000010: ecab c73d f9a4 e63c 385d c93c c843 b53c
00000020: a431 7e3e 7012 023d 7431 183d 1a67 883c
00000030: dfac c93b 621f 383d 3f21 213d e31b cd3e
0.13703069 0.05973334 0.020986877 0.024374595 0.09749588 0.028154837 0.024580583 0.022127047
0.24823624 0.031755865 0.037156537 0.016650725 0.006154641 0.044951804 0.039338347 0.40060338

conv_separable_depth.weight f4 [16, 1, 1, 16]
00000000: 7c68 ebbd 9a26 303e 8928 433e b970 10be
00000010: d41b 44be 7dac a3bd 084b e53d 8f36 493d
00000020: 9151 b8bc 7292 adbd bfec 0dbe 0abc b5bd
00000030: 7e9e 163e 6ed4 3ebd 049f dcbd a111 c4bd
00000040: aa47 2e3d b006 d5bd f27f 27be 3f10 24be
00000050: ee3d e0bd 3bdc cebc 3403 623d 5599 c43c
00000060: 768d e1bd a153 1ebd 0edb bbbd e349 cbbd
00000070: 2bb4 cabd 4aa7 b8bd a10c aebd 2887 ecbc
00000080: cb21 60ba b8ad 45be c7cd 423c b8d0 c03d
00000090: 7abb 1f3e ad6f 343e 3a82 c53d 4871 e03c
000000a0: bef1 f53d 727e de3d a83c 4f3d ec2d dbbc
000000b0: 2d78 afbd 6480 3c3d 67da 3d3e 3fb9 7dbc
000000c0: 2595 0c3d b1ef 20bd fa1e e23d 3286 143e
000000d0: 0eac 153d 37ab 1abc 9ad7 bc3d 7839 0fbd
000000e0: 5ed3 00be 8e40 c9bd 811b bcbb dd05 18bc
000000f0: f15c dd3d a34a f03d eb75 563d 5c51 2b3d
00000100: 05af 26be 9d3a 2cbe d434 a73c 1c8f 6fbd
00000110: dbd3 563d 69cc 29bd b675 babd 4077 14bd
00000120: ed71 13bd b1be 3cbd 7890 b23c 0c0b 693c
00000130: 27fe 5bbd a86a d0bd 47d4 96bc f1fc 9f3e
00000140: c9b0 15bd bdde fe3b 556c b33d 065a 243e
00000150: 6876 e43d d2c8 a53d 00e4 dabd 8215 90bc
00000160: 5622 91bc 2e4a 7dbd ea87 6abd 6094 a6bd
00000170: fe52 38bd c1d9 6f3d 1aa7 273e eef9 d13d
00000180: e5cc 9a3d dd48 c3bc 33c5 8e3d d0c3 dd3d
00000190: 529b dc3b 4184 0c3d 1685 d4bd d417 12bd
000001a0: 1045 86bc 1dba 9d3d 3a44 503c 7513 003e
000001b0: 47dd 363e ef01 e13c 1a65 d93d d046 fa3b
000001c0: f593 933d e028 1cbe ff68 b2bd a872 7e3b
000001d0: 03be d7bc d997 35bc 3058 19be 1066 11be
000001e0: 91ff ebbc 1c7a de3d bfc8 813d 8714 543b
000001f0: 68cc a1bd 52d1 793d 0525 fe3d 2733 dc3d
00000200: 5721 6bbd 5f8e 58be e744 f5bd fc1f 213e
00000210: 89e9 0e3e 1832 cbba 77cc 6ebd 65cb 29be
00000220: de67 e1bc 3934 9e3d f60c fabc ced4 20be
00000230: c183 c2bd 5abd 463d db41 003c 7e62 00bd
00000240: 52d4 453d b53f e23d a422 b63d 3ad8 d9bd
00000250: 5a99 34be 4a1b 3abe 543a 40be e428 603c
00000260: f0db 5f3c 5313 dd3d 605b 5ebb c361 d03d
00000270: a36b 2e3d b251 7b3c 1dfb a23b bcd3 10bc
00000280: 6f4e 41be 331e 093d b911 b93d 652e fc3c
00000290: 71ed eabd 8319 54be a5d9 90bd b2bc 80bd
000002a0: e391 8d3d 99ab cabd 2f79 23bd 2000 bdbd
000002b0: a361 9fbd 941f 1dbe dea4 d3bd d60e 103c
000002c0: ad70 d03d 2849 e23d 7d4b 603d c185 9abd
000002d0: 19bf a53d 83d1 ac3d ca97 d13d ebe3 b23c
000002e0: e0ff c73d ae8f 033e 49ec b13d e29e 9e3d
000002f0: d51b eabc 131d 623c 583c 093d 1d35 8a3d
00000300: 5097 c5bd e207 1bbd 4e40 d03d b0c6 963c
00000310: 346d b93d 6128 043e 0ade 75bc ac0a c7bd
00000320: dc2d 1abe fe6b 3dbe c635 5abe 97b1 1dbe
00000330: 7257 ccbd 6989 453d 9b15 91bc 3b6b 513d
00000340: 9dff 463e 87a5 cd3d c441 94bc d390 07be
00000350: 7299 18bd 361e 8d3d 0384 c6bc b0d5 083c
00000360: 8d72 0f3e 13dd 173e 7f82 033e 9113 8f3c
00000370: 29b1 37bc 6904 613d a838 923d 7a1a debd
00000380: e3ed 7b3c cdaf 37bd 2e7c 953d c166 41bc
00000390: ccb9 95bb 024f 45be 6082 40be 82a7 c1bd
000003a0: d76a 1abe 79bc 90bc aaed 84bc 3524 93bc
000003b0: b7bd 05bd 6bd5 7b3c 12fa a3bc 48ea 86bd
000003c0: 66ec 7dbb 242f 523c 6aae 05be b1ea 30bd
000003d0: e873 963d 0938 113d 165a a4bc 2b75 cebd
000003e0: 3e0e bc3d e578 003e 9207 523e 18c2 993d
000003f0: 86e3 1cbe 02ee c0bd cc92 a1bc 2243 d13d
-0.11494538 0.17202225 0.19058432 -0.141055 -0.1915124 -0.07991884 0.11195952 0.049124297
-0.022499831 -0.08475198 -0.13859843 -0.08873756 0.14708897 -0.046589307 -0.10772517 -0.09573675
0.042548813 -0.10401666 -0.16357401 -0.16021822 -0.10949312 -0.025251498 0.055178836 0.023998896
-0.1101331 -0.038653973 -0.09172641 -0.09926202 -0.098976456 -0.09016283 -0.084985025 -0.028873041
-0.00085499574 -0.1930455 0.011889881 0.0941481 0.1559886 0.17620726 0.09643979 0.027397767
0.12008999 0.10863961 0.050594956 -0.026755296 -0.085678436 0.04602088 0.18540345 -0.015486061
0.034321923 -0.039291088 0.110410646 0.14504316 0.036541037 -0.009440235 0.0922081 -0.034966916
-0.1258063 -0.09826766 -0.0057405834 -0.009278742 0.10808743 0.11732986 0.05235855 0.041825637
-0.16277702 -0.16819234 0.020410933 -0.05848609 0.052448135 -0.041454706 -0.09104483 -0.03624654
-0.03599732 -0.046080295 0.021797404 0.014223825 -0.053709175 -0.10176593 -0.018411769 0.31247666
-0.03654555 0.0077780173 0.08760897 0.16049966 0.11155397 0.08094944 -0.10688019 -0.01758838
-0.017716568 -0.06183832 -0.057258524 -0.08133769 -0.045001023 0.058557276 0.16372338 0.102527484
0.07558612 -0.023838455 0.069712065 0.10828364 0.006732383 0.034305815 -0.10376947 -0.035667256
-0.016390353 0.07701514 0.012711579 0.12507422 0.17857848 0.027466742 0.10614987 0.007637836
0.07205955 -0.15249968 -0.08711433 0.0038825665 -0.026335722 -0.011083567 -0.14975047 -0.1419909
-0.028808387 0.10863134 0.063371174 0.0032360868 -0.079003155 0.06099064 0.12409405 0.10751944
-0.057404842 -0.2114806 -0.11976033 0.15734857 0.13956274 -0.00155026 -0.05830046 -0.16581495
-0.027515348 0.077248044 -0.030523758 -0.15706179 -0.09497786 0.048520423 0.007828201 -0.03134393
0.048298188 0.110473074 0.08893326 -0.10636945 -0.17636624 -0.18174472 -0.1877225 0.013681624
0.013663277 0.107947014 -0.0033928975 0.101748966 0.04258312 0.015339302 0.0049737827 -0.008839544
-0.18877576 0.033476066 0.090365835 0.030783841 -0.114710696 -0.20712857 -0.070727624 -0.06285991
0.06912591 -0.09896011 -0.03991049 -0.092285395 -0.077822946 -0.15344077 -0.1033418 0.0087926
0.10177741 0.1104911 0.05475949 -0.07545043 0.080930896 0.08438399 0.102340296 0.021837195
0.09765601 0.12847778 0.08687646 0.07745148 -0.028577724 0.013800877 0.033504814 0.06748412
-0.09648001 -0.037849315 0.10168515 0.018405288 0.09054032 0.12906028 -0.0150065515 -0.097188324
-0.15056556 -0.18498227 -0.21309575 -0.15399776 -0.09977616 0.048226748 -0.017710498 0.051127654
0.19433446 0.100413375 -0.018097766 -0.1323884 -0.03725571 0.06890528 -0.02423287 0.008351728
0.14008541 0.14830427 0.12842749 0.017465385 -0.011211672 0.054935846 0.071397126 -0.10844894
0.015376541 -0.04484539 0.07299076 -0.011804284 -0.004569268 -0.1926842 -0.18799734 -0.09455778
-0.15079819 -0.017667996 -0.016226608 -0.0179616 -0.03265163 0.015370707 -0.020016704 -0.06587654
-0.003874564 0.012828622 -0.13054815 -0.04319257 0.07346326 0.03545383 -0.020062488 -0.10080942
0.09182404 0.12546118 0.205107 0.075077236 -0.15321168 -0.094203964 -0.019723319 0.10217883

conv_separable_point.weight f4 [16, 16, 1, 1]
00000000: 81a6 09bf e7ac 22be 579d 4ebe b1a5 c03d
00000010: ee90 a5bc c89c f9bd 7a8a 673b 2366 3dbe
00000020: 9e8d 183e d31c 923e 35af 473d 7464 dd3e
00000030: 013b 2c3c 700c 563d 7066 adbe 7afc 013f
00000040: 5ce3 d13d 8c53 a9be 460d 5dbe 0e16 9f3e
00000050: f409 99bd 75f2 41bd 87f2 26be 665c 94be
00000060: f707 843e f521 383e e693 a0be fa8e dd3d
00000070: a10b 1fbb 4237 54be a3cc 9c3e 9d6b 13be
00000080: 4350 aa3d 7a52 0ebd ba71 393d d818 513e
00000090: e041 893e 526a dd3d c075 193e 0f36 343e
000000a0: 5899 a63e 8dc6 d53e 7601 8cbe 5877 35be
000000b0: cbec 0d3f 8f11 18be a29f 71be a0fa 96be
000000c0: da73 9fbc 574f 03be b218 9dbd 1759 743e
000000d0: 4aed a03e 4d6f 97be eea8 2b3e 2d0f 033e
000000e0: c0da c6be 56bd dbbd 0063 02bf b96d 97bc
000000f0: f783 2a3e 8184 7a3e 4327 86be 6a0a db3d
00000100: a3f4 a33c 401a c73e b571 f73e 2a67 633e
00000110: 6438 abbd a736 5dbe 9dd7 95be 6b31 8fbd
00000120: 7856 823e 4ec9 52be f542 d6bd 753d df3e
00000130: 6324 07be 9ba2 f0bd 2d8d a2be 6a0c 00be
00000140: 1aae 863d 3558 3b3e e46f f03d a326 093e
00000150: ce76 a43e fdf0 b9be 458f bebe 3d67 edbe
00000160: b57e 6e3c efaa 96bc 001d 383e 153a 74be
00000170: cb8c 363e 9ec3 6dbd 4c69 183e 20b4 dd3e
00000180: 10db 20bd e255 933e 5f2d 69be 2a15 dbbe
00000190: 5d70 b5bd dd9c ec3c aa63 57be 148f b2be
000001a0: c304 6fbd 203a 51be 22f9 99be 4e02 9a3d
000001b0: 639a 3f3c be94 9d3e c019 99bd 8dda 553e
000001c0: 9bae e4be 30fd a53e c4aa 18be 8ede 673e
000001d0: 7605 7cbe e99b b63d 940c 773e 414e 9a3e
000001e0: bf6a 09be 5ce3 05be 0697 56be 097f 91bd
000001f0: 9fa5 b53e e0ab 6fbe ddcb 5bbe ee81 acbd
00000200: 1e53 1e3e bc4c 6b3e f17a 993e 12e2 293e
00000210: 9cf3 29be bdaa 95be 5229 53be f9e0 0bbd
00000220: 9d0f a63c 6360 053f ccb5 d53e b4e0 f53e
00000230: f53d 623e 165b 0fbe 552f 64be 46a4 593e
00000240: 0bff 683e 30b6 233e a54a ddbc ad83 9bbd
00000250: 720e c7be 29fe 68bd ecf1 9d3e 078c 0b3e
00000260: cd58 ebbe 0ad0 403e dd13 e83c 26d3 14bb
00000270: f2b3 d839 5801 313d 99df d2bd c2cf 073f
00000280: 3773 b4ba d970 33be d23f cb3d c4df c0be
00000290: 96c2 5cbe a16c 7fbe b530 8f3e 91c7 9b3e
000002a0: a9bb 5dbd 33c3 17bc c713 353e ec2b 503d
000002b0: 371e 2c3e 99df 03bf 1e05 163e 8b06 03be
000002c0: 9345 b1be 29b4 92be f58c 2d3f 83c3 a63e
000002d0: a979 42be af13 033f 13f5 303e a401 163e
000002e0: 6f25 373e 7c96 2bbe 1468 0fbd fce1 01be
000002f0: 7ebb b0bd ee6a cb3e 63fa 283d 695e 723d
00000300: 1781 cb3e 828a 2b3d 2c0a 3fbe 5ba6 a33e
00000310: 5bef a1be 98ad 783e 7a37 063f f549 f2be
00000320: 692c 5ebe dd98 903d d367 bfbd 42ce be3d
00000330: 5790 b93d e724 883d 114b 8cbe d10f 11bd
00000340: ff16 fbbd 91bd 31bb abf1 2abd 4c6e 2abe
00000350: 636d e8bd ef9e a1be 87d5 87be 2842 503d
00000360: a4fb 863d 6a8c acbe c246 3d3c 83df 05bf
00000370: 3362 a0be 7b8d 86bd eb31 d93e 8f1d 30be
00000380: 0fd6 c9be ef46 cc3e ee0e 88be 0548 293e
00000390: e2a3 16be b1dc 603e 1660 a1be f7ee 95bd
000003a0: c525 d3bd 2ed7 92be d2ff 803d 327c f4bd
000003b0: 3ffb fb3d d1f6 adbe 7520 28be 4865 01bd
000003c0: 36d3 c83e c06e 083e 2fee 77be 3c72 8d3d
000003d0: 7e68 7a3e ecec 5a3e c025 c53e 525d 963e
000003e0: 5b4d 66be abac 6d3e ff42 3abe 9ca2 213e
000003f0: 64d1 debe e071 a33e 3b0c 03be 1897 6c3e
-0.5376969 -0.1588627 -0.20177208 0.09406603 -0.02021071 -0.12188107 0.0035330341 -0.18495993
0.14897773 0.28537616 0.048751075 0.43240702 0.0105121145 0.052257955 -0.33867216 0.50775874
0.102484435 -0.33071554 -0.21587095 0.31071514 -0.074726015 -0.047350366 -0.16303454 -0.28976744
0.25787327 0.17981704 -0.31362838 0.10818286 -0.0024268406 -0.20724204 0.30624875 -0.1439652
0.0831609 -0.034746625 0.045274474 0.20419633 0.2680807 0.108112946 0.14986324 0.17598747
0.32538867 0.41753045 -0.27344865 -0.17721307 0.5543944 -0.14850448 -0.23596051 -0.29488087
-0.019464422 -0.12823234 -0.07670726 0.2386211 0.31431037 -0.29577103 0.1676366 0.12798758
-0.38838768 -0.10729472 -0.5093231 -0.018484937 0.16651903 0.24464609 -0.2620183 0.10695346
0.020014113 0.38887215 0.4832894 0.22207323 -0.08360365 -0.2160288 -0.29266062 -0.069918476
0.25456595 -0.20584604 -0.1046199 0.43601575 -0.13197474 -0.117497645 -0.31748334 -0.12504736
0.06576176 0.18295367 0.117400914 0.13393645 0.3212189 -0.36316672 -0.3721868 -0.46367827
0.0145565765 -0.018392054 0.17979813 -0.23850282 0.17827146 -0.058047883 0.14883918 0.43301487
-0.039271414 0.2877646 -0.22771214 -0.42789584 -0.08859322 0.028883392 -0.21034113 -0.34874785
-0.05835415 -0.20432329 -0.30072886 0.07519971 0.0116945235 0.30777544 -0.074756145 0.20884152
-0.44664463 0.3241973 -0.14908892 0.22643492 -0.24611458 0.08916456 0.24125892 0.30137828
-0.13419627 -0.13075012 -0.20956048 -0.07104308 0.3547792 -0.23405409 -0.21464486 -0.084232196
0.15461394 0.2297849 0.2997661 0.16590145 -0.16596836 -0.29231825 -0.20621231 -0.034150098
0.020271117 0.521002 0.41740263 0.48022997 0.22093947 -0.1399959 -0.2228368 0.21254072
0.22753541 0.15987468 -0.027013132 -0.075934745 -0.38878208 -0.05688301 0.30848634 0.13627635
-0.45966187 0.1882936 0.028329784 -0.0022708862 0.000413328 0.043214172 -0.10296554 0.5305139
-0.0013767247 -0.17523517 0.09924282 -0.3767072 -0.21558604 -0.24943782 0.27966848 0.30425695
-0.054134045 -0.009262848 0.17683326 0.050823137 0.16808401 -0.5151306 0.1465039 -0.12795465
-0.34623393 -0.28653076 0.6779321 0.3257104 -0.18991722 0.5120191 0.17280988 0.14649063
0.17885374 -0.16756624 -0.035011366 -0.12683862 -0.08629511 0.39730018 0.041254412 0.059172068
0.39746925 0.04188014 -0.18656224 0.31962857 -0.31627926 0.24284971 0.524284 -0.4732205
-0.21696629 0.07060406 -0.09345975 0.09316684 0.09060734 0.066476636 -0.2740102 -0.035415474
-0.122602455 -0.0027121047 -0.04173438 -0.16643637 -0.11348989 -0.3156657 -0.26530096 0.05084434
0.065909654 -0.33700877 0.0115525145 -0.52294177 -0.3132492 -0.06569954 0.42420897 -0.17198776
-0.39421126 0.39897868 -0.2657389 0.1653138 -0.14710954 0.21959187 -0.3151862 -0.073209696
-0.10309938 -0.28679794 0.06298794 -0.11937751 0.12303781 -0.33977368 -0.16418631 -0.03159073
0.3922364 0.13323498 -0.24211954 0.06906554 0.24453923 0.21379441 0.38505363 0.29368073
-0.22490446 0.23210399 -0.1818962 0.15784687 -0.43519127 0.31922817 -0.12797634 0.23104513

bnorm_2.weight f4 [16]
00000000: 2b6e 9b3f 3290 943f 1265 923f 8b45 963f
00000010: d968 8a3f a864 903f d84b 8e3f 2381 8e3f
00000020: f458 8b3f f1e6 973f fda1 883f 032f 9f3f
00000030: 22d1 883f 40c0 8e3f 214a 893f 2e5d 853f
1.2142996 1.1606505 1.1437094 1.1739973 1.0813247 1.1280718 1.1116896 1.1133159
1.0886521 1.1867353 1.0674435 1.2436222 1.0688822 1.115242 1.0725747 1.0419061

bnorm_2.bias f4 [16]
00000000: 6c63 1bbe dfc2 91bd 98ad 18be ca26 1bbe
00000010: 2757 abbd a75d 2bbe d357 39be 6eb6 18be
00000020: dd40 cabd ad7b 25be 573b c8bd 90d9 31be
00000030: 023b 1cbe e92c 05be e4b8 1dbe 6561 26be
-0.15174645 -0.07117247 -0.14909971 -0.15151516 -0.08366232 -0.16734944 -0.18099909 -0.14913341
-0.09875653 -0.1616046 -0.09776943 -0.1736815 -0.15256885 -0.13005413 -0.15402561 -0.1624809

bnorm_2.running_mean f4 [16]
00000000: 5b50 febd ea33 8dbc 53e4 923c 11f4 09be
00000010: a254 36bd abd1 b23d 84c2 2d3c 9b55 ef3c
00000020: fb2b 0fbd 03b7 c9bc b5c1 433b 9a1d 9abd
00000030: db6c 6dbd 3c15 fb3d 3192 d33d 68bf 4dbd
-0.1241767 -0.017236669 0.01793114 -0.1347201 -0.044514306 0.08731397 0.010605458 0.029215625
-0.034954052 -0.0246234 0.0029870097 -0.07525177 -0.05796514 0.122599095 0.10330618 -0.050231367

bnorm_2.running_var f4 [16]
00000000: dfd6 7e3e c79c d93d ff60 913e 2e5b 173e
00000010: 33d1 ff3d 7410 273e 14ef eb3d 1ae6 4c3e
00000020: d5ef 493e 0c5f 203e 579b f53d 982b 883e
00000030: d5c1 543e 2b2f 0c3e 07e2 283e d19c 433e
0.24886654 0.10625606 0.28394315 0.14780876 0.124910735 0.1631487 0.1152021 0.20009652
0.19720395 0.15661258 0.11992519 0.2659576 0.20777066 0.13689868 0.16492473 0.1910279

final_layer.conv_classifier.weight f4 [4, 16, 1, 35]
00000000: d81f afbd b090 3bbc a280 cd3d bc22 4e3d
00000010: 4bd9 21bc fc0d 8fbd 9778 a23d 5449 413d
00000020: b91a 5e3e 5f0d b73d e1ce cabd f8c2 c53c
00000030: 64f2 023d 7515 0c3c d4f9 a63d d293 febc
00000040: 9468 ec3d 36ac 093d 4c3c d23d 123a 96bc
00000050: 75c0 71bd afb8 4f3d 5656 bf3c 1e74 03bd
00000060: 8a62 043c 6b62 06be c88e 07bd 0ddf 5b3d
00000070: 726e 77bc 3c9c 363c 268b 923d 532e 6b3c
00000080: be44 013e d1d7 c8bc 3990 4dbc 20d3 a33c
00000090: 1e8d 2d3c d774 31bd 35f5 22bd 6070 00bd
000000a0: b8d6 dcbd 6fa3 8d3e 57b8 acbd 5927 8e3c
000000b0: b8de 003e f2e8 20be e3a3 e73d fa64 24bd
000000c0: 9575 d13d 3cc4 1bbe 1f71 5a3c c627 e83c
000000d0: b7b7 f73d 251e bc3d 6e7b b03a 5682 673a
000000e0: da19 6cbd eb36 17bc 58c8 87bd 66b9 733d
000000f0: 2252 8a3d 9cae 003d 2b1d 2fbd 348a d4bc
00000100: af2f 8cb9 9d37 773d 3637 2c3d 861c f13c
00000110: 9995 273e c115 9bba 7a94 b23d e7f8 2b3d
00000120: b366 3bbe e985 34bd 536d edbe f056 643e
00000130: 8f8c 003e 76cb 13bd 8ef1 a1ba 844c 67be
00000140: 2987 41bd ac5e e7bd 1fed 13be 11e5 4f3d
00000150: 4a91 0c3e 0327 a2bd ba13 be3d 25e3 c23c
00000160: 24f1 883d 9027 0e3d 51b2 233e f0f0 133d
00000170: 2349 debc 1898 523a f451 973d 9227 8bbd
00000180: d4ad 6039 a28b fabc f28d 8d3d 9c5b dc3d
00000190: d35c 7c3d f1d2 e63c cd5c 773c 652b b839
000001a0: 4f8d 40bd 3dc7 90bc ada5 b03c b3f4 bb3d
000001b0: a958 c9bd 6298 2e3d bfe3 5e3d 1a32 223d
000001c0: 03e4 903c 20f3 59bd c2ac 45be f36d fe3d
000001d0: 9c97 69be d433 1c3d 6fd7 49be 4fef bb3c
000001e0: 87fd b13b 4029 ea3d b1b6 9ebd 2d40 8fbc
000001f0: 109d edbd 073b b43d 08d4 cbbd 7b9c 053d
00000200: 997b 333e 5143 2c3d 422c 1e3e 84ae d73d
00000210: 1df9 b93d d6da 103e 802c ce3d 8719 7c3d
00000220: 8af1 9a3d 8e15 85bd 2fad 4d3d f280 523e
00000230: 62d5 87bd 3269 c4bd 6d56 89bd 1de5 e03d
00000240: 5cc3 973d 5768 95be cbe1 86bd db80 9dbd
00000250: baa1 35be a495 113e 4939 78bc 610c 18bd
00000260: 81dd be3d e66a 373d 9a81 393d 6015 15bd
00000270: 82a6 083e 4dd9 923d 08bc 4dbd d7d4 733c
00000280: 7a01 983d c653 3bbc c6db bd3c 00d0 97bd
00000290: 2605 8bbd 7ec9 903d 6fff 89bd 9ea3 1d3d
000002a0: 0da5 48bd 3e4e 863c d5b4 0dbe 2860 0c3c
000002b0: ed45 96bd 388b 2ebc b189 933c 1752 7d3d
000002c0: 68de d43d d191 60bd 1cfc 363d 4284 bcbc
000002d0: cdd3 b23b 49e2 913d 4449 e63d 63cc 80be
000002e0: 0770 84bb 7434 1cbe 46ce 39be 08a7 71bd
000002f0: 5520 a8bc 3fc8 1bbd 0de7 9dbd 8a1a 72bd
00000300: c09e 56bd b2a2 f8ba bca8 8abd c042 9abd
00000310: 0fce 21be 8dcb cabd 15e5 1cbe e3a6 63bd
00000320: 1191 9fbd 0612 31bd 3ac1 8abd a6c7 81bd
00000330: 6f9c 953d 5673 15be 5164 b9bd 128b 02be
00000340: c9aa 6cbc 2b4d bd3d 129b 85bd 894e 94bc
00000350: 5c29 b9bd 440d 033d fdf5 7a3e c402 6bbd
00000360: 4445 bbbc d11f 0abd a9fc 28bd 6d6c 21bc
00000370: 28da 96bd ecb5 17bd 34fd 5dba 0c73 38bd
00000380: 0092 9ebd 1d55 d33d c833 64bc b115 33bd
00000390: 3ac2 a63c ed3d 953d cca1 e6bd 1427 75bb
000003a0: 2e0d f2bd 3ae8 ab3d edde 913d 61a3 e1bd
000003b0: d272 db3d 5f8a 823d 316b 073e 3181 853d
000003c0: dd23 e43b 3ca9 04bd 986c 113e 0bae dcbd
000003d0: 59f0 1c3e cd58 8c3d b163 943c cc5c 40be
000003e0: 64d2 353d 0794 aabe 5967 a23e f903 d23d
000003f0: 1d1c c1bd 8c94 98bd 825e 3fbe 1fdf aabd
-0.085509956 -0.01144807 0.100343004 0.050326094 -0.009878467 -0.06985089 0.07933157 0.04718907
0.21689881 0.08938097 -0.0990274 0.02414082 0.031969443 0.008550038 0.0815312 -0.031076346
0.11543384 0.0336115 0.10265407 -0.018338237 -0.059021432 0.050713237 0.023356598 -0.03209316
0.008080134 -0.13123481 -0.03309515 0.053679515 -0.015102016 0.011145648 0.07155447 0.014354306
0.1262388 -0.024516972 -0.012546592 0.019998133 0.010592727 -0.043324318 -0.03978463 -0.03135717
-0.10783142 0.27663752 -0.084335975 0.017352747 0.1258496 -0.15713862 0.11310556 -0.04013536
0.10227505 -0.15211576 0.013332634 0.028339278 0.12095588 0.09185437 0.0013464519 0.0008831372
-0.05764184 -0.009229402 -0.066300094 0.05950298 0.06753947 0.03141652 -0.042752426 -0.025944807
-0.00026738408 0.06035577 0.04204484 0.029432546 0.1636566 -0.0011832045 0.08719726 0.04198542
-0.18300895 -0.04407302 -0.4637247 0.22298789 0.12553619 -0.036082707 -0.0012355314 -0.22587782
-0.04724804 -0.11297354 -0.14445923 0.050755564 0.13727298 -0.07917597 0.09281106 0.023789952
0.06686619 0.0347057 0.15985991 0.036118448 -0.027134484 0.0008033528 0.07388678 -0.06794657
0.0002142706 -0.03058416 0.069118395 0.107596606 0.06161196 0.028176757 0.015097809 0.00035127546
-0.047009762 -0.01767313 0.021563375 0.09177532 -0.09831364 0.042625792 0.054416414 0.03959856
0.01768685 -0.053210378 -0.19304183 0.12423315 -0.2281174 0.038135365 -0.19711088 0.02294126
0.005431834 0.11433649 -0.07749689 -0.017486656 -0.11602223 0.08800321 -0.09952551 0.032619935
0.17527618 0.042056385 0.1544657 0.10531333 0.09080718 0.1414598 0.100670815 0.061547782
0.07565601 -0.06498252 0.05021399 0.20557001 -0.066324964 -0.09590377 -0.067059375 0.109812
0.07410309 -0.29181167 -0.06586035 -0.07690593 -0.17737475 0.1421724 -0.015150377 -0.03712118
0.09319592 0.04477968 0.045289613 -0.036397338 0.13344768 0.07170353 -0.05022815 0.014882288
0.07422157 -0.011433547 0.023176085 -0.0741272 -0.06788091 0.070696816 -0.06738173 0.038486116
-0.04898553 0.01639473 -0.13838513 0.008567847 -0.07337556 -0.0106533095 0.018009992 0.061845865
0.10393983 -0.05482656 0.044674024 -0.023012284 0.0054573775 0.071232386 0.11244443 -0.25155935
-0.004041675 -0.15254384 -0.18145093 -0.058997184 -0.02052323 -0.038032766 -0.07710085 -0.05910734
-0.05239749 -0.0018969385 -0.06770465 -0.07532263 -0.15801261 -0.099021055 -0.15321763 -0.055579077
-0.07791341 -0.04323008 -0.06775136 -0.06336908 0.07305228 -0.14594778 -0.09052337 -0.12748364
-0.014445015 0.09243234 -0.06523718 -0.018103855 -0.09041092 0.031995073 0.245079 -0.057375684
-0.022860177 -0.03372175 -0.04125658 -0.009852511 -0.07365829 -0.03703873 -0.0008468211 -0.045031592
-0.07742691 0.103189684 -0.013928361 -0.04372186 0.020356286 0.07287202 -0.11261329 -0.0037407326
-0.1181892 0.08393903 0.07122598 -0.1101749 0.107152596 0.063740484 0.13224484 0.06518782
0.006962283 -0.032387957 0.14201581 -0.107753836 0.1532606 0.06852875 0.018113943 -0.18785399
0.044390097 -0.3331606 0.31719473 0.10254664 -0.0942919 -0.07450208 -0.18688396 -0.08343338

final_layer.conv_classifier.bias f4 [4]
00000000: 5e05 5cbc 2a93 2cbd be87 393d ba7b 0f3c
-0.013429014 -0.042132534 0.04529547 0.008757526
