result_eegnetsca_cv5/fold_3/best_model_fold3.pth (torch, 23812 bytes, 20 tensors)

conv_time.weight f4 [8, 1, 1, 64]
0	0xbdbf6d7d	-0.09347055
1	0x3dbec78c	0.09315404
2	0x3ced32c9	0.02895488
3	0x3da6d560	0.08146167
4	0xbdfa8809	-0.12232978
5	0x38748a44	5.8302903e-05
6	0x3d8885f6	0.06666176
7	0xbdb26527	-0.087106995
8	0x3de642ed	0.11243234
9	0xbca36486	-0.019945394
10	0xbd2aa4be	-0.041661017
11	0xbd239207	-0.039934184
12	0x3c072942	0.008249583
13	0xbd8deeab	-0.06930288
14	0x3d28ff58	0.04125914
15	0xbd1c92ea	-0.038226046
16	0xbb2994c6	-0.002587603
17	0xba06c23f	-0.0005140639
18	0x3b14e41f	0.0022718979
19	0x3dd0c61c	0.10194036
20	0xbdad144c	-0.08451137
21	0xbdcf6eab	-0.1012853
22	0xbd20745d	-0.039173473
23	0x3d9a8394	0.07544628
24	0xbcaa976f	-0.020824162
25	0x3c4a5f9b	0.012351896
26	0xbd9528a0	-0.07283139
27	0xbda59b7b	-0.08086296
28	0xbdc111ac	-0.09427199
29	0x3c10026d	0.008789641
30	0xbdcf62f7	-0.10126298
31	0xbd5ca450	-0.053867638
32	0xbb7d5752	-0.0038656783
33	0xbc615447	-0.013753003
34	0xbdf535f7	-0.119731836
35	0xbe3301d6	-0.17481169
36	0x3b3b786f	0.002860572
37	0xbdf205da	-0.11817522
38	0xbe325795	-0.17416222
39	0xbdb61701	-0.088911064
40	0xbded060a	-0.115734175
41	0xbe43e8ab	-0.19131725
42	0xbbcf0c30	-0.0063185915
43	0xbe07ac40	-0.13249302
44	0xbe129c9c	-0.14317554
45	0xbe08a8ac	-0.13345593
46	0xbd89fe38	-0.067379415
47	0xbd8bd301	-0.06827355
48	0xbe36a8d7	-0.17837845
49	0xbd31f1cb	-0.043443482
50	0xbdca6703	-0.09882929
51	0xbd83da95	-0.064381756
52	0x3cf51a1c	0.029919676
53	0x3d41902f	0.047256645
54	0xbdad898d	-0.08473501
55	0x3ddce06c	0.107849926
56	0xbd0c00c2	-0.03418041
57	0x3c09675c	0.008386459
58	0x3c673e6a	0.014114002
59	0x3d96d0bf	0.07364034
60	0x3d948567	0.07252007
61	0x3d591c5b	0.053005558
62	0xbd5559e9	-0.052087698
63	0xbd929e54	-0.07159105
64	0x3c323fe5	0.010879491
65	0xbd95abc5	-0.07308153
66	0xbdb35e4e	-0.087582216
67	0x3dc61fc5	0.09674028
68	0xbc018127	-0.0079043275
69	0x3d7eb58b	0.06218485
70	0xbd826a25	-0.06367902
71	0x3db2653c	0.08710715
72	0xbda7d681	-0.0819521
73	0x3c9d618f	0.019211559
74	0x3cba962d	0.022776688
75	0x3dab3dfb	0.08361431
76	0xbc02526d	-0.007954222
77	0x3cd9ef53	0.026603376
78	0xbd5b589d	-0.053551305
79	0x3a0579e6	0.00050917116
80	0xbda26686	-0.07929711
81	0x3d64d49e	0.05586683
82	0xbca3a2f8	-0.01997517
83	0x3d29cba0	0.041453958
84	0xbdbfbe11	-0.09362424
85	0xbc707ddc	-0.014678445
86	0xbd6da9bb	-0.058023196
87	0xbe15d577	-0.14632212
88	0xbe0d943c	-0.13826078
89	0xbdfe860d	-0.12427912
90	0xbe118045	-0.14209087
91	0xbd92ae50	-0.07162154
92	0x3b8e125f	0.004335686
93	0xbe330ba6	-0.17484912
94	0xbe07a86a	-0.13247839
95	0xbd3a1065	-0.04542579
96	0xbe279cad	-0.16368361
97	0xbe02965b	-0.12752669
98	0xbe30bd6e	-0.17259762
99	0x3c2518de	0.01007673
100	0xbe112529	-0.14174332
101	0xbd57ab6c	-0.052653715
102	0xbdbf8700	-0.09351921
103	0xbcf2e240	-0.0296489
104	0xbd9a63da	-0.075385764
105	0xbdc559bd	-0.09636257
106	0x3d1d1e7b	0.038359147
107	0xbcbf0572	-0.023318026
108	0xbd34cf71	-0.044143144
109	0xbd340402	-0.043949135
110	0xbd8baec8	-0.06820446
111	0xbe04518c	-0.12921733
112	0x3d633781	0.055472855
113	0xbdb9f37d	-0.09079645
114	0x3d53def4	0.051726297
115	0xba51fff2	-0.0008010856
116	0xbdc50f46	-0.09622054
117	0x3cf910ff	0.030403612
118	0x3c03c436	0.008042386
119	0x3ddac549	0.106821604
120	0x3d350245	0.044191618
121	0x3cb327d4	0.021869577
122	0xbdd66ce6	-0.104699895
123	0x3d6ce8e4	0.05783929
124	0x3b217911	0.0024638812
125	0x3d73d672	0.059530683
126	0xbe2d2bec	-0.16911286
127	0xbd82f55a	-0.06394453
128	0xbd846028	-0.06463653
129	0xbd7387c9	-0.059455667
130	0x3dc36764	0.095412046
131	0x3d338fe8	0.04383841
132	0xbdf83677	-0.12119763
133	0x3dbcd21e	0.09219764
134	0x3da3ea13	0.080036305
135	0xbc13e48b	-0.009026657
136	0x3e1968db	0.14981405
137	0x3d8863f4	0.066596895
138	0x3cfa2501	0.030535223
139	0x3d45a5ea	0.04825393
140	0x3e04cdab	0.12969081
141	0x3d250658	0.040289253
142	0x3cb6e0a9	0.022323923
143	0xbc19e1dc	-0.009392228
144	0xbd9534b9	-0.07285447
145	0xbd9d22c0	-0.07672644
146	0xbd2a80a0	-0.041626573
147	0xbd06498c	-0.032784984
148	0xbdb199a5	-0.086718835
149	0xbde1c42f	-0.11023747
150	0x3d8491ad	0.06473098
151	0xbdd9e4a7	-0.10639315
152	0x3cd23e7f	0.025664566
153	0x3dc2d93c	0.095140904
154	0x3db709a5	0.089373864
155	0x3d467729	0.048453484
156	0x3cb5defb	0.022201052
157	0x3e2748b9	0.16336335
158	0x3e4d2f4a	0.2003757
159	0x3e0497c0	0.12948513
160	0x3cef18bc	0.029186599
161	0x3d03f9ef	0.032220777
162	0x3dd7c847	0.10536247
163	0x3da9860c	0.082775205
164	0x3dfe9247	0.12430244
165	0x3ced8910	0.02899602
166	0x3d90c33b	0.07068487
167	0x3c979333	0.018502807
168	0x3e0bc130	0.13647914
169	0xbdb30f2f	-0.087431304
170	0xbc61ca4c	-0.0137811415
171	0x3d82905b	0.0637519
172	0x3daf92bc	0.08572909
173	0x3e0177c5	0.12643345
174	0xbdadfe0f	-0.084957235
175	0x3dd6ac32	0.104820624
176	0x3d8ab476	0.067727014
177	0x3df7b12a	0.12094338
178	0xbc8dda24	-0.017315932
179	0x3de30738	0.11085361
180	0x3c946e75	0.018119076
181	0xbcb898d0	-0.022533804
182	0x3e2c4403	0.1682282
183	0xbc442c68	-0.011973478
184	0x3d7ccea5	0.06172051
185	0x3de1d267	0.11026459
186	0x3da28577	0.07935613
187	0xbd936ac3	-0.071980976
188	0x3def7434	0.11692086
189	0x3d578561	0.052617434
190	0x3ccde0f5	0.025131682
191	0x3d689562	0.056783088
192	0xbe0d1a48	-0.13779557
193	0xbd599914	-0.053124502
194	0x3dc76a3a	0.09737058
195	0xbb36b4ba	-0.0027878718
196	0xbdd4ccaf	-0.10390603
197	0x3d8bd6a5	0.068280496
198	0xbe0d8999	-0.1382202
199	0x3ad6a247	0.0016375267
200	0xbe1bb0f0	-0.15204215
201	0xbd20618e	-0.039155535
202	0xbbe1ba47	-0.006888661
203	0x3da26544	0.07929471
204	0x3b7a60aa	0.003820459
205	0xbd2ec7e8	-0.042671114
206	0x3defe2ac	0.11713156
207	0x3dd04b71	0.10170639
208	0xbd2e8bcc	-0.04261379
209	0x3d82e33b	0.06390997
210	0xbd92cb18	-0.07167643
211	0x3d7f9c52	0.062404938
212	0x3b0a8642	0.0021137153
213	0xbd20870a	-0.039191283
214	0xbe1a9154	-0.15094501
215	0xbd955457	-0.07291477
216	0xbdd07757	-0.10179012
217	0x3dfde930	0.123979926
218	0xbd3ac3e9	-0.04559699
219	0xbc0af7b2	-0.008481907
220	0x3d1ce802	0.038307197
221	0x3c565031	0.013080643
222	0xbe0eb822	-0.13937429
223	0xbde320a1	-0.11090208
224	0xbd8444b3	-0.06458416
225	0xbcd0eb23	-0.025502747
226	0xbe05daca	-0.13071743
227	0xbd34d1bd	-0.044145335
228	0xbd88f85a	-0.06687994
229	0x3dc42307	0.095769934
230	0x3d6ed769	0.0583109
231	0xbb8e823d	-0.0043490217
232	0xbd9d5ff5	-0.07684318
233	0x3d6a9ec1	0.057280306
234	0x3d930bd1	0.07179988
235	0x3cec2956	0.028828304
236	0xbd610cba	-0.054943778
237	0xbe040e8f	-0.12896179
238	0xbe10ffba	-0.14160052
239	0xbdd57661	-0.104229696
240	0xbe4e3ee6	-0.20141181
241	0xbe1b1f48	-0.15148652
242	0xbd4760ce	-0.048676305
243	0xbd727e34	-0.059202388
244	0x3d777359	0.06041274
245	0x3bb8f03d	0.005643873
246	0xbc9a4577	-0.018831952
247	0x3c4758ea	0.012167195
248	0x3d8a2fc9	0.067473955
249	0xbda09353	-0.078406
250	0x3d6cc2cc	0.05780296
251	0x3d947ff4	0.072509676
252	0x3d293b60	0.04131639
253	0x3b021fb3	0.001985532
254	0xbe37f4d2	-0.17964485
255	0xbd061372	-0.03273339

bn1.weight f4 [8]
0	0x3f2da94f	0.6783647
1	0x3f0f7cd7	0.56049865
2	0x3f989408	1.1920176
3	0x3f6d6f64	0.92748094
4	0x3efd9ceb	0.4953378
5	0x3f68986a	0.90857565
6	0x3f783c75	0.9696725
7	0x3fa9d040	1.3266678

bn1.bias f4 [8]
0	0xbe129224	-0.1431356
1	0xbe0ffdd6	-0.14061674
2	0xbe0f1afc	-0.13975137
3	0xbe03630f	-0.12830757
4	0xbe109934	-0.14120942
5	0xbe1a39b0	-0.15061069
6	0xbe201958	-0.15634668
7	0xbe0f62e6	-0.1400257

bn1.running_mean f4 [8]
0	0x39d038dd	0.00039715218
1	0x39d37457	0.00040331736
2	0xba38e254	-0.00070527685
3	0x39e847d8	0.00044304016
4	0x397e051e	0.00024225234
5	0x397d2429	0.00024141431
6	0x37b33889	2.1364789e-05
7	0xba82e0a4	-0.0009985161

bn1.running_var f4 [8]
0	0x3f5846fd	0.8448332
1	0x3f40927a	0.75223505
2	0x3f6453ad	0.8919018
3	0x3f1d3362	0.6140653
4	0x3f8bafc3	1.0913013
5	0x3f1c6e36	0.6110567
6	0x3ec9475b	0.39312252
7	0x3e6d66bf	0.23183726

sca.fc1.weight f4 [5, 22]
0	0xbe7d6b3c	-0.24747938
1	0x3d56f01d	0.052475084
2	0xbe8d7bf6	-0.27633637
3	0xbea703dd	-0.32620135
4	0xbe389dd4	-0.18028957
5	0xbe2b1f68	-0.167112
6	0xbe8ffc6d	-0.28122273
7	0xbe959717	-0.29216835
8	0xbea62a1d	-0.32454005
9	0xbd158968	-0.036507994
10	0xbe7a18e8	-0.24423563
11	0xbe5596f2	-0.20858362
12	0xbe2a5070	-0.16632247
13	0xbe0eeeb7	-0.1395825
14	0xbe47a630	-0.19496989
15	0x3b54a691	0.0032447914
16	0x3d943f70	0.07238662
17	0xbe98e882	-0.2986489
18	0xbe826c7b	-0.2547339
19	0xbe57ce1c	-0.21074718
20	0x3cdab62f	0.0266982
21	0x3dca1767	0.09867745
22	0x3dde2156	0.10846202
23	0xbe4aebb1	-0.19816472
24	0x3dc757d5	0.097335495
25	0xbe897dfd	-0.26853934
26	0xbe3463ef	-0.17616247
27	0xbe0cd724	-0.13753945
28	0xbdd359a2	-0.103198305
29	0xbcfbc9db	-0.0307359
30	0xbe85f473	-0.26163062
31	0xbe17833a	-0.14796153
32	0xbd116f10	-0.035506308
33	0x3d051d91	0.0324989
34	0xbe4b055c	-0.19826263
35	0xbcf95702	-0.030436996
36	0xbe83f502	-0.25772864
37	0xbe7431c1	-0.23847105
38	0x3b94585a	0.004527134
39	0xbe30c606	-0.1726304
40	0xbe009ff5	-0.12561019
41	0xbd97311e	-0.07382415
42	0x3d1000d7	0.03515705
43	0x3cc6bc62	0.02425975
44	0xbcab5edb	-0.020919254
45	0xbcf03cef	-0.02932593
46	0xbce3a620	-0.027789176
47	0xbd876bd2	-0.06612362
48	0x3d53816e	0.051637106
49	0x3b08e9e2	0.0020891358
50	0x3d8df161	0.06930805
51	0x389d6e39	7.506874e-05
52	0x3e058f5f	0.13042973
53	0xbd32f88f	-0.043694075
54	0x3e119daa	0.142203
55	0x3da60617	0.0810663
56	0x3e15c4d3	0.14625864
57	0xbd986d8c	-0.074427694
58	0x3e26e945	0.16299923
59	0xbdd89f07	-0.10577207
60	0xbe19b15b	-0.15009062
61	0x3e21eb51	0.15812422
62	0xbe253c44	-0.16136271
63	0x3e2e1d71	0.17003419
64	0xbe2b0872	-0.1670244
65	0xbc4f4fa6	-0.012653267
66	0xbe8c0d3b	-0.27353844
67	0xbe9efc0c	-0.31051672
68	0xbe9dbb16	-0.30806798
69	0xbe47b2e8	-0.19501841
70	0x3c65886b	0.014009575
71	0xbd9c6a87	-0.07637506
72	0xbd95a15e	-0.07306169
73	0xbe2b8329	-0.16749252
74	0xbe1ba4ef	-0.15199636
75	0xbe855c9f	-0.26047227
76	0xbcb5aafb	-0.022176256
77	0xbe533d24	-0.20628792
78	0xbd562c03	-0.052288067
79	0xbe7026b3	-0.23452263
80	0xbe8f447f	-0.27981946
81	0xbde8cfcc	-0.11367759
82	0xbe460bd2	-0.19340447
83	0x3d2ad6cb	0.04170875
84	0xbeb2b7b6	-0.34905785
85	0xbebe79d1	-0.37202314
86	0x3c030e1f	0.007998972
87	0xbdcf657d	-0.10126779
88	0xbcfae69f	-0.030627547
89	0xbd75830a	-0.05993942
90	0x3e4fa84e	0.20279047
91	0x3e25dd74	0.16197759
92	0xbb96c12d	-0.004600665
93	0xbde75fad	-0.112975456
94	0xbe0e5688	-0.13900197
95	0x3e0c4331	0.13697506
96	0x3dc458d7	0.09587257
97	0x3d9bcdb2	0.07607593
98	0xbd5d6c45	-0.054058332
99	0xbe082d31	-0.13298489
100	0xbd4997a7	-0.049216893
101	0x3e1c957a	0.15291396
102	0x3d1f42f5	0.038882215
103	0xbdf50850	-0.11964476
104	0x3b2df385	0.0026542854
105	0x3e07bdd8	0.13256013
106	0xbdbbcc4a	-0.091698244
107	0x3e23df06	0.16003045
108	0x3deabafc	0.11461446
109	0xbe2aff18	-0.16698873

sca.fc2.weight f4 [22, 5]
0	0x3e112aec	0.1417653
1	0xbef90d12	-0.48642784
2	0x3e9c3a94	0.30513442
3	0xbed0b21f	-0.40760896
4	0x3b904bef	0.0044035832
5	0x3e1fa256	0.1558927
6	0x3e3b357f	0.18282126
7	0x3eadf6f5	0.33977476
8	0xbeb3f6e8	-0.35149312
9	0xbeb26eb8	-0.34850097
10	0x3e788a08	0.24271405
11	0x3d5848c8	0.052803785
12	0x3ecc3e10	0.398911
13	0x3c10f49a	0.00884738
14	0x3dbbde1c	0.091732234
15	0xbe829c26	-0.25509757
16	0x3ded9d77	0.116023
17	0x3e9a78f2	0.301704
18	0xbeed7e81	-0.46385577
19	0x3de336d4	0.11094442
20	0xbe8ecda9	-0.2789128
21	0x3e6a8ca8	0.22905219
22	0x3eb7e8c2	0.35919768
23	0xbeb2c3ff	-0.34915158
24	0x3ea21f80	0.31664658
25	0x3e9375b0	0.28800726
26	0xbe2680eb	-0.16260116
27	0x3e16088a	0.14651695
28	0x3e974256	0.29542798
29	0x3e245e6c	0.16051644
30	0xbeea7d70	-0.45798826
31	0xbe49aef3	-0.19695644
32	0xbec34334	-0.3813721
33	0xbee7a756	-0.45244855
34	0x3dd7d48d	0.10538588
35	0xbd075406	-0.033039115
36	0x3e1c90ac	0.15289563
37	0x3ecdfaba	0.40230352
38	0x3d3c1b21	0.04592431
39	0xbd2b6673	-0.04184575
40	0xbddc163e	-0.1074643
41	0x3dd8ddc9	0.10589177
42	0xbebbe83f	-0.36700627
43	0xbd643c84	-0.055721775
44	0xbe49c20b	-0.19702928
45	0xbe4a5af8	-0.19761264
46	0x3edbff35	0.42968145
47	0x3e8cfed6	0.27538174
48	0x3eabcaa3	0.33553037
49	0x3cc7850a	0.02435543
50	0xbe2b52f2	-0.1673086
51	0xbee9895a	-0.45612603
52	0xbe93d385	-0.28872314
53	0xbd536dc2	-0.051618345
54	0xbeaecc5b	-0.34140286
55	0xbec69480	-0.38785172
56	0xbec01478	-0.37515616
57	0xbe7e7cae	-0.24852249
58	0xbedf451e	-0.4360742
59	0x3ed922fe	0.4240951
60	0xbeb6be4b	-0.35692057
61	0x3ce2fb61	0.027707757
62	0x3e76c66f	0.24099134
63	0xbea31e6a	-0.31859142
64	0xbe80e45a	-0.25174218
65	0x3da05ecc	0.07830581
66	0x3f07db7e	0.53069293
67	0x3db4dcfe	0.088312134
68	0x3ed75f96	0.42065114
69	0xbd630f47	-0.05543449
70	0x3e4fc87f	0.20291327
71	0x3ea58663	0.3232909
72	0x3d7ab890	0.06121117
73	0xbee381b5	-0.44434896
74	0x3ce7a523	0.028276986
75	0xbd0a1588	-0.03371194
76	0xbe9de0de	-0.30835623
77	0x3c38d762	0.01128182
78	0xbe968cda	-0.29404336
79	0x3ddb53e2	0.10709359
80	0x3e998338	0.29982924
81	0x3d3d2526	0.046178006
82	0xbe716718	-0.23574483
83	0x3ee38b7f	0.44442365
84	0x3ec4f119	0.38465193
85	0xbee348c6	-0.4439146
86	0x3e6c3fe8	0.23071253
87	0x3cbbff2e	0.022948828
88	0x3e4e49d8	0.20145357
89	0x3ec7b627	0.3900616
90	0x3e88b8be	0.26703447
91	0x3c56700f	0.01308824
92	0x3eceb3f2	0.40371662
93	0x3e1ff392	0.15620258
94	0xbe8ec4dd	-0.2788457
95	0xbecf7e13	-0.40525874
96	0x3e64851f	0.22316407
97	0xbdef3e51	-0.11681808
98	0xbe9bb0f6	-0.30408448
99	0xbd911c2b	-0.07085451
100	0x3ecf27da	0.40460092
101	0x3c0ad95e	0.008474676
102	0xbe5e3d7c	-0.21703142
103	0x3e22b2aa	0.15888467
104	0x3e849819	0.2589729
105	0x3e731e9e	0.23742148
106	0x3f2b8548	0.67000246
107	0x3e9aa6e8	0.30205464
108	0xbce46415	-0.027879754
109	0xbe36de87	-0.17858325

conv_depth.weight f4 [16, 1, 22, 1]
0	0x3d6d6075	0.057953317
1	0xbdf974db	-0.121804915
2	0xbe25aae8	-0.16178477
3	0x3d0c4ec6	0.03425481
4	0xbd9e0a6c	-0.077168316
5	0x3e0658fd	0.13119884
6	0xbdfeebd2	-0.12447323
7	0x3cd50a8e	0.02600601
8	0x3e782826	0.24234065
9	0x3e218f34	0.15777284
10	0x3e46fc71	0.19432236
11	0xbde37920	-0.11107087
12	0xbe4f470e	-0.20241949
13	0xbdf2333c	-0.118261784
14	0xbe1f880b	-0.1557924
15	0x3d6ee523	0.05832399
16	0x3d5e8156	0.054322563
17	0x3d1125cb	0.035436433
18	0xbdf3517c	-0.11880776
19	0x3cbf01b0	0.023316234
20	0xbd92f3a7	-0.07175379
21	0x3e3af877	0.18258844
22	0xbd194d47	-0.037427213
23	0x3ce8369b	0.02834635
24	0xbd1757a6	-0.036948822
25	0xbd8e17cf	-0.06938135
26	0xbc89f916	-0.016842406
27	0x3d0ff42f	0.03514498
28	0xbd53b544	-0.05168654
29	0xbdec8d14	-0.11550346
30	0xba997f41	-0.0011710898
31	0x3dccf0ef	0.10006892
32	0x3d577be7	0.052608397
33	0x3e2c9986	0.1685544
34	0x3e2178df	0.15768765
35	0x3da9a61c	0.08283636
36	0x3d30e801	0.043190006
37	0xbe2bff97	-0.16796719
38	0xbe1c2b28	-0.15250838
39	0xbdf89b95	-0.1213905
40	0x3ea81fb6	0.32836694
41	0xbcda829b	-0.026673606
42	0xbe261248	-0.16217911
43	0xbd3e5009	-0.046463046
44	0x3dd77f4c	0.10522327
45	0xbc3eb9b9	-0.011640959
46	0xbe87b38b	-0.26504168
47	0xbe650d2d	-0.22368307
48	0x3d42375d	0.04741608
49	0xbe26a189	-0.16272558
50	0x3cf22b40	0.029561639
51	0x3e097018	0.13421667
52	0x3d7bb1e3	0.061448943
53	0xbda630b2	-0.08114757
54	0x3c907b5d	0.01763695
55	0x3e18ad46	0.14909849
56	0x3e6e2b3b	0.23258679
57	0xbdec0c64	-0.11525801
58	0x3e0c6b8c	0.13712901
59	0x3e2b46b3	0.16726188
60	0xbd90d064	-0.07070997
61	0x3dcaddce	0.09905587
62	0x3d313252	0.04326088
63	0xbddf206c	-0.10894856
64	0x3dd2ae89	0.10287196
65	0x3e161d60	0.14659643
66	0xbdbc7efb	-0.09203907
67	0x3d85345c	0.065041274
68	0xbe0bd1c0	-0.13654232
69	0x3c6fd728	0.0146387
70	0x3de1d6ea	0.1102732
71	0x3de39e78	0.1111421
72	0x3d7fff94	0.062499598
73	0x3d1084ea	0.035283007
74	0x3db35761	0.087569006
75	0xbd928702	-0.07154657
76	0xbe1a20b5	-0.15051539
77	0xbd89417d	-0.06701944
78	0x3d536736	0.0516121
79	0xbc81f65a	-0.01586454
80	0xbd1e1825	-0.038597245
81	0x3e3eb5c2	0.18624023
82	0xbce9beb9	-0.028533326
83	0xbd75f3b6	-0.060046874
84	0x3c22e413	0.009942072
85	0xbd3dbfd8	-0.046325535
86	0xbe92445c	-0.2856778
87	0x3ebd5839	0.3698137
88	0x3e296319	0.16541709
89	0x3dd7ade9	0.105312176
90	0x3e3f130e	0.18659613
91	0xbe00ecb9	-0.12590303
92	0x3d98d729	0.074629135
93	0xbdb1bd2a	-0.08678658
94	0xbc9e821a	-0.019349147
95	0x3daab921	0.08336092
96	0x3c9ff5c9	0.01952638
97	0x3e724b38	0.23661506
98	0xbda831e5	-0.082126416
99	0xbdf14b02	-0.11781885
100	0x3de04b36	0.10951845
101	0xbcae2852	-0.02125946
102	0xbe4c1707	-0.19930659
103	0xbb24e082	-0.002515823
104	0x3e481059	0.19537486
105	0x3d83fb09	0.064443655
106	0xbd142e99	-0.03617725
107	0xbe4c9b80	-0.19981194
108	0x3d8cd98e	0.06877433
109	0xbe156aa3	-0.1459146
110	0x3ca134aa	0.019678432
111	0xbe24e336	-0.16102299
112	0x3c877f85	0.016540298
113	0x3baef20d	0.0053389133
114	0xbe0c5344	-0.13703638
115	0x3bc576da	0.006026131
116	0x3de2c2d9	0.110723205
117	0xbdb13d93	-0.086543225
118	0xbe878a7f	-0.26472852
119	0x3cdc160f	0.026865987
120	0x3e46fdb0	0.19432712
121	0xbd0002c5	-0.03125264
122	0xbe48b4e7	-0.19600259
123	0x3e256d96	0.16155085
124	0x3d15ce51	0.03657371
125	0x3ccddbe7	0.025129272
126	0x3e2e9f9e	0.17053077
127	0xbde8742a	-0.113502815
128	0xbc7fe3d3	-0.015618282
129	0x3d758960	0.059945464
130	0x3e250c34	0.16117936
131	0xbd4e42ff	-0.05035686
132	0x3e1db03a	0.15399256
133	0x3c0738c7	0.008253283
134	0xbe095c5b	-0.13414137
135	0x3df94eea	0.12173255
136	0xbc36ef8d	-0.011165512
137	0xbd437026	-0.047714375
138	0x3e1f63cb	0.15565412
139	0xbe15bb0a	-0.14622131
140	0x3d90bb69	0.07066996
141	0x3d5fa4bd	0.054600466
142	0xbe130574	-0.14357549
143	0x3e48dfa8	0.19616568
144	0xbdc2473e	-0.094862446
145	0xbe7f2d2b	-0.24919574
146	0x3df865db	0.121288024
147	0xbda6f0cf	-0.08151399
148	0x3d9c41a5	0.07629708
149	0x3a943816	0.0011308219
150	0x3d53d53a	0.05171702
151	0x3cae65c5	0.021288762
152	0xbbd67f6c	-0.0065459516
153	0x3cf676c3	0.030085927
154	0xbe17b2d2	-0.14814308
155	0xbd592cd7	-0.05302128
156	0x3da42916	0.08015649
157	0x3b586b26	0.003302285
158	0xbe25c0fb	-0.16186897
159	0x3c7a0e87	0.015262253
160	0xbe3d9424	-0.18513542
161	0x3de23f6d	0.11047254
162	0x3e26be76	0.16283593
163	0x3dda8d77	0.106715135
164	0x3d11480b	0.035469096
165	0x3dcde03d	0.10052536
166	0xbe020d27	-0.1270033
167	0xbbcb56d6	-0.00620542
168	0xbe5bfe53	-0.21483736
169	0x3d4eb9ed	0.05047028
170	0x3df871a7	0.121310525
171	0xbd1567b8	-0.036475867
172	0x3da16023	0.07879665
173	0x3d3d2fee	0.046188287
174	0x3c76c2a5	0.015061055
175	0xbd89f508	-0.06736189
176	0x3db14d58	0.0865733
177	0x3e07fff6	0.13281235
178	0x3e47f9d9	0.19528903
179	0xbe3e1892	-0.1856406
180	0xbdc0f41c	-0.0942156
181	0xbe37eeed	-0.17962237
182	0x3cedde1e	0.029036578
183	0x3d675bd7	0.05648407
184	0x3e22dd0c	0.15904635
185	0x3a2eec96	0.00066728273
186	0xbdb47604	-0.08811572
187	0x3d995cac	0.07488379
188	0x3e04e6bb	0.12978642
189	0x3dfb2830	0.122635245
190	0x3e1e4a0e	0.15457937
191	0xbd9c0568	-0.07618219
192	0x3dab17f2	0.083541766
193	0xbd6da29c	-0.058016405
194	0xbce842f7	-0.028352244
195	0xbdc66162	-0.09686543
196	0xbe1499c7	-0.14511786
197	0xbd8cb595	-0.068705715
198	0xbe0cd0a0	-0.13751459
199	0xbe2f1ee0	-0.17101622
200	0x3e062188	0.13098729
201	0x3cb7135c	0.022348098
202	0xbd2147a7	-0.039374974
203	0x3e18f729	0.14938034
204	0x3d1fc77f	0.039008614
205	0xbe4ed409	-0.20198072
206	0x3d260883	0.04053546
207	0x3d6e6769	0.05820409
208	0xbdb86156	-0.0900294
209	0x3d30a59d	0.04312669
210	0xbe1e4e26	-0.15459499
211	0xbbb548ef	-0.005532376
212	0x3b83d000	0.0040225983
213	0xbcff232b	-0.0311447
214	0xbd0ac139	-0.033875678
215	0x3cf61ca3	0.030042952
216	0x3e57c2e1	0.21070434
217	0xbe21c760	-0.15798712
218	0x3decdab5	0.115651526
219	0xbe757194	-0.23969108
220	0xbdf54a1f	-0.11977028
221	0xbe0d48ff	-0.13797377
222	0x3dac6231	0.08417166
223	0x3cb30cad	0.02185663
224	0xbcf816a7	-0.030284239
225	0x3ddcdeec	0.107847065
226	0xbe52bfeb	-0.20581023
227	0x3ebd19de	0.36933798
228	0x3e0bb4ab	0.13643138
229	0xbe7cfbb9	-0.247054
230	0xbc0546d7	-0.008134565
231	0xbdebbaed	-0.11510263
232	0x3ce249d8	0.027623102
233	0xbc1ce247	-0.009575433
234	0x3e06d20a	0.13166061
235	0xbe0acc79	-0.13554563
236	0x3e1bb6d0	0.15206456
237	0xbd9825ea	-0.074291065
238	0xbdf71cd1	-0.12066043
239	0x3b208b45	0.0024497074
240	0x3d83d5e4	0.06437281
241	0xbcef45a1	-0.029208006
242	0x3da92813	0.08259597
243	0xbd3226fc	-0.04349421
244	0xbe86face	-0.26363224
245	0x3c8e36e6	0.017360162
246	0x3e6813b6	0.22663769
247	0x3caa193c	0.020763986
248	0xbe3943ea	-0.18092313
249	0x3deba602	0.11506273
250	0x3d0fc2c4	0.035097852
251	0xbe4d5b58	-0.20054376
252	0xbe049dc1	-0.12950803
253	0xbe0a51d2	-0.13507774
254	0x3a3b38b6	0.00071419345
255	0x3e7e0f8a	0.24810615

bn2.weight f4 [16]
0	0x3f8e55b1	1.1119901
1	0x3f763941	0.9618111
2	0x3f655cb5	0.89594585
3	0x3f7844ce	0.9697999
4	0x3facdca3	1.3504833
5	0x3f7f43f3	0.9971306
6	0x3f94c629	1.1622974
7	0x3f9abad1	1.2088262
8	0x3f8030ab	1.0014852
9	0x3f86500a	1.0493176
10	0x3f9eff5c	1.242168
11	0x3fa73455	1.3062845
12	0x3fa3d819	1.2800323
13	0x3fa69737	1.3014897
14	0x3f8315d5	1.0241038
15	0x3f707cff	0.9394073

bn2.bias f4 [16]
0	0xbeee0dcd	-0.46494904
1	0xbe469ec7	-0.19396506
2	0x3d12fa15	0.035883028
3	0xbdab970d	-0.0837842
4	0xbf02d4de	-0.5110606
5	0xbe63b1ff	-0.22235869
6	0xbec1fad6	-0.37886685
7	0xbf006eeb	-0.5016925
8	0xbe664937	-0.22488867
9	0xbeb010c4	-0.3438779
10	0xbeef7d19	-0.4677513
11	0xbf1bc2fa	-0.60844386
12	0xbf009cac	-0.5023906
13	0xbf087ec2	-0.5331842
14	0xbe4b8873	-0.1987627
15	0xbdbf3e3f	-0.093380444

bn2.running_mean f4 [16]
0	0xba8bb6a9	-0.0010659295
1	0x3aca8cdf	0.001545336
2	0xbcb6bdf0	-0.022307366
3	0xbc002f5f	-0.007823794
4	0xbcd0fe06	-0.025511753
5	0xbb26397b	-0.002536385
6	0x38c9345c	9.5941796e-05
7	0xbb26a991	-0.002543066
8	0xbc63eae0	-0.013910979
9	0x3cbb457d	0.022860283
10	0xba448abe	-0.0007497481
11	0xbb427347	-0.0029670761
12	0xbb3d5642	-0.0028890525
13	0x3b3d8bab	0.002892236
14	0xbb72f6b1	-0.003707331
15	0xbb50ea50	-0.0031877942

bn2.running_var f4 [16]
0	0x3b999c2c	0.0046878066
1	0x3abd425d	0.0014439333
2	0x3c3d6d5e	0.01156172
3	0x3b0f41f2	0.0021859375
4	0x3d9ee0c4	0.077577144
5	0x3cd6256f	0.026140897
6	0x3bc07b48	0.0058740713
7	0x3bc3a728	0.0059708543
8	0x3be7526b	0.0070593855
9	0x3b89cc82	0.0042052874
10	0x3bae3abb	0.00531706
11	0x3c4cebc7	0.012507386
12	0x3c88bc4a	0.016691346
13	0x3cc5faa9	0.024167376
14	0x3c33497a	0.010942811
15	0x3bedf054	0.0072613154

conv_sep.0.weight f4 [16, 1, 1, 16]
0	0x3e93dcbe	0.2887935
1	0xbd8851d5	-0.06656233
2	0xbda40367	-0.080084614
3	0xbdad4ee0	-0.0846231
4	0x3e5a771c	0.21334499
5	0xbc20fd9f	-0.009826093
6	0x3de0e72d	0.10981593
7	0xbbe5aeb3	-0.007009351
8	0xbdf8e88b	-0.12153729
9	0xbe458b96	-0.19291529
10	0x3e64972a	0.2232329
11	0x3e925862	0.28583056
12	0x3e4194e5	0.18904455
13	0x3de573d5	0.11203734
14	0x3caeefe5	0.021354625
15	0x3e399c74	0.18126088
16	0x3c926ff8	0.017875656
17	0x3e08e920	0.1337018
18	0x3cbd363f	0.023097156
19	0xbd147168	-0.036240965
20	0xbdae21e4	-0.08502558
21	0x3ad20468	0.0016023042
22	0xbe747256	-0.2387174
23	0x3d4a9658	0.049459785
24	0xbc623a5d	-0.01380786
25	0x3e802dd3	0.2503496
26	0x3e1fb9d7	0.15598236
27	0xbc0626ba	-0.008187944
28	0x3e8639c1	0.26215938
29	0x3e8b676c	0.27227342
30	0x3e33055a	0.1748251
31	0x3b9da9d6	0.004811506
32	0xbdda7c8a	-0.10668285
33	0xbda42953	-0.080156945
34	0xbdcf67a5	-0.101271905
35	0xbe4f12a9	-0.20221962
36	0xbd96ff29	-0.07372887
37	0x3b8abacf	0.004233695
38	0x3d6bace0	0.057537913
39	0x3e0f5318	0.13996542
40	0x3e932d4a	0.2874549
41	0x3cad1327	0.021127297
42	0x3e25c618	0.16188848
43	0xbdc2bd2d	-0.09508739
44	0xbd81e44b	-0.063423716
45	0x3e143041	0.14471532
46	0xbdf73c19	-0.120720096
47	0xbd866e56	-0.06564014
48	0x3dc29741	0.09501506
49	0x3dbfbe5d	0.09362481
50	0xbe0d74f5	-0.13814147
51	0xbbdedc65	-0.0068011754
52	0xbe674764	-0.22585827
53	0xbe0bdfe7	-0.1365963
54	0x3c7293de	0.014805762
55	0xbe84157a	-0.25797635
56	0xbe4a0284	-0.19727522
57	0xbe10adbd	-0.14128776
58	0xbbeee149	-0.0072900397
59	0x3e7a34c2	0.24434188
60	0x3e4810b6	0.19537625
61	0x3d20580e	0.039146475
62	0x3ab89cb7	0.0014084791
63	0x3c1d3ea0	0.0095974505
64	0xbe3ad55f	-0.18245457
65	0xbdd8e066	-0.105896756
66	0xbd81c5dd	-0.063365676
67	0xbe145aec	-0.14487809
68	0xbc42f087	-0.0118981665
69	0x3cbb0acd	0.022832299
70	0x3d411bd9	0.0471457
71	0xbe586b33	-0.21134643
72	0xbe112cdb	-0.14177267
73	0xbdb7e229	-0.089786835
74	0xbe4b8da1	-0.19878246
75	0xbd4631ef	-0.048387464
76	0x3d3b8eba	0.04579041
77	0xbe4b1827	-0.19833432
78	0xbe7bccb9	-0.24589814
79	0xbea51db1	-0.32249215
80	0x3e58489a	0.21121445
81	0x3de59c5e	0.11211465
82	0x3d9874de	0.07444166
83	0xbcdf2f6a	-0.027244288
84	0xbdcea6cf	-0.1009041
85	0xbe14828f	-0.14502929
86	0xbd2d3591	-0.042287413
87	0xbd9f8064	-0.077881604
88	0xbe8b0ffe	-0.2716064
89	0xbe84f607	-0.25968954
90	0xbe10c032	-0.14135817
91	0x3d8c940e	0.06864177
92	0x3dadf380	0.084937096
93	0xbda2e3d0	-0.07953608
94	0xbd951bc3	-0.07280686
95	0xbd2881f7	-0.04113957
96	0xbdbf7772	-0.09348954
97	0x3c61dce5	0.0137855755
98	0xbe461f15	-0.19347794
99	0x3e1018e9	0.14072002
100	0xbe70d120	-0.23517275
101	0xbdfdbc9a	-0.123894885
102	0xbe21f329	-0.15815414
103	0x3d1bd93a	0.03804896
104	0xbd205beb	-0.03915016
105	0xbd4e230c	-0.050326392
106	0x3c08fd19	0.008361124
107	0xbe886203	-0.26637277
108	0xbe44040f	-0.19142173
109	0x3e4558b6	0.19272122
110	0x3de8f4c7	0.113748126
111	0x3e15d119	0.14630546
112	0x3de10aed	0.10988412
113	0x3e8fdb21	0.2809687
114	0x3e8158d5	0.25263086
115	0x3e0277af	0.12740968
116	0x3d9f972a	0.07792504
117	0xbe0c9af6	-0.13730988
118	0x3daf281b	0.085525714
119	0x3dc58db8	0.09646171
120	0x3df81803	0.12113955
121	0x3c6aca27	0.014330423
122	0xbdf91398	-0.1216194
123	0x3d732b67	0.059367564
124	0x3e434ad8	0.1907152
125	0x3e2c831d	0.16846891
126	0x3d5d6ac5	0.0540569
127	0xbe3c069c	-0.18361896
128	0x3e13aeea	0.14422193
129	0x3d452ea2	0.048140176
130	0xbb768b0f	-0.0037619506
131	0xbddbd960	-0.1073482
132	0x3d4164d5	0.0472153
133	0x3c08d137	0.008350662
134	0xbe2fe64c	-0.17177695
135	0xbe47fbaf	-0.19529603
136	0xbd0850ee	-0.033280306
137	0x3ceed199	0.029152678
138	0x3e1d8d33	0.15385894
139	0x3abbd6f9	0.0014331035
140	0x3c8bb964	0.017056175
141	0x3dce1051	0.10061706
142	0x3e756ad6	0.23966536
143	0x3e37ff92	0.17968586
144	0xbd188918	-0.037240118
145	0xbd978be1	-0.07399727
146	0xbe4e2763	-0.20132212
147	0xbe257b6b	-0.16160361
148	0x3e017973	0.12643985
149	0xbe3bb6a4	-0.1833139
150	0x3d000a20	0.031259656
151	0x3d352d32	0.044232555
152	0x3d626d67	0.055280115
153	0xbeaaa9f6	-0.33332795
154	0xbe8a3b79	-0.269985
155	0xbe174ec9	-0.14776148
156	0xbe2d0dca	-0.16899791
157	0xbe5ab924	-0.21359688
158	0x3d45931a	0.04823599
159	0x3db94350	0.09046042
160	0xbb58a1f7	-0.0033055523
161	0xbe40d09c	-0.18829578
162	0xbde45fa3	-0.11151054
163	0xbd82fa8d	-0.06395445
164	0xbd95e421	-0.07318903
165	0xbda1abaa	-0.078940704
166	0xbe1172b1	-0.14203908
167	0x3dc1e50d	0.09467516
168	0xbd0bc762	-0.034125693
169	0x3da16d66	0.07882194
170	0xbe2d10fb	-0.16901009
171	0xbe8c7d1a	-0.27439195
172	0x3cd584d1	0.026064308
173	0xbe2d9ba8	-0.1695391
174	0xbd610a45	-0.054941434
175	0x3d8e83a9	0.06958706
176	0xbc89fa4a	-0.01684298
177	0xbdb33fcb	-0.08752402
178	0xbeb1e8e7	-0.34748003
179	0xbd8b9de1	-0.068172224
180	0x3d1773bb	0.036975604
181	0x3dfd16d6	0.12357871
182	0xbe4ef33c	-0.20209974
183	0xbe28fb4a	-0.16502109
184	0xbe579bab	-0.21055476
185	0xbea5f700	-0.3241501
186	0x3cd0f044	0.025505193
187	0x3e4975c5	0.19673832
188	0xbe02835e	-0.12745425
189	0xbe1178e4	-0.14206272
190	0xbea2e58b	-0.31815752
191	0xbe074279	-0.13208951
192	0xbc115066	-0.008869266
193	0xbd99de5c	-0.07513115
194	0x3d29d887	0.041466262
195	0xbe288e25	-0.16460474
196	0xbe1bcc92	-0.15214756
197	0xbe50b1dd	-0.2038035
198	0x3d988462	0.07447125
199	0x3cb1605b	0.021652391
200	0xbe5bdaf5	-0.21470244
201	0xbdc36242	-0.095402256
202	0xbe3280db	-0.17431967
203	0xbdf33244	-0.11874822
204	0x3974d80e	0.0002335014
205	0xbe42320a	-0.18964401
206	0xbdb7ec36	-0.089806005
207	0xbd6d2886	-0.057899974
208	0x3cfad244	0.03061784
209	0x3e0a08fe	0.13479993
210	0xbe0a24f1	-0.13490655
211	0x3e3ef89c	0.18649524
212	0x3e2b6948	0.1673938
213	0x3e3267e6	0.17422447
214	0x3daf84cd	0.085702516
215	0xbcb58a9c	-0.02216082
216	0x3db8f5c3	0.0903125
217	0x3e2a5812	0.16635159
218	0x3d4c0522	0.049809583
219	0xbc4d0484	-0.012513284
220	0xbd602737	-0.0547249
221	0x3e1078b4	0.14108545
222	0x3e952b18	0.2913444
223	0x3e4cc96b	0.1999871
224	0xbe0c536f	-0.13703702
225	0xbdbadeee	-0.09124552
226	0xbd890eb7	-0.0669226
227	0xbe4ebe22	-0.20189717
228	0xbe3971e5	-0.18109854
229	0xbe3036d8	-0.17208421
230	0xbd520a12	-0.051279135
231	0x3da1c8f1	0.07899655
232	0x3dd2b5ce	0.10288583
233	0x3e00528f	0.12531494
234	0xbb1557e7	-0.002278799
235	0x3dbd4d3b	0.09243246
236	0xbd3f49c9	-0.046701226
237	0x3d345521	0.044026498
238	0xbe3f1f6a	-0.18664327
239	0xbd80cdc5	-0.062892474
240	0x39d35a46	0.00040312315
241	0x3d8fc3e4	0.07019785
242	0xbd361457	-0.04445299
243	0x3d94b1bc	0.07260463
244	0x3dd4eea8	0.103970826
245	0xbe06c9a5	-0.13162859
246	0x3cc11c14	0.023572959
247	0xbcd0d50f	-0.02549222
248	0xbda958a5	-0.08268861
249	0x3e2b06cd	0.16701813
250	0x3e87e8cc	0.26544797
251	0x3de42014	0.11138931
252	0x3e8ef498	0.27920985
253	0x3e286419	0.16444434
254	0x3e472e65	0.19451292
255	0x3da9fd2c	0.08300242

conv_sep.1.weight f4 [16, 16, 1, 1]
0	0xbe19646d	-0.14979716
1	0x3e7effe0	0.24902296
2	0xbde2d00b	-0.11074837
3	0x3e2b0aa2	0.16703275
4	0x3dc8871e	0.097913966
5	0xbdb376cc	-0.08762893
6	0xbc75d0b1	-0.015003369
7	0x3e0929ba	0.13394824
8	0x3e19a960	0.15006018
9	0x3c4b1707	0.012395627
10	0x3d053790	0.03252369
11	0x3d61fc44	0.05517222
12	0xbe2c5a9d	-0.16831441
13	0x3e04be5e	0.12963244
14	0x3d96eb4c	0.07369098
15	0x3e4b7e70	0.19872451
16	0x3c8c8e2c	0.017157637
17	0x3e7e84d8	0.24855363
18	0xbd151822	-0.036399968
19	0xbe499957	-0.19687401
20	0x3d932357	0.07184475
21	0xbeca9208	-0.39564538
22	0x3e4f0878	0.20218074
23	0x3ea29711	0.3175588
24	0xbcc55662	-0.024089042
25	0xbe2c54e3	-0.16829257
26	0xbe5d449d	-0.21608205
27	0xbe0ac25b	-0.13550703
28	0x3d512ba7	0.05106702
29	0xbbd79b24	-0.0065797735
30	0x3cf7df93	0.030257976
31	0xbe31d88f	-0.17367767
32	0xbe143fce	-0.14477465
33	0xbd4ace8a	-0.049513377
34	0xbdc5fa5a	-0.096668914
35	0xbbbf50cc	-0.005838489
36	0x3d39d5c2	0.04536987
37	0xbdf7c85f	-0.12098765
38	0xbd8c9858	-0.06864995
39	0xbe461844	-0.19345194
40	0xbe4f1cfd	-0.20225902
41	0x3d4ef936	0.050530635
42	0xbdf9b578	-0.121928155
43	0x3ce50af3	0.027959323
44	0xbd7abd50	-0.0612157
45	0xbd988a76	-0.07448284
46	0xbe4aec89	-0.19816794
47	0xbe85a559	-0.26102713
48	0xbe4d13a5	-0.20027025
49	0xbe2025f5	-0.1563948
50	0x3d9ce427	0.07660704
51	0xbdd50abc	-0.10402438
52	0x3c88548a	0.016641874
53	0x3e754a4c	0.23954123
54	0xbe311211	-0.17292048
55	0xbc16e179	-0.00920903
56	0x3d91a1e8	0.07110959
57	0xbe601fce	-0.21887133
58	0x3b5a77f4	0.0033335658
59	0x3d675a86	0.056482814
60	0xbd633119	-0.055466745
61	0x3e2848c4	0.16434008
62	0x3e976650	0.29570246
63	0xbd8a0c20	-0.06740594
64	0xbe050463	-0.12989955
65	0xbe4371ec	-0.19086426
66	0xbdb22729	-0.086988755
67	0xbce5e96c	-0.028065406
68	0x3e9641c3	0.29347047
69	0xbdfec873	-0.124405764
70	0x3ddd98a2	0.10820128
71	0x3e8aa320	0.2707758
72	0x3e3f80c6	0.18701467
73	0x3e10f288	0.14155018
74	0x3cf7f044	0.030265935
75	0x3dd9d9c8	0.106372416
76	0xbe8882f6	-0.26662415
77	0xbe07334b	-0.1320316
78	0x3c11abec	0.008891087
79	0xbe9c2205	-0.30494705
80	0xbcc88a96	-0.024480145
81	0xbe42239d	-0.18958898
82	0xbe711327	-0.23542462
83	0x3e44b11e	0.1920819
84	0xbeb5c8a0	-0.35504627
85	0xbd900f66	-0.07034187
86	0xbd4e9dbc	-0.050443396
87	0x3e49c5c1	0.19704343
88	0xbd2601ce	-0.040529065
89	0x3cfece75	0.031104306
90	0xbe5ab211	-0.2135699
91	0xbdc3625b	-0.09540244
92	0xbdbd60af	-0.092469566
93	0xbd4145a5	-0.04718556
94	0x3e12e330	0.14344478
95	0xbe905ddd	-0.28196612
96	0x3cf61bfd	0.030042643
97	0xbddf7d95	-0.10912625
98	0xbdb6b107	-0.08920484
99	0xbd18e6da	-0.037329532
100	0x3df9897d	0.12184427
101	0xbdbbe6de	-0.09174894
102	0xbec6a9a6	-0.38801306
103	0xbd5eda4d	-0.054407407
104	0x3d63313c	0.055466875
105	0x3e0451e1	0.1292186
106	0xbe4d72aa	-0.20063272
107	0xbe78e381	-0.24305536
108	0x3d8f0b9e	0.06984638
109	0xbe227a5e	-0.15866992
110	0x3e05ce17	0.13066898
111	0x3dadec1a	0.084922984
112	0x3d46fe4f	0.04858237
113	0xbc10f2a3	-0.008846912
114	0x3deff296	0.117161915
115	0x3e08259f	0.13295601
116	0xbdf442fc	-0.11926839
117	0x3e096f4e	0.13421366
118	0xbdfd159a	-0.12357636
119	0xbd5da34f	-0.05411082
120	0xbc02c544	-0.007981602
121	0x3e2bb302	0.16767505
122	0x3bb1aeae	0.005422435
123	0xbd8a36f1	-0.067487605
124	0x3ce7207e	0.028213736
125	0xbdd50727	-0.10401755
126	0xbea56322	-0.32302195
127	0x3d5cb01b	0.053878885
128	0x3e3cda9a	0.18442765
129	0x3d97f1d6	0.074191734
130	0x3e96f5ab	0.29484305
131	0x3d6c65bd	0.057714213
132	0xbd7a2430	-0.061069667
133	0x3c4d018e	0.012512578
134	0x3c859436	0.016306024
135	0x3bbe45dd	0.005806668
136	0x3e1fefe6	0.15618858
137	0x3dfa8ba1	0.12233663
138	0xbc68f967	-0.014219618
139	0xbd6ff376	-0.05858179
140	0x3cc69b1c	0.024243884
141	0x3e8aa3a0	0.2707796
142	0x3e0c1ee4	0.13683659
143	0xbe32723b	-0.17426388
144	0xbd191f31	-0.037383262
145	0xbdde84d8	-0.10865182
146	0x3e4c9843	0.19979958
147	0x39291f12	0.0001612867
148	0x3d3ba577	0.045812096
149	0x3e23dbd2	0.16001824
150	0xbd4b3652	-0.04961235
151	0x3e0dce70	0.13848281
152	0xbe2ae7f5	-0.16690047
153	0xbe0f91ab	-0.14020412
154	0xbe8eca81	-0.27888873
155	0xbe7a539b	-0.24445955
156	0x3c5218e1	0.012823314
157	0x3e3e656a	0.18593374
158	0x3dd889c3	0.10573151
159	0x3d0ad0f8	0.033890694
160	0x3eb1dc4e	0.34738392
161	0x3e35c009	0.17749037
162	0xbe1af1c7	-0.15131293
163	0x3e019beb	0.12657134
164	0xbce7e294	-0.028306283
165	0x3ca74ec6	0.020423304
166	0x3e35b577	0.17745005
167	0xbe1d5470	-0.15364242
168	0xbe547def	-0.20751165
169	0x3d1b7e7f	0.037962433
170	0x3b9d347a	0.0047975155
171	0x3d19cdc7	0.03754976
172	0xbe2a2eb3	-0.16619377
173	0xbe043b7a	-0.12913314
174	0x3dc4c157	0.09607189
175	0xbd866712	-0.06562628
176	0xbcf66c13	-0.03008083
177	0xbe21bfeb	-0.15795867
178	0xbe326759	-0.17422237
179	0xbe592b97	-0.21208034
180	0x3e15ebaa	0.1464068
181	0x3e01de0b	0.12682359
182	0xbd05588d	-0.03255515
183	0xbe3f8d07	-0.18706141
184	0xbdc6fa78	-0.09715742
185	0x3d517af1	0.051142637
186	0x3d7f3480	0.062305927
187	0x3d55e5ee	0.05222123
188	0xbe8fbda4	-0.28074372
189	0x3e8c9181	0.2745476
190	0xbd779057	-0.060440388
191	0xbd7ff4ca	-0.06248931
192	0x3c1a4f98	0.009418391
193	0xbe420f75	-0.18951209
194	0xbca6fc4c	-0.020383976
195	0x3dc5697f	0.096392624
196	0xbda7aac2	-0.08186866
197	0xbe5c6d34	-0.21526033
198	0xbe996cc0	-0.29965782
199	0x3c854371	0.01626751
200	0xbe034296	-0.1281837
201	0xbda64361	-0.0811832
202	0xbe7889d6	-0.2427133
203	0x3e5434e6	0.20723304
204	0x3da6d10f	0.081453435
205	0xbd2fd08f	-0.042923506
206	0x3e3592c7	0.17731772
207	0xbe1ffec0	-0.15624523
208	0x3e03a4b5	0.128558
209	0xbe469554	-0.19392902
210	0x3ca53afe	0.020169731
211	0x3e3f118a	0.18659034
212	0x3ca8a8d4	0.020588316
213	0x3c4989c7	0.012300915
214	0x3dc4bca2	0.09606291
215	0xbded137a	-0.115759805
216	0xbd82aaa6	-0.06380205
217	0xbdb907a8	-0.090346634
218	0x3b8dea90	0.0043309405
219	0xbc53d823	-0.012929949
220	0x3cf57165	0.029961297
221	0x3d5dc2be	0.0541408
222	0xbe3c328f	-0.18378662
223	0x3c07b1e8	0.008282162
224	0x3e1c79a7	0.15280782
225	0x3e3afb76	0.18259987
226	0x3e05fc06	0.1308442
227	0x3db7c2cd	0.08972702
228	0x3d2526d8	0.040320247
229	0xbe2d38cb	-0.16916196
230	0xbcb4be6a	-0.022063453
231	0xbe4b9117	-0.19879566
232	0xbda9dc4a	-0.0829397
233	0x3d8c9a4a	0.06865366
234	0xbe689f0a	-0.22716919
235	0xbe7496d3	-0.2388566
236	0x3e80c92f	0.2515349
237	0xbe492ad9	-0.19645251
238	0x3db2bb26	0.08727102
239	0xbd4e085f	-0.050300952
240	0x3e2fa1f2	0.17151621
241	0x3e3a9075	0.18219168
242	0xbc382837	-0.011240057
243	0xbdf8a7d1	-0.121413834
244	0x3d2f8624	0.042852536
245	0xbddfb1e0	-0.10922599
246	0xbd9548a5	-0.072892465
247	0xbe7e9c1f	-0.24864243
248	0x3d0e2163	0.03469981
249	0x3e2f99ab	0.17148463
250	0x3ce6125c	0.028084926
251	0x3dd75ab4	0.10515347
252	0xbe8c6cde	-0.2742681
253	0x3e9f699a	0.31135255
254	0xbe1c132c	-0.15241688
255	0x3dd34b53	0.10317101

bn3.weight f4 [16]
0	0x3f974234	1.1817079
1	0x3f944720	1.1584206
2	0x3f995e00	1.1981812
3	0x3f9aa274	1.2080827
4	0x3f96c0e3	1.1777614
5	0x3f9597b8	1.1686926
6	0x3fa20592	1.265795
7	0x3f9e0a75	1.2346941
8	0x3f94b36f	1.1617259
9	0x3f91d747	1.1393822
10	0x3f955f03	1.166962
11	0x3f98bd4e	1.1932771
12	0x3fa4c54f	1.2872714
13	0x3f997984	1.1990209
14	0x3fa0c800	1.2561035
15	0x3f912f03	1.1342472

bn3.bias f4 [16]
0	0xbe01c668	-0.12673342
1	0xbdf79a26	-0.12089948
2	0xbdecd283	-0.115635894
3	0xbe0c762f	-0.13716958
4	0xbdd64c89	-0.10463817
5	0xbdbf0dc0	-0.093287945
6	0xbd009a11	-0.03139693
7	0xbe371683	-0.17879681
8	0xbdc56f91	-0.0964042
9	0xbd925ed3	-0.071469925
10	0xbddf7bd4	-0.1091229
11	0xbd7e9d48	-0.062161714
12	0xbe186d6a	-0.14885488
13	0xbe2ec2e4	-0.17066532
14	0xbd4b46b8	-0.04962799
15	0xbd8a5754	-0.06754938

bn3.running_mean f4 [16]
0	0x39e71aa7	0.0004407961
1	0xbde2b1c8	-0.11069065
2	0x3d12029f	0.03564703
3	0xbcd43aca	-0.025906939
4	0x3d128148	0.035767823
5	0xbe302ab7	-0.17203794
6	0xbce90d1b	-0.028448632
7	0x3a855873	0.0010173455
8	0xbdddf7d7	-0.10838287
9	0xbe20012e	-0.1562545
10	0xbc8f76ae	-0.017512646
11	0xbb6e3971	-0.0036350156
12	0xbc22a505	-0.009927039
13	0xbc63412d	-0.01387052
14	0xbc46499b	-0.01210251
15	0xbc6e7532	-0.014554309

bn3.running_var f4 [16]
0	0x3df12fdb	0.11776706
1	0x3e6d7df3	0.23192577
2	0x3da683e8	0.08130628
3	0x3e04664f	0.12929653
4	0x3e41ac16	0.18913302
5	0x3e489aa4	0.1959024
6	0x3e187749	0.14889254
7	0x3dc631d2	0.09677471
8	0x3dcd443d	0.10022781
9	0x3dcfcb2f	0.10146176
10	0x3df1d87d	0.1180887
11	0x3e1ab02e	0.1510627
12	0x3de76801	0.11299134
13	0x3d8a37db	0.06748935
14	0x3e0729c9	0.13199534
15	0x3e211116	0.15729174

classifier.weight f4 [4, 560]
0	0x3dd39a41	0.10332156
1	0xbb4713f2	-0.0030376879
2	0xbd10781a	-0.035270788
3	0x3d57d14a	0.052689828
4	0xbda6f8dc	-0.08152935
5	0xbd1292f1	-0.035784665
6	0x3d855604	0.06510547
7	0xbdc98406	-0.098396346
8	0x3d5a7d70	0.053342283
9	0x3b9ccaa7	0.0047849
10	0xbdcd4150	-0.10022223
11	0xbcf451ce	-0.029824164
12	0xbcfde8f6	-0.030994873
13	0xbe0c0d31	-0.13676907
14	0x3d3eb3f6	0.046558343
15	0x3d817512	0.063211575
16	0xbdde7ddc	-0.108638495
17	0xbbabc296	-0.0052417023
18	0x3cf5871b	0.02997165
19	0x3dbd096d	0.092303135
20	0xbddb688f	-0.10713302
21	0x3d624ca9	0.05524889
22	0x3bd74ba1	0.006570295
23	0x3d88f0a4	0.066865236
24	0xbdc394bf	-0.095498554
25	0x3bdb64c0	0.00669536
26	0xbddc3810	-0.107528806
27	0xbd6b6950	-0.05747348
28	0x3c72953b	0.014806087
29	0xbd77411d	-0.06036483
30	0x3d00d017	0.03144845
31	0xbc214d29	-0.009845057
32	0x3bbf7c2d	0.0058436603
33	0x3be4b691	0.0069797714
34	0x3d31f73a	0.043448664
35	0xbc1b5ba6	-0.0094823
36	0xbd2a76a4	-0.04161705
37	0x3d4ed528	0.05049625
38	0xbd790688	-0.060797244
39	0xbde7bec8	-0.113156855
40	0x3da6e3b4	0.081489
41	0x3e2c0c67	0.16801606
42	0xbdefed8a	-0.11715229
43	0x3dbf6f4f	0.09347402
44	0xbc94840f	-0.018129377
45	0xbda6a630	-0.081371665
46	0xbd29b59f	-0.041432973
47	0xbe0eb457	-0.13935982
48	0x3c6f7cbd	0.014617142
49	0xbd487e14	-0.048948362
50	0x3cb8c393	0.022554195
51	0xbceddc25	-0.029035637
52	0xbdba6044	-0.091003925
53	0xbd9520b9	-0.07281632
54	0xbd18339e	-0.0371586
55	0x3bd935b4	0.0066287164
56	0xbda9cc2c	-0.08290896
57	0x3cec5979	0.028851258
58	0x3d014d6e	0.031567983
59	0xbb8aa006	-0.004230502
60	0xbd3ab073	-0.04557843
61	0xbc77d5f1	-0.015126691
62	0xbe0a7bc7	-0.1352378
63	0xbdeceb41	-0.115683086
64	0x3bc26ecf	0.0059336196
65	0xbb455c14	-0.0030114697
66	0x3dab7e41	0.083736904
67	0xbdaf86aa	-0.08570607
68	0xbd2c6d86	-0.042096637
69	0x3d02831a	0.03186331
70	0x3d827fe5	0.0637205
71	0x3ba54e0f	0.0050447057
72	0xbd544346	-0.05182197
73	0xbd3c49fd	-0.045969
74	0x3dbf3fe1	0.09338356
75	0xbe33b71e	-0.17550322
76	0xbb1f742b	-0.0024330716
77	0xbdc0461e	-0.09388374
78	0x3c886101	0.016647818
79	0x3e109c6d	0.14122172
80	0x3c360457	0.011109433
81	0xbca474d9	-0.020075249
82	0x3e045894	0.12924415
83	0x3d8f793e	0.07005547
84	0xbce50be9	-0.02795978
85	0x3dee376f	0.11631667
86	0xbc36e67c	-0.01116335
87	0x3cec2bf8	0.02882956
88	0x3c3bae4d	0.011455131
89	0xbd997dbb	-0.07494684
90	0x3d733704	0.05937864
91	0x3ca2a7ae	0.019855347
92	0x3cd93586	0.02651478
93	0xbd2f1fd3	-0.04275496
94	0x3b88f9d2	0.0041801715
95	0xbc6da10c	-0.014503729
96	0xbbbf2710	-0.005833514
97	0x3c15d06a	0.009143928
98	0x3d341664	0.043966666
99	0x3bd3b3bb	0.0064606345
100	0x3c4d4340	0.012528241
101	0xbd909892	-0.070603505
102	0xbda57031	-0.080780394
103	0xbddd6fb0	-0.10812318
104	0xbd597b3b	-0.053096037
105	0xbbee6b70	-0.007275991
106	0x3bcc3b32	0.0062326426
107	0xbd06d09d	-0.032913793
108	0x3cdb2563	0.026751226
109	0xbe4654bf	-0.19368266
110	0x3e43bb96	0.19114527
111	0x3ca34f98	0.019935414
112	0x3dcc97ba	0.09989877
113	0x3dbeed73	0.093226336
114	0x3c30895c	0.0107749365
115	0x3d16b153	0.036790203
116	0xbd71cd8d	-0.05903392
117	0x3d4c34e9	0.049855147
118	0x3dbbd754	0.0917193
119	0x3e046879	0.12930478
120	0xbc30cbcb	-0.0107907755
121	0xbccf843d	-0.02533161
122	0x3d560b02	0.05225659
123	0x3d8d4720	0.06898332
124	0x3d2c6688	0.04208997
125	0xbd76f708	-0.06029418
126	0x3d188823	0.037239205
127	0x3b9619ad	0.0045806975
128	0x3d761ceb	0.060086172
129	0xbca15784	-0.019695051
130	0xbdcd3785	-0.10020355
131	0xbe1f51f5	-0.15558608
132	0xbb1c2714	-0.0023827003
133	0x3bdb666f	0.0066955606
134	0x3cb86ab7	0.022511823
135	0x3e035ae8	0.12827647
136	0x3d0f9f7f	0.035064217
137	0x3d9a50d3	0.07534947
138	0x3d350bc8	0.04420069
139	0xbd96306b	-0.07333454
140	0x3db8f853	0.09031739
141	0xbd8c3490	-0.06845963
142	0x3d0ffaec	0.035151407
143	0xbd4d89a8	-0.050180107
144	0xbd2796ce	-0.040915303
145	0xbdb74a80	-0.089497566
146	0xbd1b5667	-0.037924197
147	0xbdcc735a	-0.09982939
148	0x3d0a4bbd	0.033763636
149	0x3d00e8f0	0.031472147
150	0xbdbde8cb	-0.09272917
151	0xbd0d8cbc	-0.034558043
152	0xbe0cd56d	-0.1375329
153	0xbd9d30e1	-0.076753385
154	0xbdc50c0e	-0.0962144
155	0x3c028f77	0.007968775
156	0xbd4d2c31	-0.050090972
157	0xbd5516d8	-0.05202374
158	0x3b94af54	0.0045375023
159	0xbd8f2de7	-0.06991177
160	0xbd98d2ba	-0.07462068
161	0xba9e055b	-0.0012056039
162	0xbe0d9945	-0.13827999
163	0x3d060523	0.032719743
164	0xbbcbeb5f	-0.006223127
165	0x3b22c7e5	0.0024838385
166	0xbe028cd4	-0.12749034
167	0x3cfa77ba	0.030574668
168	0xbbf3cc60	-0.007440135
169	0xbdd39506	-0.10331158
170	0xbc919816	-0.017772716
171	0xbdbdf401	-0.09275056
172	0xbdd987e8	-0.10621625
173	0x3b637e66	0.003471279
174	0x3ce273d3	0.02764312
175	0x3bc54ace	0.0060208803
176	0xbca76507	-0.020433916
177	0x3db3af28	0.08773643
178	0x3ad41ae9	0.0016182336
179	0x3e138d52	0.14409378
180	0xbca1ac01	-0.019735338
181	0x3ce51a5e	0.027966674
182	0xbe0068b4	-0.12539941
183	0x3d1d88ea	0.03846065
184	0x3c14552b	0.009053509
185	0xbc14e4db	-0.0090877665
186	0x3d3de437	0.04636022
187	0xbd2f316e	-0.04277175
188	0xbcacf179	-0.021111237
189	0xbd4ee5ee	-0.050512247
190	0x3cc7ef68	0.02440615
191	0xbdc7cf8a	-0.09756382
192	0x3d5e37f9	0.0542526
193	0xbc54cb83	-0.012987974
194	0xbd03f0cb	-0.03221206
195	0xbb234408	-0.0024912376
196	0xbcd47623	-0.025935238
197	0x3cb52704	0.02211333
198	0xbd38b10e	-0.045090728
199	0xbcaff52a	-0.021479208
200	0x3d16e3b7	0.03683826
201	0xbd1bc8ed	-0.038033415
202	0xbd94b9cd	-0.07262001
203	0x3da3c91e	0.079973444
204	0xbd5780f5	-0.052613217
205	0xbca253b0	-0.019815296
206	0x3d2edaf5	0.042689282
207	0xbcd44c14	-0.025915183
208	0xbb87a82d	-0.004139921
209	0x3d1b80b8	0.037964553
210	0xbdb5ebd8	-0.08882874
211	0xbd5b4334	-0.053530887
212	0x3ce40b1c	0.027837329
213	0xbd6deda0	-0.058087945
214	0xbcebf07f	-0.0288012
215	0xbcec7a42	-0.02886689
216	0xbdac5aca	-0.08415754
217	0x3cb7110f	0.022347001
218	0x3d4607e1	0.048347358
219	0x3d8191aa	0.06326611
220	0xbc936f43	-0.01799739
221	0x3dc765c9	0.09736211
222	0x3b943f8e	0.004524178
223	0x3c9e9856	0.019359749
224	0xbc6e68c1	-0.014551342
225	0x3d35e8fd	0.044411648
226	0x3da75f41	0.08172465
227	0x3c913bcb	0.017728707
228	0x3d218dd2	0.03944189
229	0x3db2d6ac	0.08732352
230	0x3dbaf122	0.09128024
231	0x3d25ebdb	0.040508132
232	0xbcf761ba	-0.030197967
233	0x3d1e8acc	0.038706586
234	0x3d17e923	0.03708757
235	0xbca0fd6c	-0.019652091
236	0x3cf3e6de	0.029773172
237	0x3d3590f0	0.044327676
238	0x3a887247	0.0010410034
239	0x3d81f821	0.06346155
240	0x3d89d69d	0.06730387
241	0xbd2aa993	-0.041665625
242	0xbda904c2	-0.082528606
243	0x3e1f06f8	0.15530002
244	0x3b343fe8	0.0027503911
245	0x3d3dcc65	0.046337504
246	0xbc6210f4	-0.013797987
247	0x3d745ef8	0.05966088
248	0xbd1f5931	-0.03890342
249	0x3e87c25f	0.2651548
250	0xbe867521	-0.26261237
251	0xbc74b4f2	-0.014935719
252	0x3e02df76	0.12780556
253	0xbd552e75	-0.052046258
254	0xbd046eb4	-0.032332137
255	0xbd13d658	-0.036093086

classifier.bias f4 [4]
0	0xbcaa4b92	-0.020787988
1	0x3d15d23c	0.03657745
2	0xbc6fe8ac	-0.014642876
3	0x3ca025b3	0.019549226
