result_eeginception_cv5/fold_3/best_model_fold3.pth (torch, 92196 bytes, 60 tensors)

inception_block_1.branches.0.0.weight f4 [8, 1, 1, 64]
0	0x3ddef672	0.108868495
1	0x3dc797d5	0.097457565
2	0x3c4f3104	0.012645964
3	0x3dbefbf2	0.093253985
4	0x3da1ac47	0.078941874
5	0xbc65fc82	-0.014037253
6	0xbc6ba71a	-0.014383102
7	0x3d7ff8c6	0.06249311
8	0x3d20c90b	0.03925423
9	0x3c20b2a6	0.009808218
10	0x3d884a65	0.06654815
11	0x3caf8851	0.021427305
12	0x3cbf7328	0.02337034
13	0x3cc033a5	0.023462126
14	0xbcdaae16	-0.026694339
15	0x3df53588	0.11973101
16	0x3d082cd0	0.03324586
17	0x3d5be269	0.05368272
18	0xb8f7c28d	-0.00011814116
19	0x3e0d3ef6	0.13793549
20	0x3da8569d	0.08219645
21	0x3d811f7e	0.06304835
22	0x3c450efe	0.0120275
23	0x3e10f5b7	0.14156233
24	0x3d1cf057	0.038315143
25	0x3d1205fc	0.03565024
26	0x3da2a525	0.07941655
27	0x3d32fbd9	0.043697212
28	0x3e084fac	0.13311642
29	0xb99bb7b4	-0.00029700773
30	0x3d53f33c	0.05174564
31	0x3c9830ca	0.018577952
32	0x3d06910c	0.03285317
33	0x3cc41d3f	0.023939727
34	0xbc08b45e	-0.008343784
35	0x3d1b1597	0.037862387
36	0x3c29b215	0.0103573995
37	0x3c141ed4	0.009040553
38	0x3b153697	0.0022768134
39	0x3dfcb388	0.1233893
40	0x3cec9652	0.028880272
41	0x3e0d065c	0.13771957
42	0x3d1d52d0	0.038409054
43	0x3d1a57a6	0.037681244
44	0x3e236fe2	0.15960649
45	0x3cb79a6b	0.0224125
46	0x3db040d4	0.08606115
47	0x3d6cf519	0.05785093
48	0x3d36f783	0.04466964
49	0xbd238729	-0.03992382
50	0x3dcb241b	0.09918996
51	0xbab4a4a2	-0.0013781975
52	0x3bfb8a0a	0.0076763676
53	0xbcc87ec1	-0.024474503
54	0x3d3194b2	0.043354698
55	0x3da1d135	0.07901231
56	0xbd054d92	-0.03254468
57	0x3d725491	0.05916268
58	0x3e1d26e2	0.15346864
59	0xbca061c6	-0.019577872
60	0x3d8dfa23	0.069324754
61	0x3dbbe51f	0.09174561
62	0x3dd79b36	0.10527651
63	0x3da50dea	0.080592945
64	0x3e16a5f3	0.14711742
65	0x3dbe43a1	0.09290243
66	0x3d8faf61	0.07015873
67	0xbc8458b7	-0.016155584
68	0x3da37099	0.07980461
69	0x3d1a4777	0.03766581
70	0x3b8db8cd	0.0043250085
71	0xbe075455	-0.13215764
72	0xbd2dc5e2	-0.042425044
73	0xbb83456b	-0.004006078
74	0xbd9d63fc	-0.07685086
75	0xbda96ea8	-0.08273059
76	0x3ca9ff98	0.02075176
77	0xbd8d499e	-0.06898807
78	0x3dad2427	0.08454161
79	0xbd480dcd	-0.048841286
80	0x3dd35ef9	0.10320849
81	0x3cfee3b9	0.031114446
82	0x3df13536	0.11777727
83	0x3cd9965d	0.026560957
84	0x3c994396	0.018708985
85	0x3e01fd3f	0.12694262
86	0x3dbaa38e	0.09113227
87	0x3d4dc3c9	0.050235543
88	0x3cb0251c	0.02150207
89	0x3b948168	0.004532028
90	0x3d5fd88c	0.054649875
91	0x3d298624	0.041387692
92	0x3c98df49	0.018661158
93	0xbd7e321a	-0.0620595
94	0x3c844abb	0.016148916
95	0xbc8824b0	-0.016619056
96	0xbd2b6e5c	-0.041853294
97	0x3de37545	0.11106352
98	0x3d53f80d	0.05175023
99	0x3c4d9b1f	0.012549191
100	0xbd3783c7	-0.044803407
101	0x3db8bdd0	0.09020579
102	0x3d14c641	0.036321882
103	0xbc5f86de	-0.013642995
104	0x3cfedc73	0.031110978
105	0x3db32893	0.08747973
106	0x3ddbf8f7	0.10740846
107	0x3cf6b177	0.030113919
108	0x3d948629	0.072521515
109	0x3dbece38	0.09316677
110	0x3dac0da9	0.08401043
111	0x3d818524	0.06324223
112	0xbca716ee	-0.020396676
113	0x3baba273	0.0052378713
114	0x3d848a96	0.06471746
115	0x3cb958f2	0.02262542
116	0xbda08784	-0.078383476
117	0xbb119366	-0.00222131
118	0xbcbf1d2d	-0.023329342
119	0xbbe9d4a6	-0.0071359454
120	0x3dede424	0.1161578
121	0xbcb95bc5	-0.022626767
122	0x3c1ae202	0.0094532985
123	0x3ce7046c	0.02820035
124	0x3de50f91	0.1118461
125	0x3a38fbea	0.0007056581
126	0xbb047017	-0.0020208412
127	0x3de08d54	0.10964456
128	0x3cf5ee7b	0.030020943
129	0x3da3ab47	0.07991653
130	0x3da883d8	0.08228272
131	0xbda24c84	-0.079247504
132	0x3c237522	0.009976657
133	0x3c41a0dd	0.011818138
134	0x3d445785	0.047935028
135	0x3d91920a	0.07107933
136	0xbd8bdef7	-0.068296365
137	0x3c7348e5	0.014848922
138	0x3d99a268	0.0750168
139	0xbbfe3c25	-0.0077586346
140	0x3d0ded3f	0.034650084
141	0x3cdab241	0.026696326
142	0x3c05bc15	0.008162518
143	0x3d547a22	0.051874287
144	0x3dde6aca	0.10860212
145	0xbd358993	-0.044320654
146	0x3d1efafd	0.03881358
147	0x3db1e67d	0.0868654
148	0x3df13911	0.11778463
149	0x3cae354a	0.021265645
150	0x3c06b8fd	0.008222816
151	0x3dd0f3ec	0.102027744
152	0x395f3a46	0.00021288646
153	0x3dbec0f3	0.09314146
154	0x3d8b73a0	0.06809163
155	0xbd18649b	-0.03720532
156	0x3dd38060	0.1032722
157	0x3d8f6e1f	0.07003426
158	0xbb8e2bb0	-0.004338704
159	0x3e009691	0.12557437
160	0x3d5a8384	0.05334808
161	0x3daf98c9	0.08574063
162	0xbb96a130	-0.0045968518
163	0x3da423e7	0.0801466
164	0x3dbf1973	0.09331026
165	0x3cfaa0b5	0.03059421
166	0x3d136416	0.03598412
167	0x3c4900f0	0.01226829
168	0x3d47f3cf	0.0488165
169	0x3d225a78	0.03963706
170	0x3d259645	0.04042651
171	0x3c45aee2	0.012065621
172	0x3db7b521	0.089700945
173	0x3dc92a15	0.0982248
174	0x3d031c27	0.03200927
175	0x3c6750b2	0.01411836
176	0x3e0a9373	0.1353281
177	0x3d4d90a3	0.050186764
178	0x3d861ed6	0.0654885
179	0x3db49e30	0.08819234
180	0xbd57633e	-0.05258488
181	0x3d809fdc	0.06280491
182	0xbd376ea5	-0.044783253
183	0x3dd4dd07	0.1039372
184	0x3dbbdf13	0.091734074
185	0xbd1dfc70	-0.03857082
186	0x3db0922a	0.086216286
187	0x3d240331	0.040042106
188	0x3d3c8735	0.04602738
189	0x3defb527	0.11704474
190	0x3de85b95	0.11345593
191	0x3bd676b5	0.0065449127
192	0x3e431b56	0.19053397
193	0x3d507181	0.050889496
194	0xbcb8e753	-0.022571241
195	0x3d94ebbc	0.07271525
196	0x3c844b32	0.016149137
197	0x3cf5c877	0.030002816
198	0xbd08cd0c	-0.033398673
199	0x3d2b0fcc	0.041763112
200	0xbe25265b	-0.16127913
201	0xbc5c11db	-0.013431991
202	0x3d10422e	0.035219364
203	0xbda8d9b6	-0.0824465
204	0xbc828e87	-0.015937103
205	0x3d609d2b	0.054837387
206	0x3c9cfd1a	0.019163657
207	0x3c1c4ddc	0.0095400475
208	0x3dc4401f	0.09582543
209	0x3c2a44ce	0.010392381
210	0x3e31b357	0.17353569
211	0x3d6c0340	0.057620287
212	0x3d1b002b	0.037841957
213	0x3dd41ca0	0.10357022
214	0x3d92d092	0.07168688
215	0x3d9412a7	0.0723012
216	0x3ca1ee52	0.01976696
217	0xbd889dd6	-0.0667073
218	0x3d9b0a39	0.07570309
219	0xbce23e81	-0.027617695
220	0xbdcb671d	-0.09931777
221	0x3d702056	0.058624588
222	0x3aca6e4b	0.0015444247
223	0xbd758cff	-0.059948917
224	0x3db439ee	0.08800112
225	0x3d5b6cd7	0.053570595
226	0x3d130b1f	0.035899278
227	0x3d65e9be	0.056131117
228	0x3d1152d1	0.03547937
229	0x3dc67b82	0.09691526
230	0x3db85f33	0.09002533
231	0x3c7d9788	0.015478022
232	0x3d1505b6	0.0363824
233	0x3e061010	0.13092065
234	0x3d8ef0f1	0.0697955
235	0xbce1fad4	-0.027585424
236	0x3d9eec45	0.077599086
237	0x3daf06d9	0.08546228
238	0xbce1865a	-0.027529884
239	0x3d870a80	0.065937996
240	0xbc915ae9	-0.017743545
241	0xbd5464d7	-0.05185398
242	0x3db9590b	0.09050187
243	0xbc2f0d0f	-0.010684266
244	0x3cdb2546	0.026751172
245	0xbc578a51	-0.013155536
246	0x3cc66c3d	0.024221534
247	0xbd1e2607	-0.038610484
248	0x3da5c3c1	0.08093978
249	0x3d58b08b	0.05290274
250	0x3d1809a6	0.037118576
251	0x3d079ad1	0.03310663
252	0x3daf3e1d	0.08556769
253	0x3dc26a68	0.09492952
254	0x3d4218c9	0.04738692
255	0x3d65816d	0.056031633

inception_block_1.branches.0.0.bias f4 [8]
0	0xbcb6f3a2	-0.02233297
1	0xbc8abed7	-0.016936703
2	0x3cf6281d	0.030048424
3	0x3cd77c1e	0.0263043
4	0x3ce561ed	0.028000796
5	0x39f20636	0.00046162464
6	0x3c984bc9	0.018590825
7	0x3d686025	0.056732316

inception_block_1.branches.0.1.weight f4 [8]
0	0x3fc05c9f	1.5028266
1	0x3fbf2d25	1.4935652
2	0x3f912b00	1.1341248
3	0x3fcd4583	1.6036838
4	0x3f616199	0.8803955
5	0x3f7cc6aa	0.9874064
6	0x3f823e6c	1.01753
7	0x3f5ec81a	0.8702408

inception_block_1.branches.0.1.bias f4 [8]
0	0xbe80d178	-0.25159812
1	0xbe95db6b	-0.29268965
2	0x3d2373a7	0.039905217
3	0xbef93945	-0.48676506
4	0xbe3b9108	-0.18317044
5	0xbe95f56c	-0.29288805
6	0xbd8e578e	-0.069502935
7	0xbe0bff53	-0.13671617

inception_block_1.branches.0.1.running_mean f4 [8]
0	0x3ee194eb	0.44058928
1	0x3e7c8e32	0.24663618
2	0x3ee9d1b9	0.45667818
3	0x3eab9c93	0.33517894
4	0x3e49b5b3	0.19698219
5	0x3d31de9b	0.043425184
6	0x3da52e9f	0.08065533
7	0xbe5c37ac	-0.21505612

inception_block_1.branches.0.1.running_var f4 [8]
0	0x3e3798f9	0.17929448
1	0x3e95bed9	0.29247168
2	0x3dde19c2	0.10844757
3	0x3e8302b3	0.25587997
4	0x3e899b33	0.2687622
5	0x3ecb712c	0.3973478
6	0x3f119e1d	0.56881887
7	0x3e910bb3	0.28329238

inception_block_1.branches.0.4.weight f4 [16, 1, 22, 1]
0	0xbdbafbc9	-0.091300555
1	0xbcfc5a13	-0.03080467
2	0x3c8c803e	0.017150994
3	0xbd6b784e	-0.05748778
4	0xbdf3b112	-0.11899008
5	0xbdb26764	-0.087111264
6	0x3e1de2ea	0.15418592
7	0xbe5d5cb6	-0.21617398
8	0x3ca77888	0.020443216
9	0x3c510ce3	0.01275942
10	0xbdd8702f	-0.10568272
11	0x3e09fc85	0.13475235
12	0x3d2363d4	0.039890125
13	0xbcd64c62	-0.026159469
14	0x3d0c2e18	0.034223646
15	0x3d11a5d3	0.035558533
16	0xbd27e612	-0.040990897
17	0xbda5a43a	-0.08087964
18	0xbe04412f	-0.1291549
19	0xbd7dcc44	-0.06196238
20	0xbe17447e	-0.14772221
21	0x3d530392	0.051517077
22	0xbd5e656c	-0.054295942
23	0xbbdb4de5	-0.0066926354
24	0x3cc398e6	0.023876619
25	0xbd43a7c7	-0.047767427
26	0xbd56e421	-0.052463654
27	0x3bd2a96a	0.006428887
28	0x3e6f44b7	0.23366056
29	0xbe2ce220	-0.16883135
30	0x3c3bc284	0.01145995
31	0xbdc4f122	-0.09616305
32	0x3d07c65e	0.033148162
33	0xbd137862	-0.036003478
34	0x3e1a9054	0.1509412
35	0xbe091fff	-0.13391112
36	0x3d1ffe8b	0.03906111
37	0x3c593a90	0.013258591
38	0xbb2f6e2e	-0.0026768553
39	0xbd7202b4	-0.05908461
40	0xbd7ada7d	-0.061243523
41	0xbcc1890e	-0.023624923
42	0xbcf6592f	-0.030071823
43	0x3d178535	0.03699227
44	0xbdb985e3	-0.0905874
45	0xbd188adf	-0.037241813
46	0xbdeec965	-0.11659507
47	0xbe02387d	-0.12716861
48	0xbbde88cc	-0.00679121
49	0xbcba1e59	-0.022719549
50	0xbd198dcf	-0.037488755
51	0x3e2fa3e0	0.17152357
52	0xbdaafabd	-0.08348606
53	0xbdad83e5	-0.084724225
54	0xbcebb2fa	-0.028771866
55	0xbd4150a6	-0.047196053
56	0xbcc5618f	-0.024094371
57	0x3e81277d	0.2522544
58	0x3c2257f2	0.009908663
59	0xbdad5edf	-0.08465361
60	0xbcb74273	-0.022370553
61	0xbd9aaad8	-0.07552117
62	0x3da30498	0.079598606
63	0xbc85edca	-0.016348738
64	0x396b1f84	0.00022423087
65	0xbd53157b	-0.051534157
66	0x3de41b28	0.11137992
67	0x3dc5687c	0.096390694
68	0x3d3b2b73	0.045695733
69	0xbccc9ca3	-0.024977034
70	0xbd94cfb1	-0.072661765
71	0x3cf8f076	0.030388098
72	0x3e4b0005	0.19824226
73	0x3ab5afbe	0.0013861579
74	0x3d457a1a	0.04821215
75	0x3db13bf3	0.086540125
76	0x3d18bca9	0.037289295
77	0xbd5e4324	-0.05426325
78	0x3d74f95b	0.059808116
79	0xbdc3910f	-0.09549152
80	0x3d2ce042	0.042206056
81	0x3da8bb0e	0.08238803
82	0x3d48d709	0.0490332
83	0xbd60d482	-0.054890163
84	0x3c595f52	0.013267355
85	0x3d8bb54f	0.06821691
86	0xbda4e04d	-0.080505945
87	0xbafc048c	-0.0019227429
88	0x3cbab84e	0.022792961
89	0xbcff4a98	-0.031163499
90	0x3d52935f	0.051410075
91	0xbc93be13	-0.01803497
92	0x3ca8ef01	0.020621778
93	0xbd36db8b	-0.044642966
94	0xbce5d7ee	-0.028057065
95	0x3e647ee2	0.22314027
96	0xbd60e5e7	-0.054906752
97	0xbcfc07b0	-0.030765384
98	0xbd20dfb5	-0.039275844
99	0xbbe4ee2f	-0.0069864015
100	0x3d4a3c08	0.049373657
101	0x3dfaad1f	0.122400515
102	0xbd625029	-0.055252228
103	0xbe30cebd	-0.17266364
104	0xbd6c9f2f	-0.057768997
105	0x3e00994a	0.12558475
106	0xbd303900	-0.04302311
107	0xbe2a993a	-0.16660014
108	0x3c0bfc51	0.008544044
109	0xbe327991	-0.17429186
110	0xbda2096b	-0.079119526
111	0xbc70ad60	-0.014689773
112	0x3d04679a	0.032325365
113	0xbdb1b856	-0.086777374
114	0x3cfbf7b4	0.030757762
115	0x3d8c7a91	0.06859315
116	0x3d984ee1	0.0743692
117	0xbe5267a9	-0.20547356
118	0xbcb4f87d	-0.022091145
119	0xbca52789	-0.020160453
120	0x3d976780	0.07392788
121	0xbd0dac18	-0.03458795
122	0xbd47e81e	-0.04880535
123	0xbe43debe	-0.19127938
124	0x3d8c0098	0.06836051
125	0x3d56c6aa	0.052435555
126	0x3d9a964d	0.07548199
127	0xbe31117c	-0.17291826
128	0xbd467bc5	-0.04845788
129	0xbc1d62f6	-0.009606114
130	0xbd9a3fc9	-0.07531697
131	0xbdb17f9e	-0.08666919
132	0x3c4f248c	0.012642991
133	0x3df22675	0.11823741
134	0x3daf4570	0.08558166
135	0x3d9cb7d8	0.07652253
136	0x3d999344	0.07498792
137	0x3d2922bc	0.04129289
138	0xbdb32b42	-0.08748485
139	0x3e081640	0.13289738
140	0xbcdda769	-0.027057366
141	0xbd3d35c9	-0.04619387
142	0xbc8c8356	-0.01715247
143	0xbde02456	-0.109444305
144	0xbd5cfb64	-0.053950682
145	0x3db4e318	0.08832377
146	0xbd7f8a0f	-0.062387522
147	0xbde2aadc	-0.11067745
148	0xbe1bd9fb	-0.15219872
149	0xbdb959cf	-0.09050333
150	0x3b9071e4	0.004408108
151	0xbe069399	-0.13142242
152	0xbdaa12ec	-0.0830439
153	0xbe1a9d63	-0.15099101
154	0xbdb156de	-0.08659147
155	0xbd812dd4	-0.06307569
156	0xbd57c2ad	-0.05267589
157	0xbd67a5a5	-0.056554455
158	0xbd7846db	-0.060614448
159	0xbdd2a6ba	-0.10285707
160	0xbda885cb	-0.08228644
161	0x3d77476e	0.060370855
162	0xbd27b84b	-0.04094724
163	0xbd0d20c5	-0.03445508
164	0xbccc5599	-0.02494316
165	0x3d53cbf2	0.05170817
166	0xbcbb99d3	-0.022900498
167	0x3da6fad4	0.081533104
168	0xbcd6533f	-0.026162742
169	0xbcdeebeb	-0.027212104
170	0x3dacd7d5	0.08439604
171	0x3e68bbd7	0.22727905
172	0xbb6de7b9	-0.0036301448
173	0xbd3b8ea1	-0.04579032
174	0x3dc426c0	0.095777035
175	0xbd8a0186	-0.06738572
176	0xbc867ca7	-0.01641686
177	0xbc9ac3e6	-0.01889224
178	0x3d802d3f	0.0625863
179	0x3ce0f98c	0.027462743
180	0xbd41ffa0	-0.047362924
181	0xbbf63ee2	-0.0075148204
182	0xbd0df6f7	-0.034659352
183	0x3d7a864e	0.06116324
184	0x3c8cfd37	0.017210586
185	0x3cc59045	0.024116645
186	0x3cf005d7	0.02929966
187	0xbd0c6215	-0.034273226
188	0xbd8138bd	-0.0630965
189	0x3e519529	0.20467056
190	0x3dfe1f0b	0.12408265
191	0x3bff4152	0.007789769
192	0xbd9e7de8	-0.077388585
193	0x3d90063b	0.07032438
194	0x3dcde8ba	0.10054155
195	0x3cbb299f	0.022846995
196	0xbe0e9a80	-0.13926125
197	0xbe71d9c2	-0.23618224
198	0xbe00c182	-0.12573817
199	0xbd20beb0	-0.039244354
200	0xbdbe3997	-0.09288328
201	0xbc22e7b1	-0.009942935
202	0x3b8f504f	0.004373587
203	0x3cdec31b	0.027192643
204	0x3d113d3d	0.035458792
205	0xbc01dc09	-0.007925996
206	0xbcba0cbb	-0.022711148
207	0x3c76a4c0	0.015053928
208	0xbd5691d0	-0.05238515
209	0x3dcb6cc8	0.09932858
210	0xbbd2abfe	-0.0064291945
211	0xbb62d65b	-0.003461263
212	0x3b90001e	0.004394545
213	0x3d3ae1dc	0.045625553
214	0x3e0fda45	0.14048107
215	0x3e2f7832	0.17135695
216	0x3db03b12	0.08605017
217	0xbc9f39b3	-0.019436693
218	0x3e1ee1cf	0.15515827
219	0xbe1e4181	-0.15454675
220	0xbe066c67	-0.1312729
221	0xbd29ecb1	-0.041485492
222	0xbda39fb6	-0.07989447
223	0xbbc0ebd9	-0.00588749
224	0x3d650798	0.055915445
225	0xb78ee3b9	-1.703376e-05
226	0xbd4a7555	-0.049428303
227	0xbda6df5e	-0.08148073
228	0xbd6146cf	-0.05499917
229	0x3dd0f21d	0.102024294
230	0x3dc514a4	0.096230775
231	0xbc573bcc	-0.013136815
232	0xbd72df24	-0.059294835
233	0xbd8f3b58	-0.06993741
234	0xbd8774e6	-0.066140935
235	0x3daca36d	0.084296085
236	0x3c93b749	0.018031733
237	0x3ca834fe	0.020533081
238	0x3d2406a5	0.0400454
239	0x3b6b1ea4	0.0035876418
240	0xbc8529e0	-0.01625532
241	0x3e8741ff	0.2641754
242	0x3cbbf3dd	0.022943432
243	0x3dc0c6c7	0.09412914
244	0x3c30fe05	0.0108027505
245	0xbc9bb2f6	-0.019006234
246	0xbd63513d	-0.055497397
247	0xbd8fc561	-0.07020069
248	0x3dca628e	0.09882079
249	0x3d055036	0.0325472
250	0xbd276a26	-0.040872715
251	0xbd17a16e	-0.037019186
252	0xbdbd389e	-0.092393145
253	0xbcb3e1f2	-0.021958325
254	0xb9ca7833	-0.00038617998
255	0xbe01492c	-0.12625569

inception_block_1.branches.0.5.weight f4 [16]
0	0x3f751e7f	0.9574966
1	0x3f71d44b	0.9446456
2	0x3f9e19b9	1.23516
3	0x3f73788d	0.9510582
4	0x3f83ea47	1.0305871
5	0x3f7bb71f	0.98326296
6	0x3f8e2502	1.1105044
7	0x3f9831c5	1.1890188
8	0x3f74b43b	0.9558751
9	0x3f6a6ac5	0.9156917
10	0x3f802b07	1.0013131
11	0x3f887b5f	1.066265
12	0x3f824a69	1.0178958
13	0x3f6235d0	0.8836336
14	0x3f76853c	0.9629705
15	0x3f91cb3d	1.1390148

inception_block_1.branches.0.5.bias f4 [16]
0	0xbd69748a	-0.056995906
1	0xbc839199	-0.016060637
2	0xbebd241a	-0.36941606
3	0xbe13361b	-0.14376108
4	0xbd18ec17	-0.037334528
5	0x3bc6a005	0.0060615563
6	0xbd87db5a	-0.06633635
7	0xbec4febc	-0.38475597
8	0xbd8d0eca	-0.068875864
9	0xbd8926b6	-0.06696837
10	0xbdddc384	-0.10828307
11	0x3ca0aa15	0.019612351
12	0xbdc42b98	-0.09578627
13	0xbdc1ef32	-0.09469451
14	0xbe08a386	-0.13343629
15	0xbec524f0	-0.38504744

inception_block_1.branches.0.5.running_mean f4 [16]
0	0xbda702f8	-0.08154863
1	0xbcfca4e9	-0.030840354
2	0xbc902efd	-0.01760053
3	0x3d0ffbd1	0.03515226
4	0xbd84be75	-0.06481639
5	0xbe05cd59	-0.13066615
6	0xbd1d0d52	-0.03834278
7	0x3d01c67b	0.031683426
8	0x3b546a1e	0.0032411884
9	0xbc03d7a4	-0.008047018
10	0xbb7428bd	-0.0037255727
11	0xbc91aa21	-0.01778132
12	0xbd6f279c	-0.058387384
13	0xbca6162b	-0.020274242
14	0x3c509222	0.012730153
15	0xbb371713	-0.0027937337

inception_block_1.branches.0.5.running_var f4 [16]
0	0x3f418627	0.75595325
1	0x3e9636bc	0.29338634
2	0x3f028a4f	0.5099229
3	0x3ed81ee7	0.42211077
4	0x3ea29591	0.31754735
5	0x3ed4548e	0.4147076
6	0x3f43e074	0.76514363
7	0x3e971220	0.29506016
8	0x3dd6fe2a	0.10497697
9	0x3df5cd98	0.120021045
10	0x3ddd75d1	0.10813487
11	0x3dbf4861	0.09339977
12	0x3e68726f	0.22699903
13	0x3de79807	0.11308294
14	0x3e18fd63	0.1494041
15	0x3dd5802c	0.104248375

inception_block_1.branches.1.0.weight f4 [8, 1, 1, 32]
0	0xbde4ff0f	-0.11181461
1	0x3d84e8d6	0.064897224
2	0xbe0a4083	-0.13501172
3	0xbb9430bb	-0.0045224107
4	0xbca124fd	-0.019670958
5	0x3dc3ed65	0.09566764
6	0xbd83bff2	-0.06433095
7	0x3c365c0f	0.011130347
8	0x3dee5c7a	0.11638732
9	0x3da92221	0.08258463
10	0x3ddf50dc	0.109040946
11	0x3d9e4a7a	0.07729049
12	0xbb9cc5d5	-0.0047843256
13	0x3de6cf45	0.11270002
14	0xbdc3ccb1	-0.09560526
15	0x3db03e9e	0.08605693
16	0x3d23eebd	0.0400226
17	0xbe1a99e7	-0.15097772
18	0xbd6cd546	-0.05782058
19	0xbe12f850	-0.14352536
20	0x3dfc21dc	0.12311146
21	0xbd8d3be8	-0.06896192
22	0x3bf5bbab	0.0074991784
23	0x3cc4fcfe	0.024046417
24	0xbcbea8f9	-0.023273932
25	0x3e0d6983	0.13809781
26	0x3e25c7b2	0.16189459
27	0xbd850975	-0.064959444
28	0x3de0064b	0.109387
29	0x3d4b20ad	0.04959171
30	0xbca07603	-0.019587522
31	0x3e53a00c	0.20666522
32	0x3dd89494	0.10575214
33	0xbcef4c26	-0.029211115
34	0x3e027e20	0.12743425
35	0x3d91fe94	0.07128635
36	0x3dda3f7a	0.106566384
37	0xbd52100f	-0.051284846
38	0x3d3bd015	0.04585274
39	0x3e16d593	0.1472991
40	0x3deb8346	0.11499648
41	0x3d61bee8	0.055113703
42	0xbd080131	-0.03320426
43	0x3e1315c1	0.14363767
44	0x3d4f0008	0.05053714
45	0x3dc98f65	0.098418035
46	0x3db82193	0.08990779
47	0x3ad21a4c	0.0016029566
48	0xbd0207ce	-0.031745724
49	0x3dc7f89f	0.097642176
50	0x3dbcac28	0.09212524
51	0x3c385987	0.011251814
52	0x3e28a4e2	0.16469148
53	0xbd50ccb1	-0.05097646
54	0x3e1ad84b	0.15121572
55	0x3dadeb64	0.08492163
56	0xbce94299	-0.028474139
57	0xbc9f5459	-0.0194494
58	0x3da22c39	0.07918591
59	0xbc592180	-0.013252616
60	0x3c8a1c99	0.01685934
61	0x3de46d31	0.11153639
62	0x3ba9002d	0.0051574917
63	0x3d86ed67	0.0658825
64	0x3e056d83	0.13030057
65	0x3e1a47bb	0.15066426
66	0x3bd0e8b1	0.006375395
67	0xbd3f41c4	-0.04669358
68	0x3d76b9e4	0.060235873
69	0xbd93b88c	-0.07212934
70	0xbd03fa23	-0.03222097
71	0xbd7c4a72	-0.061594434
72	0xbe4ea51d	-0.20180173
73	0xbc13e98b	-0.009027849
74	0xbdcdad48	-0.100428164
75	0xbc9a0804	-0.01880265
76	0xbd13ca10	-0.036081374
77	0x3db293e1	0.08719612
78	0x3d6b4141	0.057435278
79	0xbd08f39e	-0.033435456
80	0x3dfeb841	0.124374874
81	0xba774bbb	-0.0009433587
82	0x3e09730a	0.1342279
83	0xbdfdf864	-0.124008924
84	0xbcf4aa49	-0.029866355
85	0x3ddb6068	0.107117474
86	0xbc9f9a8c	-0.019482873
87	0x3bb5edd3	0.0055520325
88	0xbd902fe0	-0.070403814
89	0x3df3ed21	0.11910463
90	0xbaec7f36	-0.0018043283
91	0xbdee3ecd	-0.11633072
92	0x3deef25b	0.116673194
93	0xbdfc8826	-0.12330656
94	0xbc90a277	-0.017655594
95	0xbde096ea	-0.109662846
96	0x3e119f65	0.1422096
97	0x3df9d526	0.12198858
98	0xbd03079c	-0.03198968
99	0x3cddf57b	0.027094593
100	0x3e0c46b8	0.13698852
101	0x3db5ba8b	0.08873471
102	0x3d31967c	0.043356404
103	0x3d2704bb	0.040775996
104	0xbd328d2f	-0.043591674
105	0x3dd35f5b	0.10320922
106	0x3db0bc73	0.08629694
107	0x3ded883a	0.11598249
108	0x3b92547d	0.004465638
109	0x3e41557c	0.18880266
110	0xbd069272	-0.032854505
111	0x3dd08403	0.10181429
112	0x3d488a47	0.048959997
113	0x3e0ee15c	0.13953155
114	0x3deeec8f	0.11666214
115	0x3dce3359	0.100683875
116	0x3da413b1	0.08011568
117	0xbd957432	-0.07297553
118	0x3e0a9fd5	0.13537534
119	0x3e0494f3	0.12947445
120	0xbd59a9c1	-0.053140406
121	0x3d2526f4	0.04032035
122	0x3e1574b7	0.14595304
123	0xbde09475	-0.10965816
124	0x3d98f33c	0.07468268
125	0x3d3a464e	0.045477204
126	0x3de930cb	0.1138626
127	0x3dd632c7	0.10458904
128	0xbd1aaf07	-0.037764575
129	0x3cc5410b	0.024078866
130	0x3ca7173f	0.020396827
131	0xbc3d93c9	-0.011570879
132	0xbcd62882	-0.026142363
133	0x3c50f7ac	0.012754362
134	0xbd648eee	-0.05580037
135	0x3d80ffb2	0.0629877
136	0x3e0785b8	0.13234603
137	0xbd63a099	-0.05557308
138	0x3d93bd67	0.0721386
139	0x3da28ca1	0.07936979
140	0x3cc5dc9e	0.02415305
141	0xbca64425	-0.020296166
142	0xbc910b8e	-0.017705705
143	0xbd8f7e1e	-0.07006477
144	0xbd867b27	-0.06566458
145	0xbe2bd7ae	-0.16781494
146	0x3b01e0c0	0.00198178
147	0xbe108879	-0.1411456
148	0x3dc7ad30	0.0974983
149	0x3de7f453	0.11325898
150	0xbdabd1af	-0.08389603
151	0xbd21491c	-0.039376363
152	0x3d70fb96	0.05883368
153	0x3b003253	0.0019561246
154	0xbd86fe38	-0.06591457
155	0x3d33ff0a	0.043944396
156	0xbe33f91e	-0.175755
157	0xbe2571d7	-0.16156708
158	0xbe20b386	-0.15693483
159	0xbde589d9	-0.11207933
160	0x3e663adb	0.22483389
161	0x39cbfb8a	0.00038906588
162	0xbb109eb5	-0.0022067253
163	0x3d52ea73	0.05149312
164	0xbcd1252a	-0.025530417
165	0xbdb0dbf9	-0.086357065
166	0xbc384dec	-0.011249047
167	0xbddf88d0	-0.10914767
168	0xbe05b9bb	-0.13059132
169	0xbe1473df	-0.14497326
170	0x3d08c859	0.03339419
171	0xbdc36279	-0.095402665
172	0xbe0b1be7	-0.13584863
173	0x3d577fdf	0.05261218
174	0x3db55897	0.08854788
175	0x3dbd79dd	0.09251759
176	0x3d314439	0.043277953
177	0xbd0e69eb	-0.03476898
178	0x3db52a29	0.08845932
179	0x3e038a95	0.12845834
180	0x3a7a06c2	0.000953775
181	0x3d37c5fe	0.044866554
182	0x3cc11fdf	0.023574768
183	0x3ac74944	0.001520433
184	0xbdbfa6b1	-0.09357966
185	0x3d80e0c2	0.06292869
186	0xbdda9e9e	-0.10674785
187	0xbe1342f8	-0.14381015
188	0x3c7985de	0.01522967
189	0xbd80626e	-0.06268774
190	0xbd2d6172	-0.04232926
191	0x3d83c35f	0.064337485
192	0xbe5652f0	-0.20930076
193	0x3d68e97e	0.0568633
194	0xbd7ead78	-0.06217715
195	0x3c700be7	0.014651275
196	0x3d82c525	0.063852586
197	0x3d809daf	0.06280076
198	0x3e22a9e4	0.1588512
199	0xbd85c057	-0.065308265
200	0x3e255758	0.161466
201	0x3d8448e5	0.06459216
202	0xbaafd3b6	-0.0013414535
203	0x3d2e4242	0.042543657
204	0x3d5d8a95	0.05408724
205	0xbda84e26	-0.08218031
206	0x3d10e0f8	0.035370797
207	0xbdbff6b7	-0.09373229
208	0x3cb30dca	0.021857161
209	0xbdd8c9d5	-0.105853714
210	0x3cc09598	0.023508832
211	0xbd4c50c7	-0.049881723
212	0xbd98588f	-0.07438766
213	0xbdcfdf4a	-0.10150011
214	0x3cae8672	0.021304343
215	0x3d4767b7	0.048682895
216	0xbdaa553d	-0.08317039
217	0x3d847bfc	0.06468961
218	0x3e1462e4	0.14490849
219	0x3dba374c	0.09092578
220	0xbd623a8e	-0.055231623
221	0x3ddb4bd5	0.10707823
222	0x3d98bb12	0.07457556
223	0x3d61393e	0.05498623
224	0xbd68366a	-0.05669252
225	0xbc372888	-0.011179097
226	0xbdd52a40	-0.10408449
227	0xbdaa5332	-0.083166495
228	0xbcc45903	-0.023968225
229	0xbd300234	-0.04297085
230	0x3c903652	0.017604027
231	0xbe18894c	-0.14896125
232	0x3c962b97	0.018331332
233	0x3d2099d6	0.03920921
234	0xbe0da422	-0.13832143
235	0xbcbfe1ca	-0.023423094
236	0xbdf37e86	-0.11889367
237	0xbbfb112f	-0.0076619606
238	0xbda1ecc2	-0.07906486
239	0xbd2c8572	-0.04211945
240	0xbc94f98b	-0.018185398
241	0xbd74acc0	-0.05973506
242	0xbd9acbcc	-0.075584024
243	0xbe0b9b97	-0.13633572
244	0xbd59f8bc	-0.053215727
245	0x3baf6918	0.0053531043
246	0xbe5661af	-0.20935701
247	0xbde1628f	-0.11005127
248	0xbd6bb338	-0.057543963
249	0x3c9f2938	0.019428834
250	0xbe1097e1	-0.14120437
251	0xbd2b98ea	-0.041893877
252	0xbd3e211e	-0.0464183
253	0x3c632cd1	0.0138656655
254	0xbcc44e2e	-0.02396306
255	0xbdcb2dad	-0.09920821

inception_block_1.branches.1.0.bias f4 [8]
0	0x3cd4b8b1	0.025966974
1	0x3ce71c48	0.028211728
2	0xbb6e3702	-0.0036348705
3	0x3ce912da	0.028451372
4	0x3cce450a	0.025179405
5	0xbd0ca31a	-0.034335233
6	0xbd52cc23	-0.05146421
7	0xbd2a3870	-0.04155773

inception_block_1.branches.1.1.weight f4 [8]
0	0x3faf6b9e	1.3704717
1	0x3f552c75	0.8327096
2	0x3fb1a2bc	1.3877788
3	0x3f877eb1	1.0585538
4	0x3f902baf	1.1263331
5	0x3fb402d9	1.4063369
6	0x3fabf493	1.3434013
7	0x3f238bf9	0.63885456

inception_block_1.branches.1.1.bias f4 [8]
0	0xbe951135	-0.2911469
1	0xbd9e01d2	-0.07715191
2	0xbe9556a9	-0.2916768
3	0xbe10646e	-0.14100811
4	0xbdebbec8	-0.11510998
5	0xbecdc1a7	-0.40186808
6	0xbe11c657	-0.14235817
7	0xbd6bb2c2	-0.057543524

inception_block_1.branches.1.1.running_mean f4 [8]
0	0x3dfa012a	0.12207253
1	0x3e9640f8	0.29346442
2	0xbcbf59d3	-0.023358261
3	0x3eb15608	0.3463595
4	0xbda9cc19	-0.08290882
5	0xbd89c424	-0.06726864
6	0x3b790485	0.0037997079
7	0xbea1e87a	-0.31622678

inception_block_1.branches.1.1.running_var f4 [8]
0	0x3e63c4c6	0.22243032
1	0x3e4040b0	0.18774676
2	0x3e3f6f57	0.18694817
3	0x3e70152f	0.23445581
4	0x3e5f823c	0.21827024
5	0x3e923795	0.2855803
6	0x3e81b167	0.2533066
7	0x3e55b672	0.20870379

inception_block_1.branches.1.4.weight f4 [16, 1, 22, 1]
0	0xbd6e1b13	-0.05813129
1	0xbc651cf0	-0.01398395
2	0xbd6d54ad	-0.05794208
3	0xbd93e767	-0.07221871
4	0x3cdfaa54	0.027302898
5	0xbcb94530	-0.022615999
6	0xbda520f2	-0.080629244
7	0x3e43849d	0.19093557
8	0xbd12a258	-0.035799354
9	0xbd84094a	-0.06447084
10	0xbce063ce	-0.02739134
11	0xbd0fd902	-0.035119064
12	0xbcae053b	-0.021242728
13	0x3e82fe7a	0.25584775
14	0x3c57a259	0.013161265
15	0xbde6e9d8	-0.11275071
16	0xbcc30571	-0.023806306
17	0xbbb541d7	-0.0055315304
18	0x3d393f6e	0.045226507
19	0xbd74b9f3	-0.059747647
20	0x3d646be8	0.05576697
21	0xbdbd1f92	-0.09234537
22	0x3d7b0a36	0.061289035
23	0x3d9c4052	0.076294556
24	0x3d4f001e	0.05053722
25	0x3d7028fa	0.05863283
26	0x3c425b5b	0.011862601
27	0xbcad6caa	-0.02116998
28	0xbcf47418	-0.029840514
29	0xbd952c15	-0.072837986
30	0xbd0eeecf	-0.034895714
31	0x3d7868fb	0.060646992
32	0x3c063729	0.008191862
33	0xbd617ec4	-0.055052534
34	0xbd8ca316	-0.06867044
35	0xbe4bc05c	-0.19897598
36	0xbda36893	-0.0797893
37	0x3cebcb59	0.028783487
38	0x3d1d815e	0.038453452
39	0x3bef98cc	0.007311916
40	0xbd99d802	-0.07511903
41	0xbb86adb9	-0.004110065
42	0x3dc39385	0.095496215
43	0x3c982503	0.018572336
44	0x3cf42413	0.029802358
45	0x3da490dd	0.08035443
46	0x3d72189e	0.059105508
47	0x3cf4fd03	0.029905802
48	0xbccfe260	-0.025376499
49	0xbddefa21	-0.10887552
50	0x3d85e670	0.06538093
51	0x3dd36b8f	0.103232495
52	0x3d778d64	0.060437575
53	0xbc41bdc8	-0.0118250325
54	0xbd539dab	-0.051664036
55	0xbcfb94d9	-0.030710625
56	0x3ce98810	0.028507262
57	0xbdd2a8b8	-0.10286087
58	0xbd5ef4e4	-0.054432765
59	0x3c32c537	0.0109112775
60	0x3d162ab6	0.036661826
61	0x3dbfe7ed	0.09370408
62	0xbe44c228	-0.1921469
63	0xbd8f63d6	-0.07001464
64	0x3dc51486	0.09623055
65	0xbcfed805	-0.031108866
66	0xbe218022	-0.15771535
67	0xbd96e013	-0.073669575
68	0x3c5c719b	0.01345482
69	0x3b9d710a	0.004804735
70	0xbda303e0	-0.079597235
71	0xbd07491e	-0.033028714
72	0x3d18877b	0.03723858
73	0x3e198aba	0.14994326
74	0x3d42cc7d	0.047558296
75	0x3d03832f	0.03210753
76	0x3ceb24e0	0.028704107
77	0x3d348f0e	0.04408174
78	0xbdb78664	-0.0896118
79	0x3e811af8	0.25215888
80	0x3bafbb48	0.005362902
81	0xbb9579da	-0.004561645
82	0xbdbd70ac	-0.09250006
83	0x3d2bfab0	0.04198712
84	0x3d502bbe	0.050822966
85	0x3be01974	0.0068389717
86	0xbd7b1486	-0.06129887
87	0xbcb7cb49	-0.022435801
88	0xbe0032b3	-0.1251934
89	0xbd0a3452	-0.033741303
90	0xbd67642a	-0.05649201
91	0xbdb20c37	-0.08693736
92	0xbdd254ea	-0.10270102
93	0xbda5f082	-0.08102514
94	0xbc767f12	-0.015044944
95	0x3c21b740	0.00987035
96	0xbd38b83b	-0.04509757
97	0xbd6cc4d3	-0.057804894
98	0xbcf00b7d	-0.029302353
99	0x3df1c1dd	0.118045546
100	0x3da82bb2	0.08211459
101	0xbd50069c	-0.050787553
102	0xbd448911	-0.04798228
103	0x3a67801c	0.00088310405
104	0x3d18c66a	0.037298597
105	0x3e7a5003	0.24444585
106	0xbd98e21f	-0.07465004
107	0xbc7eba17	-0.015547297
108	0x3d26834e	0.040652566
109	0xbc866156	-0.016403835
110	0xbd8e5df2	-0.069515124
111	0xbdaf468d	-0.08558378
112	0xbd926f86	-0.07150178
113	0xbdaf05a1	-0.085459955
114	0xbd749238	-0.059709758
115	0xbd960771	-0.07325638
116	0xbd015937	-0.031579223
117	0x3e2e3d93	0.17015676
118	0xbd5b13c9	-0.053485665
119	0xbda9db98	-0.08293837
120	0xbc8e542c	-0.01737412
121	0x3cac5ccb	0.02104034
122	0xbd9c957a	-0.07645698
123	0x3e6b81cc	0.22998732
124	0x3b14aaaf	0.0022684743
125	0xbd470670	-0.048590124
126	0xbcdc4aac	-0.026891075
127	0x3dda1462	0.10648419
128	0x3d5d8f50	0.05409175
129	0xbd7ec655	-0.062200863
130	0x3d0fec18	0.035137266
131	0xbd9a9a42	-0.075489536
132	0xbdaf8833	-0.085709
133	0xbdd5a201	-0.104312904
134	0xbd85a01d	-0.0652468
135	0xbcde12d6	-0.027108591
136	0xbc87d055	-0.016578833
137	0xbd8b61f4	-0.068057925
138	0x3df48179	0.119387574
139	0x3c90043c	0.017580144
140	0xbb8ac3bb	-0.0042347587
141	0xbd45a03f	-0.048248526
142	0x3c4eab51	0.012614087
143	0x3cfd21f2	0.030899975
144	0xbd84e7da	-0.06489535
145	0xbd26be85	-0.040709037
146	0xbcaadd33	-0.02085743
147	0x3d4f5d37	0.050626006
148	0xbbcf46c7	-0.006325576
149	0x3a3e744b	0.0007265254
150	0xbc97b1be	-0.018517371
151	0x3c2eb511	0.010663287
152	0xbd55da6b	-0.052210253
153	0x3e810de3	0.25205907
154	0x3baca162	0.005268262
155	0xbdd4c9ad	-0.10390029
156	0x3b5bd463	0.003354334
157	0xbd4d2a7d	-0.050089348
158	0xbd4b993d	-0.049706686
159	0x3e0a7c90	0.1352408
160	0xbc6132ba	-0.013745004
161	0xbdf4b1e3	-0.11947992
162	0x3ca624d6	0.020281237
163	0xbd60d4ef	-0.05489057
164	0x3b90707e	0.0044079414
165	0xbc8e3b59	-0.017362284
166	0x3e1b6704	0.15176016
167	0x3ca7fdb1	0.020506712
168	0x3dc722ec	0.09723458
169	0xbbe8bc9e	-0.007102563
170	0xbc87ef82	-0.016593698
171	0x3d211d92	0.03933484
172	0x3e160641	0.14650823
173	0xbd3818c5	-0.044945497
174	0xbdb95d84	-0.0905104
175	0xbe055841	-0.13021947
176	0xbd5a7845	-0.053337354
177	0xbdb48196	-0.08813779
178	0xbd9b0027	-0.075683884
179	0xbd0a9dcf	-0.033841904
180	0xbd820819	-0.06349201
181	0xbd1d5395	-0.03840979
182	0xbbd7b89a	-0.0065832855
183	0xbda8dbc8	-0.08245045
184	0x3d3e6f06	0.0464926
185	0xbcbd1406	-0.023080837
186	0xbc786e05	-0.015162949
187	0x3d7a7c8f	0.061153945
188	0xbdad217a	-0.08453651
189	0x3e149d67	0.14513169
190	0x3d9e10a1	0.077180155
191	0x3cf2ff20	0.029662669
192	0xbd438a88	-0.047739536
193	0x3d805c1b	0.06267568
194	0x3dffa0aa	0.12481816
195	0x3d9177c8	0.071029246
196	0xbb9e5c7c	-0.0048328023
197	0xbe0041b9	-0.12525071
198	0xbe32a19f	-0.17444466
199	0x3c441ddb	0.011970009
200	0xbdcc5e07	-0.09978872
201	0xbdfd384f	-0.12364256
202	0xbbe0427b	-0.0068438626
203	0xbdc5f617	-0.096660785
204	0x3d281a81	0.0410409
205	0x3df422dd	0.11920712
206	0x3d33708c	0.043808505
207	0x3d8547fb	0.0650787
208	0xbc7ecbc6	-0.015551513
209	0xbd455b5c	-0.04818283
210	0xbd4a9784	-0.049460903
211	0x3d416ce6	0.047222994
212	0xbd2a4279	-0.0415673
213	0x3d512514	0.05106075
214	0x3dd9846f	0.10620963
215	0x3d1c7907	0.03820136
216	0xbdfa84d9	-0.1223237
217	0x3dae9689	0.08524806
218	0x3dc0c06b	0.09411701
219	0xbda7d0b8	-0.08194107
220	0x3d08b38c	0.033374354
221	0xbce6e0c1	-0.028183343
222	0x3d684e31	0.056715194
223	0x3d3bfd0d	0.045895625
224	0xbd1018c0	-0.035179853
225	0x3da8e39d	0.08246539
226	0x3e836fe4	0.25671303
227	0xbd046ab7	-0.032328334
228	0x3e0c7f3f	0.13720416
229	0x3af1d528	0.0018450366
230	0x3c85ab35	0.01631699
231	0x3d4fc06e	0.050720625
232	0x3ddb6aef	0.10713755
233	0xbb1d74a1	-0.0024025815
234	0x3e06b742	0.13155845
235	0x3d13a29f	0.03604376
236	0xbd2f25d6	-0.042760693
237	0xbd827a52	-0.06370987
238	0xbd5c2dd2	-0.053754635
239	0xbd0b5d12	-0.034024306
240	0xbd8b74b2	-0.06809367
241	0x3c947ed7	0.018126888
242	0xbd5fa4bf	-0.054600473
243	0xbd513a29	-0.051080856
244	0xbd5ad76d	-0.053428102
245	0xbd832c9d	-0.06404994
246	0xbd2b077e	-0.041755192
247	0x3ad1541f	0.0015970505
248	0x3cc977e8	0.024593309
249	0x3dea0694	0.11427036
250	0xbcb69a6f	-0.022290437
251	0xbde342d6	-0.11096732
252	0xbd27514c	-0.040849015
253	0xbcb5b12b	-0.022179207
254	0xbd201370	-0.039081037
255	0x3e472777	0.19448648

inception_block_1.branches.1.5.weight f4 [16]
0	0x3f8d4c6a	1.1038945
1	0x3f807b94	1.0037713
2	0x3f87c28c	1.0606246
3	0x3f762aa4	0.96158814
4	0x3f9d2bf9	1.2279044
5	0x3f8cd7a3	1.1003307
6	0x3f72afba	0.9479939
7	0x3f6cbeb0	0.92478466
8	0x3f61a362	0.8813993
9	0x3f54625b	0.8296258
10	0x3f71ce60	0.9445553
11	0x3fa47884	1.2849278
12	0x3f787d01	0.9706574
13	0x3fb01faf	1.3759669
14	0x3f810ebc	1.0082622
15	0x3f629f2b	0.8852412

inception_block_1.branches.1.5.bias f4 [16]
0	0xbe6fec74	-0.23430043
1	0xbe9bd074	-0.30432475
2	0xbb526ba0	-0.0032107607
3	0xbe0f3461	-0.13984825
4	0xbee943b0	-0.45559454
5	0xbe8ec387	-0.2788355
6	0xbe09e648	-0.13466752
7	0xbbd7a74e	-0.0065812236
8	0xbda9c731	-0.08289946
9	0xbd21e2b0	-0.039522827
10	0xbe6711f0	-0.22565436
11	0xbf0090f5	-0.50221187
12	0xbe804b9b	-0.25057682
13	0xbf13779f	-0.576044
14	0xbda65b2d	-0.08122859
15	0xbc614485	-0.0137492465

inception_block_1.branches.1.5.running_mean f4 [16]
0	0xbb5f621c	-0.0034085577
1	0xbc594174	-0.013260234
2	0x3a3eda11	0.0007280419
3	0x3ba79f20	0.0051154047
4	0xbb5739fc	-0.0032840958
5	0xbbb4c3a1	-0.005516485
6	0xbc37a757	-0.0112093305
7	0xbbeba171	-0.007190876
8	0xbcbde968	-0.023182586
9	0xbcc2519b	-0.023720553
10	0xbc15c8c9	-0.009142109
11	0x3c116300	0.008873701
12	0xbaea41af	-0.0017872358
13	0xbd029acd	-0.03188591
14	0x3b24b652	0.0025133085
15	0x3a3c76ab	0.0007189314

inception_block_1.branches.1.5.running_var f4 [16]
0	0x3e814d81	0.25254443
1	0x3e1df5c4	0.15425783
2	0x3d92140b	0.07132729
3	0x3de03715	0.10948006
4	0x3e972481	0.29520038
5	0x3e8b77db	0.2723988
6	0x3e113d07	0.14183436
7	0x3de54eda	0.1119668
8	0x3de36b48	0.11104447
9	0x3e106d39	0.14104165
10	0x3ebde05c	0.37085235
11	0x3e4d0d40	0.20024586
12	0x3e5d4cf4	0.21611387
13	0x3ecea805	0.40362564
14	0x3d47d6f9	0.048789
15	0x3cf53375	0.029931763

inception_block_1.branches.2.0.weight f4 [8, 1, 1, 16]
0	0x3d18f0d0	0.03733903
1	0x3e21ce28	0.15801299
2	0x3db9d4cf	0.09073793
3	0x3e7b6d57	0.24553429
4	0xbd64f53a	-0.05589793
5	0x3e07edc2	0.13274291
6	0x3db69f3f	0.089170925
7	0xbc41b1dc	-0.01182219
8	0x3d5634dd	0.052296508
9	0x3dddf009	0.10836799
10	0xbe0a810c	-0.1352579
11	0x3bd22545	0.0064131343
12	0x3dff87e2	0.124770895
13	0x3da65d30	0.08123243
14	0xbdf5cdb8	-0.12002128
15	0x3d354998	0.044259638
16	0x3d6a64f6	0.05722519
17	0xbcfed818	-0.0311089
18	0x3d8ed272	0.06973733
19	0x3e1f8f39	0.15581979
20	0x3c693b08	0.014235266
21	0x3e4826bb	0.19546025
22	0xbd2f66a1	-0.042822484
23	0x3da1363f	0.07871675
24	0x3e068e00	0.13140106
25	0x3da64136	0.08117907
26	0x3d771f3a	0.060332514
27	0x3e169c8e	0.14708158
28	0x3d7ca653	0.061682057
29	0x3ddd5f11	0.10809148
30	0xbde8c8d2	-0.113664284
31	0x3d68a157	0.05679449
32	0xbdb9cde6	-0.09072475
33	0x3dbd4e74	0.09243479
34	0x3dce815f	0.10083269
35	0xbdf40143	-0.11914303
36	0x3d85755a	0.06516524
37	0x3de9234f	0.11383688
38	0xbb51f426	-0.0032036393
39	0x3e08f41f	0.13374375
40	0x3d833430	0.06406438
41	0x3d6fb249	0.058519635
42	0xbcb731d6	-0.02236263
43	0xbe3125bf	-0.17299555
44	0x3e1e50f9	0.15460576
45	0xbe18eb48	-0.14933503
46	0xbd961d35	-0.073297895
47	0xbe80494a	-0.25055915
48	0xbe56431f	-0.20924042
49	0x3dab8be4	0.083762914
50	0xbd2b6224	-0.04184164
51	0xbe3c0fbb	-0.18365376
52	0xbe387792	-0.18014362
53	0x3cc5c6fa	0.024142731
54	0xbdd8235a	-0.10553618
55	0xbde5489b	-0.11195489
56	0x3d79b40f	0.060962733
57	0xbdbbaead	-0.09164176
58	0x3e0ff09c	0.14056629
59	0x3dbcf995	0.092272915
60	0x3e0d09c3	0.13773255
61	0xbd0207a4	-0.031745568
62	0x3e52cc4e	0.20585749
63	0xbd3d43b5	-0.04620715
64	0xbd165f82	-0.036712177
65	0x3e231134	0.15924531
66	0x3e1b7f17	0.151852
67	0x3df95daa	0.12176068
68	0x3d43992d	0.0477535
69	0xbcd6a1fc	-0.026200287
70	0x3e64260c	0.22280139
71	0x3e5703a4	0.20997483
72	0xbb6cc93b	-0.0036130685
73	0xbddfc4a8	-0.10926181
74	0x3e496e3b	0.19670956
75	0xbd9a8dc4	-0.07546571
76	0xbc1356b5	-0.008992841
77	0x3d59f7fc	0.053215012
78	0xbde9f34e	-0.1142336
79	0x3e5a737a	0.21333113
80	0x3d066395	0.032809813
81	0xbc78a243	-0.015175405
82	0x3d4e9cd8	0.050442547
83	0x3e64e081	0.22351266
84	0xbba585be	-0.0050513437
85	0x3e232958	0.1593374
86	0xbe244cdc	-0.16044945
87	0xbe032426	-0.12806758
88	0x3df397d2	0.11894192
89	0xbe570b5d	-0.21000428
90	0xbd8a3ea2	-0.067502275
91	0xbdf9fcb4	-0.122064024
92	0xbd986d0d	-0.07442675
93	0x3e26c952	0.16287735
94	0x3e56d60e	0.20980093
95	0x3dd0f45f	0.1020286
96	0xbe1bba77	-0.1520785
97	0xbd7b769f	-0.061392423
98	0xbdcb0a26	-0.09914045
99	0x3dfd0123	0.123537324
100	0xbddab4f2	-0.10679044
101	0xbdc80fe7	-0.09768658
102	0xbe2cdc39	-0.16880883
103	0x3daedf64	0.08538702
104	0xbce941a0	-0.028473675
105	0xbd84c27c	-0.064824075
106	0xbe2af757	-0.16695915
107	0x3c67ee42	0.014155926
108	0xbd6d0c3c	-0.057872996
109	0xbcd6f7b4	-0.02624116
110	0xbd6422c6	-0.055697225
111	0xbdd2c3e3	-0.10291269
112	0xbe4a974e	-0.1978428
113	0xbdad24ce	-0.084542856
114	0xbdf8fb30	-0.12157285
115	0x3cffcb32	0.03122482
116	0x3cf3975a	0.029735256
117	0xbe1f3be6	-0.15550193
118	0x3d89ddd6	0.06731765
119	0xbe788a7c	-0.24271578
120	0x3d376729	0.044776116
121	0xbe0d5d27	-0.13805066
122	0xbcbfdaae	-0.023419704
123	0xbddc218a	-0.107485846
124	0xbd7bf3ff	-0.06151199
125	0xbd328999	-0.043588255
126	0xbd92088d	-0.07130537
127	0xbe64ff3b	-0.22362988

inception_block_1.branches.2.0.bias f4 [8]
0	0x3c44052c	0.011964124
1	0xbd7ab65b	-0.061209064
2	0x3d126567	0.035741236
3	0xbcd6ccdd	-0.026220733
4	0xbc85b401	-0.016321184
5	0x3d073e3e	0.033018343
6	0xbd36565a	-0.044515945
7	0xbd5eec01	-0.05442429

inception_block_1.branches.2.1.weight f4 [8]
0	0x3f885d87	1.0653542
1	0x3f88e767	1.0695618
2	0x3fad8660	1.3556633
3	0x3f88629d	1.0655094
4	0x3f821cd3	1.0165046
5	0x3fb052cf	1.3775271
6	0x3f4fded9	0.81199414
7	0x3f7bd8f6	0.9837793

inception_block_1.branches.2.1.bias f4 [8]
0	0xbdbe70bd	-0.09298847
1	0xbd9671c4	-0.07345918
2	0xbe306f42	-0.17229941
3	0xbe3c97ce	-0.18417284
4	0xbddb269e	-0.10700725
5	0xbedb415a	-0.42823297
6	0xbd07a307	-0.03311446
7	0xbeaef8a1	-0.34174064

inception_block_1.branches.2.1.running_mean f4 [8]
0	0x3e0d914b	0.13824956
1	0x3dbef5e8	0.09324247
2	0x3c9f80d9	0.019470619
3	0xbd8632b5	-0.0655264
4	0x3e084ab4	0.13309747
5	0x3d98494f	0.074358575
6	0xbe414597	-0.18874203
7	0xbe7f156f	-0.2491052

inception_block_1.branches.2.1.running_var f4 [8]
0	0x3e4eabfb	0.20182793
1	0x3e7f397d	0.24924274
2	0x3e2f07df	0.17092846
3	0x3e9278ba	0.28607732
4	0x3e6e1f3e	0.23254105
5	0x3e158a16	0.14603457
6	0x3e0c552a	0.13704363
7	0x3e734324	0.23756081

inception_block_1.branches.2.4.weight f4 [16, 1, 22, 1]
0	0x3de7f55f	0.11326098
1	0x3d009ce9	0.03139964
2	0xbd1e7332	-0.038684078
3	0x3d08d55b	0.033406597
4	0xbd23b909	-0.039971385
5	0x3ca2b4a7	0.019861532
6	0xbddd69a1	-0.10811163
7	0xbbf179da	-0.007369262
8	0xbd446075	-0.04794355
9	0xbd84e9eb	-0.06489929
10	0xbd17143d	-0.036884535
11	0xbd4e0b6c	-0.05030386
12	0xbe1c2e02	-0.15251926
13	0x3dbbfcdc	0.091790885
14	0x3d737874	0.059441045
15	0xbe48d78e	-0.19613478
16	0xbd32c8f0	-0.04364866
17	0x3d57b28a	0.052660502
18	0xbd547062	-0.05186499
19	0xbd202635	-0.039098937
20	0xbd2700c8	-0.04077223
21	0xbe29af97	-0.16570888
22	0x3d46cfb3	0.04853792
23	0x3d139df2	0.0360393
24	0xbb1c626e	-0.002386238
25	0x3c77560b	0.015096198
26	0xbcdd342e	-0.02700242
27	0x3e0271fc	0.12738794
28	0xbd52d43e	-0.05147194
29	0x3bcce16c	0.0062524583
30	0x3cb2b633	0.021815395
31	0xbdaf38ad	-0.08555732
32	0x3cd90d53	0.026495611
33	0x3db0b9ee	0.08629213
34	0x3e7c9baf	0.24668764
35	0x3d09622f	0.0335409
36	0x3d87bfd1	0.06628383
37	0xbcbc84d1	-0.02301255
38	0x3cde6a46	0.027150284
39	0xbc1124e5	-0.008858894
40	0xbc92fab0	-0.017941803
41	0x3d99f2b3	0.07516994
42	0x3dc20b6b	0.09474834
43	0x3dd70ea8	0.10500842
44	0xbdad5431	-0.08463324
45	0x3b92bf8b	0.0044784
46	0xbd63effa	-0.05564878
47	0xbe2a8ada	-0.1665453
48	0x3d3004e0	0.0429734
49	0x3d29278c	0.04129748
50	0xbcea806c	-0.02862569
51	0xbe100bbf	-0.14066981
52	0xbd8f42b2	-0.06995143
53	0xbe099238	-0.13434684
54	0x3d0ffc0b	0.035152476
55	0xbdc5b953	-0.096544884
56	0x3d6c837a	0.057742573
57	0x3e08d6d8	0.13363206
58	0x3d0e877d	0.03479718
59	0xbcbec564	-0.023287483
60	0x3da06cff	0.07833289
61	0x3d4153a1	0.047198895
62	0x3b7159c4	0.0036827186
63	0x3da2a1a6	0.07940988
64	0xbdeba347	-0.11505752
65	0xbd631f49	-0.055449758
66	0x3e0982f2	0.13428858
67	0xbe11941a	-0.14216653
68	0xbd5ff855	-0.054680187
69	0x3d4bf088	0.049789935
70	0xbd172e1d	-0.03690921
71	0x3d93c6ed	0.072156765
72	0xbd8eae95	-0.06966893
73	0xbdf83fd9	-0.12121553
74	0xbcf92d82	-0.030417208
75	0xbc4c676c	-0.01247583
76	0x3d045268	0.03230515
77	0xbddd6e12	-0.1081201
78	0xbd82294a	-0.063555315
79	0x3bbd0b6e	0.005769185
80	0xbdf11937	-0.117723875
81	0xbd047360	-0.032336593
82	0x3d979b06	0.07402615
83	0xbd81b0d7	-0.06332558
84	0xba6de097	-0.0009074299
85	0x3dcf79b1	0.10130633
86	0x3e2b65f0	0.16738105
87	0x3de834f1	0.11338223
88	0xbc9e195d	-0.019299204
89	0xbd8cfd76	-0.06884281
90	0xbd432bbc	-0.04764913
91	0xbdd463b7	-0.103705816
92	0xbd9eb717	-0.07749765
93	0xbc5f318e	-0.013622655
94	0x3cb5e05b	0.022201708
95	0x3dcbbda0	0.099482775
96	0xbd881bdc	-0.06645939
97	0xbdb385c6	-0.0876575
98	0x3ceb6283	0.028733497
99	0xbc2c1a78	-0.0105043575
100	0xbdaa915a	-0.08328505
101	0x3e89d769	0.26922157
102	0x3bb50eaa	0.0055254297
103	0xbd933a5e	-0.07188867
104	0x3af62efd	0.0018782314
105	0xbd4461ab	-0.047944706
106	0x3d7ef2a2	0.06224311
107	0xbce7f1c0	-0.028313518
108	0x3df3a78a	0.1189719
109	0x3d1d48bc	0.038399443
110	0xbd41ffa1	-0.047362927
111	0xbd6de5f0	-0.058080614
112	0xbdd39795	-0.10331646
113	0xbd6cd2c8	-0.057818204
114	0xbd531674	-0.051535085
115	0xbd4c20e3	-0.04983605
116	0x3d9a9a87	0.07549005
117	0xbd44b8d4	-0.04802783
118	0x3c86a473	0.016435837
119	0xbdd9b397	-0.10629957
120	0xbd10eb0b	-0.035380404
121	0x3d95edbe	0.07320736
122	0x3e57317c	0.2101497
123	0xbdc940be	-0.09826802
124	0xbd59c681	-0.053167824
125	0xbd3cb47a	-0.046070553
126	0xba0d35c6	-0.0005386736
127	0x3d85053b	0.06495138
128	0xbdded563	-0.10880544
129	0xba86682c	-0.0010254434
130	0x3ceef592	0.029169831
131	0x3ce08bdf	0.027410446
132	0xbdbf6c8a	-0.09346874
133	0xbd033b72	-0.032039113
134	0xbd792e64	-0.060835257
135	0xbdd6c176	-0.104861185
136	0xbd9ea47f	-0.07746219
137	0xbdb3a292	-0.08771242
138	0xbce3753b	-0.02776586
139	0xbcba6615	-0.022753755
140	0xbd7ec366	-0.062198065
141	0xbc908326	-0.017640661
142	0x3ceb47b9	0.028720723
143	0x3e0102aa	0.12598673
144	0x3d1ba816	0.038002096
145	0xbcb948c2	-0.022617701
146	0xbd2586b3	-0.040411662
147	0xbd665243	-0.056230795
148	0x3ddb91a6	0.107211396
149	0x3e6a9a7e	0.22910497
150	0xbd2b6e5d	-0.041853298
151	0xbd17c510	-0.037053168
152	0x3da8b63c	0.082378834
153	0xbcf60f19	-0.030036496
154	0x3d956401	0.07294465
155	0x3de5f2db	0.11227962
156	0x3d42395e	0.04741799
157	0x3da7900c	0.08181772
158	0xbd25665a	-0.040380813
159	0x3d37648d	0.044773627
160	0xbca8aeac	-0.020591103
161	0xbd533abd	-0.05156969
162	0xbb66efd6	-0.0035238168
163	0x3d91e557	0.07123821
164	0x3d9313db	0.071815215
165	0x3d5f6be8	0.054546267
166	0xbcad775c	-0.021175079
167	0xbe5a562f	-0.21321939
168	0xbd422179	-0.047395203
169	0x3d083a05	0.033258457
170	0x3db55850	0.08854735
171	0x3d1aef9d	0.03782617
172	0xbe37338b	-0.17890756
173	0xbbe2efae	-0.0069255447
174	0x3d537e82	0.05163432
175	0xbdd0299a	-0.10164185
176	0xbcfa9343	-0.030587798
177	0x3d1996e2	0.03749741
178	0xbd1d7202	-0.038438804
179	0xbd836176	-0.064150736
180	0xbdb24ac9	-0.087056704
181	0xbcba2684	-0.022723444
182	0x3e047d5b	0.12938444
183	0xbd8963bb	-0.06708475
184	0xbba28f70	-0.0049609467
185	0x3d8f797f	0.070055954
186	0xbba91a94	-0.005160639
187	0xbd2a35a1	-0.04155505
188	0xbd845cf0	-0.06463039
189	0xbe0a476c	-0.13503808
190	0xbc47b7ce	-0.012189819
191	0x3cfd6cae	0.030935612
192	0xbd0c645d	-0.0342754
193	0x3b8fb148	0.0043851472
194	0xbd4ef90c	-0.05053048
195	0x3bdf2ffd	0.0068111406
196	0x3c789ccb	0.015174101
197	0x3e5c4e98	0.21514356
198	0x3d05c634	0.032659724
199	0x3d1bf6ff	0.03807735
200	0x3dc48b29	0.09596855
201	0x3cd87c03	0.02642632
202	0x3d0b2c59	0.03397784
203	0xbd964dce	-0.07339059
204	0xbdb4ab1c	-0.08821699
205	0x3d809096	0.062775776
206	0x3d30a134	0.043122485
207	0x3de7a084	0.11309913
208	0x3dc6899d	0.096942164
209	0xbcda3240	-0.02663529
210	0xbd9de392	-0.07709421
211	0xbe07c6b3	-0.13259391
212	0xbd8d4294	-0.068974644
213	0x3cdb1af6	0.026746254
214	0x3dbbbfda	0.09167452
215	0x3dcf6d00	0.10128212
216	0xbda185ee	-0.07886873
217	0xbc84d38e	-0.016214158
218	0x3d9278c2	0.07151939
219	0xbdcc67da	-0.099807456
220	0xbe39f299	-0.1815895
221	0xbc6a7f49	-0.014312574
222	0xbd06207e	-0.03274583
223	0x3bfdfe9b	0.0077512986
224	0xbe03817e	-0.12842366
225	0xbd91a95c	-0.07112381
226	0x3c202c18	0.009776138
227	0xbe186355	-0.14881642
228	0x3d287560	0.041127563
229	0xbd83aafd	-0.06429098
230	0xbcc0c3a9	-0.023530798
231	0xbdadb418	-0.08481616
232	0x3cd21e8e	0.025649335
233	0xbde19031	-0.110138305
234	0xbb839690	-0.004015751
235	0xbcec527e	-0.02884793
236	0xbda18f93	-0.07888713
237	0xbe3f1385	-0.1865979
238	0xbdb7184a	-0.0894018
239	0x3d6c633c	0.057711825
240	0xbba92070	-0.0051613376
241	0x3ad5c107	0.0016308137
242	0xbddfb0ca	-0.10922392
243	0xbe028cb0	-0.1274898
244	0xbd5d4a4d	-0.054025937
245	0xbd8701b5	-0.065921225
246	0x3c7c103f	0.015384733
247	0xbd4714cd	-0.04860382
248	0xbdb5622a	-0.08856614
249	0x3c9e1941	0.019299151
250	0x3cf3d3b3	0.029764032
251	0x3d932cdc	0.071862906
252	0x3d97c4a2	0.074105516
253	0xbd11515d	-0.035477985
254	0xbd277a14	-0.040887907
255	0x3e1e502a	0.15460268

inception_block_1.branches.2.5.weight f4 [16]
0	0x3f645920	0.89198494
1	0x3f634a52	0.8878528
2	0x3f5a8f75	0.8537515
3	0x3f61a690	0.8814478
4	0x3f7dabb5	0.9909013
5	0x3f84ba48	1.0369349
6	0x3f8dc073	1.1074356
7	0x3f859645	1.0436484
8	0x3f62dd88	0.8861928
9	0x3f6a2fc5	0.9147914
10	0x3f61a570	0.8814306
11	0x3f827fe0	1.0195274
12	0x3f6ec96d	0.932761
13	0x3f59760f	0.8494577
14	0x3f6980dd	0.91212255
15	0x3f796e58	0.97433996

inception_block_1.branches.2.5.bias f4 [16]
0	0xbda19456	-0.07889621
1	0xbe4aaf2c	-0.19793385
2	0xbda1b42e	-0.07895695
3	0xbe1090de	-0.14117762
4	0xbe508b53	-0.20365648
5	0xbe34a3e6	-0.17640647
6	0xbed84907	-0.42243215
7	0xbe5307e1	-0.20608474
8	0xbe1ae433	-0.15126114
9	0xbe2350b4	-0.15948755
10	0xbd065d33	-0.032803725
11	0xbe686b23	-0.2269712
12	0xbdb75154	-0.08951059
13	0x3c2615c6	0.010137027
14	0xbde205b1	-0.11036242
15	0xbe2d6f18	-0.1693691

inception_block_1.branches.2.5.running_mean f4 [16]
0	0xbd7d5f71	-0.0618586
1	0x3d8b9c88	0.06816965
2	0xbd41bcc6	-0.04729917
3	0xbc038d72	-0.008029329
4	0xbbf812e6	-0.0075706122
5	0xbd41f531	-0.047352973
6	0xbb9b36cf	-0.0047367583
7	0x3a2b047a	0.00065237994
8	0xbc27e4bf	-0.010247408
9	0x3c8ab985	0.016934166
10	0x3d0c445f	0.03424489
11	0xb9bc9d93	-0.00035975556
12	0xbd5c47ba	-0.05377934
13	0x3a277aa8	0.00063888216
14	0xbc82db2f	-0.015973656
15	0xbc221440	-0.009892523

inception_block_1.branches.2.5.running_var f4 [16]
0	0x3ede51ef	0.43421885
1	0x3ef94313	0.48683986
2	0x3e846a8b	0.25862536
3	0x3e3cdefb	0.18444435
4	0x3e84d8c5	0.25946632
5	0x3e94a71d	0.29033747
6	0x3e2e93a8	0.17048514
7	0x3e355c3a	0.17710963
8	0x3df7549a	0.12076683
9	0x3e20c6c4	0.15700823
10	0x3f6f6779	0.9351726
11	0x3e154023	0.14575247
12	0x3e7070c3	0.23480515
13	0x3d48712a	0.048936047
14	0x3daeafa1	0.08529592
15	0x3db96cac	0.09053931
