result_eeginception_cv5/fold_4/best_model_fold4.pth (torch, 92196 bytes, 60 tensors)

inception_block_1.branches.0.0.weight f4 [8, 1, 1, 64]
000000 e6 65 67 3b e4 a0 95 3a 42 8d 07 3d a5 b1 f6 bd
       0.003530854 0.0011415747 0.0330937 -0.12045602
000010 42 2f ae bd 5e d1 88 bd 36 20 d7 3b 33 74 b0 3d
       -0.085051075 -0.066805586 0.006565119 0.08615913
000020 56 65 90 bd 16 a6 6d 3d 60 26 89 3d d9 66 7b 3d
       -0.07050578 0.05801972 0.066967726 0.06137738
000030 50 55 2b 3d bd d1 e7 3c 29 5e 62 bd d3 5b ce 3d
       0.041829407 0.028298253 -0.05526558 0.10076108
000040 eb 6f ef 3c dc ca 99 3d df 37 e4 3d e8 e1 10 bd
       0.029228171 0.075093955 0.11143469 -0.03537169
000050 f8 92 4b 3d d9 dc 05 bd 7c cd 23 3d a1 7a 31 bd
       0.049700707 -0.03268132 0.039990887 -0.04332984
000060 36 ca 42 3d 65 e0 b5 3d 13 53 a3 3d 5e 58 00 3e
       0.047556125 0.088806905 0.079748295 0.1253371
000070 46 bb a5 3d 2e b9 7e 3c 05 13 1a 3d 98 6b a8 bb
       0.0809236 0.01554708 0.037615795 -0.0051397793
000080 53 88 09 3e c6 84 ae 3c 22 26 d4 3c 34 62 05 3e
       0.1343091 0.021303546 0.02589709 0.13025743
000090 c1 ac 97 3d e6 4d c6 3d 4c 96 9e 3d d5 e0 41 3d
       0.07405997 0.09682827 0.077435106 0.047333557
0000a0 46 91 85 bc 04 ec f4 3d b0 63 4c 3c 8e 9c 07 3e
       -0.016304623 0.11959079 0.012474939 0.13243315
0000b0 29 e1 1e bd ea fd a4 3d cc 96 51 bc c7 a4 60 3c
       -0.03878895 0.08056243 -0.0127923 0.013711161
0000c0 a0 73 86 bb aa e1 6b 3d 3a ce 33 bd 9b 82 08 bd
       -0.004103139 0.057588257 -0.043897845 -0.03332768
0000d0 d9 78 8d 3d 23 f2 b6 3c 02 e2 3d 3d b2 bb c5 3d
       0.069078155 0.022332257 0.046358116 0.09654941
0000e0 46 12 e5 3d 18 a0 ac bc 72 f7 91 3b 8f e6 39 3c
       0.11185126 -0.021072432 0.0044545466 0.011346473
0000f0 d6 da 2d 3d 92 b1 b6 3d d2 ea a0 bd 3d 66 16 bc
       0.042445026 0.089205876 -0.078572884 -0.009179649
000100 05 d7 12 3d da eb 82 bd dc 53 13 bd 46 1c 93 bd
       0.03584959 -0.06392641 -0.035968646 -0.07183127
000110 df d7 79 3d 00 7c be bd 19 ee 5e 3d 94 69 82 3b
       0.060996886 -0.09300995 0.054426286 0.003979871
000120 ad 3a 38 bd 0f 12 33 3d ef a9 13 3c ba 00 e3 bd
       -0.044977833 0.043718394 0.009012683 -0.11084123
000130 76 12 97 3d 7f 30 4a bd bf 7d 09 bd 1f 1b 98 3c
       0.07376568 -0.049362656 -0.033567186 0.01856762
000140 13 ad 3c 3d 06 2d b4 3d 35 69 74 bd 65 38 56 bd
       0.046063494 0.0879765 -0.059670646 -0.052299876
000150 21 a6 17 3c ca 5e 93 3c 3b b1 2e 3d 18 90 81 bd
       0.009255917 0.017989535 0.04264949 -0.06326312
000160 24 f2 f5 bc e8 ff 45 bc 92 aa 3e 3d 63 65 24 bd
       -0.030022688 -0.012084939 0.046549387 -0.040135752
000170 c1 6c 1d bd b8 bf d5 bd 91 82 85 bd 8a ce 4c 3c
       -0.038433794 -0.10436958 -0.06519044 0.012500415
000180 d4 fc d4 bc 52 0c 64 bd f9 3e 1f be c9 a1 a3 bc
       -0.025999464 -0.055675812 -0.15551366 -0.019974606
000190 26 ca 0e bd 4b 97 18 be 2f 1a 6c bd 73 79 01 be
       -0.034860753 -0.14901464 -0.057642158 -0.12643985
0001a0 50 e4 19 be e0 89 d8 bd 22 67 bf bc 12 7d 1f be
       -0.150285 -0.105731726 -0.023364607 -0.15575054
0001b0 25 b2 21 bd 0c dd 09 be de a1 c9 bd 89 a5 9c bd
       -0.039476532 -0.13463229 -0.09845327 -0.07648761
0001c0 50 9c 7e bd 34 09 13 be 6b 6d 10 bd 4f 7f 0a be
       -0.06216079 -0.1435898 -0.0352606 -0.13525127
0001d0 04 2c ae 3c 2b 56 c1 bc b7 9d a4 bc 68 02 92 bd
       0.021261223 -0.023600658 -0.020094736 -0.07129365
0001e0 ce 7d 46 bd 51 9d 59 3c 32 b4 99 3d 19 7b 7b bd
       -0.04845982 0.013282136 0.07505073 -0.061396692
0001f0 60 3d 3f bd b2 eb 5a bc e8 17 39 3d bc 7c d9 3c
       -0.04668939 -0.013361858 0.045188814 0.026548736
000200 a1 93 08 bc 06 99 b5 bd 54 df bc bb f9 cb 59 bd
       -0.008335979 -0.088670775 -0.0057639275 -0.05317304
000210 f0 f4 66 3c 11 5d f0 bc 4d 8a 8a bd 93 77 d9 bd
       0.014096484 -0.029341253 -0.0676466 -0.1061851
000220 de da 0c be 8c ff 4b 3c 81 e8 a0 bc 53 0f 9c bd
       -0.13755366 0.012451064 -0.019642117 -0.0762011
000230 27 59 e6 bb 55 fe 1c bd 68 4a d4 bc 5a f4 98 bd
       -0.0070296708 -0.038328487 -0.025914386 -0.07468481
000240 ca 23 8a bc 88 2d bf 3c c2 8a 25 3d 3c 88 da bc
       -0.016862769 0.02333714 0.040415533 -0.02667629
000250 88 fe e1 3c 87 75 ff 3c af 3f cf bd 16 68 98 3d
       0.02758719 0.031183971 -0.101195686 0.07441728
000260 b9 76 c9 3d eb 59 03 bd 05 85 4a 3b 83 e8 06 bd
       0.09837098 -0.032068174 0.003090204 -0.032936584
000270 a9 a1 96 3d 96 8d e7 3d 4b d1 11 bd ce a4 ec bc
       0.07355053 0.11306302 -0.035599988 -0.028887179
000280 6b 51 e0 bd 98 5b b1 bd af 26 f6 bc 6e 9b 0c 3d
       -0.10953029 -0.08660048 -0.030047743 0.034327917
000290 08 eb fe bd 04 07 89 bd e5 a9 92 bc 80 7c 1c bd
       -0.124471724 -0.06690791 -0.017903278 -0.03820467
0002a0 16 6b e5 3c a1 26 0b bd cb de 63 3c fe cf d5 3b
       0.028005164 -0.033972386 0.013908098 0.0065250387
0002b0 2c 0f 3c 3d e0 0b 00 3e 40 13 da 3d e2 e5 c0 3a
       0.045912907 0.1250453 0.10648203 0.0014716948
0002c0 8b a3 f7 3d 46 89 33 3d 20 4e bc 3b cc 9a 0c 3e
       0.1209174 0.043832086 0.005746618 0.13730925
0002d0 fb b5 a3 3d 3f a1 fc 3b a9 fa d9 3c 52 92 d2 3d
       0.079936944 0.0077096517 0.026608782 0.10281815
0002e0 e5 6b fc 3d ad 64 77 3d a5 cb 0a 3e 23 5a 38 bd
       0.12325267 0.060398746 0.13554247 -0.045007836
0002f0 06 3b f5 3d 0f 8a c7 3d 7b 20 d9 3c df 1f b6 3d
       0.119741485 0.097431295 0.026504746 0.08892798
000300 6a 36 b7 3d 05 1f 0c 3e a1 76 18 3d 92 cc 82 3c
       0.089459255 0.13683708 0.03722251 0.015966687
000310 e8 ed 8b 3d cd 8c f4 3d 6f 4b 03 bc 03 84 85 bc
       0.068324864 0.11940918 -0.00801359 -0.0162983
000320 85 b8 80 3d 93 4b 15 bd f0 b0 06 bc dc 1c c4 bc
       0.06285194 -0.036449026 -0.008220896 -0.023939542
000330 68 7b 3d bc 24 3c 8e bc f0 03 56 3d a6 74 5e bc
       -0.011565067 -0.017362662 0.05224985 -0.013577616
000340 ac de cd 3c 12 52 b5 3d e8 1c d5 3d dd 2c ac ba
       0.025130592 0.08853544 0.10405904 -0.0013135929
000350 99 64 c3 3d 64 bd 2a 3d b1 ea 37 3d a2 78 e1 3d
       0.09540672 0.041684523 0.044901554 0.11009337
000360 11 63 8b 3d be 10 32 3d 36 c0 cb 3c ce 7a 3d 3d
       0.06806005 0.043472998 0.024871927 0.046259694
000370 33 3f c4 3c ad 70 9f 3c 35 df d8 3c 06 f4 68 bd
       0.023955917 0.019462908 0.02647362 -0.056873344
000380 66 1a 46 3d 84 42 27 3d f2 8e 48 bc 04 f8 3a 3d
       0.04836502 0.04083492 -0.012241112 0.045646682
000390 d9 a0 0a 3d f0 fb dd 3d c0 85 56 bc ab 23 11 3e
       0.033844803 0.10839069 -0.013093412 0.14173763
0003a0 3e 32 ec 3c c3 25 5f 3d 71 2d a6 3d cc 2d de 3d
       0.028832551 0.05447937 0.08114136 0.10848579
0003b0 63 c0 36 3d 76 2f d1 3c 71 2f 3c 3d 4d 81 00 3e
       0.044617068 0.025535326 0.04594368 0.12549324
0003c0 5a b7 42 3d 5e 53 79 3d 09 d1 34 bc e9 77 98 3c
       0.04753814 0.06087052 -0.011036166 0.018611865
0003d0 2a b5 67 3d 0f cb ab 3c 67 86 29 3d c5 84 a1 bc
       0.056569256 0.02097085 0.04138794 -0.01971663
0003e0 d6 d8 1d bc 07 78 cb 3d 7c 99 6e bd 18 54 a1 3d
       -0.009634217 0.09935003 -0.058251843 0.07877368
0003f0 f6 39 88 3d 1f b5 9f 3d 80 30 c0 3c df 02 44 3e
       0.0665168 0.07798218 0.023460627 0.1914172

inception_block_1.branches.0.0.bias f4 [8]
000000 13 b6 8e bc 5a 12 ab 3c 41 1e 6c 3b d4 f9 a5 bc
       -0.017420804 0.020882774 0.0036028775 -0.020260729
000010 e4 9f cc 3c 19 b4 56 bd 8b 73 af 3c ba 67 4d 3b
       0.024978586 -0.05241785 0.0214174 0.0031342343

inception_block_1.branches.0.1.weight f4 [8]
000000 04 73 89 3f 13 98 85 3f 9f 1b 7a 3f 3b d1 c8 3f
       1.0738225 1.0437034 0.97698396 1.5688852
000010 55 6e 89 3f 7a 20 6c 3f 85 8e 74 3f 7b 2c 80 3f
       1.0736796 0.92237055 0.9552997 1.0013574

inception_block_1.branches.0.1.bias f4 [8]
000000 68 0a b6 bd 49 8a a5 be ea 15 cf be 1d 12 b8 be
       -0.088887036 -0.32332066 -0.40446407 -0.3595132
000010 19 58 39 be 20 77 44 be 63 bb 35 be db e7 5e bd
       -0.18100013 -0.19186068 -0.17747264 -0.054420333

inception_block_1.branches.0.1.running_mean f4 [8]
000000 62 cf 90 3e 7b ab a3 be 38 3e 97 3d 2d 90 c4 3e
       0.2828322 -0.31966767 0.07384914 0.38391247
000010 b6 f1 cf 3e c1 5e bf be 1b d7 9f be 02 90 86 be
       0.40614098 -0.3737698 -0.312188 -0.26281744

inception_block_1.branches.0.1.running_var f4 [8]
000000 d3 c2 53 3e ef cc ba 3e bd 7e f0 3e a1 dd 51 3e
       0.20679788 0.36484477 0.46971694 0.20494701
000010 a1 40 dc 3d 17 5e 8c 3e 9a 6c fa 3d 95 20 86 3e
       0.107545145 0.27415535 0.12227745 0.26196733

inception_block_1.branches.0.4.weight f4 [16, 1, 22, 1]
000000 4c 97 04 3d e8 2b 4e bd ba 81 a1 3d cb 6a 4f 3d
       0.03237085 -0.05033484 0.078860715 0.050638955
000010 14 1f f2 bc 41 8c 67 3c 8b f8 ae 3d 3b f4 22 bd
       -0.029555835 0.01413256 0.085434996 -0.039783698
000020 90 a3 9f bd 71 e5 a5 bd 84 65 86 3d dd d8 71 bd
       -0.07794869 -0.08100403 0.06562331 -0.059044708
000030 27 fe b5 3a 00 23 0a 3e 73 7c c1 3d c5 5d ef bc
       0.0013884947 0.13489914 0.09447565 -0.029219517
000040 ca 17 ab bb 19 c1 9c 3d 80 1e 5a 3e 03 11 85 3d
       -0.0052213417 0.07654018 0.21300697 0.06497385
000050 af be 2b 3d 10 0b 23 be e9 2f 1c 3d d7 ee a2 3d
       0.041929897 -0.15922189 0.03813163 0.07955711
000060 a2 75 7d bd b6 a6 4b 3d a0 30 98 3d 11 6a 05 be
       -0.06187976 0.049719535 0.074311495 -0.13028742
000070 70 a3 4d be 95 fa 1f 3c 03 47 b2 39 50 c0 38 bd
       -0.20081878 0.009764333 0.00034003714 -0.04510528
000080 fd 51 20 bc 32 66 67 bd 42 8e 8e bd e4 d3 8b 3a
       -0.0097851725 -0.056493945 -0.06960727 0.0010668007
000090 2b 40 78 3d e2 68 b9 bc 55 da 43 bd 27 08 8b bc
       0.06060807 -0.02263302 -0.04781564 -0.01697166
0000a0 34 25 a1 3d 86 87 c7 bd 49 1e 10 3d 4a 4b 3a be
       0.07868424 -0.09742646 0.035185132 -0.18192783
0000b0 91 d6 a1 bc c7 fe e3 3c 45 5a 29 bd 5b b6 97 bd
       -0.019755634 0.027831448 -0.041345853 -0.074078284
0000c0 29 09 f0 3b 09 08 00 bd 02 19 c6 bd bc 06 0f 3d
       0.0073253107 -0.031257663 -0.096727386 0.03491853
0000d0 13 09 c7 bd 7e a1 4d 3d ec 59 13 bb 85 c3 03 3e
       -0.09718528 0.05020284 -0.0022484018 0.12867554
0000e0 c0 25 53 3d 95 9e e9 3d 3d f1 13 bd 95 55 10 be
       0.051549673 0.114072 -0.036118735 -0.14095147
0000f0 88 1a 25 bd 98 c5 5f 3e 2e 22 45 bd 66 ee 64 bd
       -0.040308505 0.2185272 -0.0481283 -0.055891417
000100 21 e2 af 3b 4c f2 58 bd f5 e5 a2 bc 96 b7 7f bd
       0.005367533 -0.052965447 -0.019885043 -0.06243094
000110 2d 1a 12 3a 43 06 8b 3b 0a 49 ae bb 2e cc c9 3c
       0.00055733585 0.00424269 -0.0053187655 0.024633493
000120 cc 2a 64 bd ae 23 93 bd 57 20 1a bd dc 79 b7 3d
       -0.055704877 -0.0718454 -0.037628498 0.0895879
000130 3a 5b 30 3b dd 9f 43 3c 1c 99 b5 bd e4 18 be bd
       0.0026909844 0.01193997 -0.08867094 -0.09282091
000140 11 3a 16 bd 80 f5 00 3e 12 7b 98 3c a6 5a 9e 3d
       -0.03667647 0.12593651 0.018613372 0.077321336
000150 e1 c7 8a bd d1 15 d1 3c 3c d8 2c 3d 7c a5 8b 3e
       -0.06776405 0.025523098 0.042198405 0.27274692
000160 d6 30 73 3e 3e dc fb 3d 66 7c ea 3d 83 1e 59 3d
       0.23749098 0.12297867 0.11449508 0.053007614
000170 04 00 ac 3d 2e 56 7f bd ad b3 82 3d de 7f 8a 3c
       0.083984405 -0.062338047 0.06381927 0.016906675
000180 cc ea 94 bc e1 08 0d be 0d f1 97 3c 79 95 c2 3d
       -0.018178366 -0.13772918 0.01854756 0.09501166
000190 53 4d 82 bc d7 a4 10 3a 20 e0 d9 3c 77 db 9c 3d
       -0.015906012 0.0005517727 0.026596129 0.07659047
0001a0 fc 68 50 3d ab 04 19 3e 56 22 39 3d 88 b8 28 bd
       0.05088137 0.14943187 0.04519876 -0.041191608
0001b0 a2 98 29 3d 1a 55 e7 bc 0b 6a aa bc a5 60 b7 bc
       0.041405328 -0.028238822 -0.020802518 -0.02238495
0001c0 81 62 76 3d 60 c5 11 3d 31 e9 b0 3d da 3f ef 3c
       0.060152534 0.035588622 0.08638228 0.029205251
0001d0 24 63 44 bd 44 eb b7 3d cb 63 08 3e 8e 37 85 3d
       -0.04794611 0.0898042 0.13319318 0.06504737
0001e0 41 85 40 3d 4d d7 ff 3c 5c 1a fc 3b 51 36 2c 3e
       0.04700208 0.031230593 0.007693572 0.16817595
0001f0 f2 63 1c 3e fe 5f ce bd 99 98 f3 bc 09 81 8e 3b
       0.15272501 -0.10076903 -0.02973585 0.0043488783
000200 aa 43 c1 3d d0 99 94 bd 17 e0 f0 bc 27 31 26 bd
       0.09436734 -0.072559 -0.02940373 -0.04057422
000210 44 5a d3 bd b7 47 96 bd 64 4a a1 bd 2d a7 51 bd
       -0.10319951 -0.07337897 -0.07875517 -0.051184822
000220 df 91 24 bd 18 b7 83 bd 8d 37 25 be d4 be 0f 3e
       -0.040178176 -0.06431407 -0.16134472 0.14037639
000230 31 80 71 bd ac 76 64 bd 1f 45 9a bb 49 28 ff 3b
       -0.058960143 -0.055777237 -0.004707947 0.007786785
000240 77 9f 5e bd 20 db 2f 3e 15 48 53 bb 83 f8 4b bd
       -0.054351296 0.17173433 -0.003223901 -0.049797546
000250 80 5f c2 3c 85 87 3f 3e de 0b 01 3e 6a 14 68 bd
       0.023727179 0.1870404 0.12602183 -0.056660093
000260 7d 41 d5 3d fe ce 85 bd 27 5f be 3d 3a 92 c4 3c
       0.104128815 -0.06533621 0.092954926 0.023995508
000270 67 3d f2 3c 2d 63 9b 3d 1d cf bb 3d 9f a0 94 3d
       0.029570295 0.07587276 0.09170363 0.072571985
000280 bc d4 97 bd a5 72 13 3e 1c 5f 2d bd 74 dd 17 3d
       -0.07413623 0.14399202 -0.04232703 0.03707643
000290 a9 3b 8f bd 49 be 98 bd fe 7a 54 bd 94 85 6f 3d
       -0.06993801 -0.07458169 -0.051875107 0.058477
0002a0 c5 0a c7 bd 95 95 db bd 67 e0 8e bd 00 38 68 bd
       -0.09718851 -0.1072189 -0.06976395 -0.05669403
0002b0 f5 c6 9e bd 81 42 a7 bd 73 a4 45 bd e4 a3 b0 bd
       -0.07752792 -0.081669815 -0.048252534 -0.0862501
0002c0 59 05 96 3c 20 7a a1 3d 88 1e 8e 3d 25 c6 73 bc
       0.018313097 0.078846216 0.06939417 -0.014878784
0002d0 0f 56 db 3c 83 8b b7 bd 3b 2e 2d be 43 d6 fd 3a
       0.026774434 -0.089621566 -0.16912167 0.0019366223
0002e0 af 40 0f be cd bc ba 3c b8 d2 65 3d 73 94 6d 3c
       -0.13989519 0.022795105 0.05610916 0.014500725
0002f0 fd 0e 2a bd 27 3b 8c ba a4 0e 7e 3b a3 e0 93 bc
       -0.0415182 -0.0010698781 0.003876605 -0.018051451
000300 eb ef 3a 3d c8 69 38 3d 88 f0 27 3e e7 38 02 3d
       0.04563896 0.045022756 0.16400349 0.031792548
000310 69 a7 64 3e 38 87 df 3c d8 00 2e 3d 74 5e bc 3c
       0.22329487 0.027286157 0.042481273 0.022994258
000320 94 9e 8a 3c 65 ba 6d bd 90 3f 39 3d 69 f7 15 3d
       0.016921319 -0.058039088 0.045226634 0.0366129
000330 85 16 d9 bc 35 30 46 be 39 54 2d 3d df df e6 bc
       -0.026499996 -0.19354327 0.04231665 -0.028182922
000340 33 8c d6 bd ba 41 c6 3c d1 26 0d 3d b2 31 e7 bd
       -0.1047596 0.024201263 0.034460846 -0.112887755
000350 d7 94 23 3e 93 cf cd 3d 3a 8c d7 3d 64 2a 51 bd
       0.15974747 0.10049357 0.10524793 -0.051065817
000360 58 fb f5 3b 0d e3 42 bd 77 05 99 bd 71 d1 53 be
       0.007506769 -0.047579814 -0.074717455 -0.20685364
000370 74 69 de bd 42 94 15 bc a0 d7 e8 bb 14 6e 4b 3d
       -0.10859957 -0.009129586 -0.0071057826 0.049665526
000380 d8 57 9f bd c2 07 e1 bd ce 27 74 bd ce e6 da bc
       -0.07780427 -0.10987808 -0.059608273 -0.026721384
000390 56 49 08 3d f6 c0 04 bd a8 f1 c8 bb 5b c2 8f bb
       0.033273064 -0.032410584 -0.0061323233 -0.0043871826
0003a0 8d 60 f5 bc 5f 95 de bd e0 c4 0f bd e9 66 ef 3d
       -0.029953266 -0.10868334 -0.035099864 0.116895504
0003b0 cf 6d 58 3c dd 42 31 3c f5 f9 c2 3d 62 7c a1 3d
       0.013209774 0.010819164 0.09520332 0.07885052
0003c0 35 a4 0d 3d 54 45 2f 3e 9e 9d d9 3c 94 e6 85 3d
       0.03458043 0.1711629 0.026564416 0.0653812
0003d0 c5 0d 49 bd dd 5f 31 bd 2b 90 be 3d 7d d6 86 3d
       -0.049085397 -0.043304313 0.093048416 0.06583879
0003e0 a6 59 37 bd 52 0c 9f bd 3a 32 fc bc 07 80 62 bc
       -0.04476323 -0.07766022 -0.030785669 -0.013824469
0003f0 3a 3d 90 bd 38 97 4a 3d 1c 4d d1 bd e2 66 03 be
       -0.07042928 0.04946062 -0.102197856 -0.12832215

inception_block_1.branches.0.5.weight f4 [16]
000000 9f 0c 62 3f ad 6c 63 3f e4 49 66 3f 72 eb 7c 3f
       0.8830051 0.888377 0.899565 0.9879676
000010 14 7d 64 3f 08 bd 71 3f 5c 58 9a 3f 82 4b 91 3f
       0.89253354 0.94429064 1.2058215 1.1351168
000020 1b f1 62 3f 57 5d 84 3f 3c 5f 64 3f 1d be 73 3f
       0.8864915 1.0340985 0.89207816 0.95211965
000030 b1 90 79 3f 42 45 82 3f f8 51 86 3f 47 8a 8b 3f
       0.97486407 1.0177386 1.0493765 1.0901574

inception_block_1.branches.0.5.bias f4 [16]
000000 87 f6 13 be 1e 12 d3 bd ec 72 b1 bc 13 d7 1c be
       -0.14449511 -0.1030619 -0.021661244 -0.1531642
000010 e8 91 53 be 48 e3 4d be 5e c0 80 be 30 db 2f be
       -0.20661128 -0.20106232 -0.25146765 -0.17173457
000020 3b 31 23 bd 0a b0 83 bb 9e 1e 9e bd 5f 25 d2 bd
       -0.03984187 -0.004018788 -0.077206835 -0.10261034
000030 8c 14 23 be 4f c5 f7 bd ca 42 68 be d6 6d 8b bd
       -0.15925807 -0.120981805 -0.22681728 -0.06808059

inception_block_1.branches.0.5.running_mean f4 [16]
000000 09 db 3d 3d f5 d1 69 bd 7a 5f 2a bb 26 53 62 bc
       0.046351466 -0.057084996 -0.002599685 -0.013813769
000010 f6 be f8 bd 6b 43 ac bd 50 c2 ba 3c 10 30 45 bd
       -0.12145798 -0.084112965 0.022797734 -0.04814154
000020 8d 2d 93 3c d6 88 43 bc f4 15 0a bc 33 cf 37 39
       0.017966056 -0.01193448 -0.008428086 0.00017529428
000030 d3 12 3c 3b 0d af 9f 3c 63 4d bb bc 76 bc 31 bd
       0.0028697744 0.01949265 -0.02286405 -0.04339262

inception_block_1.branches.0.5.running_var f4 [16]
000000 7c 4c 6d 3e 3a 8d 77 3e 25 3b a8 3d 3b cc ca 3d
       0.23173708 0.24174967 0.08214406 0.09902235
000010 26 05 c9 3e 03 47 79 3e e2 aa d0 3e d2 61 f4 3e
       0.3926174 0.24343495 0.40755373 0.4773088
000020 e5 97 74 3e 0b 52 34 3e 5d 01 a5 3d 99 05 a6 3d
       0.23886068 0.17609422 0.08056901 0.081065364
000030 08 16 e8 3d a5 36 b5 3e 96 64 14 3e 9f 8a 2d 3e
       0.11332327 0.35393253 0.14491495 0.16947411

inception_block_1.branches.1.0.weight f4 [8, 1, 1, 32]
000000 98 8c 1f 3e 29 c9 b7 3d 43 3b 56 3d e8 6a 3a bd
       0.15580976 0.08973915 0.05230261 -0.04551211
000010 12 fa 87 3c 6d f4 03 3e f1 31 57 3b 53 73 0a be
       0.016598735 0.1288621 0.0032836164 -0.13520555
000020 20 1b 25 bd 4f 05 f4 bc 09 d4 8e bd da 93 63 bd
       -0.04030907 -0.029787688 -0.06974036 -0.055560924
000030 2e 1c e9 bd 79 0e d3 bd 6c 6c 8a bd 6c bf f3 bc
       -0.11382328 -0.10305495 -0.06758961 -0.029754363
000040 ac 71 94 3d c7 94 74 bd 96 01 e0 3d 45 52 f8 bc
       0.07248244 -0.059712198 0.109378025 -0.030312667
000050 b1 fa 0a 3d 26 51 ef 3d f1 3b 66 3d b2 38 c4 3d
       0.033930484 0.116854 0.05620951 0.09581126
000060 c5 8f 34 bd 37 0d be 3c 9c d3 d5 3b eb f3 48 3d
       -0.04408242 0.02319966 0.00652547 0.049060743
000070 86 b6 d8 bd 1b 47 86 3d f1 ad 0e be 14 ac af bd
       -0.105816886 0.06556531 -0.13933541 -0.08577743
000080 d4 7b ae 3c 90 d8 ae bd 90 3a 5b 3c 26 0d 84 3d
       0.02129928 -0.085374 0.013380662 0.0644782
000090 9e cf 9e bd 86 f4 3e 3d 04 93 98 bc 72 a6 b1 bc
       -0.077544436 0.046619914 -0.01862479 -0.021685813
0000a0 42 cb a3 3d 28 8c d4 3d ad 7d f9 3d 54 27 b6 3c
       0.07997753 0.10378295 0.12182174 0.02223555
0000b0 ba 00 d6 3d 5c 48 72 3d f8 85 1c 3c 0b eb ab bd
       0.10449357 0.05915104 0.009553425 -0.0839444
0000c0 ec aa dd bd f6 c0 e8 bd b4 fb 3b be 24 98 b8 bc
       -0.108236164 -0.113649294 -0.18357736 -0.022533484
0000d0 11 54 2e be 74 26 b2 bd 3e e7 78 3d 92 06 a4 3d
       -0.17024256 -0.086987406 0.060767405 0.08009066
0000e0 f2 92 ec 3d cc 5f 44 3e dd b1 3e 3d e4 12 0c 3e
       0.11551465 0.19177169 0.046556342 0.13679081
0000f0 c7 f9 f8 bc 72 fb 1d bd 1c b2 9c 3d 22 12 c1 bd
       -0.03039254 -0.038569875 0.07651159 -0.09427287
000100 59 b3 59 3c 20 1d cf bd 06 9d 22 3d 83 39 93 bd
       0.013287389 -0.10112977 0.03970053 -0.07188704
000110 62 a3 3c 3d 1f f6 ed bc 91 7a df bd 58 79 11 be
       0.04605425 -0.029048024 -0.109120496 -0.14206445
000120 1d 00 9b 3c 51 2a 8e bc 90 e2 ac bd e2 26 86 bd
       0.018920952 -0.017354162 -0.08441651 -0.06550385
000130 55 76 75 bd be d7 0b be 0c 15 e9 bd b2 e5 b0 bd
       -0.059927303 -0.13656518 -0.113809675 -0.08637561
000140 bf 90 57 bc f4 6f 82 bd 11 72 b3 bd a0 01 8b bd
       -0.013157069 -0.063690096 -0.08761991 -0.06787419
000150 28 6e 01 be 76 62 30 bd fb ed d3 bc b4 65 cf bd
       -0.12639678 -0.04306265 -0.025870314 -0.1012682
000160 23 fe 74 bd 79 13 23 be 89 09 89 3d e0 10 b3 bd
       -0.059812676 -0.15925397 0.06691272 -0.08743453
000170 fa 93 13 be 67 4a 89 3d d0 64 26 be 7f 2b d8 bd
       -0.14411917 0.06703644 -0.16249394 -0.10555171
000180 9e d8 4d bd 48 78 1f 3d b9 5b b3 bd b5 0f 99 bd
       -0.05025541 0.03893307 -0.08757729 -0.07473699
000190 94 33 a9 3d e9 44 25 3e 24 46 c2 bd 95 a8 1e 3e
       0.08261791 0.16139568 -0.094860345 0.15493996
0001a0 80 d9 94 3d d2 f6 14 3e d2 5b 29 3e e6 ea 98 bd
       0.07268047 0.1454728 0.16538933 -0.07466678
0001b0 21 15 b6 bd 09 5c 78 3d 70 15 f8 3d af 3d 5d 3c
       -0.08890749 0.060634647 0.12113464 0.013503476
0001c0 ed 13 1a bd 3a 10 4d 3d 3a b1 19 bc b5 92 db 3d
       -0.03761666 0.050064303 -0.009380633 0.107213415
0001d0 41 a8 74 3d f8 af 47 bd 20 2d 90 3c d8 d9 f6 bd
       0.059730772 -0.0487518 0.017599642 -0.12053269
0001e0 a4 d7 47 ba 91 72 10 3e 11 ea b9 3d 0d ee ff 3c
       -0.00076233805 0.14106204 0.09077848 0.031241441
0001f0 b2 73 e3 3d d3 0d 25 3d b1 50 3b 3e 6d e4 8e 3c
       0.111060515 0.040296387 0.182925 0.017442906
000200 d1 05 99 3d 8a 7c 11 3e e9 ea b6 3d 58 df 43 3d
       0.074718125 0.14207664 0.08931524 0.04782042
000210 b6 a3 f9 3b 7a e2 20 3e b7 c5 d1 bc 61 0f 1b 3e
       0.007618393 0.15711394 -0.025606973 0.15142585
000220 0d 2e 86 3d c5 77 7f 3b e6 bc 80 3d 2d 75 03 3e
       0.06551752 0.00389813 0.062860295 0.12837668
000230 ee 3a 4a bc cc 41 40 3d 90 e1 fc 3d 55 8d 9c 3d
       -0.0123431515 0.04693775 0.1234771 0.076441444
000240 eb 4d a1 3d 8c a3 ea bd af 57 f8 3d 97 37 16 3d
       0.0787619 -0.11456975 0.12126099 0.03667411
000250 c1 04 13 3d 9f 22 77 bd 33 24 d6 3b 79 27 c8 bd
       0.035893206 -0.06033575 0.006535077 -0.09773154
000260 d1 22 1b bd 63 1d f6 bc a1 d0 9e bd a9 8b a0 bd
       -0.037875 -0.03004331 -0.077546366 -0.07839138
000270 26 27 96 bd 38 6a ac bd f6 24 c0 bd 6a 0a 64 bd
       -0.07331686 -0.08418697 -0.0938205 -0.055673994
000280 2e 7f d4 3d 12 cb 9e 3d c5 a1 d7 3d 53 14 c7 bd
       0.1037582 0.07753576 0.10528902 -0.097206734
000290 07 2d b3 3c 54 9a 02 bd 87 98 7d 3d db d9 59 ba
       0.021872057 -0.03188546 0.06191304 -0.0008310356
0002a0 fd 79 08 3e 7a 26 8f 3d e9 84 fa 3d 2a e2 35 3e
       0.13327785 0.06989761 0.12232382 0.17762056
0002b0 4e 47 7c bd 1c c8 eb 3d 32 28 40 bc 1c db c0 3d
       -0.06159144 0.11512777 -0.011728333 0.09416792
0002c0 89 24 ab 3d b4 91 d9 bd 92 0b f5 3d 78 2c d7 3d
       0.08356578 -0.10623494 0.119650975 0.105065286
0002d0 33 36 4d 3d 42 58 91 bd e6 70 49 3e fc fb 9c bc
       0.050100517 -0.07096912 0.19671974 -0.019163124
0002e0 d0 4d f0 3c 83 a6 8d 3d f4 59 b5 3d 4f 2f 72 3d
       0.029333979 0.06916525 0.08855048 0.05912715
0002f0 31 ab 00 3e 83 2a a7 3d c4 0c 75 3c 47 4c 03 3e
       0.12565304 0.08162405 0.014956657 0.12822066
000300 0d e1 e2 3d 3a d4 dc 3d d3 a2 f6 3d da ba 65 3d
       0.11078081 0.107826665 0.12042775 0.0560864
000310 f1 5a 59 3d 10 54 27 3e a4 f3 b8 bc 3b 06 2f 3c
       0.053065244 0.16340661 -0.022577114 0.010682638
000320 4f eb 1f bd 1f dc 95 bb 38 25 11 bd cf 1e 12 bd
       -0.039042767 -0.0045733596 -0.035435885 -0.035673913
000330 95 26 9a bd 4d e0 1c be d5 9a b1 bc cc fa 28 be
       -0.0752689 -0.15319939 -0.021680275 -0.16501921
000340 06 7c 14 bd 02 86 76 ba 9e f7 b0 3d 65 ee 7e 3c
       -0.03625109 -0.0009404124 0.08640979 0.015559767
000350 af 8c 3a bc 16 59 5f 3e 60 2f 1d 3e 1a c0 30 3d
       -0.011386081 0.21811327 0.15350103 0.043151952
000360 0e 59 1e 3e db ce 60 3d 2e 62 0e bc 14 2e de 3d
       0.15463659 0.054884773 -0.0086904 0.108486325
000370 bb 68 62 bd 79 ee 2f bd c8 92 c1 bd bb 99 d4 bd
       -0.05527566 -0.042952035 -0.094518244 -0.10380884
000380 cb a8 10 be e7 e6 6f bd f7 c2 27 bd cf e9 84 3c
       -0.1412689 -0.058569815 -0.040957417 0.01622477
000390 66 ee 4d 3d b5 19 94 3d 88 a4 df bb ae a4 2a 3e
       0.050276183 0.07231466 -0.0068250336 0.16664383
0003a0 07 2d ff 3d 89 66 8e bd 55 e6 1d 3d 20 bd ad bc
       0.1245976 -0.06953151 0.03854974 -0.021208346
0003b0 35 02 8a bc 7b bd ff bd b8 2d 8f 3d 27 24 c9 bd
       -0.016846756 -0.124873124 0.06991142 -0.09821349
0003c0 b7 77 05 be b6 ae ef bc f7 e6 99 3c 27 53 69 bc
       -0.13033949 -0.029258113 0.01878689 -0.0142410165
0003d0 df 90 0b 3e 76 16 a3 bd a5 85 d3 3d 93 76 24 3b
       0.13629483 -0.079632685 0.10328225 0.002509509
0003e0 9f 92 d4 bc 83 68 a8 bc 18 01 68 3d 09 dd 0d 3c
       -0.02594882 -0.020557648 0.056641668 0.008658656
0003f0 cd 2c 0a bd e6 49 ff 3d cb a2 48 3d 7c dd ae bc
       -0.03373413 0.12465267 0.048983376 -0.021345846

inception_block_1.branches.1.0.bias f4 [8]
000000 4b b5 36 3d 95 c6 1e 3d 8d bd c8 3c 76 77 ff bc
       0.04460649 0.0387636 0.024504447 -0.031184893
000010 cd cb 21 3d a8 8f 30 bd f5 dd fe bc 67 c1 15 3d
       0.039501 -0.04310575 -0.031111697 0.036561396

inception_block_1.branches.1.1.weight f4 [8]
000000 86 00 a9 3f a3 e4 a4 3f 8a 6c 6a 3f 7e d1 ab 3f
       1.3203285 1.2882274 0.9157187 1.3423307
000010 87 aa 81 3f 18 ee 77 3f 3f 3b c7 3f 57 39 ba 3f
       1.0130166 0.9684768 1.5564955 1.4548749

inception_block_1.branches.1.1.bias f4 [8]
000000 ca 44 90 be 12 27 95 be 34 b9 1a be 0e 78 69 be
       -0.28177482 -0.2913137 -0.15109712 -0.22799703
000010 ee 93 a8 be 0a 41 8e bd 23 fe b3 be b1 ae 6d be
       -0.3292536 -0.06945999 -0.35154828 -0.2321117

inception_block_1.branches.1.1.running_mean f4 [8]
000000 2c 28 0a 3d a5 17 96 3d 75 b4 8c be c1 be 15 3e
       0.033729717 0.073287286 -0.27481428 0.14623548
000010 67 43 06 3e 9a 34 6b 3e 96 e4 47 3d 43 4e 53 3d
       0.1311165 0.22969285 0.04880198 0.051588308

inception_block_1.branches.1.1.running_var f4 [8]
000000 97 4b 8f 3e 65 3d b3 3e 54 2d 82 3e d0 8e 48 3e
       0.27987358 0.35007778 0.25425208 0.19585729
000010 f5 07 e3 3e de 47 4d 3e 41 89 08 3f b9 5a 04 3e
       0.44342008 0.20046946 0.5333443 0.12925233

inception_block_1.branches.1.4.weight f4 [16, 1, 22, 1]
000000 03 4c a9 bd 61 29 4e bd a3 dc 53 bd b0 dd a4 bd
       -0.08266451 -0.05033243 -0.051724087 -0.08050096
000010 e9 89 f8 bd 07 1f bf bd 61 22 51 bd 9a e2 b5 3c
       -0.12135679 -0.0933209 -0.051058177 0.022202779
000020 b2 f6 0e bd 32 60 7d bd 6c 88 8f bb 9f 56 f3 3d
       -0.034903236 -0.061859317 -0.0043802764 0.11881756
000030 17 22 5b 3d 7e b1 c3 bc 18 5c 57 bd 86 56 f4 bc
       0.053499307 -0.023888346 -0.05257806 -0.029826414
000040 fe 2a ec 3d f7 b3 78 3e f7 f7 87 bd 25 85 12 bd
       0.115316376 0.24287401 -0.066390924 -0.035771508
000050 3e 56 2b 3d cc c1 0c bd 22 b3 05 bd 1d 83 95 3d
       0.041830294 -0.034364507 -0.032641537 0.073003985
000060 d5 e4 de bc 59 45 34 3d f0 fd 5e bd 2e 36 6e bd
       -0.027208725 0.044011448 -0.054441392 -0.05815714
000070 bf c9 50 3e fd e4 93 3b 56 f3 86 3d a4 e8 1c 3e
       0.2038946 0.0045133815 0.065893814 0.1532312
000080 dc 8d ac 3d 46 9b 2a 3d 6b 61 a5 3d bf 7c c8 bd
       0.08425495 0.041651987 0.08075222 -0.097894184
000090 d5 87 ec bc 91 09 2b 3e 12 64 ba 3d 3e 60 77 3d
       -0.028873364 0.16702868 0.09101118 0.060394518
0000a0 a0 32 02 3d 9f e8 3c bd 93 df 31 bd df bf e6 bd
       0.03178656 -0.046120282 -0.043426108 -0.11267065
0000b0 43 36 49 bd 36 53 69 bd bf e1 83 bd 1a 3f be bd
       -0.049124014 -0.05696412 -0.06439542 -0.092893794
0000c0 31 af 46 bc 8b 6c ab bc e7 52 74 bc 87 64 03 3e
       -0.01212673 -0.02092578 -0.014912344 0.12831317
0000d0 86 e8 08 bc c5 72 d3 bd f3 bb a1 39 ff e7 1d bc
       -0.008356219 -0.10324625 0.00030848346 -0.009637832
0000e0 4e 91 4b bd 9b d7 67 3e 72 cc bb 3c e7 41 b3 bd
       -0.04969912 0.2264084 0.022924636 -0.08752804
0000f0 60 1f a1 bc 55 41 16 3c 2f 9c 11 3d a1 9d 31 bd
       -0.019668281 0.00917085 0.03554934 -0.043363217
000100 60 22 8e 3b b7 41 8b bd 23 1c 16 be 8c cf bf bd
       0.004337594 -0.067996435 -0.14659171 -0.09365758
000110 73 16 91 bd 93 3d 50 bd 62 06 f0 bc ea 9c af bd
       -0.0708436 -0.05083997 -0.029299919 -0.08574851
000120 56 2b d4 bd 6d a8 03 3b f7 1d 05 bd 34 ab 41 bc
       -0.10359828 0.0020089403 -0.03249928 -0.011820603
000130 2d 20 64 3d fd 1a aa 3d 5d 70 41 bd 70 f4 5e 3d
       0.055694748 0.08305929 -0.0472263 0.054432333
000140 5b b3 b1 3b f2 d9 44 3c 00 20 e6 3d 7f c7 42 3e
       0.005422992 0.012014853 0.11236572 0.19021414
000150 b7 e1 cb 3c 19 6e a9 ba a1 57 f8 3c e8 d0 5c bd
       0.024887903 -0.0012926488 0.030315222 -0.053910166
000160 18 b3 e0 3d 26 76 84 3c 9c e6 e6 3d c6 0b 91 bd
       0.109716594 0.016169619 0.11274454 -0.07082324
000170 da 88 42 3c 87 e7 27 bd ff 01 64 bd 33 0d c0 3d
       0.011873448 -0.040992286 -0.055665966 0.093775176
000180 a9 1d 8a bb d9 7c 4e bd d1 1c b3 bd 11 f8 e9 3c
       -0.0042149615 -0.050412033 -0.08745731 0.02856067
000190 eb c7 9c 3d d4 17 37 3e f4 64 ae 3d b9 92 5d bd
       0.07655319 0.17880183 0.08515349 -0.054095004
0001a0 f5 61 40 bd 5f 1a 28 bb a1 cc b0 3c d7 90 3a 3c
       -0.04696842 -0.0025650484 0.02158195 0.011387072
0001b0 1b 52 62 bd c1 ee 4e be f4 d6 39 bc 49 00 99 bd
       -0.055254083 -0.20208265 -0.011342753 -0.074707575
0001c0 4d ca a1 3c cd 3c 4e bd 26 bf bf 3c ad de 86 3c
       0.019749785 -0.050350953 0.023406576 0.016463602
0001d0 ed e7 4f be c2 7d 31 bd 9c 9c 3a 3a c5 1f db bc
       -0.20303316 -0.043332823 0.00071186735 -0.026748547
0001e0 65 04 38 3d 76 95 17 3d 6f 8c 45 3d 97 64 5f 3d
       0.044926066 0.03700777 0.04822963 0.05453929
0001f0 42 74 97 3d bb 63 8b 3c 72 5c 36 3d 66 34 30 bc
       0.07395221 0.017015329 0.044521756 -0.01075468
000200 bc 3b 0c 3e f7 a8 ce bd 1c 74 d7 bc 9c 29 22 be
       0.13694662 -0.10090821 -0.026300482 -0.15836185
000210 b5 2d 8e bd 95 da d9 bd df d1 1d 3c 16 8f 85 bd
       -0.06942312 -0.10637394 0.009632557 -0.06521432
000220 f7 e6 a3 bc 1f 71 39 3d ce b1 48 3c a0 cc 16 be
       -0.020007594 0.045273896 0.012249423 -0.14726496
000230 d8 57 a4 3c 82 6e 9b 3d b6 65 9d 3a 4d 9e 0e be
       0.020061418 0.07589437 0.0012008462 -0.13927574
000240 94 58 0a be 39 d5 39 3c 3e 8d e6 3b f2 3e ec 3d
       -0.13510352 0.01134234 0.0070358803 0.11535443
000250 26 3c 14 bc 48 ce 43 be 7b c6 a2 3d da c7 4a 3c
       -0.009047544 -0.19121659 0.079480134 0.01237675
000260 1d e2 a1 bd 53 fb d1 3d f7 ce 0c bd e3 7a 93 3d
       -0.07904456 0.102530144 -0.034377065 0.07201173
000270 37 c5 c6 3c 45 11 68 bb 8d 2b a9 3c 82 d6 92 3c
       0.024263961 -0.0035410684 0.02065065 0.01792455
000280 86 ef de bd bb a6 ee 3d d0 71 8b 3c cb 7d a1 3d
       -0.10885529 0.11652895 0.017022043 0.07885321
000290 8b 92 e2 bd e5 38 d5 bc 36 c3 a7 bd a8 16 e7 3d
       -0.11063107 -0.026028106 -0.081915304 0.11283618
0002a0 44 3b e4 3b 4d c4 cc bd f0 7f 8b bd ad 25 27 3d
       0.006965073 -0.09998379 -0.068115115 0.040807415
0002b0 30 92 52 bc 61 28 e7 bd 3e cd 89 3c 7e 54 de bd
       -0.012852237 -0.112869985 0.0168215 -0.10855959
0002c0 40 70 26 3e 86 db 5d 3d 44 b2 8c bd 32 f6 94 3d
       0.16253757 0.054164432 -0.06869939 0.072735205
0002d0 f3 df 45 3d d3 22 d9 3d 10 a3 83 3d 49 89 83 bc
       0.048309278 0.10602345 0.06427586 -0.016056674
0002e0 bd 37 d6 bd 97 4d a1 bd 44 d2 09 bd 58 95 48 bd
       -0.1045985 -0.07876127 -0.03364779 -0.04897055
0002f0 73 6a 61 3c 13 87 4f bd 07 71 b1 bd 0b dc 0b bd
       0.01375829 -0.050665926 -0.086641364 -0.034145396
000300 ea 92 91 3d 6f 3d cd 3d 59 9e 78 bd de 0c 00 3e
       0.071081 0.10021483 -0.060697887 0.12504908
000310 06 eb 09 3e 4f 09 b9 3d eb 75 0f be 14 9d e0 bc
       0.1346856 0.090349786 -0.14009826 -0.02741865
000320 43 0c 80 3b e2 b2 b6 bc de 51 bf 3c b7 4f 9f bd
       0.0039077117 -0.022302095 0.023354467 -0.07778876
000330 b2 8a 74 3d c8 66 fb 3c 0b e2 d7 bd 1c 3e b4 3d
       0.059702583 0.030688658 -0.10541161 0.08800909
000340 10 11 2d 3d fd 76 89 bc 16 8d 3a bd 9d 4b cf bd
       0.0422526 -0.01678037 -0.045544706 -0.10121844
000350 67 28 2e 3d ee 90 9f 3d e4 e8 0d bd 0e 77 73 bd
       0.042519 0.07791315 -0.03464593 -0.05943971
000360 78 4f 9b 3a d2 29 d6 3d 3c 7d a0 3c 31 63 8c 3e
       0.0011849245 0.10457195 0.019590966 0.27419427
000370 42 4e 01 bd 78 c7 dc bd 54 8b 29 3c 49 9e 02 bc
       -0.031568773 -0.10780233 0.01034816 -0.007972308
000380 64 25 2d bd 8e 4a a9 bd 88 f3 cc bd 44 96 fc 39
       -0.042271987 -0.08266173 -0.100073874 0.00048177142
000390 c1 a1 85 3b a1 89 06 3d 55 27 b5 3d da fe 0b bd
       0.0040781205 0.032846097 0.088453926 -0.034178592
0003a0 98 35 df bc 1e 18 df 3d 96 30 0d bd 7e 7d c3 3c
       -0.027247235 0.10893272 -0.034470163 0.02386355
0003b0 9b 96 b9 3d f2 32 1c bd 5e 99 4e bc 3a 58 45 3d
       0.09061929 -0.038134523 -0.012609808 0.048179843
0003c0 51 57 da bd 6f d7 70 be 06 bd e5 3d 1e 63 2d 3e
       -0.106611855 -0.23519681 0.11217694 0.16932341
0003d0 8c 55 00 3d f1 6c de bb c0 6c 3b 3d 23 22 63 bd
       0.031331584 -0.006787889 0.04575801 -0.055452477
0003e0 5b ea 35 3e 16 73 10 3d 6f cb 17 bd 85 69 b7 bd
       0.17765181 0.035266005 -0.037059244 -0.08955673
0003f0 b7 9f f6 bc 75 16 46 bd db a6 3f bc c0 2a e9 bd
       -0.030105455 -0.04836126 -0.011697496 -0.11385107

inception_block_1.branches.1.5.weight f4 [16]
000000 fb a6 9c 3f c9 ad 70 3f c3 6d 8f 3f de b6 8a 3f
       1.2238458 0.94015175 1.1205372 1.0837057
000010 57 11 6e 3f f4 75 63 3f f9 e5 80 3f 8f 2b 5f 3f
       0.9299521 0.8885186 1.0070182 0.8717584
000020 9e a8 62 3f f4 a3 75 3f 93 1a 7c 3f c0 59 80 3f
       0.8853854 0.959533 0.9847805 1.002739
000030 89 27 70 3f 63 01 98 3f 33 df 97 3f 56 e5 64 3f
       0.93810326 1.1875423 1.186499 0.8941244

inception_block_1.branches.1.5.bias f4 [16]
000000 57 b4 c4 be af c0 42 be ea 51 b1 be b6 67 8a be
       -0.38418838 -0.19018815 -0.34632808 -0.2703225
000010 0c a7 c5 bc 68 cd 96 bc 77 d3 17 be 55 3b 90 bd
       -0.024127506 -0.018408492 -0.14826761 -0.07042567
000020 2a 92 16 be 77 9f d4 bd 00 1f 60 bd 61 c5 0f ba
       -0.14704195 -0.10381978 -0.054717064 -0.0005484429
000030 e0 a3 a6 bd 57 e7 a0 be 0d 5e c0 be c7 4c 27 be
       -0.081367254 -0.31426498 -0.37571755 -0.16337882

inception_block_1.branches.1.5.running_mean f4 [16]
000000 38 1e 87 3b f6 54 ac 3c fd 46 1c bb d4 e9 0f 3c
       0.0041234754 0.021036606 -0.0023846023 0.008783776
000010 2f 05 b7 3b 99 ed 26 bb 3a d3 1f bd 78 68 af bc
       0.0055853347 -0.002547121 -0.0390198 -0.02141212
000020 31 dc 1a bd 2c 9a 8c bc f0 05 17 bd d9 01 07 bc
       -0.037807647 -0.017163359 -0.036870897 -0.008240187
000030 0c 39 8a bc 00 78 86 3b e5 df 33 bd df d6 5b bd
       -0.016872905 0.0041036606 -0.043914694 -0.053671714

inception_block_1.branches.1.5.running_var f4 [16]
000000 f5 12 8d 3e a2 db c8 3e b8 3c 3c 3e bf 72 40 3e
       0.27553526 0.39230067 0.18382537 0.18793772
000010 6b f4 aa 3d 13 06 85 3d f8 1c cb 3e b0 c6 51 3e
       0.083474 0.06495299 0.3967054 0.2048595
000020 f2 62 23 3e d0 6c 04 3e c8 f9 28 3e 10 e9 17 3e
       0.15955713 0.12932134 0.16501534 0.14835
000030 28 41 5d 3e 5d 6d cb 3e 2b 41 fb 3e dc ac b3 3e
       0.21606886 0.39731875 0.49073157 0.3509282

inception_block_1.branches.2.0.weight f4 [8, 1, 1, 16]
000000 4d 19 21 3e 6a 1d 70 3d 39 71 7e 3d b0 5d 50 bd
       0.15732308 0.0586218 0.062119696 -0.050870597
000010 b3 c2 d5 3d 58 42 2d 3d 0c 13 80 bc 43 e4 e7 bd
       0.104375266 0.0422996 -0.015634082 -0.11322834
000020 4a 51 3a 3e ac 37 18 3e dc a8 b2 bd f0 ae 7a bd
       0.18195072 0.14864987 -0.087236136 -0.06120199
000030 96 af ec 3d 71 67 d1 3d 0e 9f 0d bd a9 84 3f 3e
       0.11556928 0.10224808 -0.034575514 0.1870295
000040 b0 a4 1f 3e 60 ad 0a 3e ac 2f 36 bd c8 10 90 bd
       0.15590167 0.135427 -0.044479057 -0.07034451
000050 6c a8 c4 3d e3 2b fb bd c0 34 e7 3c 36 2e 5e bc
       0.096024364 -0.1226423 0.028223395 -0.013560822
000060 90 c1 37 be 97 30 ce bd bb e3 12 be 8d e0 1a 3e
       -0.17944932 -0.100678615 -0.14344685 0.15124722
000070 2a 87 24 be bc c4 fd 3d e9 52 3a bd 32 b2 8f 3e
       -0.16067186 0.1239104 -0.045489226 0.2806564
000080 49 ab 61 3e 4f 16 76 bd 60 85 59 bd 10 5d 74 3c
       0.22037996 -0.06007987 -0.053105712 0.014914766
000090 37 46 bd 3d 1a 5c 24 be ac 18 01 3d c4 fd 89 bd
       0.09241908 -0.16050759 0.03151767 -0.06737855
0000a0 f8 e0 1a be 8f 09 b4 3d 11 36 90 bd 67 f8 61 bd
       -0.15124881 0.08790886 -0.07041562 -0.055168536
0000b0 39 b8 56 bc f1 bb a9 3c fa 1a a4 3c 29 3d 31 3e
       -0.013105446 0.0207195 0.020032395 0.17308487
0000c0 8d 9d 40 3e 03 98 d3 3d 90 b6 d8 3d 7d 5a 97 3d
       0.18810101 0.10331728 0.10581696 0.07390306
0000d0 70 db 4f bd 52 81 89 3d e3 fa 06 3e 78 ab 3b 3e
       -0.05074638 0.06714119 0.13181643 0.18327129
0000e0 fa 12 d6 3c 56 9c d5 bd c8 9d 1d 3d e5 2b 2b 3e
       0.026132096 -0.10430209 0.03848055 0.16715963
0000f0 6e 11 12 3e cb 5f 93 bd 02 f9 12 3e 2d de 3f 3e
       0.14264461 -0.071960054 0.14352801 0.18737097
000100 34 ea 2a 3c 2e e2 8f 3d 20 6a 4f 3e be 6b 69 3d
       0.010431815 0.07025562 0.20255327 0.056987517
000110 32 a9 cd 3c b3 23 c7 3d 6c ab 80 bd 11 55 9c bd
       0.025105093 0.09723606 -0.06282696 -0.07633413
000120 4c 2b 19 be c8 19 3f be ef d3 c2 bd ae c7 d0 3c
       -0.14957923 -0.18662179 -0.095130794 0.02548584
000130 c6 bd b0 bc 9b 0c 18 3e 5d 20 4a bc c6 42 07 3e
       -0.021574866 0.14848559 -0.012336818 0.13209066
000140 af 78 d5 3c b9 4b c2 3d 8a 42 14 3d 7c 7c f3 3d
       0.026058523 0.09487099 0.03619627 0.11888978
000150 75 47 f5 3d d2 12 02 3e c9 f2 6b bd c6 89 1a 3e
       0.1197652 0.12702492 -0.057604585 0.15091619
000160 e6 b6 bd 3d 96 d7 f5 bd 4d 2d c3 bc 4a 85 ea 3c
       0.09263401 -0.120040104 -0.023825312 0.02862801
000170 57 28 47 be 1e 01 b1 bd ed 2f 5a be 2c f4 3b be
       -0.19448982 -0.08642791 -0.21307345 -0.18354863
000180 5e b8 bd bc bb 24 b3 bc 52 3e aa bd d6 a2 3d bc
       -0.023159202 -0.0218681 -0.08312668 -0.011574468
000190 c5 8a b7 3d bf 78 0d be 5e 60 cc 3d a8 11 e8 bd
       0.08962015 -0.13815592 0.09979318 -0.11331493
0001a0 89 70 20 3e e9 fe 2c 3d 60 6d 21 3d 97 c6 44 3e
       0.15667929 0.04223529 0.03941095 0.19216381
0001b0 d6 6a 8a 3d 97 33 52 3e 7e a8 c8 3d 0b 7a b9 3d
       0.067586586 0.20527492 0.09797762 0.09056481
0001c0 f6 a7 6b be 8a 4c 0e be d9 00 d0 3d 0a 7e 2d be
       -0.23013291 -0.13896385 0.10156412 -0.16942611
0001d0 5b c2 9d 3d e3 bc 48 be aa 9c 61 be 72 97 e3 3d
       0.07703086 -0.19603305 -0.22032419 0.1111287
0001e0 eb 80 0f 3e e8 97 34 be bc 81 16 be 5d 02 9e bd
       0.14014022 -0.17636073 -0.14697927 -0.077152945
0001f0 f2 ac 4c 3d d0 4d 08 bd f2 b1 19 3e 3a 83 a7 3d
       0.04996962 -0.033277333 0.15009287 0.08179326

inception_block_1.branches.2.0.bias f4 [8]
000000 8f bb 17 bc ca 0e 55 3d d9 74 95 3b a8 66 f5 bc
       -0.009261026 0.052016057 0.0045610485 -0.029956177
000010 cd ff 00 3d eb 9a 23 bd 20 78 df 3b 6d 8f 17 3d
       0.03149395 -0.039942663 0.00681974 0.037002016

inception_block_1.branches.2.1.weight f4 [8]
000000 59 be a2 3f 4e 8f ab 3f 8c fc 97 3f 40 e0 76 3f
       1.271434 1.3403108 1.1873946 0.9643593
000010 c4 68 ab 3f e8 20 95 3f d5 0b 82 3f 28 97 8f 3f
       1.3391347 1.1650667 1.0159861 1.1218004

inception_block_1.branches.2.1.bias f4 [8]
000000 4d 6c db bd dc 08 60 be 46 c5 35 be 37 fe 85 bd
       -0.10714016 -0.2187838 -0.17751035 -0.06542628
000010 87 a6 46 be 87 36 8d bd 86 43 87 3d 0e ea d0 bd
       -0.19399463 -0.06895166 0.06604676 -0.102008924

inception_block_1.branches.2.1.running_mean f4 [8]
000000 5a 2e e1 3d 8a 1f 84 3d a2 f0 01 3c 81 05 2c 3e
       0.10995169 0.06451328 0.0079309065 0.16798975
000010 8c 26 5e 3d a0 80 4e bd a2 bb df 3d e5 fa 7e bd
       0.05423598 -0.050415635 0.1092446 -0.06225099

inception_block_1.branches.2.1.running_var f4 [8]
000000 f4 c6 b0 3d a8 de 14 3e 4c bf 8a 3d 80 26 7e 3e
       0.08631697 0.14538062 0.06774768 0.24819374
000010 39 50 36 3e 85 22 e2 3e 19 6d 92 3e 7f 7f 5e 3e
       0.1780404 0.4416696 0.2859886 0.21728323

inception_block_1.branches.2.4.weight f4 [16, 1, 22, 1]
000000 6e 26 c5 bc be 74 c0 3c ff a7 ff 3a fe 12 1f 3d
       -0.024066176 0.023493167 0.0019505023 0.03883647
000010 cc 4f 2b bb f1 24 c0 3c 98 16 05 3e 2a 21 6c bd
       -0.0026140092 0.023455115 0.129969 -0.057648815
000020 df 36 09 3c 73 83 98 bc d1 3d 02 bd f5 ad 17 bc
       0.008374899 -0.018617367 -0.031797234 -0.009257783
000030 4c bd 88 bd 70 f0 e0 bc 66 04 00 3b 62 db 44 3c
       -0.066767305 -0.0274584 0.0019533872 0.012015196
000040 fa 81 30 bd f1 d9 fa bd 57 bc 01 bd e4 36 81 bb
       -0.043092705 -0.122486 -0.031673755 -0.003943311
000050 85 fd 6b bd a1 36 3f 3e 69 2a e8 bc 98 c6 13 be
       -0.057614822 0.18673183 -0.028340535 -0.14431226
000060 c0 38 5f 3d e4 d4 5f 3d ae b1 ac 3b 9e a7 de 3d
       0.05449748 0.054646388 0.0052702045 0.10871814
000070 b2 d2 90 bc b0 18 42 be e7 65 6e 3b 62 be 0b be
       -0.017678592 -0.1895473 0.0036376656 -0.13646844
000080 ae 31 e0 3c e6 7a 99 3d 80 82 6c 3d 59 85 a4 bb
       0.02736744 0.07494144 0.057741642 -0.005020779
000090 a3 a3 99 3d d9 a6 ea bd f7 38 21 bd ed ed 0a bd
       0.07501914 -0.11457605 -0.039360967 -0.03391831
0000a0 f4 ba 94 bc 95 b1 20 bd 69 a7 04 be a0 84 e4 bd
       -0.018155552 -0.039231855 -0.12954487 -0.11158109
0000b0 29 2e b4 bd 8f ea 07 bd 04 01 6d bd 13 1f cd bd
       -0.08797867 -0.033182677 -0.057862297 -0.100156926
0000c0 08 83 78 bd 1c 16 8d bc 86 c9 ef bc e6 f9 14 3e
       -0.060671836 -0.017222457 -0.029270899 0.14548454
0000d0 d8 e5 07 bd e9 12 ff bd b1 87 1e bd 0d c6 23 3c
       -0.03317818 -0.12454779 -0.038703624 0.009995949
0000e0 77 3d 57 bd 8f b8 7c 3e 04 6c 3c 3d 76 85 18 bd
       -0.05254885 0.24679779 0.04600145 -0.037236653
0000f0 9c 11 96 bc 14 31 f8 bc 9d d2 ae 3d 23 31 5f bd
       -0.018318944 -0.03029684 0.08536265 -0.05449022
000100 a9 ac 06 bb 7c 2e 9a bd 25 68 d7 3d 79 96 82 bd
       -0.002054969 -0.075283974 0.10517911 -0.06376357
000110 60 6d c1 bb 99 41 a3 3c 24 65 ec bc 06 35 c0 3c
       -0.005902931 0.01992874 -0.028856821 0.023462784
000120 09 70 97 bd 31 94 03 3d bd ce 31 3d 48 2a d8 3d
       -0.07394416 0.03212375 0.04341005 0.105549395
000130 2a 95 92 3d ba 4f 2a 3d 13 bf f2 bc 14 67 79 be
       0.07157357 0.04157994 -0.029632127 -0.24355727
000140 5a 25 bb bd 9c 70 01 bd 21 be 07 bd 3e 30 26 bd
       -0.091379836 -0.031601533 -0.033140305 -0.04057335
000150 50 e1 0b be e2 4a a5 3d ad af 4c bd c3 2f 67 bd
       -0.13660169 0.080709234 -0.049972225 -0.056442033
000160 6d 07 f1 bd 1f 21 80 bd b2 47 92 bd d3 e3 af bd
       -0.117689945 -0.06256317 -0.07142581 -0.08588376
000170 e8 4a f7 bc 95 fd 87 bc 5f d9 f1 bc 15 fd 14 3e
       -0.030187085 -0.01660041 -0.029522596 0.14549668
000180 01 5d 03 bc 80 b0 38 bd f1 53 62 b6 3a 61 60 bd
       -0.008017779 -0.0450902 -3.3725485e-06 -0.054780222
000190 d6 2d 6a bd 1d 3a 82 3e 34 a7 4c 3d 92 ea 07 bd
       -0.05717262 0.25434962 0.049964145 -0.033182688
0001a0 fe 68 54 3c 95 d5 43 3d 97 61 2b 3d e1 19 83 bd
       0.012964485 0.04781111 0.041841116 -0.064014204
0001b0 a2 54 d0 bc be 46 ba bd c7 25 cc bd 3a 19 13 bd
       -0.025430981 -0.09095524 -0.09968143 -0.03591273
0001c0 ab 48 75 bd 71 af b4 bd 9b e5 ca bd 1c 39 b8 bd
       -0.059883755 -0.08822525 -0.09907075 -0.08995268
0001d0 c1 d1 ce bc d8 f7 22 ba dc b8 26 bd d7 c9 23 bd
       -0.025246503 -0.0006216741 -0.04070364 -0.03998741
0001e0 28 61 5c bb df fb e1 3d 9d a3 44 3d c2 e3 bf bc
       -0.0033627246 0.11034369 0.048007596 -0.023424033
0001f0 d7 17 1f bd 6a 64 18 3c 59 43 a6 3d 55 c4 53 3e
       -0.038841095 0.009301284 0.08118314 0.20680363
000200 a6 c4 23 bd 9a af b5 bc 92 fb 9d 3c ad 7b 8e bc
       -0.03998246 -0.02217846 0.019284997 -0.017392958
000210 64 4c f5 bd 7c 05 eb 3b 8c fa cb 3d 80 b7 41 3d
       -0.11977461 0.0071722846 0.099598974 0.04729414
000220 49 c9 f3 3b 9b b2 7d 3c ef c9 14 bd 5e 0f cc bd
       0.0074397665 0.015484477 -0.03632539 -0.099638686
000230 fb 0c 8c 3d e1 c4 4f 3e 04 ac f3 3c b1 ee 68 bc
       0.06838413 0.20289947 0.02974511 -0.014217065
000240 69 03 83 bd 54 95 8f bc 71 da 0a 3e 6c 55 ee 3d
       -0.06397135 -0.01752726 0.13559891 0.11637387
000250 73 fb 8b bd 53 bd a8 3d 65 d0 ae 3d e8 3a 72 3d
       -0.068350695 0.08239236 0.08535842 0.05913821
000260 c9 e5 49 3d 56 c4 68 bd 22 39 36 bd 5d 44 a5 3d
       0.049291406 -0.056827866 -0.04448808 0.0806968
000270 61 c6 4c 3d 98 65 13 3d fd ce 80 3c 73 7f c0 3c
       0.049993876 0.03598556 0.0157237 0.023498273
000280 cb 0b c7 3d 78 d8 20 bd fc 6c 12 3d ea ce cf bc
       0.09719046 -0.03926894 0.035748467 -0.025367219
000290 4c 67 59 bd 9e 18 70 bd f6 62 73 3d 7f 8d 22 be
       -0.053077027 -0.058617227 0.05942055 -0.15874289
0002a0 2d 50 c6 bc a6 8f f1 3c a5 4a 43 bd ee 62 bf bc
       -0.024208153 0.029487442 -0.04767861 -0.023362603
0002b0 4d 7a 2e be 71 c7 6b bc 11 e0 06 3a 28 0d 6e 3e
       -0.17038842 -0.014390812 0.0005145083 0.23247206
0002c0 c7 d6 5a 3d 41 08 a3 3c 17 af b8 3c e5 05 c4 3d
       0.053427484 0.019901397 0.022544427 0.09571437
0002d0 4a 3b a9 bd 92 e9 a4 b9 e5 af d3 3d c0 06 dc bc
       -0.082632616 -0.0003145454 0.103362836 -0.026858687
0002e0 19 2a 87 bd 64 74 8a bc 15 ed d7 bd b2 f4 64 bd
       -0.06599826 -0.016901202 -0.10543267 -0.055897422
0002f0 5f 42 90 3b 05 e9 7f bd 82 80 25 bd ea dd 82 bd
       0.0044024433 -0.062478084 -0.040405758 -0.06389983
000300 8e a8 b3 bc 53 ec e9 bd ad 6d 90 3c 66 4a 4b bd
       -0.02193096 -0.114220284 0.017630422 -0.0496315
000310 17 1a 5c 3d d3 c8 5f 3e e6 ef e2 bd 81 1c bb bd
       0.05373582 0.21853952 -0.11080913 -0.09136296
000320 6d 40 3d bd 61 cc b2 bd 63 3b f0 b8 46 32 d2 bc
       -0.04620402 -0.087303884 -0.000114551534 -0.025658738
000330 24 dc cd 3c 30 ee 45 3e a1 ea a0 bc 5d 4b d5 bd
       0.025129385 0.19329143 -0.01964313 -0.10414765
000340 df 9f 0d bc 23 6e 74 bd 6e b0 60 bd d5 1e 27 3e
       -0.008644073 -0.059675347 -0.054855756 0.16320355
000350 ca 9a ea 3c 8a 8e a3 bd c2 a4 69 3d 40 5a 01 b9
       0.028638262 -0.079861715 0.05704189 -0.0001233602
000360 48 82 f7 3c 56 13 25 bd 92 da 64 3d be 05 7e bd
       0.03021349 -0.040301643 0.055872507 -0.062017195
000370 52 25 3b bd f8 7b 58 bd 28 40 7b bd e5 af 8b bd
       -0.04568989 -0.0528526 -0.06134048 -0.068206586
000380 23 62 a4 bd 4a 31 1d bd e4 8f 9b 3d 2e 01 02 bd
       -0.080265306 -0.038377084 0.07595804 -0.031739406
000390 d8 84 76 bd f9 99 9a bd 7a 87 ac bd 52 40 a8 3d
       -0.060185283 -0.07548899 -0.084242776 0.08215393
0003a0 a6 91 13 3e d5 60 17 be ee 52 20 bd 1e ce 2d bd
       0.14411029 -0.14783032 -0.039141588 -0.042432897
0003b0 f0 c3 fe 3b ea 84 1c 3e 3d 90 af bd 84 cd 19 3d
       0.0077748224 0.15285078 -0.08572433 0.03754951
0003c0 25 07 5c 3d 18 3d 32 3d a7 35 02 bd 23 7d ae bd
       0.05371775 0.043515295 -0.031789448 -0.08519962
0003d0 ed 19 68 3d f4 f2 d7 bb 63 ca 33 bd a9 42 a8 3b
       0.05666535 -0.0065902416 -0.043894183 0.0051348996
0003e0 3a 51 0e bd 0a 62 0a 3e cb 17 a7 3c a3 a2 d2 bd
       -0.034745432 0.13513961 0.020397088 -0.10284927
0003f0 2c 1c a0 bd 01 30 72 bc 74 69 e5 bd 51 3d 12 bd
       -0.07817873 -0.014781953 -0.11201754 -0.035703007

inception_block_1.branches.2.5.weight f4 [16]
000000 fd 3a 7a 3f e7 bd 6c 3f f3 53 97 3f 72 b0 5b 3f
       0.9774626 0.9247727 1.1822494 0.8581611
000010 85 23 83 3f 6a eb 9f 3f bf 5e 64 3f 09 f8 79 3f
       1.0245215 1.2493718 0.8920707 0.97644097
000020 2d 85 66 3f c0 34 7f 3f 43 a5 8a 3f 54 3d 57 3f
       0.9004696 0.99689865 1.0831684 0.84077954
000030 18 0b 79 3f ec 1b 7d 3f a0 59 5d 3f 42 92 7d 3f
       0.9728255 0.9887073 0.8646488 0.99051297

inception_block_1.branches.2.5.bias f4 [16]
000000 bd 3b c5 bd 56 38 fa bc fe 3f aa be 21 32 61 bd
       -0.09630535 -0.030544441 -0.33251947 -0.054979447
000010 5c 39 4d be 50 a9 fa be 72 43 69 bd 0b f1 dc bb
       -0.20041412 -0.489573 -0.056949086 -0.0067426017
000020 0b cb cd bd 95 30 81 be d4 83 ac be f9 b8 11 be
       -0.10048493 -0.25232378 -0.33694327 -0.14230718
000030 94 b9 41 bd d2 26 86 be a4 5c 03 bd b7 ff 43 be
       -0.04729612 -0.26201493 -0.03207077 -0.19140516

inception_block_1.branches.2.5.running_mean f4 [16]
000000 65 a0 57 bc 9e 26 97 bd 42 bb bd bc 90 a0 45 bd
       -0.0131608 -0.073804125 -0.02316058 -0.048248827
000010 e8 34 41 bc 87 18 27 bc 0d 6f 59 3d d0 85 76 ba
       -0.011792399 -0.010198719 0.053084422 -0.0009404095
000020 a4 b3 5c bc f3 0f 9a bc 8d e6 3c bd fb 0f ea bd
       -0.013470564 -0.018806433 -0.046118308 -0.11428829
000030 24 ed 45 3c a9 4c 03 be 7f ba af bc 44 fd 12 bb
       0.0120804645 -0.12822212 -0.021451233 -0.002242879

inception_block_1.branches.2.5.running_var f4 [16]
000000 08 bf e7 3d 1c f2 da 3e b1 d0 8d 3e d9 79 8f 3e
       0.11315733 0.4276284 0.2769828 0.2802265
000010 e7 6b 3f 3e 14 d1 37 3e 0c a2 97 3e 9f c0 c7 3d
       0.18693505 0.1795085 0.2961582 0.097535364
000020 dc 6f 31 3e cb db 5a 3e e1 02 7d 3e 8a e8 cb 3e
       0.17327827 0.21372907 0.2470813 0.3982585
000030 64 ee 21 3e 12 6f aa 3e 0b 54 5a 3e ee 73 32 3e
       0.15813595 0.33287865 0.21321122 0.17427036
