result_eegneteca_cv5/fold_0/best_model_fold0.pth (torch, 22590 bytes, 19 tensors)

conv_time.weight f4 [8, 1, 1, 64]
0	0x3e299ec3	0.16564469
1	0x3dc2b950	0.09508002
2	0xbd954f69	-0.07290537
3	0x3d7f07b7	0.062263217
4	0xbd44565b	-0.047933917
5	0x3d0f757e	0.03502416
6	0xbcb5f3fa	-0.022211064
7	0x3deecab8	0.11659759
8	0x3e1adacf	0.15122531
9	0xbd3b1c11	-0.045681063
10	0x3e13a56e	0.14418575
11	0x3d89f94b	0.06737002
12	0x3e110310	0.14161325
13	0x3da2708d	0.079316236
14	0x3e094655	0.13405736
15	0x3d93fc80	0.07225895
16	0x3e40b434	0.18818742
17	0x3dea3fac	0.11437926
18	0x3d0f88f2	0.03504271
19	0x3de3f65e	0.11130975
20	0x3c826214	0.015915908
21	0x3d52189c	0.051293
22	0x3c93f290	0.018059999
23	0x3e1d40ed	0.15356798
24	0xbc085b13	-0.008322495
25	0x3d2530d1	0.040329758
26	0x3d7d94e2	0.061909564
27	0x3c323796	0.0108775105
28	0x3d93fa71	0.07225502
29	0xbd98435f	-0.07434725
30	0x3e14e606	0.14540872
31	0xbd603deb	-0.05474655
32	0x3e1b6285	0.15174301
33	0x3da0f61c	0.07859442
34	0x3b648ca5	0.003487387
35	0x3db6f47b	0.0893335
36	0x3bf7ea37	0.0075657624
37	0x3d8b381a	0.0679781
38	0xbc94e3d3	-0.018175041
39	0xbd7ec38a	-0.0621982
40	0x3c4f358f	0.012647047
41	0xbd734e6e	-0.05940097
42	0x3b8192e8	0.00395428
43	0x3d1a0f7f	0.037612434
44	0xbc7c43d3	-0.01539703
45	0xbe0daf28	-0.13836348
46	0xbb77335b	-0.003771982
47	0xbcc925fb	-0.024554243
48	0x3d3b3f30	0.045714557
49	0xbd88f5d6	-0.066875145
50	0xbde864d4	-0.113473564
51	0xbd66ff5f	-0.056395885
52	0xbdf1fd84	-0.118159324
53	0x3d85d5a4	0.06534889
54	0x3bf06300	0.0073360205
55	0x3d07c4b3	0.03314657
56	0x3cf69400	0.030099869
57	0xbc09b950	-0.008405998
58	0x3da5249a	0.08063622
59	0xbdd85bcc	-0.10564384
60	0xbc9e0702	-0.019290451
61	0xbde4d87f	-0.11174106
62	0xba8059e2	-0.0009792412
63	0xbdc36459	-0.09540624
64	0xbd714793	-0.05890615
65	0xbdacd62e	-0.08439289
66	0x3d90cfff	0.07070922
67	0xbda5294d	-0.08064518
68	0xbda921dd	-0.08258412
69	0xbdcaf908	-0.0991078
70	0x3d817030	0.06320226
71	0x3a6b55d9	0.0008977331
72	0x3ddffeaa	0.10937245
73	0xbd7a887f	-0.06116533
74	0xbd63be8d	-0.055601645
75	0xbd199faf	-0.0375058
76	0xbd7e1302	-0.062029846
77	0x3c71e004	0.014762882
78	0xbcb0636b	-0.021531781
79	0x3d55186d	0.052025247
80	0xbd5aafb2	-0.053390212
81	0xbcc01f14	-0.02345232
82	0x3e0354ec	0.12825364
83	0xbc537967	-0.012907363
84	0x3d9285be	0.071544155
85	0xbd373092	-0.044724055
86	0x3d706bf2	0.058696695
87	0xbdb67512	-0.08909048
88	0xbd6bf48a	-0.057606257
89	0x3c716f52	0.0147360135
90	0xbcff6ece	-0.031180765
91	0xbdee96db	-0.11649867
92	0xbcf78133	-0.030212974
93	0xbcbc0ccd	-0.022955323
94	0xbe42cb65	-0.19022901
95	0xbe2d401d	-0.16918989
96	0x3bb94f0b	0.0056551746
97	0xbdfac1ac	-0.12243971
98	0xbdb90806	-0.090347335
99	0xbe0788bc	-0.13235754
100	0xbda21538	-0.079142034
101	0xbc206672	-0.00979005
102	0xbdd4f89f	-0.10398983
103	0xbe57aaf9	-0.21061315
104	0xbde9e006	-0.11419682
105	0xbe17318f	-0.14764999
106	0xbde61b47	-0.112356715
107	0xbd5c7859	-0.05382571
108	0xbdd69800	-0.104782104
109	0xbdd280b1	-0.10278452
110	0x3d8e70e7	0.06955128
111	0xbd2d8a80	-0.042368412
112	0xbd1534e6	-0.0364274
113	0xbe3e6cfe	-0.18596265
114	0xbe15a9e3	-0.14615588
115	0xbdb5d900	-0.0887928
116	0x39ccab0e	0.00039037358
117	0xbdb3191f	-0.08745026
118	0xbc178afb	-0.009249444
119	0xbccc82fb	-0.0249648
120	0x3cfca440	0.03084004
121	0xbd14cc16	-0.036327444
122	0xbc7bae54	-0.015361387
123	0xbdb919b7	-0.09038108
124	0xbdb7f0a6	-0.08981447
125	0xbda6fc73	-0.081536196
126	0xbd851e0b	-0.06499871
127	0xbe0424bc	-0.12904638
128	0x3d0e6522	0.034764417
129	0xbd9e210b	-0.07721146
130	0x3d8fbe44	0.07018712
131	0x3c792955	0.015207608
132	0xbe09d055	-0.13458379
133	0x3cd02347	0.025407447
134	0xbdbe4014	-0.09289566
135	0xbda70c19	-0.08156604
136	0xbdd2f8be	-0.1030135
137	0xbdcc5af9	-0.09978289
138	0x3d853d41	0.06505824
139	0x3c019210	0.007908359
140	0x3dab4959	0.08363599
141	0xbd432744	-0.04764487
142	0x3e2606aa	0.1621348
143	0x3bd334ad	0.0064454884
144	0x3d8a3f65	0.06750373
145	0x3d93c622	0.07215525
146	0x3d598181	0.05310202
147	0x3d2f5dbc	0.042814
148	0x3ce205ef	0.02759072
149	0xbe3c423a	-0.18384638
150	0xbd56116a	-0.0522627
151	0xbdf41f53	-0.11920037
152	0xbd87bba8	-0.066275895
153	0xbe0489b8	-0.1294316
154	0x3da14080	0.078736305
155	0xbde5fe2e	-0.112301216
156	0x3d0ab655	0.03386529
157	0xbb78ff6f	-0.0037994047
158	0xbcc04358	-0.023469612
159	0xbdffc622	-0.12488963
160	0x3da0b985	0.07847885
161	0x3d220789	0.039557967
162	0x3d7223da	0.059116222
163	0xbd5b4040	-0.05352807
164	0x3db019d1	0.08598674
165	0xbc2be521	-0.01049164
166	0xbd913534	-0.07090226
167	0x3db295ed	0.08720002
168	0x3d1cea7f	0.03830957
169	0xbd0720ff	-0.032990452
170	0xbd0d7a8c	-0.034540698
171	0xbc63a87d	-0.013895151
172	0x3c58ac9c	0.013224747
173	0xbdeb0d16	-0.11477105
174	0xbe178783	-0.14797787
175	0xbdae1646	-0.08500342
176	0xbdc875e3	-0.0978811
177	0x3d3f1045	0.046646375
178	0x3db8844a	0.09009607
179	0xbdfdc662	-0.12391354
180	0x3c8eba39	0.017422782
181	0x3d8c86b8	0.06861633
182	0x3d5e72c6	0.054308675
183	0x3b838bca	0.004014467
184	0x3dcdc9d8	0.10048264
185	0x3dac8921	0.08424593
186	0x3d5ab009	0.053390536
187	0xbcc199b1	-0.023632856
188	0xbd51719f	-0.05113375
189	0xbd05b7f8	-0.03264615
190	0xbdd6e0b2	-0.10492076
191	0xbe2d442a	-0.16920534
192	0x3d13f588	0.03612283
193	0x3cf7b412	0.030237231
194	0xbdb41302	-0.08792688
195	0xbdaa20f7	-0.08307069
196	0xbcd0e955	-0.025501886
197	0xbc6026c0	-0.013681114
198	0x3cb91b0d	0.022595907
199	0x3bc6da61	0.0060685133
200	0xbe2bfa30	-0.16794658
201	0xbe0521b3	-0.13001136
202	0x3c1ab56f	0.009442671
203	0xbcc10e6e	-0.02356645
204	0xbd1daf17	-0.038497057
205	0xbd8daec2	-0.06918098
206	0xbd555e20	-0.052091718
207	0xbdbb5d22	-0.09148623
208	0xbd3d72be	-0.046252005
209	0x3bb2cd4d	0.0054566027
210	0x3cb67fb4	0.02227769
211	0xbbb20036	-0.005432154
212	0xbe28ba45	-0.16477306
213	0xbe0638d0	-0.1310761
214	0xbda3a92f	-0.079912536
215	0x3d5a9564	0.053365126
216	0xbd250e52	-0.04029686
217	0xbd9b466e	-0.07581793
218	0x3cc332f2	0.023828004
219	0xbd47dd06	-0.04879477
220	0xbd7c7aed	-0.06164067
221	0x3de3e91c	0.111284465
222	0xbcfd7707	-0.030940546
223	0xbc04d8ea	-0.008108357
224	0xbddbeaee	-0.10738169
225	0x3db49158	0.088167846
226	0x3ddccdf8	0.10781473
227	0x3da3379b	0.0796959
228	0xbd1099b6	-0.03530284
229	0xbd9e6a59	-0.07735128
230	0xbdb08346	-0.086187884
231	0x3d70743d	0.058704603
232	0xbbf652ac	-0.0075171795
233	0x3cb7d486	0.022440206
234	0xbb9043e9	-0.004402627
235	0xbc3412b1	-0.0109907845
236	0xbc7466ce	-0.014917089
237	0xbdb3af89	-0.08773715
238	0xbdc9a540	-0.09845972
239	0xbdf36a8b	-0.11885556
240	0x3ccd9b25	0.025098393
241	0xbdc8fc97	-0.09813803
242	0xbd9b890d	-0.075945
243	0xbe04e7ae	-0.12979004
244	0xbdb9f9c9	-0.09080846
245	0xbe23a1d6	-0.15979704
246	0xbe235f5f	-0.1595435
247	0xbd40b109	-0.047043834
248	0xbdfd7053	-0.1237494
249	0xbc2d5d60	-0.010581344
250	0xbddefbe7	-0.1088789
251	0xbe0e25b6	-0.13881573
252	0xbd65f4f5	-0.056141812
253	0xbdbb5fdc	-0.09149143
254	0xbdbda608	-0.092601836
255	0xbe5a885f	-0.21341084

bn1.weight f4 [8]
0	0x3f970bff	1.1800536
1	0x3f90162c	1.1256766
2	0x3fb2c7cd	1.3967224
3	0x3f8f86e5	1.1213042
4	0x3f9e4cfc	1.2367244
5	0x3f6fcacc	0.9366882
6	0x3fa7e31e	1.3116186
7	0x3fc09f9e	1.5048711

bn1.bias f4 [8]
0	0xbd47d391	-0.04878575
1	0x3c98678f	0.018604068
2	0x3c206330	0.009789273
3	0x3d5423e1	0.05179203
4	0xbc2466f3	-0.010034311
5	0x3bb30bd8	0.0054640584
6	0x3d02e46e	0.03195613
7	0xbd5c493e	-0.053780787

bn1.running_mean f4 [8]
0	0xbad51fc8	-0.0016260082
1	0x3abeec51	0.0014566277
2	0x3977ed48	0.0002364415
3	0x3ac810ea	0.001526383
4	0x3aa8c89e	0.0012877171
5	0x3af926a3	0.0019008707
6	0x3acd0805	0.0015642649
7	0xb9d68f17	-0.0004092387

bn1.running_var f4 [8]
0	0x3f2dd3e3	0.6790144
1	0x3f217ab4	0.63077855
2	0x3f22fb3f	0.6366462
3	0x3f5d0f36	0.86351335
4	0x3f0fcf11	0.56175333
5	0x3f0502ec	0.51957583
6	0x3e969c07	0.29415914
7	0x3f275236	0.6535982

conv_depth.weight f4 [16, 1, 22, 1]
0	0x3ddb1612	0.10697569
1	0xbde5cfff	-0.11221313
2	0xbdb30bc7	-0.08742481
3	0xbe10d6a7	-0.14144383
4	0x3e20aed6	0.15691695
5	0xbe7bdbb4	-0.24595529
6	0x3e43e3e9	0.1912991
7	0xbde89bbb	-0.11357828
8	0xbd9f3ddd	-0.07775471
9	0x3e31c408	0.17359936
10	0x3c18ac50	0.009318426
11	0x3e0b7b06	0.13621148
12	0xbc0830ef	-0.008312448
13	0xbe5a775d	-0.21334596
14	0xbbb223da	-0.0054364027
15	0x3d9dfeee	0.077146396
16	0x3da3d697	0.07999914
17	0x3d8da642	0.06916477
18	0x3ce547db	0.027988365
19	0xbde92de9	-0.1138571
20	0xbd844d1c	-0.0646002
21	0x3e506084	0.20349318
22	0x3d84ee80	0.06490803
23	0xbcf6fa90	-0.030148774
24	0xbe17439c	-0.14771885
25	0x3d78a8fb	0.060708027
26	0xbde1ac9e	-0.11019252
27	0x3de91795	0.11381451
28	0xbddaba12	-0.10680021
29	0xbdb8f7c1	-0.0903163
30	0xbd6f001b	-0.05834971
31	0x3d3f5105	0.046708126
32	0x3e39281f	0.18081711
33	0xbc37a32f	-0.01120834
34	0x3d89d79f	0.067305796
35	0x3e64d911	0.2234843
36	0x3e393b7f	0.18089102
37	0xbe1001a3	-0.14063124
38	0xbe2d1d64	-0.16905743
39	0xbd55c21a	-0.052187063
40	0x3e164c69	0.14677586
41	0x3d9e5f97	0.07733076
42	0xbe2e2c01	-0.17008974
43	0xbdd9f424	-0.10642269
44	0xbe1a9058	-0.15094125
45	0xbd8eb6a1	-0.069684274
46	0x3cb3f77a	0.021968592
47	0x3e37efe4	0.17962605
48	0x3dcdff55	0.10058466
49	0x3e4085a7	0.18800984
50	0x3daa39b4	0.08311787
51	0xbda12af8	-0.07869524
52	0xbd311455	-0.04323228
53	0x3dbbb2d1	0.09164966
54	0xbd8ed121	-0.06973482
55	0xbd109235	-0.035295684
56	0xbe90289b	-0.2815598
57	0xbdbf59e7	-0.093433194
58	0xbd8897ca	-0.066695765
59	0xbdb5ddc5	-0.0888019
60	0xbdd63db3	-0.10460987
61	0x3e3b9cd1	0.1832154
62	0x3e0bb7d5	0.13644345
63	0xbe720059	-0.23632945
64	0xbe834b2b	-0.25643286
65	0x3e5f3600	0.21797943
66	0xbe6d4f36	-0.23174748
67	0xbdf23a95	-0.1182758
68	0x3d577ba8	0.052608162
69	0xbe40bcde	-0.18822047
70	0xbb3e0f47	-0.0029000805
71	0x3da7541c	0.081703395
72	0x3de4f6f3	0.11179914
73	0x3dcd95f3	0.10038366
74	0xbd0e0eae	-0.03468197
75	0x3d4b4173	0.049622964
76	0x3db94115	0.090456165
77	0x3d74e663	0.059790026
78	0x3d586808	0.052833587
79	0x3e53321c	0.20624584
80	0xbdc870ee	-0.09787165
81	0x3d55909b	0.05213986
82	0xbd89e8b0	-0.06733835
83	0xbdbe924a	-0.09305246
84	0x3c9b61f8	0.018967614
85	0xbe2924c8	-0.16517937
86	0x3de8b381	0.11362363
87	0xbe7d72a1	-0.24750759
88	0xbcd22d0b	-0.025656244
89	0x3d750850	0.05982238
90	0xbe6b254e	-0.2296345
91	0xbe2290b1	-0.15875508
92	0x3d745663	0.059652697
93	0xbc47ed4c	-0.012202572
94	0xbe728422	-0.23683217
95	0x3e083432	0.13301161
96	0x3df630ca	0.120210245
97	0xbd8c5f1d	-0.06854079
98	0x3dd7b9b6	0.105334684
99	0xbd252380	-0.04031706
100	0x3cc658f7	0.024212344
101	0x3ed9813f	0.4248142
102	0x3df00a73	0.11720743
103	0xbe52158b	-0.2051603
104	0xbb9f7957	-0.0048667598
105	0xbbfa683d	-0.0076418207
106	0xbda32e8e	-0.07967864
107	0x3d4c6820	0.04990399
108	0x3ca320c5	0.019913087
109	0xbd864e1d	-0.06557868
110	0xbde0ec40	-0.10982561
111	0xbe29d07d	-0.16583438
112	0x3da91f17	0.08257883
113	0xbc473a13	-0.012159842
114	0x3cd441ce	0.025910284
115	0x3d840c6c	0.06447682
116	0xbe629e70	-0.22130752
117	0xbe95b87d	-0.29242316
118	0xbd6d12b5	-0.05787917
119	0x3dc59286	0.09647088
120	0x3e0b02a8	0.13575232
121	0x3e2e8a67	0.17044984
122	0xbcc6eaee	-0.024281945
123	0xbc74065e	-0.014894096
124	0xbd3f00c4	-0.04663159
125	0x3d31ff2d	0.043456245
126	0xbe54e59f	-0.20790718
127	0xbe0aade7	-0.13542901
128	0x3e2f91ec	0.17145509
129	0xbe07291e	-0.13199279
130	0x3df7669d	0.12080119
131	0x3e38e51f	0.18056153
132	0xbe35f34c	-0.17768592
133	0xbd182fff	-0.037155148
134	0x3dbe6f3d	0.09298561
135	0xbd36d4c7	-0.044636514
136	0x3c02e0fa	0.007988209
137	0xbe1a482b	-0.15066592
138	0x3e28457d	0.16432758
139	0xbe04bd33	-0.12962799
140	0x3e24b731	0.16085507
141	0x3cbce764	0.023059554
142	0x3d3ee3af	0.046603855
143	0x3e02516f	0.12726377
144	0xbe1450ee	-0.14483997
145	0xbdd566c7	-0.10419994
146	0xbd48a330	-0.048983753
147	0x3e32d72f	0.17464899
148	0xbe07e8b1	-0.13272358
149	0x3d790b64	0.06080188
150	0xbe767392	-0.24067524
151	0x3de9298a	0.11384876
152	0x3e1e747e	0.15474126
153	0x3cbafcae	0.022825565
154	0x3e1713d8	0.14753664
155	0x3d9b6acb	0.075887285
156	0x3e875f69	0.2643998
157	0xbdbab403	-0.09116366
158	0xbdbf7243	-0.093479656
159	0x3bdbb04f	0.006704367
160	0x3d374b40	0.0447495
161	0x3dae15ae	0.08500229
162	0xbd7e731d	-0.0621215
163	0x3e458801	0.19290163
164	0xbd6b58f7	-0.05745789
165	0xbdd79c08	-0.105278075
166	0xbdfb087c	-0.12257478
167	0xbdeba8c3	-0.11506798
168	0x3dea0872	0.11427392
169	0xbd1a386c	-0.037651464
170	0xbe413544	-0.18867975
171	0xbc3c438c	-0.011490714
172	0x3c9d2482	0.019182447
173	0x3e398ef2	0.18120936
174	0xbe70f752	-0.23531845
175	0xba9d33dd	-0.0011993606
176	0xbe89754f	-0.26847312
177	0xbd1f3858	-0.038872093
178	0x3d949915	0.072557606
179	0x3e07deaf	0.13268541
180	0xbbd2aa20	-0.006428972
181	0xbd21892b	-0.039437454
182	0x3e058569	0.13039173
183	0x3e52bd94	0.20580131
184	0x3da1b9b8	0.07896751
185	0x3d305a22	0.043054707
186	0xbe2cedd7	-0.16887604
187	0x3e60a600	0.21938324
188	0x3e34740d	0.17622395
189	0xbd937d45	-0.07201628
190	0xbe46a3a9	-0.19398369
191	0xbe2e6034	-0.17028886
192	0x3d8ba46f	0.068184726
193	0xbd61d6e7	-0.055136587
194	0x3cf08307	0.029359354
195	0x3e0905f4	0.13381177
196	0xbe45c49b	-0.1931328
197	0x3e372658	0.1788572
198	0xbc1d93f5	-0.009617795
199	0x3d50f406	0.05101397
200	0x3e194fe0	0.14971876
201	0xbe45c51e	-0.19313475
202	0x3d6d7372	0.057971425
203	0x3c5a287f	0.013315319
204	0xba50543b	-0.00079471216
205	0xbe2506a3	-0.16115813
206	0xbc71dc31	-0.01476197
207	0xbd7aaadb	-0.061198097
208	0xbdcc9933	-0.09990158
209	0x3c201b84	0.009772185
210	0x3cc42cb7	0.023947103
211	0x3e8ac3c3	0.2710248
212	0x3c9cc155	0.019135157
213	0x3dc266e5	0.09492282
214	0x3ded9bca	0.1160198
215	0xbde3a0bc	-0.11114642
216	0xbded072a	-0.11573632
217	0x3c0dd169	0.008655884
218	0x3e8c2262	0.27369982
219	0xbee240fb	-0.441902
220	0xbdd27f61	-0.10278202
221	0x3ce70fe0	0.028205812
222	0x3d77d08c	0.06050162
223	0x3e0efe1f	0.13964127
224	0xbe744970	-0.23856139
225	0xbe6b1af0	-0.22959495
226	0x3e595247	0.21222793
227	0x3e3132c5	0.17304523
228	0x3d2c2ad7	0.042033043
229	0xbd91f0cc	-0.071260065
230	0xbd7eee4b	-0.062238973
231	0x3da653bb	0.08121439
232	0xbd17ed94	-0.037091807
233	0xbdfe8497	-0.12427633
234	0x3e0ef0ee	0.13959095
235	0xbe1ef031	-0.15521313
236	0xbe2e6975	-0.17032416
237	0x3de6bb91	0.11266244
238	0x3dd98bb8	0.10622352
239	0x3dd16dd2	0.10226025
240	0x3c7ba7b6	0.01535981
241	0x3e54326e	0.20722362
242	0x3e0cc1d2	0.13745812
243	0xbe28fe59	-0.16503276
244	0xbccbffc0	-0.024902225
245	0x3e166c82	0.1468983
246	0xbdddac54	-0.108238846
247	0x3e470186	0.19434175
248	0x3dfdb4b5	0.12387983
249	0x3cac5c35	0.021040061
250	0xbd1ae224	-0.03781332
251	0xbdf38b77	-0.11891835
252	0xbe9207fb	-0.28521714
253	0x3d0d5d36	0.03451272
254	0xbbaf36b1	-0.005347096
255	0xbe3d4e36	-0.18486866

bn2.weight f4 [16]
0	0x3f9834e7	1.1891145
1	0x3f8dfe05	1.1093146
2	0x3f815e28	1.0106859
3	0x3f90d2e6	1.1314361
4	0x3fb54737	1.4162358
5	0x3f9b1204	1.2114873
6	0x3f90b29b	1.1304506
7	0x3f7ed114	0.9953778
8	0x3fa11e29	1.2587329
9	0x3f8d5b50	1.1043491
10	0x3f7adc2b	0.979922
11	0x3f59786e	0.84949386
12	0x3fa4c967	1.2873963
13	0x3f862f70	1.0483227
14	0x3f9c4ce9	1.2210971
15	0x3fbef8de	1.4919698

bn2.bias f4 [16]
0	0xbed1feb8	-0.41014647
1	0xbe5f82e5	-0.21827276
2	0xbe6d3e10	-0.23168206
3	0xbead27ee	-0.33819526
4	0xbf2d8808	-0.6778569
5	0xbf152499	-0.5825897
6	0xbebedbb9	-0.3727701
7	0xbe92f9f4	-0.28706324
8	0xbf18a263	-0.5962278
9	0xbeb38869	-0.3506501
10	0xbe3b6e0f	-0.18303703
11	0xbe37db3f	-0.1795473
12	0xbed98b9b	-0.42489323
13	0xbe68d0b0	-0.22735858
14	0xbf1f7bfa	-0.6229855
15	0xbf2c8630	-0.67392254

bn2.running_mean f4 [16]
0	0xbafe781e	-0.001941446
1	0x3aa5b28b	0.0012641711
2	0xbbe82d79	-0.007085499
3	0xbba26856	-0.0049562855
4	0x381a8aa5	3.6845584e-05
5	0xbb60613a	-0.003423764
6	0xbb2e1842	-0.0026564752
7	0x3a2c1ff9	0.00065660436
8	0xbb3bba1d	-0.0028644868
9	0x3a8d39c5	0.0010774663
10	0x3abf28c9	0.0014584298
11	0xb983c8a3	-0.00025135753
12	0xb84cfa07	-4.8870246e-05
13	0x3b3a68db	0.0028443846
14	0x38e94e40	0.00011124881
15	0x3a99c50b	0.0011731697

bn2.running_var f4 [16]
0	0x3d42050c	0.047368094
1	0x3ca21e77	0.019789917
2	0x3e49e7d4	0.19717342
3	0x3ddfc685	0.109265365
4	0x3e2138e9	0.15744366
5	0x3f077d1e	0.5292529
6	0x3d1f7f32	0.038939662
7	0x3e0090bf	0.12555216
8	0x3dc42f00	0.09579277
9	0x3d2934c1	0.041310076
10	0x3e0c6769	0.13711323
11	0x3ce5dc6d	0.028059209
12	0x3d39e40d	0.0453835
13	0x3d8e50ab	0.0694898
14	0x3de62bc8	0.11238819
15	0x3e86db2d	0.26339093

conv_sep.0.weight f4 [16, 1, 1, 16]
0	0xbd4704b2	-0.048588462
1	0x3df43e9c	0.11926004
2	0x3e1ab901	0.15109636
3	0x3e32a2ea	0.1744496
4	0x3e815cfe	0.2526626
5	0x3dacee35	0.08443872
6	0x3dbf8537	0.093515806
7	0x3e33efa0	0.17571878
8	0x3e225978	0.15854442
9	0x3dc56877	0.09639066
10	0x3d2c1b02	0.042017944
11	0x3c26afed	0.01017378
12	0x3df34ffc	0.1188049
13	0x3d3fccba	0.0468261
14	0x3d973e08	0.073848784
15	0xbd900310	-0.07031834
16	0x3e8c313f	0.27381322
17	0x3e9a0183	0.30079278
18	0x3e3579e0	0.17722273
19	0x3e30b812	0.17257717
20	0x3e2ebb97	0.17063747
21	0x3e3e3fb4	0.18578988
22	0x3d639ed6	0.0555714
23	0xbdbb8341	-0.09155894
24	0xbe7bea34	-0.2460106
25	0xbdff6c23	-0.12471797
26	0xbcd45c9c	-0.025923066
27	0x3d9dbe42	0.077023044
28	0x3d3a9487	0.045551803
29	0x3d3018cc	0.0429924
30	0x3dc394c5	0.0954986
31	0xbd5d60cb	-0.054047387
32	0x3dc321e7	0.09527951
33	0x3d361829	0.044456635
34	0x3d7e9cec	0.06216137
35	0x3c8e6da2	0.017386261
36	0x3e85273d	0.260065
37	0x3e84887e	0.25885385
38	0x3e88cff3	0.26721153
39	0x3d8e5bbf	0.06951093
40	0x3d7ecf7f	0.062209602
41	0x3d696c87	0.056988265
42	0xbe356acc	-0.17716521
43	0x3d3ea29c	0.046541795
44	0x3d029593	0.031880926
45	0xbd37b41c	-0.0448495
46	0xbd823a0f	-0.0635873
47	0x3e36b9ff	0.1784439
48	0x3cc0da67	0.023541642
49	0x3d2c6146	0.042084955
50	0x3e13a579	0.14418592
51	0xbe42f403	-0.19038396
52	0xbe66b726	-0.22530803
53	0xbdf57116	-0.1198446
54	0xbe5312ec	-0.20612687
55	0xbe3ce48d	-0.1844656
56	0xbe88aa0f	-0.26692244
57	0xbd228928	-0.039681584
58	0xbe51ba9d	-0.20481344
59	0x3c5bc5ee	0.013413889
60	0x3e3edc63	0.18638758
61	0xbdb8e44c	-0.09027919
62	0xbdf94dbe	-0.12173031
63	0xbd3de424	-0.04636015
64	0xbe13591f	-0.14389466
65	0xbda619be	-0.08110379
66	0x3d45bfca	0.048278607
67	0xbdcaf27c	-0.099095315
68	0xbe23243e	-0.15931794
69	0xbe36d36b	-0.17854087
70	0xbdd5c728	-0.10438377
71	0xbd32ad69	-0.043622408
72	0xbdb8fc05	-0.09032444
73	0xbd42aed3	-0.047530007
74	0xbdbaceeb	-0.09121498
75	0xbdf1715c	-0.117892
76	0xbe546767	-0.2074257
77	0xbe393e2f	-0.18090127
78	0xbe48069f	-0.19533776
79	0xbe5251fb	-0.20539086
80	0xbda28f37	-0.07937472
81	0x3b79d0fc	0.003811895
82	0xbe381ea7	-0.17980443
83	0xbe41aa45	-0.18912609
84	0xbe7c5542	-0.24641898
85	0x3c58ad9d	0.013224986
86	0xbd8bce02	-0.06826402
87	0xbd80cac5	-0.06288675
88	0xbd6b4a0c	-0.057443663
89	0xbca8e0bb	-0.020614972
90	0xbd66b972	-0.0563292
91	0xbec74564	-0.38920128
92	0xbe91267e	-0.2834968
93	0xbdf89df9	-0.12139506
94	0x3cd61dde	0.026137289
95	0xbe3bee1a	-0.18352547
96	0xbe5f94c6	-0.21834096
97	0xbcc71fcf	-0.02430716
98	0xbdc61008	-0.096710265
99	0x3d0e3ccd	0.034725953
100	0x3cab5e9b	0.020919135
101	0x3e465c15	0.19371064
102	0x3df02e1c	0.11727545
103	0x3dab2917	0.08357447
104	0x3e0449cf	0.1291878
105	0x3d4b75a3	0.049672734
106	0x3e25033f	0.1611452
107	0x3e1e5f00	0.15465927
108	0x3e1c95f0	0.15291572
109	0x3c83a205	0.016068468
110	0x3e2f346b	0.1710984
111	0x3d5af354	0.053454712
112	0xbd8210c9	-0.06350858
113	0x3e0485e0	0.12941694
114	0x3e50120c	0.20319384
115	0x3e948ded	0.2901453
116	0x3e36237c	0.17786974
117	0xbc117da6	-0.008880055
118	0x3ddbd7f0	0.10734546
119	0x3e0ae542	0.13564017
120	0xbdfe3abe	-0.12413548
121	0xbd256923	-0.04038347
122	0xbe044c40	-0.12919712
123	0xbd66e1f0	-0.056367815
124	0x3d31ea0f	0.043436106
125	0x3c0e7472	0.008694755
126	0x3d741a89	0.05959562
127	0x3e02018e	0.12695906
128	0xbd60cf6b	-0.05488531
129	0xbe252738	-0.16128242
130	0x3d904738	0.07044834
131	0xbe08eb11	-0.1337092
132	0xbd7fb270	-0.06242603
133	0x3c35ad6d	0.011088711
134	0xbd902911	-0.07039083
135	0xbe467970	-0.19382262
136	0xbccaa873	-0.024738526
137	0xbe17d9ab	-0.14829127
138	0xbe2ce865	-0.16885526
139	0xbca1a096	-0.019729894
140	0xbe12b714	-0.14327651
141	0xbe164c78	-0.14677608
142	0xbe127f4b	-0.14306371
143	0xbe20d4d1	-0.15706183
144	0xbdb0044b	-0.08594569
145	0xbdb106ce	-0.08643876
146	0x3d52512f	0.051346954
147	0xbe0135ca	-0.12618175
148	0xbe19613b	-0.14978497
149	0xbd8f7d34	-0.070063025
150	0xbcba31dd	-0.022728855
151	0x3dc14185	0.09436325
152	0xbdbbc930	-0.09169233
153	0x3dacc0ec	0.084352344
154	0x3d917185	0.0710173
155	0x3baa3f07	0.0051955017
156	0xbe8cccaf	-0.2749991
157	0xbe853892	-0.26019722
158	0xbea6a71c	-0.3254937
159	0xbe8595ec	-0.26090944
160	0x3dcc7b81	0.09984494
161	0x3dab4c0e	0.08364116
162	0x3e24228b	0.16028802
163	0xbe042140	-0.12903309
164	0xbd0660f0	-0.03280729
165	0xbe4f41d0	-0.20239949
166	0xbca2a68e	-0.01985481
167	0xbe5e6172	-0.2171686
168	0xbd9d555d	-0.076822974
169	0xbe06bfe9	-0.13159145
170	0x3d3a1830	0.045433223
171	0x3e844f9c	0.25841987
172	0x3e1b0ed5	0.15142377
173	0xbc702c5f	-0.014659016
174	0x3cbb9fa6	0.022903275
175	0xbc3c5827	-0.0114956265
176	0xbe220c49	-0.15824999
177	0x3d9cfa79	0.07664961
178	0xbd6fb30a	-0.058520354
179	0xbd35405c	-0.04425083
180	0xbdb02030	-0.08599889
181	0xbcb40c7a	-0.021978606
182	0x3e2fa98d	0.17154522
183	0x3e66446e	0.22487041
184	0x3e5bcf3f	0.21465777
185	0x3d45eb73	0.048320245
186	0x3e89e595	0.2693297
187	0x3dd90057	0.10595768
188	0xbd389a6e	-0.04506915
189	0xbd868cee	-0.06569849
190	0x3dd94f00	0.10610771
191	0xbd9859c8	-0.074389994
192	0xbda482a8	-0.08032733
193	0xbdba4841	-0.090958126
194	0xbac73a03	-0.0015199784
195	0xbd17add9	-0.03703103
196	0x3cf31800	0.02967453
197	0x3e8f3248	0.2796805
198	0x3e7db070	0.24774337
199	0x3e88a735	0.2669007
200	0x3d5ba98d	0.053628493
201	0x3e696911	0.22793986
202	0x3dadda84	0.08488944
203	0x3e7b4629	0.24538483
204	0x3de5f147	0.112276606
205	0x3e0afc66	0.13572845
206	0x3ddb7b81	0.10716916
207	0x3da9c72c	0.08289942
208	0x3dadca6f	0.08485877
209	0x3d479031	0.048721496
210	0xbe154197	-0.14575802
211	0xbcdb6897	-0.02678327
212	0xbe1268a0	-0.14297724
213	0xbd9ee68c	-0.07758817
214	0xbe1efec9	-0.1552688
215	0xbe5aa8c5	-0.21353443
216	0xbe9edf5f	-0.31029794
217	0xbe5f3383	-0.21796994
218	0xbe2a1db4	-0.16612893
219	0xbe02e7a9	-0.12783684
220	0xbb4e5890	-0.0031485893
221	0xbba23bf2	-0.0049509937
222	0xbd693b14	-0.056941107
223	0x3df74c7e	0.120751366
224	0x3e0b7478	0.13618648
225	0xbd936c70	-0.07198417
226	0x3dcf234f	0.101141565
227	0x3e12552c	0.14290303
228	0xbd7fe51c	-0.062474355
229	0x3e1a2258	0.15052164
230	0x3ea3cbc2	0.31991392
231	0x3e226ea1	0.15862514
232	0xbc43d8e2	-0.011953564
233	0x3e580293	0.21094732
234	0x3e0583bc	0.13038534
235	0x3dc47973	0.09593477
236	0xbdbeaad0	-0.09309924
237	0x3e53390b	0.20627229
238	0x3d7c3bae	0.061580352
239	0x3e9ce351	0.3064218
240	0x3de113d1	0.10990108
241	0x3e24c982	0.16092494
242	0x3df02ee6	0.11727695
243	0x3e06d73a	0.1316804
244	0x3e27ff3b	0.16405956
245	0x3e73fc56	0.23826727
246	0x3cd8b8a7	0.026455237
247	0xbe02b116	-0.12762865
248	0xbd03701b	-0.032089334
249	0x3e2bf4e8	0.16792643
250	0x3dbf9a8e	0.09355651
251	0x3e2dc3ee	0.16969272
252	0x3d7d3e2c	0.06182687
253	0x3e68dc9e	0.22740409
254	0x3e501db4	0.20323831
255	0x3e1ce8bc	0.15323156

conv_sep.1.weight f4 [16, 16, 1, 1]
0	0xbd59678d	-0.05307727
1	0xbe9af2ff	-0.30263516
2	0xbd46f359	-0.04857192
3	0xbe68310f	-0.22674964
4	0x3e3bf1fe	0.18354031
5	0xbe6849d9	-0.2268442
6	0x3e0394f7	0.12849794
7	0x3e816f2d	0.25280133
8	0x3c84ea20	0.01622492
9	0x3d465482	0.048420437
10	0xbe888994	-0.26667464
11	0x3e127284	0.14301497
12	0xbda7a201	-0.08185197
13	0xbdc78659	-0.09742422
14	0x3e1099df	0.14121197
15	0xbe3abac6	-0.18235311
16	0xbb485cbb	-0.003057285
17	0x3e8567d1	0.26055768
18	0xbdc135af	-0.094340675
19	0xbd9073f4	-0.07053366
20	0x3cff6bcf	0.031179337
21	0xbd2ba857	-0.04190859
22	0x3d3b84d1	0.04578096
23	0xbe2c4201	-0.16822053
24	0x3d66e31d	0.056368936
25	0xbe337791	-0.1752608
26	0xbde9a254	-0.11407915
27	0xbe31b012	-0.17352322
28	0x3decc1d9	0.11560411
29	0x3dbbd708	0.09171873
30	0xbe3e7815	-0.18600495
31	0x3e95dd23	0.29270276
32	0x3df1079b	0.11769029
33	0x3bce29e3	0.0062916144
34	0xbd910837	-0.07081645
35	0xbc26601f	-0.010154753
36	0x3e9385c7	0.28813002
37	0x3e316370	0.17323089
38	0xbd85f75a	-0.06541319
39	0x3e1bb460	0.15205526
40	0x3e08da7b	0.13364594
41	0xbcaa9d87	-0.020827068
42	0x3e442870	0.1915605
43	0xbbc46502	-0.0059934864
44	0xbe8e3f2a	-0.27782565
45	0x3e637cc2	0.2221556
46	0xbcbdaf9b	-0.023155024
47	0x3defade9	0.117030926
48	0xbcb9c5c4	-0.02267731
49	0xbd06cae4	-0.032908335
50	0xbd9d20ca	-0.0767227
51	0x3cdabbaa	0.026700813
52	0xbe76dace	-0.24106905
53	0x3cf38e12	0.02973083
54	0x3e54e2ad	0.20789595
55	0x3dfd48f3	0.123674296
56	0x3e606c74	0.21916372
57	0x3dad649d	0.08466456
58	0x3e25b34a	0.16181675
59	0x3be65af7	0.007029887
60	0xbd052a55	-0.032511074
61	0x3d693ac6	0.056940816
62	0x3b1fb704	0.002437056
63	0xbe2fa03a	-0.17150965
64	0xbdcfab4b	-0.101400934
65	0xbe18170d	-0.14852543
66	0xbd29f53c	-0.04149364
67	0xbd47fd85	-0.04882576
68	0xbd045bad	-0.03231399
69	0x3dd99d07	0.10625654
70	0xbde165e3	-0.110057615
71	0x3e40ff1e	0.1884732
72	0x3e062899	0.13101424
73	0xbe7f372a	-0.24923387
74	0xbe0c4a18	-0.1370014
75	0xbe35bdc8	-0.17748177
76	0xbd11cc93	-0.035595488
77	0xbe0be77f	-0.13662528
78	0x3c692923	0.014230999
79	0xbdfff698	-0.12498206
80	0xbd9c1273	-0.076207064
81	0xbd93abdb	-0.07210513
82	0xbd85d655	-0.06535021
83	0x3e813b69	0.2524064
84	0xbdc7a7ed	-0.09748826
85	0xbe08d8ea	-0.13363996
86	0x3db00d88	0.08596331
87	0xbcba2778	-0.022723898
88	0x3e370e05	0.17876442
89	0x3e1e1c9d	0.15440603
90	0x3e560ab1	0.20902516
91	0xbe6f712e	-0.23383018
92	0x3d456cb2	0.048199363
93	0x3ead0e27	0.3379986
94	0xbe0271b4	-0.12738687
95	0x3e5f705a	0.21820202
96	0x3e3959e6	0.181007
97	0x3d2619c7	0.040551927
98	0xbe15f4fd	-0.14644237
99	0xbbc3df09	-0.0059775156
100	0xbe03bb00	-0.12864304
101	0x3dc79c11	0.09746564
102	0xbd93c84f	-0.0721594
103	0xbe31f04c	-0.17376822
104	0x3e477e2e	0.19481727
105	0xbe69ef47	-0.22845183
106	0x3e971f98	0.29516292
107	0x3e48ece5	0.19621618
108	0xbc08e643	-0.00835568
109	0xbdd8cdc7	-0.10586124
110	0xbc86204b	-0.01637282
111	0x3e2b54ac	0.16731519
112	0x3c945efe	0.018111702
113	0x3e21d5d9	0.15804233
114	0x3e8d43bc	0.2759074
115	0xbdc75d22	-0.097345605
116	0xbd97a1e6	-0.074039266
117	0xbd76f042	-0.06028772
118	0xbc7c298f	-0.015390768
119	0x3e40b190	0.18817735
120	0x3d0a089e	0.033699624
121	0xbccc9137	-0.024971588
122	0x3dcb89b5	0.09938375
123	0x3c1728e6	0.00922606
124	0x3e09ae4f	0.134454
125	0xbd86e005	-0.06585697
126	0xbe19eae9	-0.15031017
127	0xbdc36005	-0.09539799
128	0xbd4971c6	-0.04918077
129	0xbc967e63	-0.018370813
130	0xbe07f1df	-0.1327586
131	0xbe8aa0b9	-0.27075747
132	0xbdceb908	-0.10093886
133	0xbd6e34d6	-0.058155857
134	0xbe7b1438	-0.24519432
135	0x3d888b07	0.06667142
136	0xb9bf3f59	-0.00036477557
137	0x3e52caa0	0.20585108
138	0x3c431614	0.011907119
139	0xbe5fc1c4	-0.2185126
140	0x3dc42e54	0.09579149
141	0x3d9d1e3e	0.07671784
142	0xbd0bcb3b	-0.034129363
143	0xbe57c7ea	-0.21072355
144	0x3e9871b0	0.29774237
145	0x3e2a0d30	0.16606593
146	0xbddf57db	-0.10905429
147	0x3e1b77c3	0.15182404
148	0xbd210e87	-0.039320495
149	0xbe756d27	-0.2396742
150	0x3d2d11a0	0.042253137
151	0x3e2f3ba9	0.17112602
152	0xbdb1b1a8	-0.08676463
153	0x3e0ce852	0.13760498
154	0xbe98daad	-0.29854336
155	0x3e14406f	0.14477704
156	0x3e443678	0.19161403
157	0x3ca1517c	0.019692175
158	0x3d9addc4	0.0756183
159	0x3dc5de24	0.096615106
160	0x3c97be6b	0.018523416
161	0x3d843ddd	0.06457112
162	0xbe269c4c	-0.1627056
163	0xbdeefd75	-0.11669437
164	0xbe52351c	-0.20528072
165	0x3e590ea1	0.21196987
166	0x3e4f4ebf	0.20244883
167	0xbe9b791c	-0.30365837
168	0x3d67cbe1	0.05659092
169	0x3d3ed4fa	0.04658983
170	0x3e24ceba	0.16094485
171	0xbc33dafb	-0.010977502
172	0x3e2b2aba	0.16715518
173	0xbe77e52d	-0.24208517
174	0x3e782763	0.24233775
175	0x3e23a19e	0.15979621
176	0xbe450261	-0.19239189
177	0xbe5535e6	-0.20821342
178	0x3dc09d19	0.09404964
179	0x3e78f076	0.24310479
180	0xbe16febb	-0.1474561
181	0x3e47953e	0.19490525
182	0xbd27efe6	-0.04100027
183	0x3d105457	0.035236683
184	0xbe4e73f1	-0.20161416
185	0x3d3c8a80	0.04603052
186	0x3d1204c6	0.035649084
187	0x3d8c8c0a	0.06862648
188	0x3cb5ab2c	0.022176348
189	0xbbc71ebe	-0.006076663
190	0x3e9ea3b6	0.30984277
191	0x3e050191	0.12988879
192	0x3e396fb1	0.18109013
193	0xbdc60c4c	-0.09670314
194	0x3e2243a3	0.15846114
195	0xbd80cdfe	-0.0628929
196	0xbb3df852	-0.0028987122
197	0x3d174e6e	0.03694003
198	0xbdb07a43	-0.086170696
199	0x3d458e76	0.048231564
200	0xbde1665f	-0.11005854
201	0x3e2c8ffc	0.168518
202	0xbd7c7326	-0.06163325
203	0x3e2b4745	0.16726406
204	0xbe649872	-0.22323778
205	0xbe112c16	-0.14176974
206	0x3e0695b9	0.13143052
207	0x3e8ff73f	0.2811832
208	0xbe17d87d	-0.14828677
209	0x3c85ba72	0.016324256
210	0xbe3432d6	-0.17597517
211	0x3e1ec642	0.15505317
212	0x3e778666	0.24172363
213	0x3e287982	0.16452602
214	0xbe172c8f	-0.14763092
215	0x3e280c00	0.16410828
216	0x3de8b495	0.11362568
217	0xbd66212e	-0.056183986
218	0x3e6dee9d	0.23235555
219	0xbdd28690	-0.10279572
220	0xbe07a416	-0.13246188
221	0xbc935988	-0.017987028
222	0x3cc103b3	0.023561334
223	0x3e185ee1	0.14879943
224	0x3d54b0f5	0.051926572
225	0xbe5f342d	-0.21797247
226	0xbd8b0355	-0.06787745
227	0x3d8b185c	0.067917556
228	0xbe2fa570	-0.17152953
229	0x3c6c7cf7	0.014434091
230	0x3e279a35	0.16367419
231	0xbc8f8d63	-0.017523473
232	0xbdd58240	-0.10425234
233	0x3d50c0a6	0.050964974
234	0x3e2486a2	0.16066983
235	0xbdb18ce3	-0.0866945
236	0xbe332a2c	-0.17496556
237	0x3ddf21b4	0.108951
238	0x3d731ebd	0.059355486
239	0xbe2386cd	-0.15969391
240	0xbe6764ab	-0.22596996
241	0x3d922bc9	0.071372576
242	0xbe034f1b	-0.12823145
243	0x3cc19bd1	0.02363387
244	0x3daf3f5b	0.08557006
245	0xbdd87d24	-0.10570744
246	0xbdec6d67	-0.11544304
247	0xbe160e5a	-0.14653912
248	0x3e3f25cf	0.18666767
249	0x3e3152e7	0.17316781
250	0xbce11960	-0.02747792
251	0x3e6aefb7	0.22943006
252	0xbd82f53d	-0.06394432
253	0xbec654cc	-0.3873657
254	0x3e10c53a	0.14137736
255	0x3d292639	0.041296218

bn3.weight f4 [16]
0	0x3fc70db9	1.5551063
1	0x3fb33549	1.4000636
2	0x3fb02fb7	1.3764561
3	0x3fa71884	1.3054357
4	0x3fbd3399	1.4781371
5	0x3fa6c45e	1.3028677
6	0x3fa6181c	1.2976108
7	0x3faef644	1.3668904
8	0x3fb014b3	1.3756317
9	0x3fa71a8d	1.3054978
10	0x3f9d9364	1.2310605
11	0x3f991c38	1.1961737
12	0x3f9fdb4d	1.24888
13	0x3fa7e797	1.3117551
14	0x3fbf0c76	1.4925678
15	0x3faba45a	1.3409531

bn3.bias f4 [16]
0	0x3d123770	0.0356974
1	0x3db3f538	0.08787006
2	0xbc0ae09e	-0.0084764045
3	0x3d88fa3a	0.06688352
4	0x3d3db8bb	0.04631875
5	0x3e006f01	0.12542345
6	0x3d3cedff	0.04612541
7	0x3dd99473	0.106240176
8	0x3e0b4542	0.13600639
9	0x3c481c4b	0.012213777
10	0x3cdfccca	0.02731933
11	0x3daa995a	0.08330031
12	0x3d290d22	0.04127229
13	0x3cc03c7f	0.023466347
14	0x3dd16941	0.10225154
15	0xbc1b7718	-0.009488843

bn3.running_mean f4 [16]
0	0xbd08eecf	-0.03343087
1	0xbcb72295	-0.022355357
2	0x3e2a6664	0.16640621
3	0x3ce31070	0.027717799
4	0x3d933786	0.07188325
5	0xbca2cef1	-0.019874068
6	0xbcd82a01	-0.026387217
7	0x3c80cd22	0.015722815
8	0x3d0434c6	0.03227689
9	0xbe4a3fab	-0.1975085
10	0xbe02fbdc	-0.12791389
11	0xbe17c0bc	-0.14819616
12	0xbdff9f9f	-0.12481617
13	0x3e16ea7a	0.14737883
14	0xbd451e40	-0.04812455
15	0x3d3e3276	0.046434842

bn3.running_var f4 [16]
0	0x3e312fa5	0.17303331
1	0x3e12d37f	0.14338492
2	0x3df0f35c	0.11765167
3	0x3d7c8155	0.061646778
4	0x3dd0a4b8	0.101876676
5	0x3e03cfde	0.12872264
6	0x3e0e44c5	0.13893421
7	0x3da55634	0.080730826
8	0x3ddac2bb	0.10681673
9	0x3e1c4a93	0.15262823
10	0x3e2bdd53	0.16783647
11	0x3de695f2	0.112590685
12	0x3dd726e2	0.10505463
13	0x3decd883	0.11564734
14	0x3da0c468	0.078499615
15	0x3dc03d8e	0.093867406

eca.conv1d.weight f4 [1, 1, 3]
0	0x3fb344fd	1.4005429
1	0x3f418b36	0.75603044
2	0x3f7781f7	0.96682686

classifier.weight f4 [4, 560]
0	0xbc9a38f1	-0.01882598
1	0x3d543506	0.05180838
2	0xbd979b3f	-0.07402658
3	0x3da76568	0.081736386
4	0x3dc9de17	0.098568134
5	0x3dbaad89	0.091151305
6	0xbe409d51	-0.18810011
7	0x3cb8951f	0.022532044
8	0xbd3aeb34	-0.045634463
9	0x3bc3d4be	0.0059762886
10	0xbbe67676	-0.0070331646
11	0x3ba0bd8e	0.004905409
12	0xb89c8b41	-7.464598e-05
13	0x3d059502	0.032612808
14	0xbdea2393	-0.114325665
15	0xbd4e917b	-0.05043171
16	0xbc92200d	-0.017837549
17	0x3cf2cb92	0.029638086
18	0xbdd0c0c8	-0.1019302
19	0xbdbfe92f	-0.09370648
20	0xbddb27e1	-0.10700966
21	0xbd737972	-0.05944199
22	0x3bc61ba4	0.0060457755
23	0x3d46de31	0.048551742
24	0xbd5b9aa4	-0.053614274
25	0x3cf062f8	0.029344067
26	0x3cef1309	0.029183881
27	0x3d39b482	0.04533816
28	0x3db081df	0.08618521
29	0xbcda9fa6	-0.026687454
30	0xbdc62a31	-0.09676016
31	0x3e1cd1e6	0.15314445
32	0xbdd9b052	-0.106293336
33	0x3dd5c0d2	0.10437168
34	0xbc469d2b	-0.012122433
35	0x3e022177	0.12708078
36	0x3c796493	0.015221733
37	0xbd4963d4	-0.04916747
38	0x3e3134c2	0.17305282
39	0xbdb8776c	-0.09007153
40	0xbca75e71	-0.020430775
41	0xbbdb57e8	-0.006693829
42	0x3bc8b594	0.0061251614
43	0x3e85cd41	0.2613316
44	0x3e0c1954	0.13681537
45	0x3d42c77e	0.04755353
46	0x3e27f1f3	0.1640089
47	0x3da2864c	0.07935771
48	0x3dedd6c5	0.1161323
49	0x3d5fd01d	0.05464183
50	0x3d8ca1c6	0.06866793
51	0xbe1da571	-0.15395142
52	0x3e1cdb3f	0.15318011
53	0xbbfee72a	-0.0077790217
54	0x3d88b39e	0.06674884
55	0x3cbd514f	0.02311006
56	0x3e14dc07	0.14537059
57	0x3db0c53e	0.08631371
58	0xbbdb2e5a	-0.006688875
59	0x3d232ec7	0.039839532
60	0xbaef32b7	-0.0018249367
61	0xbc03b12b	-0.008037846
62	0xbc0816a3	-0.008306178
63	0xbd086a29	-0.033304367
64	0xbcdd0c3d	-0.026983375
65	0x3d61eb3e	0.055155985
66	0x3cdebc34	0.027189352
67	0xbcec2405	-0.02882577
68	0x3d1ee6c6	0.0387943
69	0x3d13021c	0.035890684
70	0x3b93f747	0.0045155617
71	0x3ac8ab58	0.0015309853
72	0x3d1b39e0	0.03789699
73	0xbccd2b96	-0.025045197
74	0x3cf3a591	0.029742034
75	0xbe19d2a4	-0.1502176
76	0x3decc2dd	0.11560605
77	0x3d98ae27	0.07455092
78	0xbe166e20	-0.14690447
79	0x3d7f2967	0.062295344
80	0x3dad6500	0.0846653
81	0xbe148296	-0.1450294
82	0xbc6fae79	-0.014629
83	0x3df05dfb	0.11736675
84	0xbdcccfb1	-0.100005515
85	0xbd23aa34	-0.03995724
86	0x3bb33163	0.005468534
87	0xbe1c60f1	-0.15271355
88	0x3d151d13	0.03640468
89	0x3d1d9434	0.038471416
90	0xbb0f4cb0	-0.0021865778
91	0xbd52c8a7	-0.05146089
92	0x3d580020	0.052734494
93	0x3c0fe2ab	0.008782069
94	0xbcdd0d79	-0.026983963
95	0x3d79d0f5	0.060990293
96	0x3cbdf048	0.023185864
97	0xbb7c3cf6	-0.0038488484
98	0xbc1c6b03	-0.009546998
99	0xbd85a05a	-0.06524725
100	0xbd161e9c	-0.036650285
101	0xbdc46a1f	-0.095905535
102	0x3da7ec98	0.081994236
103	0xbde07088	-0.10958964
104	0x3dfedf62	0.12444951
105	0xbd4711fb	-0.048601132
106	0x3d3a9dd0	0.045560658
107	0xbd8e52d7	-0.06949394
108	0xbcff536a	-0.031167705
109	0xbe031047	-0.12799178
110	0xbdddf9ee	-0.10838686
111	0xbdc34da4	-0.09536293
112	0x3babce0e	0.0052430695
113	0xbe1633f0	-0.1466825
114	0x3be86fe6	0.0070934175
115	0x3d665f7e	0.056243412
116	0x3ceaec06	0.028676998
117	0xbcea8558	-0.028628036
118	0x3daf3c82	0.08556463
119	0xbd91350d	-0.07090197
120	0x3d6350ce	0.055496983
121	0x3e0ce8cd	0.13760681
122	0xbe0abb92	-0.13548115
123	0x3dd86b43	0.105673335
124	0x3cbf5518	0.023356006
125	0x3e04865a	0.12941876
126	0xbd8fd918	-0.07023829
127	0x3c979233	0.01850233
128	0xbd876bd3	-0.06612363
129	0x3ce55586	0.027994882
130	0xbc48150e	-0.012212051
131	0x3d22ea07	0.039773967
132	0x3dfca214	0.123356014
133	0xbd78eb60	-0.060771346
134	0x3a995341	0.0011697785
135	0x3c299c17	0.010352156
136	0xbd8b6729	-0.068067856
137	0xbd70e878	-0.05881545
138	0xbde9ca4b	-0.114155374
139	0xbc1ae148	-0.009453125
140	0x3b8a7b18	0.0042260997
141	0xbd27f205	-0.041002292
142	0xbcdf412d	-0.027252758
143	0x3e115f86	0.14196596
144	0xbe8fa5f6	-0.28056306
145	0x3dcc6bbe	0.09981488
146	0x3dc24124	0.09485081
147	0xbd6fd9c8	-0.0585573
148	0x3e0aaa63	0.1354156
149	0xbdfa26d0	-0.12214434
150	0xbd494905	-0.049141902
151	0x3d380b23	0.044932496
152	0xbd54a5fa	-0.0519161
153	0x3dc86dbc	0.09786555
154	0xbc4ac01b	-0.012374903
155	0x3da30286	0.07959466
156	0xbb5a4ba0	-0.0033309236
157	0xbe3aeecc	-0.18255156
158	0xbdc9be58	-0.09850758
159	0xbdb4a8fb	-0.08821293
160	0x3a7cd7b5	0.000964518
161	0xbb1b83b0	-0.0023729615
162	0xbc9a90fd	-0.018867964
163	0x3c653172	0.013988839
164	0x3d178248	0.03698948
165	0xbbda5d0f	-0.0066639255
166	0x3ba31611	0.0049769958
167	0x3d986f03	0.07443049
168	0x3bc3de6a	0.0059774416
169	0xbd298168	-0.041383177
170	0xbdeb4944	-0.11488584
171	0x3d9462c2	0.07245399
172	0xbd8ac350	-0.06775534
173	0x3ba4a452	0.0050244713
174	0x3c684f08	0.014178999
175	0xbd23e8b2	-0.040016837
176	0xbd43eb37	-0.04783174
177	0xbd328a71	-0.04358906
178	0xbe177c2a	-0.14793459
179	0x3cb4a72d	0.022052372
180	0xbe2c57a0	-0.16830301
181	0x3e2ac4c1	0.16676618
182	0xbdfb0417	-0.122566395
183	0x3e115d22	0.14195684
184	0x3d9780d1	0.07397617
185	0x3db5accd	0.0887085
186	0x3df0b80c	0.11753854
187	0x3dd34400	0.10315704
188	0x3c927720	0.017879069
189	0x3d5eec4f	0.05442458
190	0x3d020c1f	0.03174984
191	0x3d51c27e	0.051210873
192	0x3da84c4f	0.0821768
193	0x3e084e9e	0.1331124
194	0x3d2ae6d0	0.041724026
195	0x3e000024	0.12500054
196	0x3d21f482	0.03953982
197	0x3d9b961b	0.0759699
198	0x3bbf2a63	0.0058339103
199	0x3dd77585	0.10520462
200	0x3dcdf3b0	0.10056245
201	0x3de3d8ff	0.11125373
202	0x387ccab8	6.027028e-05
203	0x3d9f7aab	0.07787069
204	0x3d26af93	0.040694784
205	0xba3482dd	-0.0006885955
206	0x3d7a907d	0.06117295
207	0xbb73ee23	-0.0037220798
208	0xbc9fbc30	-0.019498914
209	0x3b88759a	0.00416441
210	0x3d86dc95	0.065850414
211	0xbcfd7f16	-0.030944388
212	0x3d72e7be	0.059303038
213	0x3e251d73	0.16124515
214	0xbe5d6645	-0.21621044
215	0x3e2de9fd	0.1698379
216	0xbd6c69cc	-0.057718083
217	0x3d80c23e	0.06287049
218	0x3d8d5da1	0.06902624
219	0xbbd38645	-0.006455215
220	0x3cf2a00f	0.029617338
221	0xbd484974	-0.048898175
222	0x3bbb0cdd	0.0057083205
223	0x3d729bd2	0.059230633
224	0x3da92561	0.082590826
225	0xbd0e7467	-0.03477898
226	0x3d8ffc73	0.07030573
227	0xbcc948f2	-0.024570916
228	0x3d61fb8a	0.055171527
229	0xbcdeee24	-0.027213164
230	0xb9f19cec	-0.00046084018
231	0x3d18f2af	0.037340816
232	0x3d687bfb	0.056758862
233	0x3c914c7e	0.01773667
234	0x3ccac568	0.024752334
235	0xbceeb4ef	-0.02913901
236	0x3d76afd5	0.06022628
237	0x3cdc981c	0.026928
238	0xbc68cab0	-0.014208481
239	0x3d37e03d	0.044891585
240	0x3dd26865	0.10273818
241	0xbd8497ac	-0.064742416
242	0xbca539c4	-0.020169146
243	0x3be6bbf3	0.0070414483
244	0xbd241505	-0.04005911
245	0x3d837cfe	0.06420325
246	0xbd7ac0a9	-0.06121889
247	0x3d9d1722	0.07670428
248	0x3bb978e4	0.0056601632
249	0x3de841ec	0.113406986
250	0xbd33b262	-0.04387129
251	0x3d16f14c	0.036851212
252	0xbc8df491	-0.017328532
253	0xbda74444	-0.081673175
254	0xbd04d316	-0.03242787
255	0x3c9a6dc1	0.018851163

classifier.bias f4 [4]
0	0x3d2347f0	0.039863527
1	0xbb0f9e2d	-0.0021914348
2	0xbd8f0f34	-0.06985322
3	0x3db78b7a	0.0896215
