result_eegnetsca_cv5/fold_2/best_model_fold2.pth (torch, 23812 bytes, 20 tensors)

conv_time.weight f4 [8, 1, 1, 64]
0.10449976 0.09102293 0.10998191 -0.044192106 0.0987474 0.1514285 0.06047741 0.028005263
0.1695699 0.093064256 0.08750856 0.060603827 0.11730954 -0.006793628 0.18354037 0.092494026
0.11349159 0.11267868 0.092813075 -0.053120732 0.096623786 0.06343855 0.14243071 0.05295517
0.06505507 0.02976168 -0.05455316 0.101947695 0.10206494 0.011804887 -0.07197707 0.08938117
-0.007724224 -0.0500846 0.044656 -0.10090041 0.0059456876 0.013731393 0.06522536 -0.032853156
-0.13290803 0.04578963 0.027310796 -0.07623523 0.023767008 -0.06553929 0.09204298 0.0056449953
-0.064889915 0.056976996 -0.07897549 0.050332908 0.050652195 -0.1491871 -0.11968748 0.058422234
-0.084878616 0.04473762 0.07441759 0.010560377 -0.06087549 -0.012847848 -0.005143031 0.028754177
0.17077212 0.04516569 0.017845284 -0.06391256 -0.06313956 -0.075742625 0.012920341 0.039428424
-0.035738017 0.13333352 0.114088625 0.046023354 -0.10684409 0.081675984 -0.12461349 0.0009029353
-0.09771237 0.012112516 -0.015913935 0.055110972 0.05025952 0.032020446 0.1465066 0.21782614
0.049363736 -0.0363597 0.03488067 -0.13315795 -0.07728167 -0.037676543 -0.07795478 0.03686774
0.09840831 0.13363115 -0.04486077 -0.06520159 0.041317493 -0.104783766 -0.09370836 0.13176984
0.13308142 -0.012949202 -0.00738199 -0.028094942 0.10183639 -0.0902264 -0.00949351 0.055986904
0.06245332 0.09121361 -0.09592994 -0.09284555 0.057588164 -0.13709418 -0.06479511 0.12864815
0.10145384 0.09238431 -0.08640147 0.03710608 0.00892477 -0.0040538264 -0.036108885 0.08586058
-0.04140631 0.034338374 -0.07504176 -0.13587844 0.0309039 -0.04285027 -0.08747893 0.03483689
0.119779505 0.020140307 -0.012019922 -0.016504224 0.03363948 -0.034923255 0.121337555 -0.03885529
0.13537717 0.0136531675 -0.0033114732 -0.040808227 -0.0015260171 0.09822656 -0.03796143 0.033629037
0.026939748 -0.019285018 0.11610472 0.05508085 -0.014271056 -0.046873815 0.1269891 0.07792994
0.09967412 0.10320021 0.12251863 -0.013594078 0.049201034 0.15808348 0.1943777 0.113141894
0.096281886 0.12503181 0.11572521 -0.02188852 0.15856023 0.05756025 0.08970987 0.10687002
0.054951992 0.09812637 0.11362163 -0.07792703 0.07250032 -0.078132026 0.07672427 -0.0008346584
0.11983761 0.04696121 -0.029384084 -0.06845685 0.01096978 0.089949206 -0.034969546 0.10589605
0.090818204 0.015975198 -0.012664784 -0.07979759 0.014194248 -0.033168152 0.047089733 -0.0045141345
-0.024568649 -0.0055219736 -0.054426022 -0.06255196 -0.041804183 0.0025859654 0.026851289 0.0571093
0.06404334 -0.092914216 0.010715905 0.030154273 0.08953863 -0.03900847 -0.106111474 -0.07761415
0.0055474564 -0.032658186 -0.069000825 -0.051401615 -0.124186546 -0.108574346 0.038618803 -0.115461394
0.038127884 -0.080165364 -0.07895639 0.0025794622 -0.04976322 -0.11676235 -0.010883863 -0.08088278
-0.09339689 0.0392561 -0.021838097 -0.08343938 0.07448971 0.069606006 0.0022857843 -0.07247306
-0.061938167 0.1617063 0.10313188 0.13878177 0.05209037 0.066204086 0.16151217 0.025744423
0.0021907538 0.17622732 0.16167904 0.03074248 0.10302308 0.048839256 -0.04527079 0.18002713
00000000: f803 d63d 3b6a ba3d 323e e13d c802 35bd
00000010: 143c ca3d 1310 1b3e 29b7 773d 4b6b e53c
00000020: bba3 2d3e 7998 be3d b037 b33d b83b 783d
00000030: fc3f f03d 159d debb 02f2 3b3e 826d bd3d
00000040: 476e e83d 14c4 e63d c814 be3d 2095 59bd
00000050: b1e2 c53d 12ec 813d 5bd9 113e 85e7 583d
00000060: 983b 853d c4ce f33c 2273 5fbd f4c9 d03d
00000070: 6c07 d13d 4969 413c b768 93bd 7a0d b73d
00000080: 7d1b fdbb 8225 4dbd 36e9 363d e0a4 cebd
00000090: 0bd4 c23b a3f9 603c e094 853d 0891 06bd
000000a0: 0b19 08be e88d 3b3d e4ba df3c 3721 9cbd
000000b0: 07b3 c23c 7739 86bd 0881 bc3d a7f9 b83b
000000c0: 01e5 84bd b660 693d e7bd a1bd e129 4e3d
000000d0: ad78 4f3d 81c4 18be b61e f5bd 274c 6f3d
000000e0: d7d4 adbd cb3e 373d 4068 983d 6e05 2d3c
000000f0: 9458 79bd c87f 52bc df86 a8bb e18d eb3c
00000100: e3de 2e3e a9ff 383d 4630 923c 97e4 82bd
00000110: 504f 81bd f31e 9bbd d7af 533c b37f 213d
00000120: 0762 12bd 9588 083e 4ca7 e93d fc82 3c3d
00000130: 13d1 dabd bd45 a73d 5c35 ffbd f6b2 6c3a
00000140: 6c1d c8bd 9373 463c f15d 82bc 0bbc 613d
00000150: eddc 4d3d df27 033d d305 163e d10d 5f3e
00000160: a131 4a3d e9ed 14bd 09df 0e3d 8f5a 08be
00000170: da45 9ebd b852 1abd c1a6 9fbd a102 173d
00000180: 4c8a c93d 9bd6 083e edbf 37bd 6988 85bd
00000190: 883c 293d df98 d6bd 2bea bfbd acee 063e
000001a0: 7f46 083e e428 54bc 9fe4 f1bb 5d27 e6bc
000001b0: 998f d03d 9ec8 b8bd ab8a 1bbc 8652 653d
000001c0: 0dcf 7f3d 33ce ba3d eb76 c4bd cf25 bebd
000001d0: 91e1 6b3d 6b62 0cbe 4cb3 84bd 57bc 033e
000001e0: 08c7 cf3d fc33 bd3d 41f3 b0bd 8cfc 173d
000001f0: 3339 123c f6d5 84bb e9e6 13bd acd7 af3d
00000200: aa99 29bd 65a6 0c3d 7faf 99bd b823 0bbe
00000210: 2d2a fd3c c483 2fbd 2728 b3bd 20b1 0e3d
00000220: f54e f53d 49fd a43c 35ef 44bc de33 87bc
00000230: 8dc9 093d b00b 0fbd d37f f83d b926 1fbd
00000240: 50a0 0a3e 89b1 5f3c 4d05 59bb 8726 27bd
00000250: a304 c8ba 022b c93d 727d 1bbd 9abe 093d
00000260: bfb0 dc3c 9dfb 9dbc 50c8 ed3d 759c 613d
00000270: 26d1 69bc c2fe 3fbd 6e09 023e bb99 9f3d
00000280: f221 cc3d a25a d33d 0ceb fa3d b2b9 5ebc
00000290: 0687 493d a3e0 213e f30a 473e f0b6 e73d
000002a0: 702f c53d 5708 003e 5701 ed3d 8e4f b3bc
000002b0: 9d5d 223e 4cc4 6b3d cfb9 b73d abde da3d
000002c0: 5715 613d 7af6 c83d 75b2 e83d 3598 9fbd
000002d0: 0c7b 943d af03 a0bd 9d21 9d3d facc 5aba
000002e0: 6c6d f53d 665a 403d e4b6 f0bc 1b33 8cbd
000002f0: 98ba 333c 4a37 b83d 3a3c 0fbd 07e0 d83d
00000300: e5fe b93d 6bde 823c f47f 4fbc eb6c a3bd
00000310: fe8e 683c 54db 07bd 2ae1 403d 4eeb 93bb
00000320: 3144 c9bc acf1 b4bb d2ed 5ebd 3e1b 80bd
00000330: dd3a 2bbd 4d79 293b 3cf7 db3c 71eb 693d
00000340: 2829 833d cf49 bebd c391 2f3c 1806 f73c
00000350: 0760 b73d 58c7 1fbd f950 d9bd 2bf4 9ebd
00000360: 70c7 b53b 97c4 05bd 4e50 8dbd 808a 52bd
00000370: 8455 febd 3a5c debd c02e 1e3d 0677 ecbd
00000380: fc2b 1c3d bd2d a4bd e3b3 a1bd 320c 293b
00000390: 85d4 4bbd 1921 efbd 3b52 32bc dfa5 a5bd
000003a0: de46 bfbd 01cb 203d cfe5 b2bc 44e2 aabd
000003b0: 108e 983d 988d 8e3d 19cd 153b c16c 94bd
000003c0: e0b2 7dbd 5696 253e cf36 d33d cf1c 0e3e
000003d0: b65c 553d 0296 873d 7263 253e f8e5 d23c
000003e0: c092 0f3b ef74 343e 318f 253e a7d7 fb3c
000003f0: c4fd d23d ac0b 483d dd6d 39bd 0859 383e

bn1.weight f4 [8]
1.0492549 1.2008663 0.99851567 1.0832871 0.7443773 0.95528287 1.3441192 0.8983629
00000000: fc4d 863f fdb5 993f b99e 7f3f 27a9 8a3f
00000010: 838f 3e3f 6b8d 743f 190c ac3f 1cfb 653f

bn1.bias f4 [8]
0.05707982 0.048148997 0.04509588 0.05562939 0.052491292 0.049414348 0.048290964 0.04949953
00000000: 88cc 693d e237 453d 75b6 383d a5db 633d
00000010: 1c01 573d b366 4a3d bfcc 453d 05c0 4a3d

bn1.running_mean f4 [8]
-0.0006711598 7.121151e-05 0.000701646 1.0074364e-05 -0.0003298667 -0.00059601426 0.00011255527 0.00021377734
00000000: c6f0 2fba 6357 9538 aaee 373a 1005 2937
00000010: f6f1 acb9 d73d 1cba a70b ec38 6b29 6039

bn1.running_var f4 [8]
0.5970027 0.31190944 0.5645455 0.97402704 1.0440046 0.7087431 0.8636557 0.36818555
00000000: 2bd5 183f 98b2 9f3e 0e86 103f d659 793f
00000010: f1a1 853f 3070 353f 8a18 5d3f d182 bc3e

sca.fc1.weight f4 [5, 22]
-0.114016294 0.08909159 0.13237056 -0.19908583 0.0165126 -0.12498042 0.11878823 0.15766557
-0.06689314 -0.053786743 -0.055103004 0.084942564 -0.09551784 -0.0203727 -0.08758913 0.036989637
0.13344286 0.16395171 0.1612101 -0.18844032 0.058967 0.2276061 -0.077857554 -0.123414926
0.11641486 0.03486704 -0.12467812 -0.008360983 0.0800854 -0.064832814 -0.15049951 -0.07241081
-0.035508048 0.13783792 -0.10834448 -0.024022607 -0.1775601 0.16209005 -0.08266414 -0.20051832
0.027333135 0.13447225 0.0216748 -0.08324888 0.0076499204 0.071015716 0.13608222 -0.0018755825
0.20081815 0.041268423 0.29358777 0.19096892 0.17591743 0.0044449046 0.14754912 0.08087902
0.17272852 0.07812177 -0.067258514 0.1349598 -0.045970947 -0.098015465 0.21761148 0.25984213
-0.07026745 0.20461155 0.104924425 -0.07972913 -0.010802967 -0.17567876 -0.062578335 0.020592693
0.02449229 0.104412764 -0.10948583 0.104027905 0.006763806 -0.16275524 0.025626434 -0.14357942
0.122872725 -0.18973386 -0.13334645 0.07397935 0.1606328 0.03612023 -0.0028024362 0.1317797
0.14941506 0.113449365 -0.008096044 0.10488351 -0.10723808 -0.15621664 0.18755749 0.025581831
-0.028432196 -0.039172832 -0.12131791 -0.07025961 0.15623087 -0.06312903 -0.04142312 0.126917
-0.16151462 -0.0995877 -0.0370579 0.13874486 0.098285906 0.12793683
00000000: 6081 e9bd a775 b63d 268c 073e 28dd 4bbe
00000010: 6f45 873c bcf5 ffbd 3e47 f33d 1573 213e
00000020: 45ff 88bd 7d4f 5cbd b0b3 61bd 5ef6 ad3d
00000030: db9e c3bd a6e4 a6bc ee61 b3bd 7282 173d
00000040: 3fa5 083e f5e2 273e 4314 253e 80f6 40be
00000050: 6287 713d 9311 693e c873 9fbd f7c0 fcbd
00000060: ea6a ee3d bed0 0e3d 3e57 ffbd 81fc 08bc
00000070: d003 a43d 11c7 84bd 8b1c 1abe 1e4c 94bd
00000080: e370 11bd 6225 0d3e b6e3 ddbd 0fcb c4bc
00000090: 51d2 35be effa 253e d14b a9bd ad54 4dbe
000000a0: bde9 df3c 18b3 093e 5a8f b13c 647e aabd
000000b0: 2fac fa3b b070 913d 2359 0b3e 1bd6 f5ba
000000c0: 46a3 4d3e 1409 293d 2351 963e 5b8d 433e
000000d0: b323 343e 90a6 913b 1e17 173e e6a3 a53d
000000e0: bfdf 303e 4efe 9f3d d5be 89bd e732 0a3e
000000f0: 084c 3cbd 55bc c8bd 8bd5 5e3e 070a 853e
00000100: 61e8 8fbd b185 513e 9ee2 d63d 0749 a3bd
00000110: edfe 30bc 22e5 33be 1229 80bd 02b2 a83c
00000120: 0ea4 c83c 5cd6 d53d 1b3a e0bd 950c d53d
00000130: eba2 dd3b 4fa9 26be 87ee d13c 7c06 13be
00000140: b2a4 fb3d 9849 42be f98b 08be 7c82 973d
00000150: ed7c 243e cef2 133d 14a9 37bb 42f1 063e
00000160: 4300 193e 2458 e83d 45a5 04bc 2acd d63d
00000170: a39f dbbd 41f7 1fbe 120f 403e fd90 d13c
00000180: a3ea e8bc b173 20bd 8675 f8bd 45e4 8fbd
00000190: fcfa 1f3e cb49 81bd 4aab 29bd 88f6 013e
000001a0: 1764 25be a3f4 cbbd 06ca 17bd 2213 0e3e
000001b0: 1f4a c93d df01 033e

sca.fc2.weight f4 [22, 5]
0.005242991 -0.36233103 -0.31322727 0.28741017 0.16852872 0.19570282 0.39311668 -0.39578354
-0.18981476 0.27450076 -0.38823512 -0.35014087 0.1598511 -0.3031228 0.15486197 -0.36081812
-0.15430664 0.2545477 0.20013106 0.3453794 -0.3892507 -0.42804384 0.16900791 0.36266747
0.35698867 -0.122179024 -0.42498204 0.193856 0.24075249 -0.16971451 -0.34442705 0.13136487
0.2877914 -0.41981265 0.3679047 -0.06741609 0.12765244 -0.20108075 -0.0123368 0.31487086
0.25421682 -0.22621654 0.3026874 0.12856394 0.06647589 0.26488876 -0.3647428 -0.14896195
0.29794776 -0.2163496 -0.07148509 -0.019329622 -0.27960405 -0.15165886 0.21099108 -0.12094443
-0.19000001 -0.15506355 0.35874853 -0.22051199 -0.5035617 -0.0014709595 -0.16793711 -0.15221363
-0.36522886 -0.29134494 0.093279704 0.027299484 -0.17019872 0.12869178 0.15354352 0.06382436
-0.030163469 0.1514572 0.25298613 -0.03723448 -0.18715486 0.31443346 -0.017158609 0.33359003
0.07635922 0.30333668 -0.38439485 0.19767946 0.11723854 0.008740335 0.17528841 0.14248429
-0.25460362 0.14287996 0.26497787 0.1443924 0.12821755 -0.17589222 0.17302287 -0.32450214
-0.15596083 0.19171865 0.1337943 -0.35322765 0.01924557 -0.38986844 0.43997538 -0.0059379674
0.25472638 -0.10745459 -0.06906255 0.24339873 0.39511526 0.27723593
00000000: 65cd ab3b 7483 b9be 535f a0be 6d27 933e
00000010: cb92 2c3e 5266 483e 9746 c93e 24a4 cabe
00000020: cd5e 42be 5d8b 8c3e c1c6 c6be aa45 b3be
00000030: 02b0 233e e932 9bbe 2394 1e3e 27bd b8be
00000040: 8f02 1ebe 1354 823e 28ef 4c3e 92d5 b03e
00000050: de4b c7be 9028 dbbe 6910 2d3e 8daf b93e
00000060: 38c7 b63e ff38 fabd 3f97 d9be 3082 463e
00000070: d287 763e a4c9 2dbe be58 b0be 8384 063e
00000080: 6559 933e aff1 d6be 015e bc3e 7211 8abd
00000090: 52b7 023e 1de8 4dbe 4a20 4abc c136 a13e
000000a0: b528 823e 4fa5 67be d8f9 9a3e 44a6 033e
000000b0: 8324 883d 809f 873e 91bf babe 7b89 18be
000000c0: 9c8c 983e c08a 5dbe c666 92bd 2859 9ebc
000000d0: 4328 8fbe 764c 1bbe 0c0e 583e b7b1 f7bd
000000e0: 5d8f 42be fbc8 1ebe e3ad b73e e5cd 61be
000000f0: 6be9 00bf 36cd c0ba b5f7 2bbe e4dd 1bbe
00000100: 47ff babe 2a2b 95be 6e09 bf3d 2ba3 df3c
00000110: 9348 2ebe c7c7 033e 833a 1d3e 59b6 823d
00000120: 6119 f7bc 9917 1b3e 6687 813e 2f83 18bd
00000130: 86a5 3fbe 6cfd a03e 3690 8cbc 50cc aa3e
00000140: 3962 9c3d f24e 9b3e 67cf c4be 7c6c 4a3e
00000150: c21a f03d 9f33 0f3c ce7e 333e 67e7 113e
00000160: 685b 82be 204f 123e 2eab 873e 9adb 133e
00000170: 764b 033e 171d 34be e82c 313e 2525 a6be
00000180: 32b4 1fbe e551 443e 5f01 093e 41da b4be
00000190: e3a8 9d3c d69c c7be 7444 e13e 4893 c2bb
000001a0: 7f6b 823e 2711 dcbd ab70 8dbd 843d 793e
000001b0: 8c4c ca3e def1 8d3e

conv_depth.weight f4 [16, 1, 22, 1]
0.024563132 0.06896765 -0.094740465 0.161135 -0.09774724 -0.088602185 -0.011607591 -0.09142075
0.16292652 -0.14049336 -0.06009205 0.016072396 0.05897986 -0.093104064 0.22453943 0.06805406
-0.18722697 -0.027503874 0.189367 0.18243563 -0.087640546 -0.24141282 0.079386346 -0.12573864
-0.16805476 0.045995742 0.168424 -0.058919273 -0.059869986 0.10972881 -0.03962705 -0.13092023
0.09605591 -0.011031395 0.06353323 0.23577164 -0.009553778 -0.09011426 0.014077628 0.05303277
0.2730972 -0.033300586 -0.18479975 -0.23380877 0.025343215 -0.0013120774 0.1391941 -0.077145055
-0.041836422 0.22325851 0.057555046 -0.1437869 0.19010308 0.01124392 -0.18574266 -0.029216995
0.21829274 0.18520512 0.014630947 -0.27207717 -0.24827711 -0.060389977 -0.006012693 -0.17228122
-0.019436296 0.038174897 -0.042508103 0.026470764 -0.11801522 -0.043242272 0.10942714 0.014244554
-0.20392048 0.2733226 0.28581774 -0.31499448 -0.012057736 -0.0705218 0.017641151 0.15000099
-0.030169196 0.04176521 0.030044256 0.07503666 -0.09836579 -0.012398591 -0.08298484 0.014865306
0.11085029 0.14421637 0.099108145 0.08782757 -0.033825602 -0.2048415 0.03260398 -0.004188709
0.12659146 -0.16795138 -0.20391847 0.03567596 0.07130131 -0.11411194 -0.18160965 0.064957954
0.053930026 0.08005178 -0.1416194 0.12440762 0.1247202 0.014482451 0.21705681 -0.07015123
0.12359801 -0.024045376 -0.14631213 0.07235756 -0.2114217 0.038386174 -0.016718892 -0.021646751
-0.028154617 -0.004119183 -0.1153515 0.063059434 -0.03746407 0.07658621 -0.15206674 -0.05634174
0.07135578 -0.057999805 0.26559955 -0.22840774 0.19852068 -0.107731946 -0.10648953 -0.10688678
0.03039844 0.13879715 -0.06147861 -0.088567674 0.14018151 0.19164206 0.062240154 0.07180614
-0.0044141193 -0.12360096 -0.013198121 -0.07640087 0.06284532 -0.18306068 0.15208553 -0.12449287
-0.26007542 0.12085199 0.018880675 0.046865538 -0.14973892 0.0720019 -0.19676581 0.10157918
0.14029828 -0.03181046 -0.083340734 -0.19689758 0.032389224 0.12465388 0.21121086 0.08263109
-0.10454878 0.21005717 0.050301105 -0.17249899 0.030897005 0.07766943 -0.17840445 0.047238514
0.12803584 -0.21124566 -0.26264304 -0.03887615 0.018849399 0.017627513 -0.05257826 0.00060277217
0.15348956 -0.032562304 -0.05547895 0.045217946 -0.13347678 0.1714059 0.021473616 -0.10048855
-0.13410474 0.11899609 0.15309773 -0.044011023 -0.044848677 0.107306555 -0.05337159 0.02937264
0.08845733 0.2671989 -0.053916242 0.18997678 -0.16195424 0.044424947 -0.13335636 0.07130854
-0.08147139 -0.33704346 0.09340567 0.020968929 0.06779415 0.13940209 -0.13426682 -0.19994879
0.12887563 0.025662607 -0.14399691 0.022701178 0.056519352 -0.13337903 -0.05123814 0.040009476
0.22311552 -0.14365852 0.03804726 0.13834415 -0.21312737 0.11082579 -0.08116772 0.047894295
0.08870057 -0.12370176 -0.08001079 0.14847578 -0.17582022 -0.07199809 0.010988256 0.09687253
-0.14196858 0.22129089 -0.0045821504 -0.005628078 -0.20223652 0.018238835 0.13484237 -0.06903668
0.12001544 -0.16869399 0.10246111 -0.06989307 0.1832018 0.110653825 0.09623385 -0.05334915
00000000: 9f38 c93c e93e 8d3d 4a07 c2bd 9300 253e
00000010: b42f c8bd 1075 b5bd c42d 3ebc cd3a bbbd
00000020: 36d6 263e 7edd 0fbe 1523 76bd 42aa 833c
00000030: de94 713d 58ad bebd aaed 653e ed5f 8b3d
00000040: 6db8 3fbe ce4f e1bc 6ce9 413e 68d0 3a3e
00000050: e37c b3bd ec34 77be 4f95 a23d a1c1 00be
00000060: 8c16 2cbe 0866 3c3d 5777 2c3e 5655 71bd
00000070: 3b3a 75bd 80b9 e03d f94f 22bd f40f 06be
00000080: f6b8 c43d 06bd 34bc b61d 823d 1f6e 713e
00000090: 7387 1cbc d38d b8bd daa5 663c e438 593d
000000a0: 65d3 8b3e 3266 08bd 253c 3dbe 916b 6fbe
000000b0: 939c cf3c 03fa abba e688 0e3e 3afe 9dbd
000000c0: ab5c 2bbd e19d 643e d7be 6b3d e03c 13be
000000d0: 62aa 423e 6b38 383c 5333 3ebe 7b58 efbc
000000e0: 2288 5f3e 69a6 3d3e a4b6 6f3c b34d 8bbe
000000f0: 5b3c 7ebe 7b5b 77bd 2006 c5bb 7d6a 30be
00000100: de38 9fbc 485d 1c3d fa1c 2ebd 37d9 d83c
00000110: f7b1 f1bd cf1e 31bd 561b e03d fd61 693c
00000120: 88d0 50be f1f0 8b3e b456 923e f546 a1be
00000130: cf8d 45bc bc6d 90bd 2d84 903c dc99 193e
00000140: 6425 f7bc ff11 2b3d 5f1f f63c d2ac 993d
00000150: 0174 c9bd 7623 4bbc f5f3 a9bd 9d8d 733c
00000160: 7a05 e33d 75ad 133e 36f9 ca3d f1de b33d
00000170: b78c 0abd f8c1 51be c08b 053d 7041 89bb
00000180: 31a1 013e 72fb 2bbe 01d0 50be f520 123d
00000190: 6c06 923d 85b3 e9bd e1f7 39be ad08 853d
000001a0: bbe5 5c3d 30f2 a33d ad04 11be 6cc9 fe3d
000001b0: 4e6d ff3d cd47 6d3c 2444 5e3e 73ab 8fbd
000001c0: f420 fd3d cffa c4bc d9d2 15be 3330 943d
000001d0: ee7e 58be d23a 1d3d 0ff6 88bc 8754 b1bc
000001e0: 83a4 e6bc 36fa 86bb 683d ecbd 4e25 813d
000001f0: ed73 19bd 3bd9 9c3d 62b7 1bbe 99c6 66bd
00000200: fb22 923d 3491 6dbd aafc 873e b8e3 69be
00000210: 0149 4b3e 91a2 dcbd 2f17 dabd 75e7 dabd
00000220: 2606 f93c d720 0e3e ffd0 7bbd f862 b5bd
00000230: be8b 0f3e d13d 443e 88ef 7e3d 190f 933d
00000240: 51a4 90bb 8022 fdbd ef3c 58bc 0f78 9cbd
00000250: 0cb5 803d 4274 3bbe 4fbc 1b3e 1ef6 febd
00000260: 9b28 85be 4081 f73d a5ab 9a3c 14f6 3f3d
00000270: 2955 19be bb75 933d fa7c 49be bf08 d03d
00000280: 5aaa 0f3e af4b 02bd 8cae aabd 859f 49be
00000290: 90aa 043d 894a ff3d a947 583e 7d3a a93d
000002a0: ac1d d6bd 3a19 573e 8808 4e3d 93a3 30be
000002b0: b71b fd3c 2611 9f3d a8af 36be 2c7d 413d
000002c0: d41b 033e c850 58be 2679 86be 993c 1fbd
000002d0: 0e6a 9a3c 9367 903c 4d5c 57bd 5b03 1e3a
000002e0: 5e2c 1d3e 0d60 05bd e53d 63bd 7436 393d
000002f0: 23ae 08be 0785 2f3e 70e9 af3c f1cc cdbd
00000300: c152 09be 39b4 f33d a7c5 1c3e e744 34bd
00000310: 3fb3 37bd 8ac3 db3d 2b9c 5abd e49e f03c
00000320: 1e29 b53d 4bce 883e 47d7 5cbd 4689 423e
00000330: 55d7 25be eff6 353d 928e 08be 360a 923d
00000340: 79da a6bd f690 acbe 794b bf3d 08c7 ab3c
00000350: a9d7 8a3d 6cbf 0e3e 3e7d 09be 60bf 4cbe
00000360: f9f7 033e 633a d23c ed73 13be d2f7 b93c
00000370: d680 673d 8394 08be 15df 51bd fae0 233d
00000380: 6578 643e 381b 13be 72d7 1b3d 17aa 0d3e
00000390: 103e 5abe a2f8 e23d 433b a6bd cf2c 443d
000003a0: a5a8 b53d 5957 fdbd b2dc a3bd 090a 183e
000003b0: 370a 34be bc73 93bd 1608 343c 1b65 c63d
000003c0: 3660 11be 149a 623e dd25 96bb bd6b b8bb
000003d0: 1717 4fbe 9c69 953c 1e14 0a3e 1a63 8dbd
000003e0: a8ca f53d 1ebe 2cbe 21d7 d13d 1924 8fbd
000003f0: 4199 3b3e 799e e23d 4116 c53d a384 5abd

bn2.weight f4 [16]
1.056535 1.0214882 1.0409573 1.4172907 0.96292514 1.3203328 1.0946718 0.9518614
1.0659294 1.2063588 0.98137534 1.0056069 1.3085737 1.4040192 1.1349798 1.085548
00000000: 8a3c 873f 20c0 823f 173e 853f c869 b53f
00000010: 4382 763f aa00 a93f 351e 8c3f 30ad 733f
00000020: 6070 883f f769 9a3f 6a3b 7b3f bab7 803f
00000030: 587f a73f e7b6 b33f 0547 913f 3df3 8a3f

bn2.bias f4 [16]
-0.4047792 -0.22866337 -0.3844104 -0.63932055 -0.1809426 -0.59146184 -0.44353312 -0.12590754
-0.47801587 -0.5308442 -0.28615806 -0.052669812 -0.5515574 -0.6398758 -0.43460372 -0.2717142
00000000: 383f cfbe bb26 6abe 71d1 c4be 83aa 23bf
00000010: 0449 39be 0b6a 17bf c616 e3be e8ed 00be
00000020: 7fbe f4be 68e5 07bf 4f83 92be 4dbc 57bd
00000030: de32 0dbf e7ce 23bf 6184 debe 201e 8bbe

bn2.running_mean f4 [16]
-0.0014335504 -0.00045790666 -0.0039998568 0.00022020595 0.0027978113 -0.0057351887 -0.0029304824 0.0034515974
-0.0046793567 -0.0027297023 7.520221e-05 -0.009146268 -6.8642934e-05 0.0009109449 -0.00035893486 0.003741624
00000000: f8e5 bbba 3113 f0b9 3b11 83bb 16e7 6639
00000010: 7c5b 373b 40ee bbbb 560d 40bb 3234 623b
00000020: 4a55 99bb cee4 32bb e1b5 9d38 3ada 15bc
00000030: 65f4 8fb8 7acc 6e3a 6c2f bcb9 0936 753b

bn2.running_var f4 [16]
0.004198643 0.0057574776 0.04295034 0.009792413 0.0074827406 0.013462291 0.015091934 0.008824361
0.013896393 0.018252667 0.003497013 0.04702245 0.012534698 0.025021533 0.004960693 0.024755742
00000000: c594 893b 39a9 bc3b b2ec 2f3d 5b70 203c
00000010: c731 f53b f190 5c3c 2944 773c 0d94 103c
00000020: b2ad 633c 9e86 953c 242e 653b 9d9a 403d
00000030: 555e 4d3c f5f9 cc3c 4f8d a23b 8ecc ca3c

conv_sep.0.weight f4 [16, 1, 1, 16]
-0.13276653 -0.2440185 0.027029008 -0.24418396 0.13713269 0.07109577 0.15636693 0.011635971
-0.00053422176 -0.13480808 -0.08085952 -0.26966915 -0.111441396 -0.13023727 -0.023205606 0.04585773
-0.25771853 -0.1192754 -0.07088104 -0.19881612 -0.28306532 -0.11008695 0.206863 -0.05111296
0.020260125 0.008028678 0.012572635 0.10310904 0.08557987 0.0059440834 -0.028575981 -0.00065618806
-0.08863281 0.01583406 -0.15178712 0.24228205 0.29040775 0.22730309 -0.055463493 -0.15471552
0.03075418 0.22216508 0.14037637 0.015848625 -0.04522811 -0.06605969 0.07839553 0.20209874
-0.14253698 -0.04125397 -0.31425378 0.0007224782 -0.25958544 -0.116270445 -0.24024239 -0.07529169
-0.1786958 0.22205071 0.1603331 -0.15127397 -0.2907962 -0.18490832 0.17682503 -0.14811069
0.1187132 0.0103086 -0.15293957 -0.16928414 -0.22092772 -0.19089478 -0.1395351 0.041829508
-0.11034659 -0.05342491 -0.087302744 0.048110835 -0.11787004 0.0042980076 0.10951476 0.0035552082
-0.3146356 -0.21230185 -0.080777146 -0.036840726 0.059900686 -0.24710582 -0.27590916 -0.062169533
-0.030184912 0.016885258 -0.061987422 -0.030300792 -0.0477923 -0.16360137 0.12156733 -0.07632131
-0.21537407 -0.2424978 0.031730704 0.03545716 -0.09643179 -0.051734854 0.064472556 0.21555968
0.014329105 -0.085546516 -0.18718812 -0.0380171 -0.11492945 -0.2657469 -0.00046973347 -0.12034881
-0.21892144 0.07065673 0.16067038 0.2045209 -0.05596522 -0.07813068 0.1558964 -0.1443383
-0.063503824 -0.26589438 -0.234973 -0.009299632 0.11437821 0.048212744 0.309078 0.026020844
0.07209624 -0.32798347 -0.0067987107 -0.16385089 -0.14789276 0.07271654 -0.20287944 0.043219496
-0.21683435 0.10242199 -0.045663085 -0.028488332 -0.15695755 -0.20201723 -0.05246622 -0.051873624
0.008796137 -0.11847959 0.005474362 0.047115605 -0.09149569 -0.24940231 -0.21671276 -0.044952057
-0.1286925 -0.04729756 -0.09182761 -0.06683056 -0.21382545 -0.02807452 0.0792061 -0.13636532
0.036450833 -0.0078483755 -0.14630741 -0.18550637 -0.07730838 -0.04244382 0.081232935 0.09592272
-0.16891426 0.22563872 -0.0090158135 0.18271446 0.19369078 0.23642868 0.22272882 -0.044146292
0.06514489 -0.07077739 0.043997936 0.10743245 -0.19036017 -0.21975492 -0.28255868 -0.08751162
0.04741951 0.24447182 0.18565066 0.047161363 -0.11316634 0.09593967 -0.04821755 -0.34553212
-0.09494566 0.04326206 -0.34273905 -0.19964817 -0.24315065 -0.16115226 -0.13637932 -0.18675175
-0.17118171 -0.20000984 0.11189235 0.115300946 0.07311617 -0.225319 -0.25019985 0.11640392
0.15729931 0.12863079 0.1616777 0.18308787 0.093057945 0.18838252 -0.09860543 -0.04061287
0.056787007 0.26730558 0.105046324 -0.010158415 0.15841484 0.05139815 0.13957328 0.2744153
-0.05676659 0.03369442 0.20741197 0.14698102 0.10174748 0.32850483 0.25117347 -0.025981342
-0.17087886 0.159064 0.12597315 0.25333685 -0.003339036 -0.26338202 -0.13094294 -0.11049654
-0.0443066 0.078884736 0.23744856 0.16131076 0.20591447 -0.00245545 0.21362182 0.16606832
0.11638454 -0.0876372 0.0682925 -0.12838534 0.11992693 0.020601965 -0.1231187 -0.1010643
00000000: f3f3 07be fcdf 79be f06b dd3c 5c0b 7abe
00000010: 836c 0c3e a99a 913d a71e 203e cda4 3e3c
00000020: 040b 0cba 210b 0abe ad99 a5bd 1312 8abe
00000030: 633b e4bd eb5c 05be af19 bebc 51d5 3b3d
00000040: aff3 83be a946 f4bd 142a 91bd 7496 4bbe
00000050: f0ed 90be 4475 e1bd e5d3 533e d35b 51bd
00000060: 90f8 a53c b78a 033c 74fd 4d3c d52a d33d
00000070: 8044 af3d 96c6 c23b 2d18 eabc 0904 2cba
00000080: 1e85 b5bd 6eb6 813c 156e 1bbe c918 783e
00000090: 53b0 943e 24c2 683e b02d 63bd bf6d 1ebe
000000a0: 31f0 fb3c 3e7f 633e d3be 0f3e fad4 813c
000000b0: 1c41 39bd 4e4a 87bd d68d a03d f9f2 4e3e
000000c0: 37f5 11be ecf9 28bd dfe5 a0be b164 3d3a
000000d0: 62e8 84be 331f eebd 1a02 76be 8832 9abd
000000e0: 08fc 36be 4361 633e 5c2e 243e 90e7 1abe
000000f0: 3de3 94be 9b58 3dbe 9f11 353e 54aa 17be
00000100: e81f f33d 67e5 283c 319c 1cbe d258 2dbe
00000110: e03a 62be ec79 43be 4ae2 0ebe 6b55 2b3d
00000120: 65fd e1bd 14d4 5abd c8cb b2bd de0f 453d
00000130: d965 f1bd 4dd6 8c3b 4649 e03d 7ffe 683b
00000140: eb17 a1be a865 59be 7d6e a5bd 4de6 16bd
00000150: 6c5a 753d 4f09 7dbe f743 8dbe 7ba5 7ebd
00000160: 5946 f7bc f452 8a3c 86e6 7dbd 5e39 f8bc
00000170: dcc1 43bd 1e87 27be 4bf8 f83d 594e 9cbd
00000180: 058b 5cbe 5851 78be 0ef8 013d 873b 113d
00000190: 087e c5bd ede7 53bd 300a 843d adbb 5c3e
000001a0: 9fc4 6a3c 0333 afbd 3eae 3fbe d2b7 1bbd
000001b0: 2260 ebbd fa0f 88be 8f46 f6b9 7079 f6bd
000001c0: f12c 60be 7ab4 903d c786 243e ed6d 513e
000001d0: c93b 65bd fa02 a0bd 4ea3 1f3e 6bcd 13be
000001e0: 4b0e 82bd 4f23 88be c39c 70be 7c5d 18bc
000001f0: 1f3f ea3d ba7a 453d 793f 9e3e aa29 d53c
00000200: 32a7 933d 73ed a7be b8c7 debb 87c8 27be
00000210: 3371 17be 69ec 943d a1bf 4fbe ed06 313d
00000220: d309 5ebe 9fc2 d13d 3709 3bbd 5d60 e9bc
00000230: 7bb9 20be 9bdd 4ebe d2e6 56bd 7079 54bd
00000240: ac1d 103c 6da5 f2bd 4762 b33b 4bfc 403d
00000250: 1862 bbbd 5263 7fbe f3e9 5dbe a61f 38bd
00000260: f7c7 03be 16bb 41bd 1d10 bcbd 76de 88bd
00000270: 0ff5 5abe 89fc e5bc cf36 a23d 5aa3 0bbe
00000280: 784d 153d 7996 00bc 9cd1 15be 62f5 3dbe
00000290: db53 9ebd 92d9 2dbd 745d a63d 2273 c43d
000002a0: dcf7 2cbe d60d 673e 10b7 13bc 8019 3b3e
000002b0: e056 463e 5c1a 723e 0613 643e bed2 34bd
000002c0: af6a 853d bcf3 90bd 2e37 343d 8b05 dc3d
000002d0: c7ed 42be 6f07 61be 88ab 90be 4b39 b3bd
000002e0: f63a 423d d256 7a3e 351b 3e3e 462c 413d
000002f0: c1c3 e7bd 057c c43d c47f 45bd 96e9 b0be
00000300: df72 c2bd 8f33 313d 7e7b afbe 9270 4cbe
00000310: 7cfc 78be 1905 25be 05a7 0bbe da3b 3fbe
00000320: 424a 2fbe 61cf 4cbe d127 e53d e722 ec3d
00000330: eebd 953d 06ba 66be 321a 80be 2e65 ee3d
00000340: 1213 213e cab7 033e d78e 253e 637b 3b3e
00000350: 2a95 be3d 59e7 403e a5f1 c9bd ae59 26bd
00000360: 7e99 683d 47dc 883e 8722 d73d 7b6f 26bc
00000370: 8037 223e de86 523d 4cec 0e3e 2a80 8c3e
00000380: 1584 68bd 2903 0a3d ce63 543e 3182 163e
00000390: fc60 d03d c931 a83e cf99 803e d3d6 d4bc
000003a0: defa 2ebe ace1 223e 1bff 003e 5eb5 813e
000003b0: bad3 5abb 02da 86be e815 06be 034c e2bd
000003c0: d67a 35bd 528e a13d b725 733e a62e 253e
000003d0: 3edb 523e 9deb 20bb aebf 5a3e d00d 2a3e
000003e0: 055b ee3d 227b b3bd f0dc 8b3d 7277 03be
000003f0: 409c f53d 74c5 a83c a825 fcbd cdfa cebd

conv_sep.1.weight f4 [16, 16, 1, 1]
-0.1886497 0.26436785 -0.045391683 -0.17091957 0.037263766 0.017997911 0.25018933 -0.016856303
-0.15300146 -0.15840662 -0.019553889 0.15474832 0.14346758 0.080785334 -0.004763871 0.029091671
0.22632879 0.23516765 0.11645074 0.0008003713 -0.14983667 0.01936405 -0.18672714 0.0645296
0.10481396 0.037677474 0.14836176 0.2995043 -0.11039676 0.047757782 -0.017437758 0.23397589
0.17346942 -0.08231247 -0.049325224 -0.27863875 0.0023203827 0.18767887 -0.11077433 0.17529278
-0.013656529 0.11693437 0.2799294 -0.17833975 -0.06360721 -0.0977643 0.20172128 -0.09447392
-0.26049343 -0.07232857 0.11053567 0.066707134 0.16099793 0.25084546 0.0056937467 0.051009133
0.12349551 -0.09659338 0.22364686 0.12274015 -0.079536445 -0.022614365 -0.013202747 -0.03128632
-0.3469798 -0.14996229 0.099040784 -0.025421757 -0.12667128 -0.010143742 -0.21544634 0.23801664
0.097083986 0.20991434 -0.08977466 -0.030072067 0.08405302 0.12363878 0.11431611 -0.045207817
0.14631814 -0.07819333 0.20421898 -0.15315536 0.13469584 -0.05887304 0.016807916 -0.2267622
0.13571277 -0.09239497 0.071913704 -0.082726516 0.052835226 0.29193854 0.023587776 0.048439175
0.09864511 0.19957218 0.2215117 0.07765469 0.25597593 -0.27982986 -0.015236916 0.066804595
0.10436385 -0.043090183 0.03411222 -0.21658662 0.12776299 0.07117441 -0.04855166 -0.024631837
0.070702225 0.073264025 -0.033618048 -0.12577218 -0.005078241 0.043149363 0.19678591 0.02783226
-0.12112572 0.22642067 0.027097292 0.016617313 -0.25899214 -0.17165561 0.21107683 -0.16743195
-0.15810572 0.028611582 -0.15170686 -0.073585026 0.15263827 0.13248995 -0.32894865 0.014602563
-0.22046556 0.22895044 0.11299787 -0.04241271 -0.01582651 -0.13488333 -0.16179314 0.01979609
0.1132247 -0.013650621 0.07708155 -0.40505835 -0.07354588 -0.13483001 -0.06516732 0.13619356
-0.13875255 -0.042071234 -0.18315364 0.054305803 -0.14206119 0.09281257 0.034617547 0.26776093
-0.04262505 -0.2314745 0.095766544 0.06752905 -0.0804511 -0.14257598 0.039947268 -0.0916044
-0.2365011 0.10651722 -0.16416675 0.1046574 -0.06921453 -0.11819691 0.1854296 -0.17164302
-0.13997833 0.064229004 0.37593025 0.004730057 -0.19953752 -0.08495715 0.15453513 -0.03334429
-0.13693364 -0.07721141 0.073072016 0.12193407 0.08933265 -0.15297689 0.05024266 -0.013617735
-0.12873647 -0.09938371 -0.09867878 0.22241761 -0.19910358 0.175942 -0.090054534 -0.013140559
0.02932856 -0.13188833 0.24412416 -0.096262 0.07061271 0.10466232 -0.15743123 -0.12723197
-0.09182341 -0.28098097 0.0034419321 0.028407406 -0.12662502 0.18771216 0.102202155 -0.035861302
0.020934777 -0.07103673 0.1661832 -0.110887125 0.1770502 -0.05436918 0.22046338 0.2241733
-0.037484724 0.12591647 -0.046179082 -0.12556025 0.0035395466 0.016752494 -0.12727958 -0.04357774
-0.0599732 -0.012840754 -0.00078725105 -0.2793071 -0.11227745 0.12959063 0.19536063 -0.07083571
-0.16728981 -0.18251893 0.032905016 0.031024905 0.18106925 0.0077706007 -0.11002099 0.2944731
0.1662095 -0.16039327 0.056732163 0.06937557 -0.10724827 -0.06579208 -0.034405924 -0.06410612
00000000: 632d 41be 395b 873e a1ec 39bd 8a05 2fbe
00000010: e4a1 183d 5b70 933c d118 803e 3b16 8abc
00000020: 6aac 1cbe 5835 22be 7a2f a0bc 5876 1e3e
00000030: 2ae9 123e c872 a53d 3f1a 9cbb a851 ee3c
00000040: bcc2 673e cacf 703e ba7d ee3d 02d0 513a
00000050: c96e 19be 5ba1 9e3c 6635 3fbe 1828 843d
00000060: b4a8 d63d b253 1a3d 25ec 173e a158 993e
00000070: b217 e2bd aa9d 433d a1d9 8ebc 6097 6f3e
00000080: f8a1 313e 7193 a8bd 3f09 4abd bda9 8ebe
00000090: 9011 183b e42e 403e a7dd e2bd f37f 333e
000000a0: a2bf 5fbc 497b ef3d e852 8f3e b29e 36be
000000b0: 7f44 82bd a638 c8bd 0690 4e3e 8b7b c1bd
000000c0: 655f 85be 0021 94bd 8660 e23d c09d 883d
000000d0: a4dc 243e d16e 803e 9c92 ba3b f4ee 503d
000000e0: 37eb fc3d c0d2 c5bd af03 653e 305f fb3d
000000f0: 01e4 a2bd c341 b9bc 5650 58bc 1626 00bd
00000100: 56a7 b1be b78f 19be e5d5 ca3d 4a41 d0bc
00000110: 1eb6 01be f031 26bc f79d 5cbe a2ba 733e
00000120: f8d3 c63d c9f3 563e c7db b7bd b259 f6bc
00000130: fd23 ac3d 5436 fd3d 911e ea3d d52b 39bd
00000140: 6cd4 153e d323 a0bd c81e 513e c2d4 1cbe
00000150: b5ed 093e db24 71bd c1b0 893c 5a34 68be
00000160: 4af8 0a3e 9339 bdbd 7e47 933d 856c a9bd
00000170: c069 583d f878 953e 273b c13c 2868 463d
00000180: 7306 ca3d a65c 4c3e f7d3 623e 6c09 9f3d
00000190: 470f 833e dc45 8fbe 42a4 79bc d9d0 883d
000001a0: b7bc d53d 557f 30bd 41b9 0b3d e2c8 5dbe
000001b0: 4dd4 023e e4c3 913d 1bde 46bd b5c8 c9bc
000001c0: 54cc 903d 730b 963d 14b3 09bd 6cca 00be
000001d0: 6067 a6bb 63bd 303d 3f82 493e 7b00 e43c
000001e0: c310 f8bd d2da 673e 24fb dd3c 0821 883c
000001f0: 9e9a 84be 7dc6 2fbe 8624 583e 4873 2bbe
00000200: 77e6 21be d662 ea3c 0b59 1bbe bfb3 96bd
00000210: 354d 1c3e 72ab 073e f56b a8be 973f 6f3c
00000220: b9c1 61be fc71 6a3e 6d6b e73d f3b8 2dbd
00000230: 99a6 81bc db1e 0abe 1aad 25be 692b a23c
00000240: 5ae2 e73d dba6 5fbc efdc 9d3d cf63 cfbe
00000250: 399f 96bd e110 0abe 7276 85bd 5376 0b3e
00000260: 2615 0ebe e352 2cbd a18c 3bbe c36f 5e3d
00000270: 7d78 11be 8414 be3d 21cb 0d3d f617 893e
00000280: 9b97 2ebd a707 6dbe 4021 c43d ac4c 8a3d
00000290: 8cc3 a4bd 70ff 11be bf9f 233d 169b bbbd
000002a0: 582d 72be b325 da3d 541b 28be 9e56 d63d
000002b0: 59c0 8dbd 3911 f2bd 42e1 3d3e 30c3 2fbe
000002c0: 7b56 0fbe 7f8a 833d ee79 c03e 98fe 9a3b
000002d0: 9053 4cbe 04fe adbd 753e 1e3e 0694 08bd
000002e0: 5538 0cbe 0421 9ebd c8a6 953d 92b8 f93d
000002f0: 09f4 b63d f9a5 1cbe 3fcb 4d3d ec1c 5fbc
00000300: 7ed3 03be b089 cbbd 1a18 cabd 71c1 633e
00000310: cfe1 4bbe 242a 343e 836e b8bd 804b 57bc
00000320: 7342 f03c bc0d 07be affb 793e 0325 c5bd
00000330: 669d 903d 3359 d63d a735 21be 1949 02be
00000340: e90d bcbd bddc 8fbe 0a92 613b a6b6 e83c
00000350: fda9 01be 9e37 403e 5d4f d13d 4de3 12bd
00000360: 697f ab3c b57b 91bd ee2b 2a3e ca18 e3bd
00000370: a64c 353e 38b2 5ebd 27c1 613e b08d 653e
00000380: 9589 19bd 3ff0 003e 4726 3dbd de92 00be
00000390: bdf7 673b 873c 893c 9455 02be 937e 32bd
000003a0: 75a6 75bd 0762 52bc 865f 4eba 5701 8fbe
000003b0: b8f1 e5bd 68b3 043e 9e0c 483e 5012 91bd
000003c0: 054e 2bbe 3ee6 3abe 69c7 063d f127 fe3c
000003d0: 386a 393e 86a0 fe3b af52 e1bd 2ec5 963e
000003e0: d332 2a3e 223e 24be fc5f 683d c714 8e3d
000003f0: fba4 dbbd ffbd 86bd 3aed 0cbd 124a 83bd

bn3.weight f4 [16]
1.1060781 1.2281232 1.182361 1.1392384 1.240986 1.2033092 1.1587144 1.2438865
1.1327298 1.1771715 1.169969 1.2735759 1.1719947 1.2168329 1.1485783 1.2637022
00000000: f893 8d3f 2433 9d3f 9b57 973f 90d2 913f
00000010: a1d8 9e3f 0906 9a3f c150 943f ac37 9f3f
00000020: 4afd 903f 8ead 963f 8bc1 953f 8904 a33f
00000030: ec03 963f 2ec1 9b3f 9d04 933f fec0 a13f

bn3.bias f4 [16]
-0.113762364 -0.121904574 -0.0756297 -0.122509316 -0.092042655 -0.012991464 -0.059958592 -0.05902264
-0.13784988 -0.033715393 -0.09314479 -0.19274151 -0.09411161 -0.17058171 -0.044709884 -0.1877281
00000000: 3efc e8bd 1ba9 f9bd bfe3 9abd 2ae6 fabd
00000010: dc80 bcbd 26da 54bc 2497 75bd b9c1 71bd
00000020: 8528 0dbe 2719 0abd b2c2 bebd 085e 45be
00000030: 96bd c0bd f9ac 2ebe b621 37bd cc3b 40be

bn3.running_mean f4 [16]
-0.08077681 -0.036156747 0.00077381387 0.007373534 -0.036454547 -0.10836407 -0.012748788 0.00935403
0.010557646 -0.21821731 -0.04709866 -0.038731325 0.05034246 0.06762966 -0.115077004 -0.035262924
00000000: 506e a5bd 1919 14bd c5d9 4a3a b09d f13b
00000010: 5d51 15bd fbed ddbd 4be0 50bc a541 193c
00000020: faf9 2c3c 5c74 5fbe 86ea 40bd bda4 1ebd
00000030: e533 4e3d 6b81 8a3d 7ead ebbd db6f 10bd

bn3.running_var f4 [16]
0.1230927 0.1466338 0.14835879 0.08697971 0.1213413 0.12807037 0.11769212 0.1394674
0.11161892 0.15736917 0.12379267 0.08624104 0.10370979 0.124881744 0.094856575 0.09040623
00000000: 0718 fc3d 2c27 163e 5eeb 173e 6b22 b23d
00000010: ca81 f83d e124 033e 9108 f13d 8bd0 0e3e
00000020: 7698 e43d 6225 213e 0387 fd3d 249f b03d
00000030: cc65 d43d 00c2 ff3d 2a44 c23d e726 b93d

classifier.weight f4 [4, 560]
0.016618185 0.04677262 0.06486662 0.018048795 -0.020972386 0.17748834 -0.20552488 0.025779003
0.0013390234 0.022319254 0.11596974 0.03433323 -0.03391115 -0.0732915 0.013500015 -0.1257943
0.081862696 0.028437836 -0.009843625 -0.0044396943 0.051814254 0.094397105 -0.04791222 -0.010752388
0.012116001 0.0617504 -0.04540595 0.024067385 0.07248145 -0.13440542 -0.039517026 -0.068690024
-0.016646685 0.072574235 -0.082842134 -0.09013682 0.054404166 -0.033524908 -0.06120872 0.017748315
0.042625085 -0.27750012 0.04222376 0.13280097 -0.04650533 0.004691502 -0.09730918 0.017301556
0.023483822 -0.020265931 0.1391404 -0.01650501 -0.022854438 0.0809139 0.03022523 0.030357758
0.04528939 0.0126269115 0.026716225 0.025242317 -0.094376065 -0.009216098 -0.08760416 0.050145067
0.06518642 -0.13993217 0.069816865 -0.018577047 -0.027603803 0.121109635 -0.028801372 0.009011995
-0.02742953 -0.02332273 0.038343336 -0.19443642 0.102249265 -0.11424136 0.107303314 0.1581234
-0.008837726 0.009521429 0.081585474 -0.018075384 -0.005840899 0.005031813 0.017068457 -0.0657466
-0.06554587 0.026440388 0.047609642 0.010991986 0.018963495 -0.0866951 0.01915285 0.006992489
-0.06344398 -0.023315238 0.005133982 -0.0027782975 0.0030378455 -0.032852776 0.0042676246 -0.056215417
0.046292223 -0.09474005 0.044731002 -0.0021186136 -0.026321048 0.047037285 -0.2530815 0.098090895
-0.22664669 -0.059699256 0.023072658 -0.05939273 -0.014797943 -0.010696504 -0.046218757 -0.042731564
0.0154983895 0.04421887 0.03702196 0.011022226 -0.04672019 -0.023561552 0.06923966 0.059302453
0.046465162 0.10795231 -0.01821569 0.059146125 -0.07584284 -0.05290609 -0.07047772 -0.061724428
-0.031931695 -0.11705824 -0.028683435 -0.04496413 -0.01213711 -0.02326685 0.006105226 -0.018292448
0.08569689 -0.0436131 0.12933448 0.031225048 -0.035675906 0.137846 0.034051023 0.008066446
-0.032142375 0.07589625 -0.011665819 0.025100084 -0.00936913 -0.19709747 -0.092468806 0.0068001566
-0.034938462 0.04772489 0.04332808 0.012983913 0.048102356 0.043777425 -0.07930077 0.056034148
-0.0893628 0.054922547 -0.10507737 -0.055938143 -0.003962674 0.022217747 0.04185574 -0.0128096845
0.004023298 -0.0037970266 0.021439133 -0.021778917 -0.06291702 0.039464056 0.07046594 0.028423404
0.08832604 -0.008404474 0.04993258 0.013715196 0.029123913 0.023998693 -0.034335203 0.025318347
0.07498376 0.02308899 0.04996856 0.011654985 0.0023777164 0.075376 -0.03845499 0.012909022
0.041719813 0.0075085787 -0.0120209595 -0.07758897 0.049777534 -0.015258366 0.03494331 0.0057399203
0.020780843 -0.016164314 0.08464767 0.03657239 0.03060696 -0.013825791 0.009185322 0.087205686
0.0706562 0.05474213 -0.053777356 0.017434696 -0.04161991 -0.025565973 -0.07291536 0.026301542
-0.03892317 -0.009253046 -0.03808583 -0.18272205 -0.044175178 0.023061017 0.014571639 0.030785087
0.010801639 -0.025078604 -0.009668084 0.03441077 -0.06179661 0.039196573 -0.011386403 0.022980938
-0.045515466 -0.0052957856 0.0064672483 -0.02369793 0.011111279 -0.09852493 -0.0004898508 0.00017678275
-0.03334664 0.032916863 0.01828797 -0.012064916 -0.08754436 0.07610468 -0.055248026 -0.01979449
00000000: dc22 883c a694 3f3d cad8 843d 11db 933c
00000010: 48ce abbc 81bf 353e 1d75 52be 7d2e d33c
00000020: 2b82 af3a ded6 b63c 8b81 ed3d 00a1 0c3d
00000030: 6be6 0abd db19 96bd 2b2f 5d3c 39d0 00be
00000040: a1a7 a73d 77f6 e83c 2847 21bc db7a 91bb
00000050: 2f3b 543d 4553 c13d 9b3f 44bd c92a 30bc
00000060: 3182 463c fded 7c3d 97fb 39bd f728 c53c
00000070: 2871 943d 93a1 09be 9bdc 21bd 5bad 8cbd
00000080: a15e 88bc cda1 943d 23a9 a9bd a799 b8bd
00000090: e7d6 5e3d 6a51 09bd ffb5 7abd ea64 913c
000000a0: a497 2e3d 7f14 8ebe d2f2 2c3d fafc 073e
000000b0: 5f7c 3ebd 2cbb 993b 094a c7bd febb 8d3c
000000c0: 2561 c03c bd04 a6bc d27a 0e3e 8435 87bc
000000d0: 3b39 bbbc 30b6 a53d e79a f73c d5b0 f83c
000000e0: 5e81 393d 1be1 4e3c fcdb da3c fac8 ce3c
000000f0: 3d48 c1bd 1eff 16bc cf69 b3bd ea64 4d3d
00000100: 7580 853d 614a 0fbe 25fc 8e3d e42e 98bc
00000110: 5f21 e2bc 5408 f83d dbf0 ebbc 0ca7 133c
00000120: e5b3 e0bc 4f0f bfbc e70d 1d3d 571a 47be
00000130: 1068 d13d 60f7 e9bd d7c1 db3d 1aeb 213e
00000140: 1ccc 10bc c5ff 1b3c 4916 a73d d412 94bc
00000150: 0365 bfbb e8e1 a43b 26d3 8b3c 27a6 86bd
00000160: ea3c 86bd 8399 d83c 5402 433d bb17 343c
00000170: 5559 9b3c 338d b1bd 70e6 9c3c 4021 e53b
00000180: ebee 81bd 99ff bebc f63a a83b 1914 36bb
00000190: 9716 473b a290 06bd 6ed7 8b3b 2342 66bd
000001a0: ea9c 3d3d 1207 c2bd db37 373d 70d8 0abb
000001b0: 3d9f d7bc 2baa 403d e693 81be e1e3 c83d
000001c0: 1216 68be 3587 74bd df02 bd3c cb45 73bd
000001d0: 1273 72bc 6440 2fbc e14f 3dbd 4b07 2fbd
000001e0: f5ec 7d3c d91e 353d 57a4 173d 9196 343c
000001f0: ac5d 3fbd 2804 c1bc 86cd 8d3d 21e7 723d
00000200: 4152 3e3d 1a16 dd3d 1239 95bc 3543 723d
00000210: 7e53 9bbd 0eb4 58bd 9f56 90bd c1d2 7cbd
00000220: cfca 02bd 3bbc efbd 86f9 eabc 4f2c 38bd
00000230: bbda 46bc 1f9a bebc 590e c83b 0bda 95bc
00000240: da81 af3d a6a3 32bd 4270 043e accb ff3c
00000250: e620 12bd 8027 0d3e 1679 0b3d 2029 043c
00000260: b9a7 03bd 7e6f 9b3d fe21 3fbc b19e cd3c
00000270: fb80 19bc ebd3 49be 4960 bdbd d9d3 de3b
00000280: a21b 0fbd 2d7b 433d c978 313d 7aba 543c
00000290: fa06 453d f54f 333d 7168 a2bd 1084 653d
000002a0: d803 b7bd 77f6 603d ce32 d7bd 651f 65bd
000002b0: 52d9 81bb fe01 b63c ed70 2b3d b6df 51bc
000002c0: dfd5 833b 89d7 78bb 1fa1 af3c b369 b2bc
000002d0: a3da 80bd 10a5 213d 7250 903d 33d8 e83c
000002e0: 48e4 b43d ebb2 09bc 1b86 4c3d b4b5 603c
000002f0: 4695 ee3c e898 c43c 12a3 0cbd 6c68 cf3c
00000300: 1691 993d 1f25 bd3c d5ab 4c3d 8df4 3e3c
00000310: 76d3 1b3b bb5e 9a3d fb82 1dbd 5d80 533c
00000320: 65e2 2a3d 860a f63b 8ff3 44bc f7e6 9ebd
00000330: 87e3 4b3d 3afe 79bc b720 0f3d f115 bc3b
00000340: 963c aa3c 066b 84bc c25b ad3d eecc 153d
00000350: 73bb fa3c 9285 62bc 087e 163c e598 b23d
00000360: 33b4 903d 4939 603d a545 5cbd 35d3 8e3c
00000370: a479 2abd bb6f d1bc a654 95bd 5576 d73c
00000380: e76d 1fbd 169a 17bc e3ff 1bbd 7d1b 3bbe
00000390: 08f1 34bd 75ea bc3c e2bd 6e3c 0231 fc3c
000003a0: 5cf9 303c a571 cdbc e266 1ebc 4ff2 0c3d
000003b0: 711e 7dbd 968c 203d 098e 3abc 8542 bc3c
000003c0: 6d6e 3abd 4588 adbb 36eb d33b 2922 c2bc
000003d0: 150c 363c 70c7 c9bd 5569 00ba c25e 3939
000003e0: 7d96 08bd d5d3 063d a7d0 953c edab 45bc
000003f0: 754a b3bd c5dc 9b3d c14b 62bd 0e28 a2bc

classifier.bias f4 [4]
0.051739562 -0.0030441696 0.03012997 0.028951947
00000000: ddec 533d b180 47bb 20d3 f63c a22c ed3c
