result_eegneteca_cv5/fold_4/best_model_fold4.pth (torch, 22590 bytes, 19 tensors)

conv_time.weight f4 [8, 1, 1, 64]
000000 7c 4e 39 3d 5e 16 e5 bd 58 44 8d bc dc 0b f2 bd
       0.045240864 -0.11185907 -0.017244503 -0.11818668
000010 d7 6f b4 3c 65 49 5c 3d 8a 8a e4 bd ac 29 8e 3b
       0.022025986 0.053780932 -0.11159237 0.004338464
000020 67 a1 6d bd 27 6f 94 bb 9c 64 fb 3d a8 42 f7 bd
       -0.058015253 -0.004529852 0.12275049 -0.120732605
000030 60 57 9d 3d 2b 50 b4 bd a8 a0 7b 3c ca fc 54 3d
       0.07682681 -0.08804353 0.015358128 0.05199889
000040 82 88 2a 3d 24 81 e1 3d 17 a8 1f 3d 0b 9e b2 3d
       0.04163409 0.1101096 0.038978662 0.087215506
000050 f7 a9 f8 bd a7 28 94 bc b5 bb 96 bd 8f bb 84 be
       -0.12141793 -0.01808579 -0.07360021 -0.25924346
000060 ad 03 79 be 89 5a 3e be f6 ec 77 3b 55 9a ab bc
       -0.24317808 -0.18589224 0.0037830449 -0.020947615
000070 cd cb a5 3d 70 c5 c0 3d 6b 8d a8 3d f8 43 d6 3d
       0.080955125 0.09412658 0.08230098 0.10462183
000080 d0 7c 90 3c 6c 53 9c bc 08 7c 56 bd 7c 02 45 3d
       0.01763764 -0.019082747 -0.05236438 0.048098072
000090 50 cd ec bd c6 51 d1 bd 0f 1b c3 3c 5e 57 ac bc
       -0.11562598 -0.10220675 0.023816613 -0.021037754
0000a0 70 61 94 bd 66 61 e7 bc 7c ef 9c 3d ed 1d 8e bd
       -0.07245147 -0.028244685 0.076628655 -0.06939302
0000b0 a6 27 e1 bd 39 1f 61 3d dd bd ec bd aa f4 0c be
       -0.109938905 0.054961417 -0.11559651 -0.13765207
0000c0 b0 29 a4 bd 50 48 a7 bd 5a 1f 5d 3d 3a e9 1d 3e
       -0.08015764 -0.081680894 0.053984977 0.15421
0000d0 b8 ea 47 bd 49 8e 5e bd ee 9d 94 3d 19 29 75 3d
       -0.04880783 -0.054334912 0.07256685 0.059853647
0000e0 df b4 b2 bc 60 3d 86 bb a9 f7 a1 bd 00 e3 1e 3c
       -0.021814762 -0.004096672 -0.079085656 0.009697676
0000f0 41 98 1c 3d b1 af 32 bd 0d f5 01 be 06 a4 70 bd
       0.03823114 -0.043624584 -0.12691136 -0.058750175
000100 13 b0 34 3d c7 31 af 3d f9 bd f8 3d 3f 4e 80 3d
       0.04411323 0.08554416 0.121456094 0.06264924
000110 19 2b 2b 3d c9 54 fc 3d 00 06 ee 3d 35 e3 e2 3d
       0.041789148 0.12320859 0.11622238 0.110784926
000120 ea d5 89 bb 5b 87 43 3e 5e b3 04 3c ab a3 35 bd
       -0.0042064087 0.19094603 0.008099405 -0.04434554
000130 f4 e9 11 bd be c5 be bd 29 c2 f6 bb 5f ab f7 3c
       -0.035623506 -0.0931506 -0.00753047 0.030233083
000140 f0 2c 23 3b 7f 2e 13 bd 6b c3 1e be d1 21 2b be
       0.002489861 -0.035933014 -0.15504234 -0.16712119
000150 16 b7 2f bd 11 2d 6d be 18 63 19 be d1 58 9a bd
       -0.042899214 -0.23161723 -0.14979208 -0.07536472
000160 d8 0c 8c bd 1d 24 9d 3d 77 7a b8 bc 45 d3 02 be
       -0.06838387 0.07672904 -0.022519333 -0.12775905
000170 35 f6 27 bd ab 29 ce bd 06 79 63 3d 8e 21 0a bd
       -0.041006286 -0.10066541 0.05553534 -0.033723406
000180 fb 0a ee bd b3 53 64 3a 9a 53 e0 bd 0a 70 17 be
       -0.11623188 0.0008709982 -0.10953446 -0.14788833
000190 e2 08 a6 bc 9d 7d 86 3c dc 8f d5 bc ba 90 a3 bd
       -0.020267908 0.016417319 -0.026069574 -0.07986589
0001a0 fb 16 1d 3a 23 06 8e 3d 10 5a 6b bd 83 e9 9a bb
       0.0005992499 0.06934764 -0.057458937 -0.004727544
0001b0 04 71 8d 3d 37 ed b1 3d 69 9d d8 bd 33 2d c4 bc
       0.06906322 0.08687823 -0.105768986 -0.023947334
0001c0 e1 87 17 3e db 7f a0 bd 58 c6 b1 3c 66 6d e0 3d
       0.14797927 -0.078368865 0.021701023 0.10958366
0001d0 b8 54 f1 3d 6d fb ba bd 66 60 86 3d 08 d8 10 3c
       0.11783737 -0.09129987 0.06561355 0.008840568
0001e0 7a be 32 3d 02 2b 97 bc 64 7d f6 3c c9 20 ed 3c
       0.043638684 -0.018453125 0.030089088 0.028946297
0001f0 37 6d 58 bd 1c 6b 9c bc 9f 1b 9a 3d 5d 52 f2 3d
       -0.05283853 -0.019094042 0.075247996 0.11832116
000200 88 5e 17 bb 83 0f 17 bc 21 da 33 bd 01 e2 71 3d
       -0.0023097117 -0.009220007 -0.043909196 0.059053425
000210 48 26 98 bd 6f f6 41 bd c0 2b 46 3a 7e 02 89 3d
       -0.074291766 -0.047354158 0.000755962 0.066899285
000220 eb eb 70 bd 2c 5c 1a bd ca 02 d3 bd ac f3 d4 3c
       -0.05881874 -0.03768556 -0.10303266 0.025995098
000230 82 15 f3 3c 4d 9c c2 bd ef 4b 13 bc 65 5e af bd
       0.029673342 -0.09502468 -0.008990272 -0.08562926
000240 b4 16 9c 3c fa 9b 03 3d 89 40 ce bd a5 5b 4c bc
       0.019053794 0.032131173 -0.10070903 -0.012473022
000250 24 d5 c8 bd e4 bc d9 bc 00 47 23 3d 49 a5 fe bd
       -0.09806278 -0.026579328 0.039862633 -0.124338694
000260 77 b0 83 bc e4 20 b0 bd cf 34 3f bd 11 4a 87 bc
       -0.016075356 -0.086000234 -0.04668122 -0.01651481
000270 ea 59 9a ba 02 1b 2b bd c9 1a dd bd dc ef ab bd
       -0.0011776064 -0.041773804 -0.107961245 -0.08395359
000280 77 d0 f0 bd 07 67 bb bc a1 04 fe bc ff 8d 9f bd
       -0.117585115 -0.022876276 -0.031008067 -0.077907555
000290 44 d5 a4 bd 66 4d ce bd f9 25 0b be 61 74 1f bd
       -0.0804849 -0.10073356 -0.13588704 -0.038929347
0002a0 e5 32 18 bd fb 39 17 be 55 06 11 bc a9 7b 00 be
       -0.03715791 -0.14768212 -0.008851607 -0.12547173
0002b0 f5 67 e8 bd ef 31 e7 bd 95 32 c3 bd 56 c3 c3 bd
       -0.11347953 -0.11288821 -0.09531132 -0.09558742
0002c0 03 ba a4 bd ff dd aa bd 65 47 b1 bd b3 c6 cd bd
       -0.080432914 -0.08343124 -0.086561956 -0.100476645
0002d0 6c de a8 bd 1d f6 c7 bd 2d be be bc 8c 70 50 bd
       -0.082455486 -0.09763739 -0.023284042 -0.050888583
0002e0 85 a1 32 3b 32 b2 01 be 72 6f 13 be b9 cc 2e bd
       0.0027256918 -0.12665632 -0.14397982 -0.042675707
0002f0 bd 48 e8 bc df c9 a0 bd b8 0c 5c bc f0 2e f1 bd
       -0.028354997 -0.07851004 -0.013430767 -0.11776531
000300 90 fc 80 3d e0 6d 40 bc 03 00 42 be a5 96 2d bd
       0.062981725 -0.011744946 -0.18945317 -0.042379994
000310 76 9e b1 bd 95 6e fb bd d6 df d7 bd 19 21 e0 bd
       -0.08672802 -0.12276951 -0.1054074 -0.10943813
000320 90 14 67 bd 1c d4 c5 3d 8c 2a 6a 3e 96 6e 90 3c
       -0.056416094 0.09659597 0.22867793 0.017630856
000330 fc 65 56 3a 42 3b 22 bc a5 c5 9a 3d 4f fa f2 3c
       0.0008178649 -0.0099018235 0.07557229 0.029660372
000340 a3 d9 e0 bd a1 60 48 bd bd 2b 82 ba 8b bb 04 be
       -0.10979011 -0.048920278 -0.0009931248 -0.12962167
000350 76 0e 41 3c 9b 8e ea bc 9b c5 9b 3c 45 5d f9 3c
       0.011783233 -0.028632453 0.019015124 0.030439982
000360 84 8b b0 3d 58 a7 7e 3d 9f 9f d4 bd 35 06 16 be
       0.086203605 0.06217131 -0.10382008 -0.14650805
000370 d0 f5 1e be 1f 30 f4 bd 1e c9 22 bd 71 1a 44 be
       -0.15523458 -0.11923241 -0.03974258 -0.19150712
000380 fc 69 b1 bd a7 2b 82 3d 04 38 f2 3d 19 fb 41 bd
       -0.08662793 0.06355982 0.118270904 -0.047358606
000390 86 08 26 3d 88 fd f4 3c df e2 e3 3c c9 3e eb 3d
       0.040535472 0.02990605 0.027818142 0.11486585
0003a0 d7 a8 99 bd 51 02 1c bd 0b b4 fb bd 0c 02 18 be
       -0.07502907 -0.038088147 -0.122902 -0.14844531
0003b0 a5 e5 78 bd 4a 62 2d 3d 2c ad f4 bc af 17 e9 3c
       -0.06076588 0.042330064 -0.029867731 0.028453676
0003c0 b8 58 f1 bd bf 56 bb 3d 15 d9 9a 3b 0d 21 f8 3c
       -0.117845 0.09147405 0.004725585 0.030289197
0003d0 9a 54 b6 bd 54 e0 9b bd 81 f6 f7 bc 53 d0 8a bd
       -0.08902855 -0.076111466 -0.03026891 -0.06778016
0003e0 3d 6e 52 3d 60 d1 18 be 7b 50 4a 3d ed 73 50 bd
       0.051374663 -0.1492362 0.04939316 -0.050891805
0003f0 47 45 86 3d 58 5a 1f 3d e6 3e a1 3d a8 20 33 bd
       0.06556182 0.038904518 0.07873325 -0.043732315

bn1.weight f4 [8]
000000 8a d7 b0 3f 26 97 8b 3f a3 b6 84 3f bb 6e 95 3f
       1.3815777 1.0905502 1.0368236 1.1674417
000010 68 58 82 3f 23 a3 b3 3f 20 fd 81 3f 02 2e 86 3f
       1.018323 1.403416 1.0155373 1.048279

bn1.bias f4 [8]
000000 9d 26 71 3d 30 80 5b bc fe a4 0e 3d 41 f9 26 3c
       0.058874715 -0.0133972615 0.034825318 0.010191263
000010 db 31 64 bc 7c 50 6d bc a9 15 23 bd bc 37 02 3d
       -0.013927902 -0.014484521 -0.03981558 0.031791434

bn1.running_mean f4 [8]
000000 14 f0 c5 b8 03 09 65 39 27 cb e8 38 12 9f 92 b9
       -9.43841e-05 0.00021842499 0.00011100462 -0.00027965807
000010 b0 0e 9b b8 4e cf a0 38 fc f1 08 38 06 37 71 38
       -7.393712e-05 7.668008e-05 3.2650292e-05 5.7510122e-05

bn1.running_var f4 [8]
000000 73 c3 2d 3f 6c 89 b6 3f c2 63 81 3e 37 f8 26 3f
       0.67876357 1.4260688 0.25271422 0.65222496
000010 72 c0 9e 3f 34 dc 02 3f 57 1b ce 3e 94 db eb 3e
       1.240248 0.51117253 0.40255234 0.46065962

conv_depth.weight f4 [16, 1, 22, 1]
000000 e5 53 04 be a4 9a 3a 3d 88 a9 08 3e 44 c6 01 3e
       -0.12922628 0.045557633 0.13345921 0.12673289
000010 b5 a9 ff 3b 0c 5a 65 3c 7e df c3 3d b5 cc 27 be
       0.007802213 0.01399852 0.09564112 -0.16386683
000020 43 4e 08 3e 3f e5 e6 3b 29 3b 11 be bc 55 43 3d
       0.13311104 0.007046371 -0.14182724 0.047689185
000030 15 c7 93 bb b7 4d af be da 65 c6 bd 33 94 4a 3e
       -0.0045098164 -0.3423898 -0.096873954 0.19783096
000040 08 80 ce bc 45 51 0e bb 44 d5 c5 3c 45 f0 c4 bc
       -0.025207534 -0.002171592 0.024149545 -0.02404035
000050 2f 04 a1 3c 3d 84 5f 3d 2a e6 52 3e e2 2b 7a 3c
       0.019655315 0.05456947 0.20595613 0.015269252
000060 fd 2d b3 bd 84 da a0 3d e7 fb 0b be 82 64 bf bc
       -0.08749006 0.078541785 -0.13670312 -0.023363356
000070 42 79 64 3e 88 75 29 be 59 68 12 be 62 30 9b 3e
       0.22311881 -0.16548741 -0.14297618 0.3031035
000080 49 4c 0c 3b c4 ae cc 3d 82 3c 58 bc 17 c4 15 be
       0.0021407774 0.099942714 -0.01319802 -0.14625584
000090 f9 4d 30 be 62 88 62 3e 21 fb 35 be 4f f4 23 bd
       -0.17217244 0.22122338 -0.1777158 -0.040027913
0000a0 67 26 c6 bd ec b1 93 bd c5 7f 13 3d 89 a8 ef 3d
       -0.096752934 -0.0721167 0.036010522 0.117020674
0000b0 26 8d 2f bb db e8 0a 3e 17 97 5d bd 74 bd 25 be
       -0.0026787012 0.1356539 -0.05409917 -0.16185552
0000c0 b4 c0 2a bd 1f ef da 3d 86 63 c2 ba 31 f1 5d be
       -0.041687682 0.1069014 -0.0014830686 -0.21674038
0000d0 77 2e 75 3c d5 51 fd 3d 3d 42 17 3e 1f e5 28 bb
       0.014964691 0.12369124 0.14771362 -0.0025771332
0000e0 3d 38 89 bd da 89 b7 bc 43 13 56 3e f2 84 b0 b9
       -0.0670018 -0.0224046 0.20905785 -0.00033668388
0000f0 ac 45 47 be cb 4f ca bd d5 fe b5 bd 82 4c 77 bd
       -0.19460171 -0.098785006 -0.08886496 -0.060375698
000100 17 e3 5c 3e c3 52 25 bd 32 99 e2 bd cb 3e 3e be
       0.21571003 -0.04036213 -0.11064376 -0.18578641
000110 62 c9 b8 3d 5d 5d 04 3e ee 88 44 bb 1b 42 c9 3d
       0.09022786 0.1292624 -0.0029988843 0.09827062
000120 f5 1a 4f 3e 07 67 18 3e 79 a1 2f bd 15 ea 5f be
       0.20225127 0.14883052 -0.0428786 -0.21866639
000130 4d 23 e6 bc 5d ac 36 be bb 90 78 3d db 1a 80 bd
       -0.028093005 -0.17839189 0.0606849 -0.06255122
000140 12 10 32 be e3 93 8b bc 6c 2a e4 bc 15 91 92 3d
       -0.17388943 -0.017038291 -0.02785226 0.071565785
000150 6b 7e 6e 3d 37 d2 ba bd d1 be f2 3d ed c2 47 3e
       0.05822603 -0.091221265 0.118528016 0.19507952
000160 c3 3e e7 bd fb 8d 7c bd 33 2c 50 bd f0 e0 07 3e
       -0.11291268 -0.06165884 -0.0508234 0.132694
000170 b0 fd 5b 3e 5b e4 89 bd 4a 53 c7 3d 48 cf f3 bc
       0.21483493 -0.067330085 0.09732683 -0.029761925
000180 b3 34 4a be db a1 60 3e ea 5c 70 3d d6 b3 f0 bd
       -0.19746666 0.21936743 0.05868236 -0.11753051
000190 05 1a 32 bd 7a c2 98 be b4 7f 55 bb 4a 79 31 3e
       -0.043481845 -0.29835874 -0.0032577338 0.17331424
0001a0 8e c2 a4 bd 0d 12 94 bd 8f 09 86 be f3 38 cd 3d
       -0.08044921 -0.072300054 -0.26179168 0.10020628
0001b0 cf 2d 59 3d 28 9a 41 be 7a 6c f6 bd 6b ab 11 3d
       0.053022202 -0.18906462 -0.12032409 0.035563868
0001c0 a7 1f e9 3b b9 14 87 3d 5b 4d d8 3d 37 da 04 3d
       0.007114369 0.065957494 0.105616294 0.03243467
0001d0 10 6b fd 3c 1e f2 7d be 3f ff 86 bd 56 cc e9 3d
       0.03093484 -0.24799392 -0.06591653 0.11415927
0001e0 41 02 f3 bd 0c e1 7a 3d ba aa 11 be 40 5f a2 3d
       -0.11865664 0.061249778 -0.14225283 0.07928324
0001f0 d6 b8 0d be 05 e5 6c 3e 46 e5 cb 3c c3 df aa 3d
       -0.1384004 0.23134239 0.0248896 0.083434604
000200 18 42 53 bc 53 4e 44 bd 85 77 6b be 18 94 8a 3e
       -0.012894176 -0.04792626 -0.22994812 0.27066112
000210 cc ce 18 3e 8a 4c 15 3d 00 10 47 3c 0b 55 51 3e
       0.14922637 0.036449946 0.012149811 0.20442598
000220 c1 de 3c bd 83 ef 4b be e8 2f 58 bc ac ed a8 bd
       -0.046110872 -0.19915585 -0.0131950155 -0.08248457
000230 d2 3b 76 3e 9d 3a b1 3d 8a eb 56 3d 3c 1e 45 be
       0.24046257 0.08653758 0.05247072 -0.19249815
000240 93 48 e1 bd 98 36 03 be b2 b5 2e bd 67 9a 21 3e
       -0.110001706 -0.12813795 -0.042653747 0.15781556
000250 af c1 ee bd 43 ec 8c be 65 b3 26 3d e2 8f f5 3b
       -0.11658036 -0.27524003 0.040698428 0.007493959
000260 9a 37 e0 3d d8 09 f9 3d 42 a9 d6 ba 92 6f a3 3d
       0.10948105 0.12160081 -0.0016377347 0.07980265
000270 a1 5e ac bd 80 ee b2 3d 13 99 99 bd b9 19 12 3e
       -0.084164865 0.087368965 -0.074999 0.14267625
000280 4d 86 d8 3b c0 5f c9 3d 38 87 1d 3e df a7 31 3d
       0.006607807 0.09832716 0.15383613 0.043372985
000290 db 00 c2 bd b5 8a b8 bc 80 c1 97 3d 03 7b eb 3c
       -0.094728194 -0.022527078 0.07409954 0.02874518
0002a0 39 8a f7 bd 33 9d 8a be d7 ad 5f be 7b df 0e 3e
       -0.12086911 -0.27073058 -0.21843658 0.13952439
0002b0 53 02 16 be a1 39 4c be 29 38 23 3e e3 b4 70 3d
       -0.14649324 -0.19943859 0.15939392 0.058766257
0002c0 b9 98 5b be 81 16 3f be ef 5f 21 3d c9 95 07 be
       -0.21444978 -0.18660928 0.03939813 -0.13240732
0002d0 71 7c 4a bd 8f 1f f5 bd 31 04 4e 3e 67 a0 1e bc
       -0.049435083 -0.1196891 0.20118786 -0.009681798
0002e0 7b c9 56 3d e7 12 c5 bd ac 78 11 3d 11 42 bf bd
       0.05243824 -0.09622746 0.035515472 -0.09338773
0002f0 b5 73 10 3d b1 42 85 3c 17 b4 3d 3e d0 7e 73 3e
       0.035266597 0.016267153 0.1852573 0.23778844
000300 82 a8 56 3e 30 e1 0d bd 84 ef 3e bd dd c6 11 3d
       0.20962718 -0.034638584 -0.04661514 0.03559004
000310 14 f4 e8 bc 34 f2 7e be d5 cd c0 bc cc 57 14 bd
       -0.028436698 -0.2489708 -0.023535648 -0.036216542
000320 24 bc db bd 71 8f 38 3d d4 6b cb bd 95 30 c5 bc
       -0.10729244 0.04505867 -0.09932676 -0.024071017
000330 05 a1 ef ba 7a 9f 22 3e 73 75 95 3d 52 09 a3 3d
       -0.001828224 0.15881148 0.07297792 0.07960762
000340 f9 dd 95 bc 48 96 62 bd f9 21 d3 3d 05 11 2b bd
       -0.018294321 -0.0553191 0.10309214 -0.041764278
000350 ef fd ab bd 00 f4 08 3e 3c c4 f6 bd 47 96 34 3e
       -0.08398043 0.13374329 -0.120491475 0.17635451
000360 20 17 5c 3e 4b 7a 09 be b1 ad 43 3d cb 17 b4 be
       0.21493196 -0.13425557 0.047773067 -0.35174403
000370 5e 0b 7a 3d bf cb c3 bd e6 78 d5 3c b3 7e a7 bd
       0.061045997 -0.09560346 0.026058625 -0.08178463
000380 c7 b5 65 3e 49 87 4b 3e d8 8b 41 3d ba f5 39 bc
       0.22432624 0.19875826 0.047252506 -0.01135009
000390 04 a7 69 3c 43 4e d0 3a 46 70 10 3d 56 82 72 be
       0.014261011 0.0015892464 0.035263322 -0.23682532
0003a0 51 c0 43 bd b8 d6 21 3c 81 fc 95 3d bb ee d6 3d
       -0.04779083 0.009877853 0.07323552 0.10494753
0003b0 d1 18 a2 bd dd ab 8c be 16 41 0e be a2 67 32 3c
       -0.079148896 -0.2747487 -0.13892016 0.010888966
0003c0 40 11 28 3d 94 ac da 3d 09 bf 40 3e 48 06 d0 3d
       0.041032076 0.10677448 0.18822874 0.10157448
0003d0 c6 79 a7 3d 72 01 8a bd b6 e2 95 3d 8e 9e da 3d
       0.08177523 -0.06738557 0.07318632 0.10674773
0003e0 05 48 c6 bc 32 05 0b be 01 d8 16 3e 6a ae b4 bd
       -0.024204263 -0.135762 0.14730836 -0.08822329
0003f0 06 e4 52 bd 8e 1d a0 3d 3f a0 07 bd 1c 4f d4 3c
       -0.05148699 0.07818137 -0.033111807 0.025916629

bn2.weight f4 [16]
000000 4f 30 b2 3f ff 83 a3 3f ac 4f 87 3f 48 d7 83 3f
       1.3920993 1.2774657 1.0571189 1.0300074
000010 4e 51 8d 3f c6 80 81 3f a9 d5 75 3f 98 e7 9a 3f
       1.1040437 1.0117424 0.96029145 1.2101927
000020 73 51 7e 3f 68 90 81 3f 54 cc ac 3f 32 40 9f 3f
       0.9934303 1.0122194 1.3499856 1.2441466
000030 4a b2 77 3f f2 7d 83 3f 93 4a 8c 3f 29 21 70 3f
       0.9675642 1.027281 1.0960258 0.938006

bn2.bias f4 [16]
000000 20 08 1a bf 22 1b 09 bf dc 75 9d be 4c 10 91 be
       -0.6016865 -0.53557026 -0.30753982 -0.28332746
000010 60 5a f1 be 93 cd 95 be a3 2b 55 be 93 fc df be
       -0.47139263 -0.29258403 -0.20817427 -0.43747386
000020 6f f8 64 be 54 09 3c be ac 3b 1b bf c1 60 0e bf
       -0.22360395 -0.18362933 -0.6063793 -0.55616385
000030 67 a1 08 be 59 cc d3 bd d5 83 a4 be 1e 67 0d be
       -0.1334282 -0.103417106 -0.3213183 -0.13808867

bn2.running_mean f4 [16]
000000 ca df c1 ba c0 73 00 3b 8b 88 ab 3a 0d 48 99 b9
       -0.0014791426 0.0019600242 0.0013086958 -0.00029236116
000010 84 22 9b bc 6c 7d 19 39 4b e4 d4 b9 8d 9a a9 ba
       -0.018937357 0.0001463794 -0.00040605883 -0.0012939736
000020 17 65 3a 3b 40 95 8d 3a 76 4b a4 39 06 7e 32 b9
       0.0028441602 0.0010801926 0.0003133674 -0.0001702235
000030 9f 5e 87 bb b9 d1 a6 39 c7 89 09 3c 9e 49 e0 3b
       -0.0041311528 0.00031818243 0.008394665 0.0068447134

bn2.running_var f4 [16]
000000 df c7 a7 3d 70 4a be 3d b0 ce 3c 3c 44 ae 42 3d
       0.08192419 0.092915416 0.0115238875 0.047529474
000010 ce 60 82 3e 09 48 a9 3c e1 a5 69 3e 73 18 1f 3e
       0.2546448 0.020664232 0.22817184 0.1553667
000020 3c 66 0c 3e 8e 97 d3 3c 4f 65 07 3e 20 33 40 3e
       0.13710874 0.025829103 0.1322224 0.18769503
000030 4c c5 8a 3c a2 a6 90 3c 3a 5e 6e 3d 2e 12 25 3e
       0.016939782 0.017657582 0.05819533 0.16120216

conv_sep.0.weight f4 [16, 1, 1, 16]
000000 e5 1e 8a be 9a 27 f1 bb cb 6b 43 be 4b 5e 2e bd
       -0.26976696 -0.007359457 -0.19084089 -0.042570394
000010 05 7f 30 be 20 a0 0b 3d 46 2b ec bd 2c dd 38 3d
       -0.17235954 0.034088254 -0.11531691 0.0451328
000020 d3 53 de bd 81 ed 3d be fc 16 6d be c7 b5 80 ba
       -0.10855832 -0.18547632 -0.23153299 -0.0009819799
000030 85 aa 44 be 77 bc 9e be 7b 40 03 bd ce 69 87 be
       -0.19205673 -0.31003162 -0.032043915 -0.2644791
000040 19 ad 86 3e 43 dd 10 3c 05 92 de 3d 93 33 7a 3e
       0.26303938 0.008841815 0.10867695 0.24433737
000050 7e 86 4c 3e 93 eb 70 bd 24 cc 08 be 13 13 52 3e
       0.1997318 -0.05881841 -0.13359123 0.20515089
000060 45 a8 0e 3e 53 aa 91 3e ac 70 4f 3e 2e bb 44 3e
       0.13931377 0.2845026 0.20257825 0.19212028
000070 9d 05 e0 bd 3e 44 18 3e 39 1c 1b 3e 0c 9a 22 3e
       -0.10938571 0.14869782 0.15147485 0.15879077
000080 3f 7b 99 bd 99 8e aa 3d ea 0f 37 3e fc 44 09 3e
       -0.074942105 0.083279796 0.17877164 0.13405222
000090 9e 08 02 3e 6a 87 15 3e a1 72 44 3d 16 0f 55 3d
       0.126986 0.14602438 0.04796088 0.05201634
0000a0 13 8b ec bd 66 69 2f be 00 7c 0b be 31 a9 1c 3d
       -0.11549964 -0.1713005 -0.13621521 0.03824729
0000b0 6a e2 e0 3d 45 da 5d 3e 6d dd a2 3d ab 4f a8 3e
       0.10980685 0.21665294 0.0795239 0.32873282
0000c0 ad c3 f1 bd 9e af b1 bd 09 40 92 3d e5 e5 16 be
       -0.118049 -0.086760744 0.0714112 -0.14736135
0000d0 1d e7 75 3d 5a d8 4a 3e f4 0b 44 3d 2a ce c5 3d
       0.06003486 0.19809094 0.047862962 0.09658463
0000e0 e2 2c 1a bd 96 de 4a be 3e 1f 80 be 6d f9 5c bd
       -0.03764046 -0.19811472 -0.25023836 -0.05394881
0000f0 88 25 26 be 4b 16 29 be bb 5f da bd a5 16 2e be
       -0.16225255 -0.1651241 -0.106627904 -0.17000826
000100 65 3e 28 be e0 88 30 3c 59 47 0e be 0c 70 58 be
       -0.16430052 0.010774821 -0.13894404 -0.21136492
000110 f7 f4 85 bd 8d d2 27 be 66 6d 26 be 0c c5 ba bd
       -0.06540864 -0.16388912 -0.1625267 -0.09119615
000120 1b 8f 4d bc 71 6c 60 be 32 a1 36 be 06 1a 1b be
       -0.012546326 -0.21916367 -0.17834929 -0.15146646
000130 0a 08 51 be 5a 9e c2 bd 43 97 0a 3e b6 05 0a 3e
       -0.20413223 -0.095028594 0.13534264 0.13478741
000140 80 84 8f 3d f7 b5 cc bd 4f e7 0f 3e 81 56 4a 3d
       0.07007694 -0.099956445 0.14053081 0.049398903
000150 38 c8 31 be 46 41 54 bd aa 0e 4e 3e 2a 50 36 bb
       -0.17361534 -0.051820062 0.20122781 -0.0027818778
000160 ef a3 04 3e c9 99 4a 3e 5b 26 2a 3d e1 8b 8b 3e
       0.1295316 0.19785227 0.041540485 0.27255157
000170 ce 44 b0 3d f3 32 8d 3e c6 e1 ba 3e 64 bf 14 3d
       0.086068735 0.27577934 0.36500376 0.036315337
000180 e4 53 16 bc 86 50 31 3e 01 64 88 3e db c7 80 3d
       -0.0091752745 0.17315874 0.26638797 0.062881194
000190 9b 51 9f 3d c0 97 1b 3e a7 b9 09 bd 74 09 30 be
       0.07779237 0.15194607 -0.033624317 -0.17191106
0001a0 22 92 80 3d c3 6d de 3d 53 f4 83 3e 27 e3 0f 3d
       0.062778726 0.10860779 0.25772342 0.03512874
0001b0 3e aa b2 bd 12 53 8b 3e e8 f8 a6 3d f2 66 73 3e
       -0.08723877 0.27211815 0.08152944 0.2376974
0001c0 d1 b6 1f be 7d 2f 31 be 7d 04 8c bd 05 90 49 bd
       -0.15597083 -0.17303272 -0.068367936 -0.049209613
0001d0 37 a6 bd 3c eb b4 b6 bd a7 98 74 bd 8c f8 50 3d
       0.023150546 -0.08921226 -0.059715893 0.051018283
0001e0 65 a3 41 be 07 d8 2f be 38 55 9b be bb c4 1c be
       -0.18909986 -0.17172252 -0.30338454 -0.15309422
0001f0 37 0a 0a bd a2 2b 25 bd 6f 8b cf bd de 04 81 bd
       -0.033701148 -0.040324815 -0.10134017 -0.062997565
000200 9d f9 31 3d e1 df 40 bd 82 a3 da 3d 79 fb ff bb
       0.04345094 -0.047088508 0.10675718 -0.0078119603
000210 5d 10 a5 3d 3b 68 39 3e a5 87 8e 3e e0 94 3e 3b
       0.08059762 0.18106167 0.27837864 0.0029080436
000220 2e 91 a3 bc 16 3d 54 3b 0b 1f 6e 3d 22 ce 0e bd
       -0.019966688 0.0032385043 0.058135074 -0.034864552
000230 90 1d 9e bb a6 2e 8a bc 90 86 0b be 60 7e 4f be
       -0.0048253015 -0.016867947 -0.1362555 -0.20263052
000240 76 03 2a be a5 a6 25 3d 09 b3 d3 3d ae c3 25 3d
       -0.16602883 0.040442128 0.103368826 0.040469818
000250 8e d1 9e 3d 8e 8e ea bd 2f 29 fe bc d7 26 2a be
       0.07754813 -0.114529714 -0.031025497 -0.16616379
000260 af 8f 14 be 49 79 15 be b9 e6 36 be 1b 38 3b be
       -0.14507936 -0.14597048 -0.17861451 -0.18283121
000270 a7 41 94 bd ac b3 3a 3e 96 1b 43 3e b9 c2 2e 3e
       -0.07239085 0.18232602 0.19053492 0.17066468
000280 b5 e5 2e be d8 4d e8 bd 4d b2 64 be c6 d7 99 be
       -0.17079814 -0.113429725 -0.22333641 -0.30047435
000290 b4 43 69 bc 79 52 d8 bd c7 1d 49 bc 46 ae e9 ba
       -0.014237333 -0.105626054 -0.012275166 -0.0017828427
0002a0 b6 fe a9 bd 78 60 2b be c8 9b 6c be a4 e9 86 3d
       -0.083005354 -0.16736019 -0.23106301 0.06587532
0002b0 2e c6 46 be 59 61 ab bd bc 6a 62 bb 3f 22 51 be
       -0.19411537 -0.08368177 -0.0034548482 -0.2042322
0002c0 9e 48 c2 bd 70 96 bf bd 3a 16 60 3d 84 08 5c be
       -0.09486507 -0.093548656 0.054708697 -0.21487623
0002d0 25 5d 22 be 34 5f 5d bd 67 b9 9d bd 53 17 f4 bd
       -0.15855844 -0.05404587 -0.07701378 -0.11918511
0002e0 f4 9d 8c bd 74 2f 8f bd bd ce b5 bd f0 49 da bd
       -0.06866065 -0.06991473 -0.08877323 -0.10658634
0002f0 09 2a d6 bd 7b 6c ca bd d0 6c e4 bd 5d 2f 19 be
       -0.10457236 -0.09883972 -0.11153567 -0.14959474
000300 ba 7a 1e be 23 bc 5e bd f8 2b ee bd 8e 1f e4 bd
       -0.15476504 -0.05437864 -0.1162948 -0.11138831
000310 45 66 ca 3d 6f ad 31 3d 32 8a 36 3e e4 4b 07 3e
       0.098827876 0.04337829 0.17826155 0.13212544
000320 2a ba ee bc d6 4d b6 3d 79 47 7b bd 27 ac 3d be
       -0.029141504 0.08901565 -0.06134746 -0.18522702
000330 c7 80 e4 bd a0 08 49 be aa 45 c5 bd de 34 8d bd
       -0.11157375 -0.19632196 -0.09632428 -0.06894849
000340 03 54 b8 3d a3 86 3f 3e 94 b3 28 bd f3 43 c3 3d
       0.09000399 0.18703704 -0.041186884 0.09534445
000350 95 eb 1b 3c ba de 88 3d d5 04 94 3e 00 f3 27 3e
       0.009516616 0.06683107 0.28909937 0.16401291
000360 8f 2c fc bc d5 af 3e 3e 13 72 1c 3d 5a bc e2 bd
       -0.030782966 0.18621762 0.038194727 -0.110710815
000370 fd 51 fe bd 10 80 91 be c5 08 84 be ea bb 03 bc
       -0.12417982 -0.28418016 -0.2578794 -0.008040408
000380 1e f7 a6 bd 4d e7 3f bc d0 d1 34 bb 91 67 16 3e
       -0.081526026 -0.011712861 -0.0027590878 0.14687945
000390 c0 24 09 3c 0e 19 37 3e 71 e5 58 3e 80 73 8a 3e
       0.008370578 0.17880651 0.21181275 0.27041245
0003a0 39 df 5c 3e 5b 35 4e 3e a4 56 ce 3d d2 3c 4e ba
       0.21569528 0.20137541 0.10075119 -0.00078673393
0003b0 6b 40 92 bc 2a 2c a3 bd fb 4e 26 3d b5 9c 06 3d
       -0.017852983 -0.07967408 0.040602665 0.03286429
0003c0 4a 2a 2f 3e d7 62 d2 3c 63 63 05 be 8a 44 47 bd
       0.17105976 0.025681896 -0.13026194 -0.04864935
0003d0 9c 61 10 3d 0c 21 b9 3d 92 89 81 bc ad 0f ed 3d
       0.035249338 0.09039506 -0.015812669 0.115752555
0003e0 e7 41 65 3e 87 ae 88 3e 21 9f 15 3e 8a b2 d8 3d
       0.22388421 0.26695654 0.14611484 0.105809286
0003f0 04 27 94 bd ba 13 48 be 43 b7 95 bc e4 b4 21 be
       -0.07234004 -0.19538775 -0.018275863 -0.1579166

conv_sep.1.weight f4 [16, 16, 1, 1]
000000 28 44 30 bd b2 9a b2 3d f3 c5 2b 3e 64 b2 0b be
       -0.04303375 0.08720912 0.1677473 -0.1364227
000010 27 a2 f5 bd fe 2b 3c 3e 22 ba 21 3e b7 9c c0 3c
       -0.11993819 0.18376157 0.1579366 0.023512227
000020 23 44 79 be 87 11 92 3e c3 27 5d be 4b 62 48 bd
       -0.24342398 0.28528997 -0.21597199 -0.048921864
000030 01 54 ea bd dd a3 42 be 79 ae 9a 3d 99 18 11 be
       -0.11441804 -0.19007821 0.07552809 -0.1416954
000040 0f 2f 56 3e 8c 31 0c be f9 8d ff bd d8 90 27 3e
       0.20916389 -0.13690776 -0.12478251 0.16363847
000050 36 e2 ef bd 35 a4 30 be b8 ea cf bd 71 65 14 3e
       -0.11713068 -0.1725014 -0.10152191 0.14491822
000060 4b b6 25 bd c8 29 24 3e f0 bd 40 be 24 88 93 be
       -0.04045705 0.16031563 -0.18822455 -0.28814805
000070 40 dc ff 3b 86 f0 bc 3d 74 cf f2 3d ce 95 38 bd
       0.0078082383 0.09225564 0.11855975 -0.04506474
000080 14 ad e4 3d d9 6f 55 bd e5 57 84 be 0e e5 40 be
       0.111658245 -0.05210862 -0.25848308 -0.18837377
000090 9f 04 6c bd 59 a0 01 be ef b3 23 3e 62 f5 2a 3e
       -0.057621595 -0.12658824 0.15986608 0.16695169
0000a0 bc 55 59 bd 5f ee c3 3b 4c 98 50 3c 71 d6 64 bd
       -0.05306028 0.005979344 0.012731623 -0.05586857
0000b0 37 40 5d 3e f9 40 32 be e3 77 9f be 6a c2 1e 3e
       0.21606527 -0.17407598 -0.31146154 0.1550385
0000c0 24 21 64 be 60 9f 1a 3d b6 3a 19 be ff db 81 bc
       -0.22278267 0.037749648 -0.14963803 -0.015851973
0000d0 ed 91 75 3d 8e 49 0b 3d 46 6c 10 bd 87 42 29 3e
       0.05995362 0.034005694 -0.035259508 0.16529284
0000e0 8f e9 99 bd 7d 92 e6 3d 96 82 e3 3d 8b d5 6d 3e
       -0.07515251 0.11258409 0.11108892 0.23225991
0000f0 bc 42 bf 3d b8 25 a6 bd fa c2 e3 3d b7 02 43 be
       0.093389004 -0.08112663 0.11121173 -0.19044004
000100 07 51 06 be 30 80 b8 3d 66 57 b7 3c 54 02 16 3e
       -0.13116847 0.09008825 0.022380542 0.14649326
000110 3d 25 0d 3d 65 24 35 be 83 12 39 be fd a3 08 3e
       0.03445934 -0.17689665 -0.18073468 0.13343807
000120 6a e2 7e bc 34 c1 da bd cb 55 08 be 67 0c 61 be
       -0.015556911 -0.10681382 -0.13313977 -0.21977387
000130 29 25 17 3e 3e 24 8f 3b 53 b6 c3 3d eb bb 98 3d
       0.14760269 0.004368334 0.0955626 0.074577175
000140 55 ee 28 bd 91 9f f6 3c ff e4 67 3e 33 36 f1 bd
       -0.041242916 0.030105384 0.22645949 -0.11777916
000150 92 f7 27 3e c1 cd cd bd c2 cb ce 3d c9 b4 83 be
       0.16403034 -0.1004901 0.100974575 -0.25723866
000160 f4 4b b8 3d 6b ce 99 3e bd c8 1b 3e ff a7 23 3d
       0.08998862 0.30040297 0.15213294 0.039955135
000170 18 42 89 3d d1 b8 4f be fd 02 c1 bd e3 34 71 3e
       0.067020595 -0.20285346 -0.09424398 0.23555331
000180 01 1c 60 3d b8 3b a6 3e 50 a7 f3 3d 22 0e ff bd
       0.054714207 0.32467437 0.11897147 -0.124538675
000190 a7 38 e7 3d 18 c7 34 bd d1 27 bd bc ec 03 72 be
       0.112901025 -0.044135183 -0.023090275 -0.23634309
0001a0 2b 4c 1d be 5e 78 83 bc 1b f2 65 3e f7 8d a6 3c
       -0.15361087 -0.016048606 0.22455637 0.020331366
0001b0 f2 28 25 be 88 8d 8b be 2a 32 7d bd fc c6 1a 3e
       -0.161289 -0.27256417 -0.06181542 0.15114969
0001c0 c4 bd 17 3e f9 9f 50 3d 82 e8 e8 bd 25 00 6e be
       0.14818484 0.05093381 -0.11372472 -0.23242243
0001d0 48 eb 05 be 63 fb 58 3e 31 65 0f 3e cf 17 7f 3e
       -0.13078034 0.21189646 0.14003445 0.24911426
0001e0 ef 7b b7 3e 80 62 23 3d 25 6e 68 3d 77 2c ea 3c
       0.3583674 0.03988886 0.056745667 0.028585656
0001f0 08 a6 96 3e 5a bf 7d 3d 47 12 48 bb a5 3f 62 3c
       0.29423547 0.061950065 -0.0030528472 0.013809119
000200 d1 b1 28 bd 60 9e 8f 3d 3d 15 88 bd 44 cb 53 3e
       -0.041185204 0.070126295 -0.06644676 0.20683008
000210 cf 6e 55 3e 54 ba 40 be 65 6c 30 be 74 98 e0 3d
       0.20843051 -0.18821079 -0.17228849 0.10966578
000220 54 47 1e 3e 32 3d 7f be cb 5f 72 bc 9a 2c 55 3e
       0.15456897 -0.24925688 -0.014793347 0.20817795
000230 c0 81 80 3e 3f c7 03 3e 41 90 30 3c 15 74 6b 3c
       0.2509899 0.12868975 0.01077658 0.014370938
000240 e8 01 32 be 75 1f 38 3e 71 6f 25 3e a4 9d f9 bc
       -0.1738354 0.1798075 0.16155793 -0.030470677
000250 4e eb c5 3d f8 c5 9b 3b db b4 84 bd 0e 88 56 3e
       0.096640214 0.0047538243 -0.06479808 0.20950338
000260 6c 98 40 3e 64 d8 bc 3d 4a 71 a9 3d 02 56 de 3c
       0.18808144 0.09220961 0.08273561 0.027140621
000270 37 45 1b be 5d f4 b4 3d 82 23 14 3d 20 29 ed 3c
       -0.15163122 0.08835671 0.036166675 0.028950274
000280 99 d2 38 be 37 49 5e bc 15 a4 0e bd 98 5e 1d be
       -0.18049087 -0.0135672605 -0.03482445 -0.15368116
000290 04 d6 03 bd 5c ff 17 3e be 4d 3b bc 86 5d b9 3d
       -0.032186523 0.14843506 -0.011432109 0.09051041
0002a0 83 b9 67 3d d3 a1 e0 bc b6 71 2f bd f8 c8 0a be
       0.056573402 -0.027420914 -0.042833053 -0.13553226
0002b0 54 8d ea ba 14 79 1c 3e ed 3a 5d bd 04 9f 0e 3e
       -0.0017894902 0.15280563 -0.054011274 0.13927847
0002c0 d0 7f 88 bd b4 c5 96 3e 97 4d 32 bd 8b 26 13 bd
       -0.06665003 0.2944771 -0.043531027 -0.03592543
0002d0 3e 13 7b 3b cd 5e 99 bd 17 fc bf bd 9f 00 79 be
       0.003831103 -0.07488785 -0.09374254 -0.24316643
0002e0 9c e1 80 3d 49 d7 1c 3e 8f a2 f9 bd a0 49 3f be
       0.062930316 0.153165 -0.12189209 -0.1868043
0002f0 86 aa 6a be 9a 0f 00 bd 5d 25 c3 3c 19 4b 99 bd
       -0.22916612 -0.03126488 0.023821527 -0.07485027
000300 38 ba 14 3e 5b bc 99 3d e9 b3 87 3e 7a f5 33 3e
       0.14524162 0.07506629 0.26504448 0.1757411
000310 63 51 6f be 5c 6f af bd 21 f7 54 be f4 dd 80 be
       -0.2337089 -0.08566162 -0.20797397 -0.25169337
000320 5d a3 0b be 24 15 8f 3e 15 ce 98 3e 31 1c ab 3d
       -0.13636537 0.27945817 0.29844728 0.083549865
000330 aa e3 f1 3d 69 57 42 3e 73 c8 44 3e 2a dd 6a 3d
       0.118110016 0.18978657 0.1921709 0.057339825
000340 71 15 05 be ab 9f 1f 3e be b7 4e 3e 23 d5 ad bd
       -0.1299646 0.15588252 0.2018728 -0.08487918
000350 68 6f a5 be 15 b2 68 be d6 b8 5e bd 19 86 43 be
       -0.3231156 -0.22724183 -0.054375492 -0.19094123
000360 9d 3e 8b 3c 62 d0 8b 3c b8 a5 46 3d 85 73 21 3d
       0.01699763 0.017067138 0.048497885 0.03941681
000370 c0 f7 a8 bd 5b 10 3c be d8 7c 60 bd c4 c0 03 be
       -0.082503796 -0.18365614 -0.05480656 -0.12866503
000380 07 ca 1b 3e 74 18 36 bc 3a dc 8e bd 64 8b 98 bd
       0.15213786 -0.0111142285 -0.06975599 -0.07448462
000390 8d 92 da 3c d7 26 63 3d d7 c5 05 3e 01 93 07 bd
       0.026681209 0.055456962 0.13063751 -0.03309918
0003a0 eb e1 07 bd 84 13 47 3e 58 b1 76 be fd 95 37 be
       -0.033174437 0.19441038 -0.24091089 -0.1792831
0003b0 a5 09 02 be 7b 02 79 3c 0b b8 71 bd 8f cd 40 3e
       -0.12698992 0.015198345 -0.059013408 0.18828414
0003c0 f5 8c 0c 3e 4d 79 92 bd ee 38 69 be cd 8f 65 be
       0.13725646 -0.071520425 -0.22775623 -0.22418137
0003d0 2c 38 4a 3d 3d 87 75 bd 29 61 12 bc 66 ae 06 be
       0.049369976 -0.059943426 -0.008934298 -0.13152465
0003e0 65 00 1d be 57 60 64 bd fa 4b be 3d 12 a8 7a 3d
       -0.15332182 -0.05575594 0.09291835 0.06119544
0003f0 3b e7 25 be be 42 41 3e e8 04 93 3e 7e ae f1 3d
       -0.16201489 0.18873116 0.2871468 0.1180086

bn3.weight f4 [16]
000000 0b 1a b8 3f 67 93 aa 3f f5 ae a9 3f 83 ed b2 3f
       1.4382948 1.3326234 1.3256518 1.3978733
000010 ce 5e b3 3f 8b 6f ad 3f 15 f5 97 3f 70 06 b5 3f
       1.4013307 1.3549665 1.1871668 1.414259
000020 2d 5a ae 3f f5 cf aa 3f c2 49 a7 3f 40 dc a2 3f
       1.362127 1.3344713 1.3069384 1.2723465
000030 91 fe af 3f be 9a a8 3f 84 e5 b1 3f 4d d8 b8 3f
       1.3749563 1.3172224 1.3898168 1.444101

bn3.bias f4 [16]
000000 1e c4 57 bd d5 ae 82 bd 6f d8 ef bd 6c 6a 99 bd
       -0.052677266 -0.06381003 -0.11711203 -0.074910015
000010 30 bc af bd 26 f4 e0 bd 5d e9 75 bd bf 77 3a be
       -0.08580816 -0.109840676 -0.060037006 -0.18209742
000020 ea aa 08 be da 33 ee bc d2 99 7e bc fb 11 1d bd
       -0.13346449 -0.02907746 -0.015539603 -0.038347226
000030 71 93 b7 bd 2d e5 81 bc ae a8 33 bc 5f b5 1c be
       -0.08963669 -0.01585635 -0.010965509 -0.15303563

bn3.running_mean f4 [16]
000000 19 ab 2c be 40 33 fd bb e2 c2 8c 3d fa 5b 14 3d
       -0.16862144 -0.0077270567 0.068731084 0.03622053
000010 00 a9 d7 bd 0f af bc 3c 05 92 33 bc 9b 8e c5 3c
       -0.10530281 0.023032693 -0.010960107 0.024115851
000020 ec ca d0 3d bd c4 a2 bc 5d 94 b9 bd 0a f6 44 be
       0.10194954 -0.019869203 -0.09061501 -0.19234481
000030 33 af f3 3c f0 ca 16 be 08 7e 66 bd b7 70 bd 3d
       0.029746627 -0.14725852 -0.056272537 0.09250014

bn3.running_var f4 [16]
000000 df 36 2e 3e 03 20 e6 3d 29 a9 0f 3e ad 19 9b 3d
       0.17013119 0.112365745 0.14029373 0.07573257
000010 a9 fc ca 3d fd e2 34 3e d1 12 13 3e d3 fd 0e 3e
       0.09911472 0.17664714 0.14362647 0.13964014
000020 d8 57 18 3e 42 aa 9c 3d 29 4d 6e 3d 7d 06 0a 3e
       0.1487726 0.076496616 0.058179054 0.13479038
000030 90 89 5c 3e 34 0b 0e 3e 93 2e c1 3d a5 60 18 3e
       0.21536851 0.13871461 0.094327115 0.14880617

eca.conv1d.weight f4 [1, 1, 3]
000000 00 6c c6 be fe d6 3d 3e e1 bc 3a bf
       -0.38754272 0.18539044 -0.72944456

classifier.weight f4 [4, 560]
000000 26 dd 76 bd 01 16 1f 3e 11 e4 b4 3d 27 e0 d6 bd
       -0.060269497 0.15535738 0.08832563 -0.104919724
000010 94 a8 4f 3e a5 ee ba be a9 cb a8 3d 44 4a 54 3e
       0.20279151 -0.36510196 0.0824197 0.20731455
000020 bf 76 b4 bd 2b ae 26 3e fc 98 46 b9 f5 b6 a3 3d
       -0.088117115 0.16277377 -0.00018939743 0.07993881
000030 7e 57 6e 3d fc 6b 30 bd 85 3f c8 3b 6c 75 94 3d
       0.058188908 -0.043071732 0.0061110877 0.07248959
000040 c0 4f f1 bb 34 69 21 bc 30 2b a1 3c af 2c 9f 3d
       -0.0073642433 -0.009851743 0.019673914 0.077721946
000050 d8 8e d5 3d ff 12 98 bd 1c 2f be 3d 4b 27 1d 3d
       0.10427636 -0.07425498 0.09286329 0.03836755
000060 9e 52 e1 3c cc cf 99 3c 07 2f ff bb b0 28 21 3c
       0.027505215 0.018775843 -0.0077875885 0.009836361
000070 0f 4a ce 3b bf f7 32 3d f9 14 19 3d 91 3a c2 3d
       0.0062954496 0.0436933 0.037373517 0.09483827
000080 0c 84 d2 bc 04 91 f5 3c 73 70 cb bc d4 ea ea 3d
       -0.02569773 0.029976375 -0.024833893 0.11470571
000090 58 42 51 bd 85 d9 62 3c c5 c7 cc 3c f5 fb 66 3c
       -0.05108866 0.013845806 0.024997601 0.014098157
0000a0 bd fd b2 bc d5 e4 a7 bd 9e c3 4a bd 70 85 06 3e
       -0.021849507 -0.08197943 -0.04950296 0.1313684
0000b0 5e da 60 3d ed 39 58 3d de 43 d1 bd 44 d4 b0 3d
       0.05489575 0.052789617 -0.10218023 0.086342365
0000c0 4d 9e 60 bd 15 74 9f 3d 0a 43 4a 3d fd 79 35 3d
       -0.054838467 0.07785813 0.04938034 0.04430579
0000d0 e4 7f 6a bc 09 80 78 3d cb 55 af 3c 1b ec 59 bd
       -0.014312718 0.06066898 0.021403214 -0.053203683
0000e0 f1 d1 fe 3b f1 84 aa 3d 8d e6 3e bd 0c 14 2d bd
       0.007776492 0.08326138 -0.04660659 -0.042255446
0000f0 f6 f0 bf 3d 36 e0 96 bb 96 a8 bd bc 98 8a d9 bc
       0.093721315 -0.0046043647 -0.023151677 -0.026555344
000100 a8 dd 07 bd 89 9f e7 3c db 7c 82 3d 21 11 04 3d
       -0.033170372 0.028274314 0.063714705 0.032242898
000110 98 d9 61 bb 36 ee 01 bb bb 2c d9 3d 53 9f 2c bd
       -0.0034461971 -0.0019825823 0.10604235 -0.04214413
000120 1c fd e9 bd b8 70 d0 3c 3d 4b dd bc bf b3 9a bd
       -0.1142523 0.025444373 -0.027013415 -0.07553815
000130 eb 0f 70 bd 34 74 e0 bc fd e7 91 3d a7 01 a6 bd
       -0.05860893 -0.02739916 0.071243264 -0.08105784
000140 54 a5 15 3d af 96 40 3d 7b 1d 95 3d b2 c9 05 bd
       0.036534622 0.047018703 0.072810136 -0.032663055
000150 f7 14 22 3e 16 bc ea bd a1 06 a1 bd 96 fd 16 3e
       0.1582831 -0.11461656 -0.078625925 0.14745173
000160 b5 19 e6 bd 13 2c 5e 3c 2c d1 17 bd 63 16 00 3d
       -0.11235372 0.013560313 -0.037064716 0.03127135
000170 a7 c0 06 be 2f 02 2f bc 95 35 00 be 49 4c 8e 3d
       -0.13159429 -0.010681673 -0.1252044 0.06948144
000180 85 01 1f bd f8 85 ed 3d 7e 1b a0 3a 32 4b b2 3a
       -0.03881981 0.11597818 0.0012215225 0.0013602732
000190 98 52 15 3d ee 5f 6b bd 14 59 d3 bd 3c e2 19 3c
       0.03645572 -0.057464533 -0.10319725 0.009392317
0001a0 ae 9d 54 3d 7a f3 07 bd c9 a2 da 3d 68 b4 0d 3d
       0.051908188 -0.03319118 0.1067558 0.034595877
0001b0 32 a0 b5 3c 4e d4 9f 3d 6c 24 ef bd 78 11 77 bc
       0.022171114 0.07804166 -0.11676869 -0.0150798485
0001c0 1e e0 a2 3d 90 dc 6d 3c 14 29 2f 3d d7 b3 be 3c
       0.07952903 0.014517918 0.042763785 0.023279114
0001d0 ea 64 65 3d cf 1b 2d 3e d5 ab aa 3c 60 9a 21 3e
       0.056004442 0.1690514 0.020833889 0.15781546
0001e0 93 b9 fc 3d 1a fd 9e 3d cb a0 8b bd e4 ec 90 3c
       0.12340083 0.07763119 -0.06817778 0.017691083
0001f0 67 0a 4e 3d e5 2c 95 3d ad dd e6 bd 1c c0 21 3d
       0.05030289 0.072839536 -0.1127275 0.03948985
000200 d8 c1 ed 3c 90 33 23 3d 7c 86 7f bd 2a 5b ad 3d
       0.029023096 0.039844096 -0.062384114 0.08464654
000210 e1 fd ba 3d 2c 8f ff 3c 7e 47 c5 bc 74 21 99 bb
       0.09130455 0.0311962 -0.024081942 -0.0046731774
000220 33 bd c8 3b c9 e2 da bc 30 67 2e be 36 6a 7a 3d
       0.00612607 -0.026719468 -0.1703155 0.061136447
000230 d1 5e cb 3d ee a9 16 bd e6 b7 3c bd 8f 03 00 3d
       0.09930194 -0.03678315 -0.046073817 0.031253394
000240 77 1a 74 be bb d6 6a 3e 90 59 8a bd 4c 4c 49 bd
       -0.2383822 0.22933476 -0.06755364 -0.049145028
000250 ad 5b f5 3d af 06 d4 3d a8 32 fe 3b 99 59 4b 3d
       0.119803764 0.10352837 0.0077575035 0.049645994
000260 4f c0 6c 3d 04 86 b6 3d 2d 83 f9 3c 66 21 ca 3d
       0.057800587 0.0891228 0.030458057 0.098696515
000270 4b dd 6d 3d 8d 27 b5 bc fc af 73 3d c7 ab 14 bd
       0.05807237 -0.022113586 0.059494004 -0.036296632
000280 54 19 57 3b 6b 98 d9 3d fa f5 f1 3b d9 11 13 3d
       0.0032821493 0.106247745 0.007384059 0.035905693
000290 96 9b 52 3d c3 15 24 bc 9c 83 72 3c ec b7 a2 3a
       0.05141791 -0.010014954 0.014801886 0.0012414432
0002a0 8d 96 94 3c a8 9b 09 bd 24 f6 df bc f7 83 e9 3c
       0.018138194 -0.03359571 -0.027339049 0.028505309
0002b0 b4 14 38 3d 51 38 ae bc 9f 6e 1e bc b3 8e 70 3d
       0.04494162 -0.021267088 -0.009669929 0.05872984
0002c0 99 b9 3d be a5 c5 56 3d f6 fb a7 3d c7 c2 06 bd
       -0.18527831 0.052434582 0.082023546 -0.032900598
0002d0 99 5c 58 be 34 8e e7 3d 49 90 35 bb 6e 37 1c be
       -0.21129073 0.1130642 -0.002770441 -0.1525552
0002e0 f7 9e 1d be a6 2b 0b bd bb d1 e4 3d 55 0e de bd
       -0.15392672 -0.033977173 0.111728154 -0.10842577
0002f0 18 b2 25 be 5b 4d 97 bc 54 a5 bf bd a6 a6 b1 3d
       -0.16181219 -0.018469503 -0.09357706 0.08674364
000300 9c e0 ef bc 92 5c 44 3d 67 8a 3e bc ca 2b 5b bd
       -0.029281907 0.047939844 -0.011629677 -0.053508557
000310 f7 01 56 bc 85 11 85 bd f3 b7 83 be 77 79 85 3d
       -0.013061992 -0.06497482 -0.2572628 0.06517308
000320 56 04 58 bd 44 e3 1d be 24 9b 52 bd 40 d6 09 bd
       -0.05273851 -0.15418726 -0.051417485 -0.03365159
000330 6f fe b7 3c 39 85 4c 3b c9 df a0 bd fa 6d e3 3d
       0.02246019 0.0031207337 -0.07855184 0.11104961
000340 d8 e4 02 3c 67 8a 7a 3d 4d 9b d0 bd bf 89 26 bd
       0.007989131 0.061167147 -0.10185871 -0.04065871
000350 77 6d 1b bc fa 3e 2a 3c 5f b5 1c 3d 71 11 fe bb
       -0.009486548 0.010390991 0.038258906 -0.007753544
000360 43 1a 41 3e b7 f0 c3 bd 23 88 18 be 6a de 05 3c
       0.18857674 -0.09567397 -0.14895682 0.008170703
000370 3a 96 21 be eb 3b b9 3c a0 f2 0c bd 5b 98 09 bc
       -0.15779963 0.022611579 -0.034411073 -0.008398141
000380 cd 07 1c bd b9 56 0b 3a 6e 91 c6 3c e3 d6 0a bd
       -0.038093377 0.0005315352 0.024239268 -0.03389634
000390 eb 8e a2 b9 b0 74 bd bd df e3 1f bd 0a 06 a4 bc
       -0.0003100553 -0.09250772 -0.039035674 -0.02002241
0003a0 73 13 09 be c2 4b 0e be e8 a3 6d 3c a5 19 7a bd
       -0.13386326 -0.13896087 0.01450441 -0.061059613
0003b0 2d 85 a8 bd 6a 0e 83 bd 3f a5 87 bd e8 71 ad 3c
       -0.08228526 -0.06399234 -0.06623315 0.021172479
0003c0 a9 25 8b 3c ac e5 cd bc 6e da 65 bc 7c 0c 11 bd
       0.016985731 -0.02513393 -0.0140291285 -0.035412297
0003d0 8b ab 21 bb 2a e3 0f 3c f5 ef ff 3b 09 0c ce 3d
       -0.0024668898 0.0087821875 0.0078105875 0.10060889
0003e0 56 03 ed 3d 21 ca a5 3d 1a 80 ee 3d d0 16 87 bd
       0.11572902 0.08095194 0.11645527 -0.06596148
0003f0 99 cb 9a 3e 5d d4 85 3d f8 db 7a bd 8f 26 d3 3d
       0.30233458 0.06534646 -0.061244935 0.10310089

classifier.bias f4 [4]
000000 12 15 76 bc 9d 88 96 bc ce b2 da 3c 23 8f e8 3c
       -0.015019672 -0.01837569 0.026696589 0.028388565
