result_eegnetsca_cv5/fold_4/best_model_fold4.pth (torch, 23812 bytes, 20 tensors)

conv_time.weight f4 [8, 1, 1, 64]
0	0xbb7d2ce0	-0.0038631484
1	0xbe175cfe	-0.14781567
2	0xbd12c4cf	-0.035832223
3	0xbdf7c3eb	-0.12097915
4	0x3cd6209e	0.0261386
5	0x3d5e5d00	0.05428791
6	0xbdf5ba5e	-0.11998437
7	0xbc05fd81	-0.008178116
8	0xbd8ac425	-0.06775693
9	0xbbea4eb7	-0.007150497
10	0x3e033eb7	0.12816893
11	0xbde3b5d6	-0.11118667
12	0x3dc0842e	0.09400211
13	0xbd8a22b5	-0.06744901
14	0x3ccb9cee	0.024855103
15	0x3cc3c7ce	0.023898985
16	0xbcd08f89	-0.025459068
17	0x3cc5cf4a	0.024146695
18	0xbd32d06a	-0.04365579
19	0x3ce27d9f	0.027647791
20	0xbe106334	-0.14100343
21	0x3c9ce6b9	0.019152986
22	0x3cb18621	0.021670403
23	0xbe0d9e60	-0.13829947
24	0xbe103b1a	-0.14085045
25	0xbe0416ab	-0.12899272
26	0x3b011c41	0.0019700679
27	0xbdaca17d	-0.08429239
28	0xbd158a97	-0.036509123
29	0xbd81aee8	-0.06332189
30	0xbdbe2e13	-0.09286132
31	0xbd6c5a15	-0.057703096
32	0xbde70064	-0.112793714
33	0xbdeef34f	-0.11667501
34	0xbdfbdb3d	-0.12297676
35	0xbb4b9298	-0.0031062718
36	0xbe256a52	-0.16153839
37	0xbe1a26d0	-0.15053868
38	0xbcf0fc9f	-0.029417334
39	0xbdae178c	-0.08500585
40	0xbe1bf133	-0.15228729
41	0xbdec00c2	-0.11523582
42	0xbb5de298	-0.0033856984
43	0xbe09408c	-0.13403529
44	0xbe189561	-0.14900734
45	0x3d55e94c	0.052224442
46	0xbdbd9a9d	-0.09258006
47	0xbde3e111	-0.111269124
48	0xbd9570f8	-0.07296938
49	0xbdd459aa	-0.103686646
50	0x3bb841b7	0.005623068
51	0x3db896fa	0.090131715
52	0xbdee9930	-0.11650312
53	0xbde86f4f	-0.113493554
54	0x3d034042	0.032043703
55	0x3d3f3a79	0.046686623
56	0xbc02a1e0	-0.007973164
57	0x3cbcfe33	0.02307043
58	0xbd5645c4	-0.052312627
59	0x3d164484	0.036686435
60	0x3d9cd184	0.076571494
61	0x3cb28e1e	0.021796282
62	0xbc962dca	-0.01833238
63	0x3dcf1612	0.101116315
64	0x3d22b007	0.039718654
65	0x3d5b3d25	0.05352511
66	0x3daa1d9a	0.08306427
67	0x3cd5afd2	0.026084814
68	0x39881d29	0.00025961667
69	0x3d933623	0.0718806
70	0x3d583ae3	0.052790534
71	0x3d43faeb	0.047846716
72	0xbd351553	-0.04420979
73	0x3e4417b8	0.19149673
74	0x3d4eea53	0.050516438
75	0x3d0755f9	0.033040974
76	0x3d864125	0.06555394
77	0x3cb93fd0	0.022613436
78	0x3df14952	0.11781563
79	0x3e285c92	0.16441563
80	0x3e12c8c2	0.14334396
81	0x3dd95aff	0.10613059
82	0xbc7414b5	-0.014897515
83	0xbc9ced18	-0.019156024
84	0x3e043c58	0.12913644
85	0xbcd8face	-0.02648678
86	0x3d970277	0.07373517
87	0x3e006ba1	0.12541057
88	0x3da0c6b5	0.078504
89	0x3e27aacd	0.16373749
90	0x3c48b493	0.0122500835
91	0xbdf3a7ef	-0.11897265
92	0xbd05939f	-0.032611486
93	0xbdacf317	-0.08444803
94	0x3d9c7673	0.0763978
95	0xbc3e84f8	-0.011628382
96	0xbdb3402e	-0.08752476
97	0x3d34c991	0.04413754
98	0xbd5dbf20	-0.05413735
99	0xbdb7cb12	-0.089742795
100	0x3cc633a3	0.024194544
101	0x3d073958	0.03301367
102	0xbd29be63	-0.041441333
103	0xbe005d56	-0.12535605
104	0xbd91368d	-0.07090483
105	0xbcccc1d6	-0.024994772
106	0xbe26bf08	-0.1628381
107	0xbdd22b42	-0.10262157
108	0xbb783aab	-0.0037876766
109	0x3d3476ff	0.044058796
110	0xbe070040	-0.13183689
111	0xbd4aca3c	-0.049509272
112	0x3de47865	0.11155776
113	0xbe0110dc	-0.12604088
114	0xbcb1ca20	-0.021702826
115	0x3db321df	0.08746695
116	0x3dfce90d	0.123491384
117	0xbd89a752	-0.06721367
118	0x3dc12892	0.09431566
119	0x3cf05579	0.029337632
120	0x3d80e44a	0.06293543
121	0x3c961759	0.01832168
122	0x3dd168bb	0.10225054
123	0x3e0ce901	0.13760759
124	0x3d8779f5	0.06615058
125	0x3d93d709	0.07218749
126	0x3de3af99	0.11117477
127	0x3dc6d48e	0.0970851
128	0xbc3dfa51	-0.011595325
129	0xbce191f9	-0.027535425
130	0xbd2feddc	-0.04295145
131	0x3dc3af86	0.09554963
132	0xbbeba9e4	-0.0071918834
133	0x3d155411	0.036457125
134	0x3db1e136	0.08685534
135	0x3e1896dc	0.14901298
136	0x3c8e28ad	0.01735338
137	0x3ce0a74c	0.027423523
138	0xbd75ce76	-0.06001135
139	0x3d1714d5	0.0368851
140	0x3ac62c75	0.001511945
141	0xbe215587	-0.15755282
142	0xbdb4f3ca	-0.088355616
143	0xbe247c60	-0.1606307
144	0xbd03a8cf	-0.03214341
145	0x3c0b4110	0.008499399
146	0xbddaff9f	-0.10693287
147	0xbc5b9140	-0.0134013295
148	0xbdceea66	-0.10103302
149	0xbcbd3826	-0.023098063
150	0x3d8974a9	0.06711704
151	0xbd6f684f	-0.058449086
152	0x3dc761ec	0.09735474
153	0x3d8111f2	0.06302251
154	0x3de0f7f2	0.10984792
155	0x3deaeb8d	0.11470709
156	0x3daf1897	0.08549612
157	0xbba88079	-0.0051422683
158	0xbdf68deb	-0.120387875
159	0xbe0b072f	-0.13576959
160	0xbe45e027	-0.19323789
161	0xbdc17d69	-0.09447748
162	0xbd7bedf0	-0.06150621
163	0xbd3e5094	-0.046463564
164	0x3b3c87d9	0.0028767495
165	0x3c34cb1e	0.011034755
166	0xbc95c5d5	-0.01828281
167	0x3d8a7567	0.06760674
168	0x3d3a6466	0.045505904
169	0xbdb613ae	-0.08890472
170	0x3d1baacf	0.038004693
171	0xbdad8300	-0.08472252
172	0xbd9a6b51	-0.0754
173	0xbd9a6cdf	-0.07540297
174	0xbd4af1ca	-0.049546994
175	0xbce298e0	-0.027660787
176	0x3c7f0d2e	0.015567107
177	0x3d23881b	0.039924722
178	0x3d4130a7	0.04716554
179	0x3c51856e	0.01278816
180	0xbc4fd6eb	-0.012685518
181	0xbd8a1cb8	-0.06743759
182	0xbba8a249	-0.005146299
183	0xbc504424	-0.0127115585
184	0x3d99c2b1	0.075078376
185	0xbd19cb32	-0.037547298
186	0xbd946c53	-0.07247224
187	0xbc721e6d	-0.014777762
188	0xbd28785a	-0.0411304
189	0xbdcadf84	-0.099059135
190	0xbadcc134	-0.0016842247
191	0xbd4ddba8	-0.05025831
192	0x3d89d939	0.06730885
193	0x3d123e5a	0.035703994
194	0xbdd85f9c	-0.10565111
195	0x3d8e028d	0.0693408
196	0x3d24378c	0.040092036
197	0x3c2a2975	0.010385861
198	0x3c84b306	0.016198646
199	0xbc95f038	-0.018303022
200	0xbc3465d1	-0.011010603
201	0x3db768a9	0.08955509
202	0x3e32b394	0.17451316
203	0xbd8a2523	-0.067453645
204	0xbdb49b02	-0.08818628
205	0xbd9fdd12	-0.07805838
206	0x3d2aac92	0.041668482
207	0x3d1eb17d	0.038743485
208	0xbd67643d	-0.05649208
209	0x3d2b3a40	0.0418036
210	0x3dd62f03	0.104581855
211	0xbd12895a	-0.03577552
212	0x3da85a85	0.0822039
213	0x3c4fe472	0.012688743
214	0x3d1566b2	0.03647489
215	0x3d05b9f6	0.03264805
216	0x3daff639	0.08591885
217	0x3d9b4225	0.075809754
218	0xbd78702a	-0.060653843
219	0xbd858887	-0.06520181
220	0xbd191f13	-0.03738315
221	0x3cbbc67a	0.02292179
222	0x3dd39290	0.10330689
223	0xbda2413c	-0.07922599
224	0xbcd6368d	-0.026149059
225	0x3d8adc0a	0.0678025
226	0x3d928f0b	0.071561895
227	0xbdfe1cc1	-0.12407828
228	0xbd3056f6	-0.043051682
229	0xbd46995c	-0.0484861
230	0xbd389101	-0.04506016
231	0x3d3c79b9	0.04601452
232	0xbe116c22	-0.14201406
233	0xbdc2c83d	-0.09510849
234	0xbe272898	-0.16324079
235	0xbe2dc3d3	-0.16969232
236	0xbd9c88d9	-0.07643289
237	0x3c2a7a38	0.010405116
238	0xbdbbadf8	-0.09164041
239	0xbd742b2e	-0.05961149
240	0xbe6233c4	-0.2209006
241	0xbbf93243	-0.0076048686
242	0xbda96455	-0.0827109
243	0xbd3aa531	-0.045567695
244	0xbe29dc8e	-0.16588041
245	0xbe217d5a	-0.15770474
246	0xbdcc431a	-0.09973736
247	0xbdd8f0d9	-0.10592813
248	0x3d4798d3	0.04872973
249	0xbe108088	-0.14111531
250	0x3d1c7454	0.038196877
251	0xbddd6d46	-0.10811858
252	0xbce2a821	-0.02766806
253	0xbd58b539	-0.052907202
254	0x3cdc3f22	0.026885573
255	0xbd3041e8	-0.043031603

bn1.weight f4 [8]
0	0x3fb704fa	1.4298394
1	0x3f51214c	0.8169143
2	0x3fe3388f	1.7751635
3	0x3fbfdd5d	1.498943
4	0x3f97a875	1.1848284
5	0x3f60a3d5	0.8774999
6	0x3fc7a4e8	1.55972
7	0x3fbfe7c6	1.4992607

bn1.bias f4 [8]
0	0x3ce567a2	0.028003518
1	0x3bfd434f	0.007728971
2	0x3cb17e75	0.021666745
3	0x3c45e3ac	0.012078207
4	0x3d0b5251	0.03401405
5	0xbda81fb7	-0.08209174
6	0x3c382446	0.011239117
7	0x3c37d762	0.011220785

bn1.running_mean f4 [8]
0	0x3981fb2d	0.00024791938
1	0xb9fbea61	-0.00048049077
2	0x381e5113	3.774564e-05
3	0x39716e38	0.0002302461
4	0x38e8f31e	0.00011107906
5	0xb79add26	-1.846121e-05
6	0x397bc217	0.0002400953
7	0xb6539119	-3.1525908e-06

bn1.running_var f4 [8]
0	0x3f2692bd	0.65067655
1	0x3faaf71c	1.3356662
2	0x3f30c608	0.6905217
3	0x3f49f6b1	0.78892046
4	0x3ef8841c	0.4853829
5	0x3f79ba92	0.9755031
6	0x3f00493a	0.50111735
7	0x3f453f74	0.77049947

sca.fc1.weight f4 [5, 22]
0	0x3dec1c78	0.115288675
1	0x3d8b477a	0.068007424
2	0x3e90889a	0.2822922
3	0x3ebd2f43	0.3695012
4	0x3e631442	0.22175696
5	0x3ddd772c	0.10813746
6	0x3e01e249	0.12683977
7	0xbb9752ec	-0.0046180394
8	0x3e462f5d	0.19354005
9	0xbd1880bc	-0.037232146
10	0xbe0eb726	-0.13937053
11	0xbe0e3734	-0.13888246
12	0xbe4508e9	-0.1924168
13	0xbdaa7eff	-0.08325004
14	0xbd7c9a02	-0.06167031
15	0x3e0276b8	0.127406
16	0xbde8d7d2	-0.113692895
17	0xbdf542be	-0.11975621
18	0xbe0c5b7b	-0.13706772
19	0xbdac20d8	-0.08404702
20	0x3cffeb76	0.031240206
21	0xbd4142e6	-0.04718294
22	0x3e8d570f	0.27605483
23	0xbd64ee85	-0.055891532
24	0xbe0ea9d6	-0.13931975
25	0x3dfdfcab	0.12401708
26	0xbce2bab9	-0.027676927
27	0x3e5c703c	0.21527189
28	0x3daeb8b2	0.085313216
29	0xbdf492d3	-0.11942067
30	0xbe3dc9ef	-0.18534063
31	0x3e6e4e85	0.2327214
32	0x3dfaf1dd	0.12253163
33	0x3e9aa763	0.3020583
34	0x3e87fb89	0.26559094
35	0xbdc75a14	-0.09733978
36	0xbe740bd8	-0.23832643
37	0x3e0424ad	0.12904616
38	0xbdc66d4a	-0.09688814
39	0x3e2fc4fa	0.17164984
40	0xbe8ca927	-0.27472803
41	0xbe847485	-0.25870147
42	0x3da2a50c	0.079416364
43	0xbdd4a6ad	-0.103833534
44	0x3ddf3d2c	0.109003395
45	0x3e83d438	0.25747848
46	0x3e003aa5	0.12522371
47	0x3d85c7aa	0.065322235
48	0x3e4b0fe9	0.19830288
49	0x3e23bc26	0.15989742
50	0x3e3d7941	0.18503286
51	0x3d864dc5	0.06557802
52	0x3e4150ca	0.18878475
53	0x3eaf6398	0.34255672
54	0x3eab96fc	0.3351363
55	0x3de317cd	0.11088524
56	0xbda38767	-0.0798481
57	0x3e174f4c	0.14776343
58	0x3eb56ec1	0.3543606
59	0x3de9fb7e	0.114249215
60	0xbd730cac	-0.059338257
61	0x3b4db1df	0.0031386537
62	0xbcd7ade9	-0.026328044
63	0x3d2c4464	0.04205741
64	0x3e435d2f	0.19078515
65	0x3d3ad655	0.04561456
66	0xbf246054	-0.64209485
67	0xbf1105ed	-0.5664967
68	0xbe8ee378	-0.2790792
69	0xbea50430	-0.32229757
70	0xbe85096a	-0.25983745
71	0xbe047456	-0.12935004
72	0xbb86e1eb	-0.004116287
73	0xbd8193f1	-0.06327046
74	0xbe8c42b2	-0.27394634
75	0xbedec449	-0.4350913
76	0xbe12b4de	-0.14326808
77	0xbe7bc077	-0.24585138
78	0x3e1e8305	0.15479667
79	0xbdf735ee	-0.12070833
80	0xbe776fc0	-0.24163723
81	0xbe22fdee	-0.15917179
82	0xbe0b7017	-0.13616978
83	0x3d6fc1e2	0.05853451
84	0x3e218670	0.1577394
85	0xbe09815f	-0.13428257
86	0x3db8130f	0.0898801
87	0x3e1fefd3	0.1561883
88	0xbe000d94	-0.1250518
89	0x3c0a76f6	0.008451214
90	0xbd300b97	-0.042979803
91	0x3e7d701d	0.24749799
92	0x3eab4ae0	0.33455563
93	0x3de49db1	0.1116289
94	0x3dc922fc	0.09821126
95	0x3cb47e5d	0.022032911
96	0xbe0ee62d	-0.13954993
97	0x3ea6bf43	0.32567796
98	0x3e7d233e	0.24720475
99	0x3e16bb14	0.14719802
100	0x3e8808f9	0.26569346
101	0xbe36532f	-0.1780517
102	0x3d9a29ce	0.07527505
103	0x3ea278f3	0.31732902
104	0x3dd0a0a8	0.10186893
105	0x3e31adef	0.17351507
106	0xbdcc1d59	-0.09966535
107	0x3e8fed9f	0.28110978
108	0x3e4a7dd6	0.19774565
109	0xbd1ac6b0	-0.03778714

sca.fc2.weight f4 [22, 5]
0	0xbe5f8afe	-0.21830365
1	0x3d5ee397	0.054416265
2	0x3e383692	0.17989567
3	0x3d6d7338	0.05797121
4	0x3e98e15d	0.2985944
5	0xbe289f10	-0.16466928
6	0xbd71ff5a	-0.059081413
7	0xbeaf5ffe	-0.34252924
8	0xbdddda2f	-0.10832631
9	0x3eaca13f	0.3371677
10	0xbea2a4ca	-0.3176635
11	0x3e841903	0.25800332
12	0xbeab7864	-0.33490288
13	0x3ec6c379	0.3882101
14	0xbe327052	-0.1742566
15	0x3e93440e	0.2876286
16	0x3e5ef03b	0.21771328
17	0x3ed84302	0.42238623
18	0xbe4d88b6	-0.20071682
19	0xbdf23ed5	-0.118283905
20	0xbef8d546	-0.48600215
21	0x3e8a1c72	0.26974827
22	0x3e5d7e48	0.21630204
23	0xbe79330d	-0.2433588
24	0xbe8a8b5d	-0.2705945
25	0x3f38864b	0.72079915
26	0xbdacaa87	-0.08430963
27	0xbe97480d	-0.29547158
28	0xbf059da6	-0.5219368
29	0xbe5bc58e	-0.2146208
30	0x3f26be57	0.65134186
31	0xbb4ab625	-0.003093132
32	0x3da03c23	0.0782397
33	0xbf010b5a	-0.50407946
34	0xbe93ec23	-0.28891096
35	0xbe80f202	-0.25184637
36	0xbe9237f5	-0.28558317
37	0x3e6942d3	0.22779398
38	0x3e4348fe	0.19070813
39	0xbee8eeb1	-0.45494607
40	0x3e82ac19	0.25521925
41	0xbe93ba70	-0.28853178
42	0x3eaf3b5a	0.3422497
43	0x3afaf31e	0.0019145941
44	0xbef07ba4	-0.4696933
45	0x3e082f6b	0.13299339
46	0xbee5e165	-0.44898525
47	0x3d1f8b53	0.03895123
48	0xbd1648c1	-0.036690477
49	0x3d20de10	0.039274275
50	0xbdf0c17a	-0.11755653
51	0x3e0501b2	0.12988928
52	0x3e875659	0.26433066
53	0x3dd43387	0.103613906
54	0x3c1405e7	0.00903461
55	0xbea127a0	-0.31475544
56	0xbe8f5bc0	-0.27999687
57	0xbd8cfaad	-0.0688375
58	0x3d20eef0	0.03929037
59	0xbe674c4f	-0.22587703
60	0xbf24d943	-0.64394015
61	0x3e858fa8	0.26086164
62	0xbe531bec	-0.2061612
63	0xbd4e0884	-0.05030109
64	0x3ec8f9a9	0.39252976
65	0xbe871010	-0.26379442
66	0xbe923e3f	-0.28563115
67	0xbea5be61	-0.3237181
68	0x3f055a07	0.52090496
69	0xbe4110b1	-0.18854024
70	0xbea7c83f	-0.32769963
71	0xbeaf4de9	-0.34239128
72	0x3f08aa5b	0.5338494
73	0xbe28aec9	-0.16472925
74	0x3e15981d	0.14608808
75	0xbc9b3b65	-0.01894922
76	0xbeb652c9	-0.35610035
77	0xbf3cb144	-0.73707986
78	0x3ef527df	0.47881982
79	0xbf14ca47	-0.5812115
80	0x3e82fd0d	0.25583687
81	0x3e566902	0.20938495
82	0x3eb5ffba	0.35546666
83	0xbe74075c	-0.23830932
84	0xbea60c8c	-0.32431448
85	0xbe390b7c	-0.18070787
86	0xbe80e507	-0.25174734
87	0xbef7a2ab	-0.48366293
88	0x3d350394	0.044192865
89	0xbe88a5f6	-0.26689118
90	0xbeeb1a32	-0.45918423
91	0x3e91c6aa	0.2847188
92	0xbec5186c	-0.38495195
93	0x3e2d6d29	0.16936173
94	0x3ecc74f4	0.39932978
95	0x3ebb345c	0.36563385
96	0x3cf00480	0.02929902
97	0x3ebc069f	0.36723801
98	0xbefbe8db	-0.49201092
99	0xbe3042cb	-0.1721298
100	0x3ecd002c	0.40039194
101	0xbed66a9b	-0.4187821
102	0xbbe3ac66	-0.0069480417
103	0xbce9b37c	-0.028527968
104	0xbea86efb	-0.3289717
105	0x3e93cd8a	0.2886775
106	0x3ea3f625	0.3202373
107	0xbea0a110	-0.3137288
108	0x3dc6411d	0.09680388
109	0xbe73fec9	-0.23827662

conv_depth.weight f4 [16, 1, 22, 1]
0	0x3d5c3b37	0.05376741
1	0xbddaa029	-0.106750794
2	0x3d0304ab	0.031986874
3	0xbe09a960	-0.13443518
4	0x3dd1c97d	0.10243509
5	0x3d7b3859	0.061333034
6	0x3e1387bd	0.14407249
7	0x3a9069ee	0.0011017898
8	0x3b85e925	0.004086631
9	0xbd5d1491	-0.05397469
10	0x3d7984fc	0.06091784
11	0xbd916be9	-0.0710066
12	0xbd96aa73	-0.07356729
13	0xbda39b8e	-0.07988654
14	0xbc840a45	-0.016118178
15	0x3e0be6fd	0.13662334
16	0x3d2c62c8	0.042086393
17	0xbd71317e	-0.05888509
18	0xbe9bae31	-0.30406335
19	0xbc9ed463	-0.019388383
20	0x3c2a3e2b	0.010390799
21	0x3eabf82d	0.3358778
22	0x3cd1c96b	0.025608739
23	0x3e250ef9	0.16118993
24	0x3dc8be12	0.09801878
25	0xbe3970c4	-0.18109423
26	0xbd99dbae	-0.07512604
27	0xbd4619c9	-0.048364434
28	0x3e53b2d5	0.20673688
29	0xbdae5905	-0.08513073
30	0x3e2f83b2	0.17140082
31	0xbe1aa3de	-0.15101573
32	0xbca0fff5	-0.0196533
33	0x3e2506ff	0.1611595
34	0xbe128768	-0.14309466
35	0x3df7ac57	0.12093418
36	0x3d4d27d6	0.05008682
37	0xbc9619b3	-0.018322801
38	0xbe680e12	-0.22661617
39	0xbdf9c0f2	-0.121950045
40	0x3e14a960	0.14517736
41	0x3b1639db	0.0022922668
42	0x3d283c43	0.041073095
43	0xbe7fd907	-0.24985133
44	0xbe76e2ce	-0.24109957
45	0xbdc744b2	-0.097298995
46	0x3c0e3484	0.008679513
47	0x3dcb112f	0.09915387
48	0x3cb07564	0.021540351
49	0xbd8d15e0	-0.06888938
50	0x3e1bbc6d	0.15208597
51	0x3e89dadb	0.26924786
52	0xbdf6e5f5	-0.120555796
53	0x3c8ef03c	0.017448537
54	0xbd5e7b20	-0.05431664
55	0x3e5ff8ea	0.21872297
56	0x3e22b950	0.15891004
57	0xbe173733	-0.1476715
58	0x3e158868	0.14602816
59	0x3cfbd1b8	0.03073965
60	0x3d3fd8f1	0.04683775
61	0xbdd9aa66	-0.10628204
62	0x3e10739f	0.14106606
63	0xbe104b68	-0.14091265
64	0xbe36a1da	-0.17835179
65	0x3e1828dc	0.14859337
66	0xbcab9106	-0.020943176
67	0x3c89dbee	0.016828503
68	0xbd973d89	-0.07384784
69	0xbd311fd2	-0.043243237
70	0x3d5f711c	0.05455123
71	0xbded2961	-0.11580158
72	0xbe0ec756	-0.13943228
73	0xbd427f44	-0.04748465
74	0xba673e3b	-0.0008821224
75	0x3e0f3001	0.13983156
76	0x3e6c0a56	0.23050818
77	0xbdc12d1e	-0.094324335
78	0xbd6342d8	-0.05548367
79	0xbe139bdf	-0.14414929
80	0xbd4232ea	-0.047411837
81	0x3e6811ac	0.22662991
82	0x3c46fe3e	0.012145577
83	0x3e1dc14d	0.1540577
84	0xbe99dfe1	-0.3005362
85	0x3c67516f	0.014118536
86	0x3d43558b	0.047689002
87	0xbeb2c6cf	-0.34917304
88	0x3e32aff0	0.17449927
89	0x3e7b203b	0.24524014
90	0xbc6ef014	-0.014583606
91	0x3bea9652	0.007159033
92	0x3d09f7ec	0.033683702
93	0xbd51b6eb	-0.051199835
94	0x3cbd2bac	0.023092113
95	0x3cb264f5	0.021776656
96	0xbdb7e6b9	-0.08979554
97	0xbdfc3720	-0.12315202
98	0x3db45cfc	0.08806798
99	0xbe66b77a	-0.22530928
100	0x3de5cda2	0.11220862
101	0xbdaeb199	-0.08529968
102	0xbe2eb604	-0.17061621
103	0xbd387694	-0.04503496
104	0xbce3300c	-0.027732871
105	0xbbf85341	-0.007578284
106	0x3e247979	0.16061963
107	0xbdf7d438	-0.121010244
108	0x3d7834bc	0.060597166
109	0x3e6436fa	0.22286597
110	0xbd88e8c7	-0.06685024
111	0x3db30e6a	0.08742984
112	0x3d808413	0.06275191
113	0xbdd9a2db	-0.10626765
114	0xbdf7ab33	-0.120932005
115	0xbdf183ab	-0.11792692
116	0xbccaab2e	-0.024739828
117	0x3cb6c242	0.022309426
118	0xbc0177e3	-0.007902118
119	0xbe0d32bf	-0.1378889
120	0x3e066ede	0.1312823
121	0x3e5bb799	0.21456756
122	0xbc988178	-0.018616423
123	0xbc0e0931	-0.008669184
124	0xbe1ddbac	-0.1541583
125	0xbdf75a40	-0.12077761
126	0x3d945d77	0.072443895
127	0x3ea6040c	0.32424963
128	0x3d9a1687	0.07523828
129	0x3c5b05b4	0.013368059
130	0x3c306361	0.010765881
131	0xbd8dc393	-0.069220684
132	0xbe20ccd5	-0.15703137
133	0x3e0cc709	0.13747801
134	0xbddd3687	-0.10801416
135	0x3e0f2a33	0.13980941
136	0xbd8c253a	-0.06843038
137	0x3dd8c01b	0.10583516
138	0x3cfce745	0.030871997
139	0x3e2bafc4	0.16766268
140	0x3d691728	0.05690685
141	0xb9c0911d	-0.00036729212
142	0xbdff81de	-0.12475942
143	0x3d686595	0.0567375
144	0xbe0adae9	-0.1356007
145	0xbea36d6a	-0.31919414
146	0x3d1aa673	0.037756395
147	0xbe3959f6	-0.18100724
148	0x3e4b8524	0.19875008
149	0xbd8b28f0	-0.067949176
150	0xbe0161ce	-0.12634966
151	0x3de36897	0.11103933
152	0x3e5de60c	0.21669787
153	0x3d966471	0.073433764
154	0xbe45d2f2	-0.1931875
155	0x3e605e2c	0.21910924
156	0x3dfb7632	0.12278403
157	0x3e06e2e3	0.13172488
158	0x3da5a7dc	0.08088657
159	0x3dccadb5	0.099940695
160	0xbe7d93dd	-0.24763437
161	0x3cf9f970	0.030514449
162	0xb9c22640	-0.00037031062
163	0xbca322cb	-0.019914052
164	0xbe94520e	-0.28968853
165	0xbe0830b6	-0.13299832
166	0x3e6be62e	0.23037025
167	0x3d5ab10b	0.053391498
168	0x3d9d848c	0.07691297
169	0x3de30ed6	0.11086814
170	0xbd9038e8	-0.07042104
171	0xbcec3e54	-0.028838314
172	0xbd18d091	-0.03730828
173	0xbdb6ce36	-0.0892605
174	0xbddd1ee7	-0.1079691
175	0x3db17ad3	0.08666005
176	0x3da3fe6e	0.08007513
177	0x3da8b27d	0.08237169
178	0xbdea2fa6	-0.114348695
179	0x3de2b714	0.11070076
180	0xbddd727f	-0.10812854
181	0xbca7a558	-0.020464584
182	0x3e4b862f	0.19875406
183	0xbe845b71	-0.25851014
184	0x3dd8d3cb	0.10587271
185	0x3e64640f	0.22303794
186	0xbd1eea92	-0.038797922
187	0x3d6a2192	0.05716092
188	0x3c84543c	0.016153447
189	0xbe92bc7a	-0.2865942
190	0xbe4466e0	-0.19179869
191	0x3e1c1790	0.15243363
192	0xbd0f0371	-0.03491539
193	0xbd6eb342	-0.058276422
194	0xba9c9b84	-0.0011948203
195	0xbc3a0bea	-0.01135538
196	0xbd2ffbd5	-0.042964775
197	0x3de092dd	0.10965512
198	0x3d1ea9bb	0.038736086
199	0xbe4ae579	-0.198141
200	0xbdefdfde	-0.11712621
201	0xbe177838	-0.14791954
202	0xbdac5d3d	-0.08416221
203	0xbcb73a92	-0.022366796
204	0x3e522fd3	0.20526056
205	0xbd76b9f0	-0.060235918
206	0xbdc191d7	-0.09451645
207	0xbd732f5b	-0.059371334
208	0xbdbaa671	-0.091137774
209	0xbd90040c	-0.07032022
210	0x3cbb58f7	0.02286957
211	0x3ea4bbed	0.32174626
212	0x3d475744	0.048667207
213	0xbdcdacca	-0.100427225
214	0x3e45f75e	0.19332644
215	0x3d597a97	0.053095426
216	0xbdcc634a	-0.099798754
217	0xbda2f5f0	-0.07957065
218	0x3e07857f	0.13234518
219	0xbe3e5e85	-0.18590744
220	0x3d91827d	0.07104967
221	0x3dde46f6	0.108533785
222	0xbd675787	-0.056479957
223	0x3e3ea8e4	0.18619114
224	0xbc3de2c4	-0.01158971
225	0x3e878a29	0.26472595
226	0x3da96308	0.08270842
227	0xbe334c42	-0.17509559
228	0xbdd4b1bc	-0.10385463
229	0x3d5a1bae	0.053249054
230	0x3da226e0	0.07917571
231	0xbe3e3693	-0.18575506
232	0x3d5d2642	0.053991564
233	0x3c476cb3	0.012171912
234	0x3dd2dd28	0.102960885
235	0xbe179e63	-0.14806513
236	0xbe4f3021	-0.20233203
237	0xbe6c9c8a	-0.2310659
238	0x3e13e172	0.1444147
239	0xbbd24299	-0.0064166305
240	0xbe1c0bbb	-0.1523885
241	0x3e31d86e	0.17367718
242	0xbdcccc64	-0.09999922
243	0x3e03bc62	0.12864831
244	0xbdda72d1	-0.10666431
245	0xbe471fdd	-0.19445749
246	0x3d93d2c4	0.07217935
247	0x3dc82cd8	0.09774178
248	0x3e52cd41	0.2058611
249	0xbc608e29	-0.013705769
250	0xbdbe23f8	-0.09284204
251	0xbc7093ba	-0.014683658
252	0xbe3bae0c	-0.18328112
253	0x3c7fff5a	0.015624845
254	0xbe365986	-0.17807588
255	0x3e191f29	0.14953293

bn2.weight f4 [16]
0	0x3f8403e5	1.0313689
1	0x3f8a0310	1.0782185
2	0x3f8baddd	1.0912434
3	0x3f6af458	0.9177909
4	0x3f8d00a5	1.1015822
5	0x3fa6aa7f	1.3020781
6	0x3f72c7c8	0.9483609
7	0x3f623126	0.88356245
8	0x3fb3a3db	1.403438
9	0x3f856330	1.0420895
10	0x3f9776dc	1.1833148
11	0x3f9d70dc	1.2300067
12	0x3f96ce25	1.178166
13	0x3f8fd336	1.1236331
14	0x3f68f301	0.90995795
15	0x3f7247b8	0.94640684

bn2.bias f4 [16]
0	0xbe17dabc	-0.14829534
1	0xbe9fb1e0	-0.31190395
2	0xbed4b898	-0.41547084
3	0xbe0a6f1d	-0.13518949
4	0xbe8a0cc9	-0.2696288
5	0xbf0b92a3	-0.54520625
6	0xbd7b63c3	-0.061374437
7	0xbdebbdff	-0.11510848
8	0xbf1bfd6d	-0.6093357
9	0xbe899ab6	-0.26875848
10	0xbee67208	-0.45008874
11	0xbf04b968	-0.5184541
12	0xbefde181	-0.49586108
13	0xbe9213a6	-0.28530616
14	0xbd772bf6	-0.06034466
15	0xbe20e56d	-0.15712519

bn2.running_mean f4 [16]
0	0x3a50e813	0.0007969152
1	0xbb053bf2	-0.002032992
2	0x3aabb88a	0.0013101262
3	0xbb0e2e7b	-0.0021695185
4	0x3b1f612f	0.00243194
5	0x3a21c1ff	0.000617057
6	0x394b6467	0.00019396991
7	0x3725c077	9.879578e-06
8	0xb9a231b0	-0.00030936068
9	0xbbe54999	-0.006997299
10	0xbb21f584	-0.002471299
11	0x3a8d2442	0.0010768252
12	0x3935fc8a	0.00017355583
13	0xbab301be	-0.0013657135
14	0xb994aa8a	-0.0002835582
15	0x3a19b58f	0.0005863541

bn2.running_var f4 [16]
0	0x3be770a1	0.007062987
1	0x3d8c1875	0.06840602
2	0x3c6ab5ca	0.014325568
3	0x3d0e7eb9	0.03478882
4	0x3d292af6	0.041300736
5	0x3da93c98	0.082635105
6	0x3c0089f5	0.0078453915
7	0x3c551fe3	0.013008091
8	0x3cac0492	0.020998273
9	0x3d9c26a8	0.076245606
10	0x3cb88510	0.022524387
11	0x3ccf6eb5	0.025321344
12	0x3da8ad5e	0.08236192
13	0x3d3f49f6	0.046701394
14	0x3bb3c1dc	0.0054857563
15	0x3c337c9f	0.010955005

conv_sep.0.weight f4 [16, 1, 1, 16]
0	0x3d8a5eb9	0.06756348
1	0x3ccc6c4a	0.02495398
2	0x3c8fe80e	0.017566707
3	0x3dd445b6	0.10364859
4	0xbe2308ce	-0.15921327
5	0xbe004827	-0.12527524
6	0xbdd4e667	-0.10395508
7	0x3da557e4	0.080734044
8	0xbda5f818	-0.08103961
9	0x3d920573	0.071299456
10	0x3e26f35e	0.16303775
11	0x3eb700f7	0.35742924
12	0x3e7351bf	0.23761652
13	0x3e56d1d1	0.20978476
14	0x3d037824	0.032096997
15	0xbe000c93	-0.12504797
16	0xbdb8fc53	-0.09032502
17	0xbde2e661	-0.110790975
18	0x3df90bb2	0.12160434
19	0x3e525ed3	0.20543985
20	0x3e1f273c	0.1554231
21	0x3cd70301	0.02624655
22	0xbe1feeb9	-0.15618409
23	0x3d2989e9	0.041391287
24	0x3c3d6bb5	0.011561324
25	0x3cd20229	0.025635796
26	0xbe433973	-0.19064884
27	0xbda47d93	-0.08031764
28	0x3e0e351f	0.13887452
29	0x3e8ad971	0.2711902
30	0x3e3f9a71	0.18711258
31	0x3e7cd541	0.24690725
32	0xbd5486e1	-0.051886443
33	0xbe632256	-0.22181067
34	0xbdac1682	-0.084027305
35	0xbe7b42ab	-0.2453715
36	0xbd610146	-0.054932855
37	0xbd1ed4cf	-0.03877717
38	0xbddd6f34	-0.10812226
39	0xbe887554	-0.26652014
40	0xbe291be8	-0.16514552
41	0x3dd6836b	0.10474285
42	0x3d3be97e	0.045876972
43	0xbdab795b	-0.08372756
44	0xbe395fa4	-0.1810289
45	0x3e205426	0.156571
46	0xbdfe1bab	-0.12407621
47	0xbd523d50	-0.051328003
48	0x3d0733f3	0.033008527
49	0xbde0be35	-0.10973779
50	0xbc946a58	-0.018117115
51	0xbe74104d	-0.23834343
52	0xbd136784	-0.035987392
53	0xbda58e85	-0.08083824
54	0xbe0b2141	-0.13586904
55	0x3e46d3f3	0.1941679
56	0x3bab0be7	0.0052199247
57	0xbcd40d04	-0.025885113
58	0x3dfa7200	0.12228775
59	0x3e0948bf	0.13406657
60	0xbca83085	-0.020530948
61	0xba79c676	-0.0009528169
62	0xbe8286e4	-0.25493538
63	0xbeac8a31	-0.33699182
64	0xbc775c02	-0.01509762
65	0xbac1cdc2	-0.0014786052
66	0x3d1e07f8	0.03858182
67	0xbe52f6a0	-0.20601892
68	0x3a587bc4	0.00082581886
69	0xbe5b93a0	-0.21443033
70	0xbea2f3b4	-0.31826556
71	0xbe98b056	-0.29822034
72	0xbcb8ffaa	-0.022582848
73	0xbe0ea0ab	-0.13928477
74	0x3c458985	0.012056713
75	0x3e7eeb61	0.24894477
76	0xbbf67ec5	-0.0075224363
77	0xbd60895b	-0.054818492
78	0x3e013fb4	0.12621957
79	0x3da2bf80	0.07946682
80	0x3ea01d4b	0.3127235
81	0x3d5544bd	0.052067507
82	0xbd35270d	-0.044226695
83	0x3e4388c7	0.19095145
84	0xbced6188	-0.02897717
85	0x3e54bc5c	0.20774978
86	0xbc140388	-0.009034045
87	0x3c4d4999	0.012529754
88	0x3e2a46f7	0.16628633
89	0x3e4988d8	0.19681108
90	0x3db4e10f	0.08831989
91	0x3e16d51a	0.1472973
92	0xbcaeaecc	-0.021323584
93	0x3e1969bc	0.1498174
94	0x3d65dd65	0.05611934
95	0x3e17dd85	0.14830597
96	0x3daf5388	0.08560854
97	0x3abdbb6b	0.001447541
98	0x3d6d7d2d	0.057980705
99	0xbe253959	-0.16135158
100	0xbd293d6e	-0.04131835
101	0x3ca0a1bc	0.019608371
102	0xbe021ef6	-0.12707123
103	0x3e2959d2	0.1653817
104	0x3e09681d	0.13418622
105	0x3d204aa1	0.03913367
106	0x3dfe334f	0.1241213
107	0x3e782da1	0.24236156
108	0x3d96c106	0.07361035
109	0x3d21c683	0.039495956
110	0xbd4b1697	-0.04958209
111	0xbe4d77fb	-0.200653
112	0x3e0a9753	0.13534288
113	0xbd6c76fc	-0.05773066
114	0x3d96e13f	0.07367181
115	0xbd5d5a8d	-0.054041434
116	0xbe1dae26	-0.15398464
117	0xbd648da3	-0.055799138
118	0x3d8d2fdc	0.06893894
119	0xbe60724f	-0.21918605
120	0x3d8ce984	0.06880477
121	0xbdbc1c86	-0.09185128
122	0x3e111f4b	0.14172094
123	0xbd9d39cb	-0.07677039
124	0x3e1da340	0.15394306
125	0x3e756320	0.23963594
126	0x3d8c1b4a	0.068411425
127	0x3d8b1407	0.06790929
128	0x3e9215a5	0.28532138
129	0xbc0c730d	-0.008572352
130	0xbdd7ec06	-0.10543065
131	0x3e9610e0	0.2930975
132	0x3e52d482	0.20588878
133	0x3e9e41bf	0.30909535
134	0x3e81708a	0.25281173
135	0xbd7d38c0	-0.0618217
136	0x3e316020	0.17321825
137	0x3e1dca17	0.15409122
138	0x3be6bc5f	0.0070414986
139	0xbd18b621	-0.037283067
140	0xbdef4e6c	-0.1168488
141	0x3d4479e8	0.04796782
142	0x3eb25dc7	0.3483717
143	0x3e52407a	0.20532408
144	0xbda4dc1e	-0.080497965
145	0xbd58e04f	-0.052948292
146	0xbd36e8a4	-0.044655457
147	0x3e796318	0.24354208
148	0x3e65eda0	0.22453928
149	0x3c81414c	0.015778206
150	0xbd7900a9	-0.060791645
151	0xbd8f2701	-0.06989861
152	0xbd4fb05a	-0.05070529
153	0x3e227896	0.15866312
154	0x3e2ffe51	0.17186858
155	0x3df6d835	0.12052957
156	0x3e5e6235	0.2171715
157	0x3e42906e	0.19000408
158	0x3e326d76	0.17424569
159	0x3e976339	0.29567888
160	0x3db57fe9	0.088622876
161	0x3da32003	0.0796509
162	0x3e2527ec	0.1612851
163	0x3e42c36a	0.19019857
164	0x3dd620c0	0.10455465
165	0x3d28db76	0.04122492
166	0xbe082640	-0.13295841
167	0x3e91c692	0.2847181
168	0x3e870cf3	0.26377067
169	0xbdf5ef1f	-0.12008499
170	0xbdcca0a0	-0.09991574
171	0x3e594bcc	0.2122032
172	0x3e79edcf	0.24407123
173	0xbacfabbe	-0.001584403
174	0x3d6b1e43	0.057401907
175	0x3e2ccfd7	0.1687616
176	0x3e405d6b	0.18785636
177	0x3e13c748	0.14431489
178	0x3e02cbf0	0.12773108
179	0x3e389f53	0.18029527
180	0xbc06c7c9	-0.008226343
181	0x3deaefdd	0.114715315
182	0x3e295afa	0.16538611
183	0xbc0271c8	-0.007961698
184	0x3d1bbbaf	0.038020786
185	0x3d164b7c	0.03669308
186	0xbcdc623b	-0.026902309
187	0x3e738642	0.23781684
188	0x3e21dd84	0.15807158
189	0x3b44c85d	0.0030026652
190	0x3cedf70d	0.029048467
191	0x3c55b9de	0.0130448025
192	0xbe4dfc83	-0.20115857
193	0xbcbe026c	-0.023194514
194	0xbd4fe185	-0.05075218
195	0x3d4b4578	0.049626797
196	0xbdade74e	-0.084913835
197	0xbd1c6a01	-0.03818703
198	0xbe64db78	-0.22349346
199	0xbdceeb40	-0.10103464
200	0xbc2a9b2e	-0.010412974
201	0x3da4cda6	0.08047037
202	0xbdadb230	-0.08481252
203	0xbe35740a	-0.17720047
204	0xbe2749a6	-0.16336688
205	0xbd807168	-0.062716305
206	0xba7abbe2	-0.000956474
207	0xbe6eba41	-0.23313238
208	0x3c10a23d	0.008827743
209	0x3e08ecc5	0.1337157
210	0x3bd41662	0.006472395
211	0xbcca79e1	-0.02471632
212	0xbde6e50d	-0.11274157
213	0x3dd14b43	0.10219433
214	0xbc984e12	-0.018591914
215	0xbd9233ae	-0.07138763
216	0xbd700681	-0.058599953
217	0xbe6b8163	-0.22998576
218	0xbe5f45a2	-0.21803907
219	0xbe52e3ab	-0.20594661
220	0xbd17bebc	-0.037047133
221	0x3ce6b1bb	0.02816092
222	0xbe2d872b	-0.16946094
223	0xbe79d9fb	-0.24399559
224	0xbe0b2eec	-0.13592118
225	0xbd81c87d	-0.06337068
226	0x3c0556d3	0.008138376
227	0x3d94bff4	0.07263175
228	0x3e3451e1	0.1760936
229	0x3d961f26	0.0733016
230	0x3e0e1cd5	0.13878186
231	0x3dea728a	0.11447628
232	0xbe8231c9	-0.25428608
233	0xbe12e459	-0.1434492
234	0xbe877ddd	-0.26463214
235	0xbe9483e7	-0.29006884
236	0xbe799c05	-0.24375923
237	0x3d8da1c3	0.06915619
238	0x3e2dd473	0.16975574
239	0x3d37c416	0.044864736
240	0x3e3e948a	0.1861135
241	0x3e292302	0.1651726
242	0x3e3213fb	0.17390434
243	0x3e5abfb1	0.21362187
244	0xbdf3153e	-0.11869286
245	0x3d3931e2	0.045213588
246	0x3e302910	0.17203164
247	0xbdf256d5	-0.11832968
248	0xbe68d305	-0.22736748
249	0xbe76f0b3	-0.24115257
250	0xb8251ccd	-3.936589e-05
251	0xbe70a7e7	-0.2350155
252	0xbcc85b74	-0.02445767
253	0xbd72f42f	-0.059314903
254	0xbd906029	-0.07049591
255	0xbdc0343b	-0.09384962

conv_sep.1.weight f4 [16, 16, 1, 1]
0	0xbe7cfd2f	-0.24705957
1	0xbe189605	-0.14900978
2	0xbd22f851	-0.039787594
3	0x3d8bad06	0.06820111
4	0x3e744dda	0.23857823
5	0xbd20dc7c	-0.03927277
6	0xbda1733b	-0.078833066
7	0x3d3afc7f	0.045650955
8	0xbd26ddcf	-0.040738877
9	0xbd929e27	-0.071590714
10	0xbbc0ec00	-0.0058875084
11	0x3e088d1b	0.13335077
12	0xbcee12a9	-0.029061632
13	0x3e088c26	0.13334712
14	0xbd3a31e2	-0.04545773
15	0xbe5db6db	-0.21651785
16	0xbe243700	-0.16036606
17	0xbcb884cd	-0.022524262
18	0x3e059601	0.13045503
19	0xbc8dcc0c	-0.017309211
20	0x3e167dc8	0.14696419
21	0xbdb471d9	-0.08810777
22	0xbe8b9954	-0.27265418
23	0xbe254e12	-0.16143063
24	0x3d072331	0.032992546
25	0xbe04b7d8	-0.12960756
26	0xbe18be58	-0.1491636
27	0xbd31c8b0	-0.04340428
28	0xbdfe02cb	-0.124028765
29	0xbc2cd531	-0.010548876
30	0x3e1100d1	0.14160468
31	0x3e2f46bf	0.17116831
32	0xbd88e7f2	-0.06684865
33	0x3e8021da	0.25025827
34	0xbdbb7dac	-0.091548294
35	0x3dd37471	0.10324944
36	0xbdfb5123	-0.12271335
37	0xbdb1281d	-0.08650229
38	0xbe832925	-0.25617328
39	0xbe244bda	-0.1604456
40	0xbd45c9d5	-0.048288185
41	0x3e358e76	0.17730126
42	0x3ded167e	0.11576556
43	0x3d97bd9c	0.07409212
44	0xbe603ff0	-0.2189939
45	0xbe6b3e4c	-0.22972983
46	0xbe6dfbec	-0.23240632
47	0xbdc4818f	-0.09595024
48	0x3e6ced15	0.23137315
49	0x3e567b58	0.2094549
50	0x3d9d9ee5	0.07696322
51	0xbe83fcc3	-0.2577878
52	0x3cb4a680	0.02205205
53	0x3e2e5137	0.17023169
54	0x3d731d7e	0.059354298
55	0x3dd27ef6	0.10278122
56	0xbd31488a	-0.04328207
57	0x3e0623a7	0.13099538
58	0xbdb20960	-0.086931944
59	0xbcab5905	-0.020916471
60	0x3d821e72	0.06353463
61	0x3e9e4e64	0.30919182
62	0x3d26dc9a	0.040737726
63	0x3d5c29a4	0.05375065
64	0x3e547002	0.20745853
65	0x3c9a189b	0.01881056
66	0xbc85528c	-0.016274713
67	0x3db460d9	0.08807535
68	0x3d05125f	0.032488223
69	0x3e3526f8	0.17690647
70	0xbd6ed7d1	-0.058311287
71	0xbde57414	-0.11203781
72	0x3e3f4455	0.1867841
73	0x3d5d50ce	0.05403214
74	0x3e9d4793	0.3071867
75	0xbe65e5d7	-0.22450958
76	0xbe454e71	-0.19268204
77	0xbd09a3fb	-0.03360365
78	0x3d6db934	0.05803795
79	0xbe03abba	-0.12858477
80	0x3e0fbb50	0.14036298
81	0x3e67536d	0.22590418
82	0x3db36ca0	0.08760953
83	0xbb783514	-0.0037873434
84	0x3ccc99c0	0.024975657
85	0x3e0947de	0.13406321
86	0xbbc8e51c	-0.0061308276
87	0xbe35681c	-0.17715496
88	0x3c3647d9	0.011125528
89	0xbcaec947	-0.02133621
90	0x3cc61e27	0.0241843
91	0xbe34e34c	-0.17664832
92	0x3d91ca94	0.07118717
93	0xbaaef358	-0.0013347669
94	0xbc933c8f	-0.017973213
95	0x3deab886	0.11460976
96	0x3ba0a0f6	0.0049020005
97	0xbd6b1837	-0.05739614
98	0xbd1172f1	-0.035510007
99	0xbe2158e3	-0.15756564
100	0xbea100f8	-0.31446052
101	0xbdf6803e	-0.12036179
102	0xbd97c662	-0.074108854
103	0xbe651af0	-0.22373557
104	0xbe6b506e	-0.229799
105	0xbe0e2bc6	-0.13883886
106	0x3d2658bc	0.040611967
107	0xbe76bc79	-0.24095334
108	0x3e0bc8f0	0.1365087
109	0x3df89545	0.12137846
110	0xbd12beec	-0.03582661
111	0x3cf80dd4	0.030280031
112	0xbdf65b91	-0.12029184
113	0xbdd7b0f1	-0.10531796
114	0xbe0452ff	-0.12922285
115	0xbb38a04d	-0.0028171719
116	0x3b559e2c	0.0032595498
117	0xbd91d768	-0.071211636
118	0xbda31203	-0.0796242
119	0x3d6f2bcb	0.058391374
120	0x3e8708ff	0.2637405
121	0x3afc16c9	0.0019232865
122	0x3d9c8aa2	0.076436296
123	0xbe16519f	-0.14679573
124	0x3c4511f2	0.012028204
125	0x3e3c79f0	0.1840589
126	0xbd512517	-0.051060762
127	0x3e1996cd	0.14998932
128	0x3e4d09b5	0.20023234
129	0xbdb6b5e4	-0.08921412
130	0xbd9b3ae7	-0.07579594
131	0xbe510ac5	-0.20414265
132	0x3bebf776	0.0072011305
133	0xbd48e76b	-0.049048822
134	0xbd1fb77b	-0.03899334
135	0xbe640263	-0.22266535
136	0x3e9d17b4	0.30682147
137	0xbcbac13f	-0.022797225
138	0x3b86e90a	0.004117136
139	0x3db9069a	0.09034462
140	0xbd789fea	-0.06069938
141	0x3e6fc3b2	0.23414496
142	0x3d915779	0.07096762
143	0xbbdd26e7	-0.0067490223
144	0xbdea7edc	-0.11449978
145	0x3e9c0f47	0.30480406
146	0x3e8ebaff	0.27877042
147	0x3e440a9f	0.19144677
148	0xbe3a89b7	-0.18216597
149	0xbc723b6a	-0.014784673
150	0xbe0f2266	-0.13977966
151	0x3d03551c	0.03206359
152	0x3d8e9b95	0.06963269
153	0xbdf6fb8f	-0.120597
154	0xbe1459da	-0.144874
155	0x3e56889a	0.20950547
156	0xbe25b905	-0.1618386
157	0x3e1ebdbd	0.15502067
158	0xbd73357a	-0.05937717
159	0xbd8d8511	-0.06910146
160	0x3c9fadb7	0.019492013
161	0x3e1db97c	0.15402788
162	0x3e82f650	0.25578547
163	0xbdf05c5a	-0.11736365
164	0xbd48b004	-0.048995987
165	0x3e263632	0.16231611
166	0x3e1e07ba	0.15432635
167	0x3e97af2a	0.29625827
168	0xbdcb02ac	-0.09912619
169	0xbdcb59f3	-0.09929266
170	0xbda8294a	-0.08211
171	0xbd8ccc6e	-0.06874929
172	0xbea6db30	-0.32589102
173	0x3dc15080	0.09439182
174	0xbe3c50d5	-0.1839021
175	0xbd94409c	-0.07238886
176	0x3e3371a9	0.17523827
177	0xbe62aa4a	-0.22135273
178	0xbe0e5454	-0.13899356
179	0x3e35138e	0.17683241
180	0xbbef243b	-0.00729802
181	0x3eb60c99	0.35556486
182	0x3d46f7dc	0.04857622
183	0xbe677406	-0.22602853
184	0x3e287790	0.1645186
185	0xbdf32bce	-0.118735895
186	0x3deed766	0.11662178
187	0xbd120933	-0.035653304
188	0xbe9c9203	-0.30580148
189	0x3e1efe23	0.15526633
190	0xbda95cfb	-0.08269688
191	0xbde268f1	-0.11055172
192	0xbd83b5eb	-0.064311825
193	0xbccea3c8	-0.025224581
194	0x3e37f3b7	0.17964064
195	0x3e47e92f	0.19522546
196	0x3e83cf32	0.25744015
197	0x3e5762a5	0.21033724
198	0xbdc7811e	-0.09741424
199	0x3e23bbe6	0.15989646
200	0xbdc8374b	-0.09776171
201	0xbd63bb5d	-0.055598605
202	0x3e8d78b2	0.27631146
203	0xbe2e27b2	-0.1700733
204	0x3e8088dc	0.25104415
205	0x3d83e61c	0.06440374
206	0xbd813777	-0.06309407
207	0xbdc7cd95	-0.097560085
208	0x3d1237b0	0.03569764
209	0x3df1af06	0.11800961
210	0xbcde1c6b	-0.02711316
211	0x3d0086ee	0.03137868
212	0xbe37adfe	-0.17937467
213	0xbcc71644	-0.02430261
214	0xbe5461d3	-0.20740442
215	0x3d04ee2f	0.032453712
216	0xbdc3b619	-0.09556217
217	0xbe33aa23	-0.17545371
218	0x3e4f2453	0.202287
219	0xbd47c1b5	-0.048768718
220	0xbe1c6ade	-0.15275142
221	0xbc246ecb	-0.010036181
222	0x3e658a21	0.22415973
223	0x3cadebe9	0.021230655
224	0xbdcaad09	-0.09896285
225	0xbdfc8879	-0.123307176
226	0x3db989b2	0.090594664
227	0x3c440537	0.011964134
228	0xbe3dff96	-0.1855453
229	0xbe9894a8	-0.29800916
230	0xbdb8701c	-0.09005758
231	0xbd694b48	-0.05695656
232	0x3e31334c	0.17304724
233	0x3e3770c2	0.17914107
234	0xbde7307f	-0.11288547
235	0x3df8bf98	0.121459186
236	0x3d82e3fc	0.06391141
237	0xbe6b8b8c	-0.23002452
238	0x3e1b1b73	0.1514719
239	0x3d0295a5	0.031880993
240	0xbe23d57e	-0.1599941
241	0x3aca04cf	0.001541281
242	0xbe32faab	-0.17478435
243	0xbe85b23b	-0.26112542
244	0x3e284624	0.16433007
245	0x3ddf64d0	0.109079
246	0xbe1e837d	-0.15479846
247	0xbd3657d9	-0.04451737
248	0x3c856afd	0.016286368
249	0x3e2d72e8	0.16938365
250	0xb9b4f0e1	-0.00034511744
251	0xbe575d08	-0.21031582
252	0xbddd0e84	-0.10793784
253	0xbd5a83d1	-0.053348366
254	0x3e24e9d8	0.1610483
255	0x3e051b00	0.12998581

bn3.weight f4 [16]
0	0x3f94b456	1.1617534
1	0x3f9a19d7	1.2039136
2	0x3f952f8e	1.1655138
3	0x3f94bb69	1.1619693
4	0x3f8fea24	1.1243329
5	0x3f89d740	1.0768814
6	0x3f8d3e92	1.103472
7	0x3f9b8c7c	1.2152247
8	0x3f95e969	1.1711856
9	0x3f91d1b6	1.1392124
10	0x3f8c4654	1.0958962
11	0x3f98c96e	1.1936471
12	0x3f8c7b7c	1.0975184
13	0x3f930ea3	1.1488842
14	0x3f8cc82e	1.099859
15	0x3f940294	1.1563287

bn3.bias f4 [16]
0	0xbe10e137	-0.14148413
1	0xbe031f0d	-0.12804814
2	0xbe16cc47	-0.14726363
3	0xbe0df889	-0.1386434
4	0xbd91a18b	-0.0711089
5	0xbdb841e9	-0.08996946
6	0xbdd9f871	-0.106430896
7	0xbd2ab833	-0.041679572
8	0xbd03841f	-0.032108422
9	0xbda2923c	-0.07938048
10	0xbdd707a9	-0.10499508
11	0xbdae4f1d	-0.085111834
12	0xbd86cc51	-0.06581939
13	0xbdbaf170	-0.09128082
14	0xbcc9eade	-0.024648126
15	0xbdc4255d	-0.09577439

bn3.running_mean f4 [16]
0	0xbc882b43	-0.016622191
1	0x3c9fe48b	0.019518157
2	0xbda2871b	-0.079359256
3	0x3cea84e7	0.028627826
4	0xbe0918cd	-0.13388367
5	0x3ca021c3	0.019547349
6	0x3e1521ad	0.14563628
7	0xbd709200	-0.058732986
8	0xbdc67a3b	-0.09691282
9	0xbcfb10b0	-0.030647606
10	0x3cc6b494	0.024256028
11	0xbe3a0c8f	-0.18168853
12	0x3d198d4a	0.03748826
13	0xbd33026e	-0.04370349
14	0x3c6b08ec	0.014345389
15	0xbd615ae2	-0.055018313

bn3.running_var f4 [16]
0	0x3ddd153e	0.10795067
1	0x3de096e5	0.10966281
2	0x3e17e6e8	0.14834177
3	0x3e08f30d	0.13373967
4	0x3e145b58	0.1448797
5	0x3d6b7490	0.05748421
6	0x3e00621e	0.12537429
7	0x3dbe147a	0.09281249
8	0x3e0ea2b5	0.13929255
9	0x3e09e112	0.13464764
10	0x3e0711c4	0.13190371
11	0x3e6374e6	0.22212562
12	0x3dca70d8	0.098848045
13	0x3dc1cdcd	0.094630815
14	0x3de6afb7	0.11263984
15	0x3de252ca	0.11050947

classifier.weight f4 [4, 560]
0	0x3d5ae669	0.053442392
1	0xbd264ca5	-0.040600438
2	0x3b5b5dd7	0.003347268
3	0x3d0c870c	0.03430848
4	0xbe7be3ee	-0.24598667
5	0x3e1a86d4	0.15090495
6	0x3da7ddbf	0.081965916
7	0xbd455565	-0.04817714
8	0x3d8ca5b2	0.068675414
9	0xbd8f7ab8	-0.070058286
10	0x3d1eaf3e	0.038741343
11	0xbbe57cd3	-0.0070034056
12	0xbd8b4ebf	-0.06802129
13	0x3d9110be	0.070832714
14	0x3d4b7f03	0.049681675
15	0xbcf9cd15	-0.030493299
16	0xbc7db817	-0.015485785
17	0xbca42a4e	-0.020039704
18	0xbda98f3a	-0.082792714
19	0x3bf632cb	0.007513379
20	0x3ca06903	0.019581323
21	0xbd6cc648	-0.057806283
22	0xbdb5b5b5	-0.088725485
23	0x3c94b897	0.018154426
24	0x3d404358	0.046939224
25	0xbd163875	-0.036674935
26	0xbcb73428	-0.022363737
27	0xbd06c3b7	-0.032901492
28	0xbd3efa32	-0.046625324
29	0x3d4d1b9a	0.05007515
30	0x3d407b09	0.046992335
31	0xbc9a9f12	-0.018874679
32	0x3b8d8e03	0.0043199076
33	0xbc7a49aa	-0.015276352
34	0xbc13fcf2	-0.009032475
35	0x3d1bace2	0.03800667
36	0xbcc59c9b	-0.024122527
37	0xbe1323be	-0.14369103
38	0x3d899b64	0.067190915
39	0xbe19e173	-0.15027408
40	0xbda94822	-0.08265711
41	0x3dad84fb	0.0847263
42	0x3ac48d11	0.0014995654
43	0x3c32fa91	0.0109239975
44	0x3df8f432	0.121559516
45	0x3d931f87	0.07183748
46	0xb9c6c2e2	-0.00037910702
47	0x3d1a07cf	0.037605103
48	0x3c8ffbf8	0.017576203
49	0x3aaf070a	0.0013353538
50	0x3a7ec00b	0.00097179477
51	0xbc05bab1	-0.0081621865
52	0x3cc4307b	0.023948899
53	0xbcc75f68	-0.024337485
54	0xbd7e2a19	-0.062051866
55	0x3a0fe31e	0.000548886
56	0x3c18a6fa	0.009317154
57	0xbc252536	-0.010079673
58	0xbd8c632a	-0.068548515
59	0xbdb0653d	-0.0861306
60	0x3c999c48	0.018751279
61	0x3d6af237	0.0573599
62	0xbd1f95be	-0.038961165
63	0xbd8112e1	-0.06302429
64	0xbc1ee093	-0.009697097
65	0xbd98945b	-0.074501716
66	0xbd9dfe36	-0.077145025
67	0xbd6da5f4	-0.058019593
68	0xbc6ac45b	-0.014329041
69	0xbd8993ae	-0.06717621
70	0x3dd7d238	0.10538143
71	0xbdbcf03a	-0.09225507
72	0xbae29988	-0.0017288188
73	0x3e0b2087	0.13586627
74	0xbcecb740	-0.028895974
75	0x3dd282d2	0.10278858
76	0x3c05fc19	0.008177781
77	0xbdd08b9c	-0.101828784
78	0x3cf6e60b	0.03013899
79	0x3d146ff7	0.03623959
80	0xbd515c87	-0.05111363
81	0x3baebbf5	0.005332465
82	0x3ca98978	0.020695433
83	0x3cc4bdf9	0.024016367
84	0x3d57befc	0.05267237
85	0xbd92d2e1	-0.07169128
86	0x3d28a831	0.041176025
87	0xbd50401b	-0.050842386
88	0xbd479c93	-0.048733305
89	0xbd6d1a8f	-0.057886656
90	0xbbe6ec6f	-0.007047228
91	0x3c710387	0.014710314
92	0x3da3120e	0.07962428
93	0xbc32bfec	-0.010910016
94	0x3d04b34e	0.03239756
95	0xbdaf1c32	-0.085503
96	0x3db73eff	0.089475624
97	0xbdbae471	-0.09125603
98	0xbd93bb20	-0.07213426
99	0x3cf340ca	0.02969398
100	0x3c94a56c	0.018145286
101	0x3d5c1f43	0.05374075
102	0x3d68f60f	0.056875285
103	0x3e0d3a3b	0.13791744
104	0x3d5cf410	0.053943694
105	0xbc318db9	-0.010837012
106	0x3d39408b	0.04522757
107	0xbcf410e6	-0.029793214
108	0xbcdf6fa6	-0.027274918
109	0x3e1c44f2	0.15260676
110	0xbe1a70a2	-0.15082029
111	0x3d02cec1	0.031935457
112	0x3df8b60e	0.12144099
113	0x3d4b7d0d	0.049679805
114	0x3d013609	0.031545673
115	0x3b981a48	0.004641805
116	0x3d361a9c	0.04445897
117	0x3da332ff	0.07968711
118	0xbd861ced	-0.06548486
119	0x3ddcdf3f	0.10784768
120	0xbd716c69	-0.05894128
121	0x3c6a971a	0.014318252
122	0xbdb2c387	-0.087287
123	0x3c8d7275	0.017266491
124	0x3cec380d	0.02883532
125	0xbd4cfd73	-0.050046396
126	0xbd17f418	-0.03709802
127	0x3dde1355	0.10843531
128	0x3d0bc8ad	0.034126926
129	0xbd997f68	-0.07495004
130	0xba89ca70	-0.0010512602
131	0xbd9309b0	-0.07179582
132	0x3c643131	0.013927744
133	0x3c1c0fa4	0.009525213
134	0xbd6db181	-0.05803061
135	0x3d98333b	0.074316464
136	0x3d2f5ace	0.042811207
137	0x3cc87f6e	0.024474826
138	0x3b48a98c	0.0030618636
139	0xbb02427e	-0.0019876058
140	0x3cfd8b31	0.03095016
141	0xbc949de6	-0.018141698
142	0x3d6a6248	0.057222635
143	0xbd846155	-0.06463877
144	0x3ddafeab	0.10693105
145	0xbdcb36d1	-0.09922565
146	0x3c98e198	0.018662259
147	0xbd27074b	-0.04077844
148	0x3b91f398	0.0044540875
149	0x3d776c71	0.060406152
150	0x3d4db1b8	0.050218314
151	0x3d203676	0.039114438
152	0x3d36e709	0.044653926
153	0xbc13b0d3	-0.009014326
154	0x3ccfac48	0.025350705
155	0x3cedbf23	0.029021805
156	0x3c20cb41	0.0098140845
157	0x3cfddf7a	0.030990351
158	0x3b9e6235	0.0048334845
159	0x3c1bfdf9	0.009521001
160	0xbd1d17df	-0.038352843
161	0x3d01ba9a	0.031672098
162	0x3da5d3e6	0.08097057
163	0x3cf63273	0.030053353
164	0xbbb31ccd	-0.00546608
165	0xbcb88aea	-0.022527177
166	0x3ada80f4	0.0016670511
167	0xbd3bb7cd	-0.045829583
168	0x3c2d64ea	0.010583142
169	0x3b8f1dd1	0.004367568
170	0xbd44f119	-0.04808149
171	0x3cfb2940	0.030659318
172	0x3d7d08a6	0.061775826
173	0x3a1eeb78	0.0006062309
174	0xbc84e2ce	-0.01622143
175	0x3d365cb9	0.04452202
176	0x3d5e79b4	0.054315284
177	0xbd4a65dc	-0.049413547
178	0x3ace69a2	0.0015748034
179	0x3e0f0091	0.1396506
180	0xbe4c5787	-0.19955264
181	0x3d03f7ea	0.03221885
182	0xbd645dd6	-0.05575355
183	0xbd757976	-0.059930287
184	0x3dd122b6	0.10211699
185	0xbd1fb617	-0.038992014
186	0xbd8139e8	-0.06309873
187	0x3a8fc856	0.0010969739
188	0xbd3da827	-0.04630294
189	0x3c0077c8	0.007841058
190	0x3dfe4c8e	0.124169454
191	0xba0ff15f	-0.0005490984
192	0x3c32d2a0	0.010914475
193	0xbcfd717f	-0.030937908
194	0xbd88fac4	-0.06688455
195	0xbbad7f8d	-0.0052947463
196	0xbd17939a	-0.037006
197	0x3d97cffd	0.074127175
198	0x3cc0b07a	0.02352165
199	0x3d1700f3	0.03686614
200	0x3ce18cbe	0.027532931
201	0x3d9e75d2	0.07737316
202	0x3c2c89bf	0.010530888
203	0x3da07023	0.078338884
204	0xbc04865c	-0.008088674
205	0xbd402f04	-0.046919838
206	0xbd27fefb	-0.041014653
207	0xbd884e4b	-0.06655558
208	0xbd9cd50b	-0.07657822
209	0x3d12cecc	0.035841748
210	0x3a9be691	0.0011894276
211	0x3db4f636	0.088360235
212	0xbce9095c	-0.028446846
213	0x3ddcd010	0.10781872
214	0xbc3dd5b5	-0.011586596
215	0xbd50f013	-0.051010203
216	0x3c3d647b	0.011559601
217	0xbb41fdd3	-0.0029600754
218	0xbd9d11be	-0.076694
219	0x3c7e5f43	0.015525642
220	0xbc2f0518	-0.010682367
221	0xbcf3d751	-0.029765757
222	0xbd606467	-0.05478325
223	0x3a0ff152	0.00054909766
224	0xbc0c1a36	-0.008551171
225	0xbd3b8ff4	-0.04579158
226	0xbce1a771	-0.027545663
227	0xbde684ce	-0.11255799
228	0x3d3b944a	0.045795716
229	0xbdade584	-0.08491042
230	0x3daae5c0	0.083446026
231	0xbe2f5284	-0.17121321
232	0x3d4ff0b9	0.05076668
233	0xbd625ce5	-0.055264372
234	0xbb91e5e8	-0.004452456
235	0x3d98c681	0.074597366
236	0x3d698281	0.057009224
237	0x3c6a1849	0.014288017
238	0xbb750e5b	-0.003739259
239	0xbd996a73	-0.07491007
240	0x3d4fcb2f	0.05073088
241	0xbab7e43e	-0.0014029813
242	0xbda45fb0	-0.080260634
243	0xbcbb284a	-0.02284636
244	0x3c8cc1ff	0.017182348
245	0x3c176b95	0.009241958
246	0xbd16267c	-0.036657795
247	0x3b8e235e	0.004337712
248	0xbc822c4f	-0.015890269
249	0xbd4f9f9f	-0.050689336
250	0xbc1683f6	-0.009186735
251	0x3d9ecc45	0.07753805
252	0x3d026660	0.031835914
253	0xbd88853f	-0.0666604
254	0x3d04f5c6	0.03246095
255	0xbcaed275	-0.021340588

classifier.bias f4 [4]
0	0xbd6afba1	-0.05736888
1	0x3c073039	0.008251243
2	0xbc6c50d0	-0.014423564
3	0x3c2d234c	0.010567497
