result_shallowfbcspnet_cv5/fold_3/best_model_fold3.pth (torch, 193974 bytes, 9 tensors)

conv_time_spat.conv_time.weight f4 [40, 1, 25, 1]
000000 04 83 54 bd 70 2a 56 3d bc e1 cb 3c 6b 63 87 3b
       -0.05188276 0.052286565 0.024887912 0.0041317246
000010 0a 9a 04 3b a0 1c 00 bc f8 e5 bf bb 97 d7 60 bd
       0.0020233416 -0.007819325 -0.005856272 -0.054893102
000020 7d 91 ea 3a c1 f9 83 3d b1 c8 cb 3c c9 72 90 bb
       0.0017896142 0.06444121 0.02487597 -0.0044082147
000030 a5 91 55 bd 69 59 a6 3d 47 c8 f9 bc ef d4 12 bd
       -0.05214085 0.081225224 -0.030491007 -0.0358476
000040 73 61 5f bc aa 79 3e 3d 90 14 17 bd c2 aa 65 bd
       -0.013634074 0.046502747 -0.036884844 -0.05607105
000050 d5 27 86 bd 34 0f cc bc eb c5 2f 3d f5 93 f6 bc
       -0.06550566 -0.024909593 0.04291336 -0.030099848
000060 11 a1 cd 3d 96 8b b6 3d 7b 7c 12 3b f1 e8 1a 3b
       0.100404866 0.08913343 0.0022352028 0.002363738
000070 66 2c 4b bd 2d 97 c5 3b f7 d2 73 bc a2 8f 07 bb
       -0.04960289 0.0060299844 -0.014881841 -0.0020684977
000080 26 e3 5d 3d 9c 27 ab bc 06 e8 24 3d 51 cd 21 3d
       0.054171704 -0.02089291 0.040260337 0.039502446
000090 b4 be 73 3d 96 22 8b 3c dc bb 41 3d bb 42 9d bd
       0.05950804 0.016984265 0.047298297 -0.076787435
0000a0 9b cf 8c bd db ee a0 bc 02 bb 86 3d 52 01 3b 3c
       -0.06875535 -0.019645145 0.06578638 0.011413889
0000b0 a7 f4 68 3d 05 20 c8 bb 89 de d3 3c 83 ce 92 bd
       0.056873944 -0.0061073327 0.025862949 -0.07168295
0000c0 7e f5 8c 3d f1 f8 13 bd e8 a5 0c 3c d3 4a 92 3d
       0.068827614 -0.03612608 0.008584477 0.07143178
0000d0 56 00 89 bd ec cd ee 3a f6 01 28 bd f8 8a 99 bc
       -0.06689517 0.0018219328 -0.041017495 -0.018743023
0000e0 fe 26 51 3d 0e 14 f5 3c 43 36 f8 3b 57 56 5c 3d
       0.051062576 0.02991679 0.007574828 0.053793278
0000f0 ee 65 82 bd f5 da 19 3d 6f 69 ad bd 2b 14 4f bd
       -0.06367098 0.03756233 -0.084673755 -0.050556343
000100 c2 8f f8 bc 4a ce 24 3d 67 dc 52 bd 58 5c 46 bd
       -0.030341987 0.040235795 -0.051479723 -0.04842791
000110 d8 8a 89 3c d1 21 a6 bd 1a 88 ee bc b8 58 8e 3d
       0.016789839 -0.08111919 -0.029117633 0.069505155
000120 46 ec 0e bc 53 93 91 3d 75 a5 d9 3c 04 47 34 3d
       -0.008723324 0.07108178 0.026568154 0.04401304
000130 c0 73 b1 3c e6 14 a8 3d 28 52 51 bd a8 10 3b 3d
       0.02166164 0.08207111 -0.05110374 0.04567018
000140 4f f6 29 3d 6f 02 57 bd 88 fc f0 3c 77 d5 39 bd
       0.041494664 -0.052492555 0.029417291 -0.04536959
000150 ac b6 e6 bd 51 7e 4b bd 28 3a 13 3c 76 82 27 3d
       -0.11265311 -0.04968101 0.0089860335 0.0408959
000160 5b 0b 97 3c 9f 52 a6 3d 75 b9 69 3d f2 5a 4e bd
       0.018438032 0.081212275 0.05706163 -0.0503797
000170 d6 4b 22 3d ce 0e 1d bd 75 d9 71 3c 10 96 aa 3d
       0.039623104 -0.038344197 0.014761318 0.083294034
000180 ca 1e 61 bc 6c c5 91 bd 93 78 98 bd 7c 74 43 bd
       -0.013740251 -0.07117733 -0.07444873 -0.04771851
000190 f5 3e 9c 3d 9b bd 4e bd 84 5d 10 bd b5 c4 91 bd
       0.076291956 -0.05047379 -0.035245433 -0.07117597
0001a0 87 62 f3 ba 0b 82 80 3d 2a 5b a9 3d f0 92 02 3d
       -0.0018568792 0.06274804 0.08269341 0.03187841
0001b0 db 1e 06 bd 80 e6 c2 3c c3 f3 8c bc 13 99 f5 bc
       -0.03274427 0.023791552 -0.017206078 -0.029980218
0001c0 88 9e bd 3c a4 60 76 bd f0 6e 74 bc 4a 93 24 bd
       0.023146883 -0.060150757 -0.014919028 -0.04017953
0001d0 7e 9c 17 3d 0a d2 60 3d 03 1c 9c 3c f0 7a 68 3d
       0.037014477 0.05488781 0.019056326 0.056757867
0001e0 52 ff 9e 3d cc 92 f1 3c 16 39 af 3c 5e 56 97 bd
       0.07763542 0.029488944 0.021389525 -0.0738952
0001f0 c4 5a 44 bd 7b 65 8e 3d 23 77 87 3d 07 16 70 bd
       -0.047938123 0.069529496 0.066145204 -0.058614757
000200 2b 82 60 bc 37 ed df 3b b9 e0 8e 3d 8e ac 8e 3d
       -0.013702909 0.006833698 0.06976456 0.06966506
000210 10 b0 17 bd bf d9 52 bc 5f a5 4e bc d8 8e 7a bc
       -0.03703314 -0.0128692975 -0.01261267 -0.015292846
000220 f7 0f 27 3d 64 9f 11 bd b5 5a da bd fa 94 c4 ba
       0.04078671 -0.035552397 -0.10661832 -0.0014998012
000230 4f 0e 2b bc 51 8d 49 bd 18 fd c5 3d 70 51 d4 3c
       -0.010440423 -0.049207035 0.096674144 0.025917739
000240 db 9b 91 3d 3f 76 40 3d 83 e3 94 3d 91 78 0c 3c
       0.07109805 0.04698777 0.07269957 0.008573667
000250 84 0a 1c 3b cc 89 50 3d fb 7d 2a 3c 4a b1 98 3c
       0.0023809979 0.050912663 0.010406013 0.018639226
000260 fe 88 99 3d 5b dc 5f bd d1 a8 8d 3d 71 95 a8 3c
       0.07496832 -0.054653507 0.06916965 0.020579072
000270 6a 84 66 3d 47 12 5c 3d e7 1c 05 3c b7 76 3c 3c
       0.056278624 0.053728368 0.008124567 0.011502913
000280 c1 e1 21 bc ee 90 a0 3d 73 80 c5 3d c7 bf f2 3d
       -0.009880484 0.07840143 0.0964364 0.11852985
000290 b3 a3 aa 3d 55 c1 27 bd fc d5 39 3c c8 b9 f9 bc
       0.083320044 -0.04095586 0.011342522 -0.030484095
0002a0 b9 bb 33 bd 45 4f 51 bc 7e 0e 93 3c 1d 21 2d bd
       -0.0438802 -0.012775247 0.017951246 -0.042267907
0002b0 6e bb 05 bc 26 bf 4c bd c0 7e b3 3d c6 fb ff bc
       -0.0081623625 -0.04998698 0.0876441 -0.031247985
0002c0 97 fb 41 3b 15 5f 68 3d 6f 83 80 bd 26 38 75 bd
       0.0029599422 0.056731302 -0.06275069 -0.059868
0002d0 07 c6 0d bd 7c 5a 40 bb f3 fe 18 3d a9 d8 23 3d
       -0.03461268 -0.0029350808 0.037352514 0.040001545
0002e0 98 68 ca 3c 52 13 8f 3c c3 cb b9 bb 14 f1 1d bd
       0.024708077 0.017465267 -0.0056700422 -0.03855999
0002f0 5c f5 4d bd 40 b2 5a bd 21 8c 04 3d 62 23 22 bd
       -0.05028282 -0.05339265 0.0323602 -0.039584525
000300 6a b8 b5 3d 08 ac 3d 3d 05 63 15 bc d5 71 54 3d
       0.08873065 0.04630664 -0.009117846 0.05186637
000310 e4 0d 4f bd 3e 06 53 bc 9b 06 6b 3d 56 b5 7c bc
       -0.050550357 -0.012879906 0.057379346 -0.015424093
000320 d9 40 1f bc 99 a7 e3 3c 25 ac 45 3d 97 20 a1 3d
       -0.009720051 0.027789878 0.048259873 0.07867544
000330 d4 62 81 bc 30 31 74 bd 63 60 3f bd ba 93 51 3c
       -0.015794195 -0.05961722 -0.04672278 0.012791568
000340 cd 86 52 3d 87 f9 fa bb 7e 86 be 3d 32 67 49 3d
       0.051398087 -0.0076591405 0.09302996 0.04917068
000350 71 02 81 bd 84 02 b9 bd ed 39 d3 bd cd 28 fe bd
       -0.06299294 -0.09033683 -0.10313783 -0.12410126
000360 c0 d8 ad bc 53 6c 1b 3d 93 05 82 3d 6c 8e 26 3d
       -0.021221519 0.037945103 0.063487194 0.040663168
000370 fd 14 9f 3d 82 55 a0 3d f2 7a 94 3d 39 fe 82 bd
       0.07767675 0.07828809 0.072500125 -0.063961454
000380 3f 4a d6 bd cb 4d 32 3d 6b 7a 8f bc 8e 43 2a 3d
       -0.1046338 0.04353122 -0.017514428 0.04156833
000390 c1 32 b0 3d 3b f1 a2 3d 6d 25 97 3d 27 0d 6a bc
       0.086034305 0.07956167 0.07380185 -0.014285362
0003a0 f1 aa b8 bc 6d 59 5c 3d f4 33 48 bd 6f 38 0a bd
       -0.022542449 0.05379622 -0.04887767 -0.033745226
0003b0 62 5d 11 3c c0 7a d2 3c dc 01 49 bd f8 1f bd bb
       0.008872362 0.025693297 -0.04907404 -0.0057716332
0003c0 3b 0a 83 3d 3f 04 23 3d 16 56 39 bc 32 72 92 3d
       0.06398436 0.03979897 -0.011312028 0.07150687
0003d0 22 c2 da bc 23 f6 af 3b 9f 3f 9d bd 12 db 44 bd
       -0.026703898 0.005369918 -0.076781504 -0.048060484
0003e0 90 e8 d8 3c f2 18 8b 3d 6b ea a1 bd 44 0b 91 bd
       0.026478082 0.06791867 -0.0790604 -0.07082227
0003f0 7f ad 87 3d 2f fd a1 3d 75 57 5c bd ea e8 6c 3d
       0.06624889 0.07909619 -0.053794343 0.05783931

conv_time_spat.conv_time.bias f4 [40]
000000 1d dd 41 3d 8c c4 9e bc 28 1a da 3c d0 bd 1e bc
       0.04733001 -0.01938083 0.0266238 -0.0096888095
000010 a2 90 e5 bc 8d 9f 08 bd 4a b7 68 bc cb fb 37 bc
       -0.028023068 -0.033355284 -0.014203856 -0.011229466
000020 e9 22 1d 3d c4 72 c9 3b 80 bc f1 3c af 9f 14 bc
       0.03836337 0.0061477143 0.02950883 -0.009071275
000030 a6 80 df bc f0 7b 5a ba 75 cd 7c 3b 3c d9 e0 bc
       -0.027283024 -0.0008334508 0.003857461 -0.027447335
000040 3a ff 12 3d 90 67 35 3c 97 1b f6 bc 36 07 ea bc
       0.035887934 0.0110720545 -0.030042453 -0.028567892
000050 a0 82 85 3b f9 aa d5 3b 8a 2b d4 3c 45 ae 8d bc
       0.0040744096 0.0065206257 0.025899667 -0.017295012
000060 12 b8 03 3c 63 c1 92 3c 2b a5 02 3d 0c 76 4b 3c
       0.008039491 0.01791448 0.031895798 0.012418281
000070 79 95 a3 bb 16 d3 09 bc 4b 4b 5d bc 89 32 b6 3c
       -0.0049921838 -0.008412143 -0.013506721 0.022240894
000080 f4 ca d9 3b 95 b8 7a bc 5b 7d f5 3c b9 2c b7 3b
       0.0066465084 -0.015302797 0.029967 0.005590048
000090 c0 d3 da bc 44 87 13 bd 10 41 5d 3c 7f a5 d4 3c
       -0.026712298 -0.03601767 0.013504282 0.025957821

conv_time_spat.conv_spat.weight f4 [40, 40, 1, 22]
000000 1a 7f 35 3d 6a ad b5 3b 9d 40 52 3d c5 df cc 3c
       0.044310667 0.005544354 0.05133115 0.025009045
000010 61 75 21 3d 25 d7 9a 3d 2f b7 0b 3d 24 4b db bc
       0.039418582 0.07560567 0.034110244 -0.026769228
000020 88 fd 2a 3a aa 3d 8f bd 48 d1 00 bd 1b 21 95 bc
       0.00065227645 -0.06994183 -0.031449586 -0.018204262
000030 27 83 16 3d 2d be 15 3d e2 46 ba b9 82 29 7b bc
       0.03674617 0.03655832 -0.00035529496 -0.01532972
000040 92 08 58 3d 42 00 98 3d 64 96 b6 bc 2d 03 fd bc
       0.05274255 0.07421924 -0.022288509 -0.030885303
000050 03 ea 80 3c 21 89 6a b7 dd 7a 8a bc 4a 4d da 3c
       0.015736585 -1.3979415e-05 -0.016904289 0.026648182
000060 14 df 8d bd ea bd d2 bb 1d 70 98 3b c6 45 58 3c
       -0.069273144 -0.006431331 0.004652037 0.013200229
000070 88 49 0e bd 34 b1 e8 3c 61 9a 11 bc d4 ff 0d 3d
       -0.034738094 0.02840481 -0.008886904 0.034667805
000080 cf 8a e2 3a 86 0e cb bc 44 f8 52 3d b5 52 89 3d
       0.00172838 -0.024787199 0.051506296 0.06705228
000090 b0 c7 76 3d 29 34 51 bd 8f 51 ed bc 0b 07 4b bd
       0.06024903 -0.051075134 -0.028969554 -0.049567264
0000a0 16 1f 20 3d f2 45 83 bc d6 2d 88 3c f7 0e 12 bd
       0.039092146 -0.016024563 0.016623419 -0.035658803
0000b0 df 9c 87 bc 97 08 83 3d 59 db 80 3d 36 46 aa b8
       -0.016554294 0.06398123 0.06291837 -8.1193095e-05
0000c0 58 36 99 bc b0 0c 67 bc 9f 3c 3a bd 02 db e9 3c
       -0.018702671 -0.014102146 -0.04546797 0.028546814
0000d0 8f 02 15 bd b7 38 92 3c 9d 00 84 bc 46 5e 2a bd
       -0.036379393 0.01784931 -0.016113574 -0.041593812
0000e0 c9 0d ab bc 17 27 b4 3c 1f dc 9c bd ce 43 0b 3c
       -0.020880597 0.021991296 -0.07659172 0.008500053
0000f0 43 b9 e4 3c 01 e3 9a 3d f4 ab be bc e8 9c 18 3d
       0.02792037 0.07562829 -0.023275353 0.037259012
000100 ef 9c d0 3c 23 2a 26 3d f2 cb 12 3d 55 e6 c5 bd
       0.025465457 0.04056753 0.03583903 -0.09663073
000110 b4 de 99 36 44 2d 7e bd 33 e3 e0 38 07 e8 54 bc
       4.5856814e-06 -0.062054887 0.000107234715 -0.012994773
000120 07 30 8f 3d 90 b9 4c 3c 52 9c 0c bd cc e3 04 bd
       0.06991582 0.012495413 -0.034328766 -0.032443807
000130 0d c1 23 3d 5c 8b 70 3d 77 47 14 3d 5a e5 55 3c
       0.03997903 0.058726653 0.036200967 0.01305517
000140 31 c9 86 3d eb 67 f4 bc 7e 90 82 3d 19 d1 cb 3c
       0.06581343 -0.029834708 0.06375216 0.024879979
000150 d9 f8 f7 3c 0f 05 c0 ba e3 aa a4 3a e7 5a ce bb
       0.030270027 -0.0014649945 0.0012563135 -0.0062974575
000160 be 2f df 3c 67 be 17 3c 23 86 55 3c 29 f6 a0 bc
       0.027244445 0.009261704 0.013032469 -0.019648628
000170 a0 e9 a9 3c f8 36 a6 3c 92 b5 d8 3c c2 96 eb 3c
       0.020741284 0.020289883 0.026453767 0.02875841
000180 49 f3 d0 3c 0b af 82 3d 9e c2 83 3c 4c 10 87 3c
       0.025506632 0.06381043 0.016084012 0.016487263
000190 ee 81 a6 bd 9c 04 e8 bc 39 84 9c bc 38 ff f9 bb
       -0.08130251 -0.02832251 -0.019106017 -0.0076293014
0001a0 cc 15 0a bd 92 14 c5 bb c8 90 52 bd 1c aa 8c bd
       -0.033712193 -0.006014415 -0.051407605 -0.06868383
0001b0 ac 9e 65 bd 07 6d 0b bc b0 c2 78 3d 7b 20 91 3d
       -0.056059524 -0.008509881 0.060732543 0.07086273
0001c0 6c 4c be 3d c2 46 25 bb 82 95 36 3c 66 76 84 bd
       0.0929192 -0.0025219177 0.011144044 -0.06467895
0001d0 42 7f 99 3a c6 04 b9 3c b4 f3 87 3d cb f0 2b 3d
       0.0011710899 0.022585284 0.066382796 0.041977685
0001e0 96 42 f2 bc 16 2c c2 3b 14 c4 0b bd 54 89 26 bb
       -0.029572766 0.0059256656 -0.03412254 -0.0025411444
0001f0 ed d0 48 bd 9b 28 60 bc 7a 7e 97 bc 25 bb cb 3c
       -0.049027372 -0.013681556 -0.018492926 0.02486951
000200 23 9a 02 bd ea 78 9e bd b3 02 87 bd 3e 72 87 bd
       -0.031885277 -0.07737906 -0.06592312 -0.06613587
000210 d8 8d 8d bd 4f 94 91 bd f7 1c 31 3c fd 2c 91 3c
       -0.0691182 -0.07108366 0.010810128 0.017721647
000220 b0 40 ed 3c e5 69 8d 3d 23 7a d2 b9 b3 b5 17 3d
       0.02896151 0.069049634 -0.0004014532 0.037038516
000230 c2 7c 6d bd f1 5a b3 bb 81 ae 16 bc 27 75 f0 3c
       -0.057980306 -0.0054734875 -0.009196878 0.029352738
000240 42 e7 18 bd c1 68 6f 3d fb 3f e9 bc 8a c7 65 bd
       -0.03732992 0.05844951 -0.028472891 -0.0560985
000250 23 7f da 3c 8e 57 26 bd 6a 4a a6 3d 4b d9 1c bd
       0.026671952 -0.040610842 0.08119662 -0.038293164
000260 a8 ea 1e bd 34 77 23 bc 47 93 b9 3a 78 50 4b 3d
       -0.038798004 -0.009977151 0.0014158272 0.049637288
000270 2b f1 d1 ba c2 10 16 3b 32 e9 00 bd 73 40 1f bd
       -0.0016017308 0.0022898172 -0.031472392 -0.038879823
000280 e4 e8 1a 3d fb 55 2a bb 37 ac 5a 3d 1f af 1c bc
       0.037819758 -0.002599119 0.053386893 -0.0095632365
000290 a4 c3 80 bd 93 11 0e bd cb c3 8e bd 2e 94 af 3c
       -0.062873155 -0.03468473 -0.06970938 0.021432962
0002a0 c8 bf 5d 3d ea a9 4a bb 1b 32 5e bd 36 8b 91 bd
       0.054137975 -0.003092403 -0.054247003 -0.071066305
0002b0 2c 42 d1 bc 4e 80 33 bd fd 06 23 bd 5f 59 25 bd
       -0.025544249 -0.043823533 -0.039801586 -0.040368434
0002c0 4d 5b da bc c7 e4 6e 3d e2 1b b6 bc fb 56 db bb
       -0.026654864 0.058323648 -0.022230092 -0.0066937185
0002d0 e9 ab 12 3d 3d 4d fd bc bc 85 72 3b 85 08 2f 3d
       0.035808478 -0.03092062 0.0037005981 0.042732734
0002e0 6e 0f d3 ba 98 5e 6d 3d f9 08 c6 3c b3 13 f6 3c
       -0.0016102621 0.05795154 0.0241742 0.03003869
0002f0 e4 5c 36 3d 44 36 a9 3c e5 16 91 bd c8 18 e7 3b
       0.04452218 0.020655759 -0.07084445 0.0070525147
000300 cc bc 08 3d 03 d2 b7 3c 82 03 83 3c c7 9f a7 bb
       0.033383176 0.022439009 0.015992884 -0.0051154825
000310 f1 d4 82 bd 6e 7d b4 bd d2 a0 bd bc ca f7 a3 3c
       -0.063882716 -0.08812986 -0.023147974 0.020015616
000320 c9 3a 51 3c db b8 7f ba 1c a3 d0 3c 54 2a 8d bb
       0.012770363 -0.00097550236 0.025468402 -0.0043080244
000330 27 de 96 3c 94 6d e0 bc 91 61 42 3d b1 da 78 bc
       0.018416477 -0.027396 0.047456328 -0.015188859
000340 3d 92 0d 3c 39 a8 0d 3d 2c e9 d6 3c cb e7 3f 3d
       0.008640823 0.034584258 0.026234232 0.046851914
000350 a3 5e 13 3d f0 b7 9d bc b5 1b c1 3a fb 8f a2 3d
       0.035978924 -0.019252747 0.0014732989 0.07937618
000360 3b 78 6f bd 1c e4 a5 bd 42 47 59 3d 05 24 7b bd
       -0.05846427 -0.08100149 0.053046472 -0.061313648
000370 e9 a9 51 bd 5d fb 43 3d 9f 6f 88 3d 9c 48 41 3c
       -0.05118743 0.04784714 0.06661915 0.011797097
000380 ab 27 df 3c b1 2b 9d bd 76 96 96 bc be 7a df bb
       0.027240595 -0.07674349 -0.018382292 -0.006820052
000390 0f ba 4f 3d 9d 51 92 3c af ef 0f bd 62 7a a0 bd
       0.05071455 0.017861182 -0.03514069 -0.07835843
0003a0 8a d4 99 bc 39 d2 17 bd d6 bb dc bc c2 e1 49 bc
       -0.018778104 -0.03706572 -0.026945036 -0.012321891
0003b0 a3 1e 7d bc 56 dd 55 3c 69 ec 29 bc f7 12 86 bd
       -0.015449199 0.013053259 -0.010371306 -0.06546586
0003c0 79 40 fc bc 5c 19 b2 bd ad ab 12 3d ce 9b d9 3d
       -0.030792462 -0.08696243 0.035808254 0.106254205
0003d0 2d 43 a9 3a f6 6b fb bc 6c 6a 2e 3c f2 9a 93 bd
       0.0012913697 -0.030691128 0.01064549 -0.07207288
0003e0 84 11 84 bd 1c 1f bc bc ee 09 86 3d b1 d9 1c 3d
       -0.06448653 -0.022964053 0.06544863 0.038293544
0003f0 33 bb df 3b 8b 70 54 bd 24 0a e7 3b e4 ce b3 bc
       0.006827736 -0.05186514 0.0070507694 -0.02194924

bnorm.weight f4 [40]
000000 e9 46 86 3f 64 62 86 3f 54 a8 83 3f 8a 5b 87 3f
       1.049039 1.0498776 1.0285745 1.057481
000010 3b c7 85 3f f6 a7 83 3f d4 db 84 3f 9d 0d 84 3f
       1.0451425 1.0285633 1.0379586 1.0316654
000020 d9 1a 86 3f ad cf 83 3f 23 08 83 3f 3c 40 85 3f
       1.0476943 1.0297753 1.0236858 1.0410228
000030 ec 48 89 3f 1c 8c 84 3f 3d 86 86 3f 04 42 7e 3f
       1.0725379 1.0355258 1.0509716 0.9931948
000040 9b 53 84 3f 95 d8 85 3f a1 72 85 3f c3 f8 82 3f
       1.0338014 1.045672 1.0425607 1.0232166
000050 bc 25 89 3f f4 b8 82 3f b3 47 89 3f 55 07 86 3f
       1.0714641 1.0212693 1.0725006 1.0470988
000060 22 ae 83 3f 9c a3 84 3f f9 ff 85 3f 7d d0 86 3f
       1.0287516 1.036243 1.0468742 1.0532376
000070 dd 17 89 3f 4f 1e 85 3f c5 04 83 3f c0 7e 87 3f
       1.0710407 1.0399874 1.023583 1.0585556
000080 be 4f 85 3f 86 47 83 3f 0b 4b 86 3f a1 69 85 3f
       1.041496 1.0256202 1.0491651 1.042286
000090 07 37 85 3f 59 58 86 3f 41 f8 83 3f 30 7b 85 3f
       1.0407418 1.0495712 1.0310136 1.0428219

bnorm.bias f4 [40]
000000 3d a1 22 3d fe f3 b2 3d 6e c8 01 3d 47 ca ab 3b
       0.03970455 0.08737944 0.031685285 0.005242619
000010 1e f4 df 3d 6a 0f 49 bc 6c 40 da bd 5f e4 da bd
       0.109352335 -0.012271741 -0.10656819 -0.106880896
000020 75 97 b6 3d a3 eb 2e 3d 93 cf e4 3d ef ad f2 bd
       0.08915607 0.04270519 0.11172404 -0.118495815
000030 62 d1 b9 3d f7 9e d2 3d 4c 87 be bd ad b9 13 3b
       0.0907314 0.102842264 -0.093031496 0.0022541091
000040 f0 bc 70 3d c3 af 0a 3e 44 56 08 3d ca 4c cb 3d
       0.058773935 0.1354361 0.033285394 0.09926756
000050 3e 72 32 3d 48 7a 95 3c 57 9e 91 3d dd c5 ed 3c
       0.04356598 0.018246785 0.07110279 0.029025013
000060 a1 93 9d bd 4a b7 e3 37 0b 43 d2 bd fa 7f e8 3c
       -0.076941736 2.714586e-05 -0.10266694 0.028381336
000070 3b 7c 4f bd 6e 73 04 3d 40 a5 c0 bd b2 dd 9d bd
       -0.050655585 0.032336645 -0.09406519 -0.07708301
000080 d6 52 6d 3c 4d 3f d8 bc 5d 22 f5 3d 2a 5b 1b 3e
       0.014485082 -0.026397372 0.11969445 0.15171495
000090 29 37 a9 bd 83 75 90 3d b3 8c 2a be c6 c8 a4 bd
       -0.08262474 0.070536636 -0.16655235 -0.08046107

bnorm.running_mean f4 [40]
000000 43 45 82 3d bd 87 e6 3c d5 f8 98 bd 1c c1 8f bd
       0.06360867 0.028140897 -0.07469336 -0.070192546
000010 d2 a3 10 3d 6e fb 90 3d 7a 25 c9 3b a2 87 ec bb
       0.03531248 0.070792064 0.0061385008 -0.007218317
000020 4f 7c 23 bc a2 96 29 bd 5f 6a 3b 3b 7c 3c ab 3d
       -0.009978368 -0.04140342 0.0028597338 0.08361146
000030 c2 b7 ce 3b 01 b3 6a bc 63 f0 8f 3d 89 1d 10 bd
       0.0063085267 -0.014324904 0.07028272 -0.035184417
000040 f8 91 27 3d 95 f4 08 3d c9 68 c6 3b 74 6c 68 3d
       0.04091069 0.033436377 0.006054972 0.056744054
000050 64 11 c1 bb 10 c3 d2 bb 63 d9 eb 3c b9 18 21 3d
       -0.0058919657 -0.0064319447 0.028790182 0.039330218
000060 03 f9 b3 bd 3b 63 e1 3b ed 42 e7 bb ff a0 bc 3d
       -0.087877296 0.0068782843 -0.0070575387 0.09210395
000070 27 ca 1a 3c 1d 6b 6e ba 33 59 fe bc a5 4a 83 3d
       0.009447611 -0.00090949406 -0.031048393 0.06410722
000080 d4 fb 51 bc b7 8d 32 bd 0d cc 65 bc 8c 70 08 3d
       -0.012816388 -0.04359218 -0.0140257 0.033310458
000090 62 c3 05 bc 6c 6b 50 bc ae da 62 3d ae d0 84 bd
       -0.008164259 -0.012720924 0.05538433 -0.06485115

bnorm.running_var f4 [40]
000000 cb 6d f8 3e 28 55 71 3e 70 b9 27 3f c1 a2 e3 3e
       0.48521265 0.23567641 0.6551733 0.4446011
000010 bd a1 85 3e cc f5 a2 3e 74 09 a1 3e 9e be 6c 3e
       0.2609996 0.31828153 0.31452525 0.2311959
000020 20 d7 28 3f 5a a9 d7 3e 33 60 92 3e ef 0a 7b 3e
       0.65953255 0.42121392 0.2858902 0.2451589
000030 67 5f 20 3e f0 c2 d1 3e 37 55 d0 3e 53 14 5b 3e
       0.15661393 0.40969038 0.40690014 0.21394472
000040 f2 01 a5 3e 07 7e 04 3e f7 cc b7 3e ff 4a bc 3e
       0.32228047 0.129387 0.35898563 0.36775967
000050 95 c6 6a 3e 34 d5 bc 3e ae b0 55 3e 7f 84 05 3f
       0.22927316 0.3688141 0.20868179 0.521553
000060 28 c4 da 3e 38 8a 11 3f 8f c4 c1 3e 6d c9 28 3f
       0.4272778 0.5685153 0.37845275 0.6593235
000070 c2 8e 60 3e 6d e9 36 3e 22 cf 79 3e ee b9 db 3e
       0.21929458 0.17862482 0.24395421 0.4291529
000080 e4 b8 c7 3e e0 b8 a0 3e 0f a5 a3 3e 3f c6 cb 3e
       0.39008248 0.31391048 0.31961867 0.39799687
000090 0f 11 d3 3e 1e 6d 9c 3e 28 11 a3 3e b0 04 76 3e
       0.41223952 0.30552 0.31849027 0.24025226

final_layer.conv_classifier.weight f4 [4, 40, 69, 1]
000000 c8 b7 40 bd 3b 9e 8d 3c aa dc 4b 3d b8 34 24 3d
       -0.047050267 0.017287364 0.04977099 0.04008934
000010 09 cf 98 3c c1 63 be 3c 02 07 36 3d ad 19 4f 3d
       0.01865341 0.023240926 0.044440277 0.050561596
000020 8f 9b 05 3d 9f 1c 1a b9 e7 fe 7a bd 28 c9 1a bd
       0.032619055 -0.00014697247 -0.06127825 -0.037789494
000030 b4 54 51 bd 6c b1 86 3c 6c a6 0e bd 47 06 b1 bc
       -0.05110617 0.016442023 -0.03482668 -0.021609439
000040 14 ca 15 bc 2b b9 26 3c c5 1b 4c bd 46 3e cb 3c
       -0.009142417 0.010175983 -0.04983117 0.024809968
000050 fb 3d 0c bd 78 6f c7 3b 4d 6f 4b bc 19 0c 98 bc
       -0.034238797 0.006086286 -0.012416673 -0.018560456
000060 db fc 55 bc 6c ac 32 bc 28 cf 79 3c 6f ba 53 3c
       -0.013060774 -0.010905366 0.015247144 0.012922867
000070 4c 35 dc bc fb 33 21 bd af 31 1f bc d9 d9 04 bd
       -0.026880883 -0.039356213 -0.009716435 -0.03243432
000080 d0 36 d8 bb 1d 56 a4 3c dc 87 f2 39 8d ca c2 bb
       -0.006598331 0.020060593 0.0004625906 -0.005944556
000090 87 f2 5c 3d 88 2a fd 3b 2e 0a 67 bd 33 69 c4 3a
       0.05394223 0.0077260174 -0.056406192 0.0014984965
0000a0 7c 91 73 bd f6 25 4c bc e2 e5 7a bb 66 d4 b9 3c
       -0.059464917 -0.0124602225 -0.0038283993 0.022684287
0000b0 86 18 9a bc de d8 21 bd 98 44 24 bd ab 12 2f bd
       -0.018810522 -0.03951346 -0.04010448 -0.042742413
0000c0 09 96 6a 3a d9 cd 25 bc d3 d7 15 3a 2c 29 b5 bc
       0.00089487486 -0.010119879 0.0005716059 -0.022114359
0000d0 3e 3c 27 bc 93 ad f4 bc 22 d6 27 3d b5 db 99 3c
       -0.010207234 -0.029867923 0.040975697 0.018781522
0000e0 aa 50 0f bc 0e 06 51 3c b5 90 17 3c 13 55 03 3d
       -0.008747259 0.012757791 0.009250809 0.032063555
0000f0 af 32 c7 3c 6e 8d 0c 3d df 59 a7 3d c4 6a 5a 3d
       0.02431616 0.034314565 0.081714384 0.053324476
000100 2d 03 5d bc 37 5a cd bc 1d 24 bf bc 49 af f5 ba
       -0.013489527 -0.025067432 -0.02333265 -0.0018744256
000110 39 98 a5 3c 78 4e 13 bd c9 0a 03 3a 1f a4 03 3c
       0.020214187 -0.035963506 0.00049988605 0.008034735
000120 35 d5 d5 3b 6b 73 d4 3b 42 4d 45 bd c7 64 d5 3b
       0.0065256604 0.0064834855 -0.048169382 0.0065122577
000130 71 8b 44 3d d9 7d 44 ba 97 d8 96 3c d9 98 82 3c
       0.047984544 -0.00074955594 0.018413825 0.015942024
000140 6e e0 87 bc ef ed 05 bc 43 1d 18 bd 36 1e ec 3c
       -0.016586509 -0.008174404 -0.03713728 0.028823
000150 cd e7 05 bd 70 99 ff bc 07 3f bf bc 74 8e 7d bc
       -0.032691766 -0.031201094 -0.023345483 -0.015475858
000160 f3 ad be bc ef dc 1d bd a8 02 63 bb 7c 41 ed bc
       -0.023276305 -0.038540777 -0.0034639034 -0.02896189
000170 7d 66 7d bc 78 5c 03 3a 39 8b 09 bd 41 31 c1 3c
       -0.01546633 0.00050110323 -0.03358004 0.023583056
000180 0b db 89 bc 84 f8 22 3d 80 9d c8 3d 3e 53 3b 3d
       -0.01682808 0.039787784 0.09795666 0.045733683
000190 82 07 d1 3b 84 64 9a 3c 81 50 87 3b a4 c5 6e bc
       0.006379069 0.018846758 0.00412947 -0.014573488
0001a0 a6 dc af bc d5 16 e8 3b 1c 75 ec bb a7 cb 76 bc
       -0.021467518 0.0070828 -0.007216109 -0.015063203
0001b0 c2 e3 89 bd 9d 7c 57 bd 64 07 21 bd 73 e6 2d bd
       -0.067328945 -0.052609075 -0.03931369 -0.0424561
0001c0 bc 24 70 3a 24 26 1d 3c 09 5c 0f bc 54 b3 27 3c
       0.0009160747 0.009591613 -0.00874997 0.010235626
0001d0 55 f7 ac bc bb cf c6 3b 2e a7 12 3d a9 26 48 bc
       -0.02111403 0.006067244 0.035803966 -0.012216249
0001e0 b0 0d a0 bc 5c 6b 8a bc 3b 60 ea 3c d3 9a 8e 3c
       -0.019537777 -0.016896896 0.02861034 0.01740781
0001f0 8c a7 60 3d aa 26 a8 3d 43 b5 7c 3d 3a 4b 7a 3c
       0.054847285 0.082104996 0.061696302 0.0152767245
000200 89 d4 d1 bc fa ab 8e 3b 00 63 a1 bc 88 92 50 bc
       -0.02561404 0.0043539973 -0.019700527 -0.012730248
000210 c8 3e c7 bb 78 44 e7 3c 22 19 8a 3b 14 ac 4f 3c
       -0.006080482 0.02823089 0.004214422 0.012675304
000220 d4 95 1d 3d f4 e9 59 3d 14 05 34 bd 94 67 a8 bc
       0.038472965 0.05320163 -0.043950155 -0.020557202
000230 f5 67 8e 3b b5 96 0c bd 1a 77 6b bc 35 43 70 bc
       0.0043458887 -0.034323413 -0.014371658 -0.014664461
000240 fe d1 d4 3c b0 21 95 3b 73 da ee bb f1 bc 55 bc
       0.025979038 0.004551135 -0.007289225 -0.013045535
000250 3d e2 7f ba a4 ef a6 bb 3e cc 24 3c e3 19 59 bc
       -0.000976119 -0.0050944854 0.010058461 -0.013250801
000260 48 0e 3a 3d 8a dc 33 3c ef 0b dc 3c e6 89 5e bc
       0.045423776 0.010977874 0.02686116 -0.013582682
000270 1f 2f 7b 3c 3c 99 29 bb eb 4f d6 3c 2e fb 71 3b
       0.015331059 -0.0025878688 0.026161155 0.0036923396
000280 df ac 40 3b ab 92 a6 3c 27 13 33 3c d0 33 b8 3c
       0.0029399914 0.020333609 0.010929859 0.022485644
000290 b2 b3 2a 3c 5f 15 f7 3b 38 a4 66 bc ea ac 24 bb
       0.010418819 0.0075403894 -0.014077239 -0.002512748
0002a0 48 27 28 3d 91 6a 01 3d 51 c0 b1 3c d9 95 76 3c
       0.041053087 0.03159577 0.021698149 0.015050375
0002b0 2f 7d 3b bd ab 71 88 bc 0c 41 11 bd f5 ae 80 3b
       -0.04577368 -0.016655764 -0.035462424 0.0039271065
0002c0 f4 90 1c 3d 31 2c 79 bc e5 50 bd 3b c6 60 8d 3c
       0.038224176 -0.01520829 0.0057774656 0.01725806
0002d0 b6 45 10 bc d2 a2 28 3c c3 5f 80 bd 33 d3 27 bd
       -0.008805683 0.010292726 -0.06268265 -0.0409729
0002e0 1d 91 c5 3b 38 54 f9 3c 18 6a 73 3c 1f ec 59 3d
       0.0060292617 0.030435666 0.014856838 0.0532037
0002f0 43 5d f0 bc 24 2d a3 bc 5f d6 0a bd ce e7 ff 3c
       -0.029341346 -0.019918986 -0.033895846 0.031238463
000300 c4 1a 9c bc 63 b9 d7 bc 8e 6f 0e bd cd 24 1f bc
       -0.019055732 -0.026333516 -0.034774356 -0.009713364
000310 ad 4c 78 3d 5e a8 31 3d e1 fc 1b 3d 57 5e f4 bb
       0.06062 0.043373458 0.03808296 -0.0074575352
000320 66 77 23 3d 03 49 81 3c 42 57 af 3c 85 97 07 3d
       0.03990879 0.015781885 0.021403912 0.033103485
000330 b3 51 08 3d ad a8 65 3b 90 18 18 3d 1f af d2 3c
       0.03328104 0.0035043166 0.0371328 0.02571827
000340 6e 7f 67 3d 0b 9e cf 3b 9d 6d 26 3c da 94 50 bc
       0.05651801 0.006335979 0.01015797 -0.0127308015
000350 0e 61 ec 3c d2 e7 0f 3d 0f d1 b6 bc 34 9d e9 bc
       0.028854873 0.03513319 -0.022316484 -0.028517343
000360 de 76 16 bd 38 28 f6 bc dc be 8d bc be c5 ce ba
       -0.036734454 -0.030048475 -0.017302923 -0.0015775484
000370 be f6 d6 bc d9 b3 51 3d 95 67 37 3d 36 2e 14 3c
       -0.026240703 0.051196907 0.044776518 0.009044221
000380 7b f9 c7 38 10 21 33 3c e7 c1 90 bc 20 fe 75 3c
       9.535529e-05 0.010933176 -0.017670585 0.015014201
000390 ee 04 b2 bc 00 fc 22 3c 71 66 fb bc 1c e9 03 3d
       -0.021730866 0.009947777 -0.030688496 0.032204732
0003a0 5f b3 0a 3d 81 2a 9c 3c b9 79 b3 3c b8 e1 60 3d
       0.033862468 0.019063236 0.021908628 0.054902762
0003b0 d9 f1 31 3d 88 50 ae 3c c1 a3 44 3d 29 8b 77 3d
       0.043443535 0.021278635 0.04800773 0.060435448
0003c0 d0 ae 24 3d 48 bd 75 3d be 7b 75 3d dd b4 32 b9
       0.040205777 0.059994966 0.059932463 -0.0001704278
0003d0 a4 96 02 bd 89 24 20 bd 12 8b f8 bc b7 2c a4 bc
       -0.031881943 -0.039097343 -0.030339751 -0.020040853
0003e0 74 8c f0 bc 85 38 54 3d f3 87 e8 3c 8a 2c 66 3c
       -0.029363848 0.051811714 0.028385138 0.014048705
0003f0 7b 72 d0 3c a7 6c a7 3b 72 24 dc bb 04 4f c0 3c
       0.025445214 0.005109388 -0.006718212 0.023475178

final_layer.conv_classifier.bias f4 [4]
000000 2d 9b 14 3d a8 99 e5 bb 2b 0a 46 bd b3 93 a1 3c
       0.0362808 -0.0070068426 -0.04834954 0.019723749
