result_eegnetecasca_cv5/fold_0/best_model_fold0.pth (torch, 24202 bytes, 21 tensors)

conv_time.weight f4 [8, 1, 1, 64]
00000000: e6db de3d da80 893d c87e bdbd 2ed6 003d
00000010: a3e0 c7bd ca3e eebc 0933 c4bd 4b5f f23c
00000020: d462 3f3d 4e6e 2abe ec75 893c 4245 4ebd
00000030: 2e53 4e3d 0354 c13c 030e ce3d 2524 c23c
00000040: c10c bc3d 8213 f1bc e15f 07be 59ff 3ebd
00000050: be76 c3bd 7eee 253c 8305 b13c 46a1 1d3e
00000060: c36d 54bd 7764 97bd a976 f9bd 77ae 45be
00000070: de97 b2bd f3eb 23be 9d77 fc3d 04f8 57bd
00000080: 65de 093e 61b2 f63c b220 8bbd 9429 e13c
00000090: 0e70 46bc 59b1 d43d bc4c 4a3d 23d1 21bc
000000a0: 203a 213c fe22 febd 218f b6bd 0daf cabc
000000b0: c790 68bc aded b1bd c374 7c3d a4f6 973c
000000c0: 3ba0 313d 7603 d7bd 781f 18be fa53 72bd
000000d0: 7498 a7bd 2061 fd3d e4bc 853d 0138 8c3d
000000e0: 8415 f03c 2281 0dbd 4aa5 6d3d c476 dabd
000000f0: a2a1 443b 3649 94bd d9bc 253d 9b4a a5bd
00000100: 3bce ccbd 2191 85bd e7d4 143e 86d7 2d3d
00000110: 1ee9 8d3d 973c 283d 8df0 2b3e 0c2c 9b3d
00000120: 9194 223e c4c0 fdbc 6a5d 38bd 3c00 6fbd
00000130: 25f0 04be cdde c5bd 77ea 1ebe 371d a7bd
00000140: 28a7 2ebe 595a e8bd 38ab 963d f03c 07bd
00000150: ec62 a23d 7fd6 40bc 7b5d f13d 10bf 87bc
00000160: 60ef 263c fc04 943d 4417 7e3c da30 9bbd
00000170: 429c 8e3c f3fa 473d 0e75 b7bd fc3b 63bd
00000180: 03c7 df3d 7b22 41bd 486d 44bd ba5a f3bd
00000190: 2d89 aebd 98ac cbbc 6552 eebd 8da9 50be
000001a0: 4ade a3bd 180d c3bd 00ae 52bd 068b 4f3c
000001b0: 9b4c 11bd cea6 13bd 5bfe 0b3e 9975 383d
000001c0: 45f5 aa3d 3c16 4bbd dd85 cabc ee25 21bc
000001d0: 9ff0 b43c 9bd8 f7bd ae82 a2bd 9ff3 dabd
000001e0: 4572 30bd 3c4a bdbd 8197 3fbd cc72 b2bd
000001f0: 7760 4cbd 389c 9cbc 7b58 11bc c802 eabd
00000200: 5ba4 c13d 7c08 bbbc ed2e 053e 13f9 c43d
00000210: 06e1 a4bc 3885 313e f181 683d 555b 1d3d
00000220: f16d e3bc 02a0 9dbd e256 fc3c ee5c 93bd
00000230: 0df6 58bc 49a9 04be 7ece e23d b89e 82bc
00000240: 5eb5 913d c3c6 cb3d c15b b93d 0a40 993d
00000250: 4180 543d 8524 27be d61d 11bd 5aeb e0bd
00000260: d439 86bd 0668 06be 324e b93d d2eb 8dbd
00000270: ab95 f03d 2a9b ee3d aa18 e33d 3b5c 6abc
00000280: 2ee2 053e f0ed de3c ae5e 2f3b 3b08 07be
00000290: 50fb 123c e4e0 87bd 6d64 c1bd b1f2 c33d
000002a0: df4c 8f3d e7bb a03c 8ac0 1e3d d31c 9b3d
000002b0: 4410 e83d fad5 76bc bf1d 90bd a004 5bbd
000002c0: 1f59 ebbd f43b e7ba 17ec 1d3d adfc 1bbe
000002d0: 60ce 8a3c 89ff a43d 111d 543d a413 c6bc
000002e0: 01b9 6d3d 1a0d 2c3d b39f b83c f9d0 1fbd
000002f0: 29fe 5dbd 4e83 ccbc 9285 87bd bef2 64bd
00000300: 157c 853d 68bf 833d 61e2 81bd b07b a5bd
00000310: ddbb 34bd 1742 19bd fa33 3c3c a0bc 8c3c
00000320: ff20 0dbe 3daf c0bd 390f 143d 7506 68bc
00000330: 6ed2 3dbd 5759 b4bd 2a9b 96bd ef6c dabd
00000340: 4205 4fbd a985 633c c655 283d af83 a23c
00000350: a328 0ebe 2e90 dcbd 8c70 87bd 190b 603d
00000360: d936 45bd 8945 b2bd 7efe 083c 7a00 92bd
00000370: d470 c2bd a871 913d e781 9abd f6f9 5dbd
00000380: df19 21be abcf 0e3d 8bd0 3e3d 62cc bc3b
00000390: fc05 ecbd 00c0 1dbe 0279 1dbe 32ca 06bb
000003a0: 1db0 8cbd 0f88 4ebd a5e4 c3bd 2e8e e6bd
000003b0: 7cd9 d9bd bc3b 19be b56b 03be 5dbc 03be
000003c0: d476 9d3c ade1 dbbd d57d b1bd 872b 07be
000003d0: 1ebf 9cbd d299 08be 5b80 0bbe 5027 0dbd
000003e0: 66e0 f2bd 3886 5cbb 7370 bbbd 5a07 dfbd
000003f0: 54b9 87bc 2b62 33bd 81a4 0ebd acf6 0dbe
0.10881786 0.067140296 -0.09252697 0.031454258 -0.09759643 -0.029082675 -0.09580047 0.029586455
0.04672511 -0.1664364 0.016779862 -0.05035902 0.050372295 0.02359963 0.10061266 0.023698876
0.0918212 -0.029428247 -0.13220169 -0.046630237 -0.09544133 0.010127662 0.021609074 0.15393552
-0.05186249 -0.07392209 -0.12180836 -0.19304834 -0.087203726 -0.16007976 0.12327502 -0.05272676
0.13463743 0.030114355 -0.067933455 0.027485646 -0.012111677 0.10385389 0.049389586 -0.009876522
0.009840518 -0.12409018 -0.089140184 -0.024741674 -0.014194674 -0.08687911 0.06163479 0.018550225
0.0433657 -0.10498707 -0.14855754 -0.059162118 -0.08183375 0.12372041 0.06530169 0.068466194
0.029307134 -0.03454698 0.05801896 -0.10667184 0.0030003567 -0.072405264 0.040463302 -0.080708705
-0.10000273 -0.06521822 0.14534341 0.042441867 0.06929229 0.041073408 0.16790982 0.07576761
0.15876986 -0.030975707 -0.04501096 -0.058349833 -0.12982233 -0.096616365 -0.15519129 -0.08159869
-0.17055953 -0.113453574 0.07356876 -0.0330171 0.07929024 -0.01176989 0.11785408 -0.016570598
0.010188907 0.07227513 0.015508477 -0.07577677 0.017408494 0.04882331 -0.08957873 -0.055477127
0.1092663 -0.047152024 -0.04795578 -0.11882539 -0.08522258 -0.024862573 -0.11636809 -0.20377178
-0.08001383 -0.09523982 -0.05143547 0.012667423 -0.035473447 -0.03604775 0.13671248 0.045034025
0.08347563 -0.04958175 -0.024722034 -0.009835703 0.022087393 -0.12101861 -0.079350814 -0.10690998
-0.043077726 -0.09242675 -0.046775345 -0.08713302 -0.049896684 -0.01911746 -0.008871193 -0.11426312
0.094551764 -0.022831194 0.13006182 0.0961782 -0.02012683 0.17335975 0.056764547 0.03841718
-0.027762385 -0.07696535 0.030803148 -0.07195459 -0.013242257 -0.12955202 0.110745415 -0.015944824
0.07114671 0.0995002 0.09050704 0.074829176 0.051880125 -0.16322525 -0.035428844 -0.1098239
-0.065539986 -0.1312562 0.09048118 -0.06929745 0.11747297 0.11650689 0.11088689 -0.014304216
0.13074562 0.027213067 0.0026759314 -0.13186733 0.00897105 -0.06634691 -0.09442983 0.09567774
0.06997084 0.019620849 0.03875784 0.07573857 0.113312274 -0.015065664 -0.070369236 -0.053471208
-0.11491608 -0.0017641769 0.03855523 -0.15233107 0.01694411 0.08056552 0.051785532 -0.024179287
0.05803776 0.042004682 0.022537088 -0.03901765 -0.054197464 -0.024964955 -0.066172734 -0.05589556
0.065178074 0.06432992 -0.063420065 -0.08080232 -0.044124473 -0.037416544 0.011487002 0.017179787
-0.13782118 -0.09408424 0.03614733 -0.014161696 -0.04634326 -0.08806103 -0.07353814 -0.10665309
-0.050542124 0.0138868475 0.041097425 0.019838182 -0.13882689 -0.107696876 -0.066132635 0.054698084
-0.04814801 -0.08704669 0.008361457 -0.07128997 -0.094941765 0.07101756 -0.07544308 -0.05419346
-0.15732525 0.034866016 0.0465856 0.005761669 -0.11524579 -0.15405273 -0.15378192 -0.0020567295
-0.068695284 -0.050422724 -0.09565095 -0.112575874 -0.10637185 -0.14964193 -0.12834056 -0.12864824
0.0192217 -0.107364036 -0.08666579 -0.13200198 -0.0765364 -0.13339928 -0.13623182 -0.03446132
-0.11859207 -0.0033649337 -0.09152307 -0.10890074 -0.016567864 -0.043794792 -0.034824852 -0.13863629

bn1.weight f4 [8]
00000000: 9fef 993f 42a1 543f 56d4 ad3f 0925 403f
00000010: cc9c be3e deef 0a3f f740 343f b5f1 9d3f
1.2026252 0.8305856 1.3580425 0.7505651 0.37229002 0.5427226 0.7041163 1.2339388

bn1.bias f4 [8]
00000000: 5bc7 51be 682d 61be e351 4ebe 9d92 64be
00000010: 58f5 8bbe f608 5ebe 61ae 57be b4f0 64be
-0.20486204 -0.21989977 -0.20148425 -0.22321554 -0.2733562 -0.21683106 -0.21062614 -0.22357446

bn1.running_mean f4 [8]
00000000: e725 91b9 2197 4e37 5144 9738 5572 12ba
00000010: 0d29 c0b9 60ad 34ba 3f93 13ba d816 243a
-0.00027684795 1.2313744e-05 7.212966e-05 -0.0005586495 -0.0003665168 -0.000689229 -0.00056295464 0.00062595075

bn1.running_var f4 [8]
00000000: 9964 d93e 9ef0 a23f 2a09 e93e 354b c13e
00000010: 6cf0 243f 5f73 933e a6b0 163f 0835 183f
0.42459562 1.272968 0.45514804 0.3775269 0.64429355 0.2879896 0.58863294 0.5945592

sca.fc1.weight f4 [5, 22]
00000000: c02d 7a3d e938 21be bf47 07be cb10 2fbe
00000010: b02b 313e bc92 4abe 1fdf 173e 8ecc 34bc
00000020: 5921 e5bc 2886 fc3d 3804 c7bc 558b f73d
00000030: 110a 0f3e d0fd 3bbe 8750 923d ed54 fc3c
00000040: 85a9 133d e6c2 bd3c 42c5 413d 68fd d7bd
00000050: dea5 11bd 169c 3e3e 89a2 053e 2d5b 5cbc
00000060: 9818 49be 9e42 9d3b d23f 11be 4e72 243e
00000070: d756 04be 3027 b4bc 28c2 45bd bc56 0e3d
00000080: 01f0 413e 3629 863c e44c f03d 6d43 1a3e
00000090: 6c74 243e d89f 8fbd 2a87 3bbd d47e c53d
000000a0: 2bea 6cbd 83fd c13d b3ef 32bd a1db 0dbe
000000b0: abb9 9ebd 655e fdbd c416 89bd e9e3 0e3d
000000c0: 8153 e8bc a69f be3c 9a71 16be 1c8c aabe
000000d0: ebfb 99be 13da 93be 6547 aebe b682 87be
000000e0: df8c afbe 266f b1be 078d 8bbe 9663 b6be
000000f0: 0dec 8ebe 34f4 93bd 8d06 783c 3d60 58be
00000100: 9d5c 4ebe 1a43 0cbd 2de9 b3bd 59b3 a5bd
00000110: 46a2 0c3e 6f2e 29be d7c6 153d 982c 453e
00000120: c80b 503d a467 913d 91ca dabd d4cd 013c
00000130: d833 ba3c de6d 843d 9b70 ba3d 8892 473e
00000140: bbec 0fbe 6a3b a43c be5d b2bd eed1 15be
00000150: 79a9 053b 92dd 26be 3546 203e b060 223d
00000160: 5a4d a4be 51cb dabd c6e8 cdbe e277 93be
00000170: 82a3 76be 4a33 bebe 2940 b2be e946 7cbe
00000180: 1201 61bd 6e83 37bc 2ae4 97bd 2d69 a5be
00000190: 4023 acbe 240b 2cbd b596 10be 76af 50be
000001a0: 4227 37be 3a08 bcbe b26a 92be a4c8 7cbc
000001b0: 6d44 86be e455 6bbe
0.061078787 -0.15744366 -0.13210963 -0.1709625 0.17301822 -0.19782537 0.14831208 -0.011035098
-0.027970003 0.12330276 -0.024294004 0.12087122 0.13968684 -0.1835854 0.071442656 0.030802215
0.03605034 0.023164224 0.04730726 -0.1054638 -0.035558574 0.1861423 0.13050283 -0.013449472
-0.19638288 0.004799201 -0.14184502 0.16059229 -0.12923752 -0.021991342 -0.048280865 0.034750685
0.1893921 0.016377073 0.11733416 0.15064783 0.16060036 -0.0701291 -0.0457832 0.09643331
-0.057840507 0.09472182 -0.043685626 -0.13853313 -0.07750257 -0.1237152 -0.06693795 0.03488532
-0.02836013 0.023269486 -0.14691773 -0.3331002 -0.3007501 -0.28877315 -0.34038845 -0.26466912
-0.34287164 -0.34655112 -0.27256033 -0.35622853 -0.27914467 -0.072243124 0.015138281 -0.21130462
-0.20152517 -0.03424368 -0.08784709 -0.080908485 0.13733777 -0.1652162 0.03656658 0.19255292
0.050792485 0.07099846 -0.10683168 0.007922608 0.0227298 0.06466268 0.09103509 0.19489491
-0.1405515 0.020047862 -0.08709286 -0.14630863 0.0020395203 -0.1629546 0.15651782 0.03964299
-0.32090265 -0.10683311 -0.40216655 -0.288024 -0.24085811 -0.37148505 -0.34814575 -0.24636425
-0.05493266 -0.011200769 -0.07416566 -0.32306805 -0.33620644 -0.042002812 -0.1411999 -0.20379433
-0.1788607 -0.36725026 -0.28597027 -0.015428696 -0.2622408 -0.22981983

sca.fc2.weight f4 [22, 5]
00000000: 17e6 b5be 7cfd 7cbe f2aa b0bd 9aaf 81be
00000010: 44ce 0abe 49a6 323e 5d87 d2be 214d 6b3d
00000020: 9a48 94be 4f39 8abe aa44 263e 256b ac3e
00000030: 0425 71be 977f 40be 701b f7be 3566 60be
00000040: 388c bbbe 396e 56be d4ba aa3d 9ab6 03bf
00000050: 74f8 bc3e f24a 893e b881 b7be dbeb 4abe
00000060: 6771 363e c3c7 b7bd 8120 1dbd 199e 9abe
00000070: 7a66 ae3e 3ba9 b3be 04ae b03e 4921 dd3c
00000080: f5eb aa3d 6e6e a63e 8702 c8bd 9932 66be
00000090: 0dc4 87bd a369 d53e f23d a1be 18ec 3c3e
000000a0: dd8f cfbe 4d5e 6d3e 6dbf 5f3e 7a49 853c
000000b0: 9d7b 7e3e cf54 173b 9266 783e 2962 b4be
000000c0: b5ba 9cbd aec0 2c3e 3a41 d73e ba0d 613e
000000d0: ee3b 9fbe f9ef a93e 0cf1 a9bd f933 adbd
000000e0: c0d4 c7be c7d6 f8bd d03a 993e 80a8 c53c
000000f0: d0fb 7fbe 2550 fa3d a4f3 9dbe 2796 c03e
00000100: c576 07bf aeb0 12be 0be6 d3be 96ed 5fbd
00000110: 2138 013e d327 073f 4107 b43d b045 d73e
00000120: 21f2 fbbd aed3 753e cfef 273e 3ee0 ac3e
00000130: b266 73be ef6f 043f 86f1 8b3e 791e 84bd
00000140: 7cf4 53be 796d b4be 1251 7f3d 64e9 b2be
00000150: ab80 0a3e e858 193e 6039 c2be 9a76 863e
00000160: 78ae 3fbd 7279 b63e d153 853e 2271 d5be
00000170: dd58 003f 2a0e bc3e 8b2e 973e 8d87 c7be
00000180: b848 18be 0b28 5bbe b8f9 efbd 09bb 203e
00000190: bd2f 1f3e 80b8 aa3e 3d73 07be 6455 1a3e
000001a0: 864b 353e 0dd5 b3be ca3d d4be 7f4d 3fbe
000001b0: df16 8b3e a146 adbe
-0.35527107 -0.24706072 -0.08626355 -0.25329286 -0.13555247 0.17446245 -0.411189 0.057446603
-0.2896164 -0.26996848 0.16237131 0.33675495 -0.23549277 -0.18798672 -0.4826312 -0.21913989
-0.36630416 -0.20940484 0.08336416 -0.514505 0.36908305 0.2681499 -0.35841155 -0.19816534
0.17816697 -0.089736484 -0.038361076 -0.30198744 0.34062558 -0.3509005 0.34507763 0.02699341
0.083457865 0.32506126 -0.09766107 -0.22480239 -0.066291906 0.41682157 -0.31492573 0.18449438
-0.40539446 0.23180504 0.21850367 0.016270388 0.24851842 0.0023091321 0.24257877 -0.3523114
-0.07652799 0.16870376 0.4204195 0.21977893 -0.3110041 0.33190897 -0.08297929 -0.084571786
-0.39029503 -0.121503405 0.29927683 0.024128199 -0.24998403 0.122223176 -0.30849946 0.37614557
-0.529156 -0.1432521 -0.41386446 -0.05466994 0.12619068 0.5279514 0.08790446 0.42045355
-0.12302042 0.2400653 0.16400073 0.33764833 -0.23769644 0.517333 0.27332705 -0.06451125
-0.20698732 -0.3523977 0.062333174 -0.34943688 0.13525645 0.14975321 -0.379344 0.2626236
-0.046797246 0.3563953 0.2604051 -0.41687876 0.50135595 0.36729556 0.29527697 -0.38970605
-0.1487149 -0.21401994 -0.11717552 0.15696348 0.15545554 0.33343887 -0.13227554 0.15071636
0.17704591 -0.35123482 -0.4145339 -0.18681906 0.27165887 -0.33842948

conv_depth.weight f4 [16, 1, 22, 1]
00000000: 8f05 2cbe c532 81bd 7d83 963d 89d7 b53d
00000010: 1446 c4bd 0038 5abd 5519 68be 3d02 c63e
00000020: a325 403e ee70 8abd fad7 473d c982 cb3d
00000030: 5266 b0bd 947f c4bd 207a da3d 059f 3bbe
00000040: be2d 0ebe 9b4e d33d 8e4f 81bd f052 bc3d
00000050: 9abc 3bbd 1690 1e3c f647 063e 3720 64bc
00000060: 2bf4 0e3e bdc7 193e fdc5 3bbe da9c 253d
00000070: 5806 093e 8690 91bd 0cbd 9f3d 22d0 e23c
00000080: e3bb 2abe 6719 c33d 30b0 8ebd d336 aebe
00000090: 99ea d9bd bfce 8f3e 733b 543d fb3c 03bd
000000a0: 375d b13b fdb8 133c ac23 e8bd a133 f33d
000000b0: 8377 633c b390 6abd cfd4 cc3c c8c5 323d
000000c0: 54f5 9b3d 1c69 d2bc 8729 1fbe 0813 d5bc
000000d0: bcd7 24be 574c 86be d3a3 873d ab04 d8bc
000000e0: c43a 2f3d 7d16 a03e e1ac 4abc c33f 953d
000000f0: a78f ee3d 57fe 83bd 11d8 463e 3856 4bbe
00000100: f117 ecbc cafd c4bd 2b82 29be 1b2f 7a3e
00000110: 1a38 85bd bc17 9d3c d61f 72be 5fb5 953d
00000120: 40b5 f9bc 3d08 a4bd 5415 6dbd 81e7 193d
00000130: b8c0 603e ed95 d6bd 3059 75bd f61e 9fbc
00000140: b82e f5bb 114c 853e a248 343e d29f 74bd
00000150: 53c8 1dbd e095 543d a290 dbbd c443 87bd
00000160: 65c8 543e 4e73 1f3e b03f 1ebe b670 1cbe
00000170: 0400 8dbd 6fc8 ea3d 6a23 313e 0a7b 44bd
00000180: 5176 183e a14e 35be bcb1 1e3d 6c8f ef3c
00000190: c8af a9bc fd42 abbd 09c9 febd f17f 4ebd
000001a0: 6422 33be 8d55 44bc f0dd 11bd fb84 cebd
000001b0: 15b4 fd3d ce20 54bd a141 86bc 2708 60be
000001c0: 1d77 77bd dbc6 22bd de4f bb3d 7798 803d
000001d0: 75af 2fbd 82eb 873e 86a8 583d 2027 62be
000001e0: 1084 8abe 624d 363c 9bec 00be 2633 103e
000001f0: 58a1 c73d bf26 37bd 754f df3d 2993 e33d
00000200: 2acc d5bc f692 3fbe 4dd6 3b3e 2f96 13be
00000210: 91eb 70bd 9cd6 c13d 7405 313d 5ca2 c23c
00000220: 9dad 353d 8712 d7bd 65df ad3d 6540 d83d
00000230: aa85 7fbd 6282 2d3c b8e8 80bd 22a1 80bd
00000240: e1ce 93bd 55a6 4cbe fafa 00bd 75be c03c
00000250: 542e e03d dd49 893c f6d5 89be bc09 c73d
00000260: 6d4b 1f3e 258c b63e 4e5e 503e e5ae 88bb
00000270: f935 1dbe 0d15 6d3c 272d 7fbd 60e2 95bd
00000280: f654 683d daa7 5cbd d4cb bf3d 2b44 693a
00000290: d9b5 fbbd 1297 1cbe 498d afbd 7062 47be
000002a0: 6c9c 373d 0274 033e 37a6 373e fd5f e23b
000002b0: d496 a7bd de4e c83d 2d9e a33c ff02 493e
000002c0: 6cfc 7a3b 1962 7ebd e9c2 0bbe eb1b 203e
000002d0: bacb 7c3e 5774 763e e825 b63d 81f9 3fbd
000002e0: c792 7f3c 7024 993d 5612 e9bd 4bf4 37be
000002f0: defe 683c fd22 fd3c 46b0 13bd d600 cbbc
00000300: 01b2 173d 9c97 96be 26a1 2cbd 9f12 d33d
00000310: 807a b63c 92c9 a73d 1c0d 963e ff87 56be
00000320: 25b5 3bbe 5a7e c1bd 7cb5 923c 52c5 0bbd
00000330: fc31 08bc 04ca ff3d 42eb 5cbc c6a5 a9bc
00000340: e41f 393c b1e0 0a3d cc43 f93c dde6 86bd
00000350: 6c6b bebd 7d46 61bd 2064 e4bd e331 c3bd
00000360: f136 20be 75f6 383e d3df e4bb d5fe de3d
00000370: 9749 373e 4010 9b3d 6ff0 ce3d a9fd 13be
00000380: 0860 1fbe b62a 43bd 79e0 413e 7371 fcbc
00000390: a280 4cbe 9c3a b0bd e48b 3fbe b6a9 76bd
000003a0: 3923 433b fc36 053e 6ff9 813d f71e 88bd
000003b0: 76f4 ba3c 4d5d a5bd 82cf e53d 60f8 b63d
000003c0: 047d 103e 03b7 f23d d4ea b5bc c6e4 fb3d
000003d0: a2ce 1ebd f5b7 3f3d 0bf8 9ebc b70d fe3b
000003e0: f7dc 193d 0c41 9e3b a349 0d3e e457 d73d
000003f0: 4461 95be 9065 acbd e624 cdbd 55be 00bd
-0.16798995 -0.06308512 0.07349298 0.08879001 -0.09583679 -0.053276062 -0.22665913 0.38673583
0.18764357 -0.06759821 0.048789956 0.09937055 -0.08613266 -0.09594646 0.10667825 -0.1832238
-0.13884637 0.10317727 -0.06314002 0.091955066 -0.04583416 0.009677907 0.13113388 -0.013923696
0.1396033 0.150176 -0.18337245 0.04043279 0.13381326 -0.07107644 0.0779973 0.027687136
-0.16673236 0.095263295 -0.06967199 -0.34026203 -0.10640449 0.28087422 0.051814508 -0.032040577
0.0054127234 0.009016273 -0.11334929 0.11875082 0.013883474 -0.057266902 0.025003819 0.04364565
0.07615152 -0.025684886 -0.15543185 -0.026010051 -0.16097921 -0.26230118 0.06623044 -0.026369413
0.042780653 0.31267157 -0.012370319 0.07287552 0.11648493 -0.06444996 0.1941836 -0.19857109
-0.02882001 -0.09618719 -0.16553561 0.24432032 -0.06504841 0.019176356 -0.23644957 0.073099844
-0.030481935 -0.08009384 -0.05788167 0.037574295 0.21948516 -0.10477815 -0.05989951 -0.019423943
-0.007482376 0.26034597 0.17605832 -0.05972273 -0.038521122 0.051900744 -0.10720946 -0.06604722
0.2077957 0.15571329 -0.15453982 -0.15277371 -0.068847686 0.11464011 0.17298666 -0.0479689
0.14888884 -0.17705776 0.03874372 0.029243194 -0.020713702 -0.083623864 -0.12440688 -0.050414983
-0.17493588 -0.0119832875 -0.035612047 -0.10083958 0.123878635 -0.051789097 -0.016388716 -0.2187811
-0.06041633 -0.039740425 0.09146093 0.0627908 -0.04289194 0.26546866 0.05289509 -0.22085238
-0.2705388 0.011126848 -0.12590258 0.14082012 0.09747571 -0.044714686 0.10903827 0.11112053
-0.02609833 -0.18708405 0.18343468 -0.14412759 -0.058818404 0.094647616 0.04321809 0.02375906
0.044355024 -0.10501581 0.08489875 0.10559157 -0.06238333 0.010590168 -0.062943876 -0.06280734
-0.072171934 -0.19985326 -0.03148935 0.023528317 0.109463364 0.016758854 -0.26921052 0.097186536
0.15556116 0.35653797 0.20348474 -0.0041712397 -0.1535262 0.014470351 -0.06229892 -0.07318568
0.05672165 -0.053871013 0.09365049 0.00088984024 -0.12290544 -0.15292004 -0.0857187 -0.19471145
0.04482691 0.12837222 0.179345 0.0069084154 -0.08183065 0.09780668 0.019972885 0.19630049
0.0038297428 -0.062105272 -0.13648571 0.1563565 0.2468709 0.24067818 0.08893949 -0.046868805
0.015598959 0.07477653 -0.113804504 -0.17964284 0.014220921 0.030900473 -0.03605678 -0.024780672
0.037034992 -0.29412544 -0.04214587 0.10306286 0.02227521 0.08192743 0.29306877 -0.20950316
-0.1833082 -0.09447928 0.017908804 -0.034123726 -0.008312698 0.12489703 -0.013483824 -0.02070893
0.011299107 0.03390569 0.030427836 -0.065870024 -0.09297833 -0.054998863 -0.1115191 -0.095309995
-0.15645958 0.18062766 -0.0069846897 0.10888449 0.17899166 0.07571459 0.10104453 -0.14452232
-0.15563977 -0.047648154 0.18933286 -0.030815816 -0.19970945 -0.08604929 -0.18705708 -0.060220443
0.0029775633 0.13009256 0.06346404 -0.06646531 0.022821646 -0.08074436 0.112212196 0.089340925
0.1411019 0.11851313 -0.022206701 0.122994944 -0.03877128 0.046806294 -0.019405385 0.0077531
0.037564244 0.0048295315 0.13797621 0.10514811 -0.2917577 -0.08417809 -0.100168034 -0.031431515

bn2.weight f4 [16]
00000000: a854 a83f 036e a63f d8d4 a33f 585a a63f
00000010: 7d50 9a3f 5236 9f3f 452b 793f 8da8 833f
00000020: 5179 b43f c151 a13f 1d1b 8c3f 4c49 623f
00000030: 3d3f 8d3f 51ba 6b3f 5d58 993f 0865 9f3f
1.3150835 1.3002323 1.279933 1.2996321 1.2055813 1.2438452 0.9733165 1.0285813
1.4099523 1.2603074 1.0945774 0.8839309 1.1034924 0.9208117 1.1980091 1.2452707

bn2.bias f4 [16]
00000000: 54ca 07bf c3cc 0bbf 626d 01bf 93e9 27bf
00000010: 4d36 09bf c3ea 07bf 2c65 bdbd 2263 77be
00000020: a3e4 2cbf 8fce 0fbf 754b bdbe 6e8d 17be
00000030: 4180 d0be 2f39 58be 7068 cdbe cfa2 f6be
-0.53043103 -0.54609317 -0.5055753 -0.6559078 -0.5359848 -0.5309259 -0.09247813 -0.2415891
-0.6753637 -0.5617456 -0.36971632 -0.14800045 -0.4072285 -0.21115564 -0.40118742 -0.48171088

bn2.running_mean f4 [16]
00000000: e537 05bb 9b49 31bb dd02 833b 6525 1d3b
00000010: af83 c83c ed24 02bc abbf 0fbc 5c5e 2cbc
00000020: f821 573b 11ec 593d 4c2d 9abc 2f69 f6ba
00000030: 29cc 973c b285 643c cd3e 7c3c 90a4 d13b
-0.0020327505 -0.002705193 0.003998144 0.0023978588 0.024476854 -0.007943374 -0.008773725 -0.010520544
0.0032826643 0.053203646 -0.018820427 -0.0018799658 0.018529968 0.013947891 0.015395832 0.006397791

bn2.running_var f4 [16]
00000000: 0e2e 7d3c b05f 8e3c cea5 163c a51a 9d3b
00000010: 810a 703d 4619 cb3c 1baf 353b f85a 7a3b
00000020: 1e9a 2d3b 1775 b83b 6135 023c a23d 883a
00000030: d7bc 3c3b 2e2c 123c baaf 8c3d c797 e53d
0.015452875 0.017379612 0.009194804 0.004794436 0.058603767 0.024792325 0.002772278 0.0038201194
0.0026489566 0.0056291926 0.007947297 0.0010394345 0.002879908 0.008921666 0.06869455 0.1121059

conv_sep.0.weight f4 [16, 1, 1, 16]
00000000: 9eb2 a13d bd69 513e cc58 803e 8f20 4e3e
00000010: e3ed a6bd b797 11be 7749 983d 35b2 ea3d
00000020: cbb7 30bc c274 d03d 182e 353e 487b 383e
00000030: a3ad 093e 16a3 853e 6801 003e d1c0 f03d
00000040: f76a 0d3d 5f7f 4d3e 2928 1e3b cff6 3a3e
00000050: 4e21 36bd 4af6 5e3e 5fd0 4f3e 0169 333e
00000060: 4035 c83d 68df e33d 5781 193d f361 8bbc
00000070: f497 063d 96c5 0d3e 91b2 93bc 9455 f33d
00000080: 1e53 273c a3f7 b13d 5031 563d b11d fd3d
00000090: 1cf2 a0bc 12f3 0dbd ab50 0b3e 7c6e 28bd
000000a0: 0a75 353e 26be 0a3d ce58 9a3e a720 ae3e
000000b0: 8a4b 8d3e 01d0 103e 30b7 a6bd 9d6c c23e
000000c0: f569 593d 08fa 74be bd9d 49bd 0d7d 1bbe
000000d0: b9ca b3bd cc07 793d 0f0b 00be 2a44 93be
000000e0: 899e 83be 246d d5bd 5799 58bc 3430 95be
000000f0: 7622 dbbd 3afb 3cbe 3883 58be 8cde b3bd
00000100: 9132 3b3d c28b b53d aae3 9f3c 3a22 813e
00000110: 1a7f 203e 7c36 e339 94c2 c4bd d063 dc3d
00000120: 066c dd3d 6f5c 3f3e 665b 423d 1758 133e
00000130: 5132 3e3c 4f5b 963e da1d 4c3e dd33 9f3d
00000140: 6dcb 663d 308e 5f3e 6b32 8dbd 717a bb3c
00000150: c279 fbbd b799 66bc 2cc3 ce3d 2256 f03d
00000160: 967c 663d 589d e63d 8b8b a33e 81e8 6b3e
00000170: c7b2 5b3e e265 6a3e a580 d33d 2914 aebd
00000180: fd0a 8a3d ca9c 9cbc 54cf 65be fded 84be
00000190: 6cd0 c3bd 9e5a 02be ebd7 0d3d 6a31 613c
000001a0: d577 283e 015b 833e da69 db3d dc27 553e
000001b0: 78ed 9a3d 7fd3 76be 7f64 61be a061 24be
000001c0: aad0 0ebe e7d7 83bd 1105 21bc eced d9bd
000001d0: 5e40 2ebe c2d4 03be c1b2 a1bd d07d 313e
000001e0: a056 64bd 7caa d7bd b93a 853d 203f 493d
000001f0: 86ed 7a3e f19f 823e 2b58 933e a4e5 6fbc
00000200: cc07 313e d95a 7c3e b2d9 c73d d6e6 8c3e
00000210: 7a82 5d3e 39d0 093e 4dd7 513e 501c 713d
00000220: 0ae2 41bc ab7b 133e 5766 493e 5b3c bb3d
00000230: c1bd 773e 99b4 0a3c 04fc 863e ace1 603e
00000240: 62fb babb 127a d2bd 42ae 023d ef09 5a3d
00000250: 097b 9b3d 3e9d 043e f55f 2f3e c014 e73c
00000260: 2610 523c b7b3 fc3d 3b44 c03d be0f 603e
00000270: 8b3b 583e 320d 5a3e 76ea bf3d a781 f33c
00000280: 83d0 bb3d d673 f53c 6ced 17be 28e2 77bd
00000290: 7f8e f1bd a639 b2bd 5a5a 26be e240 b1be
000002a0: 476c 35be 13eb f9bd 278f cdbd 1c23 263e
000002b0: a6cc ccbd fab2 b33d d35b 4e3d 4955 08be
000002c0: 7b3a 063e 6cbb 913e 85b2 943d 3ee2 bd3d
000002d0: 89b6 993e a18b 413e 8d4b c6bd 00f4 da3b
000002e0: bdcc 15be c735 81be 0e8d a9bc ef85 e13c
000002f0: 1a69 a4bd db79 11bc d24e 58be 5d7f 953d
00000300: d78f 4b3e ee1e 2b3e 5f6c ac3d 204a e13d
00000310: 0c87 f6bd 2fb5 95bc e735 c1bc ef48 3ebd
00000320: b295 81bd f498 273e 02f3 4c3e dcb2 90bd
00000330: 64f7 1a3e acec 583e e8aa 803e f377 153e
00000340: c53a 9e3e 689d c13d d712 5d3e 60cd 1d3e
00000350: 6d30 30be b0d1 51be a503 d3bd 3ac5 233d
00000360: 8b1b d8bd 8727 d53c 785c 6a3d eb36 3f3d
00000370: 0437 a5bd 22d7 a13d 2ff0 8b3d 2346 51be
00000380: 113f e23c 7f98 10bc 4a47 f63c 0ae6 073e
00000390: a542 f93c 9141 a6bd 36fa 67bd 8572 78be
000003a0: 5078 41be d7a8 1bbe c85f 87be 9e1a e4bd
000003b0: 33a4 93bd d029 133d 2681 dd3c 603a 09bd
000003c0: 780c 35be 87d3 25be 3a69 54bd 8b4c d33c
000003d0: f1ad 67bd 9fea 3b3e e311 033d 64a8 1f3e
000003e0: f35b 4f3e 8262 7a3e aa50 c23d 2307 043e
000003f0: f2d9 433d 935a ac3d 55e3 9c3e 33d6 613e
0.07895397 0.20450492 0.25067747 0.20129608 -0.08150842 -0.14218031 0.07435887 0.114597715
-0.010786007 0.1017852 0.17693365 0.18015778 0.13445143 0.26100987 0.12500536 0.11755527
0.034525838 0.2006812 0.0024132824 0.18258213 -0.044465356 0.2177364 0.20294331 0.17520525
0.09775782 0.11126596 0.037476864 -0.01701448 0.032859758 0.13844904 -0.018029483 0.11881557
0.010212688 0.08689811 0.05229312 0.12359179 -0.019646697 -0.034655638 0.13604991 -0.04112099
0.17720428 0.033872746 0.30145878 0.34009287 0.27596694 0.14141847 -0.08140409 0.3797349
0.053079564 -0.23923504 -0.049222697 -0.15184422 -0.08778901 0.06079845 -0.12504219 -0.28762943
-0.2570689 -0.104212075 -0.013220153 -0.2913834 -0.10699932 -0.1845521 -0.21143806 -0.08782682
0.04570252 0.08864547 0.019517738 0.25221425 0.15673485 0.00043337408 -0.09607425 0.10761225
0.108116195 0.18687604 0.047450446 0.14389072 0.011608676 0.29366538 0.19933262 0.07773564
0.056346346 0.21831584 -0.06894382 0.022885533 -0.12279083 -0.014074734 0.1009582 0.117351785
0.05627116 0.1126048 0.319424 0.23037912 0.21454917 0.22890428 0.10327271 -0.08499939
0.06740377 -0.019117732 -0.2244237 -0.2596282 -0.09561238 -0.1272988 0.034629744 0.013744691
0.16451962 0.25655368 0.10713549 0.20815986 0.07564825 -0.24104117 -0.22010992 -0.16052866
-0.13946787 -0.064376645 -0.009827868 -0.10641083 -0.17016742 -0.1287413 -0.07895423 0.1733315
-0.055746675 -0.10530564 0.06505341 0.049132466 0.2450467 0.2551265 0.28778204 -0.014642153
0.1728813 0.2464403 0.09758319 0.27519864 0.21631804 0.13458337 0.20492287 0.05886489
-0.011833677 0.14402644 0.19667946 0.09142371 0.24193479 0.008465909 0.26364148 0.21961087
-0.0057062367 -0.10277189 0.031904466 0.05323213 0.075918265 0.12950608 0.17126448 0.028208137
0.012821233 0.123389654 0.09388014 0.21881005 0.21116464 0.21294096 0.09370892 0.029724909
0.0917063 0.029962461 -0.14836663 -0.060518414 -0.11794757 -0.08702402 -0.16245404 -0.34619814
-0.17717086 -0.1220304 -0.1003707 0.1622433 -0.09999971 0.087743714 0.05038054 -0.13313784
0.13108246 0.28463304 0.072606124 0.09271668 0.30022076 0.1890092 -0.09682379 0.006681919
-0.14628883 -0.2523634 -0.020697143 0.027529685 -0.08027859 -0.00887915 -0.21123818 0.07299683
0.1987909 0.16711017 0.08419108 0.11000466 -0.12037477 -0.018274872 -0.023585273 -0.046456274
-0.0632738 0.1636694 0.20014575 -0.07065365 0.15133435 0.21184033 0.2513039 0.14596538
0.30904213 0.09453851 0.21589218 0.15410376 -0.17205973 -0.20490146 -0.103034295 0.03998301
-0.105521284 0.026019825 0.05721709 0.046683233 -0.08067134 0.079023615 0.06832921 -0.20436911
0.027617963 -0.00882542 0.03006329 0.13271347 0.030427286 -0.081179745 -0.056635104 -0.24262436
-0.18893552 -0.15201126 -0.26440263 -0.11137889 -0.07209053 0.035928547 0.027039122 -0.033502936
-0.17680538 -0.16193973 -0.051858164 0.025793334 -0.056562368 0.1835122 0.03199948 0.1559158
0.2024992 0.2445164 0.09488042 0.12893347 0.04781527 0.08415713 0.3064219 0.22054367

conv_sep.1.weight f4 [16, 16, 1, 1]
00000000: 5f87 48bd 956b 2dbd 8a8f 4bbd 3536 a9bc
00000010: 694f 863d 04fc 17be 0263 94be b901 fd3c
00000020: a486 49bd 21ef b9bd b9aa 9dbc f2fe 10bd
00000030: 007b 473b 2a76 c3bd 59a8 703e e373 e6bc
00000040: 4ac2 cbbd 5b0e 323e 79a7 4a3e 2496 463d
00000050: 33a6 44bd 1e39 f73d 57e7 8bbe 2e08 6f3c
00000060: d6a0 96bc 2ce0 4abe 73f0 11be 6d29 8c3c
00000070: 7d0d 583e ac98 8d3e 3ac2 3fbe 40d4 893e
00000080: ab88 b7bc ff27 40be 6514 acbc 6485 fc3d
00000090: e2b6 533e 7c5d f33c feb8 273e 002a fe3d
000000a0: 0259 9e3e 6d6f 27be 03a7 583e afe3 81be
000000b0: 11d0 813e a9a4 33bd ec6c 9abd e1e5 07bd
000000c0: 72f0 87bd c540 39be 99f9 7fbe afe7 d63c
000000d0: bd86 c73d 779f c9bd 3d7e 9d3d e027 d23d
000000e0: 9936 113e 2d83 a13d 7f2c 6abe 79ab 1dbe
000000f0: 154c b63d 63ef a0bd b007 1cbe 7f6b cb3c
00000100: d86a 63be 7e84 12be 1224 24be 3081 86bd
00000110: 28b3 cabd ddbf a6bd 115d 63bd 1fc8 b73d
00000120: 3fa9 a43d f0bf 35bd 94d4 7fbd 2d44 923d
00000130: 8f0a 86bd 574d 663d a807 a9bd 34b4 593d
00000140: 8c3a f73c 537c 0c3e eead 5bbd 6af8 95be
00000150: 614f db3d 3341 14be df66 6a3c 2f7a 0ebe
00000160: 1cff c2bd 6e33 35be 5df7 a93d 88de 74bd
00000170: 5be0 cd3c 52e2 453e a38e 96be 7326 d43d
00000180: 58a1 813e bd44 353e 55ea 7bbc a0e7 be3d
00000190: 4257 5bbd 3b06 cdbd fadf 87ba f0f9 8ebe
000001a0: 9e3c 29be 44de 0dbe bf64 e4bd 7ab5 4abd
000001b0: fc90 97bd 929e 51be 0e5d 7b3e 7607 59be
000001c0: 669e 493d e364 473e dc49 a33d acb3 21be
000001d0: f0c4 173e 2566 9ebd f77f 8c3e 244d acbd
000001e0: 0dad 62be 7f4b f23d dfc3 5c3d d48c 12be
000001f0: 5f96 12bd 0df5 03be df71 243e b5b7 1fbe
00000200: 0a2d 253e c0d4 143e 2f58 663e f805 c13d
00000210: f3cc c0bd 9274 ff3c e013 95be c0c8 763d
00000220: ea35 11be 39e9 c03d c360 0e3d 3633 90bd
00000230: 9195 263d 588d 523d 87c1 be3c 6efd d4bd
00000240: b465 09bd a1b5 563b 70cf d23b a17a 423e
00000250: c590 dbbc caeb 4f3e dc34 f6bd c23e 4fbe
00000260: 80ab e5bd fa63 73be 053e 8abe 040d 01be
00000270: 9b75 5ebe ab46 933d 5bb2 81bd 13d7 413e
00000280: 4e76 363e a8eb 2c3e 64d8 8b3d 2ccf 95bd
00000290: 0ec2 693d 4fdb dabd fadb 51bc 8292 813c
000002a0: 5122 563e 484f 7b3e ed6c 47bd 605f 6f3e
000002b0: 913e e23b 4750 7c3e baa0 fdbc 7b02 c93d
000002c0: 53b7 633e 97d0 1d3e 32ce eebb 6597 fabc
000002d0: d9b2 d6bc dbbd 2e3e 5480 b03d f840 2b3e
000002e0: 93eb 1c3d 2709 3ebe dcd7 2cbe c1c0 823e
000002f0: 38b0 4a3d f99c c33d b26a f0bb 5b85 333e
00000300: d60e edbd f770 5fbe c22a b7bd 2e61 67be
00000310: 2878 013e ca45 963d 6f8c f2bb 6776 3a3c
00000320: ffb7 cebd 0020 9a3d c34b ff3d cb6d e63d
00000330: a110 da3d ab52 42bd bc67 4f3e 0bce b7bc
00000340: 69d8 a7bc 797d a8bd c55c 5cbd 0013 933d
00000350: 2400 663e 13fa bbbc abaa 3d3e 56d2 39be
00000360: f1ec 5bbd c1c0 55be 7ef3 33bd 9a4b 5ebd
00000370: 0032 533e 19b5 143e 009c 243e 66f4 20be
00000380: 28e9 d2bd bf4e f3bc bde7 92bc e438 2c3d
00000390: a789 a7bd 12bc 0fbe 049a 043e a62b ef3d
000003a0: c001 03bd f621 a2bd ce48 d4bd 9142 efbd
000003b0: e348 34bd a7d4 733d c80b 533c 0473 7abd
000003c0: 9e7a c33a d0d9 503c 4407 f83c e390 9f3d
000003d0: b192 2f3d e6f1 a03e 020e c5bb 387d cf3c
000003e0: 16c9 4bbd 086e 8d3e 350f e6bd babc 443e
000003f0: 38c0 183e 47bf 8dbc 6dec de3d 2907 93bd
-0.048957225 -0.042338926 -0.049697436 -0.02065573 0.06558115 -0.1484223 -0.28981787 0.03088461
-0.04920067 -0.09078813 -0.019246446 -0.035399385 0.0030438304 -0.095440224 0.2350172 -0.028131431
-0.09949167 0.17388289 0.19790448 0.04848303 -0.048010062 0.12071441 -0.27324936 0.0145893525
-0.01838724 -0.19812077 -0.1425188 0.017109597 0.21098895 0.27655542 -0.18726435 0.26919746
-0.022404036 -0.18765257 -0.021005819 0.1233013 0.20675233 0.029707663 0.16379163 0.124103546
0.30927283 -0.163511 0.2115746 -0.2536902 0.25354055 -0.043858204 -0.075403064 -0.033178214
-0.06637658 -0.18091114 -0.24997558 0.026233522 0.09742496 -0.09844869 0.07690094 0.10261512
0.14180984 0.07886348 -0.22868536 -0.15397443 0.0890123 -0.078581594 -0.15237308 0.024831532
-0.22208726 -0.14308354 -0.16029385 -0.06567609 -0.098974526 -0.08142064 -0.055508677 0.08973717
0.08040094 -0.0443725 -0.06245859 0.0714191 -0.06544983 0.0562261 -0.082534134 0.05315037
0.030179285 0.13719301 -0.05363267 -0.29291087 0.107085 -0.14477997 0.014306753 -0.13913797
-0.095213145 -0.176954 0.08299134 -0.059782535 0.025131395 0.19324616 -0.29405698 0.10358896
0.25318408 0.17702003 -0.015375693 0.09321523 -0.053550012 -0.10010954 -0.0010366433 -0.27925062
-0.1652703 -0.13854319 -0.11152028 -0.049489476 -0.074007004 -0.20470646 0.24547216 -0.21194252
0.049223326 0.19472079 0.07973072 -0.15791196 0.1482122 -0.07734326 0.2744138 -0.08413151
-0.22136326 0.11830806 0.053897735 -0.14311534 -0.035787936 -0.12886448 0.16059063 -0.15597422
0.16130462 0.14534283 0.22494577 0.094249666 -0.09414091 0.031183515 -0.29116726 0.060250044
-0.14180723 0.09419484 0.034760248 -0.07041018 0.04066998 0.051404327 0.02328564 -0.103999004
-0.033544257 0.0032762068 0.00643342 0.18992092 -0.02680243 0.2030479 -0.12021801 -0.20238784
-0.11214352 -0.23768607 -0.27000442 -0.12602621 -0.2172455 0.07191213 -0.06332847 0.189297
0.17818567 0.1688677 0.068283826 -0.073149055 0.05706983 -0.10686361 -0.012808794 0.01581693
0.20911528 0.24541962 -0.048687864 0.23376226 0.006904431 0.24639998 -0.03096043 0.09814926
0.22237901 0.15411602 -0.007287764 -0.030589769 -0.026208328 0.17064612 0.08618227 0.16724002
0.0383106 -0.18558179 -0.16879219 0.25537685 0.04948446 0.095514245 -0.007336938 0.1753134
-0.11575095 -0.21820436 -0.08943702 -0.22595665 0.12643492 0.0733753 -0.007401995 0.011380768
-0.10093688 0.07525635 0.12465622 0.1125141 0.10647703 -0.04744212 0.20254415 -0.022437116
-0.020488935 -0.08227057 -0.05379941 0.07181358 0.22460991 -0.022946393 0.18522136 -0.18146643
-0.05369276 -0.20874311 -0.043933384 -0.054271318 0.20624542 0.14522208 0.16075134 -0.1571823
-0.10298377 -0.029700635 -0.017932767 0.042046443 -0.08180552 -0.14036587 0.12949377 0.11678247
-0.03198409 -0.07916634 -0.10365449 -0.116826184 -0.044014823 0.059528973 0.012881227 -0.061144844
0.0014913862 0.012747243 0.030276902 0.07791307 0.042864505 0.31434554 -0.0060136328 0.025328264
-0.049752317 0.2762301 -0.11233369 0.19212618 0.14917076 -0.017303122 0.108849384 -0.071791

bn3.weight f4 [16]
00000000: 7b0b d33f 891a bd3f 329c b33f c64f 9f3f
00000010: 8c80 aa3f 5e70 b03f c151 a43f 5ba0 b23f
00000020: faa8 b83f 0a3d b73f 65d2 a03f d45c bd3f
00000030: ff68 a03f b74d ba3f 3ea9 9f3f 2feb a33f
1.6487879 1.4773723 1.4032042 1.244622 1.3320479 1.3784292 1.2837449 1.3955187
1.4426568 1.4315503 1.2564207 1.4793954 1.2532042 1.4554967 1.2473524 1.2806147

bn3.bias f4 [16]
00000000: f5d4 5abe 43ed 9fbc c19c 8ebd 7dc0 f6bd
00000010: 9fd5 13be a103 c5bd af74 e8bd 0c83 c3bd
00000020: 6e87 1abd 2d15 f8bd 2fdf 17be 6a89 ccbd
00000030: 4dbf 5bbd e63a 2fbe 0979 7ebd c4fe 9cba
-0.21370299 -0.019522315 -0.06963492 -0.12048433 -0.14436959 -0.09619833 -0.11350381 -0.095464796
-0.037726812 -0.12113414 -0.14831232 -0.09987147 -0.053649236 -0.17112312 -0.062127147 -0.0011977782

bn3.running_mean f4 [16]
00000000: 1132 cc3d e017 acbd 2601 a8bd d9f7 2abc
00000010: 6d24 b83d ba24 aebd f61e 033e 527b 37bd
00000020: 611f ae3b 3814 f13d 0721 87be c2aa 11be
00000030: 4001 7fbb 3b11 913d e3d5 fe3d ddf7 c4bd
0.09970487 -0.08402991 -0.08203344 -0.010435068 0.08991323 -0.08503099 0.1280478 -0.04479534
0.0053137993 0.117714345 -0.26392385 -0.14225295 -0.0038910657 0.070833646 0.124431394 -0.09617589

bn3.running_var f4 [16]
00000000: a4d6 c83d fa9d 453e 2ab2 153e 7bbc b93d
00000010: 4fa4 4c3d 6004 cd3d 03bd f63d 9e62 0b3e
00000020: 830d 003e e5ab ff3d e146 073e 24ff d23d
00000030: 0337 953d 44ba f33d 73f0 563d d94c 8e3d
0.098065645 0.19298545 0.14618745 0.09069153 0.049961384 0.100106 0.1204777 0.13611838
0.12505154 0.12483958 0.13210632 0.103025705 0.07285883 0.11900762 0.052475404 0.06948251

eca.conv1d.weight f4 [1, 1, 5]
00000000: 77a0 02bf 2868 2bbf 6047 013e 7df4 6a3f
00000010: 015e 71bf
-0.510261 -0.66955805 0.12624884 0.9177931 -0.94284064

classifier.weight f4 [4, 560]
00000000: 5ce1 ce3d 15de bd3d cf2d 1e3d f262 533e
00000010: 843f 95be 3c92 553d 045d 913e 28d0 013d
00000020: d0e8 63bc da49 d83d 72f4 13be faff 06bd
00000030: b159 3cbd a60d 1dbb 9721 32be 78b8 9abd
00000040: 38eb 20bd 25f1 8bbe 23e3 d0bd 3f7b 403d
00000050: ee38 c93d 3709 abbd f234 df3c cdfd 443d
00000060: 0fe8 003d f7cc a43c 95e1 caba 0e88 25bd
00000070: fcf0 413d 97a1 b03d a1d9 07be 78f2 133d
00000080: cb37 1ebe 311d 11bd be1c c13c a40f 9e3d
00000090: dd1d ad3d 19c8 bf3c 570b 093e 5bb8 c0be
000000a0: 552d 103e dcc7 4cbd 7dd3 22bd 1209 f83d
000000b0: 86ba a0bd c232 dd3c 7fc0 14bd bfec a73d
000000c0: 09f5 ccbc fd73 d63c fd18 0d3d 480c 273c
000000d0: 00f3 88bc 6f0f 40bc 70bd 863c 75e2 f3bc
000000e0: 739b 813d 13ed afbb ded1 1fbd dbe6 a33d
000000f0: 2c6c 84bd d02a 6dbc 3016 213d 8428 e7bd
00000100: 3d1b fa3d 5398 473d b04a 41bd 551e f23c
00000110: 7115 cd3c ac77 86bd f509 ca3a 8d38 923d
00000120: 35de 063d ae15 1cbd c62a 6f3d ce9c 153c
00000130: 86e4 7d3e b76d 24bd c36b 7e3d 3566 973d
00000140: 587f 20bb 46ad 453d b822 21bc d1c0 db3c
00000150: dfde 42bd 3295 a83d 1bd6 893d 60c7 113d
00000160: 04da aa3d abd1 7d3d f3c7 393d fb7b 843c
00000170: 1d1e e63d 28e5 27ba 29a7 053e 5345 923d
00000180: 14cd 9d3d 5885 883c 6193 883d 3276 8f3d
00000190: 403c e63c 847a d1bc fe30 153d 2f4b 1e3b
000001a0: a0e5 343e e329 cabd 1560 073e 3444 5fbd
000001b0: fca4 633d fcb1 6cbb ce50 2b3d 5874 ce3d
000001c0: e62b f8bd e52b 9f3d c3c3 283e 433a 05bd
000001d0: e408 c0bc 382e 9f3d 1e2e 30bb a99d babd
000001e0: 5008 173b 5a11 25be d2be 49bd e81c 97bc
000001f0: eb85 1ebe 48a1 e1bd 61a4 643b 5957 003d
00000200: 3f68 7b3d 0072 8bbd 0287 07bd d531 84bd
00000210: 4189 eebd d02c 6f3c 10cb 9abd 3b9f 90bd
00000220: b30b a43d 507a a4bd 0c8f 8abb b724 b53d
00000230: a462 023d dd13 5b3d 4cf7 e6ba 6052 803d
00000240: 24ff 32bb f441 13be 0bc0 2f3c 4d49 1fbc
00000250: 57b0 f5bb 9946 8c3c 6711 eabd a9fb 34bd
00000260: a4fe f9bd 608e a23c ae71 2ebc 6e08 ddbc
00000270: 6f9e 20be 9231 abbc 4887 69bd 3674 00bd
00000280: 7ab3 0abd 9495 3ebc 6214 81bd 8539 90bc
00000290: beee 99bd cff1 95bc 302a 503d 2fd1 c3bc
000002a0: 0a3d 25be e914 73bc 0372 80bc 0a34 4f3d
000002b0: 9f95 633d 58da 05bc 3801 a43c eab5 213d
000002c0: a84f a1bd 6ff9 e43d 972d 5f3d fcfb cbbd
000002d0: 9b5c 503d 85fb 60bd 802b 7bbd 9787 dc3d
000002e0: 4ff7 e3bd 589e 89bd da20 e1bc cc88 ddbd
000002f0: ecab 14be 9119 a6bd 47a6 c3bd b82e 13bd
00000300: c963 3ebe 1b07 10be 2831 b4bd 9f13 1bbe
00000310: 08fb c1bb 68ab 83bd 3798 87be 25de 1a3d
00000320: 3b38 4bbe c5f6 13be 2f4e cabd 85e6 1abe
00000330: f050 d8bc acb9 403d 6542 23be 3adb ad3d
00000340: 1ebc f7bc d48b 03bd 2ac8 8f3d f77b 7bbb
00000350: ef22 fc3c 4e93 e43d 079a f53c ba91 f63c
00000360: 7e8b e33d 46c0 93bd 0914 2d3d 6eb8 d93d
00000370: 3c7f 723d 85ca 113d 238a d93d 64bd 07bd
00000380: 6aba 173d 2bb7 cbbc db38 213e 36f0 2fbd
00000390: 9cf0 2e3d c115 2abd 90dd a93d 4b35 a5bd
000003a0: 748d c7ba b00d 3a3d 44ec c8bb b5d9 833d
000003b0: b122 2bbd 9d6e adbc b2ca 973d 5977 f2bd
000003c0: a3b8 10bd ce95 f4bc 75b2 8ebc 7156 a03d
000003d0: 1a55 55be 4550 e5bc 2f0f c4bd d947 b63c
000003e0: 4c87 5ebe 9d0c 8e3e 88d5 bb39 11e3 323d
000003f0: 81cf 44be 04a1 4fbe eb5c 02be 2c78 9dbd
0.10101578 0.092708744 0.038617905 0.20643213 -0.2915002 0.052141413 0.28391278 0.031692654
-0.013910487 0.10560961 -0.14448717 -0.032958962 -0.045983974 -0.0023964434 -0.17395626 -0.07554716
-0.039286822 -0.27332416 -0.10199573 0.046992537 0.098253116 -0.08351367 0.027246926 0.048093606
0.03147131 0.020117266 -0.0015478606 -0.040412955 0.04734896 0.08624571 -0.13266613 0.036119908
-0.15450971 -0.03542823 0.023573276 0.07717827 0.084529616 0.023410844 0.13383232 -0.37640652
0.14079793 -0.04999529 -0.039752472 0.12111105 -0.078480765 0.027001742 -0.03631639 0.081994526
-0.025019186 0.026178354 0.03444766 0.010195799 -0.016717434 -0.01172243 0.016447753 -0.029771069
0.06328478 -0.0053688376 -0.039018504 0.080030166 -0.06465945 -0.014475539 0.0393278 -0.112870246
0.122122265 0.048729252 -0.04719037 0.029555479 0.025034638 -0.06565794 0.0015414344 0.071396925
0.032926757 -0.038106613 0.0583904 0.009131623 0.24794206 -0.040143695 0.06211449 0.07392541
-0.0024489965 0.04826095 -0.009834938 0.02682534 -0.047575828 0.08231582 0.067302905 0.03559053
0.083423644 0.061967533 0.045356702 0.0161724 0.112362124 -0.00064046914 0.13052048 0.07142129
0.07705131 0.016665146 0.06668735 0.07004966 0.028104901 -0.025571115 0.036423676 0.00241537
0.1766572 -0.098712705 0.13220246 -0.054508403 0.055577263 -0.003611683 0.04182511 0.100807846
-0.12117748 0.07772044 0.16480927 -0.032526266 -0.02344174 0.077724874 -0.0026882957 -0.091121025
0.0023045726 -0.161199 -0.049254246 -0.0184464 -0.15480773 -0.1101709 0.0034888017 0.0313333
0.061378714 -0.06808853 -0.033087738 -0.06454817 -0.11647273 0.0145980865 -0.07558262 -0.07061621
0.08010044 -0.08031142 -0.0042284783 0.088448934 0.031832352 0.05348574 -0.0017621308 0.06265712
-0.002731272 -0.14380628 0.010726939 -0.009722066 -0.007497828 0.017123507 -0.114291005 -0.044185314
-0.12206772 0.01984328 -0.010647221 -0.026981559 -0.15685438 -0.02089766 -0.05701378 -0.031360827
-0.03386257 -0.011632342 -0.06302716 -0.017605552 -0.075162396 -0.01830378 0.050821483 -0.023903457
-0.16136566 -0.014836528 -0.015679365 0.050586738 0.05556261 -0.008169733 0.020020112 0.039480127
-0.07876521 0.11180388 0.054486837 -0.099601716 0.050869565 -0.054927368 -0.06132078 0.10768049
-0.11131155 -0.06719655 -0.027481485 -0.108171076 -0.14518708 -0.08110345 -0.09553199 -0.035933226
-0.18592753 -0.1406521 -0.08798438 -0.15144204 -0.005919818 -0.064291775 -0.26483318 0.03780951
-0.19845669 -0.14449604 -0.098781936 -0.15126999 -0.026405782 0.04705207 -0.15943296 0.0848908
-0.030241068 -0.032115772 0.070206 -0.003837345 0.030778376 0.11160909 0.029980673 0.030098785
0.111105904 -0.072144076 0.042255435 0.1063088 0.05920337 0.03559353 0.106220506 -0.0331396
0.037043013 -0.024867615 0.15744345 -0.042953692 0.04270993 -0.041524652 0.08294213 -0.080668055
-0.0015224651 0.04542321 -0.0061316807 0.06438009 -0.04178113 -0.021170909 0.07411708 -0.1183917
-0.035332333 -0.029856589 -0.01741908 0.078289874 -0.20833245 -0.027992377 -0.095732085 0.022251057
-0.21731299 0.27743998 0.00035826513 0.04367358 -0.19219781 -0.20276266 -0.12730758 -0.076889366

classifier.bias f4 [4]
00000000: 619c 35bc 0680 0f3c 5ce6 3bbc 4b7e 4fbb
-0.011084647 0.0087585505 -0.011468496 -0.003166097
