result_shallowfbcspnet_cv5/fold_4/best_model_fold4.pth (torch, 193974 bytes, 9 tensors)

conv_time_spat.conv_time.weight f4 [40, 1, 25, 1]
0	0x3d187d62	0.03722895
1	0x3dbfc62f	0.093639724
2	0x3c727fdd	0.014800993
3	0x3c090ca4	0.00836483
4	0xbd302e7e	-0.04301309
5	0xbc6a441d	-0.014298466
6	0xbdf67442	-0.12033893
7	0xbe0109fa	-0.12601462
8	0xbc957bc4	-0.018247493
9	0xbd49f6b2	-0.049307533
10	0x3d87d892	0.066331044
11	0x3df54ea6	0.119778916
12	0x3e02c274	0.1276949
13	0x3d708bbf	0.058727022
14	0xbd55f5dc	-0.052236423
15	0xbd63a6ca	-0.055578984
16	0x3b9efa70	0.004851632
17	0xbc8b5af0	-0.017011136
18	0x3d6de671	0.058081094
19	0xbd28543d	-0.04109596
20	0xbcb3998d	-0.021923805
21	0xbdae1bc8	-0.085013926
22	0x3cd133f1	0.025537463
23	0x3d70e126	0.05880847
24	0x3cca413c	0.02468931
25	0xbda35abf	-0.07976293
26	0xbd993372	-0.074805155
27	0x3d8678ab	0.06565984
28	0x3c86d2f9	0.016458021
29	0xbc20bf19	-0.009811186
30	0xbd7c59e3	-0.06160916
31	0xbd021a4c	-0.03176336
32	0x3d8aa2e9	0.06769354
33	0x3e00270e	0.12514898
34	0xbb664259	-0.003513476
35	0x3daae5aa	0.08344586
36	0x3d56ef56	0.052474342
37	0xbdc5a5a4	-0.09650734
38	0xbdb04889	-0.08607585
39	0xbd159d13	-0.03652675
40	0xbde2e2e5	-0.11078433
41	0xbd764904	-0.060128227
42	0x3d719d0e	0.05898767
43	0x3de3c3e4	0.111213475
44	0x3d80ea83	0.062947296
45	0x3dd95fa0	0.10613942
46	0x3d8e9a47	0.0696302
47	0x3d46b9d4	0.048517063
48	0xbd8a8029	-0.06762726
49	0x3d57d988	0.05269769
50	0x3d92fb2c	0.071768135
51	0xbc9a23d9	-0.018815922
52	0xbdcef2b6	-0.10104887
53	0x3af21206	0.0018468506
54	0x3d6e99f2	0.058252282
55	0x3d1d917b	0.03846882
56	0x3dbf4524	0.093393594
57	0xbaa082bb	-0.0012245992
58	0x3d8ae210	0.06781399
59	0xbd74adbd	-0.059736002
60	0xbdb3d478	-0.087807596
61	0xbd9390e4	-0.0720537
62	0x3d751cb9	0.059841845
63	0x3d0d5c57	0.03451189
64	0xbda1ade2	-0.07894494
65	0xbd9083f0	-0.07056415
66	0x3cd047fd	0.025424952
67	0x3d992da2	0.07479407
68	0x3c06ced4	0.008228023
69	0xbccf9af8	-0.02534245
70	0xbd8ac435	-0.06775705
71	0xbdd5c77f	-0.104384415
72	0xbdc825f8	-0.09772867
73	0x3d7bd6e7	0.061484244
74	0x3d6a7f7e	0.057250492
75	0x3e08476d	0.13308497
76	0x3c0c4b87	0.008562929
77	0x3d857757	0.06516903
78	0xba228cd6	-0.0006200796
79	0x3c1a85c8	0.00943131
80	0xbcbe0423	-0.023195332
81	0xbd528d45	-0.051404256
82	0xbcfb73d1	-0.030694874
83	0x3daa976c	0.08329663
84	0x3df97668	0.12180787
85	0xbb9bd1e7	-0.004755247
86	0x3d528d32	0.051404186
87	0x3d0ea6ab	0.034826916
88	0xbe061782	-0.13094905
89	0xbded7fea	-0.11596663
90	0xbd89e326	-0.06732778
91	0x3d87a380	0.06622982
92	0x3e02d169	0.12775196
93	0x3e0260b6	0.12732205
94	0xbcb36b59	-0.021901773
95	0xbd4f85e8	-0.050664812
96	0x3b30bc10	0.0026967563
97	0x3da82551	0.082102425
98	0xbba473fd	-0.0050187097
99	0x3cebea8f	0.02879837
100	0x3c835104	0.016029842
101	0x3d227eae	0.039671592
102	0x3d44af22	0.048018582
103	0xbdb26d93	-0.08712306
104	0xbc7bca78	-0.0153680965
105	0xbdac2b4c	-0.08406696
106	0xbd44c181	-0.048036102
107	0x3d25bac3	0.040461313
108	0xbc7c62d0	-0.015404418
109	0x3d07134e	0.032977395
110	0xbcae78a2	-0.021297757
111	0xbd7b08d9	-0.061287735
112	0xbc2a696a	-0.010401109
113	0x3c95af38	0.018272027
114	0x3d9eca14	0.07753387
115	0x3d0e5fec	0.034759447
116	0x3d17cc4b	0.037060063
117	0xbd2c75d9	-0.042104576
118	0xbc91d786	-0.017802965
119	0xbdc616d1	-0.09672321
120	0xbd36215d	-0.04446541
121	0xbd051ece	-0.03250008
122	0xbd6ae516	-0.05734738
123	0x3d0469d3	0.032327484
124	0xbd7bb11f	-0.061448213
125	0xbac0d884	-0.0014712964
126	0x3be05826	0.0068464456
127	0x3d406da3	0.046979558
128	0xbbc6d9da	-0.0060684504
129	0x3da093b8	0.07840675
130	0x3dabcb3c	0.08388373
131	0x3dd75a39	0.105152555
132	0x3dce13a6	0.100623414
133	0x3db87467	0.09006577
134	0xbcc3bbbc	-0.02389323
135	0xbd4d91b4	-0.05018778
136	0x3ca7f695	0.020503322
137	0x3da5386f	0.080674045
138	0xbcf113cc	-0.029428385
139	0x3dd6fc7f	0.104973786
140	0x3cfb32cc	0.03066387
141	0xbc075a24	-0.008261237
142	0x3d1a79a8	0.037713677
143	0xbc45d6fa	-0.01207518
144	0x3d415357	0.04719862
145	0xbd8f7d97	-0.07006376
146	0xbc3041bd	-0.010757861
147	0xbd27860c	-0.04089932
148	0x3d90faeb	0.07079109
149	0x3d747f23	0.05969156
150	0x3dfd34a5	0.12363557
151	0xbd39294b	-0.045205396
152	0xbdc0a249	-0.094059534
153	0x3d3a77c1	0.045524362
154	0xbd074ee8	-0.033034235
155	0xbd2277bb	-0.039664965
156	0x3d20a3e7	0.03921881
157	0x3dabca64	0.08388212
158	0xbcb2505f	-0.02176684
159	0xbce615ae	-0.02808651
160	0x3c4b7faf	0.012420579
161	0xbd901a41	-0.070362575
162	0x3d299fe4	0.04141225
163	0x3993834d	0.00028135852
164	0xbc3b387b	-0.01142704
165	0x3cdc1093	0.026863372
166	0xbc14ff08	-0.009094007
167	0xbcc4851e	-0.023989256
168	0x3d9fd611	0.07804502
169	0xbc96d3cc	-0.01841154
170	0x3d414da4	0.047193184
171	0xbb2cf788	-0.0026392657
172	0xbdf3ace6	-0.11898212
173	0xbb1d19c7	-0.0023971663
174	0x3db70987	0.08937364
175	0xbdcac377	-0.09900563
176	0x3cdb8e47	0.026801242
177	0x3c955de6	0.01823325
178	0xbca91391	-0.020639213
179	0xbd809c26	-0.06279783
180	0x3d5a77c6	0.05333688
181	0xbd09b40a	-0.033618964
182	0x3d1f391d	0.038872827
183	0x3d06e4a2	0.032932885
184	0xbd2d87a9	-0.042365704
185	0x3ba7199f	0.00509949
186	0xbce3e1e9	-0.027817683
187	0xbdaa7cda	-0.08324595
188	0xbcb8279a	-0.022479821
189	0xbd186c94	-0.037212923
190	0x3d0be07d	0.034149636
191	0x3d802df5	0.062587656
192	0xbc285cfe	-0.010276077
193	0xbd07ff3c	-0.033202395
194	0xbd1a42f1	-0.037661497
195	0xbc561fd7	-0.013069115
196	0xbc2325f6	-0.009957781
197	0xbddade22	-0.106869
198	0xbd664459	-0.056217525
199	0x3dc39af4	0.09551039
200	0xbd8ddc95	-0.06926838
201	0x3d91da1d	0.0712168
202	0x3db608af	0.08888375
203	0xbd835799	-0.06413192
204	0x3c3f977f	0.011693834
205	0x3db75629	0.089519806
206	0x3db0c88d	0.08632002
207	0xbd712f1d	-0.05888282
208	0x3d128b01	0.035777096
209	0xbd271047	-0.040787008
210	0xbd9e3034	-0.07724038
211	0xbdac70d9	-0.084199615
212	0x3bc680a8	0.0060578175
213	0x3d24ad3f	0.040204283
214	0x3c1498a7	0.009069598
215	0xbd90bbc6	-0.07067065
216	0xbdc14397	-0.0943672
217	0x3d3f104b	0.046646398
218	0x3d3d804c	0.04626493
219	0x3dc08e1d	0.09402106
220	0x3d8a4f93	0.06753459
221	0x3c8e3e27	0.01736362
222	0xbce978c7	-0.028499974
223	0x3d0cedbb	0.034406405
224	0x3de3805b	0.11108466
225	0xbc2286f3	-0.00991987
226	0x3cb543ae	0.022126999
227	0x3d8d99c9	0.06914098
228	0xbce58ac7	-0.028020276
229	0xbccd4e64	-0.025061794
230	0x3c3f291d	0.011667517
231	0xbd05a98a	-0.03263239
232	0xbddf5bf3	-0.1090621
233	0xbcd47e8f	-0.025939254
234	0xbd3bbbeb	-0.04583351
235	0xbda57388	-0.080786765
236	0xbdb53586	-0.088480994
237	0x3d886fd1	0.06661952
238	0x3d66fbf3	0.05639262
239	0x3d9db067	0.07699662
240	0x3cf5eca7	0.030020071
241	0xbd531906	-0.051537536
242	0x3ce2452b	0.027620872
243	0xbd045e58	-0.032316536
244	0xbe2128e7	-0.1573826
245	0xbdd4f478	-0.10398191
246	0xbd0cea57	-0.03440317
247	0x3d908cb6	0.070580885
248	0x3dab05de	0.083507285
249	0x3d208efe	0.039198868
250	0xbe015ea3	-0.12633757
251	0x3be75d03	0.0070606484
252	0xbc638c69	-0.013888457
253	0x3df95e01	0.12176133
254	0x3ddd8b80	0.10817623
255	0xbce102e1	-0.027467193

conv_time_spat.conv_time.bias f4 [40]
0	0x3cee688b	0.029102584
1	0xbd0910e1	-0.033463363
2	0x3c9cd6f1	0.01914546
3	0x3c9f26d4	0.019427694
4	0xbbf864ff	-0.007580399
5	0x3c6cb8e0	0.0144483745
6	0x3d157577	0.036488976
7	0xbd2dd749	-0.04244164
8	0x3ce35d56	0.027754467
9	0x3be95318	0.0071205013
10	0xbcac75d3	-0.021052277
11	0xbcde3f5f	-0.027129827
12	0xbd6493d0	-0.055805027
13	0xbbb6c409	-0.0055775684
14	0x3cd4d34f	0.025979666
15	0xbc0a9825	-0.008459126
16	0xbd23740e	-0.0399056
17	0x3b97ab21	0.0046285545
18	0xbc97e1cf	-0.018540291
19	0x3c58ba86	0.013228064
20	0xbc99bedc	-0.018767767
21	0x3b51d7c8	0.0032019485
22	0x3d0d882d	0.034553695
23	0x3ba6e9d0	0.0050937906
24	0xbd05a10d	-0.032624293
25	0x3d599541	0.053120855
26	0x3ce3e01d	0.027816826
27	0xbab0c518	-0.0013486473
28	0xbb8454da	-0.0040384354
29	0x3d6120d1	0.054962937
30	0xbcf6c2a4	-0.030122109
31	0xbca399be	-0.01997077
32	0xbc861f0a	-0.016372222
33	0xbb4db4dd	-0.003138832
34	0x3c1ebe31	0.0096889
35	0xbae692f0	-0.0017591398
36	0x3ca37629	0.019953804
37	0xbcb9938c	-0.022653364
38	0xbc81e2c5	-0.015855202
39	0x3be3ca6b	0.0069516203

conv_time_spat.conv_spat.weight f4 [40, 40, 1, 22]
0	0x3d824da3	0.06362464
1	0x3d9d5b01	0.07683373
2	0xbd12d79a	-0.035850145
3	0xbda8421f	-0.082157366
4	0xbd887b2c	-0.06664118
5	0xbd78883e	-0.060676806
6	0x3d4cce88	0.05000165
7	0x3c9a751c	0.01885467
8	0x3d273014	0.040817335
9	0xbce346c2	-0.0277437
10	0x3d8db896	0.069199726
11	0x3d01cbad	0.03168838
12	0xbc90f868	-0.017696574
13	0x3d479f52	0.048735924
14	0x3de36dbd	0.11104915
15	0xbd2e6576	-0.04257723
16	0x3d848411	0.06470502
17	0x3d7006fe	0.05860042
18	0xbbdb2f65	-0.0066889995
19	0x3bec0e5b	0.0072038597
20	0xbd299d8c	-0.041410014
21	0xbdb13a55	-0.08653704
22	0x3d4f4f26	0.05061259
23	0xba0bec17	-0.00053376093
24	0x3d8f47b6	0.069961
25	0x3d1f7a23	0.038934838
26	0xbce19a01	-0.027539255
27	0x3c965c36	0.018354516
28	0x3df71027	0.12063628
29	0x3bac44f2	0.0052572424
30	0xbd507262	-0.050890334
31	0xbda347b4	-0.07972661
32	0xbc553194	-0.013012309
33	0xbd914a2f	-0.070942275
34	0xbd43f1b1	-0.047837917
35	0xbc465d74	-0.012107242
36	0xbd9f8dc4	-0.077907115
37	0xbdc2d8af	-0.09513985
38	0x3d450010	0.048095763
39	0x3b70825c	0.0036698794
40	0xbd107807	-0.035270717
41	0xbcc9be59	-0.024626898
42	0x3d59042e	0.0529825
43	0xbbcb9a14	-0.006213436
44	0xbb0d0394	-0.0021517025
45	0xbd689626	-0.056783818
46	0x3bad5d49	0.0052906615
47	0x3cb65e3d	0.022261733
48	0xbc5b85a8	-0.013398565
49	0xbbc39ede	-0.005969866
50	0xbdd0ca6d	-0.1019486
51	0x3b7ff20b	0.003905418
52	0x3d20fd94	0.03930433
53	0x3e01127f	0.12604712
54	0xbd483101	-0.04887486
55	0x3d43ec61	0.04783285
56	0x3d0671a3	0.032823216
57	0xbd58e2a5	-0.05295052
58	0xbb5f34c3	-0.0034058548
59	0x3dab0614	0.08350769
60	0xbbe0a264	-0.006855296
61	0x3c97ee65	0.018546293
62	0x3d15345d	0.03642689
63	0x3c07a3ac	0.0082787685
64	0x3d06d31b	0.03291617
65	0x3c0ee59a	0.0087217335
66	0xbbd1bfa2	-0.0064010182
67	0x3daffe76	0.085934564
68	0x3cfba9e3	0.030720657
69	0xbcdc6fbd	-0.02690875
70	0xbd48fa00	-0.049066544
71	0xbd6047cc	-0.05475597
72	0x3d827751	0.06370414
73	0x3db72655	0.08942858
74	0x3d685428	0.056720883
75	0xbca8e6d5	-0.020617882
76	0x3d4e4c33	0.050365638
77	0x3d51904f	0.051163014
78	0xbba6adbe	-0.0050866297
79	0xbda4c8aa	-0.08046086
80	0x3c443107	0.01197458
81	0x3d5872a8	0.05284372
82	0x3c0c2409	0.008553513
83	0x3dc731a3	0.09726264
84	0xbcea2442	-0.028581742
85	0x3cbafd85	0.022825966
86	0x3d11a63b	0.03555892
87	0xbd4a734a	-0.049426354
88	0xbcce1a74	-0.025159098
89	0xbd03f252	-0.032213517
90	0xbd18084d	-0.03711729
91	0xbcfea2b6	-0.031083446
92	0xbd004b14	-0.0313216
93	0xbc3ab3cb	-0.011395405
94	0xbe22c301	-0.158947
95	0xbdb2782a	-0.08714326
96	0xbb90382e	-0.0044012284
97	0x3d825c0b	0.06365212
98	0x3cc22139	0.023697482
99	0xbcff0ee2	-0.031135026
100	0xbb9352e1	-0.004495964
101	0x3cd357a5	0.025798628
102	0x3b1d3a4b	0.0023991044
103	0x3db76aeb	0.0895594
104	0x3bbbcb77	0.005731042
105	0xbd331b46	-0.04372718
106	0x3d4464ec	0.04794781
107	0x3c06f9c4	0.00823826
108	0xbd438b52	-0.047740288
109	0xbc711bc4	-0.0147160925
110	0xbc7dc7d2	-0.015489535
111	0xbccca27a	-0.024979819
112	0x3d3be82c	0.045875713
113	0x3dd18bfc	0.10231778
114	0x3d43ae6b	0.04777376
115	0x3d1d78ba	0.038445212
116	0xbddd8b72	-0.10817613
117	0xbd67e45d	-0.05661427
118	0xbca3554e	-0.019938137
119	0x3d7c4988	0.061593562
120	0x3d3fa325	0.046786446
121	0x3c486d46	0.012233084
122	0xbded302f	-0.11581456
123	0xbbaafc24	-0.005218046
124	0xb90ad9a0	-0.00013241777
125	0xbb92733e	-0.0044693043
126	0xbdca47fa	-0.0987701
127	0xbd581fa9	-0.05276457
128	0x3cccc225	0.02499492
129	0x39931428	0.00028053042
130	0xbd8361b6	-0.06415121
131	0x3d28705c	0.04112278
132	0xbd9b130f	-0.075719945
133	0xbcbc1d15	-0.022963086
134	0xbdd47c45	-0.10375265
135	0xbd914c03	-0.07094576
136	0xbd0ab274	-0.033861592
137	0xbd5822ac	-0.05276744
138	0x3da675d5	0.081279434
139	0x3c076a8b	0.008265148
140	0x3c88b730	0.016688913
141	0x3d3505a0	0.044194818
142	0x3c911cb0	0.017713875
143	0x3da0ad7b	0.07845589
144	0xbd40b16d	-0.047044206
145	0x3d07bd44	0.033139482
146	0xbbacfd95	-0.005279253
147	0x3df23ee9	0.118284054
148	0x3b99c70c	0.0046929177
149	0x3d76b9f7	0.060235944
150	0x3d912a82	0.07088186
151	0x3d4022ab	0.046908062
152	0xbd2253dd	-0.03963076
153	0xbcb482ff	-0.02203512
154	0xbd0ad37c	-0.033893093
155	0xbca2f7e6	-0.019893598
156	0xbd97f190	-0.07419121
157	0xbc7450eb	-0.0149118705
158	0xbcfbf35e	-0.030755695
159	0x3c85a6ca	0.016314883
160	0xbdb052b0	-0.086095214
161	0xbd4e5235	-0.050371367
162	0xbce1b8ea	-0.027553994
163	0x3db29a87	0.0872088
164	0x3cfd8f1c	0.030952029
165	0x3d55bbfd	0.052181233
166	0x3ca06562	0.019579593
167	0x3cfdda08	0.030987754
168	0xbc898f93	-0.016792094
169	0xba44d3c4	-0.0007508362
170	0xbcf5622b	-0.029954037
171	0xbde8d4f3	-0.11368742
172	0x3dab05d7	0.08350723
173	0xbd8fca7b	-0.07021042
174	0x3c801294	0.015633859
175	0x3ce6bea1	0.02816707
176	0x3c5f5464	0.01363096
177	0x3d839339	0.06424565
178	0x3d5f3da8	0.05450216
179	0x3c9d67fe	0.019214626
180	0xbcac9ccf	-0.021070866
181	0x3ca000f3	0.019531703
182	0x3e034255	0.12818272
183	0x3daa7003	0.08322146
184	0xbd4b6409	-0.049655948
185	0xbc8ee0e4	-0.01744122
186	0x3c3b6bac	0.011439245
187	0x3d086bd2	0.03330595
188	0xbd7c8339	-0.06164858
189	0xbd154f6a	-0.03645269
190	0xbdc67065	-0.09689406
191	0xbd0d1e18	-0.034452528
192	0x3cd46dc0	0.02593124
193	0x3d929afb	0.071584664
194	0xbd4c56ab	-0.04988734
195	0xbcb11773	-0.021617627
196	0xbd17c238	-0.037050456
197	0x3d06d5d5	0.03291877
198	0xbdfca791	-0.12336648
199	0xbc4c399f	-0.01246491
200	0xbd05df4d	-0.03268366
201	0xbcc9c411	-0.024629625
202	0xbd1284ea	-0.035771288
203	0xbd77660e	-0.06040006
204	0x3d67ec93	0.0566221
205	0x3cd84a3a	0.026402581
206	0xbcabcdf1	-0.020972224
207	0x3bd8e339	0.006618884
208	0x3d44a171	0.048005525
209	0x3d803b0d	0.06261263
210	0x3db42046	0.08795218
211	0x3d6255f9	0.05525777
212	0x3c842662	0.016131584
213	0x3d2458bf	0.040123697
214	0x3c6b0d90	0.014346495
215	0x3db22a0e	0.086994275
216	0x3c921415	0.017831841
217	0xbd02bb7b	-0.031917077
218	0xbd8d40fc	-0.068971604
219	0xbdcb7c52	-0.099358216
220	0xbd095ec7	-0.033537652
221	0xbdc2261a	-0.094799235
222	0xbd5c1168	-0.053727537
223	0xbd0577e5	-0.032585043
224	0x3d99bff8	0.07507318
225	0xbd6f60d8	-0.058441967
226	0xbc590dc8	-0.013247915
227	0xbe06a981	-0.13150598
228	0xbcbc21f2	-0.022965405
229	0x3daab9c6	0.08336215
230	0xbbb33e6c	-0.0054700878
231	0xbcf30fd5	-0.029670635
232	0x3d5a165c	0.05324398
233	0xbd98bb57	-0.07457607
234	0xbbb30977	-0.005463775
235	0xbc8d8470	-0.017275065
236	0xbb678a32	-0.0035330174
237	0xbcfad87b	-0.030620804
238	0xbc375b83	-0.011191252
239	0xbdaf3dfe	-0.08556746
240	0x3c7b2594	0.015328784
241	0xbc2738ed	-0.010206443
242	0x3d91813c	0.071047276
243	0xbdbb106a	-0.0913399
244	0x3c8aef67	0.016959859
245	0xbc799a69	-0.015234568
246	0xbc77d4a1	-0.015126378
247	0xbacc0dbc	-0.0015568058
248	0x3c9ed0ac	0.019386612
249	0xbc9aa687	-0.018878235
250	0x3c95b108	0.018272892
251	0xbcba3e30	-0.022734731
252	0x3d61abee	0.055095606
253	0xbd6dbbe8	-0.05804053
254	0x3dd9a74b	0.10627612
255	0xbd262a83	-0.040567886

bnorm.weight f4 [40]
0	0x3f8445e5	1.033383
1	0x3f8387b8	1.0275793
2	0x3f84e6c2	1.0382922
3	0x3f898811	1.0744649
4	0x3f81ef50	1.0151157
5	0x3f8a82cf	1.082117
6	0x3f850c56	1.039439
7	0x3f84ac25	1.0365034
8	0x3f830c25	1.0238081
9	0x3f84bde9	1.0370456
10	0x3f88f44a	1.0699551
11	0x3f84ac7f	1.0365142
12	0x3f83c283	1.0293735
13	0x3f83b778	1.0290365
14	0x3f89eadc	1.0774798
15	0x3f873094	1.05617
16	0x3f829183	1.0200657
17	0x3f840b29	1.0315906
18	0x3f87579c	1.0573611
19	0x3f86a7d4	1.0519967
20	0x3f84efa8	1.0385637
21	0x3f852690	1.0402393
22	0x3f880598	1.0626707
23	0x3f82c273	1.0215591
24	0x3f82d4c9	1.0221187
25	0x3f852097	1.0400571
26	0x3f8e4a05	1.1116339
27	0x3f844bfc	1.0335689
28	0x3f8214ff	1.0162657
29	0x3f82cd0f	1.0218829
30	0x3f85ab32	1.044287
31	0x3f825f9e	1.018543
32	0x3f846904	1.0344548
33	0x3f862562	1.0480158
34	0x3f849d03	1.0360416
35	0x3f85f237	1.0464543
36	0x3f85035c	1.039165
37	0x3f8445c2	1.0333788
38	0x3f8bb7d0	1.091547
39	0x3f82e38b	1.0225691

bnorm.bias f4 [40]
0	0xbdec5832	-0.115402594
1	0xbd800012	-0.062500134
2	0x3d592993	0.053018164
3	0x3df6e501	0.12055398
4	0x3e2d5f4b	0.16930883
5	0xbd4ffadc	-0.050776348
6	0xbdbfe7fc	-0.093704194
7	0xbca6ca32	-0.020360086
8	0xbdef94ff	-0.116983406
9	0x3e0f2e88	0.13982594
10	0x3e07db1f	0.13267182
11	0x3dcb6ebe	0.09933232
12	0x3e04d573	0.1297205
13	0x3d07bd26	0.03313937
14	0xbd8cd26d	-0.06876073
15	0xbdc499b7	-0.09599631
16	0xbe4cfa51	-0.20017363
17	0x3cccf907	0.02502109
18	0xbd21a125	-0.03946032
19	0xbde7c9cc	-0.113177866
20	0x3de4734d	0.111548044
21	0xbddb379e	-0.107039675
22	0x3e219b86	0.15781984
23	0x3d2ed03e	0.042679064
24	0xbdf694a2	-0.12040068
25	0xbdcc031e	-0.09961532
26	0x3de7ba9e	0.11314891
27	0x3e273fd7	0.16332947
28	0xbdcffbcc	-0.10155448
29	0xbddde4ec	-0.10834679
30	0xbcd7f553	-0.026362097
31	0xbe01b192	-0.12665394
32	0x3dcf45a9	0.101207085
33	0xbe00ac66	-0.12565765
34	0x3e1560df	0.14587735
35	0xbce76970	-0.028248519
36	0x3dd1be5d	0.10241387
37	0x3daa1d31	0.08306349
38	0x3db22f33	0.08700409
39	0xbe552a9a	-0.20817032

bnorm.running_mean f4 [40]
0	0x3df61008	0.120147765
1	0x3ba80ec4	0.0051287133
2	0xbd6c64d1	-0.057713334
3	0x3c4d4a49	0.012529918
4	0x3d35bafa	0.044367768
5	0xbaeddf8c	-0.0018148287
6	0xbd5eab3f	-0.05436253
7	0xbc8dd71b	-0.017314484
8	0x3c8fedd4	0.01756946
9	0xbb1ef91f	-0.0024257374
10	0x3cf77385	0.030206451
11	0x3d2d71b4	0.042344764
12	0x3cde7b0e	0.027158286
13	0xbb543f7a	-0.0032386468
14	0x3c250385	0.01007164
15	0x3ca1386d	0.019680226
16	0xbb1c1916	-0.0023818663
17	0xbd20410d	-0.039124537
18	0xbd4be0a5	-0.049774785
19	0x3d9519b7	0.07280295
20	0xbcf8796e	-0.03033134
21	0xbc75ac7a	-0.014994735
22	0xbbad32a6	-0.005285579
23	0x3cbcaa03	0.023030287
24	0x3d568b06	0.052378677
25	0x3e5b874a	0.21438327
26	0x3c074413	0.008255976
27	0xbdf02dde	-0.117274985
28	0x3d72dd14	0.059292868
29	0xbd45d336	-0.04829713
30	0x3d578d2a	0.05262486
31	0x3d2b292d	0.041787315
32	0xbd860a03	-0.06544878
33	0x3d4430eb	0.047898214
34	0xbb897ab9	-0.004195538
35	0x3dcfc23e	0.10144471
36	0x3acdf843	0.0015714247
37	0x3d5b7f49	0.053588185
38	0x3adf3ba9	0.001703133
39	0x3d7b8dc1	0.061414484

bnorm.running_var f4 [40]
0	0x3f254d5b	0.6457116
1	0x3ecafd8c	0.39646566
2	0x3f29490f	0.66127104
3	0x3eaa3fe1	0.3325186
4	0x3f2d4dd6	0.67696893
5	0x3e2f6044	0.17126566
6	0x3f0cb99c	0.5497072
7	0x3ed6b291	0.4193311
8	0x3f0f3428	0.5593896
9	0x3e7b2474	0.24525625
10	0x3ea642bb	0.32472786
11	0x3ecf207c	0.4045447
12	0x3eeb6907	0.45978567
13	0x3eafd8e9	0.34345177
14	0x3ea06cc5	0.31332985
15	0x3e909581	0.28239062
16	0x3e91daf3	0.28487357
17	0x3f0dac4d	0.55341035
18	0x3eea5f8b	0.45776019
19	0x3f195cad	0.59907037
20	0x3f0e9856	0.55701196
21	0x3ee408f5	0.44538084
22	0x3f1a7c85	0.6034625
23	0x3eca0b55	0.3946177
24	0x3ee1b828	0.44085813
25	0x3f8b95f1	1.0905133
26	0x3eacd8ba	0.337591
27	0x3f1dfff9	0.6171871
28	0x3ec921a6	0.39283484
29	0x3f3ddb1b	0.74162453
30	0x3f16e3df	0.58941454
31	0x3f055e80	0.5209732
32	0x3eee4ea3	0.4654437
33	0x3eb99e95	0.362538
34	0x3f02d0da	0.5109993
35	0x3f0b3666	0.5437988
36	0x3f01535d	0.5051783
37	0x3f2cbd79	0.6747661
38	0x3e78bb69	0.24290241
39	0x3f155787	0.5833668

final_layer.conv_classifier.weight f4 [4, 40, 69, 1]
0	0x3c9ea13f	0.019363998
1	0x3d461d32	0.048367687
2	0x3c383779	0.011243694
3	0xbc1faaeb	-0.00974534
4	0x3ad0fd37	0.0015944605
5	0x3daa4957	0.0831477
6	0x3d8aa2d5	0.06769339
7	0x3d08fef1	0.033446256
8	0x3d6711df	0.056413528
9	0x3d3dd9f1	0.046350423
10	0x3cfab865	0.030605504
11	0x3d3ab106	0.04557898
12	0x3d9c681b	0.07637044
13	0x3d1accc4	0.037792936
14	0x3ce6567f	0.028117416
15	0xbbb88608	-0.005631212
16	0xbd20cd81	-0.039258484
17	0xbd502c30	-0.05082339
18	0xbcbf6bcd	-0.023366833
19	0x3d59fc7c	0.053219303
20	0x3c941f04	0.018081196
21	0x3d24730b	0.040148776
22	0x3c845ec1	0.016158463
23	0x3c27e99d	0.010248569
24	0xbc43b1aa	-0.011944214
25	0x3c9bb3bd	0.019006604
26	0x3d684d11	0.05671412
27	0x3d704fd8	0.058669895
28	0xbbae4ef7	-0.005319472
29	0x3cad9eac	0.021193825
30	0xbbff2834	-0.007786775
31	0x3c3f43b3	0.011673856
32	0x3d6a34bf	0.05717921
33	0xbbb1e479	-0.0054288474
34	0x3b8d6701	0.0043152575
35	0x3d1c2680	0.038122654
36	0x3c11929e	0.008885054
37	0x3cccb562	0.024988834
38	0xbd07d4f1	-0.03316206
39	0x3cadda89	0.02122237
40	0xbd7af94c	-0.061272904
41	0xbceac90c	-0.02866032
42	0xbd0150b8	-0.03157112
43	0xbbc5a410	-0.0060315207
44	0xbd2f1440	-0.04274392
45	0x3cc63a35	0.024197677
46	0x3cd9a94b	0.026569983
47	0x3d2160ac	0.039398834
48	0x3d2c04f2	0.041996904
49	0x3d8e331d	0.06943343
50	0x3d3231f8	0.043504685
51	0x3d1b4bd5	0.037914116
52	0x3d9ded70	0.07711303
53	0x3d34b87f	0.04412126
54	0x3c7b3288	0.015331872
55	0xbd0f2aa3	-0.03495277
56	0xbceaf4b7	-0.028681142
57	0xbc5b7a5b	-0.013395871
58	0xbc959024	-0.018257208
59	0xbd3d1ce6	-0.046170138
60	0xbd67f565	-0.05663051
61	0xbda5c7b9	-0.08094735
62	0xbd171101	-0.03688145
63	0xbd339587	-0.043843772
64	0xbcb9f9f5	-0.022702197
65	0x3d2b86ba	0.041876532
66	0x3c2f981b	0.010717417
67	0x3ce1e863	0.027576631
68	0x3cb40fd2	0.0219802
69	0xbcb48f5f	-0.02204102
70	0xbc89857e	-0.016787287
71	0x3bc5f09c	0.0060406458
72	0x3a4938c8	0.00076760026
73	0xbbcd4874	-0.0062647406
74	0x3d7c5347	0.061602857
75	0x3e53713f	0.20648669
76	0x3de0e9a7	0.10982066
77	0x3db8fcd0	0.09032595
78	0x3d480503	0.048832905
79	0x3d8a1099	0.06741447
80	0x3b61b7fc	0.0034441939
81	0xbccb4716	-0.02481417
82	0xbcb5064c	-0.02209773
83	0x3b144480	0.0022623837
84	0x3cd5d44d	0.02610221
85	0xbd49bd4f	-0.049252804
86	0xbb612d00	-0.0034359097
87	0x3c3485ed	0.0110182585
88	0x3c89f9a8	0.016842678
89	0xbd10605e	-0.035248153
90	0x3d1a1aed	0.037623335
91	0x3d64dac0	0.05587268
92	0x3d42978e	0.047507815
93	0xbbdde742	-0.006771953
94	0x3cf452d0	0.029824644
95	0x3cd49ea8	0.02595456
96	0xbb9af935	-0.004729415
97	0x3cac462f	0.02102956
98	0x3cc61ad3	0.024182713
99	0x3c9d20ba	0.019180644
100	0x3d869ce4	0.06572893
101	0x3c675141	0.014118494
102	0x3cf5a18d	0.02998426
103	0x3d54e273	0.05197377
104	0x3ca4171e	0.020030554
105	0xbc91885e	-0.01776522
106	0x3beca3ad	0.00722166
107	0xbd8050e1	-0.062654264
108	0xbcee8e62	-0.029120628
109	0xbdb17d98	-0.08666533
110	0xbda094ad	-0.07840858
111	0xbd52bc67	-0.051449206
112	0xbd22ee18	-0.039777845
113	0xbd7c61a9	-0.061616573
114	0xbca9c10b	-0.020721933
115	0xbd91dabd	-0.07121799
116	0xbb35aca3	-0.0027721308
117	0x3d34dc14	0.044155195
118	0x3d865545	0.065592326
119	0x3d635103	0.05549718
120	0x3d46deb1	0.04855222
121	0x3d639d03	0.05556966
122	0x3d3ca85f	0.04605901
123	0x3ccedf28	0.025252894
124	0x3c73f4d0	0.014889911
125	0x3c983ead	0.018584574
126	0x3d53eae0	0.051737666
127	0x3d9fa167	0.07794457
128	0x3dd1c6b2	0.10242976
129	0x3dbe34d4	0.0928742
130	0x3de82f9a	0.11337204
131	0x3cfc5d11	0.030806096
132	0xbb0d97e8	-0.0021605436
133	0xbc6ba235	-0.014381935
134	0xbb3c2edd	-0.0028714456
135	0xbdd0cd05	-0.10195354
136	0xbd99ec98	-0.0751583
137	0xbcd03afc	-0.025418751
138	0xbd79b9f0	-0.06096834
139	0x3bb90344	0.0056461412
140	0xbd1c651c	-0.038182363
141	0xbc725595	-0.014790912
142	0xbcb76e2e	-0.022391405
143	0xbd401053	-0.046890568
144	0xbd726d9b	-0.05918656
145	0x3c543208	0.0129513815
146	0x3c1048f8	0.00880646
147	0xbb8aa5f8	-0.004231211
148	0x3ce357fb	0.027751913
149	0x3d379d18	0.04482755
150	0xbd350486	-0.044193767
151	0xbcd6f593	-0.026240146
152	0xbd3eee1a	-0.04661379
153	0xbce87001	-0.02837372
154	0xbd83cdfc	-0.06435773
155	0xbd4215e4	-0.047384158
156	0xbd92db1f	-0.071707
157	0xbcf4b836	-0.029872995
158	0xbc96bc13	-0.018400228
159	0x3c2470e3	0.01003668
160	0xbd223f96	-0.03961142
161	0xbafb4589	-0.0019170503
162	0xbd17118f	-0.03688198
163	0xbd2bba74	-0.041925862
164	0xbd0f0252	-0.034914322
165	0x3d139c6c	0.036037847
166	0x3d39a761	0.04532564
167	0x3dbb1cf6	0.09136383
168	0x3d849010	0.0647279
169	0x3d0250ad	0.03181522
170	0x3d97ef05	0.07418636
171	0x3d66718c	0.05626063
172	0x3d894325	0.0670226
173	0x3ce437ab	0.027858576
174	0x3c7be049	0.015373298
175	0x3b619eaa	0.0034426847
176	0xbbbb3c4f	-0.0057139765
177	0x3c0d381c	0.008619335
178	0xbc37eb0a	-0.011225471
179	0x3b668663	0.0035175316
180	0x3cef3e04	0.029204376
181	0x3cdac49f	0.026705084
182	0x3d440abd	0.047861803
183	0x3d7b1e45	0.061308164
184	0x3d648801	0.055793766
185	0x3db6bd88	0.08922869
186	0x3c3791fa	0.011204237
187	0xbb4fa215	-0.0031682302
188	0xbcc8fdd7	-0.024535103
189	0xbcb95961	-0.022625627
190	0xbd65a08b	-0.05606131
191	0xbcc3d0a5	-0.0239032
192	0xbd32ebdf	-0.043681975
193	0xbd3ee044	-0.046600595
194	0xbcf2b81c	-0.029628806
195	0x3d1c7c1c	0.038204297
196	0x3d8a9a1e	0.06767677
197	0x3d9fb754	0.07798639
198	0x3c8ff016	0.017570537
199	0x3ced0ffc	0.028938286
200	0xbd0e1625	-0.034689087
201	0x3c41d6f7	0.011831037
202	0x3cec1cee	0.028822388
203	0x3da63f35	0.081175245
204	0x3d0f1243	0.034929525
205	0x3d34342a	0.04399506
206	0xbc94cddf	-0.018164573
207	0xbcb5cf64	-0.022193618
208	0xbbc42e51	-0.0059869667
209	0xbcccc22e	-0.024994936
210	0x3bc312ad	0.005953154
211	0xbd5a62c6	-0.053316854
212	0xbd3bcd8a	-0.045850314
213	0xbcbfce4d	-0.023413802
214	0x3d29390a	0.041314162
215	0x3ce55b43	0.027997619
216	0x3cc02cf5	0.023458937
217	0x3c92b319	0.017907666
218	0x3cd3e7ec	0.025867425
219	0xbcc6025d	-0.024171049
220	0x3b17df2e	0.0023173797
221	0x3caa57a4	0.020793743
222	0x3cba230c	0.02272179
223	0x3c3859f7	0.011251918
224	0xbd063584	-0.03276588
225	0xbc3147b6	-0.01082032
226	0xbbbe050d	-0.005798942
227	0xbd40c212	-0.04706008
228	0xbd2a4742	-0.041571863
229	0xbbea0f06	-0.007142904
230	0xbc9f5b35	-0.01945267
231	0x3c46a9a0	0.012125403
232	0x3b861efe	0.00409305
233	0x3ca4e6b6	0.020129543
234	0x3afdbe30	0.0019359048
235	0x3cb07c85	0.02154375
236	0x3d27a6cb	0.04093055
237	0x3d0f5574	0.034993604
238	0x3df55154	0.11978403
239	0x3de0a555	0.109690346
240	0x3e148899	0.14505233
241	0x3d97ba54	0.07408586
242	0x3d9407b3	0.07228031
243	0x3d4c0ebc	0.04981874
244	0x3d56bd6f	0.05242675
245	0x3c9a258e	0.018816736
246	0x3d0c63ca	0.034274854
247	0x3ce051dc	0.027382784
248	0x3cd121a5	0.025528738
249	0x3c85976c	0.016307555
250	0x3c2456dc	0.0100304745
251	0x3d42570f	0.047446307
252	0x3b63c7a3	0.0034756444
253	0x3d767be5	0.06017675
254	0x3d9011e6	0.07034664
255	0x3d2416b9	0.040060733

final_layer.conv_classifier.bias f4 [4]
0	0x3c5a781e	0.013334302
1	0xbc139d53	-0.009009677
2	0xbcac705d	-0.021049673
3	0x3c922399	0.01783924
