result_eegnetecasca_cv5/fold_1/best_model_fold1.pth (torch, 24202 bytes, 21 tensors)

conv_time.weight f4 [8, 1, 1, 64]
00000000: 6345 9e3d fac2 bbb9 e4e9 243e e50c c13c
00000010: fa09 6ebc f765 c6bc 2e45 a63d 69ea a7bd
00000020: 155e 103d ad09 acbc 8c53 673d 8aaa d8bd
00000030: 3bba a13c 12f4 1b3d e74d 133d 5043 873d
00000040: f7fa 8ebb f9d0 0abd 12ec e83d 0520 1abd
00000050: 6363 3cbd 383d c23d 50d5 46bc 02df e43d
00000060: b861 97bd 5d69 c33d e2bd 273d 14ed b33c
00000070: 0d11 143e e30f 793c d178 bd3d f010 003d
00000080: fa5e e43d e5e1 ea3d 34aa 253e 8dad f3bb
00000090: 669f a83d 3287 433d 403a 213e a56c 283c
000000a0: 6283 753d 7b93 3c3e 1b3b 023e d2b7 083d
000000b0: 4b7d ce3d 232f f63d b97f 6f3d 264e 1b3c
000000c0: 14b6 403c d4eb 243e 6641 653d 20ce e13d
000000d0: f8b5 61bd 2700 0b3e f42b 973d 269d 343d
000000e0: 6a04 b23c 6845 913d b3c4 8f3c de93 c0bb
000000f0: a50f fd3c 507c f43d 7707 b2bd 6db7 9f3d
00000100: b5bc 08bd 343e 05be f42b 913d b799 013c
00000110: 0e32 33bd 3f96 8abb f5c0 083d f201 e33d
00000120: 525d 2e3e 318a 973d e6f0 a23b 7754 32bb
00000130: 0829 ab39 2aea 89bd df0f 36bd b5c5 a2bd
00000140: e4b6 333e 6988 323c d644 bb3c 155b fdbd
00000150: 4a75 c3bd 3c34 a7bc 5f62 52be 5ac3 12bc
00000160: f20b e13d dfe0 80bd 6eb5 b23d 9ae7 e23d
00000170: 5fbb 683d 9a0e e43b 5424 bc3d f12d c03d
00000180: 9203 413c 0167 8a3d 37db b3bc f51a 43bd
00000190: bb25 55bd c929 753d 6e29 b43d 3cac 823d
000001a0: 5969 ffbc b48b 42bd 7bb2 3dbe af43 20be
000001b0: cdd2 42be 3ca4 3c3c c9ab 52bd 3ef8 2e3e
000001c0: a45b 9b3d 2045 dc3d b0b4 ac3b 7128 613d
000001d0: 1b7b 7cbd 676a c4bc 6ff1 ab3c 86d8 283e
000001e0: 8f56 473d 4dc8 0dbc 1650 c83b 950d 5bbd
000001f0: 4319 0cbd 097c bcbd 2011 a6bd 9a38 b83c
00000200: 2bc3 a03d d37b 9dbd 51c8 703d 1ebe dbbc
00000210: 6da2 c73d 0a9c 20bd 1433 15bd 3b44 f7bb
00000220: 0d9e 5fbb 0a64 df3d 1fd1 82bd 6913 453c
00000230: 534d b6bc d24e a43d ec84 a83d 6159 5dbd
00000240: 2dac 8439 daa5 3ebc ec6f 93bd 63dc c43c
00000250: 855b 2f3d ec91 2cbe dd71 d5bd e0d7 943d
00000260: f3b2 34bc 81f8 6cbd 615e 573d c624 7bbd
00000270: 1470 d6bd 74f0 2ebe b1db ac3c a640 9cbd
00000280: 0439 e7bd b50b dbbd b843 d3bd 3d8a a63c
00000290: 4bb1 fa3c 6be7 af3c 52ff 93bd e38e f3bd
000002a0: e805 dcbd 9b13 1bbe c3d0 8cbd e7a6 40bd
000002b0: d31a eebd 3e3d 1fbe 3897 4a3d d6e3 fa3c
000002c0: c83e 96bd d8b7 b4bd c950 90bd b1cb 0cbe
000002d0: 381c ddbc d7f7 58bd 6d88 e9bd dc6a ddbd
000002e0: 1891 f8bc fc4e 8cbd beb2 583a 23c3 67bc
000002f0: 74f2 73bd e2b8 91bc a24d ffbd 41d2 82bd
00000300: 6f5b f73d 7e17 5dbd b01a f9bd 214b 47be
00000310: 0592 88bd e8d1 ffbd f291 e43d 6318 d03d
00000320: 4367 4e3d e99f 163d 0013 9dbb f9eb 4d3d
00000330: d0c9 00be 128b e5bd e298 2dbd 1060 2e3c
00000340: 1d6e dc3c 3b2e 1c3e a940 edbc 3dea 433d
00000350: 1324 08be bf0f 173d 47bf 643d bfa7 3abd
00000360: 5511 00be dcc5 d0bd 2c79 24bd cec3 25be
00000370: b908 78bd f371 4ebc a8f6 d23c 50dd 2e3e
00000380: 474d c4bb b3f5 913d 5886 a4bd 8b49 40bc
00000390: 608d be3d 06b8 94bd ead6 2dbd 422b de3d
000003a0: 8348 923d 7279 e6bd eb84 69bb b061 0abe
000003b0: 0e9d 11be 1d0b acbd 115c 3c3d 1a12 ebbc
000003c0: 6005 853d 2147 c43b 2b24 66bd 5483 bd3d
000003d0: 5447 9f3d 5cd7 c93d 02f1 60bd f30a 96bd
000003e0: 7d07 0f3d 3e7c 723b 6f01 babd 6fc5 14bd
000003f0: a9ee e6bd 659b af3c 9a3b 963d 8cdd ffbb
0.07728078 -0.00035812688 0.16104847 0.023565719 -0.014528746 -0.024218543 0.08118664 -0.08199007
0.035245974 -0.021000708 0.05647616 -0.10579403 0.019742122 0.03807456 0.035962965 0.06604636
-0.0043634134 -0.033890698 0.11373152 -0.037628192 -0.04599322 0.09484333 -0.012135819 0.11175348
-0.07391685 0.09541581 0.04095257 0.021963634 0.1445963 0.015201542 0.092515595 0.031266153
0.11150928 0.11468867 0.16178209 -0.0074364603 0.08233528 0.047736354 0.15744877 0.010279809
0.05993975 0.18415634 0.1271786 0.03337843 0.100824915 0.12020709 0.058471415 0.009479081
0.011762161 0.16105586 0.055970572 0.11025643 -0.05510518 0.13574277 0.0738143 0.04409518
0.02173062 0.07093316 0.017549848 -0.005877002 0.030891249 0.11937773 -0.0869283 0.077986576
-0.03338309 -0.1301201 0.070884615 0.007910184 -0.043748908 -0.0042293365 0.033387143 0.110843554
0.17027786 0.07399405 0.004972565 -0.002721099 0.00032646232 -0.067341164 -0.04444873 -0.07947866
0.17550236 0.0108967805 0.022859972 -0.12370888 -0.095438555 -0.02041065 -0.20545338 -0.008957708
0.109886065 -0.06292891 0.08726011 0.11079331 0.056819316 0.0069597485 0.091866165 0.09383763
0.011780636 0.06757928 -0.021955116 -0.04763313 -0.052037936 0.059854303 0.087969646 0.06380507
-0.031178163 -0.047496513 -0.18525116 -0.15650819 -0.19025727 0.011513766 -0.05143336 0.17086884
0.075858384 0.10755372 0.005270563 0.05497021 -0.06164084 -0.023976518 0.020989148 0.16488847
0.048666533 -0.008653712 0.0061130626 -0.05347975 -0.03420378 -0.09203345 -0.08108735 0.022487927
0.07849725 -0.07689633 0.058784787 -0.026824053 0.09747777 -0.03921131 -0.036425665 -0.0075459755
-0.0034121305 0.10907753 -0.06387543 0.0120285535 -0.022253668 0.08022846 0.08228478 -0.054040316
0.00025305283 -0.011636222 -0.07199082 0.02403087 0.04281189 -0.1685254 -0.10422108 0.072677374
-0.011028993 -0.05785418 0.05258024 -0.061314367 -0.10470596 -0.17083913 0.02110085 -0.07629518
-0.11290172 -0.10695592 -0.10315651 0.020329589 0.030602118 0.021472653 -0.07226433 -0.11892488
-0.10743314 -0.15144198 -0.06875756 -0.04703417 -0.1162621 -0.15550706 0.04946062 0.030626219
-0.07336193 -0.08824128 -0.070466585 -0.13749577 -0.026990995 -0.052970733 -0.11402974 -0.108113974
-0.030342624 -0.068510026 0.0008266381 -0.014145645 -0.059557393 -0.017788354 -0.12465979 -0.06387759
0.120779864 -0.053977482 -0.12163293 -0.19462253 -0.06668476 -0.12491208 0.11160649 0.101609014
0.050391447 0.036773596 -0.0047935247 0.05027387 -0.12576985 -0.11208166 -0.04238213 0.01064302
0.026907975 0.1525201 -0.028961496 0.04783081 -0.13295011 0.03688025 0.05584648 -0.04557013
-0.12506612 -0.10193989 -0.04015462 -0.16187975 -0.060555194 -0.01260041 0.02575238 0.17076612
-0.0059906575 0.071269415 -0.080334365 -0.011736284 0.09304309 -0.07261662 -0.042441286 0.108480945
0.07142737 -0.112536326 -0.0035632204 -0.13513827 -0.14220068 -0.08400557 0.04598624 -0.028695155
0.06495166 0.0059899245 -0.056186836 0.092535645 0.07777277 0.0985553 -0.054917343 -0.07326307
0.03491925 0.0037000324 -0.09082305 -0.0363211 -0.112759896 0.021436403 0.07335587 -0.007808393

bn1.weight f4 [8]
00000000: a6fb c43f ec7b ad3f b37f dc3e 661b a03f
00000010: 0a5a 9f3f 2388 a23f 69f7 7a3f b64e bf3f
1.5389297 1.3553443 0.43066177 1.2508361 1.2449353 1.2697796 0.9803377 1.4945896

bn1.bias f4 [8]
00000000: abbd 003a 0ab6 8abc eeed ce3b 3528 2c3c
00000010: 470b 313c 756b fa3b de8a 3b3c 3099 023c
0.0004911075 -0.016932506 0.0063149845 0.010507633 0.010805911 0.0076422044 0.011446683 0.007971093

bn1.running_mean f4 [8]
00000000: 8170 db39 0025 70b8 413a a7b9 2b36 8eb9
00000010: 3f10 9e38 611f 8239 c883 5639 0169 cf39
0.00041854757 -5.7254918e-05 -0.00031896125 -0.0002712471 7.537053e-05 0.0002481891 0.00020457723 0.0003956035

bn1.running_var f4 [8]
00000000: 8e7e b23e 6ef8 663f 4fb8 b03e 29ef d73e
00000010: a981 753f 750b 213f 134a 273f 875d 2c3f
0.3486218 0.90222824 0.34515616 0.42174652 0.9590097 0.6290811 0.65347403 0.6733021

sca.fc1.weight f4 [5, 22]
00000000: e269 0cbe 56a1 13bc 552c 2d3e aee8 233e
00000010: 0457 a6bd 132f 113e 922a d9bd fa94 3b3a
00000020: d143 e63d 3ec9 2dbe f5fc 5ebc 7197 46be
00000030: 3787 71be f15f dbbd 77f1 01be 2ec5 52bd
00000040: a382 8bbe af9d b1be 80af f1bd 7a8f f3bc
00000050: 43e3 22be e3a1 1bbc 9d2a b3bd 747c d7be
00000060: 58f0 ccbe fd22 31be fd9e c0bd becd aabe
00000070: ed0a 9bbe b32c efbe ac0c 5dbe b590 a7be
00000080: 5fb9 74bd 139d 50be 435a 5abe 8c82 54be
00000090: f8a8 8ebd 9f48 bebd 8bfe edbe b373 a9be
000000a0: fff8 aebe 3672 a6be 02e5 14bd 0ea9 4c3d
000000b0: 4460 9f3e 3642 dbbc e421 793e 8984 933e
000000c0: 5437 593e 03e3 5f3e f79c 96bd 3ae2 353e
000000d0: a5d9 1cbc 9285 723e 38be 8abd 9a43 16be
000000e0: ea76 d7bc ec89 40be dc88 e43b 78fa 14be
000000f0: 037e 8cbd a1df 993d 0f62 1dbd b6f0 5cbe
00000100: 3606 32be 034c 64be 2e30 5fbe a72d c4be
00000110: 4a9d 81be baa4 98bd 84b1 26be a39f d0be
00000120: 9175 8abe c7de 38be 8335 87be 7bf8 babe
00000130: 3b29 a9be 547e 4bbe c248 61bd e241 a7bd
00000140: d918 5bbe de8b 79be f34c 39be c4ac 06be
00000150: 3b8f f4bd 4c48 9abe 9d65 71be d0d1 fabc
00000160: c111 673e af35 ae3d b468 623e 8088 f23d
00000170: 1917 b13d 18fc ba3e 412c 05be 3a14 183e
00000180: 8161 c83d 60c8 0b3e e3b9 20bd 04d6 c33e
00000190: ed9b a83e c079 133c 07d3 5abe 53ab 9f3d
000001a0: c539 cf3d 762a 743d efcf 513d dea0 613c
000001b0: 92f8 44bd b144 48be
-0.13712266 -0.009010633 0.16911443 0.16006729 -0.08122066 0.14178114 -0.10603823 0.0007155683
0.11243404 -0.16971299 -0.013610114 -0.19393708 -0.23586737 -0.10711659 -0.12689768 -0.051457576
-0.27248105 -0.34690616 -0.11801052 -0.0297315 -0.15907006 -0.009499046 -0.08748362 -0.42087138
-0.40027118 -0.17298503 -0.094053246 -0.33360094 -0.30281773 -0.4671379 -0.21586865 -0.3272759
-0.059747096 -0.20372419 -0.21323495 -0.20752925 -0.06965822 -0.09291195 -0.46483263 -0.33096084
-0.34174344 -0.3250901 -0.03635121 0.04996591 0.31128132 -0.02676497 0.24329334 0.28812054
0.21212512 0.21863942 -0.073541574 0.1776208 -0.009573375 0.23683766 -0.067745626 -0.14674225
-0.02630182 -0.18802613 0.0069743227 -0.14548671 -0.06859972 0.07513357 -0.038423594 -0.21576199
-0.17385182 -0.22294621 -0.21795723 -0.3831608 -0.25315315 -0.07453294 -0.16278654 -0.40746793
-0.2704282 -0.18053733 -0.26408014 -0.365177 -0.3303927 -0.19872409 -0.055001028 -0.08166863
-0.21396197 -0.24369761 -0.1809576 -0.13151842 -0.119413815 -0.30133283 -0.23573919 -0.030617625
0.22565366 0.08506333 0.22110254 0.118424416 0.08646984 0.36520457 -0.13005163 0.14851466
0.097842224 0.13650656 -0.039239775 0.38249218 0.32931462 0.009001195 -0.21369563 0.077963494
0.101184405 0.059610806 0.05122369 0.013771264 -0.048088618 -0.19557454

sca.fc2.weight f4 [22, 5]
00000000: 259f 41be ba6c a9be 4722 a63e 1dd5 03be
00000010: 20e8 08bf f59e 993e f78e 9f3e 7f73 653d
00000020: c87a 9abe b8d5 683d 3e9f 873e a98b 953e
00000030: 31f6 ef3c 34aa 96bd 3190 313e fef9 363e
00000040: 1f4e 8abe 207d 073e 99ac 5bbe c840 bcbe
00000050: 7c73 7a3c a7f8 bb3e cc6e 713d 4722 cbbd
00000060: 3732 f7be cba6 e9be ebbf 833e 4d84 f23c
00000070: 566d e13c daed 743e e427 47be 748b 19bf
00000080: 3864 b23e 8602 06bf 03ca ae3e 32f5 883e
00000090: 35e6 0fbe fcc4 89be 21b8 debd 6f02 e0bd
000000a0: 5455 90be 1950 a53e b11c 983e 16cb 23bb
000000b0: c10f 6c3e 2c2a f9be 29de 9a3e 976b 2fbe
000000c0: 669a 703d 582a d5be 0935 11be a790 923e
000000d0: fb64 6cbe 2e2e f9bd 77c7 8c3e 8275 61be
000000e0: ab8e 32bf a20a a23e 4c52 b0be deaa 863d
000000f0: 692c 0f3e bafc 17be 6084 6a3e 181b c83e
00000100: 0a0e 7a3e 43b9 863c fcbd 143e a0e0 d93e
00000110: a1bc a73e 0cae b63e 6c8f a03e 0ac1 9b3e
00000120: 161d 8bbe 0519 7b3d 6716 01be 3fe2 24bd
00000130: deb0 74be e86f dabd 193f 12bd f3bf bd3e
00000140: 597a 8b3e fbed 3a3e 8eb0 f63e 4138 643d
00000150: d72b 2f3e 2fe6 f13d ecc2 c3bc afca 4a3f
00000160: aed1 923d 5f39 a63d 8d17 213e f5c0 b73e
00000170: c763 2fbe 4445 8f3e fda3 d4bd ed27 19bf
00000180: 0ffd 093e 86f1 1cbe 18cc fabd d52c 9dbe
00000190: a976 ff3e 064c f23e 0268 e7be 1b18 de3e
000001a0: ff17 01bf 6cbf 543e bc53 2c3d 7107 23bf
000001b0: 2397 b8be 14b2 53be
-0.18908365 -0.33090764 0.32448027 -0.12874265 -0.53479195 0.30004087 0.3116376 0.05601835
-0.301718 0.056844443 0.2648868 0.29208115 0.029292198 -0.073566824 0.17340161 0.17868802
-0.27012727 0.13231325 -0.2145256 -0.36768174 0.015286323 0.36713144 0.058943555 -0.09918647
-0.48280498 -0.45635065 0.2573236 0.029604102 0.027517956 0.23918858 -0.19448811 -0.59978414
0.34842086 -0.523476 0.34138498 0.2674957 -0.14052661 -0.269081 -0.108749636 -0.10937964
-0.281901 0.32287672 0.2970939 -0.0024992875 0.23052885 -0.48664987 0.3024762 -0.17130886
0.058740996 -0.41633868 -0.14180388 0.28625986 -0.23085396 -0.12167011 0.2749593 -0.22017482
-0.69748944 0.31648737 -0.34437788 0.06575559 0.13981785 -0.14842501 0.2290206 0.3908317
0.24419418 0.016445762 0.14525598 0.42554188 0.327611 0.35679662 0.31359422 0.30420715
-0.27170628 0.061303157 -0.12606202 -0.040254828 -0.23895594 -0.10665876 -0.035704706 0.37060508
0.2724178 0.18254845 0.48181576 0.05571771 0.17106567 0.11811482 -0.023896657 0.7921552
0.071688995 0.081164114 0.1573164 0.35889402 -0.17127906 0.27982533 -0.10382841 -0.59826547
0.1347544 -0.15326509 -0.12245959 -0.30698267 0.49895218 0.47323626 -0.4519654 0.43377766
-0.5042724 0.20776147 0.042072043 -0.6368323 -0.36052808 -0.206734

conv_depth.weight f4 [16, 1, 22, 1]
00000000: b592 543d 05dc 883d f885 95bd 611b 1b3c
00000010: 9acc 763d 054a dabd 0c20 61bd 204c edbd
00000020: 7050 0a3d 5448 60bd 9fbc c53d 7139 a0bd
00000030: 9d8c b83d 4027 4f3e 335c 0c3d c3a1 51be
00000040: 17e8 55bc 3d42 863a 1d55 983e f0c2 f3bd
00000050: c561 8a3d 4306 5abe c8b7 b4bd c94d b13c
00000060: d5ac 44bd 55f9 c33d c86a 39be 1eb8 c23d
00000070: d9d4 11be 4579 e8bd 08dd 583e fadb 03be
00000080: 7aa3 9b3d 5f9b ac3d 6f2e 69bd ba37 5f3e
00000090: 51a2 a0bb 492e 4d3d ef35 863c 4a79 df3d
000000a0: 5065 153e 9db3 c5bc 7593 cdbd e837 b5be
000000b0: b306 03be fe9a 163e dba3 363e aad3 053e
000000c0: 916e 0abe c1ff 38bd 89f9 aa3d 5b17 2ebe
000000d0: c773 ec3d 0a1f 083e 9fac ce3d 8e11 78bd
000000e0: 79d0 e13d d2d6 52be 07c3 b6bd deb4 07bd
000000f0: 18e5 023e f0f9 c7bd d5cc 84be d826 ab3d
00000100: 646e cbbb 93a3 a93d 891f 6fbd 79aa d2bc
00000110: 3f6e e03d 8fcb bb3b f356 813e 98ed 893d
00000120: 3ad4 ac3c c5dc 71bc e0b3 3ebe 732d 183e
00000130: 62ac bf3d 5814 64be bd03 903d 7dca de3d
00000140: 76dc 65bd 4436 a43d 320b 59be b7bf a2be
00000150: 3f4c 50bd b445 913d 2c55 a93d 26b4 533d
00000160: 8de5 e1bd 41b3 413c 1587 b93d 9cc7 acbd
00000170: ebfa 3cbd 57cb 9d3d 02f0 423d c69c 7fbe
00000180: f1c2 18be 1215 9c3d 0d7a 243e 87ef da3d
00000190: 28a4 65bd 0c05 183e 979e 63bd 5769 173e
000001a0: 4da2 68be 10a4 b6bd f7ba ec3d 2ed3 d03d
000001b0: f39a 39be bab2 d33d d53e 52b8 7823 b73c
000001c0: 84d1 bf3d 20c0 123e 1b01 db3d 8820 b3bd
000001d0: f1fc a23d 8da2 72be e880 c9bd e8dc 21bd
000001e0: 4cc0 833d 59c5 dbbc 7a37 193d 3bee 6cbd
000001f0: 4198 f3bc 74df 543e fc94 74bd 3ffd ccbd
00000200: a8ad 6dbd 2bd0 67bd d6b9 39bd b9ca 613e
00000210: a925 083e bc7d 6dbc 679f 75bd c9f7 ae3d
00000220: 5cdf 913d dfca 8f3c 0b35 de3c 9659 eabc
00000230: f398 5b3e 1bf4 7dbd 0925 29be aaaa e93d
00000240: 9154 983d 9ac4 a4bc 178c 1abe b4ba 9a3d
00000250: fad0 26be fe43 a9be bffd c03c f71f cc3c
00000260: 4075 203e 2e9a 8cbc 95bd 89bd 3673 813d
00000270: e0a3 d63d ef13 313e 301c 17bd d786 55bd
00000280: b869 0a3e 4b30 2dbe b24e 4bbe 16d3 c23a
00000290: cf13 303d 7349 963d 7590 583c 3e82 79be
000002a0: a800 2dbc 4b45 2f3e cb6a 67bd a19d 94bd
000002b0: 65fb 093e d142 24bc 815b 64bc c55d 2e3b
000002c0: 99a9 123d 9c67 3c3d 7f76 533d fa5f 4cbd
000002d0: d6a9 183e 99ac 62bd 7136 04bd 9499 053e
000002e0: 743e c6bc b4cd 4ebe a337 e9bd 8afe 9cbd
000002f0: 7ab6 bc3c 24a3 8fbe c031 203e 1d3a 263e
00000300: c770 1f3d 88e5 463d c7a9 483e 7fe1 00be
00000310: 80a6 553d 7f5e 9a3d 78bf 0a3e 84b7 1a3e
00000320: b109 f9bd 9e6c 643b d9dc 983d de1e 17be
00000330: d087 573e ce14 803c fa23 5fbd d12d 3cbe
00000340: 61fe 47bb d427 3abe 6e05 6c3e affd 613e
00000350: cdc6 e7bd b33b 4bbc d406 ca3d 1d0f f83d
00000360: 8560 fb3c b046 a0bd b271 24be f084 c6bd
00000370: 431a 0ebe 9cf9 153e 4444 a03d d11c 6cbd
00000380: ba01 73bd 1531 143e 75e4 a93d 5b4f 813d
00000390: abb1 fabd 39a6 1a3e 9f42 24bb 1fad 24bc
000003a0: 18b4 30be 51e5 4fbd 72a6 0abc ec9a 31be
000003b0: 80bf d83c 141a 893d a735 8fbe 39ac afbd
000003c0: 3efe 993e 9a6b 853e d6ef 2e3d 4ba5 c93d
000003d0: afb0 463e 2550 9cbc d1bb 63be a6a3 16be
000003e0: ac66 0abe f01b b33d 2781 6b3e c943 11bd
000003f0: 1943 5fbd 7953 25be f0e1 853d 758e 553e
0.051897723 0.066825904 -0.07300943 0.009466977 0.060253717 -0.10658649 -0.054962203 -0.11586785
0.033768117 -0.054756477 0.09655117 -0.07823456 0.09011195 0.20229816 0.034267616 -0.20471863
-0.013055823 0.0010243129 0.29752436 -0.11902416 0.06756929 -0.21291451 -0.08824116 0.021643536
-0.048016388 0.09569041 -0.1810714 0.09507774 -0.14241351 -0.11351255 0.21178067 -0.12876883
0.0759954 0.08428072 -0.05692905 0.21798602 -0.004902162 0.05009297 0.01638314 0.10911806
0.14589429 -0.024133498 -0.10037891 -0.35394216 -0.12795524 0.14707562 0.17835943 0.13069025
-0.1351874 -0.04516578 0.08348376 -0.17001097 0.1154552 0.1329309 0.100915186 -0.060563616
0.11026091 -0.2058976 -0.08923917 -0.033131473 0.12782705 -0.09764469 -0.25937524 0.08357018
-0.006208228 0.082831524 -0.058379684 -0.025716053 0.10958528 0.005731053 0.2526165 0.067347705
0.021097291 -0.014762108 -0.18623304 0.14861088 0.09359051 -0.22273386 0.07031963 0.10878465
-0.05611845 0.08018163 -0.21195677 -0.31786892 -0.050853964 0.07093373 0.08268198 0.051685475
-0.110301115 0.011822523 0.09058968 -0.0843651 -0.04613773 0.077047996 0.04759217 -0.24962148
-0.14918114 0.07621206 0.16062184 0.106902175 -0.056064755 0.14845675 -0.055571165 0.14786278
-0.22718163 -0.08918011 0.11559098 0.10196529 -0.18125515 0.10336824 -5.012642e-05 0.02235578
0.09366134 0.14331102 0.1069357 -0.08746439 0.07958401 -0.2369482 -0.0983904 -0.039517313
0.06433162 -0.026827501 0.037406422 -0.05784438 -0.029735686 0.20788366 -0.059712395 -0.1000924
-0.05802694 -0.05659501 -0.045343243 0.22049989 0.13295616 -0.014495309 -0.05996647 0.08543355
0.071226805 0.017552791 0.027124902 -0.028607171 0.21445064 -0.062000375 -0.16518034 0.11409505
0.07438005 -0.020113278 -0.15092503 0.07555142 -0.16290656 -0.33059686 0.023558496 0.024917586
0.15669727 -0.017163362 -0.06725613 0.06320803 0.104804754 0.1729276 -0.036892116 -0.052130546
0.13516891 -0.16912954 -0.19854239 0.0014863934 0.04298764 0.07338228 0.013218035 -0.2436609
-0.0105592385 0.17116277 -0.05649833 -0.07256628 0.13474806 -0.010025696 -0.013937832 0.0026606184
0.035806272 0.045997247 0.05162668 -0.049896218 0.14908537 -0.055340383 -0.032278482 0.13046867
-0.024199702 -0.20195657 -0.11387565 -0.07665737 0.02303623 -0.28054154 0.15643978 0.16233106
0.038925912 0.04855874 0.19596015 -0.1258602 0.05216074 0.07537555 0.13549602 0.15109068
-0.121600516 0.003485478 0.07463998 -0.14757869 0.21047902 0.01563492 -0.05447767 -0.18376853
-0.0030516612 -0.18179256 0.23048946 0.22069429 -0.11317215 -0.01240437 0.098645836 0.12112258
0.030685673 -0.078259826 -0.16058996 -0.096933246 -0.13877206 0.14646 0.07825521 -0.05764467
-0.05932782 0.14471848 0.08295528 0.06313964 -0.12240919 0.15102471 -0.0025064123 -0.010051041
-0.172562 -0.050755803 -0.008462535 -0.17344254 0.026458502 0.06694427 -0.2797062 -0.08577771
0.30076784 0.26058656 0.042709194 0.0984598 0.19403337 -0.019081185 -0.22239615 -0.14710864
-0.13515729 0.08745563 0.22998486 -0.035465036 -0.05450735 -0.16145124 0.06537235 0.20855124

bn2.weight f4 [16]
00000000: 8efe 883f e737 893f 81c7 a73f 294c ae3f
00000010: e275 713f 57f0 743f b8a3 a63f 15a6 c33f
00000020: ff82 8b3f ec76 783f 0300 8a3f 211b 9e3f
00000030: bf8c 933f 5ff8 963f 37d5 9a3f 90c0 803f
1.0702684 1.0720185 1.3107759 1.3616992 0.943205 0.9567923 1.3018713 1.5285059
1.0899352 0.9705646 1.0781254 1.2352029 1.1527327 1.1794547 1.2096318 1.0058765

bn2.bias f4 [16]
00000000: 7699 a3be 5f0e a8be 1265 0abf 2b10 22bf
00000010: b028 d1bd 828e 37be 0244 27bf 19cf 40bf
00000020: 15f6 c4be 1de3 3cbe a93a a1be 556d 08bf
00000030: deb2 09bf aaf9 d7be 4233 19bf d380 46be
-0.3195302 -0.32823464 -0.5406047 -0.6330592 -0.10212839 -0.17925456 -0.65338147 -0.75316006
-0.38468996 -0.18446012 -0.31490067 -0.5329183 -0.53788555 -0.42182666 -0.5984384 -0.1938508

bn2.running_mean f4 [16]
00000000: 8bab f0b9 1e65 9039 9056 fab9 641c 2ab9
00000010: 8755 69b9 34ad 7839 405e 6238 f62f 7ab8
00000020: 0a3e 883a bfe3 083a d960 1a3a 961d 4a38
00000030: c9c3 193b 7a93 8aba 667e 8c3a 1451 01b8
-0.00045904177 0.00027541158 -0.0004774821 -0.0001622304 -0.00022252473 0.00023715646 5.3970376e-05 -5.9649312e-05
0.0010394466 0.0005221925 0.0005889065 4.8188107e-05 0.0023462644 -0.0010572516 0.0010718822 -3.0831507e-05

bn2.running_var f4 [16]
00000000: 3af0 a53b 4eb9 803c 4572 143d a453 083d
00000010: 9eb9 8e3a 6411 793a 2ddf 573c b21b 123c
00000020: 71a6 7a3c ba55 f83c d5fa 603c f2cd 013d
00000030: 755d c63d dad2 183c ba24 043d 8047 283c
0.0050640376 0.01571336 0.03624179 0.03328289 0.0010889058 0.00095011876 0.013175768 0.008917736
0.015298472 0.030314315 0.013731678 0.031690545 0.09685794 0.009327615 0.032261588 0.010270953

conv_sep.0.weight f4 [16, 1, 1, 16]
00000000: 2516 65be 74b9 0ebd aa12 92be 0638 fcbd
00000010: 5405 ddbd 385a 3abe 38ce e9bd 60ac 10be
00000020: 3e41 a4bc cdc6 033e 9ab4 2a3d 69d4 bd3c
00000030: c65e 8dbc 3c6e c3bd f414 aabd f2f2 5b3e
00000040: 6e65 19be 3bcc 79be 69b5 80be c40f 6fbe
00000050: 606c bebd a8a1 4fbe 896b ebbc eb92 9a3d
00000060: 39d0 08bd 7357 3e3e 571f 163e 0394 16be
00000070: c7f9 50be 8ab8 463c 0bed a8bd 7c07 383d
00000080: b2a0 4c3e 109c d73b 0ddd 6c3d b781 803e
00000090: 0162 093e 8978 0d3e 843f 643d e72e 87bc
000000a0: 1795 4c3e 85b1 403c af2f 433e 6317 963d
000000b0: 0d08 7e3e d30e ea3d 18c6 5d3e 4b84 06be
000000c0: 8179 12be b5c7 b1bb a2a8 43be d387 2abe
000000d0: d011 03bd 28d0 81be 2e4e 13bd a4f7 61be
000000e0: 8da7 cabd acef 13be 4d76 dbbd 0eb3 37be
000000f0: 18ab 3dbe 8d96 5bbd 2c3e 91bd 739a 143c
00000100: 891a b3bc ee1d 39be c209 24be 02ac 78be
00000110: 4cb3 b1bc ea88 c6bd 2e75 ecbd bf41 13be
00000120: f052 cf3d eca7 51bd 1e9e a53d 6595 d2bc
00000130: f8a1 273e 01aa 983d e164 d33b 2d5f 7a3e
00000140: 14ce 44be 6901 04be f985 9d3d 0cbf 9dbd
00000150: c246 edbc aabb eebd 4dd8 463c e456 7abe
00000160: 1efc 93be 225c 44be 2d0a e63c 4239 7abc
00000170: cd4e 153e a36f f3bb ef22 313e 23ba d63d
00000180: 3d39 f93d 979d ff3d 741e 933d e6dd c63d
00000190: 0915 2b3e a09c 033e d758 d73d adcc 3b3b
000001a0: 8100 2d3e 8e47 403e 016a 003e d42f c63d
000001b0: 590b 6c3d 7d32 07bd b4a8 563e 4f6a 3e3e
000001c0: f0c2 5d3c 47d5 993d 9011 8bbd cab2 48be
000001d0: ad9f 19bd 3b96 09be b983 5dbe 405f a0bd
000001e0: 163d 57be 012f 80be de80 7fbe 2bee 2ebe
000001f0: 11db 15be 0926 57be a4a4 69bd d8b1 373c
00000200: 1702 be3d 2f79 a83c 6765 8ebd 8955 c7bb
00000210: 88d4 e03d d815 543d 3bb4 0dbe 5502 84be
00000220: 1e72 65be 0d12 0ebe f7f5 643d 612a 06b9
00000230: 7063 ccbd c68c 5abe 1dfa 0fbe e2fc 0c3d
00000240: b840 4bbd 42c0 8bbe 907f a4bd 944f efbd
00000250: 93b0 7fbe 18da eb3b 9a1d 11bd 1639 84be
00000260: 8026 de3b d353 2d3e 00d4 5ebd 50d9 713e
00000270: f807 053e c3bc d2bd 3f05 acbd 54b2 4dbe
00000280: 61cd 543e b21b 653e e279 833e 35d6 4e3e
00000290: 34e6 bdbc 5e48 483d 91c0 39be f5dc 64bc
000002a0: 0c9c a3bd 86a2 26be 9aa8 133e 9e23 203e
000002b0: a5f8 763e 68a9 8b3e 2b97 3d3e c8ad cd3c
000002c0: 8b79 3b3e 3007 c43d efd4 d83d 5a21 4c3d
000002d0: 25fe 09bc 0db3 7dbc 5eda 0b3d 5f21 763d
000002e0: 8d57 2abd 2596 273d bab1 3b3e 5005 533d
000002f0: 07fd b73e 0281 893e 1b16 513e 15db 033e
00000300: e25d 89be 9286 2fbd 5e75 b3bd d5ca f0bc
00000310: 501f 68be b7e8 3dbe 5fac 2abe 4d12 b4bd
00000320: 14d6 76bd dabf f9bd a08a 09be 62f3 5f3c
00000330: 513a 8d3c d9ea 63be 49ef f1bd 46cc 723d
00000340: 6b79 cfbb 920f 6b3c f745 563e 2ae8 9e3e
00000350: 0491 e93d f1a7 48bb 3b75 413b 4782 9abd
00000360: 80e4 f0bd b997 d43d c39e 1e3e 3752 82bd
00000370: 8f25 1f3e 9b8c 85bc 42e9 513e c7f4 373e
00000380: a036 613c c673 04bd 9e30 e33d fbd0 a1bd
00000390: 82fe 3d3d a987 133d dc20 083e 7da6 4d3d
000003a0: a1c0 e73d 3e03 c33c 5871 173e 1d77 373e
000003b0: 6d7f d23d db3e 7c3e 060c 5c3e 3d1b 473e
000003c0: 3255 1bbd 49ea d03d 929b b53d fce4 0d3e
000003d0: 03d2 323e e1ce 1dbd a1ba 55be 61de 67be
000003e0: 53d8 86bd 3c41 b5bd 8135 61be f898 70be
000003f0: 9255 9e3c 1886 b63c 05fe 0fbe 7e62 78bd
-0.22371729 -0.03484483 -0.28529865 -0.12315373 -0.10792032 -0.18198478 -0.11416286 -0.14128256
-0.020050641 0.12868805 0.04167614 0.023172574 -0.017257106 -0.0954251 -0.08304778 0.21479395
-0.14980099 -0.24394314 -0.25138405 -0.23345858 -0.09298015 -0.2027651 -0.0287378 0.07547554
-0.0334017 0.18588047 0.14660393 -0.147049 -0.20407782 0.0121289585 -0.08248337 0.044929013
0.19983175 0.0065798834 0.057827998 0.25098965 0.13416292 0.13815512 0.055724636 -0.016501857
0.19978748 0.011761074 0.19061159 0.073286794 0.24807759 0.11428609 0.21657598 -0.13136403
-0.14304163 -0.0054254183 -0.19107297 -0.16653375 -0.03199941 -0.25354123 -0.03596323 -0.22067124
-0.09895239 -0.14446896 -0.107159235 -0.17939398 -0.18522298 -0.053610373 -0.070919365 0.009070027
-0.021863239 -0.18077824 -0.16019347 -0.24284366 -0.02169194 -0.09694083 -0.11545788 -0.14380549
0.10123241 -0.051185533 0.08086799 -0.025706002 0.1637038 0.07454301 0.0064512347 0.24450369
-0.19219238 -0.12891163 0.07691569 -0.07702455 -0.028964404 -0.11656888 0.012136531 -0.24447209
-0.28903288 -0.19175771 0.028081024 -0.01527244 0.14580841 -0.0074290796 0.17298482 0.104847215
0.121691205 0.1248123 0.07183543 0.097102925 0.16707243 0.12852716 0.10514992 0.0028655932
0.16894723 0.18777296 0.12540437 0.09677091 0.05762801 -0.033007134 0.20962793 0.18595241
0.013535246 0.075113826 -0.06790459 -0.19599453 -0.037505794 -0.13436215 -0.2163228 -0.078306675
-0.21019396 -0.2503586 -0.24951503 -0.17083041 -0.14634348 -0.21010603 -0.05704178 0.011211835
0.09277742 0.020565597 -0.06952935 -0.0060831946 0.10978037 0.051778644 -0.13838284 -0.2578303
-0.22406814 -0.13874073 0.055898633 -0.00012795023 -0.09979904 -0.21342763 -0.14060254 0.034420855
-0.049622267 -0.2729512 -0.08032143 -0.116851 -0.24969701 0.0071976297 -0.03542862 -0.25824803
0.006779492 0.16926508 -0.054401398 0.23618054 0.12991321 -0.1028991 -0.08399438 -0.20087558
0.20781471 0.22373846 0.25678927 0.20198901 -0.023181058 0.04889714 -0.18139865 -0.013968696
-0.07988748 -0.16272935 0.14419785 0.15638587 0.24118288 0.27277684 0.18514697 0.02510728
0.18308084 0.095716834 0.10587489 0.049836494 -0.008422409 -0.015484584 0.034143798 0.06009042
-0.0415874 0.040914673 0.18329516 0.05151874 0.35935232 0.26856238 0.20418589 0.12876542
-0.2682944 -0.042852946 -0.087626204 -0.029393593 -0.22668195 -0.18545805 -0.16667317 -0.08792553
-0.060262755 -0.12194796 -0.13431787 0.013668867 0.017239721 -0.22257556 -0.11813218 0.05927684
-0.006331613 0.014346974 0.20925127 0.31036502 0.11404613 -0.003061768 0.0029519338 -0.0754438
-0.11762333 0.10380501 0.1549025 -0.063633375 0.15541671 -0.016302397 0.20499137 0.17964469
0.013745934 -0.032336973 0.11093257 -0.07901188 0.046385296 0.036018047 0.13293785 0.050207604
0.11316038 0.023805257 0.14789331 0.17916532 0.10278211 0.24633352 0.21488962 0.19443984
-0.037923045 0.10200936 0.08867563 0.13856882 0.17462926 -0.038527373 -0.20871975 -0.22643425
-0.06584229 -0.08850333 -0.21993066 -0.23495853 0.019327912 0.022280738 -0.14061745 -0.060640804

conv_sep.1.weight f4 [16, 16, 1, 1]
00000000: 1213 00bd 441f 423e 36ff 403e d8f2 0d3e
00000010: 6300 6b3e d42b 823e d1d8 52be 3c3a f7bd
00000020: bf54 5d3e 8c36 be3c 0b38 5d3d 534f 12be
00000030: 61aa e33d 5802 68bc e86b 0a3e 08fb 333e
00000040: ffdf 55be e875 44be 3592 92be fc8a c8bd
00000050: 3091 6e3e 5f5f 7e3d a0a5 8fbd 5a1a 813e
00000060: def2 223d 88a9 f13c 0302 763d 6cc0 20bd
00000070: 10e8 32bd 70e2 23be 30a7 febc 2a9f 263e
00000080: 1c9e a4bd b45e b73d dcf4 c23d d3ca afbb
00000090: 283b 7cbd 2ec9 1a3d 91d0 013d 01a0 743d
000000a0: d211 2fbe 8c99 6bbe eb77 7f3e 7d1a df3d
000000b0: 61b3 883d 6246 a33e ba6d 9e3d 7d6f e6bd
000000c0: b2fc 25bd c01d 023e decc d4bd 2759 9ebd
000000d0: cdbb a63d eee9 21be e400 fb3d 765b e8ba
000000e0: 8ec0 24be 5ea9 9ebc f043 2bbe 9451 843e
000000f0: 41fe 823c dfca 57be 046b 1abd 161a 953e
00000100: 98fd 153e 949d b33d 7191 993d 88ab 7a3e
00000110: 2eb8 adb9 1956 a5be ec9c f1bd edf3 21be
00000120: cdd2 7cbd 05e3 ff3c e012 263e fc04 1bbe
00000130: 59db 6d3d 6061 26be 9ed1 58be 238c 16be
00000140: 56c6 f6bc 6ca5 af3d ae73 5e3e 7c51 053e
00000150: a8ea 643d 09d1 13be 497c 5bbe e92c 59bc
00000160: f0be a7be a63d cfbd 02a1 a2be 8f97 f9bd
00000170: 7e3c 1fbe b825 df3d 69f1 d03d c874 883e
00000180: 2f62 c9bd d23f 8cbd ac52 223e d62b 4ebe
00000190: 0dc7 d83d d9b9 3d3d 57ac dd3c 9969 39be
000001a0: c6ce f6bc de1b bfbe 1e61 cb3d 8c16 663d
000001b0: bc5b 2cbe 21f1 2b3e 442b f8bd d2c8 653d
000001c0: 7c01 d73d 1c56 843e bcc2 453e a9f8 013e
000001d0: 2dd6 3ebe 45db 163e cea3 1a3e 8e83 133d
000001e0: b479 20bd 1871 1d3e 275b 1cbe 3c40 093e
000001f0: 8ced 6d3d a367 01be 2c54 2a3b 5688 d93b
00000200: 8d21 1bbe fcbc 44be b0e4 333d 2f07 3b3e
00000210: 562a 08be 7c24 d43d 4684 18be 48f4 4e3e
00000220: 1e43 53be eff1 a03d 5bb6 063e 70f8 8cbe
00000230: 6faa 37be a0d3 193e 7b20 65be ffd7 84bb
00000240: 2250 15bd 4318 2cbe 0483 c53d 2a61 383e
00000250: 8bde 01be e92f b7bd 63cf 16be 4d02 17be
00000260: 2f08 ee3c 1310 9b3d 2950 4ebe 393c 9e3e
00000270: 227e 173e 0aae 573d 4546 8bbe 1434 c3be
00000280: 312f 8a3d e092 2b3e 6290 4cbe cb2a 9bbe
00000290: 91b7 023e 42af 323e 5286 c53d 32c2 66bc
000002a0: 6bc5 843d 62d3 863d 5816 12be f6b5 4ebd
000002b0: cf13 893e 59d4 803d 0ce2 ecbd 4592 49be
000002c0: 11c7 1cbd be5b 0a3e 0d55 583d 4067 32be
000002d0: a092 933e c26b 083e 7377 bd3d 61a6 433e
000002e0: 3d79 1e3e 79b1 433d f346 bcbd 8c9b 47be
000002f0: bb09 30be 36e0 74be 9b88 64be b4b4 efbc
00000300: 1402 34bc f321 48be e1bf 823d 7428 083d
00000310: 26a4 a0bd 3867 983d 1eb8 1a3c 2cd4 0fbe
00000320: 7c00 15be a81a 483e 0dd4 db3d 22de db3d
00000330: eb34 2cbe b18d a13e dc57 f33d c84f 8d3d
00000340: 0161 a43e 39e5 373e fbe5 58bd 55f3 07be
00000350: 6214 45be 40ae 23be 5125 a63e 4ef9 40be
00000360: 8eb8 f6bc 8b1e 413e c86f 873d 5411 2abe
00000370: 05d2 08be 88c7 473e 9f80 573e cb36 89bd
00000380: 2e7a 363e 5ab9 dabc 07b0 123d 0b49 5b3d
00000390: 600a ed3d fe9a 223c 5422 4a3e d35c 97be
000003a0: 9da3 98bc 2eef a93d e90b 8f3d 5277 4abd
000003b0: 4e99 b0bd c28f 23be d443 29bd 94ff c13d
000003c0: ca6a a03e ab68 203e 144b 18be f126 90bb
000003d0: 40d4 0b3e 0131 08bd b74a 8e3e 07fd 4e3e
000003e0: 294d 0fbd 5823 313d 6fed 80bd 3911 bbbd
000003f0: 3154 27be 0011 28be 870b 463e f9a3 31be
-0.031268187 0.1895724 0.18847355 0.13862169 0.22949366 0.25424063 -0.20590521 -0.12071654
0.2161436 0.02321937 0.054008525 -0.14288072 0.111164816 -0.014160715 0.13517725 0.1757623
-0.20886229 -0.19185603 -0.28627172 -0.09792134 0.23297572 0.06210267 -0.07014012 0.25215417
0.039782397 0.029499784 0.060060512 -0.039246008 -0.043678343 -0.16004348 -0.03108558 0.16271654
-0.080379695 0.0895361 0.095193595 -0.0053647547 -0.061579853 0.037789516 0.031693045 0.059722904
-0.17096642 -0.23007792 0.24948089 0.10893724 0.06674839 0.31889635 0.077357724 -0.112517335
-0.040524192 0.12706661 -0.10390638 -0.07731848 0.08141289 -0.15811893 0.12256029 -0.0017727453
-0.16089079 -0.01936787 -0.16725135 0.2584349 0.015990378 -0.21073483 -0.037699714 0.29121464
0.1464752 0.0877029 0.07498444 0.24479496 -0.00033134356 -0.3229225 -0.117975086 -0.15815707
-0.061724473 0.031236181 0.16218138 -0.1513862 0.058070514 -0.16248083 -0.21173713 -0.14701895
-0.03012387 0.085764736 0.21723816 0.13019365 0.05588785 -0.1443521 -0.2143413 -0.013255336
-0.3276286 -0.101191804 -0.31763464 -0.12187111 -0.1555042 0.10895866 0.10202295 0.26651597
-0.0983318 -0.0684811 0.1585185 -0.2013391 0.10584841 0.046319816 0.027059717 -0.18106689
-0.030127894 -0.37325948 0.09930633 0.056173846 -0.16831869 0.16791202 -0.12117627 0.05609972
0.1049833 0.25846946 0.19312567 0.12692513 -0.18636389 0.14732082 0.15101549 0.036014132
-0.039178565 0.15375173 -0.15269147 0.1340341 0.05808787 -0.1263719 0.0025990112 0.006638567
-0.15149517 -0.19212717 0.043919265 0.18264459 -0.132974 0.10358521 -0.14894208 0.20210373
-0.20631072 0.07858645 0.131555 -0.27533293 -0.17936109 0.15022135 -0.22375672 -0.004054069
-0.036453374 -0.1680613 0.0964413 0.18005815 -0.1268255 -0.08944685 -0.14727549 -0.14746971
0.029056637 0.07571425 -0.20147766 0.3090532 0.1479421 0.05265621 -0.2720205 -0.3812567
0.06747282 0.16755247 -0.19976953 -0.30306086 0.12765338 0.17449668 0.0964476 -0.014084386
0.06482967 0.06583287 -0.14266336 -0.0504665 0.26772925 0.06290502 -0.115665525 -0.19684704
-0.038275782 0.1351156 0.052815486 -0.17422199 0.28822803 0.13322356 0.09251299 0.19106437
0.15475936 0.047776673 -0.0919322 -0.1949293 -0.17191212 -0.23913655 -0.22317736 -0.02926097
-0.010986824 -0.195442 0.06384254 0.033241704 -0.07843809 0.074415624 0.009443311 -0.14045781
-0.14550966 0.19541419 0.10733805 0.10735728 -0.16817062 0.31553414 0.11881992 0.06899983
0.32105258 0.17958535 -0.0529537 -0.13276418 -0.19246057 -0.1598444 0.32450345 -0.18845102
-0.0301173 0.18859307 0.066131175 -0.16608173 -0.13361366 0.19509709 0.21045159 -0.06699904
0.17820045 -0.02669971 0.035812404 0.053536456 0.115742445 0.009924648 0.19739658 -0.29563007
-0.018632704 0.08297573 0.069846936 -0.0494302 -0.086229905 -0.15972808 -0.04132445 0.09472576
0.31331474 0.15664928 -0.1487239 -0.0043991734 0.13655186 -0.03324986 0.27791378 0.2021371
-0.034985695 0.043246597 -0.06295287 -0.09134144 -0.1634071 -0.16412735 0.19340335 -0.17347707

bn3.weight f4 [16]
00000000: 3780 b03f 9548 b53f 4f79 b93f a462 b83f
00000010: e8a8 af3f 2543 bd3f c680 993f 6607 a73f
00000020: c58c b93f 7fa2 b33f 44d6 b53f d909 aa3f
00000030: 0d39 ac3f 7b18 a53f a7db 9a3f 62b8 b33f
1.3789128 1.4162775 1.4490145 1.4405103 1.3723421 1.4786116 1.1992424 1.3049133
1.4496084 1.4033965 1.4206014 1.3284255 1.345491 1.2898096 1.2098283 1.4040644

bn3.bias f4 [16]
00000000: 0328 523d fb76 10b9 a0e7 883d 3694 743d
00000010: fec9 ba3c 89fd d53d 46ac 9d3d 4b13 453d
00000020: 7708 153d 1ded 253d 9140 8e3d 7414 963d
00000030: 77be 623c 15e5 c53c 65fa 1b3d e777 143c
0.05130769 -0.00013777234 0.06684804 0.059711657 0.022801396 0.104487486 0.07698874 0.048114102
0.036385026 0.040509332 0.06945909 0.0732812 0.013839356 0.024157086 0.03808059 0.00906179

bn3.running_mean f4 [16]
00000000: 4a8b 993d dc26 003e 4242 c1bd e34e 86bd
00000010: d3b3 2e3e ad54 c13b aa5d 6bbe 11ba 1bbc
00000020: f9e2 353e 341a b13d 5166 393d 955f 7c3d
00000030: 186c 60be e7ed 7fbe 5606 15be db56 e3bc
0.074972704 0.12514824 -0.09436466 -0.06558015 0.17060785 0.0058999867 -0.22984949 -0.009504811
0.17762364 0.08647576 0.045263592 0.06161459 -0.21916234 -0.24993096 -0.14553198 -0.027751377

bn3.running_var f4 [16]
00000000: ca28 f93d 7b03 0f3e ee01 0c3e 2ab4 ef3d
00000010: 69c9 053e 36ba 553e 654f 1b3e f5a7 c93d
00000020: 6c3d 203e 56d3 2e3e b3e9 023e 8654 093e
00000030: a3ad f33d a0c7 453e 8e0b ad3d ccca 133e
0.12165983 0.13966171 0.13672611 0.117042854 0.13065113 0.20871815 0.15167005 0.098464884
0.1564843 0.17072806 0.12784462 0.1341115 0.11898353 0.19314432 0.084494695 0.1443283

eca.conv1d.weight f4 [1, 1, 5]
00000000: 7c58 6f3e 1201 403f 07d1 833f 32f6 033f
00000010: 532d b03e
0.23373598 0.75001633 1.0298165 0.5154754 0.3440958

classifier.weight f4 [4, 560]
00000000: bc39 003d 985f c9bb 0239 543d faa3 733c
00000010: c392 db3d 8be1 e5bc 8c17 713d b018 9cbd
00000020: 4bf7 67bd f043 503d 1cf2 063b 83b8 093d
00000030: fac7 c73d 95fc babc 9a03 443d b590 753d
00000040: 853d 9e3c cfcf 413c 30ea 6abd 54f4 733d
00000050: 6590 7a3c 5c6c 9bbc db45 cb3c fae6 4e3d
00000060: 18d4 03bd d75b 7d3d 5308 793d b844 1c3c
00000070: 2f57 b13d 5c34 e03d ed68 8bbc 9db6 023d
00000080: f182 22be 6e88 3ebd e033 133e 0f62 603d
00000090: 1e13 fd3c e4ae 963d 220d d3bc 6d5e 953c
000000a0: 8db6 fe3d ecfb 3d3d 3b44 96bc 60eb 18bd
000000b0: e71b ab3d cc24 2dbc bda0 adbd e33e 88bd
000000c0: 218b 62bd 59f8 7bbd b2fa 4bbd 9089 fabd
000000d0: 869a 98bd 716d 95ba f8fe 8fbd 0e9e 14bd
000000e0: 590b 51bd d1ee 583d cec5 63bd 31a4 5f3d
000000f0: 8702 6a3c 546c 8b3d 53a8 c7bd c289 6b3c
00000100: 5ad3 8ebd 90fc 9abd 389a a73c 037e 5a3d
00000110: 67a1 4abd ccd7 ecbd 132d 4d3e efbf adbd
00000120: 9cd5 64bd f8ad ae3d 215f a03d 59fd 183e
00000130: 713c 393d 010e c43c 0985 603e 236e a6bd
00000140: 23f3 143c 39bf b9bb bf6e b3bc f52c 043c
00000150: 34af e83d 3f50 963c f447 01be 430d 023e
00000160: f8af d6bd cb4d bebc bfc1 8fbd 622a ab3c
00000170: a950 4abd ed1f da3d 009e a03c 7e60 0b3c
00000180: c3af 23be a0d1 b13d 1893 0e3e 0667 09be
00000190: daf9 a03d 75a8 a4bc 4c9e f7bb 599a 2c3e
000001a0: fad3 8d3d 2d07 983d c8e2 6a3d 7f55 11bd
000001b0: 9f95 e73c b35b 923d f7f7 1abe ed34 543d
000001c0: 71fa b6bd 49c8 cbbc c773 453d 83e1 f63c
000001d0: 2d4e d13c 5159 febd eb9a c8bd 409b 193e
000001e0: 4df4 07be c851 c23d 2c8d 3fbd f93a 703b
000001f0: 84e6 3bbd 28ba bc3b 460e a53d ae54 303c
00000200: bdd7 903b 30b9 143d 24d5 10bd 5f08 2b3d
00000210: c376 8dbd 8d0e b6bc 5bff 52bd ab6f 78bb
00000220: 5c7a a6bd ba70 b23d ace8 e9bc 4301 60bc
00000230: f969 e3bd b59d fc3b 9bd9 ae3c 21bf 37be
00000240: af3e 9e3d be4a 1cbe f94f ac3d a103 6b3d
00000250: ecd2 82bb a436 023e a50c bdbc 9a87 b7b9
00000260: 96bc 353d 91b7 3e3d 26e1 a93c e9ba b33c
00000270: a062 8bbc 5959 58bd 4442 ab3d 1a0b cabd
00000280: 1352 81bd f87d 4abd 91ba acbb 8e0c 6c3c
00000290: aa1c bfbd 8c97 89bd 0f16 343c 6aaf 17bd
000002a0: 4c22 f5bc 92a8 bebc ff12 a0bd fe99 1cbc
000002b0: a654 c5bd 1c68 22be 979c 343d 8db9 0ebe
000002c0: eb0a a93d 0bcd a53b 9f1d 773d a863 b9bd
000002d0: 9092 ab3d 0a30 ee3d 4983 91bc 6a6a 203d
000002e0: 25ed ddbd d9b3 0f3d e7f7 01bd a673 17bd
000002f0: 746e 7dba afe3 3f3d 96c0 ddbc b225 b13d
00000300: ee91 e8bc 4494 83bc 5c95 f23b 2821 a63d
00000310: 219d 4ebd 2425 cd3d f203 213b a32c be3c
00000320: 77af d9bc d1df 8f3c 0cd6 8f3d 9d46 613d
00000330: 6a25 303e f99c 95bb 64eb c8bc 064a c73d
00000340: 77c7 1a3d 6c39 cbbd e721 8bbd caa0 e93c
00000350: c95b f73c 01dd 93bd ab68 ce3d 2603 13bd
00000360: 9475 e6bd c0c5 4d3c f86f c43d 2048 1cbd
00000370: e2dc 513c 4aee 293d 2fa9 0ebd 7507 023d
00000380: 6446 263d 2de5 693d afb0 3e3d 0de0 c53d
00000390: c9f3 83bc b9a9 453d 4f58 2d3d c9e9 e73c
000003a0: e9bf edbb ae26 273e edab 31bd 5f44 923d
000003b0: 3ad8 3dbc 85b3 8dbd 20dc eb3c 49ee 24bd
000003c0: c18e ec3c 0622 2c3d 436c ed3c cd0d 563c
000003d0: 8e43 16bd 4977 d23c 4861 bcbc fe3f a7bd
000003e0: 72a5 f33c 7f10 95bd d9cc 9fbe 4c4a 8c3d
000003f0: 9fcd d6bc 9679 c1bd 9769 17be 7e7f 70bb
0.03130506 -0.006145429 0.05181218 0.014870638 0.10721352 -0.028061649 0.058860347 -0.07621896
-0.05663232 0.05084604 0.0020591086 0.03362323 0.097549394 -0.022825519 0.047854997 0.059952457
0.019316444 0.011829331 -0.057352245 0.05955918 0.015293215 -0.018972568 0.024813583 0.050513245
-0.03218469 0.061855163 0.060798954 0.009537868 0.08659207 0.10947487 -0.017017806 0.031912435
-0.15870263 -0.04651683 0.14375257 0.054781016 0.030892905 0.073575765 -0.025763098 0.018233502
0.124371625 0.04638283 -0.018343082 -0.037333846 0.08354931 -0.010567855 -0.08477924 -0.0665262
-0.055308465 -0.06151614 -0.04979963 -0.12233269 -0.07451348 -0.0011400414 -0.07031053 -0.036283545
-0.051036213 0.052962128 -0.055608563 0.054599945 0.014282829 0.06807771 -0.09748902 0.014376106
-0.06973906 -0.07567704 0.02045928 0.05334283 -0.04947033 -0.115645975 0.20036726 -0.08483874
-0.055867776 0.08529276 0.078306444 0.14940394 0.045223657 0.023932459 0.21925749 -0.08126476
0.009091171 -0.0056685475 -0.021903394 0.008067359 0.11361542 0.018348811 -0.12625104 0.12700371
-0.10482782 -0.023230454 -0.07019376 0.020894233 -0.04939333 0.106506206 0.01960659 0.008506892
-0.15985017 0.08682561 0.139233 -0.13418207 0.078601554 -0.020099858 -0.0075567123 0.16855754
0.06925197 0.07423244 0.05734518 -0.035481926 0.028269587 0.071463965 -0.15133654 0.051808286
-0.08934487 -0.024875777 0.048206117 0.03013683 0.025549972 -0.124193795 -0.09795173 0.1500063
-0.13276787 0.09488255 -0.04676549 0.0036656244 -0.045874134 0.0057594962 0.08059363 0.010762377
0.0044202493 0.03630942 -0.035359517 0.04175603 -0.069074176 -0.022223735 -0.051513057 -0.0037908356
-0.08128807 0.08712907 -0.02855333 -0.013672176 -0.11104197 0.00770923 0.021343997 -0.17944004
0.077268 -0.15262887 0.08413691 0.057376508 -0.003992429 0.12716156 -0.023077318 -0.0003500551
0.044369303 0.04656178 0.020737242 0.021939712 -0.017014802 -0.052819584 0.083622485 -0.09865399
-0.063144825 -0.04943654 -0.005271264 0.01440729 -0.09331639 -0.067183584 0.010991587 -0.037032522
-0.02992358 -0.02327374 -0.07816123 -0.009558199 -0.09635286 -0.15860027 0.04409465 -0.1393797
0.082540356 0.0050598434 0.060330983 -0.09052211 0.08377564 0.116302565 -0.017762797 0.039163984
-0.10836247 0.035083625 -0.03173056 -0.036975525 -0.0009667643 0.046847995 -0.027069371 0.08649768
-0.028389897 -0.01606191 0.007403059 0.08111793 -0.05044282 0.1001685 0.0024569002 0.023214644
-0.026572926 0.017562779 0.07023248 0.054998983 0.17201772 -0.0045658317 -0.024526305 0.09730916
0.03778788 -0.09923062 -0.06793576 0.028519053 0.030195134 -0.072198875 0.100785576 -0.035891674
-0.11252895 0.012559354 0.09591669 -0.03815472 0.01280901 0.041487016 -0.034829315 0.031745393
0.040594473 0.057103325 0.046555217 0.09661875 -0.016107457 0.048257563 0.042320546 0.02830972
-0.0072555435 0.16323349 -0.04337685 0.07141947 -0.011587197 -0.06919006 0.028791487 -0.04026631
0.028876664 0.042024635 0.028982287 0.013064814 -0.03668552 0.025691645 -0.022995606 -0.081665024
0.029741976 -0.07278537 -0.31210974 0.068501085 -0.026221095 -0.09447019 -0.14786373 -0.0036697085

classifier.bias f4 [4]
00000000: 3877 b2ba 3741 6ebc 25a6 18bc db10 19bd
-0.0013615852 -0.014541916 -0.009316956 -0.03736959
